src/Models/imdb/pointwise.onnx (onnx, 696807 bytes, 9 tensors)

tree_conv.0.weights.weight f4 [256, 55, 3]
-4.986e-42 4.933e-42 4.95e-42 -4.982e-42 4.905e-42 4.92e-42 -1.6010759e-07 -1.0484962e-06
3.0931414e-08 -5.214e-42 -6.232e-42 -4.934e-42 4.935e-42 -4.927e-42 4.952e-42 4.907e-42
4.92e-42 4.916e-42 6.096e-42 4.954e-42 -4.955e-42 4.909e-42 4.947e-42 4.941e-42
2.7130827e-06 -3.2150854e-06 -6.5587466e-07 -6.248e-42 4.94e-42 4.933e-42 -4.909e-42 4.935e-42
-4.955e-42 5.6348915e-07 -1.11662004e-07 1.0504527e-08 -4.91e-42 -4.966e-42 -4.924e-42 -4.931e-42
4.927e-42 -4.963e-42 -4.3281375e-06 -2.7071394e-08 2.4169256e-24 4.924e-42 -4.927e-42 -4.969e-42
4.909e-42 4.928e-42 -4.948e-42 3.2028763e-07 -4.916e-42 -4.913e-42 -4.942e-42 4.95e-42
4.921e-42 1.1551622e-07 5.982298e-07 -5.1741804e-06 6.6374945e-08 -2.3059945e-09 -4.956e-42 4.931e-42
4.93e-42 -4.924e-42 -4.919e-42 4.931e-42 4.92e-42 -1.1740283e-23 -7.669425e-24 -4.914e-42
-4.7106403e-23 -7.4047016e-25 5.061e-42 4.948e-42 -5.336e-42 4.924e-42 -4.923e-42 -4.97e-42
4.942e-42 4.905e-42 2.513e-41 4.962e-42 -1.1052816e-07 -1.1140172e-06 8.8059906e-08 -4.923e-42
4.952e-42 -4.94e-42 4.923e-42 -4.94e-42 -5.071e-42 -4.912e-42 -4.956e-42 4.909e-42
1.5148898e-07 1.0189691e-07 -4.956e-42 3.2160273e-24 1.7857528e-23 9.069973e-24 4.945e-42 4.916e-42
-4.95e-42 -1.474561e-07 -3.258331e-07 5.065182e-24 4.93e-42 -4.947e-42 -5.043e-42 4.906e-42
4.917e-42 -5.174e-42 4.95e-42 -4.924e-42 4.916e-42 -4.926e-42 4.94e-42 -4.963e-42
4.924e-42 4.921e-42 -4.942e-42 -1.1400907e-06 3.0645762e-07 7.3158503e-07 4.944e-42 -4.937e-42
4.952e-42 -9.855295e-07 -9.0815564e-07 5.190371e-07 -4.924e-42 4.91e-42 -4.913e-42 5.004e-42
-4.941e-42 5.68e-42 1.3818358e-06 -4.4895633e-06 -4.860659e-06 4.966e-42 -4.909e-42 5.011e-42
-2.1354154e-23 -1.2202039e-23 -8.505502e-25 1.8307231e-06 1.3738219e-07 1.2195856e-07 4.979e-42 -4.924e-42
4.984e-42 4.942e-42 -4.934e-42 4.934e-42 -1.2254466e-06 -6.8270283e-06 -9.110146e-06 0.01799542
-0.038172092 -0.011887531 0.018733239 -0.051857598 0.030242225 -4.905e-42 -4.94e-42 -4.916e-42
4.906e-42 -4.917e-42 -4.942e-42 5.8634985e-08 1.4892206e-07 7.226092e-08 -4.975e-42 5.053e-42
-4.968e-42 -4.945e-42 4.931e-42 4.986e-42 -4.924e-42 4.924e-42 4.942e-42 4.914e-42
4.917e-42 -4.944e-42 5.567e-42 -4.909e-42 -4.94e-42 -1.0201599e-06 2.480743e-07 3.3872243e-07
-4.935e-42 -4.919e-42 -4.959e-42 5.154e-42 -4.954e-42 4.906e-42 -1.1041396e-06 5.247193e-07
4.5683143e-07 -4.914e-42 4.937e-42 -4.965e-42 4.928e-42 -4.924e-42 4.921e-42 2.1770993e-06
1.1116668e-06 1.5809961e-24 -4.952e-42 -4.905e-42 -4.944e-42 -4.948e-42 -4.952e-42 -5.052e-42
-4.3456043e-07 4.924e-42 -4.941e-42 -4.951e-42 -4.984e-42 -4.912e-42 -1.5499046e-06 4.5959676e-09
2.3643556e-06 -2.307265e-07 3.830548e-08 -4.916e-42 -4.926e-42 5.056e-42 4.917e-42 4.933e-42
-4.924e-42 4.927e-42 2.877275e-23 -1.2559388e-23 5.015e-42 -1.4603822e-23 2.8689697e-23 -4.947e-42
-4.962e-42 -4.948e-42 4.97e-42 4.963e-42 4.933e-42 -4.905e-42 5.04e-42 5.007e-42
4.941e-42 -1.0517911e-11 -2.9780279e-07 -1.5293024e-07 4.94e-42 4.947e-42 -4.948e-42 4.919e-42
00000000: e60d 0080 c00d 0000 cc0d 0000 e30d 0080
00000010: ac0d 0000 b70d 0000 0aea 2bb4 0eba 8cb5
00000020: 73d9 0433 890e 0080 5f11 0080 c10d 0080
00000030: c20d 0000 bc0d 0080 ce0d 0000 ae0d 0000
00000040: b70d 0000 b40d 0000 fe10 0000 cf0d 0000
00000050: d00d 0080 af0d 0000 ca0d 0000 c60d 0000
00000060: 6812 3636 bfc2 57b6 5d0f 30b5 6b11 0080
00000070: c50d 0000 c00d 0000 af0d 0080 c20d 0000
00000080: d00d 0080 ae42 1735 d6ca efb3 6677 3432
00000090: b00d 0080 d80d 0080 ba0d 0080 bf0d 0080
000000a0: bc0d 0000 d60d 0080 6b3a 91b6 a08a e8b2
000000b0: 2500 3b18 ba0d 0000 bc0d 0080 da0d 0080
000000c0: af0d 0000 bd0d 0000 cb0d 0080 fff3 ab34
000000d0: b40d 0080 b20d 0080 c70d 0080 cc0d 0000
000000e0: b80d 0000 b711 f833 0a96 2035 df9d adb6
000000f0: 038a 8e33 7c77 1eb1 d10d 0080 bf0d 0000
00000100: be0d 0000 ba0d 0080 b60d 0080 bf0d 0000
00000110: b70d 0000 1117 6399 2759 1499 b30d 0080
00000120: e7ca 639a 172a 6597 1c0e 0000 cb0d 0000
00000130: e00e 0080 ba0d 0000 b90d 0080 db0d 0080
00000140: c70d 0000 ac0d 0000 0d46 0000 d50d 0000
00000150: 805b edb3 5785 95b5 721b bd33 b90d 0080
00000160: ce0d 0000 c50d 0080 b90d 0000 c50d 0080
00000170: 230e 0080 b10d 0080 d10d 0080 af0d 0000
00000180: f9a8 2234 6bd2 da33 d10d 0080 fcd3 7818
00000190: 19b5 ac19 5570 2f19 c90d 0000 b40d 0000
000001a0: cc0d 0080 6d54 1eb4 29ee aeb4 22f3 c318
000001b0: be0d 0000 ca0d 0080 0f0e 0080 ad0d 0000
000001c0: b50d 0000 6c0e 0080 cc0d 0000 ba0d 0080
000001d0: b40d 0000 bb0d 0080 c50d 0000 d60d 0080
000001e0: ba0d 0000 b80d 0000 c70d 0080 3805 99b5
000001f0: 3787 a434 2462 4435 c80d 0000 c30d 0080
00000200: ce0d 0000 8946 84b5 fbc7 73b5 f553 0b35
00000210: ba0d 0080 b00d 0000 b20d 0080 f30d 0000
00000220: c60d 0080 d50f 0000 8477 b935 0ea5 96b6
00000230: be18 a3b6 d80d 0000 af0d 0080 f80d 0000
00000240: 5386 ce99 9205 6c99 c49d 8397 2bb7 f535
00000250: 5483 1334 b7f3 0234 e10d 0000 ba0d 0080
00000260: e50d 0000 c70d 0000 c10d 0080 c10d 0000
00000270: 067a a4b5 ba13 e5b6 c7d7 18b7 226b 933c
00000280: 575a 1cbd ebc3 42bc 7376 993c a268 54bd
00000290: 8bbe f73c ac0d 0080 c50d 0080 b40d 0080
000002a0: ad0d 0000 b50d 0080 c70d 0080 d9d5 7b33
000002b0: 62e7 1f34 dc2d 9b33 de0d 0080 160e 0000
000002c0: d90d 0080 c90d 0080 bf0d 0000 e60d 0000
000002d0: ba0d 0080 ba0d 0000 c70d 0000 b30d 0000
000002e0: b50d 0000 c80d 0080 850f 0000 af0d 0080
000002f0: c50d 0080 6dec 88b5 122f 8534 a8d9 b534
00000300: c20d 0080 b60d 0080 d30d 0080 5e0e 0000
00000310: cf0d 0080 ad0d 0000 f331 94b5 70da 0c35
00000320: 6f42 f534 b30d 0080 c30d 0000 d70d 0080
00000330: bd0d 0000 ba0d 0080 b80d 0000 481a 1236
00000340: 9534 9535 b5a5 f417 ce0d 0080 ac0d 0080
00000350: c80d 0080 cb0d 0080 ce0d 0080 150e 0080
00000360: 884d e9b4 ba0d 0000 c60d 0080 cd0d 0080
00000370: e50d 0080 b10d 0080 5106 d0b5 8fea 9d31
00000380: 52ab 1e36 9ebd 77b4 5285 2433 b40d 0080
00000390: bb0d 0080 180e 0000 b50d 0000 c00d 0000
000003a0: ba0d 0080 bc0d 0000 f022 0b1a 14ef 7299
000003b0: fb0d 0000 503d 8d99 20bc 0a1a ca0d 0080
000003c0: d50d 0080 cb0d 0080 db0d 0000 d60d 0000
000003d0: c00d 0000 ac0d 0080 0d0e 0000 f50d 0000
000003e0: c60d 0000 7608 39ad b4e1 9fb4 2535 24b4
000003f0: c50d 0000 ca0d 0000 cb0d 0080 b60d 0000

tree_conv.0.weights.bias f4 [256]
6.460008e-08 -4.6785956e-07 -9.719773e-07 3.5781934e-06 1.3184236e-05 3.7493867e-06 2.8596694e-06 2.437731e-06
7.5088924e-06 1.3427188e-05 -3.6898683e-07 8.888776e-06 1.2126026e-05 5.2525793e-06 7.655771e-06 3.764954e-06
6.4684737e-06 3.0880626e-06 -7.717177e-06 3.707015e-06 -8.980689e-06 -3.7031116e-06 1.1635179e-05 1.0371558e-05
4.297671e-06 9.669607e-07 -1.446441e-07 2.9262299e-06 -3.0838607e-06 3.9255306e-06 4.0301925e-06 3.1301774e-06
2.5174488e-06 7.137806e-07 3.3735118e-06 2.9386803e-07 -1.0232239e-05 -5.653647e-06 6.8395243e-06 5.6551967e-06
9.056264e-06 6.154044e-06 -2.5091124e-06 3.1893987e-06 -4.7745e-06 -1.2386308e-05 3.90414e-06 -9.382404e-06
6.577422e-06 1.4232632e-05 2.4524497e-06 3.0945307e-06 5.3742106e-06 -5.330035e-07 5.604634e-06 6.4494684e-06
2.0832776e-07 -9.05564e-06 1.1962861e-06 1.76104e-06 2.7766305e-06 8.9775e-07 9.937912e-06 6.573492e-06
8.073919e-06 -4.1459107e-06 1.4760738e-05 9.098823e-06 2.0889127e-08 1.25305205e-05 -3.4537227e-06 7.021666e-06
1.2104021e-05 1.5805092e-06 4.0314676e-06 2.7814556e-06 -5.9561567e-06 8.227624e-06 3.9231186e-06 -1.3233588e-06
6.6446114e-06 2.2358258e-06 4.832278e-06 -2.2706003e-07 -8.514609e-06 -4.990016e-06 6.2013114e-06 -9.455193e-06
2.116803e-06 3.5083465e-06 7.488622e-07 1.1171608e-05 1.9774841e-05 1.1030345e-06 4.2268143e-06 8.2547643e-07
-7.6005625e-07 -6.503351e-07 7.8439925e-06 1.7054997e-06 1.9004292e-06 9.432045e-06 1.4712574e-05 -3.939476e-06
-7.654005e-06 7.752157e-06 1.7025494e-06 -1.7297702e-07 9.242486e-07 -1.3206549e-06 -1.5265615e-06 5.0518024e-06
5.1977827e-06 -2.2584147e-06 1.9808854e-06 -2.8187162e-06 8.787985e-06 4.325084e-06 1.0559319e-05 -5.24619e-06
-1.8027745e-06 1.1244923e-06 -2.885541e-06 5.257598e-07 8.473137e-07 3.2809533e-06 -3.0289773e-06 3.8217795e-06
-1.1238053e-05 -3.1215466e-06 -5.7781595e-08 1.9011279e-06 6.5191875e-06 4.269537e-06 2.8778911e-06 1.1500489e-05
4.868016e-07 3.0887475e-06 -2.1491789e-05 9.45747e-06 9.787311e-06 8.901566e-06 1.2337899e-05 1.5685e-05
7.554923e-06 9.204097e-06 2.9904993e-06 -7.7199786e-07 2.1057149e-06 -9.123912e-07 9.870815e-07 4.070215e-06
9.028909e-06 1.2107009e-06 -2.3931295e-06 5.741417e-06 4.2000884e-06 1.4551124e-05 -3.6905365e-06 4.917692e-06
9.8259015e-06 -7.083713e-07 1.0252024e-05 1.0316563e-05 -4.3762743e-06 7.632551e-06 1.5588676e-06 -2.842161e-06
7.0556107e-06 1.0390445e-06 5.8978535e-06 1.0916836e-05 5.5184814e-06 2.8846955e-06 2.1118437e-06 7.5468097e-06
-9.591471e-06 -1.555412e-06 2.1891058e-06 4.7103426e-06 7.393673e-06 -7.283759e-06 -9.813001e-07 2.6607188e-06
7.217954e-06 1.578279e-06 1.1577611e-06 9.688762e-07 1.0866657e-05 -9.852507e-06 -8.046339e-06 9.419299e-06
1.191628e-06 4.6084006e-06 5.1899715e-06 -5.347314e-06 4.1636854e-06 1.7477865e-06 8.580568e-06 -1.9438614e-06
-5.738568e-06 4.5970137e-06 6.641841e-06 8.4277135e-06 1.0400965e-05 -2.4549854e-06 8.193926e-06 4.9398895e-06
1.9179648e-05 1.0250296e-06 -8.3700115e-06 -7.655257e-06 8.211817e-06 4.516566e-06 1.2769003e-05 2.2691754e-06
-9.2495185e-07 5.5940595e-06 4.268269e-06 7.3378083e-06 2.642951e-06 1.0057105e-05 1.0500693e-05 1.3740188e-05
-9.914708e-07 1.1393216e-05 2.1438373e-06 8.1116295e-06 -2.886592e-06 -4.0295604e-06 2.628668e-06 2.995758e-06
4.406313e-06 6.284768e-06 9.196629e-06 9.819564e-07 4.70123e-06 5.5702576e-06 3.3324254e-06 -1.6458473e-05
1.1734883e-05 -1.2777697e-07 2.5678983e-07 2.1863323e-06 -5.766585e-06 2.7190848e-07 -6.9333896e-07 7.5797493e-06
1.1587423e-06 1.6743224e-05 7.198538e-06 7.3223837e-06 8.733393e-06 -5.618187e-06 9.318775e-06 9.1337915e-07
00000000: 45ba 8a33 212e fbb4 e374 82b5 e520 7036
00000010: dd31 5d37 f99d 7b36 bfe8 3f36 e697 2336
00000020: e5f4 fb36 5545 6137 2a19 c6b4 0121 1537
00000030: e370 4b37 503f b036 4971 0037 6ba9 7c36
00000040: c40b d936 833c 4f36 0679 01b7 08c6 7836
00000050: c4ab 16b7 f982 78b6 b734 4337 8101 2e37
00000060: b634 9036 84c8 8135 784f 1bb4 3f60 4436
00000070: 53f4 4eb6 0db8 8336 173b 8736 0a10 5236
00000080: 71f1 2836 a19a 3f35 7e64 6236 eac4 9d34
00000090: 22ab 2bb7 75b4 bdb6 117f e536 c5c1 bd36
000000a0: 5cf0 1737 d67e ce36 3962 28b6 7409 5636
000000b0: a534 a0b6 cace 4fb7 4f00 8336 1e69 1db7
000000c0: a0b3 dc36 b0c8 6e37 c494 2436 a2ab 4f36
000000d0: 1e54 b436 b913 0fb5 710f bc36 8368 d836
000000e0: b3b0 5f34 aded 17b7 1490 a035 e05c ec35
000000f0: 2656 3a36 e9fc 7035 02bb 2637 de91 dc36
00000100: 3875 0737 1a1d 8bb6 e3a4 7737 26a7 1837
00000110: ad6f b332 2d3a 5237 81c6 67b6 a79b eb36
00000120: 6012 4b37 e221 d435 0b46 8736 0ba9 3a36
00000130: ffda c7b6 6009 0a37 55a3 8336 439e b1b5
00000140: c7f4 de36 320b 1636 f424 a236 c9cd 73b4
00000150: f8d9 0eb7 e96f a7b6 dc14 d036 bfa1 1eb7
00000160: 660e 0e36 ef70 6b36 6b05 4935 b16d 3b37
00000170: 26e2 a537 fa0b 9435 0fd4 8d36 4f96 5d35
00000180: ab06 4cb5 b092 2eb5 b199 0337 86e8 e435
00000190: 4012 ff35 533e 1e37 06d6 7637 d72f 84b6
000001a0: b369 00b7 430f 0237 2783 e435 90bb 39b4
000001b0: e119 7835 5b41 b1b5 41e4 ccb5 a782 a936
000001c0: 9d68 ae36 458f 17b6 5aef 0436 2d29 3db6
000001d0: 1c70 1337 3020 9136 ee27 3137 6e08 b0b6
000001e0: dcf6 f1b5 43ed 9635 38a5 41b6 f021 0d35
000001f0: f472 6335 592e 5c36 6f45 4bb6 d63c 8036
00000200: 128b 3cb7 c37b 51b6 892b 78b3 422a ff35
00000210: 65bf da36 0b43 8f36 cb21 4136 39f2 4037
00000220: c0ac 0235 4748 4f36 4449 b4b7 86ab 1e37
00000230: 2e34 2437 ef57 1537 dffe 4e37 4893 8337
00000240: 4b80 fd36 4c6b 1a37 63b0 4836 4a3b 4fb5
00000250: e84f 0d36 0ceb 74b5 dd7b 8435 e192 8836
00000260: de7a 1737 5e7f a235 a799 20b6 66a6 c036
00000270: 7cee 8c36 9a20 7437 efaa 77b6 a702 a536
00000280: edd9 2437 e826 3eb5 1c00 2c37 4d15 2d37
00000290: e9d7 92b6 8f0d 0037 483a d135 f4bb 3eb6
000002a0: 3cbf ec36 4c75 8b35 2de6 c536 7427 3737
000002b0: 652b b936 b196 4136 33b9 0d36 9a3a fd36
000002c0: 0eeb 20b7 8dc3 d0b5 8de8 1236 890d 9e36
000002d0: 2b17 f836 0367 f4b6 37b5 83b5 cd8e 3236
000002e0: c131 f236 41d5 d335 5e64 9b35 550a 8235
000002f0: f04f 3637 324c 25b7 c3fe 06b7 9507 1e37
00000300: 07f0 9f35 dca1 9a36 8425 ae36 146d b3b6
00000310: c9b5 8b36 7d95 ea35 42f5 0f37 4973 02b6
00000320: ec8d c0b6 0c40 9a36 fbdc de36 c164 0d37
00000330: ce7f 2e37 54c0 24b6 a578 0937 54c1 a536
00000340: fbe3 a037 c093 8935 ed6c 0cb7 146f 00b7
00000350: 7cc5 0937 028d 9736 733a 5637 2348 1836
00000360: 354a 78b5 9bb4 bb36 2738 8f36 4b37 f636
00000370: 8d5d 3136 f0ba 2837 222c 3037 a885 6637
00000380: ad12 85b5 7d25 3f37 d8de 0f36 2f17 0837
00000390: 46b7 41b6 a935 87b6 2c68 3036 bb0a 4936
000003a0: f1d9 9336 bfe1 d236 394b 1a37 c4cb 8335
000003b0: 42bf 9d36 26e8 ba36 a2a2 5f36 4d10 8ab7
000003c0: f0e0 4437 1133 09b4 eddc 8934 e7b8 1236
000003d0: 977e c1b6 d1fa 9134 e41d 3ab5 8d55 fe36
000003e0: 1586 9b35 cd73 8c37 f88a f136 ccb2 f536
000003f0: a385 1237 dc83 bcb6 d557 1c37 f02e 7535

tree_conv.3.weights.weight f4 [128, 256, 3]
-0.003212882 0.0040013944 -0.00020712792 -0.0059390743 -0.0042310786 0.00084508775 -0.0031083885 -0.0012937931
0.0026928354 4.2178293e-05 0.0009007684 -0.00085591077 -0.0043871934 -0.0053606387 0.0016198007 0.0005447854
0.0064743706 0.00042830192 -0.0013380058 0.0021512553 0.0019956825 -0.016979547 0.0010959508 -0.00026358754
0.00015512775 0.0018430124 0.0022344955 -0.007144387 -0.016274393 0.0008834916 0.0005786954 0.00035043154
-5.322458e-05 -0.007614953 -0.001861458 0.00020424579 -0.009173818 -0.005671856 0.00060548045 -0.004404807
-0.0049172495 0.00052858895 0.00092652795 -0.0014191594 0.0014235708 0.00038150346 0.001047572 -0.00017113355
0.00029508353 0.0016193208 0.0019970401 0.00068362703 0.0020320576 0.002272429 -0.01856784 -0.020457694
-0.0046695773 0.002492953 0.0018781426 0.0010840935 0.00045890402 0.0010248264 -0.0024214154 -0.0070885844
-0.008204312 -0.0041749254 0.000946332 -0.003966016 0.000787133 0.00082114985 -0.0024119273 0.0017037191
-0.001926837 0.0021332738 0.0023037759 -0.008488215 -0.002354408 -0.0005491863 -0.015282322 0.0072358055
-0.0022926093 0.016428515 -0.0032413607 0.0007973153 0.008485037 -0.001556314 0.0012601705 0.0007036701
0.0018068475 0.0022296128 -0.0053730435 0.00095831 0.00087526505 0.0017566258 -0.005834835 0.00042565062
-0.012454164 0.006992395 -0.0004354847 0.00057091995 0.0011696778 0.0020840075 0.00058700267 0.0017727892
0.0012594411 0.0071978825 -0.019034058 -0.0022884093 0.019116336 0.0010876752 -0.003756155 0.013788967
-0.018748466 0.00093165704 -0.006513866 -0.009570669 0.0005276022 -0.006983906 0.00556089 -0.00016138642
-0.009182856 0.0006637737 0.0017398355 -0.027545663 0.01351394 -0.0015830002 -0.0063047702 -0.004314816
0.0005716185 0.0013935626 -4.436834e-05 -0.001724345 0.00546821 -0.0012352398 -0.0010495652 0.013572564
0.021073438 0.00035476332 -0.012335468 0.011548059 0.0016731079 0.0059185005 -0.014966759 0.0010777022
-0.0022570891 -0.0028311547 0.000127907 -0.0041817785 0.012617312 -0.0024035592 0.00013917136 0.0016824024
-0.0005719453 0.013749458 -0.0212647 0.00081480097 -0.0046008136 0.0024726335 0.0013211145 0.00077607174
0.0011587694 0.0019223707 -0.009144621 -0.004114087 0.0017029574 0.00045281465 0.0016097361 0.0015232028
0.0016168155 0.0024202485 0.0015019826 -0.0069078305 -0.0094503015 0.0026653607 0.004609647 -0.0024955547
-0.0018634071 -0.014013189 -0.004031297 -0.0021493176 -0.0003510547 0.002178758 0.0021834588 0.008374322
0.0050931587 7.981109e-05 0.016149236 -0.0075961007 0.00021486434 0.002851629 -0.0064166435 0.00093615544
-0.0038819357 0.009251168 -0.0005588041 -0.011645855 -0.01858984 -0.0012349264 -0.00015109502 -0.015017343
-0.0027293179 -0.0043315366 0.0017238492 3.8678503e-05 -0.009489086 -0.008695453 0.0013449765 -0.004782538
-0.00032181657 0.00085010566 -0.008179049 0.0033440685 0.0016213832 -0.010245295 -0.0134432465 0.00089495775
0.0007461183 -0.0050765923 0.0018496278 -0.00039985636 -0.0011683585 -0.0009290372 -0.012128424 0.0029877105
-0.0014519385 0.00092416874 -0.0024421525 -0.002111517 0.0065231416 0.0011232059 -0.0024168915 -0.0035100412
-0.0035334057 0.0008806573 0.0028686533 -0.003025009 0.0005253152 -0.00066198467 0.00057346397 -0.00062778156
0.0012478307 0.0015071128 2.9545508e-05 -0.024558717 0.0006999477 -0.0009745855 0.00038945692 3.1343185e-05
0.0021918132 -0.006499453 -0.0057337764 0.0001436618 -0.002002937 0.0136267645 -0.0009770765 0.005948297
00000000: 378f 52bb 211e 833b 7a30 59b9 919c c2bb
00000010: dca4 8abb e188 5d3a 1bb6 4bbb 7e94 a9ba
00000020: 487a 303b 99e8 3038 8b21 6c3a 335f 60ba
00000030: 72c2 8fbb 4ca8 afbb 7e4f d43a eecf 0e3a
00000040: f526 d43b b68d e039 0660 afba 13fc 0c3b
00000050: ffc9 023b b118 8bbc 02a6 8f3a 1f32 8ab9
00000060: caa9 2239 3c91 f13a 9d70 123b 761b eabb
00000070: e051 85bc 1e9a 673a 97b3 173a 20ba b739
00000080: 753d 5fb8 db86 f9bb 2afc f3ba d02a 5639
00000090: c84d 16bc fada b9bb 1bb9 1e3a 3356 90bb
000000a0: e120 a1bb 0191 0a3a 3de2 723a 1603 baba
000000b0: 1c97 ba3a 8704 c839 af4e 893a 5072 33b9
000000c0: 71b5 9a39 643f d43a c6e0 023b 6f35 333a
000000d0: 452c 053b 08ed 143b 951b 98bc e596 a7bc
000000e0: 4103 99bb d060 233b 022c f63a 2418 8e3a
000000f0: 0e99 f039 7853 863a 9cb0 1ebb 5b47 e8bb
00000100: 616b 06bc d0cd 88bb 4413 783a 5bf5 81bb
00000110: 9a57 4e3a 6f42 573a 6d11 1ebb 544f df3a
00000120: ec8d fcba 65ce 0b3b f2fa 163b 2712 0bbc
00000130: 694c 1abb 45f7 0fba b462 7abc 561a ed3b
00000140: 9a3f 16bb 1895 863c 026d 54bb ed02 513a
00000150: d304 0b3c 3bfd cbba 4e2c a53a 8076 383a
00000160: bed3 ec3a b21e 123b 5b10 b0bb 1837 7b3a
00000170: 0b72 653a 953e e63a 2532 bfbb dc29 df39
00000180: 8d0c 4cbc 7620 e53b c451 e4b9 caa9 153a
00000190: e04f 993a d893 083b 15e1 193a ef5c e83a
000001a0: d513 a53a 37dc eb3b 50ed 9bbc 23f9 15bb
000001b0: dd99 9c3c 5390 8e3a d329 76bb 1feb 613c
000001c0: 6296 99bc 723a 743a 4572 d5bb 4cce 1cbc
000001d0: c94e 0a3a 40d9 e4bb 2038 b63b d639 29b9
000001e0: b173 16bc 1901 2e3a 310b e43a 71a7 e1bc
000001f0: 9369 5d3c ac7c cfba 3f98 cebb 4d63 8dbb
00000200: abd8 153a 34a8 b63a 2418 3ab8 6b03 e2ba
00000210: ac2e b33b c5e7 a1ba 9091 89ba 765f 5e3c
00000220: 34a2 ac3c 87ff b939 b41a 4abc 1234 3d3c
00000230: 2f4c db3a fbef c13b 2337 75bc af41 8d3a
00000240: aceb 13bb e58a 39bb c61e 0639 4d07 89bb
00000250: d8b8 4e3c 0885 1dbb 87ee 1139 0f84 dc3a
00000260: 99ee 15ba 6845 613c 4f33 aebc 5e98 553a
00000270: 6cc2 96bb e80b 223b 3f29 ad3a 4b71 4b3a
00000280: d9e1 973a 0ff8 fb3a 52d3 15bc 77cf 86bb
00000290: c535 df3a c167 ed39 c8fd d23a 34a6 c73a
000002a0: 53eb d33a 089d 1e3b 2cde c43a 155b e2bb
000002b0: 70d5 1abc 55ad 2e3b 860c 973b 768c 23bb
000002c0: 913d f4ba 9397 65bc f818 84bb 91db 0cbb
000002d0: c40d b8b9 7ec9 0e3b 5c18 0f3b 7434 093c
000002e0: 83e4 a63b 4160 a738 674b 843c b6e8 f8bb
000002f0: 354d 6139 65e2 3a3b b542 d2bb 5468 753a
00000300: 1368 7ebb 3692 173c b57c 12ba 42ce 3ebc
00000310: b849 98bc 41dd a1ba 436f 1eb9 4d0b 76bc
00000320: 5bde 32bb 90ef 8dbb c8f2 e13a ba3a 2238
00000330: 1d78 1bbc 6077 0ebc ec49 b03a d6b6 9cbb
00000340: 7db9 a8b9 a0d9 5e3a 6b01 06bc 2928 5b3b
00000350: 9884 d43a e2db 27bc 1041 5cbc 999b 6a3a
00000360: 2797 433a 8b59 a6bb 366f f23a d0a3 d1b9
00000370: 9b23 99ba a28a 73ba 4cb6 46bc 77cd 433b
00000380: f94e beba ea43 723a 850c 20bb 6061 0abb
00000390: 14c0 d53b 8938 933a b664 1ebb b808 66bb
000003a0: b690 67bb e9db 663a 0400 3c3b 3b3f 46bb
000003b0: 4eb5 093a 0a89 2dba 8454 163a b591 24ba
000003c0: 408e a33a 508a c53a 7fd8 f737 5d2f c9bc
000003d0: b27c 373a 537b 7fba 0630 cc39 7d76 0338
000003e0: 86a4 0f3b 5df9 d4bb 67e2 bbbb eca3 1639
000003f0: b543 03bb cb42 5f3c 3f11 80ba efe9 c23b

tree_conv.3.weights.bias f4 [128]
0.014501184 0.026878504 0.0031204177 -0.012538527 0.0016090239 0.035671197 -0.0111671835 -0.019439708
-0.012729385 -0.033512864 0.07324452 0.014386511 0.0009188244 0.04279896 -0.021846179 -0.010387832
-0.018578835 -0.005169125 0.022452166 0.015390195 -0.027330916 0.018267825 0.0070701162 0.018330846
-0.052630443 0.015896866 0.017924564 0.050517898 -0.03415857 0.018938413 -0.006510266 0.02285616
0.034162667 -0.017149279 0.006553532 -0.0011972704 0.03103678 -0.0022002242 0.01499424 -0.0025040987
0.013576254 0.021051077 0.012914019 -0.00044333795 0.0069026556 -0.0016575706 0.0005571692 -0.029155128
-0.01713389 0.036260426 0.016703056 0.05109307 0.0052473 0.025087321 -0.02317802 -0.0009165829
0.007890248 -0.017667027 0.014127609 0.020424662 -0.011012847 0.0072877808 0.045643996 0.019284735
-0.013164362 0.027654035 0.048946276 -0.004134983 -0.0060860496 0.013260672 0.0044636372 0.013524405
0.013879098 0.047178917 -0.019937005 0.011226763 0.026624817 -0.020917527 -0.009867643 0.005085549
0.008013008 0.0033266353 -0.007608558 0.022297474 0.028343897 -0.020527288 -0.0035124456 -0.031350426
-0.019353792 0.02160072 -0.010017282 -0.013590933 -0.014200786 0.07475763 0.023887405 -0.0073762056
-0.009517383 -0.01097978 0.008953614 -0.0042299284 -0.009611871 0.038964454 0.024305813 -0.01576792
-0.0003970078 -0.028897459 0.006709264 0.020173697 0.036469646 0.018043103 0.0020386586 -0.017618012
-0.01168551 0.01720902 -0.019545343 -0.0028318632 0.0037674913 -0.017261619 -0.00011250606 0.0018599288
-0.014569745 -0.006324498 -0.014080222 0.038393434 -0.007969154 0.007314266 0.015867962 0.017069232
00000000: 6096 6d3c 4f30 dc3c ec7f 4c3b 656e 4dbc
00000010: e2e5 d23a f61b 123d 90f6 36bc 0640 9fbc
00000020: e98e 50bc c944 09bd 3901 963d 67b5 6b3c
00000030: 43dd 703a f64d 2f3d c2f6 b2bc ba31 2abc
00000040: a432 98bc c361 a9bb 9bed b73c 2827 7c3c
00000050: 16e5 dfbc 68a6 953c 6fac e73b 922a 963c
00000060: 0593 57bd 253a 823c 89d6 923c dbeb 4e3d
00000070: dbe9 0bbd bb24 9b3c 1254 d5bb d73c bb3c
00000080: 27ee 0b3d a57c 8cbc 03bf d63b baed 9cba
00000090: d840 fe3c a331 10bb 67aa 753c ce1b 24bb
000000a0: f06e 5e3c 4f73 ac3c 5295 533c d06f e8b9
000000b0: ac2f e23b d742 d9ba fe0e 123a bcd6 eebc
000000c0: 5f5c 8cbc d085 143d d9d4 883c f846 513d
000000d0: 8bf1 ab3b ed83 cd3c d5df bdbc d646 70ba
000000e0: 1946 013c 71ba 90bc 7d77 673c 9f51 a73c
000000f0: 3a6f 34bc 56ce ee3b 33f5 3a3d 05fb 9d3c
00000100: 56af 57bc b78a e23c e47b 483d c07e 87bb
00000110: 7c6d c7bb 4a43 593c b443 923b 7795 5d3c
00000120: 2865 633c ae3e 413d ee52 a3bc 75f0 373c
00000130: 4a1c da3c 3c5b abbc e5ab 21bc ada4 a63b
00000140: fe48 033c ae03 5a3b 3651 f9bb 31a9 b63c
00000150: 7631 e83c d828 a8bc 0f31 66bb 4e69 00bd
00000160: d88b 9ebc fef3 b03c 871f 24bc 81ac 5ebc
00000170: 6aaa 68bc 871a 993d 85af c33c 19b4 f1bb
00000180: ccee 1bbc 89e4 33bc 2eb2 123c 369b 8abb
00000190: 1c7b 1dbc 3199 1f3d fc1c c73c ba2b 81bc
000001a0: 7c25 d0b9 5dba ecbc 63d9 db3b 4f43 a53c
000001b0: 3261 153d 21cf 933c 049b 053b a653 90bc
000001c0: 9574 3fbc eef9 8c3c 8e1d a0bc c896 39bb
000001d0: 04e8 763b 3d68 8dbc 3bf1 ebb8 dbc8 f33a
000001e0: f1b5 6ebc bc3d cfbb bbb0 66bc 6f42 1d3d
000001f0: 0e91 02bc 83ac ef3b 87fd 813c c6d4 8b3c

tree_conv.6.weights.weight f4 [64, 128, 3]
-0.005426602 -0.022552919 4.528278e-05 -0.015566822 0.0032099148 -0.022182502 -0.017186925 -0.0077399528
0.0031439373 -0.004604457 0.007795492 0.0028793174 -0.005692722 -0.009967847 0.0034312308 0.009827627
0.004635768 -0.005366664 0.0041798064 0.020223074 0.00033792458 -0.00875527 0.021984939 0.0015287931
0.0040121786 0.023301724 -0.005408068 -0.0013038625 0.007518353 0.014996126 -0.023295712 -0.009716246
0.004020284 -0.032221265 0.013765927 -0.006446087 0.0052553685 -0.009043191 0.0068884226 -0.0037134516
-0.015546023 0.00030234896 0.002218285 0.00640283 0.0018418387 -0.020198965 0.0052226223 -0.003947884
-0.018650219 0.013851302 -0.016667698 -0.0042164563 0.007060459 0.0012132084 -0.010184827 0.031519264
-0.0018093914 -0.027607208 -0.028675769 -0.0036977946 -0.012691398 0.010621797 0.0042463625 0.0030556782
-0.008031623 0.0013731724 0.0049032406 -0.031259194 -0.0020383578 0.0051208283 0.00047615118 0.004654457
-0.025581669 0.028704932 0.006742293 0.03777169 -0.0066369935 -0.0071271434 0.015106816 -7.053603e-05
-0.0118384035 -0.008256601 -0.0079953205 -0.0020269912 -0.019574452 0.009923272 -0.009215374 -0.010329464
0.0024619899 -0.00073041656 -0.013749524 0.00837381 -0.005190037 -0.013844475 0.008496669 -0.0005956945
0.041771166 0.009719521 -0.00423474 -0.001072053 -0.015422385 0.0023636192 -0.008499745 0.01453886
0.0040827985 -0.0025296055 0.0029359628 0.0036884872 0.015194438 0.03371846 0.0024231558 0.0017643751
0.0071770544 0.0021334952 -0.015229544 0.0071956734 -0.023578877 -0.010440605 -0.010339365 -0.004545591
0.0045966166 -0.0014077087 0.0031544643 0.0035043904 -0.011080937 -0.0012940152 -0.034792103 0.021952808
-0.013123747 -0.004722544 -0.0080237435 0.0036185526 -0.017914403 0.0061485595 6.7901434e-05 -0.028670214
-0.019372499 -0.029357122 -0.0065025906 0.0051721386 0.005765069 0.011936302 -0.012018558 0.0039128577
0.0030577385 0.0037119265 0.0065855253 -0.0040575936 -0.0017934344 0.0011957143 -0.021162242 0.0044541284
-0.00042839837 0.032917902 -0.0067610713 -0.0029848116 0.0033284684 0.0040778327 0.001953631 0.013475905
-0.020933073 0.0011432633 0.01864365 -0.00095760875 0.013915808 -0.00972554 -0.023965899 -2.1404532e-05
-0.013468816 -0.010949041 0.006479653 0.0032375727 -0.0055502113 0.0014586534 -0.004665713 -0.015043044
-0.006203496 -0.008135255 0.012711502 0.002946907 0.00597201 -0.008251639 0.0013444098 0.008145998
-0.011980305 0.0008329959 -0.009006053 0.0066923224 0.00092533295 -0.0030845804 -0.004794938 -0.0030337863
0.028128365 0.035856426 -0.011291572 -0.0027545614 0.0004302767 0.007667921 -0.00818672 -0.012691431
0.007212533 -0.011378947 0.03248358 0.0032456235 -0.0025913722 -0.0033802008 0.0062800855 0.011774399
0.013772665 -0.00590796 0.00067481364 -0.0009828103 -0.002791069 0.0039224047 -0.0034646 0.0041143554
0.0080356365 -0.01118717 0.0058340463 -0.00097171264 0.030230293 -0.0034645188 0.009062897 0.017210783
0.0006975518 -0.008472868 0.035159178 -0.00010420517 0.014773901 -0.0047096303 0.0036070244 -0.013058916
-0.0033999241 0.004406111 0.008077027 0.005301863 0.0018262547 0.0062917615 0.018034698 0.009905066
0.0033981828 0.00019361527 -0.00072544883 0.009386444 0.014543168 0.0016147457 0.0037909977 0.0015649649
0.00041876792 0.024070343 -0.0018750058 0.0007322517 0.0055688955 0.015845094 0.00298757 -0.02763625
00000000: a3d1 b1bb e6c0 b8bc 04ee 3d38 fc0b 7fbc
00000010: 6f5d 523b 14b8 b5bc 98cb 8cbc 6e9f fdbb
00000020: 840a 4e3b fce0 96bb 5471 ff3b eeb2 3c3b
00000030: 038a babb 2e50 23bc 80de 603b 0e04 213c
00000040: a4e7 973b d7da afbb c2f6 883b dcaa a53c
00000050: 782b b139 4472 0fbc c219 b43c c961 c83a
00000060: 9878 833b 42e3 be3c 2a36 b1bb 5ee6 aaba
00000070: 845c f63b 50b2 753c a6d6 bebc e430 1fbc
00000080: 96bc 833b 72fa 03bd 7c8a 613c b239 d3bb
00000090: 3a35 ac3b e429 14bc 47b8 e13b 615d 73bb
000000a0: bfb4 7ebc 9784 9e39 a660 113b d5ce d13b
000000b0: da69 f13a 4d78 a5bc 8822 ab3b 405d 81bb
000000c0: 58c8 98bc 92f0 623c b28a 88bc 332a 8abb
000000d0: 6c5b e73b 8504 9f3a 43de 26bc 581a 013d
000000e0: 1a29 edba 8328 e2bc 72e9 eabc b356 72bb
000000f0: 95ef 4fbc 0c07 2e3c 1225 8b3b c641 483b
00000100: 1297 03bc 05fc b33a 5dab a03b a409 00bd
00000110: f895 05bb 9fcc a73b eea3 f939 6a84 983b
00000120: a690 d1bc 9b26 eb3c 74ee dc3b 7db6 1a3d
00000130: 237b d9bb d08a e9bb 9482 773c beec 93b8
00000140: ddf5 41bc b246 07bc cefe 02bc 45d7 04bb
00000150: 9a5a a0bc 3895 223c 14fc 16bc ea3c 29bc
00000160: 5659 213b 6d79 3fba af45 61bc 4e32 093c
00000170: 3011 aabb f0d3 62bc 9d35 0b3c 6228 1cba
00000180: 3e18 2b3d a03e 1f3c 93c3 8abb 2184 8cba
00000190: 2cae 7cbc f3e6 1a3b 8442 0bbc 6634 6e3c
000001a0: ffc8 853b bdc7 25bb 4869 403b 8cba 713b
000001b0: 18f2 783c 5e1c 0a3d cfcd 1e3b 9b42 e73a
000001c0: 7f2d eb3b 1cd2 0b3b 5685 79bc afc9 eb3b
000001d0: 7d28 c1bc 120f 2bbc 7166 29bc 2ef3 94bb
000001e0: 379f 963b de82 b8ba 21bb 4e3b eaa9 653b
000001f0: d28c 35bc f29b a9ba 2a82 0ebd 60d6 b33c
00000200: fc04 57bc 92bf 9abb 0576 03bc 3d25 6d3b
00000210: 3ac1 92bc db79 c93b 4e66 8e38 ccdd eabc
00000220: 13b3 9ebc 597e f0bc af13 d5bb 0b7b a93b
00000230: e7e8 bc3b 7b90 433c 7ce9 44bc 6e37 803b
00000240: 5764 483b cb43 733b 64cb d73b 90f5 84bb
00000250: ac11 ebba 84b9 9c3a 705c adbc f0f3 913b
00000260: a89a e0b9 ecd4 063d fa8b ddbb d49c 43bb
00000270: 6f22 5a3b 579f 853b 7d08 003b 0bca 5c3c
00000280: d67b abbc 8dd9 953a 91ba 983c 0908 7bba
00000290: 21ff 633c df57 1fbc 2254 c4bc e28d b3b7
000002a0: 4fac 5cbc 9b63 33bc 4553 d43b 752d 543b
000002b0: 8cde b5bb 4930 bf3a d6e2 98bb 1a77 76bc
000002c0: b246 cbbb bc49 05bc e743 503c e520 413b
000002d0: dab0 c33b e231 07bc e836 b03a cb76 053c
000002e0: 0b49 44bc 695d 5a3a 208e 13bc 454b db3b
000002f0: 0b92 723a ac26 4abb db1e 9dbb 7dd2 46bb
00000300: 756d e63c 30de 123d 4900 39bc df85 34bb
00000310: c396 e139 2f43 fb3b 9821 06bc b8ef 4fbc
00000320: 1d57 ec3b c36e 3abc 810d 053d 87b4 543b
00000330: 03d4 29bb 5c86 5dbb 2dc9 cd3b 69e9 403c
00000340: bea6 613c 8f97 c1bb fae5 303a a4d1 80ba
00000350: 5eea 36bb 8487 803b 580e 63bb b7d1 863b
00000360: e7a7 033c 644a 37bc 872b bf3b 88ba 7eba
00000370: 85a5 f73c fb0c 63bb 8c7c 143c a1fd 8c3c
00000380: e9db 363a c9d1 0abc 1203 103d ba88 dab8
00000390: 3b0e 723c 3e53 9abb d463 6c3b 10f5 55bc
000003a0: 43d1 5ebb 2361 903b 8255 043c 40bb ad3b
000003b0: f05e ef3a 1f2b ce3b 81bd 933c dc48 223c
000003c0: 0cb4 5e3b 3405 4b39 0c2c 3eba 9ac9 193c
000003d0: 7846 6e3c e0a5 d33a 6372 783b 821f cd3a
000003e0: 148e db39 2b2f c53c c1c2 f5ba 94f4 3f3a
000003f0: 487b b63b 92cd 813c 1bcb 433b 6b65 e2bc

tree_conv.6.weights.bias f4 [64]
0.033292077 0.030234838 0.026425395 -0.031368833 -0.0029737223 -0.0065712864 -0.022145368 0.014115466
-0.0049592233 0.047972113 -0.030050227 -0.047336783 -0.029291956 0.028410422 -0.04098138 -0.0014479399
0.02814963 -0.022185888 0.029547647 0.020972569 0.040881757 -0.016565083 0.009951212 0.026742486
-0.042026598 0.015770802 -0.016343454 -0.04149856 0.028143438 0.045739546 0.0063749463 0.041105095
-0.05528778 -0.048177585 0.009502969 -0.012420189 -0.007624872 -0.033229712 0.0040029855 -0.03063141
0.03009193 0.010993731 -0.013042774 -0.054414414 -0.047277153 0.04028926 0.022292793 0.022232456
0.002947879 -0.052992128 -0.036933426 -0.008932142 -0.016797554 0.0059244316 -0.040766284 0.033705212
0.016554434 0.043566447 0.04614304 0.03235659 -0.038414367 -0.018271439 -0.008018165 0.017454952
00000000: 465d 083d 0daf f73c 127a d83c 9b7c 00bd
00000010: c8e2 42bb f253 d7bb 346a b5bc 8e44 673c
00000020: fb80 a2bb 687e 443d e52b f6bc 37e4 41bd
00000030: aff5 efbc f9bc e83c 17dc 27bd cdc8 bdba
00000040: 0e9a e63c 2ebf b5bc e80d f23c aace ab3c
00000050: a173 273d 7fb3 87bc 690a 233c 0f13 db3c
00000060: 1524 2cbd c531 813c b5e2 85bc 65fa 29bd
00000070: 118d e63c 6459 3b3d ede4 d03b d15d 283d
00000080: 7075 62bd dc55 45bd 57b2 1b3c 0c7e 4bbc
00000090: 10da f9bb e11b 08bd 7a2b 833b b9ee fabc
000000a0: 5a83 f63c 0d1f 343c 5cb1 55bc a6e1 5ebd
000000b0: b0a5 41bd 5a06 253d 609f b63c d720 b63c
000000c0: 3431 413b 460e 59bd 8147 17bd 1e58 12bc
000000d0: 069b 89bc bc21 c23b 8cfa 26bd 7a0e 0a3d
000000e0: 2a9d 873c bb72 323d 7c00 3d3d 5888 043d
000000f0: 6258 1dbd fcad 95bc 9f5e 03bc b0fd 8e3c

tree_conv.9.weight f4 [32, 64]
0.0038059924 0.05461084 -0.027367018 0.041173097 0.003426152 0.006540827 0.08597475 -0.0011400527
-0.010498284 -0.02413048 0.013366755 0.021903673 0.05728308 0.03416612 0.040908292 0.0018238324
-0.014344718 -0.05338431 -0.054874893 -0.0010396505 0.05577964 -0.05694278 0.024328828 0.03314656
0.05298206 0.036046702 -0.053101618 0.0004667608 -0.041272484 -0.012806646 0.005010505 0.08213801
-0.04706994 0.009399401 0.022485482 -0.059985466 -0.066072196 0.006648532 0.026944723 0.092045926
-0.07614153 0.06642141 0.052714705 -0.015046467 0.013438112 -0.037526853 0.0180921 -0.11089429
-0.004204835 0.06192921 -0.023101274 0.029164188 -0.06222227 0.023680406 -0.101011455 -0.05797231
0.05409681 -0.075774655 0.0958488 0.0183955 -0.048128434 -0.0033413884 0.05519193 -0.0017104328
0.0011473492 0.00085410825 0.0005277089 0.00049022114 0.000836371 0.0014945434 0.0004349389 0.0006048955
0.0014960691 0.00066540315 0.0009959536 0.0012361521 0.0006132025 0.00037366993 0.0010425147 0.0015726596
0.0014031007 0.0010520725 0.0013994657 0.00062319724 0.00028153983 0.00043526324 0.0013870011 0.00048139517
0.0011907384 0.002223736 0.0010385724 0.0007303627 0.000654223 0.00091694 0.0006701097 0.00022799103
0.0008285248 8.186271e-05 0.00071834424 0.00023867666 0.00040587698 0.0011229417 0.000907309 0.0006220443
0.0009517938 0.00022877507 0.00086242694 0.00030924182 0.0010797777 0.0010374435 0.00065973355 0.00067235116
0.00067782693 0.0010324052 0.00092757866 0.0013997812 0.0010645578 0.0004769875 0.0011502382 0.0012438331
0.0023041759 0.00055258465 -0.00013012701 0.0009202179 0.00062916643 0.00095045456 0.00094545353 0.00070583133
0.0022791706 -0.0024582497 0.00044364817 0.0035076076 0.0011691647 -0.002814836 0.0019448445 0.0009442526
-0.000119738186 0.0013848821 0.0011705823 0.0042883484 0.002373935 0.0035127485 0.00212173 -0.009093311
-0.00027684402 8.18418e-05 0.0006962547 0.00059878913 -0.0005418336 -9.1273825e-05 -0.001566456 -0.00080548733
-0.00145906 -0.007305968 0.00045268532 0.008296262 0.0027253213 -0.0015485277 0.0015329242 0.0025227938
0.00052510627 0.0017088641 -0.0012479244 0.0017132949 0.006619916 0.0029971283 -0.0022237815 7.584544e-05
0.0030010005 0.00068064115 0.0038502838 0.0026050005 0.0019587677 -0.0018146806 0.0019962862 0.0031219362
-0.0010999832 -0.0028983522 0.0011074966 -0.0010930864 0.0020480182 -5.28629e-05 0.0017404 0.00091362017
-0.010948199 -0.00012371727 0.002242746 -0.00033372833 0.003125245 0.002057307 -0.0031791164 0.0019835553
-0.007178816 0.02722132 0.0013183418 -0.00414384 -0.011497508 0.005557516 -0.0035207837 -0.0027627044
0.0021482 -0.00784243 -0.0017692901 0.00078002724 -6.568228e-05 -0.0058406945 -0.02413656 0.009452115
0.010986106 0.004582356 0.0014846124 0.012073988 -0.0139815025 -0.006489111 -0.003842515 -0.013596116
-0.0012398759 0.00717828 0.027925847 -0.004386895 -0.0065894355 -0.0020762389 0.0046328288 0.0069504716
0.00070603256 -0.007932204 0.0024203595 0.01241785 0.021245448 -0.0067592612 -0.0075006513 0.0056664892
0.0028715807 -0.012924412 -0.004402812 -0.008693739 -0.0002715855 -0.012731394 0.008166517 -0.018571792
0.0022536 0.005113383 0.014082754 -0.00036581326 -0.010900938 -0.003923124 -0.035562456 0.0012825647
0.017158704 0.008156571 -0.015748253 -0.00022688712 -0.0040770518 0.0050284015 0.0019110651 -0.0028118214
00000000: f56d 793b 9eaf 5f3d cc30 e0bc 1fa5 283d
00000010: 4b89 603b 6f54 d63b 8813 b03d d26d 95ba
00000020: ff00 2cbc 49ad c5bc 3c00 5b3c 556f b33c
00000030: aaa1 6a3d c6f1 0b3d 748f 273d a90d ef3a
00000040: 1c06 6bbc 82a9 5abd 7fc4 60bd e244 88ba
00000050: 3179 643d d53c 69bd 404d c73c b0c4 073d
00000060: b703 593d b5a5 133d 1581 59bd 93b7 f439
00000070: 560d 29bd f7d2 51bc 2a2f a43b f937 a83d
00000080: 69cc 40bd f2ff 193c 7933 b83c 52b3 75bd
00000090: dc50 87bd eedb d93b 2ebb dc3c 9382 bc3d
000000a0: 17f0 9bbd f307 883d 60eb 573d 7585 76bc
000000b0: 872b 5c3c c2b5 19bd e235 943c 8c1c e3bd
000000c0: b6c8 89bb 7ca9 7d3d e23e bdbc bce9 ee3c
000000d0: c7dc 7ebd 69fd c13c 18df cebd 5f74 6dbd
000000e0: 9e94 5d3d be2f 9bbd 604c c43d 29b2 963c
000000f0: 5222 45bd 32fb 5abb ef10 623d 9a30 e0ba
00000100: a762 963a 3ce6 5f3a f255 0a3a 2f82 003a
00000110: e83f 5b3a 8ee4 c33a 8308 e439 da91 1e3a
00000120: c017 c43a 736e 2e3a a88a 823a 6206 a23a
00000130: 53bf 203a 21e9 c339 fda4 883a b321 ce3a
00000140: 3fe8 b73a b2e5 893a 476e b73a 0f5e 233a
00000150: a39b 9339 0b34 e439 09cc b53a c463 fc39
00000160: 8d12 9c3a 19bc 113b b520 883a d075 3f3a
00000170: 2a80 2b3a cd5e 703a 4daa 2f3a e010 6f39
00000180: 5c31 593a b5ad ab38 444f 3c3a 4745 7a39
00000190: e3cb d439 ac2f 933a 7ad8 6d3a b010 233a
000001a0: cd81 793a 57e3 6f39 7e14 623a bc21 a239
000001b0: 5487 8d3a d4fa 873a f8f1 2c3a b940 303a
000001c0: 32b0 313a c551 873a c028 733a dd78 b73a
000001d0: a288 8b3a 2e14 fa39 97c3 963a 1d08 a33a
000001e0: a801 173b 54db 103a b472 08b9 c73a 713a
000001f0: a5ee 243a ed27 793a 50d8 773a 8a07 393a
00000200: 235e 153b 961a 21bb 7399 e839 e4df 653b
00000210: a83e 993a 1d79 38bb 27ea fe3a b887 773a
00000220: f31b fbb8 ef84 b53a 396e 993a 4685 8c3b
00000230: 0594 1b3b 2436 663b b90c 0b3b 1cfc 14bc
00000240: 6025 91b9 7ba2 ab38 dd84 363a 0ff8 1c3a
00000250: d609 0eba 436a bfb8 8b51 cdba 5727 53ba
00000260: ee3d bfba e766 efbb 6556 ed39 0bed 073c
00000270: 4e9b 323b f8f7 caba 67ec c83a 7555 253b
00000280: 49a7 093a f7fb df3a 6591 a3ba a390 e03a
00000290: e1eb d83b 786b 443b ddbc 11bb 360f 9f38
000002a0: 6fac 443b 0e6d 323a 0b55 7c3b a8b8 2a3b
000002b0: ab5e 003b 94da edba 20d4 023b 6699 4c3b
000002c0: 502d 90ba 48f2 3dbb 6b29 913a e545 8fba
000002d0: 0b38 063b 1bb9 5db8 221e e43a 0380 6f3a
000002e0: 1360 33bc 1aba 01b9 09fb 123b 42f8 aeb9
000002f0: e9d0 4c3b e2d3 063b b958 50bb 89fe 013b
00000300: 463c ebbb 3fff de3c 36cc ac3a 0dc9 87bb
00000310: 0b60 3cbc d31b b63b f3bc 66bb 7d0e 35bb
00000320: d1c8 0c3b 897d 00bc 86e7 e7ba be7a 4c3a
00000330: e8be 89b8 4c63 bfbb 09ba c5bc 0bdd 1a3c
00000340: 11ff 333c 9727 963b 5397 c23a fad1 453c
00000350: ac12 65bc 9ca2 d4bb b4d2 7bbb 3ec2 5ebc
00000360: 5583 a2ba c737 eb3b bfc4 e43c f1bf 8fbb
00000370: 31ec d7bb 8211 08bb fcce 973b c8c0 e33b
00000380: 0b15 393a 13f6 01bc e59e 1e3b 3d74 4b3c
00000390: ef0a ae3c cb7c ddbb 06c8 f5bb f5ad b93b
000003a0: 2131 3c3b eac0 53bc 7745 90bb 2f70 0ebc
000003b0: 9763 8eb9 5697 50bc dbcc 053c df23 98bc
000003c0: 22b1 133b 2a8e a73b 5abb 663c a0ca bfb9
000003d0: d999 32bc 8d8d 80bb f0a9 11bd bb1b a83a
000003e0: 6990 8c3c 23a3 053c 7b02 81bc 8ce8 6db9
000003f0: ca98 85bb 4ac5 a43b b47c fa3a 8946 38bb

tree_conv.9.bias f4 [32]
-0.011655048 0.0006192176 0.00039591125 0.00097577117 -0.06620209 0.00038680778 -0.00044593308 0.0004058942
0.0038485727 -0.0044466257 7.612395e-08 -1.0702911e-07 -0.0060608494 -0.014427896 0.0039515146 -0.010983112
0.07639402 5.1180024e-05 -0.004811872 -0.021146344 -0.017553745 0.0033323138 -0.00039944597 -0.012729964
0.026928645 0.020647528 -0.009399982 -0.001182427 -0.026839357 6.755777e-07 -0.018967004 0.026695885
00000000: d0f4 3ebc fd52 223a 4f92 cf39 e5ca 7f3a
00000010: f694 87bd 76cc ca39 20cc e9b9 33ce d439
00000020: 5638 7c3b 00b5 91bb 9679 a333 e0d7 e5b3
00000030: 179a c6bb fb62 6cbc b57b 813b 83f2 33bc
00000040: 7874 9c3d 22aa 5638 e8ac 9dbb 193b adbc
00000050: dfcc 8fbc f362 5a3b bb6c d1b9 5791 50bc
00000060: 7699 dc3c 0125 a93c 6202 1abc abfb 9aba
00000070: 36de dbbc 5959 3535 b160 9bbc 54b1 da3c

tree_conv.11.weight f4 [1, 32]
-0.088531025 -0.00072423246 0.0046756743 -0.05515104 0.17266855 0.0051374137 0.12848598 0.0050498312
0.020847706 0.12062494 1.0151742e-05 -1.5761458e-05 0.0453794 -0.17867385 0.021727748 0.045642894
0.12536512 -0.001607499 0.13691793 0.153166 0.15431696 0.0589623 -0.059291627 -0.117720135
0.081737205 0.14547409 -0.026632704 -0.043548904 0.16763517 0.0006852186 0.1529921 0.099282525
00000000: c14f b5bd 6bda 3dba 6636 993b 0fe6 61bd
00000010: 06d0 303e c057 a83b d491 033e 0e79 a53b
00000020: cfc8 aa3c 350a f73d 6651 2a37 7937 84b7
00000030: c0df 393d 47f6 36be 64fe b13c 0bf4 3a3d
00000040: b75f 003e b7b2 d2ba 3734 0c3e 8cd7 1c3e
00000050: 4405 1e3e 7482 713d c7db 72bd 4117 f1bd
00000060: d665 a73d 29f7 143e d42c dabc 5660 32bd
00000070: 8ea8 2b3e 3ea0 333a f6a9 1c3e a354 cb3d
