src/Models/imdb/pointwise.onnx (onnx, 696807 bytes, 9 tensors)

tree_conv.0.weights.weight f4 [256, 55, 3]
-4.986e-42 4.933e-42 4.95e-42 -4.982e-42 4.905e-42 4.92e-42 1.18574086e-07 3.2476635e-07
-4.341876e-09 -5.214e-42 -6.232e-42 -4.934e-42 4.935e-42 -4.927e-42 4.952e-42 4.907e-42
4.92e-42 4.916e-42 6.096e-42 4.954e-42 -4.955e-42 4.909e-42 4.947e-42 4.941e-42
2.1174948e-07 1.8233797e-07 5.093032e-08 -6.248e-42 4.94e-42 4.933e-42 -4.909e-42 4.935e-42
-4.955e-42 -1.8333827e-07 -2.7577961e-08 4.954e-42 -4.91e-42 -4.966e-42 -4.924e-42 -4.931e-42
4.927e-42 -4.963e-42 1.9892614e-06 -1.1429111e-08 4.498832e-08 4.924e-42 -4.927e-42 -4.969e-42
4.909e-42 4.928e-42 -4.948e-42 -4.167873e-07 -4.916e-42 -4.913e-42 -4.942e-42 4.95e-42
4.921e-42 -1.0218063e-06 1.7915769e-06 4.0460924e-07 -4.956e-42 -4.944e-42 -4.956e-42 4.931e-42
4.93e-42 -4.924e-42 -4.919e-42 4.931e-42 4.92e-42 2.434352e-07 6.1509155e-08 -4.914e-42
-7.261483e-07 2.3688413e-07 5.061e-42 4.948e-42 -5.336e-42 4.924e-42 -4.923e-42 -4.97e-42
4.942e-42 4.905e-42 -1.4338e-41 4.962e-42 -4.916e-42 4.931e-42 -4.906e-42 -4.923e-42
4.952e-42 -4.94e-42 4.923e-42 -4.94e-42 -5.071e-42 -4.912e-42 -4.956e-42 4.909e-42
-4.952e-42 -4.947e-42 -4.956e-42 3.8931495e-07 3.224809e-07 8.7453714e-08 4.945e-42 4.916e-42
-4.95e-42 1.0778706e-06 1.278289e-07 4.0789924e-08 4.93e-42 -4.947e-42 -5.043e-42 4.906e-42
4.917e-42 -5.174e-42 4.95e-42 -4.924e-42 4.916e-42 -4.926e-42 4.94e-42 -4.963e-42
4.924e-42 4.921e-42 -4.942e-42 7.2247695e-07 -7.485515e-07 3.2663993e-07 4.944e-42 -4.937e-42
4.952e-42 -6.030409e-08 1.6473125e-07 4.919e-42 -4.924e-42 4.91e-42 -4.913e-42 5.004e-42
-4.941e-42 5.68e-42 -2.2859194e-06 3.1312209e-06 6.942051e-07 4.966e-42 -4.909e-42 5.011e-42
-4.352958e-07 -1.4855598e-07 1.5767148e-07 5.124842e-06 -1.4206306e-06 4.1856e-07 4.979e-42 -4.924e-42
4.984e-42 4.942e-42 -4.934e-42 4.934e-42 5.222218e-06 2.3209373e-06 1.1030512e-06 0.018582901
-0.032710183 -0.013987549 0.018638426 -0.046938464 0.028275384 -4.905e-42 -4.94e-42 -4.916e-42
4.906e-42 -4.917e-42 -4.942e-42 -4.756621e-07 2.6284727e-06 -3.9402103e-08 -4.975e-42 5.053e-42
-4.968e-42 -4.945e-42 4.931e-42 4.986e-42 -4.924e-42 4.924e-42 4.942e-42 4.914e-42
4.917e-42 -4.944e-42 5.567e-42 -4.909e-42 -4.94e-42 -1.175351e-06 1.6648414e-07 -1.156179e-07
-4.935e-42 -4.919e-42 -4.959e-42 5.154e-42 -4.954e-42 4.906e-42 6.309194e-08 -4.565993e-08
-4.941e-42 -4.914e-42 4.937e-42 -4.965e-42 4.928e-42 -4.924e-42 4.921e-42 1.1938979e-06
-3.558735e-06 4.5916096e-08 -4.952e-42 -4.905e-42 -4.944e-42 -4.948e-42 -4.952e-42 -5.052e-42
1.1256365e-06 4.924e-42 -4.941e-42 -4.951e-42 -4.984e-42 -4.912e-42 -7.2005696e-06 1.0259862e-06
-1.48433115e-08 4.917e-42 -6.059e-42 -4.916e-42 -4.926e-42 5.056e-42 4.917e-42 4.933e-42
-4.924e-42 4.927e-42 3.0499868e-07 3.8081384e-07 5.015e-42 -2.91059e-07 3.047516e-07 -4.947e-42
-4.962e-42 -4.948e-42 4.97e-42 4.963e-42 4.933e-42 -4.905e-42 5.04e-42 5.007e-42
4.941e-42 4.926e-42 4.906e-42 4.952e-42 4.94e-42 4.947e-42 -4.948e-42 4.919e-42
00000000: e60d 0080 c00d 0000 cc0d 0000 e30d 0080
00000010: ac0d 0000 b70d 0000 cba2 fe33 8c5b ae34
00000020: 8c2f 95b1 890e 0080 5f11 0080 c10d 0080
00000030: c20d 0000 bc0d 0080 ce0d 0000 ae0d 0000
00000040: b70d 0000 b40d 0000 fe10 0000 cf0d 0000
00000050: d00d 0080 af0d 0000 ca0d 0000 c60d 0000
00000060: 415d 6334 aec8 4334 7bbe 5a33 6b11 0080
00000070: c50d 0000 c00d 0000 af0d 0080 c20d 0000
00000080: d00d 0080 a4db 44b4 94e4 ecb2 cf0d 0000
00000090: b00d 0080 d80d 0080 ba0d 0080 bf0d 0080
000000a0: bc0d 0000 d60d 0080 407f 0536 c359 44b2
000000b0: 2e39 4133 ba0d 0000 bc0d 0080 da0d 0080
000000c0: af0d 0000 bd0d 0000 cb0d 0080 cfc2 dfb4
000000d0: b40d 0080 b20d 0080 c70d 0080 cc0d 0000
000000e0: b80d 0000 ff24 89b5 1d76 f035 1239 d934
000000f0: d10d 0080 c80d 0080 d10d 0080 bf0d 0000
00000100: be0d 0000 ba0d 0080 b60d 0080 bf0d 0000
00000110: b70d 0000 7bb1 8234 0417 8433 b30d 0080
00000120: 88ec 42b5 375a 7e34 1c0e 0000 cb0d 0000
00000130: e00e 0080 ba0d 0000 b90d 0080 db0d 0080
00000140: c70d 0000 ac0d 0000 f827 0080 d50d 0000
00000150: b40d 0080 bf0d 0000 ad0d 0080 b90d 0080
00000160: ce0d 0000 c50d 0080 b90d 0000 c50d 0080
00000170: 230e 0080 b10d 0080 d10d 0080 af0d 0000
00000180: ce0d 0080 ca0d 0080 d10d 0080 0a03 d134
00000190: 7021 ad34 30ce bb33 c90d 0000 b40d 0000
000001a0: cc0d 0080 5aab 9035 5741 0934 ff30 2f33
000001b0: be0d 0000 ca0d 0080 0f0e 0080 ad0d 0000
000001c0: b50d 0000 6c0e 0080 cc0d 0000 ba0d 0080
000001d0: b40d 0000 bb0d 0080 c50d 0000 d60d 0080
000001e0: ba0d 0000 b80d 0000 c70d 0080 3df0 4135
000001f0: 11f0 48b5 0d5d af34 c80d 0000 c30d 0080
00000200: ce0d 0000 8680 81b3 fbe0 3034 b60d 0000
00000210: ba0d 0080 b00d 0000 b20d 0080 f30d 0000
00000220: c60d 0080 d50f 0000 cc67 19b6 f721 5236
00000230: 6959 3a35 d80d 0000 af0d 0080 f80d 0000
00000240: 99b2 e9b4 c282 1fb4 684c 2934 0ff6 ab36
00000250: 7fac beb5 73b6 e034 e10d 0000 ba0d 0080
00000260: e50d 0000 c70d 0000 c10d 0080 c10d 0000
00000270: 833a af36 66c1 1b36 8d0c 9435 2b3b 983c
00000280: 1dfb 05bd 082c 65bc 9daf 983c 8c42 40bd
00000290: c7a1 e73c ac0d 0080 c50d 0080 b40d 0080
000002a0: ad0d 0000 b50d 0080 c70d 0080 805e ffb4
000002b0: d164 3036 123b 29b3 de0d 0080 160e 0000
000002c0: d90d 0080 c90d 0080 bf0d 0000 e60d 0000
000002d0: ba0d 0080 ba0d 0000 c70d 0000 b30d 0000
000002e0: b50d 0000 c80d 0080 850f 0000 af0d 0080
000002f0: c50d 0080 c1c0 9db5 d0c2 3234 9d49 f8b3
00000300: c20d 0080 b60d 0080 d30d 0080 5e0e 0000
00000310: cf0d 0080 ad0d 0000 297d 8733 a01b 44b3
00000320: c60d 0080 b30d 0080 c30d 0000 d70d 0080
00000330: bd0d 0000 ba0d 0080 b80d 0000 053e a035
00000340: 9ad2 6eb6 4835 4533 ce0d 0080 ac0d 0080
00000350: c80d 0080 cb0d 0080 ce0d 0080 150e 0080
00000360: 9314 9735 ba0d 0000 c60d 0080 cd0d 0080
00000370: e50d 0080 b10d 0080 6c9c f1b6 9eb4 8935
00000380: 9301 7fb2 b50d 0000 e410 0080 b40d 0080
00000390: bb0d 0080 180e 0000 b50d 0000 c00d 0000
000003a0: ba0d 0080 bc0d 0000 b3be a334 a872 cc34
000003b0: fb0d 0000 d842 9cb4 be9c a334 ca0d 0080
000003c0: d50d 0080 cb0d 0080 db0d 0000 d60d 0000
000003d0: c00d 0000 ac0d 0080 0d0e 0000 f50d 0000
000003e0: c60d 0000 bb0d 0000 ad0d 0000 ce0d 0000
000003f0: c50d 0000 ca0d 0000 cb0d 0080 b60d 0000

tree_conv.0.weights.bias f4 [256]
6.9414086e-06 3.7037405e-06 3.2707524e-06 2.519227e-06 -2.6670516e-06 -2.49052e-07 -1.503894e-06 -4.4545204e-06
1.9602115e-07 2.8492113e-06 8.221949e-06 2.0284936e-06 -4.181832e-06 9.249752e-06 3.6596268e-06 3.966302e-07
-1.0239642e-06 -1.9590279e-07 -7.555791e-07 -4.915795e-07 7.1498807e-06 1.8546649e-06 -1.5104699e-06 -2.2794877e-06
2.6099053e-06 -3.1486493e-06 5.1921975e-06 4.838198e-06 5.344306e-06 4.213636e-06 3.0229726e-06 -2.4057679e-06
9.0528505e-07 -9.730386e-07 4.462979e-06 2.7991696e-06 7.851155e-06 4.872771e-06 6.907152e-06 8.9304285e-06
5.300747e-06 6.8046293e-06 4.251899e-06 -4.45693e-06 8.658285e-06 4.8573716e-06 4.1113153e-06 5.0626154e-06
-2.8971012e-06 -1.6409568e-06 6.495112e-06 6.2194845e-06 7.1225686e-06 7.3011634e-06 6.9792554e-06 5.780542e-07
9.980871e-06 6.3143616e-06 4.0848636e-06 -1.1417159e-06 -3.5139904e-06 -3.4386243e-08 2.3564894e-06 1.2278786e-05
-2.6344705e-06 1.0337625e-05 3.84237e-06 2.957302e-06 -2.4230333e-06 -5.608619e-07 1.1633964e-06 -1.5449181e-06
2.921241e-06 8.555727e-06 4.2232937e-06 7.467127e-06 2.213084e-06 -3.1430009e-06 -2.6013703e-07 5.596882e-06
7.1535413e-07 7.0841747e-06 -6.21949e-06 8.623804e-06 -1.075529e-06 9.778335e-06 -3.2875269e-06 2.1863823e-07
5.109656e-06 7.652326e-06 -4.9272327e-08 -1.9586344e-06 1.2444153e-06 2.5533832e-06 1.6067381e-06 3.7084253e-06
3.4433062e-06 6.0430216e-06 2.3034211e-07 3.248716e-06 2.9532657e-06 6.5266527e-06 -2.852834e-06 -3.7494242e-08
2.9695063e-06 2.9505547e-06 3.2159396e-06 1.2028e-07 -1.9350895e-07 4.457925e-06 -2.2234628e-06 8.793301e-07
6.5437885e-06 -5.9553104e-06 -2.0904288e-06 1.1516469e-05 1.8944726e-06 6.0280117e-06 -3.7805307e-06 4.1451126e-06
2.1532594e-06 -7.05453e-07 -4.3045497e-07 6.9982007e-06 3.5569933e-06 7.3747133e-06 7.0059555e-06 5.828606e-06
-3.3070842e-06 1.9416643e-06 2.8803236e-06 2.6072334e-07 -8.253598e-07 2.404473e-06 2.4813742e-06 -3.3237088e-06
3.2283142e-06 -6.0861994e-06 1.0651568e-05 -6.441653e-06 3.170338e-06 4.9312534e-06 2.5261938e-06 4.2200404e-06
1.6633298e-06 -2.964425e-06 8.308152e-06 -3.779123e-06 -1.4704475e-06 -2.432861e-06 6.324136e-06 -2.9946425e-06
-3.3371512e-06 2.7273136e-06 -3.7338802e-07 8.004434e-06 -2.839519e-06 6.1004903e-06 3.1526195e-06 5.7071134e-06
-3.7538796e-06 3.155079e-06 -1.10103e-06 -3.7956381e-06 4.075257e-06 1.3227202e-07 6.406927e-06 6.856653e-06
-2.6011687e-06 6.0125763e-06 -9.937693e-07 -8.882164e-06 2.0053903e-06 1.5978418e-06 1.1720117e-06 -3.0484769e-06
7.717307e-06 5.347249e-06 2.232054e-06 7.568764e-06 -2.1185788e-06 7.0281163e-07 8.670215e-06 4.947162e-06
7.475084e-06 2.689892e-06 9.743274e-06 9.016159e-06 4.934634e-07 3.739477e-06 7.097623e-06 5.252901e-06
-6.1617294e-07 8.6497585e-06 2.3192963e-06 -5.8942046e-06 -6.848242e-07 5.6005597e-06 2.0943512e-06 1.819531e-06
3.740017e-06 9.494675e-06 3.0990907e-06 -3.7053837e-07 2.9952328e-06 -3.067257e-08 6.2216773e-06 5.4537522e-06
1.3715257e-06 -6.304383e-06 1.0321223e-05 -7.5237557e-07 -7.322693e-06 8.1381395e-06 1.3517368e-06 1.7168682e-06
1.2388024e-06 -3.324639e-06 5.114986e-06 2.474431e-06 8.154757e-06 -2.5085048e-06 1.4964526e-06 -2.2279407e-06
2.3315735e-08 6.738423e-06 3.6725228e-06 -1.9739273e-06 7.312195e-06 6.1131514e-06 -4.4209814e-06 7.2142025e-06
-3.64958e-06 5.9175827e-06 1.8108096e-06 6.1003775e-06 -2.7076876e-06 2.9369783e-06 -2.1059184e-06 2.5781335e-06
-2.137926e-06 4.900615e-06 9.21175e-06 3.3398478e-06 1.1542519e-05 3.3372912e-06 2.4635233e-06 4.9077885e-06
1.7448781e-06 1.4896252e-05 -2.3725336e-06 -1.483705e-06 -1.9159156e-06 1.1664973e-05 9.363832e-07 -1.5936425e-06
00000000: 3fea e836 c78d 7836 197f 5b36 fe0f 2936
00000010: 99fb 32b6 72b5 85b4 68d9 c9b5 0a78 95b6
00000020: e279 5234 1435 3f36 01f1 0937 4121 0836
00000030: aa51 8cb6 622f 1b37 e997 7536 71f0 d434
00000040: 246f 89b5 5959 52b4 00d3 4ab5 16f5 03b5
00000050: 02e9 ef36 cded f835 5abb cab5 4df9 18b6
00000060: d525 2f36 624d 53b6 a338 ae36 ce57 a236
00000070: 3d53 b336 dc62 8d36 46de 4a36 c772 21b6
00000080: b702 7335 5a99 82b5 b3c0 9536 5ed9 3b36
00000090: 74b8 0337 c980 a336 fcc3 e736 e6d3 1537
000000a0: 12dd b136 5253 e436 89ab 8e36 bd8c 95b6
000000b0: 0d43 1137 81fc a236 eef3 8936 89df a936
000000c0: d26b 42b6 d93e dcb5 96f0 d936 f7b0 d036
000000d0: 66fe ee36 84fc f436 592f ea36 952b 1b35
000000e0: 8473 2737 f4df d336 b610 8936 0f3d 99b5
000000f0: e5d1 6bb6 13b0 13b3 2e24 1e36 fc00 4e37
00000100: dccb 30b6 c36f 2d37 b5ed 8036 1076 4636
00000110: 659b 22b6 238e 16b5 ff25 9c35 fb5a cfb5
00000120: 8a0a 4436 918a 0f37 d1b5 8d36 228e fa36
00000130: 7e84 1436 58ec 52b6 f6a8 8bb4 dacc bb36
00000140: c306 4035 99b4 ed36 03b1 d0b6 f5ae 1037
00000150: e55a 90b5 a10d 2437 489f 5cb6 d2c2 6a34
00000160: 9c73 ab36 7d62 0037 7f9f 53b3 1571 03b6
00000170: c905 a735 ca5a 2b36 1aa7 d735 43de 7836
00000180: 8d13 6736 29c5 ca36 f553 7734 8404 5a36
00000190: b830 4636 85ff da36 5173 3fb6 5b09 21b3
000001a0: bb47 4736 2502 4636 6cd1 5736 5126 0134
000001b0: 56c7 4fb4 4995 9536 cd36 15b6 1b0b 6c35
000001c0: b792 db36 bad3 c7b6 4b49 0cb6 dc36 4137
000001d0: 9545 fe35 3a44 ca36 06b5 7db6 3f16 8b36
000001e0: b780 1036 5c5e 3db5 4819 e7b4 16d2 ea36
000001f0: aeb4 6e36 4e74 f736 b314 eb36 5893 c336
00000200: 46ef 5db6 8a4d 0236 954b 4136 8bf9 8b34
00000210: 4b8e 5db5 885c 2136 af85 2636 e20c 5fb6
00000220: 04a6 5836 0e38 ccb6 23b4 3237 6125 d8b6
00000230: fec1 5436 2577 a536 ae87 2936 df99 8d36
00000240: 943f df35 6ff0 46b6 3e63 0b37 d79c 7db6
00000250: 315c c5b5 3c44 23b6 ea33 d436 91f7 48b6
00000260: d2f3 5fb6 e406 3736 0f76 c8b4 c84a 0637
00000270: 918e 3eb6 d0b2 cc36 9791 5336 bb7f bf36
00000280: 29eb 7bb6 d8bb 5336 1ac7 93b5 91b8 7eb6
00000290: 31be 8836 a806 0e34 15fb d636 3312 e636
000002a0: bd8f 2eb6 a3bf c936 a761 85b5 9b04 15b7
000002b0: 5894 0636 6d75 d635 044e 9d35 6f94 4cb6
000002c0: 9579 0137 856c b336 65ca 1536 30f7 fd36
000002d0: e82c 0eb6 d9a8 3c35 4a76 1137 ccff a536
000002e0: 7cd2 fa36 fe83 3436 0b77 2337 1c44 1737
000002f0: 8c76 0435 baf3 7a36 1e28 ee36 1342 b036
00000300: 1567 25b5 6e1e 1137 35a5 1b36 d5c6 c5b6
00000310: c3d4 37b5 71ec bb36 ae8c 0c36 9c36 f435
00000320: 01fd 7a36 524b 1f37 f9f9 4f36 68ee c6b4
00000330: b501 4936 d9bc 03b3 cdc3 d036 60ff b636
00000340: 4415 b835 3d8a d3b6 5129 2d37 dbf6 49b5
00000350: 74b5 f5b6 0b89 0837 536d b535 246f e635
00000360: ed44 a635 dd1c 5fb6 65a1 ab36 670e 2636
00000370: 6ad0 0837 c957 28b6 b8d9 c835 bb83 15b6
00000380: d847 c832 9d1a e236 7675 7636 d077 04b6
00000390: 475b f536 921f cd36 f157 94b6 8711 f236
000003a0: 4feb 74b6 a68f c636 f20a f335 d8b1 cc36
000003b0: b8b5 35b6 e718 4536 6753 0db6 ff03 2d36
000003c0: 4a79 0fb6 f66f a436 2a8c 1a37 2622 6036
000003d0: bea6 4137 3af6 5f36 0253 2536 95ad a436
000003e0: 8e31 ea35 eaea 7937 d137 1fb6 b723 c7b5
000003f0: 2e93 00b6 adb4 4337 c35b 7b35 24e5 d5b5

tree_conv.3.weights.weight f4 [128, 256, 3]
0.0011806816 0.0032632507 -0.0010162225 -0.0017369061 -0.008320545 0.0011528262 -0.00220405 -0.001042895
0.0030165082 -0.0001310183 -0.00024393269 -0.0022414832 -0.004457703 -0.007242772 0.002600196 0.005447522
0.006567333 0.00017788727 -0.0023877989 0.0013520053 0.0028626225 -0.014053554 0.0017038794 -0.00088648254
2.4901217e-05 0.0009781799 0.0032270073 -0.0074792993 -0.020215018 0.00035773346 0.0008651138 -0.0010512818
-0.0008420153 -0.0069360253 -0.0015463195 -0.0005522776 -0.009358454 -0.005305473 0.0005690844 -0.0048242453
-0.004886477 0.00042947227 0.0012472228 0.00034759703 0.0018352211 0.0003983382 -0.00014633636 -0.0011008966
0.00013536382 0.0007585521 0.002787589 0.0011106166 0.0011987131 0.0032100591 -0.018747218 -0.020059412
-0.007255805 0.0038240352 0.0005307101 0.0011695607 0.0023180046 0.0017564276 -0.0039089294 -0.005707472
-0.0080567915 -0.0074586356 0.005860782 -0.007265833 0.0009162051 0.00067058846 -0.0012228535 0.0023467739
-0.002892804 0.0012950413 0.0034325204 -0.0045156865 -0.0061222417 -0.0014956446 -0.017484691 0.008786801
-0.0041488716 0.019789876 -0.003114256 0.0009906442 0.009742597 -0.00095134426 0.0015068813 0.00088689214
0.0009984674 0.003204048 -0.002409349 -0.0002076625 0.0009020809 0.0075287116 -0.010989503 0.00017958746
-0.007809539 0.006793484 -0.001183972 0.0003432977 0.0023503855 0.002973379 0.00083010434 0.0009170378
0.001491618 0.005575889 -0.019496325 -0.0040300856 0.019563412 0.0017312084 -0.0059030736 0.014413457
-0.018235808 0.0013875766 -0.0039160345 -0.009611012 0.0005595899 -0.004287042 0.007546068 -0.00068583986
-0.0061195306 0.0018599079 0.0020294308 -0.027438138 0.014894217 -0.0029805216 -0.003520662 -0.0066753183
0.0005899393 0.003298629 -0.0008392534 -0.003762883 0.0068369503 -0.0006223547 -0.002063682 0.0146759255
0.021952892 0.00039654467 -0.011553084 0.0119078085 0.0017619492 0.008281549 -0.015610077 0.0006951134
0.0013030798 -0.005557007 -0.00046487953 -0.0027953736 0.013216801 -0.004563129 0.00045822494 0.00297643
-0.0016116401 0.015050523 -0.02161396 0.0010501941 -0.0017497907 0.0013612545 0.0017045554 0.0009865649
0.0002649604 0.002674261 -0.011622993 -0.0042160517 0.0023205187 0.0012939713 0.00037862977 0.0019165352
0.002371818 0.0016747339 0.0018755527 -0.0070166173 -0.0113706505 0.0027742288 0.0042575863 -0.0018727463
-0.0026717565 -0.011078045 -0.0035649324 -0.003908948 -0.0009150034 0.0013743611 0.0031754924 0.008268551
0.005778319 0.0005049108 0.01810938 -0.0070092245 2.5486019e-05 0.006896671 -0.005371756 0.0012230685
0.0005490683 0.010268921 -0.0017599999 -0.011841625 -0.019093085 -0.002299243 0.0040584793 -0.02023054
-0.005096469 -0.0043648295 0.0010578822 -0.0007737618 -0.009656246 -0.013336742 0.0017260803 -0.000696316
-0.0032200424 0.0008480411 -0.0053527416 0.006543544 0.002446875 -0.008251888 -0.016962057 0.001234246
0.002396218 -0.0044987155 0.002709808 -0.00026125467 0.00060986483 -0.002229149 -0.009614997 0.003238107
-0.00288817 0.005143128 -0.0022954463 -0.003935003 0.0068612187 0.0016276253 -0.004144497 -0.0007159453
-0.0041320045 0.0009934368 0.004878863 -0.0022647479 0.0006060323 -0.0013058254 -0.00038669276 -0.0018063722
0.0013888236 0.000249245 -0.00067882665 -0.022478092 0.0020141827 -0.0014947546 0.0020266776 -0.00080851704
0.0028524448 -0.0069961403 -0.0051563983 -5.8907262e-05 -0.0014944872 0.013947891 -0.0023664208 0.008213946
00000000: 1ac1 9a3a 43dc 553b c532 85ba e6a8 e3ba
00000010: e552 08bc 6e1a 973a d371 10bb c0b1 88ba
00000020: 9cb0 453b f561 09b9 2fc8 7fb9 d9e5 12bb
00000030: ec11 92bb c654 edbb 0d68 2a3b 2081 b23b
00000040: c832 d73b 4087 3a39 9e7c 1cbb c535 b13a
00000050: d69a 3b3b e140 66bc b554 df3a d662 68ba
00000060: f5e2 d037 4536 803a 337c 533b e914 f5bb
00000070: f799 a5bc 2c8e bb39 cec8 623a 2acb 89ba
00000080: b1ba 5cba 9947 e3bb dfad caba b9c6 10ba
00000090: 3354 19bc 89d9 adbb 9c2e 153a b414 9ebb
000000a0: bd1e a0bb cb2a e139 da79 a33a af3d b639
000000b0: cd8b f03a 0cd8 d039 de71 19b9 f64b 90ba
000000c0: 73f0 0d39 92d9 463a fcaf 363b 1c92 913a
000000d0: 231e 9d3a db5f 523b c493 99bc a353 a4bc
000000e0: 1bc2 edbb aa9c 7a3b 5a1f 0b3a f24b 993a
000000f0: aae9 173b ee37 e63a 7a16 80bb bf05 bbbb
00000100: a200 04bc 9267 f4bb ce0b c03b 3a16 eebb
00000110: 7c2d 703a 6eca 2f3a 2848 a0ba 55cc 193b
00000120: 3395 3dbb 60be a93a 23f4 603b 53f8 93bb
00000130: 169d c8bb 8109 c4ba 0e3c 8fbc 84f6 0f3c
00000140: 42f3 87bb 611e a23c 8c18 4cbb 81d8 813a
00000150: 6a9f 1f3c a263 79ba 8c82 c53a 537e 683a
00000160: 02df 823a 01fb 513b 2be6 1dbb fabf 59b9
00000170: a079 6c3a 69b3 f63b 510d 34bc a44f 3c39
00000180: 29e7 ffbb e09b de3b 822f 9bba a3fc b339
00000190: ed08 1a3b 06dd 423b 5c9b 593a 5d65 703a
000001a0: 6582 c33a f2b5 b63b c2b6 9fbc cf0e 84bb
000001b0: 7343 a03c b7e9 e23a 926e c1bb 6c26 6c3c
000001c0: 4363 95bc 58df b53a 1452 80bb 8277 1dbc
000001d0: 71b1 123a 517a 8cbb 0245 f73b efc9 33ba
000001e0: 5886 c8bb 27c8 f33a 3300 053b f2c5 e0bc
000001f0: e006 743c db54 43bb e8ba 66bb a1bc dabb
00000200: 28a6 1a3a d02d 583b 5801 5cba b39a 76bb
00000210: 7f08 e03b 8425 23ba d73e 07bb 4b73 703c
00000220: 8dd6 b33c 53e7 cf39 2549 3dbc f818 433c
00000230: 34f1 e63a 56af 073c 69c1 7fbc 4538 363a
00000240: 1acc aa3a 8e17 b6bb 13bb f3b9 9632 37bb
00000250: 488b 583c 4d86 95bb e93d f039 3610 433b
00000260: ab3d d3ba 7896 763c c20f b1bc aba6 893a
00000270: 3c59 e5ba 1f6c b23a 636b df3a a04f 813a
00000280: 62ea 8a39 a842 2f3b 5e6e 3ebc ce26 8abb
00000290: d813 183b 799a a93a d482 c639 4034 fb3a
000002a0: 8170 1b3b bf82 db3a 1bd5 f53a a7eb e5bb
000002b0: f74b 3abc d6cf 353b 3983 8b3b f076 f5ba
000002c0: a318 2fbb b080 35bc a4a1 69bb a216 80bb
000002d0: d7dc 6fba e823 b43a ec1b 503b d178 073c
000002e0: 0e58 bd3b fd5b 043a 1f5a 943c a3ad e5bb
000002f0: cfca d537 78fd e13b 8e05 b0bb 5e4f a03a
00000300: 5aef 0f3a fa3e 283c ccaf e6ba 6003 42bc
00000310: 1a69 9cbc e5ae 16bb fefc 843b 84ba a5bc
00000320: 4800 a7bb d806 8fbb a3a8 8a3a 47d6 4aba
00000330: 3b35 1ebc 5a82 5abc a53d e23a fa88 36ba
00000340: 5907 53bb 134f 5e3a 0d66 afbb 3a6b d63b
00000350: c05b 203b ed32 07bc 03f4 8abc 6cc6 a13a
00000360: de09 1d3b f669 93bb 0997 313b 02f9 88b9
00000370: 56df 1f3a ea16 12bb 3888 1dbc 6c36 543b
00000380: 7447 3dbb af87 a83b 336f 16bb 33f1 80bb
00000390: 13d4 e03b 0b56 d53a 90ce 87bb 47ae 3bba
000003a0: c465 87bb 3536 823a dfde 9f3b 2a6c 14bb
000003b0: 24de 1e3a 3b28 abba 06bd cab9 cbc3 ecba
000003c0: 3009 b63a 19ad 8239 49f3 31ba fa23 b8bc
000003d0: 6100 043b a4eb c3ba 02d2 043b a9f2 53ba
000003e0: 15f0 3a3b e13f e5bb 01f7 a8bb 3113 77b8
000003f0: abe2 c3ba b285 643c f415 1bbb c993 063c

tree_conv.3.weights.bias f4 [128]
0.013669451 0.023829635 0.0077985553 -0.0109938 0.0037732637 0.031242615 -0.014827138 -0.01925543
-0.0143290665 -0.034153707 0.07101613 0.016799217 0.00054976076 0.04365524 -0.021698505 -0.009212532
-0.017804446 -0.0035059939 0.021825338 0.019274188 -0.02895967 0.018990606 0.008832839 0.022492465
-0.05240938 0.011939582 0.018537281 0.048718654 -0.038563207 0.01590932 -0.008212253 0.0239885
0.036748167 -0.01789001 0.0069514327 -0.0020251314 0.03015867 0.0022667032 0.012109657 3.035546e-05
0.015708037 0.015195065 0.011953138 0.0023221187 0.0048827613 -0.0034587542 0.004827142 -0.024897445
-0.0161719 0.03735614 0.01930786 0.051296066 0.012672575 0.02659321 -0.025216015 -0.0006280711
0.007072412 -0.022657435 0.012813593 0.017575473 -0.006514786 0.008998324 0.037949782 0.01350109
-0.012559902 0.031974256 0.048524924 0.0023339128 -0.005929945 0.019384302 0.0012784903 0.015083106
0.011742975 0.049077116 -0.021762563 0.013414892 0.028592456 -0.02265497 -0.009454539 0.0070554293
0.0105495155 0.0056331507 -0.009758224 0.024117963 0.026221178 -0.023837635 0.0004759686 -0.030663671
-0.016902927 0.021954656 -0.00874692 -0.013905748 -0.013501073 0.06716573 0.02191919 -0.0045050867
-0.009232347 -0.010290551 0.011680858 -0.0027369077 -0.00984552 0.038878422 0.022696506 -0.016696231
-0.0025117816 -0.02464664 0.003071425 0.02234824 0.03682361 0.00825038 0.00033522877 -0.014901492
-0.017564654 0.017768104 -0.021712698 -0.0007480901 0.00411768 -0.017833987 0.00071716605 0.0042435406
-0.011103059 -0.0053424044 -0.022187633 0.035751916 -0.005460867 0.009372572 0.014900578 0.020883515
00000000: d5f5 5f3c 5e36 c33c 068b ff3b 571f 34bc
00000010: dc48 773b 83f0 ff3c 86ed 72bc 90bd 9dbc
00000020: 76c4 6abc c2e4 0bbd e870 913d 839e 893c
00000030: d21d 103a d6cf 323d 10c1 b1bc 29f0 16bc
00000040: a1da 91bc d1c4 65bb 0dcb b23c e7e4 9d3c
00000050: d43c edbc 3092 9b3c 9db7 103c 1e42 b83c
00000060: 38ab 56bd 3d9e 433c 7fdb 973c 368d 473d
00000070: 74f4 1dbd 4354 823c b08c 06bc 8883 c43c
00000080: 3f85 163d 128e 92bc d8c8 e33b 11b8 04bb
00000090: 510f f73c f88c 143b 9567 463c dba3 fe37
000000a0: 24ae 803c b9f4 783c 18d7 433c b02e 183b
000000b0: 92ff 9f3b 44ac 62bb 012d 9e3b baf5 cbbc
000000c0: ef7a 84bc c002 193d 842b 9e3c d31b 523d
000000d0: a2a0 4f3c 01da d93c d191 cebc 23a5 24ba
000000e0: b1bf e73b 169c b9bc 1bf0 513c 70fa 8f3c
000000f0: fc79 d5bb b56d 133c 3b71 1b3d ad33 5d3c
00000100: 0cc8 4dbc 70f7 023d 12c2 463d 8ff4 183b
00000110: fc4f c2bb d4cb 9e3c 0493 a73a 221f 773c
00000120: 9b65 403c 1605 493d 6747 b2bc 23ca 5b3c
00000130: ba3a ea3c ea96 b9bc 36e7 1abc 3b31 e73b
00000140: e0d7 2c3c 4b96 b83b f5e0 1fbc 0993 c53c
00000150: cccd d63c 2547 c3bc 6d8b f939 6132 fbbc
00000160: 0278 8abc 40da b33c 3e4f 0fbc efd4 63bc
00000170: 9b33 5dbc 308e 893d e08f b33c 689f 93bb
00000180: 4543 17bc b399 28bc 1261 3f3c b15d 33bb
00000190: 1b4f 21bc fb3e 1f3d 06ee b93c 89c6 88bc
000001a0: b49c 24bb c0e7 c9bc f649 493b a813 b73c
000001b0: 5bd4 163d 9a2c 073c a5c1 af39 6325 74bc
000001c0: c0e3 8fbc 6a8e 913c d4de b1bc 7a1b 44ba
000001d0: 9aed 863b 9518 92bc 3300 3c3a 660d 8b3b
000001e0: 9be9 35bc 560f afbb d7c2 b5bc 9a70 123d
000001f0: 13f1 b2bb 6b8f 193c 8e21 743c e813 ab3c

tree_conv.6.weights.weight f4 [64, 128, 3]
-0.0017650338 -0.023159223 4.000101e-05 -0.013422041 0.0056204903 6.567807e-05 -0.017253505 -0.0048387498
-0.00083760347 -0.00411364 0.008135016 -0.0010177547 -0.004582992 -0.00875276 -0.0016876393 0.0031222661
0.00019180017 0.00018317558 0.004736735 0.020989781 9.823898e-05 -0.009597092 0.022719773 0.00024155928
0.0028471788 0.025774123 0.000114987124 -0.00356051 0.0013349024 0.00028621295 -0.019028766 -0.015337701
0.0009050046 -0.03140987 0.01655858 -0.0002824626 0.0040977113 -0.010449151 0.0005590928 -0.008476375
-0.017808124 -0.0006961251 -0.003377448 0.0016787199 0.0005963598 -0.0084444 0.002831215 -0.00023256156
-0.0146860955 0.016802695 -0.00059909123 -0.009904567 0.00394952 0.00032687487 -0.009335918 0.035122074
-0.0010871998 -0.025690373 -0.026286239 0.002023257 -0.016258856 0.01625305 0.00031369957 0.0056525622
-0.008183667 0.00035929104 0.0058703176 -0.029119033 0.0005746578 0.0068424456 0.0003132791 -0.00064262917
-0.026187632 0.027948407 0.00031268355 0.03891718 -0.012770373 -0.00063935126 0.016599266 0.002263622
-0.00021264733 -0.013325687 -0.008447434 -0.0013838237 -0.016086375 0.010593751 -0.0001476886 -0.006173621
0.004399469 -8.0896185e-05 -0.012412418 0.009041056 0.00016445566 -0.014125225 0.007918141 -0.00046854242
0.043558676 0.0071828365 0.00032101513 0.0007020575 -0.012180848 -0.001522719 -0.009943607 0.014199266
-0.00010748551 0.0039326204 0.006551317 -6.794309e-05 0.016649159 0.031274017 -0.00015024163 -0.002835679
0.004122576 -0.0005333897 -0.011237546 0.011027848 0.0008869277 -0.009043995 -0.0076368516 0.00042432794
0.008554848 0.00029956186 -0.00015301327 0.0037578593 -0.009981395 -0.00084263185 -0.033466935 0.02351744
-0.00035440797 -0.006983073 -0.004920573 0.00023895575 -0.016861036 0.0042543225 0.00038612678 -0.028007822
-0.022966424 0.0003701796 -0.008687767 0.0033632377 0.0007534034 0.0052943993 -0.0139994705 0.00031298943
0.0007393706 0.00162775 -0.00012432749 -0.0028990859 -0.002657501 0.0008955408 -0.019835034 -0.004088429
-0.00061923085 0.035899043 -0.0069859354 -0.00040995755 0.0043735076 0.003713791 -0.0007073478 0.015229463
-0.022388067 0.0005121256 0.01743638 0.0015027415 0.00031021654 -0.009327787 -0.02090151 0.00036361013
-0.01116667 -0.0116752945 0.0002929438 0.0076685315 -0.004041882 0.00021722993 -0.002441055 -0.01207468
0.00024288485 -0.009202705 0.0104823485 -0.00022852639 0.006084435 -0.008440606 -0.0010411232 0.008419161
-0.012792529 -0.00078262173 -0.008850246 0.0059231403 -0.000936253 -0.0016647403 -0.0035921205 -0.00051108986
0.03007671 0.03806949 -0.00013544392 -0.0049517583 -0.0032922572 -0.0003898473 -0.006195841 -0.013472702
0.00023587878 -0.011090332 0.033516064 -0.0016249871 0.0005734955 0.0014047938 0.00020286728 0.014641543
0.016230267 -0.00021077674 -0.0008192335 -0.0018644106 0.0007511413 0.00059681886 0.00024408876 -0.00011122642
0.005286245 -0.015520876 0.000930614 -0.0054331194 0.034989092 0.00041436363 0.010461548 0.01535205
-0.00018245386 -0.0061619557 0.035366323 -0.000106423526 0.016607514 -0.0011108831 0.0010196995 -0.015300258
-0.0005130714 0.00052401965 0.0031308136 -0.0007425384 0.000496985 0.007978092 0.01594 0.000116107214
0.001794129 -8.923672e-06 9.860469e-05 0.0020841132 0.00777586 7.005594e-05 -0.0015755431 -0.00066493463
0.00027709204 0.026399523 0.0019903628 0.00029811022 0.007757379 0.013178083 0.0001413699 -0.027548822
00000000: b558 e7ba 69b8 bdbc c2c6 2738 1fe8 5bbc
00000010: 172c b83b a5bc 8938 3957 8dbc 608e 9ebb
00000020: 9e92 5bba b7cb 86bb bb48 053c 2e66 85ba
00000030: ec2c 96bb bc67 0fbc c733 ddba ef9e 4c3b
00000040: f71d 4939 d212 4039 9d36 9b3b c3f2 ab3c
00000050: a705 ce38 1f3d 1dbc d11e ba3c 134b 7d39
00000060: bc97 3a3b 4124 d33c 3e25 f138 7257 69bb
00000070: e4f7 ae3a da0e 9639 37e2 9bbc fb4a 7bbc
00000080: d53d 6d3a a3a7 00bd dca5 873c 7d17 94b9
00000090: 1846 863b ea32 2bbc 1590 123a 7ee0 0abc
000000a0: 58e2 91bc 2a7c 36ba 2d58 5dbb 7e08 dc3a
000000b0: 0755 1c3a 615a 0abc e88b 393b c5db 73b9
000000c0: f39d 70bc cea5 893c 550c 1dba c446 22bc
000000d0: fa6a 813b 6760 ab39 aef5 18bc 2adc 0f3d
000000e0: 5f80 8eba 9e74 d2bc 3d56 d7bc 9f98 043b
000000f0: 4b31 85bc 1e25 853c 0b78 a439 2139 b93b
00000100: ca14 06bc 3a5f bc39 cb5b c03b 0a8b eebc
00000110: a2a4 163a 9836 e03b 9c3f a439 1d76 28ba
00000120: 7287 d6bc 0ff4 e43c adef a339 9f67 1f3d
00000130: d43a 51bc 239a 27ba 2ffb 873c 4659 143b
00000140: 15fa 5eb9 fb53 5abc 1b67 0abc 6b61 b5ba
00000150: 93c7 83bc 6a91 2d3c dbdc 1ab9 164c cabb
00000160: 6c29 903b cfa6 a9b8 745d 4bbc f020 143c
00000170: bb71 2c39 7d6d 67bc 17bb 013c b3a6 f5b9
00000180: 956a 323d 005e eb3b ec4d a839 480a 383a
00000190: 2e92 47bc f995 c7ba 83ea 22bc 0aa4 683c
000001a0: d869 e1b8 36dd 803b 6eac d63b ab7c 8eb8
000001b0: d163 883c 2f19 003d 2e8a 1db9 cdd6 39bb
000001c0: ad16 873b 2dd3 0bba af1d 38bc 26ae 343c
000001d0: b680 683a 442d 14bc 8e3e fabb 5578 de39
000001e0: a229 0c3c 830e 9d39 3072 20b9 6b46 763b
000001f0: 0189 23bc 11e4 5cba a014 09bd a5a7 c03c
00000200: d5cf b9b9 43d2 e4bb c23c a1bb 3290 7a39
00000210: 2820 8abc d867 8b3b 0f71 ca39 a970 e5bc
00000220: 1524 bcbc aa14 c239 2357 0ebc c469 5c3b
00000230: 0c80 453a a47c ad3b 095e 65bc bb18 a439
00000240: 52d2 413a 3a5a d53a e85d 02b9 97fe 3dbb
00000250: 7829 2ebb bac2 6a3a 157d a2bc 3af8 85bb
00000260: e153 22ba e00a 133d 46ea e4bb 92ef d6b9
00000270: a44f 8f3b 1363 733b 4f6d 39ba ff84 793c
00000280: 2e67 b7bc 2b40 063a bdd6 8e3c a3f7 c43a
00000290: 8fa4 a239 93d3 18bc a539 abbc eda2 be39
000002a0: 69f4 36bc bc49 3fbc 4096 9939 4e48 fb3b
000002b0: c471 84bb 37c8 6339 1bfa 1fbb e1d4 45bc
000002c0: e8ae 7e39 f1c6 16bc 28be 2b3c 96a0 6fb9
000002d0: f15f c73b 784a 0abc 4c76 88ba 85f0 093c
000002e0: c197 51bc db28 4dba 9f00 11bc e716 c23b
000002f0: e06e 75ba 6a33 daba c869 6bbb a9fa 05ba
00000300: 6f63 f63c c1ee 1b3d f305 0eb9 5c42 a2bb
00000310: e9c2 57bb 6b64 ccb9 7b06 cbbb 9cbc 5cbc
00000320: 3a56 7739 39b4 35bc 2448 093d 85fd d4ba
00000330: a256 163a 0f21 b83a c5b8 5439 15e3 6f3c
00000340: 56f5 843c f303 5db9 d4c1 56ba 3d5f f4ba
00000350: 3de8 443a d673 1c3a 14f2 7f39 3b42 e9b8
00000360: 3d38 ad3b 464b 7ebc 73f4 733a 4f08 b2bb
00000370: b950 0f3d f23e d939 ea66 2b3c 2a87 7b3c
00000380: 1651 3fb9 3bea c9bb 47dc 103d b22f dfb8
00000390: 7b0c 883c 0d9b 91ba 70a7 853a efad 7abc
000003a0: a47f 06ba 5d5e 093a 562e 4d3b e9a6 42ba
000003b0: 1948 023a 8bb6 023c 9a94 823c 967e f338
000003c0: fb28 eb3a e1b6 15b7 fdc9 ce38 9e95 083b
000003d0: a4cc fe3b ffea 9238 7482 ceba 024f 2eba
000003e0: aa46 9139 d043 d83c bf70 023b ad4b 9c39
000003f0: 9d31 fe3b e3e8 573c b23c 1439 11ae e1bc

tree_conv.6.weights.bias f4 [64]
0.033970464 0.031002965 0.026351292 -0.031012975 -0.0046706446 -0.008955519 -0.026592053 0.013764782
-0.00772211 0.04930009 -0.031993486 -0.050359234 -0.02976332 0.027408617 -0.041112017 -2.9624533e-05
0.02675409 -0.023378156 0.029563963 0.02049968 0.04249503 -0.016160302 0.008514949 0.027800601
-0.043501817 0.016423477 -0.014008878 -0.04312603 0.028252637 0.04600192 0.0045473464 0.04193763
-0.056754313 -0.050461918 0.010841553 -0.011703914 -0.0055817496 -0.034966726 -5.8063608e-05 -0.030691478
0.03076086 0.010228813 -0.017162554 -0.05619918 -0.049042508 0.04157024 0.023017388 0.026477247
0.0021867245 -0.058147646 -0.03952036 -0.007362142 -0.015266995 0.0053409236 -0.039126046 0.034262914
0.016907873 0.04491144 0.046897024 0.032624464 -0.037434306 -0.02315112 -0.0068997922 0.017356455
00000000: 9d24 0b3d eef9 fd3c aade d73c ec0e febc
00000010: 350c 99bb 2bba 12bc 94d7 d9bc ae85 613c
00000020: c109 fdbb e4ee 493d 9a0b 03bd 7c45 4ebd
00000030: 35d2 f3bc 0988 e03c 1365 28bd 3382 f8b7
00000040: 652b db3c 8c83 bfbc 2030 f23c f2ee a73c
00000050: 450f 2e3d 9c62 84bc 4982 0b3c 16be e33c
00000060: f62e 32bd 878a 863c 7e85 65bc eca4 30bd
00000070: 1372 e73c 826c 3c3d e801 953b cbc6 2b3d
00000080: 3677 68bd 28b1 4ebd c5a0 313c c6c1 3fbc
00000090: 1ce7 b6bb 4539 0fbd 5389 73b8 b26c fbbc
000000a0: 33fe fb3c c096 273c 7c98 8cbc 1d31 66bd
000000b0: cce0 48bd 8e45 2a3d f68e bc3c d0e6 d83c
000000c0: 264f 0f3b 3a2c 6ebd 1ae0 21bd 203e f1bb
000000d0: 6b22 7abc ea02 af3b a242 20bd 4557 0c3d
000000e0: 6182 8a3c 0ff5 373d 1817 403d 3ba1 053d
000000f0: b754 19bd 6ba7 bdbc a717 e2bb 202f 8e3c

tree_conv.9.weight f4 [32, 64]
0.0016059352 0.05367145 -0.028370187 0.042408302 0.0007203922 0.009402518 0.08611653 -0.0017471329
-0.011211771 -0.026132878 0.012232106 0.02201427 0.058564495 0.03534947 0.03961311 -0.0047596316
-0.015101428 -0.053952277 -0.0550864 -0.0020073773 0.054218184 -0.058907524 0.025783537 0.031904373
0.0511015 0.02749774 -0.050681267 0.0047107185 -0.041189082 -0.017245552 0.0044561904 0.082388625
-0.049108803 0.008079426 0.021460325 -0.061077118 -0.06597517 0.004876959 0.022772742 0.0912212
-0.073341124 0.06639111 0.053949717 -0.015831519 0.012015785 -0.038692407 0.020375162 -0.11076775
-0.0050229216 0.060995504 -0.022610834 0.030368635 -0.06372705 0.022263989 -0.10379603 -0.062429357
0.04327314 -0.07544837 0.09550878 0.018199433 -0.048863437 0.000739347 0.05354026 -0.0015397687
-5.542128e-06 -3.7569906e-05 -1.1445737e-05 -5.8149913e-06 -5.608161e-06 -1.7150945e-05 -6.031898e-06 -4.799613e-06
-1.1884304e-05 -5.851421e-06 -3.1191933e-06 -4.277324e-06 -3.9144143e-06 -4.80479e-06 -1.0523751e-05 -2.416471e-06
-5.3623667e-06 -1.3710914e-05 -6.0756997e-06 -6.838976e-06 -1.8409817e-05 -1.2558926e-05 -3.7159523e-05 -2.4408817e-05
-1.1838772e-05 -1.072999e-05 -4.4417506e-05 -1.5962372e-05 -1.3022604e-05 -7.849622e-06 -1.4028094e-05 -5.7121206e-06
-1.268317e-05 -5.2697364e-06 -1.2051857e-05 -5.3212175e-06 -4.1694748e-05 -5.642344e-06 -6.4148862e-06 -4.114696e-06
-1.1538644e-05 -1.1642609e-05 -5.0676044e-06 -3.1855607e-06 -6.202758e-06 -1.5983993e-05 -1.2811652e-05 -2.1438393e-05
-5.26941e-06 -1.560566e-05 -2.2857768e-05 -1.0172806e-05 -1.1166279e-05 -3.7351624e-06 -4.5473258e-05 -4.246663e-06
-5.13577e-06 -2.405668e-05 -4.294621e-06 -8.67591e-06 -2.796792e-06 -3.3999252e-06 -1.451132e-05 -5.930152e-06
-9.58568e-07 -4.4139782e-07 2.1643868e-07 -1.1050868e-06 -1.4075732e-07 3.742003e-07 -3.2898492e-07 -5.486052e-08
3.4950526e-07 -9.499819e-07 -6.864777e-07 -4.2944464e-07 -1.5505677e-07 -4.197711e-09 -1.1325267e-06 1.9005063e-07
-1.7152081e-07 -5.495438e-07 2.240372e-07 -7.9614546e-07 -1.1176272e-06 3.370592e-07 3.1698036e-07 -9.0513856e-07
2.633225e-07 1.0422608e-07 -1.6106525e-06 -1.9925919e-07 3.3640484e-07 -1.3459163e-07 -7.920072e-08 -9.35345e-07
8.950991e-08 -4.178833e-07 3.9146926e-07 2.916535e-07 -1.6635062e-07 2.187898e-07 -1.887284e-07 -7.1579325e-07
-1.5314734e-07 -4.7672108e-07 3.9634523e-07 -3.1875328e-07 -9.329667e-07 6.3770536e-08 -1.7560846e-07 5.782916e-08
9.9035816e-08 1.974461e-07 -3.4136264e-08 3.8542444e-07 -1.1305987e-06 -9.0243304e-07 -1.5523007e-06 1.5081393e-07
2.1244696e-07 -9.563414e-07 -7.742353e-07 -4.455587e-09 2.3113778e-07 1.04535886e-07 1.1959614e-07 -1.0459379e-07
-0.0056385333 0.025050497 -0.0006511222 -0.00020283942 -0.00045749368 0.0015781545 0.0011374335 -0.002648571
-0.0010845081 -0.005328394 -0.0017697446 0.00091043644 0.00010443309 0.0022190786 -0.02090032 0.00036141285
-0.0005038446 0.0015898691 -0.00013529001 0.013639524 -0.0134450635 -0.0029605813 -0.0073474436 -0.014235228
-0.000722475 0.00014900729 0.024916327 -0.002349792 -0.007540731 -0.0015802918 0.0071065538 0.012069719
0.0016067086 -0.0039362703 -0.0039770235 0.011859082 0.025217796 -0.0010654414 -0.0018722347 0.004234118
-0.00035839344 -0.015300938 -0.00079721457 -0.005697926 -0.002880126 -0.017687462 0.005522723 -0.021149889
-0.00046383755 0.0033801899 0.013106705 -0.004562917 -0.015869498 -0.003339332 -0.033477437 -0.00038865107
0.0010942054 0.0050509116 -0.01344463 -0.00083675224 -0.0003185364 0.0006564615 -0.002726591 -6.191273e-05
00000000: 3e7e d23a 98d6 5b3d 9868 e8bc 54b4 2d3d
00000010: b4d8 3c3a 050d 1a3c dd5d b03d 0d00 e5ba
00000020: 93b1 37bc 9e14 d6bc 2c69 483c 4557 b43c
00000030: 53e1 6f3d 9bca 103d 5b41 223d aff6 9bbb
00000040: fb6b 77bc 10fd 5cbd 47a2 61bd 348e 03bb
00000050: e313 5e3d 0449 71bd ff37 d33c 29ae 023d
00000060: ce4f 513d f142 e13c 2997 4fbd 5f5c 9a3b
00000070: e2b5 28bd 8b46 8dbc 3c05 923b 5ebb a83d
00000080: 5026 49bd 925f 043c 90cd af3c 002c 7abd
00000090: fd1d 87bd e6ce 9f3b e78d ba3c 2ed2 ba3d
000000a0: df33 96bd 10f8 873d 61fa 5c3d 1ab1 81bc
000000b0: dbdd 443c ee7b 1ebd d0e9 a63c 34da e2bd
000000c0: 5297 a4bb 6cd6 793d 5b3a b9bc a5c7 f83c
000000d0: 5483 82bd f862 b63c 0393 d4bd edb5 7fbd
000000e0: 2d3f 313d ad84 9abd 1b9a c33d fa16 953c
000000f0: 0725 48bd bdd0 413a 084d 5b3d 10d2 c9ba
00000100: 84f6 b9b6 6194 1db8 1107 40b7 651e c3b6
00000110: bc2d bcb6 60df 8fb7 9c65 cab6 5d0c a1b6
00000120: b262 47b7 5357 c4b6 5553 51b6 ef85 8fb6
00000130: 9058 83b6 d538 a1b6 2b8f 30b7 a82a 22b6
00000140: 61ee b3b6 ed07 66b7 dddd cbb6 5b7a e5b6
00000150: c86e 9ab7 2db4 52b7 bcdb 1bb8 89c1 ccb7
00000160: 239f 46b7 f504 34b7 ef4c 3ab8 efe6 85b7
00000170: a97b 5ab7 dfb1 03b7 345a 6bb7 beaa bfb6
00000180: cdc9 54b7 b1d2 b0b6 5532 4ab7 e98c b2b6
00000190: 65e1 2eb8 5e53 bdb6 743f d7b6 f810 8ab6
000001a0: 1996 41b7 a054 43b7 640a aab6 84c7 55b6
000001b0: 4921 d0b6 5d15 86b7 a0f1 56b7 99d6 b3b7
000001c0: e3cf b0b6 e6e8 82b7 afbe bfb7 deab 2ab7
000001d0: ce56 3bb7 9aa9 7ab6 8aba 3eb8 8f7e 8eb6
000001e0: ee53 acb6 54cd c9b7 831a 90b6 c08e 11b7
000001f0: 85b0 3bb6 452a 64b6 a575 73b7 9efb c6b6
00000200: 25a8 80b5 41f9 ecb4 3666 6834 7e52 94b5
00000210: 1423 17b4 b3e5 c834 589f b0b4 c89f 6bb3
00000220: a3a3 bb34 4202 7fb5 6346 38b5 6c8e e6b4
00000230: ae7d 26b4 753b 90b1 5201 98b5 b810 4c34
00000240: 482b 38b4 5d84 13b5 e08e 7034 b3b6 55b5
00000250: 6101 96b5 10f5 b434 732d aa34 a6f8 72b5
00000260: c55e 8d34 e5d2 df33 992d d8b5 f3f3 55b4
00000270: 219b b434 4484 10b4 0e15 aab3 6b14 7bb5
00000280: 9838 c033 7259 e0b4 202b d234 8d94 9c34
00000290: 1c9e 32b4 7bec 6a34 44a5 4ab4 f024 40b5
000002a0: d270 24b4 0cf0 ffb4 46c9 d434 1e21 abb4
000002b0: fc70 7ab5 39f2 8833 e38e 3cb4 d55f 7833
000002c0: 84ad d433 9201 5434 389d 12b3 55ec ce34
000002d0: 13bf 97b5 ba3e 72b5 a558 d0b5 6bef 2134
000002e0: fa1c 6434 a45b 80b5 0bd5 4fb5 c217 99b1
000002f0: ab2e 7834 367d e033 566a 0034 0b9d e0b3
00000300: 72c3 b8bb b336 cd3c 12b0 2aba 4bb1 54b9
00000310: c3db efb9 14da ce3a ef15 953a a693 2dbb
00000320: 0e26 8eba cf99 aebb c6f6 e7ba 5baa 6e3a
00000330: 1703 db38 f66d 113b 2637 abbc 037c bd39
00000340: 7014 04ba 2863 d03a a3dc 0db9 4f78 5f3c
00000350: af48 5cbc 5006 42bb d3c2 f0bb e03a 69bc
00000360: 7a64 3dba d73e 1c39 531d cc3c f8fe 19bb
00000370: 3d18 f7bb cb21 cfba 18de e83b 12c0 453c
00000380: 3298 d23a d4fb 80bb b151 82bb 984c 423c
00000390: 8d95 ce3c 48a6 8bba c665 f5ba 5bbe 8a3b
000003a0: c1e6 bbb9 c9b0 7abc 2afc 50ba abb5 babb
000003b0: 7fc0 3cbb 4ce5 90bc f5f7 b43b 8842 adbc
000003c0: 392f f3b9 2d86 5d3b 81bd 563c 8684 95bb
000003d0: c000 82bc b2d8 5abb a31f 09bd ddc3 cbb9
000003e0: 716b 8f3a 1e82 a53b de46 5cbc 7e59 5bba
000003f0: 3b01 a7b9 6316 2c3a 9bb0 32bb 25d7 81b8

tree_conv.9.bias f4 [32]
-0.01249584 -8.638354e-06 -5.7226796e-08 0.00010803257 -0.06935693 1.7771237e-05 -0.0041620242 -4.435495e-06
0.0027656932 -0.0063538835 2.6093366e-16 4.7193765e-07 -0.008309171 -0.015427761 0.001390414 -0.0136354705
0.07662958 2.512916e-07 -0.00651357 -0.023387032 -0.018749526 0.001393765 0.00128181 -0.014254681
0.026249213 0.019333428 -0.007635704 -0.0012906236 -0.029151807 6.3838254e-11 -0.021161983 0.024831079
00000000: 5abb 4cbc 73ed 10b7 87c9 75b3 8b8f e238
00000010: 020b 8ebd 7113 9537 9761 88bb 9dd4 94b6
00000020: a240 353b 3d34 d0bb 036b 9625 9e5e fd34
00000030: 3023 08bc b8c4 7cbc 8d3e b63a 4f67 5fbc
00000040: f8ef 9c3d 41e9 8634 c96f d5bb 2996 bfbc
00000050: 9b98 99bc feae b63a 6802 a83a 778c 69bc
00000060: 9708 d73c 2361 9e3c ed34 fabb 242a a9ba
00000070: c5cf eebc be61 8c2e e55b adbc 8c6a cb3c

tree_conv.11.weight f4 [1, 32]
-0.08487788 -0.00010117576 4.8502386e-07 -0.04587509 0.16946298 0.00038582244 0.11390711 -9.958536e-06
0.017023109 0.118329614 -3.9721187e-16 -0.00042078114 0.04376578 -0.17862596 0.017654995 0.04177259
0.12351381 -0.00024460247 0.13407342 0.15041883 0.15710907 0.05437805 -0.056252405 -0.111021645
0.07914121 0.14264171 -0.027414454 -0.05199423 0.16457698 -8.3610355e-11 0.14968209 0.09688797
00000000: 74d4 adbd 532e d4b8 9632 0235 85e7 3bbd
00000010: b487 2d3e 3648 ca39 2248 e93d 9613 27b7
00000020: 0c74 8b3c cc56 f23d 20fa e4a5 4a9c dcb9
00000030: bf43 333d b9e9 36be 35a1 903c bc19 2b3d
00000040: cff4 fc3d fd3d 80b9 8b4a 093e 6507 1a3e
00000050: 33e1 203e 85bb 5e3d ec68 66bd 515f e3bd
00000060: c914 a23d ab10 123e 4794 e0bc e7f7 54bd
00000070: de86 283e 72dc b7ae 4346 193e 336d c63d
