src/Models/imdb/pointwise.onnx (onnx, 696807 bytes, 9 tensors)

tree_conv.0.weights.weight f4 [256, 55, 3]
000000 d0 0d 00 00 b4 0d 00 00 ba 0d 00 80 cd 0d 00 80
       4.955e-42 4.916e-42 -4.924e-42 -4.951e-42
000010 d0 0d 00 00 da 0d 00 00 2a 10 0f b5 4c f0 9c 2f
       4.955e-42 4.969e-42 -5.3295173e-07 2.8546976e-10
000020 a7 96 4b 2f b4 0d 00 80 ba 0d 00 00 c7 0d 00 00
       1.8516265e-10 -4.916e-42 4.924e-42 4.942e-42
000030 b2 0d 00 00 ad 0d 00 80 da 0d 00 80 c5 0d 00 00
       4.913e-42 -4.906e-42 -4.969e-42 4.94e-42
000040 c3 0d 00 00 c4 0d 00 00 b9 0d 00 00 cb 0d 00 00
       4.937e-42 4.938e-42 4.923e-42 4.948e-42
000050 cf 0d 00 00 b2 0d 00 00 c1 0d 00 00 c0 0d 00 80
       4.954e-42 4.913e-42 4.934e-42 -4.933e-42
000060 b2 40 cc b4 b3 99 95 34 47 00 97 34 ad 0d 00 00
       -3.8045033e-07 2.7865244e-07 2.8126144e-07 4.906e-42
000070 b7 0d 00 00 d2 0d 00 00 cb 0d 00 00 b3 0d 00 80
       4.92e-42 4.958e-42 4.948e-42 -4.914e-42
000080 c3 0d 00 00 6f ee f6 35 85 ec 28 32 c4 0d 00 80
       4.937e-42 1.8397822e-06 9.832665e-09 -4.938e-42
000090 ce 0d 00 80 bc 0d 00 00 b8 0d 00 80 d7 0d 00 00
       -4.952e-42 4.927e-42 -4.921e-42 4.965e-42
0000a0 c6 0d 00 80 c2 0d 00 80 1b 2c 12 b5 7e 5f 3a 35
       -4.941e-42 -4.935e-42 -5.445342e-07 6.942936e-07
0000b0 eb 6a 31 b1 d0 0d 00 80 d0 0d 00 00 c9 0d 00 80
       -2.5817666e-09 -4.955e-42 4.955e-42 -4.945e-42
0000c0 ba 0d 00 80 c8 0d 00 80 d6 0d 00 80 2b 6f 8e 31
       -4.924e-42 -4.944e-42 -4.963e-42 4.1453823e-09
0000d0 cd 0d 00 80 b9 0d 00 00 48 10 00 00 ad 0d 00 80
       -4.951e-42 4.923e-42 5.84e-42 -4.906e-42
0000e0 ae 0d 00 00 bb 4f 67 35 01 86 9b b5 61 c9 95 b2
       4.907e-42 8.617023e-07 -1.15874e-06 -1.743746e-08
0000f0 b5 0d 00 00 ba 0d 00 80 c4 0d 00 00 b2 0d 00 00
       4.917e-42 -4.924e-42 4.938e-42 4.913e-42
000100 af 0d 00 80 c0 0d 00 80 b3 0d 00 00 c7 0d 00 00
       -4.909e-42 -4.933e-42 4.914e-42 4.942e-42
000110 bc 0d 00 80 f4 bb a8 b0 9c 74 dc b3 cf 0d 00 80
       -4.927e-42 -1.2277028e-09 -1.02657594e-07 -4.954e-42
000120 56 bf 5d 32 71 27 97 b0 b3 0d 00 80 d9 0d 00 00
       1.2907398e-08 -1.0997906e-09 -4.914e-42 4.968e-42
000130 b4 0d 00 80 cb 0d 00 00 b2 0d 00 80 c9 0d 00 00
       -4.916e-42 4.948e-42 -4.913e-42 4.945e-42
000140 06 0e 00 00 b5 0d 00 00 aa 0f 00 80 c4 0d 00 00
       5.03e-42 4.917e-42 -5.619e-42 4.938e-42
000150 ca 0d 00 00 bb 0d 00 80 f1 10 00 00 ce 0d 00 80
       4.947e-42 -4.926e-42 6.077e-42 -4.952e-42
000160 b5 0d 00 80 c5 0d 00 80 f0 0d 00 00 0c 0e 00 00
       -4.917e-42 -4.94e-42 5e-42 5.039e-42
000170 bd 0d 00 00 e2 0f 00 00 42 0e 00 00 15 10 00 80
       4.928e-42 5.698e-42 5.115e-42 -5.769e-42
000180 bd 0d 00 00 bd 0d 00 00 ae 0d 00 80 31 69 15 32
       4.928e-42 4.928e-42 -4.907e-42 8.696859e-09
000190 5e 62 0c 35 bd 5f 0c b3 b4 0d 00 00 b9 0d 00 00
       5.229721e-07 -3.2683364e-08 4.916e-42 4.923e-42
0001a0 ac 0d 00 00 3e 6b f4 b0 d3 94 11 b5 84 8b 26 b2
       4.905e-42 -1.7783817e-09 -5.4233277e-07 -9.694194e-09
0001b0 c7 0d 00 80 07 0e 00 80 bd 0d 00 80 20 0e 00 00
       -4.942e-42 -5.032e-42 -4.928e-42 5.067e-42
0001c0 d0 0d 00 00 89 0e 00 00 c8 0d 00 00 af 0d 00 00
       4.955e-42 5.214e-42 4.944e-42 4.909e-42
0001d0 bc 0d 00 00 03 0e 00 80 b3 0d 00 00 c1 0d 00 00
       4.927e-42 -5.026e-42 4.914e-42 4.934e-42
0001e0 ae 0d 00 00 c0 0d 00 80 b6 0d 00 80 7f 34 34 36
       4.907e-42 -4.933e-42 -4.919e-42 2.6852647e-06
0001f0 d5 70 06 36 e9 64 47 b4 b0 0d 00 00 b9 0d 00 00
       2.0033233e-06 -1.857003e-07 4.91e-42 4.923e-42
000200 cc 0d 00 00 eb b2 9c b4 1d c2 ef b4 cf 0d 00 00
       4.95e-42 -2.9187444e-07 -4.4658455e-07 4.954e-42
000210 b3 0d 00 00 c9 0d 00 00 cf 0d 00 80 d7 0d 00 80
       4.914e-42 4.945e-42 -4.954e-42 -4.965e-42
000220 cc 0d 00 00 b8 0d 00 80 19 e2 af 36 02 15 b4 35
       4.95e-42 -4.921e-42 5.2417276e-06 1.3417159e-06
000230 d5 56 95 34 ca 0d 00 00 cd 0d 00 80 b0 0d 00 00
       2.781659e-07 4.947e-42 -4.951e-42 4.91e-42
000240 c7 55 ad b4 8a e3 b0 35 9d ae 95 b2 74 29 28 b4
       -3.2286172e-07 1.3179244e-06 -1.7425288e-08 -1.56613e-07
000250 8f 3d 95 35 9d c9 75 b4 c3 0d 00 00 3f 10 00 00
       1.1119281e-06 -2.289075e-07 4.937e-42 5.828e-42
000260 af 0d 00 00 ad 0f 00 80 c6 0d 00 80 c5 0d 00 00
       4.909e-42 -5.623e-42 -4.941e-42 4.94e-42
000270 29 07 7b 36 e5 65 8d 36 cf aa 15 33 33 b7 60 3d
       3.7406082e-06 4.2139895e-06 3.4847115e-08 0.054862212
000280 77 2b 04 3d 9a 8a 7e bc 7f 31 1e bd 6d d5 1b 3c
       0.032268014 -0.015535975 -0.038621422 0.009511334
000290 85 de 5e bb d6 0d 00 80 c8 0d 00 00 c3 0d 00 00
       -0.0034007144 -4.963e-42 4.944e-42 4.937e-42
0002a0 4c 0e 00 80 c7 0d 00 00 d0 0d 00 80 8b 66 8d 30
       -5.129e-42 4.942e-42 -4.955e-42 1.0288245e-09
0002b0 dd 35 8f 31 97 a0 35 33 ba 0d 00 80 c9 0d 00 00
       4.1679713e-09 4.2288402e-08 -4.924e-42 4.945e-42
0002c0 d0 0d 00 00 b8 0d 00 80 b5 0d 00 80 b3 0d 00 80
       4.955e-42 -4.921e-42 -4.917e-42 -4.914e-42
0002d0 b8 0d 00 00 b6 0d 00 00 ae 0d 00 00 c5 0d 00 00
       4.921e-42 4.919e-42 4.907e-42 4.94e-42
0002e0 c4 0d 00 00 c2 0d 00 80 d7 0d 00 80 85 0e 00 00
       4.938e-42 -4.935e-42 -4.965e-42 5.209e-42
0002f0 d0 0d 00 80 ae 18 53 b5 e0 7f 1e 35 aa d7 30 35
       -4.955e-42 -7.863954e-07 5.904567e-07 6.587894e-07
000300 af 0d 00 80 b0 0d 00 00 a2 0f 00 80 cc 0d 00 00
       -4.909e-42 4.91e-42 -5.608e-42 4.95e-42
000310 c4 0d 00 80 b2 0d 00 00 a8 1b eb 33 52 13 55 b0
       -4.938e-42 4.913e-42 1.0948071e-07 -7.7516404e-10
000320 ad 0d 00 00 b2 0d 00 00 b8 0d 00 80 cf 0d 00 00
       4.906e-42 4.913e-42 -4.921e-42 4.954e-42
000330 c5 0d 00 80 b9 0d 00 80 cb 0d 00 80 ac 2d 39 36
       -4.94e-42 -4.923e-42 -4.948e-42 2.7593733e-06
000340 39 38 66 35 ee e5 35 32 5e 0e 00 00 cb 0d 00 00
       8.576349e-07 1.0587867e-08 5.154e-42 4.948e-42
000350 be 0d 00 80 bb 0d 00 00 ce 0d 00 80 be 0d 00 80
       -4.93e-42 4.926e-42 -4.952e-42 -4.93e-42
000360 12 b0 bc 31 be 0d 00 00 bf 0d 00 00 c6 0d 00 80
       5.491537e-09 4.93e-42 4.931e-42 -4.941e-42
000370 2f 11 00 80 b2 0d 00 00 b6 c2 10 36 13 b7 1d 36
       -6.164e-42 4.913e-42 2.1571009e-06 2.3501386e-06
000380 86 7c 12 34 c0 0d 00 00 e8 0d 00 80 ae 0d 00 00
       1.3642611e-07 4.933e-42 -4.989e-42 4.907e-42
000390 c7 0d 00 80 b0 0d 00 00 b8 0d 00 00 bb 0d 00 80
       -4.942e-42 4.91e-42 4.921e-42 -4.926e-42
0003a0 ac 0d 00 00 b4 0d 00 00 90 0a 4b b0 b5 3b 7a b4
       4.905e-42 4.916e-42 -7.386598e-10 -2.3304786e-07
0003b0 bc 0d 00 00 8d 61 d0 30 67 ab 3e b0 bf 0d 00 80
       4.927e-42 1.5161717e-09 -6.9365175e-10 -4.931e-42
0003c0 ae 0d 00 00 b5 0d 00 00 cb 0d 00 00 ad 0d 00 00
       4.907e-42 4.917e-42 4.948e-42 4.906e-42
0003d0 3c 0e 00 00 c7 0d 00 00 c1 0d 00 00 09 0e 00 80
       5.106e-42 4.942e-42 4.934e-42 -5.035e-42
0003e0 05 0f 00 00 ce 0d 00 00 cc 0d 00 80 cf 0d 00 00
       5.388e-42 4.952e-42 -4.95e-42 4.954e-42
0003f0 ee 0f 00 00 b3 0d 00 00 d5 0d 00 00 b5 0d 00 00
       5.714e-42 4.914e-42 4.962e-42 4.917e-42

tree_conv.0.weights.bias f4 [256]
000000 10 d9 83 36 f2 c9 62 36 22 fc b7 35 b8 2c 0d 35
       3.9293736e-06 3.3794172e-06 1.3707943e-06 5.259167e-07
000010 6a 61 ca 36 42 2e 63 36 93 05 21 b6 4a 4f 87 36
       6.0314096e-06 3.3852562e-06 -2.3994114e-06 4.032544e-06
000020 52 cb 22 34 c0 3d 0b b6 67 38 11 b6 ef 22 9b 33
       1.5161393e-07 -2.0748557e-06 -2.1639514e-06 7.224104e-08
000030 78 2c 0f 35 98 87 69 35 a6 47 19 35 63 62 0e b6
       5.333636e-07 8.699658e-07 5.7101204e-07 -2.1216918e-06
000040 15 a2 4d b6 85 82 0c 35 0b 18 58 b5 58 ff 0b 35
       -3.0641725e-06 5.2343995e-07 -8.050126e-07 5.215311e-07
000050 be e9 25 b6 3c d4 eb b5 30 fc 0d 35 6f c8 6d 36
       -2.4722972e-06 -1.7570633e-06 5.2893574e-07 3.543242e-06
000060 7b cc 4a 36 b9 ba c7 35 f8 e8 d8 b5 31 b5 36 b5
       3.021937e-06 1.4880999e-06 -1.6161057e-06 -6.806395e-07
000070 a1 4e 0c 35 e6 62 4f b6 7d 3a 0f 35 f5 5e 0d 35
       5.2268484e-07 -3.090297e-06 5.3356763e-07 5.2664774e-07
000080 62 6d b0 b6 11 b9 48 35 5d 04 8c b6 65 e7 8e 35
       -5.2579426e-06 7.4775113e-07 -4.172833e-06 1.0647169e-06
000090 b3 df 2c 36 1f d3 60 b4 8b df ef b5 66 93 53 b6
       2.5760207e-06 -2.0938431e-07 -1.7871947e-06 -3.1527247e-06
0000a0 56 a1 0c 35 74 99 28 35 60 ae c9 35 b5 47 18 35
       5.238884e-07 6.280818e-07 1.5026417e-06 5.672876e-07
0000b0 67 3a 06 b5 2f ca 68 b5 85 66 dd b5 2d a9 3d 34
       -5.0003877e-07 -8.672095e-07 -1.649562e-06 1.7663542e-07
0000c0 25 24 10 35 42 e5 6a 36 76 19 3a 36 08 25 0a 36
       5.369678e-07 3.5002163e-06 2.773098e-06 2.0585157e-06
0000d0 ac a8 81 36 17 bb 0c 35 cc 62 82 b5 16 60 a2 b5
       3.8641356e-06 5.2426316e-07 -9.714508e-07 -1.2097905e-06
0000e0 4b 34 1e 36 06 13 c4 35 e6 99 04 b5 c0 54 b5 b4
       2.3574273e-06 1.4608675e-06 -4.9397784e-07 -3.377554e-07
0000f0 96 0a 41 34 af 61 e7 35 4a bc 7d 36 3d 17 f5 35
       1.7978377e-07 1.7239271e-06 3.7809536e-06 1.8260686e-06
000100 5f a8 57 b6 be 5c 0c 35 b8 6e 10 35 f7 0a 7c b5
       -3.2135501e-06 5.228902e-07 5.38053e-07 -9.389327e-07
000110 9f 8d 2f b6 d3 1f 24 36 ef 4a 1b b6 e3 f5 a2 b5
       -2.6159466e-06 2.4456428e-06 -2.3140417e-06 -1.2141503e-06
000120 84 2a 0e 35 f8 d9 0f 35 48 0e c3 36 49 eb 2f 36
       5.296099e-07 5.358884e-07 5.8131154e-06 2.6213986e-06
000130 14 ac b7 b5 b7 eb 0d 35 76 b9 7f b4 64 81 f8 b5
       -1.3684644e-06 5.2869603e-07 -2.3816196e-07 -1.8515098e-06
000140 6d a9 82 36 cd 11 0e 35 96 3c a2 33 41 23 cf b3
       3.8940257e-06 5.2925026e-07 7.5547334e-08 -9.645601e-08
000150 94 d0 c6 b6 19 e7 ff 33 37 44 08 36 94 3a 0f 35
       -5.9251415e-06 1.1916399e-07 2.0305285e-06 5.3356894e-07
000160 09 d9 07 35 c5 1c ae b5 15 7d fc 34 02 28 22 36
       5.0607247e-07 -1.2972383e-06 4.7029667e-07 2.4163169e-06
000170 2e ab 2a 36 39 a7 a5 32 4f 85 9e 34 9a 36 e8 b5
       2.5431614e-06 1.9284572e-08 2.9526788e-07 -1.7301238e-06
000180 ac 7a 5a b6 b1 be 21 b5 06 dd b6 b5 8b 7d 66 36
       -3.2555936e-06 -6.0254666e-07 -1.3624383e-06 3.4345746e-06
000190 c4 21 0d 35 12 85 8a b6 11 b4 f4 b5 be a3 0c 35
       5.257573e-07 -4.128212e-06 -1.8231823e-06 5.239234e-07
0001a0 a8 e9 1b b5 ab 8a 89 b4 01 f3 d7 b4 c0 3f 0d 35
       -5.8082014e-07 -2.5619133e-07 -4.022368e-07 5.261936e-07
0001b0 10 d8 db b5 50 8b 9c 35 81 41 0d 35 60 71 49 36
       -1.6379654e-06 1.1663451e-06 5.2621914e-07 3.0017327e-06
0001c0 de a0 3e 36 95 31 50 35 76 79 9e 36 42 8d 15 b6
       2.8405843e-06 7.755819e-07 4.722907e-06 -2.2284953e-06
0001d0 cb 39 43 35 f7 1e c0 b5 f7 6d f0 33 53 28 0c 35
       7.272726e-07 -1.4314127e-06 1.11958734e-07 5.2212744e-07
0001e0 07 3f 30 35 75 a6 35 34 37 3f e2 32 21 da 17 b5
       6.5656826e-07 1.6917495e-07 2.633861e-08 -5.65693e-07
0001f0 71 eb 93 b3 40 e7 83 35 ca 07 b6 b5 37 fa 0f 37
       -6.8880475e-08 9.827563e-07 -1.3562324e-06 8.581722e-06
000200 ee d8 8d b6 85 9b 90 34 78 2a 88 35 52 e5 b3 b6
       -4.2273814e-06 2.6935246e-07 1.014515e-06 -5.361312e-06
000210 3f 0f 5e 35 48 3a 82 34 57 fe 85 b6 0b 35 6e 36
       8.272363e-07 2.4256792e-07 -3.993318e-06 3.5495639e-06
000220 a4 56 0c 35 a0 e2 c6 b5 c3 6a df 34 df c4 0c 35
       5.2280143e-07 -1.4818106e-06 4.1614666e-07 5.244055e-07
000230 b0 0e 41 b5 3e 78 9e 36 d6 cd a8 b5 61 e4 7e b6
       -7.1919476e-07 4.722765e-06 -1.2576882e-06 -3.7981883e-06
000240 b5 bf 6f 36 e4 ac 35 b4 8e 71 ed b4 45 22 0d 35
       3.5725363e-06 -1.6919836e-07 -4.4227312e-07 5.257646e-07
000250 94 9e 3f 35 97 ed 81 b5 2a 96 01 36 7e 38 8c 36
       7.1383806e-07 -9.680397e-07 1.9309905e-06 4.1789017e-06
000260 75 15 0d 35 3c 67 9d b4 ca 04 03 37 d9 cc b3 35
       5.255782e-07 -2.9318642e-07 7.8093235e-06 1.3396158e-06
000270 dc 17 1d 34 4b 85 04 35 73 7c d8 34 4e 30 0d 35
       1.4630444e-07 4.93678e-07 4.0323684e-07 5.2596886e-07
000280 79 76 08 35 29 13 0d 35 d6 71 0b 35 61 ac c9 34
       5.083635e-07 5.2554475e-07 5.194719e-07 3.756459e-07
000290 3a 0a 70 b6 61 dc 49 35 46 5c 0a 35 5d 6a 0c 35
       -3.576874e-06 7.519903e-07 5.154328e-07 5.2308843e-07
0002a0 61 57 24 b5 ba 1a bc b3 3c 41 d2 33 45 13 af b5
       -6.1221914e-07 -8.759294e-08 9.790753e-08 -1.3044124e-06
0002b0 e9 48 0a 35 40 61 87 b5 09 08 84 36 4b 5e 0d 35
       5.1515104e-07 -1.0086587e-06 3.934842e-06 5.266381e-07
0002c0 4b ba 21 b5 c4 b7 97 b4 61 a3 6a 33 9a 9f 03 35
       -6.0248266e-07 -2.825965e-07 5.4630963e-08 4.9033554e-07
0002d0 c1 c4 c2 b5 be dd 0c 35 1f 7b 68 b6 7e f2 d1 34
       -1.4511389e-06 5.247674e-07 -3.464236e-06 3.910572e-07
0002e0 a3 8d 22 36 0c 87 83 34 3e e2 8c b5 70 66 27 35
       2.4222325e-06 2.449891e-07 -1.0496658e-06 6.2361414e-07
0002f0 e2 b3 62 b6 c4 16 40 b5 dc 2c 39 b6 48 77 39 b6
       -3.378133e-06 -7.15587e-07 -2.759326e-06 -2.763658e-06
000300 c6 b9 99 36 7a 06 3d 36 d9 46 2c b5 00 db ee 35
       4.581382e-06 2.8166965e-06 -6.417809e-07 1.7796119e-06
000310 a1 f0 b7 34 69 92 00 b6 6d 0e a1 34 0e 46 01 b5
       3.4261487e-07 -1.9158708e-06 2.9999083e-07 -4.815819e-07
000320 2b 36 0c 35 e5 53 0e 35 42 ed bb 36 65 ff 0b 35
       5.223289e-07 5.3021205e-07 5.6006547e-06 5.2153183e-07
000330 fb 39 ff b5 03 64 6f b5 7e 90 0e 35 99 36 e7 34
       -1.9015855e-06 -8.9179974e-07 5.3109386e-07 4.3066828e-07
000340 29 a4 ce 36 84 6d 32 35 68 5d 31 35 4f 9c e8 35
       6.158389e-06 6.6469534e-07 6.607356e-07 1.7330839e-06
000350 4a 9d 83 36 b6 28 b0 35 42 e2 01 33 c3 de da b5
       3.922415e-06 1.312487e-06 3.0240933e-08 -1.6307098e-06
000360 53 d6 b3 34 a8 19 79 b5 d1 2a 0d 35 a4 d5 bc 35
       3.349729e-07 -9.2797063e-07 5.25889e-07 1.4069269e-06
000370 71 e9 b8 35 fc 03 44 36 20 50 0e 35 ba 73 93 36
       1.3777009e-06 2.9208595e-06 5.301572e-07 4.3944137e-06
000380 9a 7f 0d 35 f8 5b 0e 35 ca 6d 9a b4 44 15 46 35
       5.271228e-07 5.3032954e-07 -2.8764617e-07 7.3791693e-07
000390 9c 3a 0c 35 e8 ce 12 35 f3 64 a1 35 43 bd ea 35
       5.223935e-07 5.4690327e-07 1.2024815e-06 1.7489441e-06
0003a0 d2 28 b6 36 ac 73 f6 34 b6 28 0d 35 1d 72 80 34
       5.428775e-06 4.5905233e-07 5.2585835e-07 2.3924886e-07
0003b0 58 0e d1 35 59 0e 02 34 ca 55 0d 35 bb f5 71 b4
       1.5575888e-06 1.2112413e-07 5.265143e-07 -2.253427e-07
0003c0 38 26 91 35 26 29 b2 b6 0a 54 0c 35 7e aa d7 34
       1.0814465e-06 -5.3096037e-06 5.2276357e-07 4.017092e-07
0003d0 24 05 e4 b4 4b ab 6f 35 b3 25 9c 36 8e 26 07 36
       -4.247205e-07 8.92837e-07 4.653551e-06 2.013901e-06
0003e0 f1 86 15 35 b3 3f 07 35 ea 0e e2 34 8e 86 0c 35
       5.570319e-07 5.0384114e-07 4.2106632e-07 5.2349867e-07
0003f0 b9 86 f8 b5 95 14 97 b5 07 34 3d 36 47 f7 b9 35
       -1.8516649e-06 -1.1256367e-06 2.8193479e-06 1.3855541e-06

tree_conv.3.weights.weight f4 [128, 256, 3]
000000 70 97 82 bc 9a 32 9e 3c 91 28 e8 b8 ab 45 ac bb
       -0.015941352 0.019311238 -0.00011070178 -0.0052573285
000010 fd e2 cd bb 59 06 28 3b 55 08 b6 3b 68 f3 4b 3c
       -0.0062831626 0.002563855 0.0055551925 0.012448169
000020 c0 df 9b 3b 95 33 8a 39 62 8b dc 39 d1 a0 da 37
       0.0047568977 0.00026359843 0.00042065518 2.6062511e-05
000030 dc 7b 24 bb 7f 9d 46 3b 40 3a 82 3b 83 2e ae bb
       -0.002509824 0.0030306277 0.003974229 -0.005315603
000040 6f d3 0c bc 22 cc aa 3a 14 34 d5 3b ae f1 31 3b
       -0.008595332 0.0013030807 0.0065064523 0.002715211
000050 b9 39 62 b9 fb 1d e3 ba 47 0e 39 bb 69 a4 72 ba
       -0.00021574543 -0.001732766 -0.002823727 -0.00092560664
000060 6d 29 9d bb 7d 5c 85 bc f0 83 1a 3b 20 f4 0b 38
       -0.004796198 -0.016279453 0.0023577176 3.336754e-05
000070 81 f5 38 bb 83 0e 01 3a b6 a4 77 ba f5 b6 30 bb
       -0.0028222504 0.0004923122 -0.0009446846 -0.002696452
000080 66 f5 2f 3b c3 f9 6b 3b c0 40 e2 3b e2 cb 6a 3a
       0.002684915 0.0036007024 0.0069046915 0.00089567725
000090 92 1b ef 38 1b aa ad 39 1d f2 df 37 57 d2 a2 3a
       0.000114015435 0.0003312387 2.6696414e-05 0.0012422305
0000a0 ed 01 21 3c 73 cc e6 3a a4 43 e0 bb be 4d 76 bb
       0.009827119 0.0017608538 -0.006844001 -0.003758296
0000b0 3b 7c 00 3b f3 2e 94 bb 2b 7a f4 bb 83 60 3b 3a
       0.0019605297 -0.0045221983 -0.0074608526 0.0007147865
0000c0 f6 e7 17 3b 47 e1 11 bb ad f5 1e 3b d6 ac 59 b9
       0.002317903 -0.002225952 0.002425532 -0.00020759119
0000d0 55 d8 e3 38 17 42 a9 37 9f 6f 09 ba 60 54 a4 ba
       0.000108644985 2.0177145e-05 -0.0005242768 -0.0012537353
0000e0 0d 8a fd 3a 39 67 10 bb c4 0e cc ba 02 c7 7a 39
       0.001934351 -0.0022034182 -0.0015568365 0.00023915994
0000f0 68 a7 af bb b0 8d a4 bc 19 86 7f ba c3 f3 80 3b
       -0.0053605326 -0.020087093 -0.000974746 0.0039353087
000100 9c ae 68 3c e8 4a 8a 3b 2e 9a c6 38 33 c1 71 39
       0.014201786 0.0042203553 9.470094e-05 0.00023055523
000110 e4 50 d3 37 1a 5d 42 bc 03 6f 85 bb 6d a3 81 3b
       2.5190828e-05 -0.011863017 -0.0040720715 0.0039562494
000120 2e 4c e9 bb 4b 70 27 bb 1a c9 8c 3a 15 a0 68 ba
       -0.007119677 -0.002554911 0.0010741085 -0.0008873952
000130 76 46 f5 ba 17 72 34 ba b4 96 61 b8 ef 41 3d 3a
       -0.0018713016 -0.0006883456 -5.3784534e-05 0.00072196027
000140 a2 3c cf 37 5b 35 53 ba da 94 74 ba ce 05 04 3a
       2.4704557e-05 -0.0008056962 -0.0009330042 0.00050362654
000150 ac fe 04 ba 74 5d 80 b8 2a 9f d1 37 fb c6 1c bc
       -0.00050733495 -6.1209226e-05 2.4988858e-05 -0.009568925
000160 73 21 cb bb 1e 4e 8b 39 e3 86 12 ba 89 09 ac b9
       -0.006199056 0.00026570348 -0.00055895577 -0.000328135
000170 67 25 b8 37 dc bb 9b b8 0e f2 77 39 71 c4 e4 37
       2.1951926e-05 -7.4259675e-05 0.00023645928 2.7271193e-05
000180 6f 22 04 ba 74 6b ed ba 5f a3 4e 3b cb 2b 34 ba
       -0.00050405314 -0.0018113689 0.0031530482 -0.0006872981
000190 9d f1 7c ba a2 0e 19 ba 1e 0b c1 3b af 3e 01 bb
       -0.00096490403 -0.0005838667 0.005891218 -0.00197212
0001a0 7c 82 23 3a b3 b1 17 bb 6e c7 b0 ba 62 b0 d0 b9
       0.00062374 -0.0023146688 -0.0013487169 -0.00039804267
0001b0 a6 40 64 bb 9e c3 44 bb ab 27 e4 39 8c 4d c4 3b
       -0.0034828573 -0.0030023823 0.00043517104 0.0059906896
0001c0 e0 54 c0 3b 99 fd 54 3a 3c 23 f7 bb 0f a9 5c 3b
       0.005869493 0.0008124947 -0.007542042 0.0033670103
0001d0 8d f5 62 b9 d3 63 6a ba c6 19 4b ba fe c0 cc 3a
       -0.00021644514 -0.00089412666 -0.0007747676 0.0015621481
0001e0 f7 a7 07 b9 a7 03 80 39 6e 8c cd 37 a6 d4 72 ba
       -0.00012937175 0.00024416784 2.4503297e-05 -0.00092632545
0001f0 e2 81 87 bb 13 41 7d 39 ff 00 d1 b9 be 7a 8f 3a
       -0.0041353563 0.00024152202 -0.0003986433 0.0010946614
000200 89 0f 39 ba 5c 7e 16 3c 84 d4 93 bb df b1 57 3a
       -0.0007059505 0.0091854 -0.004511418 0.0008228104
000210 4d bf 69 3c 97 0a 39 3c f0 3a fb 3a 04 6c 53 bb
       0.014266801 0.011294029 0.0019167345 -0.0032260427
000220 e0 76 11 3b 37 01 da 39 68 70 8e b9 50 5a 17 b9
       0.00221961 0.00041581105 -0.000271681 -0.00014434126
000230 74 f8 e8 b8 e7 67 e3 bb 5e 81 2c ba 11 c4 4a ba
       -0.000111089 -0.0069398764 -0.00065805565 -0.00077349046
000240 f1 50 cf 39 a2 cd 09 3a 8a 99 e5 37 7c c4 ef bb
       0.00039542423 0.0005256777 2.7370425e-05 -0.007317124
000250 01 8e 21 3c 5c 1e d5 39 6e 78 7f 3a 21 1a a0 3c
       0.0098605165 0.00040649145 0.00097454234 0.01954371
000260 55 a0 cc 3a ce 99 1c bc ab 89 41 3a da 49 9a 3b
       0.0015611748 -0.009558154 0.000738288 0.004708511
000270 12 b8 81 3c e1 7d 32 3c a5 a4 6e 3a 9f 4f 3f 39
       0.015834842 0.01089427 0.00091035134 0.0001824484
000280 db 1b bc 39 6c 1b d1 37 fe ca e5 bb b1 90 cd bb
       0.00035878908 2.492751e-05 -0.007012724 -0.006273352
000290 a5 35 e8 3a 6b 50 e5 3b f0 ba 6e 3c 89 f4 e6 39
       0.0017716183 0.006998112 0.014570937 0.0004405121
0002a0 de 6a bc bb b1 29 e2 ba 30 c6 2d 3b 3c 3d cf b9
       -0.0057500442 -0.0017254857 0.0026515834 -0.0003952774
0002b0 0e 7a 33 ba ba bf 28 39 b1 d1 7f 3c e3 83 52 3c
       -0.00068464957 0.00016093152 0.015613959 0.012848827
0002c0 6d 5f c5 3a 26 8d c2 ba 2f 44 dd ba 51 8b c7 3a
       0.0015058346 -0.0014843091 -0.0016881282 0.0015224015
0002d0 61 1e 30 bb 3e 4d 2d b9 7c 6d a1 39 9e 7c 5c 3b
       -0.0026873576 -0.0001652734 0.00030789885 0.0033643614
0002e0 c5 a3 c8 3b d2 91 31 3b 4b 0c e4 3b 19 12 4e bb
       0.0061230385 0.0027094972 0.0069594732 -0.0031443893
0002f0 bb 7b 21 3b 2e 84 e7 b9 d0 22 6c ba 78 b7 b8 37
       0.00246404 -0.00044158235 -0.0009007873 2.2019944e-05
000300 cf cb de bb b6 bd e9 bb 98 5b fd 3a 6d 7a ba 38
       -0.006799198 -0.007133211 0.0019329665 8.891975e-05
000310 c1 69 76 39 ea fa d6 37 48 89 17 b9 f2 94 14 3a
       0.00023499785 2.5627629e-05 -0.00014451623 0.00056679465
000320 c4 89 d4 37 9a b5 bb bb af de 27 bc 93 d9 40 3b
       2.5336522e-05 -0.0057284357 -0.010245963 0.002942656
000330 39 04 24 3c 92 7d 65 3c 8a a2 ba 39 64 ae 87 bb
       0.010010772 0.014006989 0.00035597786 -0.004140662
000340 c8 8f 51 3b 77 df 33 b8 6d 53 e1 ba 67 a2 9c bb
       0.003197657 -4.2885044e-05 -0.0017191 -0.004780102
000350 a9 9f 2f 3b 46 f6 87 bc 78 0f ac 3c 11 ac af 3a
       0.0026798046 -0.016596925 0.02100347 0.001340272
000360 8c 63 ec b7 83 16 07 3a c5 3f c0 37 d1 90 a4 39
       -2.8179747e-05 0.0005153196 2.2917879e-05 0.00031388414
000370 48 bb da 39 e2 35 e6 37 d2 18 df 3a 84 fe f4 bb
       0.00041719736 2.7443228e-05 0.0017020947 -0.0074766297
000380 a6 82 3b ba df 07 19 bc 6d 25 e2 bb 1f 29 07 3b
       -0.0007152952 -0.0093402555 -0.006901434 0.0020623875
000390 5a 52 23 3c 5c b0 3f 3c d0 db 62 3a 5f 79 a5 39
       0.009968365 0.011699762 0.00086539704 0.0003156168
0003a0 7c 21 2b 3a 8a 78 d5 37 78 c0 49 bb 90 65 1c 3b
       0.0006528122 2.5447709e-05 -0.0030784886 0.0023864247
0003b0 c3 a3 aa 39 27 a1 fc b8 9e 35 39 bb 09 f5 23 3a
       0.0003254694 -0.00012046313 -0.0028260718 0.00062544696
0003c0 b5 32 3b 3b 92 dc bf 3b a7 da 53 3b 17 1d 24 38
       0.002856416 0.0058551515 0.0032326372 3.912774e-05
0003d0 c5 b2 3d 39 24 1c e8 37 41 6d ef 39 3e 1a 44 3c
       0.00018091041 2.766966e-05 0.00045667033 0.011969147
0003e0 34 98 8d 3a d0 dc 87 39 c9 c6 dc ba 7c 14 0a 39
       0.0010802806 0.00025913725 -0.001684391 0.00013168337
0003f0 7a b2 44 ba a7 d7 69 ba fd bc 5f 3b cc 8f aa 3b
       -0.0007503402 -0.00089203793 0.0034139745 0.00520513

tree_conv.3.weights.bias f4 [128]
000000 58 51 a0 3c 58 e7 cb 3c 84 9a 71 3d 3b a0 c4 3c
       0.019570038 0.024890587 0.05898525 0.024002185
000010 bc 52 29 3d 6f 3b 86 3d ea 41 23 3d 4b 99 39 3d
       0.041338667 0.06554305 0.039857782 0.045312207
000020 22 02 b8 3c 8c 11 03 39 52 bc 89 bb 0f 5f e9 3c
       0.022461955 0.0001249967 -0.0042033577 0.02848771
000030 06 c4 26 3d 14 0e 67 3c a1 38 23 bd 9c 06 9a 3c
       0.040714286 0.014102478 -0.039848927 0.01880198
000040 de 0a 2e 3d a2 54 8e 38 65 13 1c 3d 7c c6 2f 3c
       0.042490833 6.786852e-05 0.038104434 0.010728475
000050 fa ac d6 3b 21 b3 6e bb 8e 4d 5b bd 74 11 ea bc
       0.006551382 -0.0036422687 -0.05354076 -0.028572775
000060 a9 cb 0d 3d d4 20 c6 bb bf ba 1f bb e3 6e be bb
       0.034618054 -0.006046394 -0.0024372784 -0.0058115586
000070 c6 7b 15 3c a5 3d 31 3c ff 51 51 bb 1e 26 11 3d
       0.009123748 0.01081792 -0.0031939743 0.035436742
000080 a6 7c 06 3c 62 80 09 3c 35 fe 0a 3d fa 8c be 3c
       0.008208429 0.008392425 0.033933837 0.023260582
000090 4e d2 98 3d f7 5f 9e 3d 93 ad 31 3d 41 eb 87 3d
       0.074619874 0.077331476 0.043378424 0.06636668
0000a0 73 08 f5 3c 6d da 11 bb 99 e7 b5 bc 40 8c 25 bc
       0.029911255 -0.0022255436 -0.02220516 -0.010104239
0000b0 f1 0d b9 3c 8c 1d 89 3d ed 1f 7a 3c 16 07 06 3d
       0.022589656 0.06695089 0.015266401 0.0327216
0000c0 99 b4 a5 bb 0d 4a 6c bb d1 cf 11 3d 2e 7b e1 bc
       -0.0050569293 -0.003605488 0.03559858 -0.027524557
0000d0 08 96 6f 3d 41 67 87 3d 03 87 10 3c 94 75 88 3c
       0.05849269 0.06611491 0.008821252 0.016657628
0000e0 ab 24 37 bb c1 8b 63 3d c8 5b 03 bc b6 80 9f 3c
       -0.002794544 0.0555532 -0.008017488 0.019470554
0000f0 aa ba c2 3c 7c fd 52 3d 41 f4 d1 ba 65 31 83 3d
       0.023770649 0.051511273 -0.0016018228 0.06405906
000100 e2 77 d2 bb 83 6a 4e 3d 81 d9 95 39 82 f2 c3 3c
       -0.0064229826 0.050394546 0.00028581548 0.023919348
000110 71 f4 e2 bb 58 6e 4e 3c c8 d7 09 bc ec 36 9a ba
       -0.0069261123 0.01259955 -0.008413263 -0.0011765636
000120 35 33 c8 3c 7f e9 6c 3d a9 0e b3 3c e0 10 9c 3d
       0.02443848 0.057839867 0.021857576 0.07620406
000130 2a 2a 06 bb b4 f4 30 3c a0 78 9c bc 61 ac 4f bc
       -0.002047191 0.010800529 -0.019100487 -0.012675376
000140 a4 e1 61 3d 49 f2 8c 3a 1c 86 4f 3d 67 c4 c5 3d
       0.05514683 0.0010753359 0.050665006 0.096566014
000150 f3 3a e9 3b 6c e3 35 3d d3 b0 43 3d b9 13 9d 3c
       0.007117623 0.04440634 0.047776055 0.019174444
000160 11 2d 4a bc 9e 1d b2 3d b6 fb 0d bb 27 66 7a 3c
       -0.012339846 0.08697055 -0.0021664924 0.015283144
000170 a0 f9 1d 3d 36 12 a6 3c f0 43 05 bb 61 a1 14 bc
       0.03856814 0.020272356 -0.0020334683 -0.009071679
000180 69 cf fa bb 1c 58 26 3c ae 93 d4 3b dc e6 fb 3b
       -0.0076541197 0.010152843 0.0064873314 0.0076874327
000190 97 5a cc 3a cf a3 74 3d 55 e2 75 3d c6 70 92 bb
       0.0015590963 0.059726533 0.0600303 -0.00446901
0001a0 07 5e dd 3c 9b 20 50 3c 23 0c 9c ba 85 fa 13 3d
       0.027022375 0.012703086 -0.0011905472 0.036127586
0001b0 96 4a 07 bc ab 05 67 3b 9a 76 24 3d 28 a0 85 3d
       -0.008257529 0.003525118 0.04015217 0.06524688
0001c0 bc 9a 3c 3c 31 08 68 3d 7e f1 bc 3c 19 4a c1 ba
       0.011511501 0.056648437 0.023064371 -0.0014746814
0001d0 61 d0 6d bb 72 29 78 3d b5 4f 4b 3d bc 4e a8 bb
       -0.0036287534 0.0605864 0.04963656 -0.005136339
0001e0 e6 52 c4 3c 52 11 9b 3c d7 ec 3b 3d ee 56 d9 3d
       0.02396531 0.018929157 0.045880165 0.10612284
0001f0 d6 9c 2a 3d f2 f8 65 bc b3 37 88 bc da cb 45 bc
       0.041653477 -0.014036404 -0.016628122 -0.012072528

tree_conv.6.weights.weight f4 [64, 128, 3]
000000 8a 32 99 bc dc 2f ea ba 1a dd bf b7 97 28 f4 bb
       -0.018700857 -0.0017867046 -2.2871933e-05 -0.0074511277
000010 e6 34 81 3c f0 5d 33 ba e2 ba 40 3c 16 ab cd bc
       0.015772294 -0.0006842306 0.011763306 -0.025105994
000020 43 4c 4e 38 a3 37 a1 bc 0c dc 32 3c 2b 17 5a ba
       4.918525e-05 -0.01967985 0.010916721 -0.00083194923
000030 6b 1f 69 3b 6e 11 ad 3c 35 d4 a8 ba 4c a1 77 bb
       0.0035571705 0.021126475 -0.0012880625 -0.003778535
000040 9b 61 7f 38 20 46 41 ba c6 e8 3c 3c ad 52 57 bc
       6.088764e-05 -0.0007372815 0.011530107 -0.01314227
000050 e6 af 03 ba 15 c5 fb 3b d3 70 2a 3b 79 cc e1 b9
       -0.00050234643 0.007683406 0.002600719 -0.00043067688
000060 b3 7a 64 bc 93 b1 14 3b e7 cf a7 ba 76 de 85 bb
       -0.013945269 0.002268885 -0.0012803049 -0.0040853573
000070 00 72 37 3c 92 dc e5 b9 eb a7 22 bc 20 23 0a 3c
       0.011196613 -0.0004384262 -0.00992773 0.008431226
000080 c5 8c 88 38 af e8 27 bc f7 3c 84 bb 79 21 f4 b8
       6.511206e-05 -0.010248347 -0.004035588 -0.000116410614
000090 a6 b8 d4 3b 8f 4a 6d bc 26 b4 24 ba e7 4f be b9
       0.0064917384 -0.014483108 -0.0006282948 -0.00036299156
0000a0 54 42 e7 b9 c3 08 f0 b9 ed 2e ab bb 5b ea 8b bc
       -0.00044109172 -0.00045782895 -0.0052241 -0.017079523
0000b0 ca d3 54 3a 29 4c 2e 3c 07 2c 12 bb 58 85 2a ba
       0.0008118717 0.010638275 -0.0022304074 -0.0006504855
0000c0 05 86 8c bb 38 78 29 ba 63 27 0f ba 01 fe 0a 3b
       -0.0042884373 -0.00064647524 -0.0005460886 0.0021208527
0000d0 6a d0 a7 3b 2b 97 3b ba 02 86 6a bb f4 48 02 3c
       0.0051212804 -0.00071560097 -0.0035785441 0.007951964
0000e0 a9 fe 55 ba 84 44 9c 3c 52 dd fe b9 3b f9 95 ba
       -0.00081632525 0.01907564 -0.00048611552 -0.0011442074
0000f0 cf 64 0c 3c 61 aa 82 3c 39 d3 00 39 e5 16 ba ba
       0.0085689565 0.015950384 0.00012285718 -0.0014197497
000100 d1 06 c8 bb bc dd 2b 39 9f f5 7f 3c 3c be e6 ba
       -0.006104328 0.00016390433 0.0156225255 -0.0017604302
000110 9f 50 a2 39 cf 79 38 3b 77 02 b3 3c 36 f0 05 37
       0.00030959115 0.0028148775 0.021851761 7.983346e-06
000120 db 64 d8 3c 84 45 bc bb 57 4c 10 ba 8a 17 60 bc
       0.02641528 -0.0057455916 -0.00055045396 -0.013677487
000130 67 98 0f bc 70 38 81 b9 cf f8 54 3b fd 8f ab bc
       -0.008764363 -0.00024646847 0.0032496934 -0.020942682
000140 cc 0f 50 b8 2f f5 cb 39 c3 c5 1f ba 95 37 91 39
       -4.9605776e-05 0.00038901853 -0.00060948374 0.00027697967
000150 a7 46 2c 3c e4 71 6b bc 00 71 b2 ba 50 43 77 3c
       0.010514892 -0.014370415 -0.0013613999 0.015091732
000160 03 cf 53 bc ab ef 4c b8 4c 5a c5 3c 7a d2 b7 3c
       -0.012927773 -4.88606e-05 0.024090908 0.02243923
000170 83 bf 08 39 9a fe 02 bc f3 48 d5 3a bd bd ba ba
       0.00013041314 -0.007995272 0.0016272351 -0.001424722
000180 de 28 5f bc 84 fb 63 3b b1 e2 d3 38 2a 0a 87 3c
       -0.013620583 0.0034787366 0.000101034886 0.016484339
000190 cf e0 f8 bb af 7d 1e ba 1a 09 d8 bb d0 ea 61 3a
       -0.0075951586 -0.000604595 -0.006592882 0.00086180586
0001a0 1b c9 3c ba d7 75 5d bb 15 34 5b 3c f1 89 dd b9
       -0.0007201598 -0.0033792162 0.013379117 -0.0004225518
0001b0 35 10 9e 3c be de 95 3c 00 34 70 ba 6b 9b bb bb
       0.019294837 0.018294688 -0.0009163022 -0.0057253144
0001c0 27 06 bd bb 20 0e 74 ba 31 56 94 3b 16 54 f0 ba
       -0.0057685557 -0.0009309966 0.0045268764 -0.0018335606
0001d0 97 d3 90 ba a2 62 58 bb 6e 29 32 bc 61 e5 32 ba
       -0.0011049387 -0.0033017774 -0.010874135 -0.0006824341
0001e0 78 64 ca 3b 1d 99 53 ba a3 65 14 ba e3 9a bb 3b
       0.0061765276 -0.0008071827 -0.0005660897 0.005725251
0001f0 a6 4d a2 bb 4c 6b 18 3a 67 0a 86 b9 eb bc 56 bc
       -0.004953104 0.00058143283 -0.00025566222 -0.013106565
000200 29 c5 40 3a e7 8e 2b bc 97 5d 8e 3c 54 45 81 38
       0.0007353598 -0.010471082 0.017378611 6.164113e-05
000210 8a 89 22 3c 51 4d ce 3b 3c 0b 19 ba 38 9b db 3c
       0.009920487 0.006295838 -0.0005838161 0.026807413
000220 1c 58 82 bc 9c 20 5a ba aa 1f e6 3b c7 fc 2d 3c
       -0.015911154 -0.0008320899 0.0070228176 0.010619349
000230 5d 71 33 ba 37 72 08 bc 97 b7 82 3c 44 b0 10 ba
       -0.00068452006 -0.008328012 0.015956683 -0.00055194297
000240 9b 23 0b 3b ba 0b 6b 3c 07 b7 99 b7 d0 57 64 bb
       0.002123094 0.014346058 -1.832425e-05 -0.003484238
000250 05 3c f0 b9 1f 0b d3 38 47 a5 0d bb 86 b8 40 3b
       -0.00045821085 0.000100633355 -0.0021613406 0.002940686
000260 61 86 32 ba 23 60 c9 3b 01 74 57 bb d8 3a b9 39
       -0.0006810185 0.0061454936 -0.003287554 0.00035329792
000270 0b 4c b2 bc e6 12 23 3d da 25 16 b8 5d 38 21 bc
       -0.021764776 0.039812945 -3.579804e-05 -0.009840098
000280 9e 07 fc 3b 40 09 1e ba 5d eb d5 bb 4d c2 bd 3c
       0.0076913377 -0.00060286 -0.0065283016 0.023163939
000290 48 41 09 ba bf 2c ef 36 70 94 f2 b9 7e 0a e5 b9
       -0.0005235863 7.127964e-06 -0.00046268431 -0.000436861
0002a0 6e a1 84 3c 8d 77 ed ba e4 65 af b8 05 9c 3b 3c
       0.016190257 -0.0018117294 -8.363629e-05 0.011450772
0002b0 08 7e 9c bc a1 d1 0c ba 0c 74 0d 3b a2 60 68 3c
       -0.019103065 -0.00053718133 0.0021584062 0.014183195
0002c0 46 23 ef 39 a5 2b 8f 3c 37 99 8e ba 14 6d 76 b9
       0.00045611913 0.017476866 -0.0010879402 -0.00023501023
0002d0 ca 8f b4 bb 1e f2 25 3b 28 e7 10 ba 57 f8 be bb
       -0.005510305 0.0025321315 -0.0005527609 -0.0058279443
0002e0 99 91 3c 3b fe 8b 8c ba 10 a3 b7 bb 53 17 48 3b
       0.0028773306 -0.0010722873 -0.0056041554 0.003053148
0002f0 63 d4 63 ba 50 4f 08 3b 93 ee 09 3c 47 3b 69 b9
       -0.0008691011 0.0020799227 0.008418697 -0.00022242694
000300 b7 97 25 3b 03 bb 13 3c 72 0b e6 39 ce 43 b3 3c
       0.002526743 0.009016755 0.00043877546 0.021882918
000310 4f 5c 96 bb 84 9b 24 ba c8 a3 9c 3a 8f 6f 04 39
       -0.0045886408 -0.0006279277 0.0011950666 0.0001263006
000320 47 ec 85 b9 a6 37 20 bb d9 d9 b6 ba 0f fd 63 b9
       -0.00025543777 -0.0024447232 -0.0013950422 -0.00021742679
000330 90 29 59 bb 1e 40 fe bc 59 7a a3 b9 2f 1b 14 bb
       -0.0033136345 -0.031036433 -0.0003118094 -0.002259921
000340 c4 33 3d 3b 35 d2 1e ba f6 fd b8 3c 22 25 9f bc
       0.0028869966 -0.0006058545 0.022582036 -0.019426886
000350 b2 8a d7 b8 66 7d 21 ba 16 1b 87 3a d1 31 67 b9
       -0.00010277833 -0.00061603484 0.0010307755 -0.00022048435
000360 c8 cf 01 3d e9 be 7b bc 8d 28 9a ba e2 92 8b 3a
       0.031692296 -0.015365341 -0.0011761353 0.0010648633
000370 e8 a0 14 bc 38 6c 02 ba da 06 83 3c 6d b2 d6 3b
       -0.009071566 -0.00049752323 0.015994478 0.0065520317
000380 1f 77 8c ba 38 64 95 bb c9 9e 6a bc 8d 8b 3a ba
       -0.0010716653 -0.004559066 -0.014320084 -0.00071161316
000390 9c 23 90 bb 53 bd e1 3a b5 c4 15 3a c9 4b dc bc
       -0.004398776 0.0017222561 0.00057132106 -0.026891606
0003a0 25 0c e1 3c 2c 62 56 ba 3f bb c4 3b c1 f6 05 bb
       0.027471611 -0.0008178081 0.006003767 -0.0020441266
0003b0 bc 99 85 3a 0f 7e d0 bc c4 48 87 3c 98 b1 27 3a
       0.0010192911 -0.025450734 0.01651419 0.0006397008
0003c0 d9 8d 15 3c 80 4f 2c bb 37 f4 a5 b9 aa 63 8b 3c
       0.009128057 -0.0026292503 -0.00031653207 0.017015297
0003d0 20 b4 b6 3c 31 84 96 ba 43 97 83 bc 88 71 46 ba
       0.022302687 -0.0011483488 -0.016063338 -0.0007570018
0003e0 66 8e 37 ba 7a a3 e5 b9 4a 09 66 3b 08 c3 2b ba
       -0.0007002115 -0.00043800083 0.0035100752 -0.0006552194
0003f0 33 42 58 bc 71 dc 43 3c a7 14 76 ba aa 0d bf 3c
       -0.013199377 0.011954413 -0.0009387233 0.023321945

tree_conv.6.weights.bias f4 [64]
000000 70 a0 89 bc 07 25 04 3d 9d e1 08 bc 91 22 44 3b
       -0.016800135 0.032261875 -0.008354572 0.002992783
000010 a0 42 0e 3d e6 a7 18 bc ec e3 98 39 9d 0d 07 3c
       0.034731507 -0.009317374 0.00029161514 0.008242992
000020 29 66 fd bc 5f 3c 3f bd a5 aa dd bc 1e da 42 3c
       -0.030932503 -0.046688434 -0.027058909 0.0118928235
000030 70 66 c0 bc f3 dc cf bb 95 36 93 3c 88 6f cd bc
       -0.023486346 -0.006343478 0.017970363 -0.025077596
000040 0b 22 94 bc 76 aa ae ba c3 5d b9 bc fc 23 be 3c
       -0.01808264 -0.0013325948 -0.022627717 0.023210518
000050 bf 9d f8 bc bc e9 09 3c e7 1c 07 3c 06 3b e0 3c
       -0.030348657 0.008417543 0.008246637 0.027371895
000060 e4 6b 0b 3d bd 9b 99 bc ca 25 88 bc dd b5 02 bd
       0.03403844 -0.01875102 -0.016619582 -0.03191172
000070 8c 0c 36 bd 0f 71 6b 3a d8 23 9a 3b ff 1a 0a 3d
       -0.04444556 0.00089813856 0.00470398 0.03371715
000080 ae db de 3a 43 96 9d bc ee dd f7 3c 90 79 86 3c
       0.0017002726 -0.01923669 0.030257192 0.016415387
000090 f4 e6 f7 3a 54 dc d1 3c af 78 38 bc 00 91 02 bd
       0.0018913434 0.025617756 -0.011259242 -0.031876564
0000a0 a4 50 11 3d 6c d5 34 3b 66 10 0a bd 9f 15 ad bc
       0.035477296 0.002759303 -0.033707045 -0.021128474
0000b0 61 86 94 3c 31 78 c2 38 e4 d0 45 3a 02 c6 54 3c
       0.018130483 9.273028e-05 0.0007546081 0.012986662
0000c0 36 66 28 bc b7 b2 09 3c 21 86 46 3c 2a a8 e6 3c
       -0.010278275 0.008404425 0.01211694 0.028156359
0000d0 e4 34 37 bd 05 7c ef 3c 72 eb 53 ba 49 41 dc bc
       -0.044728175 0.029233942 -0.00080840953 -0.0268866
0000e0 e6 13 95 bc 7e 93 a2 3b 2e 30 f7 3c 14 aa cc 3c
       -0.018197965 0.00496143 0.030174341 0.024983443
0000f0 eb 82 c3 bc d4 cb b3 3c bc c4 8f bb 33 29 72 3c
       -0.023866137 0.021947779 -0.0043874662 0.0147803305

tree_conv.9.weight f4 [32, 64]
000000 74 42 c0 3a 73 89 81 3d 5e d7 40 bd 5e de cb 3c
       0.0014668242 0.063250445 -0.04708039 0.024886306
000010 51 6e c3 3b f5 0d 09 bd 7c cf 44 3d 85 fd 8d 3d
       0.0059640785 -0.033460576 0.048049435 0.06933121
000020 fc 93 54 3c c3 82 8d bd a5 19 45 3c ef 97 5b 3c
       0.012974735 -0.069097064 0.01203004 0.013402923
000030 6d 9b 0d 3d 43 9f 3e 3d 11 7b 14 3d 73 4d 08 bd
       0.034572054 0.046538603 0.036250178 -0.033276986
000040 b3 09 c8 3c da d7 41 3a a3 10 36 bc e3 16 45 3d
       0.024418687 0.000739453 -0.011112365 0.04811753
000050 73 4e 44 3c 8b ea bb 3c 8a 6a d6 3c d4 09 c9 3c
       0.011981594 0.022938987 0.026173849 0.02454082
000060 b8 db 20 3d f8 3a ca bc 68 83 bc ba 12 58 a8 bc
       0.03927204 -0.024686322 -0.0014382424 -0.020549808
000070 57 3c d0 3c 3c b0 52 3c 09 44 25 bb b8 b8 4f bc
       0.025419397 0.0128594 -0.0025217554 -0.012678318
000080 dd d3 8a ba 80 c1 3f 3c 05 0e e7 ba a5 32 b7 3c
       -0.0010591705 0.011703849 -0.001762808 0.022363016
000090 68 66 51 bc 85 8e 8b bc 19 c2 2f bd 94 64 a0 bd
       -0.012780763 -0.017035732 -0.042909715 -0.07831684
0000a0 cf e0 e1 bb 94 d7 0e bc 77 ee 44 bd 3a e9 fa 3c
       -0.0068932544 -0.00871839 -0.04807898 0.03062879
0000b0 4f 2a fe bc 07 32 4e bd 25 70 8b 3d d3 34 08 3b
       -0.031026034 -0.05034068 0.06808499 0.0020783439
0000c0 4c de bd bc b8 c0 27 bc 3c 7b f9 bc b2 38 df bb
       -0.023177288 -0.010238819 -0.03045427 -0.0068121785
0000d0 6a 3b 05 bd 47 71 c6 3c fa 91 ba bb cd 52 93 bc
       -0.032527365 0.024223937 -0.0056936713 -0.017983818
0000e0 0b 4d 35 3a 37 79 99 3d 1f 3b fd 3c aa 3d 6f 3d
       0.00069160823 0.07493823 0.03091198 0.058408417
0000f0 70 51 a3 bc b5 4c a2 3c 6b d7 a2 3c 94 8f c0 3c
       -0.019936293 0.019811967 0.01987811 0.023505963
000100 c5 84 17 b5 b6 e6 98 35 79 cd 0e 35 b9 ce ec b4
       -5.644509e-07 1.1392028e-06 5.3198124e-07 -4.4108836e-07
000110 5c 7b a4 34 1f 58 69 b4 04 36 15 b4 fc ba f7 b5
       3.0637136e-07 -2.1731874e-07 -1.3896357e-07 -1.8457354e-06
000120 32 86 37 35 5a 6d de b5 fa a2 68 35 25 e4 26 b5
       6.836809e-07 -1.6572114e-06 8.6663897e-07 -6.2171813e-07
000130 23 b1 10 35 e0 76 e8 34 e8 0c 00 35 7f 32 90 34
       5.390195e-07 4.329986e-07 4.7702497e-07 2.685883e-07
000140 ce 80 96 35 c9 73 9f b3 db b0 4e 35 d3 ac c3 34
       1.1213358e-06 -7.425076e-08 7.699834e-07 3.6447327e-07
000150 d6 6b 3c 35 33 70 0d 35 6c b4 28 34 4e 6e 60 b6
       7.019238e-07 5.2689865e-07 1.5711856e-07 -3.3442807e-06
000160 da 96 45 34 5a ac 56 34 7f 28 f6 34 47 48 0f 35
       1.8401934e-07 1.9993004e-07 4.5850535e-07 5.337683e-07
000170 77 50 71 35 96 89 16 34 a7 db b0 34 b5 2f 07 35
       8.989659e-07 1.4019892e-07 3.2942373e-07 5.036084e-07
000180 4c e5 f0 34 76 ea 71 b5 27 08 8e b3 b2 16 10 35
       4.487032e-07 -9.012068e-07 -6.613873e-08 5.3677206e-07
000190 96 00 bb 32 3c 21 1d 35 ec 99 2f 34 17 ea ae 35
       2.1769932e-08 5.853542e-07 1.6354142e-07 1.3032139e-06
0001a0 94 74 87 b1 6d ee b2 33 ef ac 0d 35 71 71 07 35
       -3.9422705e-09 8.33214e-08 5.2778245e-07 5.04565e-07
0001b0 52 e0 11 35 c6 52 65 b6 23 b5 3c 34 60 8d 28 33
       5.434314e-07 -3.417184e-06 1.7574762e-07 3.9244128e-08
0001c0 87 2f 96 35 ad 8a 7b 35 64 5e 00 35 80 fa ce 34
       1.1189703e-06 9.3706586e-07 4.782107e-07 3.8552753e-07
0001d0 42 fe 56 b4 9a 31 18 34 07 8e 0e 35 d2 f7 3c 35
       -2.0022802e-07 1.4174148e-07 5.31058e-07 7.0396084e-07
0001e0 8e 20 1c 33 ea cf 39 b4 45 96 c6 b4 57 5c 07 b4
       3.635119e-08 -1.7305106e-07 -3.698971e-07 -1.2606448e-07
0001f0 e0 74 98 b3 9e 19 37 34 b0 13 d4 b4 7c 93 34 b4
       -7.099311e-08 1.7052523e-07 -3.9502402e-07 -1.6817461e-07
000200 b8 72 29 3b 86 a2 9c 3c f0 3d a0 3c 6f 17 c5 bc
       0.0025855731 0.019120466 0.019560784 -0.024059026
000210 ac bd cf 3b 0a 02 06 bc 1a c8 35 3c e8 af fc 3c
       0.0063397493 -0.008179197 0.011095071 0.030845597
000220 c5 3b 09 bc 12 e9 13 3d 6a c0 f9 3b ce fe 42 3c
       -0.008376067 0.036110945 0.0076218145 0.0119015705
000230 ab 6d 06 3d 3c be 65 3c f9 70 0f 3c 03 c3 d4 3c
       0.03281943 0.014022406 0.008754962 0.025971895
000240 52 fe 08 bc 34 60 94 3c b3 f5 9b bc 50 cd 22 3c
       -0.008361416 0.01811228 -0.019038057 0.009936646
000250 1a 1f 93 bc e3 45 10 3c 81 c0 09 bc 03 4e 56 bc
       -0.017959166 0.008805725 -0.008407713 -0.013080123
000260 87 b1 02 b9 1f 63 1c 3c ab c1 9b b9 1c 92 c7 ba
       -0.000124639 0.009545117 -0.00029708198 -0.0015226039
000270 8b 1b e5 bc d3 48 7d 3b ef 47 32 3a 48 08 36 3c
       -0.027967235 0.0038648143 0.000680088 0.011110373
000280 e4 78 48 3b 04 7d 28 bd 48 e6 28 bc ce aa ad 3c
       0.0030589635 -0.04113485 -0.01030881 0.02119961
000290 76 1e 9a 39 a8 bb 7b bb 0b 80 92 bc 95 55 0e bd
       0.00029395864 -0.0038411412 -0.017883321 -0.034749586
0002a0 c5 71 86 3a 29 5b 74 bc 75 9d 6b 3c 7c a5 67 3c
       0.0010257295 -0.014914312 0.014380802 0.014138576
0002b0 99 7b a5 bc be 1a bf bc 67 a4 49 3c 87 e5 b2 3b
       -0.020200538 -0.023328181 0.012307263 0.0054594907
0002c0 c5 7d d0 bc 7f c4 4c 39 71 fa 4e 3c d6 9b d5 3b
       -0.025450597 0.00019528157 0.012632952 0.006518821
0002d0 60 32 58 bd 19 2a f3 3b 20 21 f2 3a 23 8e d2 3c
       -0.052782416 0.00742079 0.0018473007 0.025702542
0002e0 1b b2 aa b9 14 99 8e 3c 08 2d a2 3c a9 dd 9a 3c
       -0.00032557626 0.017406978 0.019796863 0.018904524
0002f0 c0 10 07 ba 98 64 0f 3c b7 53 63 3c 5c 9c a0 3c
       -0.0005152337 0.008752011 0.01387494 0.019605808
000300 b8 8f d9 b6 8a 20 90 35 0b 19 6d 36 33 aa d0 b6
       -6.483835e-06 1.0738306e-06 3.533033e-06 -6.218697e-06
000310 59 f5 29 34 75 cf 19 36 c0 24 2f 35 52 bb 8f b7
       1.5828608e-07 2.2919533e-06 6.524606e-07 -1.7134156e-05
000320 9a 56 4e 36 c4 aa 4f b7 66 c7 84 35 b0 dd 08 34
       3.07468e-06 -1.2377921e-05 9.892799e-07 1.2746636e-07
000330 43 8f 4f 36 0c c3 99 b4 96 08 2c b5 b6 ec 0f b5
       3.0928793e-06 -2.8640386e-07 -6.408749e-07 -5.361611e-07
000340 9f 38 52 36 b2 3f 66 b6 a4 31 8e 35 b9 6c 6e b5
       3.1325396e-06 -3.4309746e-06 1.0594272e-06 -8.882012e-07
000350 53 76 5b b5 53 b1 0a 36 58 bf ae b5 af ff 94 b7
       -8.175604e-07 2.0666819e-06 -1.3019699e-06 -1.7762037e-05
000360 c6 03 cd b5 25 27 03 36 4b 1b 84 b5 01 df b8 b4
       -1.5274788e-06 1.9543306e-06 -9.84271e-07 -3.4434927e-07
000370 71 96 d1 35 72 40 1e b5 00 27 98 b4 11 fa 08 36
       1.5615498e-06 -5.8953367e-07 -2.8340583e-07 2.0411137e-06
000380 a8 12 2d 36 8c bc 9c b5 eb 7f 7e b6 95 4f 4f 36
       2.5789868e-06 -1.167778e-06 -3.7923407e-06 3.0891727e-06
000390 59 4d 1b 34 64 4a 66 36 2d 47 f3 b5 74 fc e3 35
       1.4463639e-07 3.4315972e-06 -1.8125626e-06 1.6986291e-06
0003a0 54 3f 51 35 e1 b5 09 b5 60 ca c7 35 66 af d6 35
       7.795072e-07 -5.1301146e-07 1.4885554e-06 1.599529e-06
0003b0 e8 25 6c 36 d9 51 08 b7 89 ac 09 b5 b1 c2 05 b4
       3.5188805e-06 -8.125288e-06 -5.128755e-07 -1.2457419e-07
0003c0 77 ac 23 36 d9 37 d6 32 6f 73 ec 35 c9 c4 59 36
       2.438928e-06 2.4938275e-08 1.7616966e-06 3.2450064e-06
0003d0 1c e5 9d b6 e2 44 a2 b5 20 d8 5a 36 ac ed db 35
       -4.7056365e-06 -1.2089988e-06 3.2610333e-06 1.6385943e-06
0003e0 5a ba c6 b4 03 7b c5 35 25 d2 c0 34 e6 3b 26 36
       -3.7015963e-07 1.4713445e-06 3.5915687e-07 2.4770793e-06
0003f0 28 8c df 35 c8 97 59 b4 bd f1 eb 34 b0 19 1a b5
       1.6655586e-06 -2.0264918e-07 4.394805e-07 -5.740685e-07

tree_conv.9.bias f4 [32]
000000 23 59 3a ba e5 62 9f 33 34 6c 43 b9 c5 1d 5b b5
       -0.00071086193 7.422003e-08 -0.00018636958 -8.162718e-07
000010 43 f2 c9 bb a7 8f bc bb 05 71 01 bb 1d 1e f0 3c
       -0.006162913 -0.0057544294 -0.0019751203 0.029311234
000020 47 37 71 ba a8 54 4d bb e7 4b 5c af ad 5f 3d 3b
       -0.00092016574 -0.0031330977 -2.003585e-10 0.0028896139
000030 a2 2e dc b5 27 a6 5e 3b de 98 d3 3b ea be bc 3b
       -1.6404849e-06 0.0033973546 0.006457432 0.0057600634
000040 f8 d8 c0 ba 1d 86 92 38 2a fd 38 3b 62 40 5b a9
       -0.0014713099 6.986803e-05 0.002822707 -4.868361e-14
000050 14 ff 11 bc 98 44 6b 3b 84 68 6d b3 2d e1 e4 3a
       -0.008910913 0.003589904 -5.527592e-08 0.0017462127
000060 63 38 23 bc 3d 55 de 3b d0 ce 49 36 cc d1 9a 3b
       -0.009962174 0.0067850635 3.0071715e-06 0.004724717
000070 d0 2b 0d 2c 51 08 26 ba ee 83 25 8a a8 8c 4d ba
       2.0061626e-12 -0.00063336367 -7.969274e-33 -0.0007841089

tree_conv.11.weight f4 [1, 32]
000000 12 df 4c be ac 3f 46 38 f6 9e 8f bd 04 a6 95 37
       -0.2000697 4.7266178e-05 -0.07012741 1.7839491e-05
000010 f9 bd 0f 3e 20 d0 0d 3e 44 34 95 bd 32 3a 3b 3e
       0.14037313 0.13848925 -0.072853595 0.18283918
000020 e2 1d d0 bd 71 34 8b bd 64 7a 40 31 8c 77 10 be
       -0.1016195 -0.06797112 2.8009248e-09 -0.14108104
000030 dd b0 11 ba 91 7f 8e 3d 52 94 ba 3d e2 73 28 be
       -0.0005557666 0.06957925 0.09110321 -0.16450456
000040 53 b4 a2 bd 9a aa d1 3d be 55 8d 3d 49 1a a2 ad
       -0.0794455 0.10237618 0.0690112 -1.842894e-11
000050 32 3b fb bd e8 05 20 be ce 9f 8e b6 82 a9 30 3d
       -0.1226715 -0.15627253 -4.2505335e-06 0.043130405
000060 0a 4b 3d 3e 8b 13 0e 3e 85 26 66 ba e4 e2 24 3e
       0.18485656 0.13874643 -0.00087795436 0.16102177
000070 e7 c9 ca ad 9d 96 38 3e 18 99 4f 0c 41 86 32 bd
       -2.3054404e-11 0.18026204 1.599277e-31 -0.043585066
