src/Models/autoencoder:2024-03-14 12:35:02.onnx (onnx, 577587 bytes, 6 tensors)

decoder.tree_conv.0.weights.weight f4 [128, 64, 3]
0.048243824 0.077175066 0.011361265 -0.001840903 -0.008619676 0.066631965 0.0060671354 0.06586812
0.030731302 -0.03714368 0.01437445 0.06780662 -0.037087634 0.002948168 0.047549803 -0.05914762
-0.029566942 -0.016603166 0.03773413 -0.055401184 0.012009633 0.061441623 -0.06767005 0.036420904
-0.032537185 0.06124313 -0.057423383 -0.036974784 -0.0443811 0.075960815 -0.05093008 -0.025849205
0.0044971723 0.028396258 0.048464824 0.034869507 0.05632892 -0.030418426 0.018666388 0.045167368
0.017733166 0.06245776 0.020970833 -0.024865462 0.011055698 -0.05996933 0.0275242 -0.008171673
-0.05808101 0.030507427 -0.05197166 0.03561114 -0.004284648 -0.0120715555 -0.046830602 -0.002470432
-0.024046114 -0.05616773 -0.051440235 0.03648568 -0.0006871652 0.0151936505 0.056496352 0.045856923
0.07885602 0.07125889 -0.008047837 -0.021350252 0.006356598 -0.052258648 -0.051601082 0.037497222
-0.058998477 -0.02015607 -0.05664698 0.0676996 0.044507205 0.02578086 0.07399599 -0.04004285
0.053247567 0.051545613 0.056271035 -0.059183907 -0.03864931 -0.07097811 0.063536875 -0.04324361
-0.06713827 -0.0003064245 -0.011962999 -0.04752221 0.057636544 0.029015297 0.065087095 -0.039936543
0.0013429574 -0.054292127 0.039107427 0.024876416 -0.059470017 0.005684698 0.0020720377 0.0017449275
0.05378642 -0.030996429 0.02774916 0.0012115429 -0.006884276 -0.038482405 -0.031471703 0.0066251755
-0.007798864 0.06399642 0.023112388 -0.06899779 0.07224848 0.07009831 -0.04647559 -0.04063698
-0.021345686 -0.016789611 0.06821562 0.052044734 0.079089254 0.020694803 -0.065956466 0.022864006
-0.019809306 0.0630176 -0.0029385076 -0.004075493 0.0069221607 0.03460755 -0.030244086 -0.061732993
-0.017447075 0.015232383 0.061856914 0.037775014 0.04882475 0.017967263 0.06409201 -0.051669855
0.06462566 0.07643011 -0.008251532 0.030898 0.007154909 0.03262788 -0.020320658 0.018306121
-0.009374771 -0.04156004 0.010602371 -0.018776506 0.046225082 0.041796844 0.022181556 0.004116834
0.0136380065 -0.04877379 -0.029822474 -0.027427068 0.053070314 0.023255775 -0.052451767 0.011175067
-0.0050594667 -0.0077613764 -0.060747866 -0.04395419 0.05080848 0.027553728 -0.011820938 -0.050121326
0.054050352 0.0068044085 0.060463797 -0.048352815 -0.0673405 0.03973351 0.03760054 0.033513777
-0.06869866 -0.006224573 -0.0579219 0.057742424 0.041112345 -0.00086913124 -0.0064857253 -0.05954728
0.043687142 -0.018477764 -0.02535305 -0.016752947 0.013594765 0.046977643 -0.056122802 0.021547195
0.014600685 0.06502846 0.06652795 -0.00602716 -0.019485569 -0.034687825 -0.00021443213 0.010702309
-0.024222335 -0.0406864 -0.028268045 0.01663101 0.032712314 -0.01855337 0.07213629 -0.026376374
-0.010987555 0.08345066 0.0034466682 -0.005706773 0.036191937 -0.04895352 0.06304527 -0.0373166
-0.03764251 -0.05378096 0.0061448435 0.0053876704 -0.0018386845 -0.061008863 0.028222775 0.011367712
0.0017026645 0.008686823 0.08075249 -0.04084316 -0.0082143 0.05773793 -0.023598365 0.02361961
0.07429999 -0.021008953 -0.0053103836 0.01072451 -0.04336351 0.047203634 -0.043884277 0.048418272
0.066890135 -0.01790249 0.005891486 0.013937165 -0.004712166 -0.0013526899 0.022734402 -0.0008230806
00000000: 519b 453d f60d 9e3d 9924 3a3c 744a f1ba
00000010: 8b39 0dbc 5776 883d d2ce c63b dde5 863d
00000020: 36c0 fb3c f923 18bd d082 6b3c 32de 8a3d
00000030: 34e9 17bd 0d36 413b 95c3 423d c644 72bd
00000040: 5f36 f2bc 5d03 88bc 1a8f 1a3d 5aec 62bd
00000050: 0dc4 443c 36aa 7b3d 9896 8abd 162e 153d
00000060: b645 05bd 14da 7a3d c834 6bbd df72 17bd
00000070: f5c8 35bd 5891 9b3d 0f9c 50bd b6c1 d3bc
00000080: 045d 933b 459f e83c 0d83 463d 54d3 0e3d
00000090: 27b9 663d 1030 f9bc 41ea 983c 6b01 393d
000000a0: 2545 913c b5d3 7f3d 06cb ab3c a7b2 cbbc
000000b0: f522 353c 66a2 75bd 6e7a e13c 7be2 05bc
000000c0: 5ae6 6dbd b6ea f93c 3ce0 54bd fddc 113d
000000d0: 3c66 8cbb c6c7 45bc 72d1 3fbd f9e6 21bb
000000e0: 5bfc c4bc 2210 66bd ffb2 52bd 0272 153d
000000f0: e022 34ba caee 783c b868 673d 78d4 3b3d
00000100: 447f a13d 2ef0 913d 13db 03bc b9e6 aebc
00000110: 024b d03b 2a0d 56bd a85b 53bd b096 193d
00000120: 63a8 71bd 581e a5bc aa06 68bd 16a6 8a3d
00000130: 304d 363d 6232 d33c 368b 973d f903 24bd
00000140: 1f1a 5a3d 7e21 533d 757c 663d d36a 72bd
00000150: bd4e 1ebd f95c 91bd 9f1f 823d 3620 31bd
00000160: ca7f 89bd 9aa7 a0b9 7400 44bc a6a6 42bd
00000170: 4c14 6c3d 7db1 ed3c 624c 853d 8094 23bd
00000180: 2c06 b03a 6c61 5ebd 1c2f 203d a0c9 cb3c
00000190: d596 73bd b446 ba3b 06cb 073b 0db6 e43a
000001a0: 264f 5c3d 39ec fdbc 3552 e33c a2cc 9e3a
000001b0: 7e95 e1bb ba9f 1dbd 79e8 00bd 0018 d93b
000001c0: 9d8d ffbb 8e10 833d 3156 bd3c b74e 8dbd
000001d0: 03f7 933d b48f 8f3d 305d 3ebd f672 26bd
000001e0: 26dd aebc 5e8a 89bc a2b4 8b3d dc2c 553d
000001f0: 8cf9 a13d 2688 a93c 2f14 87bd 4c4d bb3c
00000200: 2047 a2bc 5f0f 813d fa93 40bb b78b 85bb
00000210: 4bd3 e23b a5c0 0d3d 72c2 f7bc bcdb 7cbd
00000220: 2bed 8ebc 3f91 793c ad5d 7d3d f9b9 1a3d
00000230: 76fc 473d 1530 933c ac42 833d c5a3 53bd
00000240: 755a 843d 6487 9c3d 6f31 07bc cd1d fd3c
00000250: ba73 ea3b d0a4 053d 8277 a6bc b8f6 953c
00000260: a498 19bc dc3a 2abd 91b5 2d3c 30d1 99bc
00000270: 8356 3d3d 2b33 2b3d 18b6 b53c 82e6 863b
00000280: f271 5f3c 07c7 47bd 434e f4bc bbae e0bc
00000290: 4260 593d e582 be3c aad7 56bd a117 373c
000002a0: e2c9 a5bb 2553 febb c1d2 78bd 4f09 34bd
000002b0: 8d1c 503d 5bb8 e13c 9cac 41bc 054c 4dbd
000002c0: e763 5d3d 84f7 de3b e3a8 773d 9a0d 46bd
000002d0: d1e9 89bd 9bbf 223d 0603 1a3d be45 093d
000002e0: e2b1 8cbd 81f7 cbbb 843f 6dbd 5283 6c3d
000002f0: 6b65 283d 69d6 63ba 3586 d4bb d9e7 73bd
00000300: 4af1 323d ae5e 97bc 33b1 cfbc 7a3d 89bc
00000310: 94bc 5e3c a16b 403d 06e1 65bd be83 b03c
00000320: b637 6f3c a42d 853d ce3f 883d 7c7f c5bb
00000330: 33a0 9fbc d214 0ebd 30d9 60b9 bd58 2f3c
00000340: eb6d c6bc c8a6 26bd 6392 e7bc c23d 883c
00000350: 59fd 053d 3dfd 97bc 31bc 933d 4413 d8bc
00000360: 2505 34bc 2ee8 aa3d 7fe1 613b e2ff babb
00000370: ff3d 143d 7c83 48bd e11d 813d 4bd9 18bd
00000380: 082f 1abd 6d49 5cbd af5a c93b 0e8b b03b
00000390: 0400 f1ba 6ee4 79bd 7333 e73c a43f 3a3c
000003a0: f12b df3a 2d53 0e3c 9061 a53d 284b 27bd
000003b0: 4595 06bc 9c7e 6c3d 5c51 c1bc ea7d c13c
000003c0: 982a 983d f81a acbc ba02 aebb dbb5 2f3c
000003d0: f09d 31bd 9958 413d 00c0 33bd 3d52 463d
000003e0: b2fd 883d 3ea8 92bc 5e0d c13b b558 643c
000003f0: 8368 9abb be4c b1ba 7f3d ba3c 01c4 57ba

decoder.tree_conv.0.weights.bias f4 [128]
0.0007868028 -0.033168383 0.014238161 0.049876496 0.054084048 0.008831274 -0.041795902 0.029740449
-0.04497994 0.06621215 -0.05721768 -0.0228607 -0.039258044 0.056653425 0.0060147103 -0.038662873
0.05640617 0.029972468 -0.050126504 0.027427757 0.03882462 0.04815622 -0.02139273 0.053166855
0.024820492 -0.062351253 0.03966132 -0.060972705 -0.021605387 0.055810533 -0.062391646 -0.05761797
0.01544258 0.043622836 -0.028719794 -0.051641237 0.031825367 0.0017346011 -0.0010930375 -0.009098769
0.05276242 -0.043469 -0.050105326 0.01616034 -0.019769859 0.024764536 0.02055785 -0.021413341
0.014680026 -0.010518432 -4.756241e-05 0.06634357 0.027209844 0.012632636 -0.03950736 0.01263529
-0.061242104 -0.0051618074 0.07221689 -0.025989532 0.023841958 0.020076381 0.0033475594 0.05054267
0.057986107 -0.015859649 -0.010659713 0.05907976 -0.008163439 -0.02572846 -0.020029195 0.031792425
-0.019138845 -0.046413165 -0.052212197 0.06368371 -0.06068274 -0.0049664555 0.06581874 0.057349823
-0.036011044 0.07012808 0.051573306 0.06931633 0.014532502 0.020125657 0.0648444 -0.030696603
0.053499497 0.016756834 0.03803756 -0.05366111 0.01416493 -0.0211262 0.0047107777 -0.034026086
0.030299082 0.052365042 -0.042485803 0.03970158 -1.12379785e-05 -0.05543768 0.047758043 0.05784443
-0.062299542 -0.015881093 -0.041008934 -0.056153044 0.01031714 0.019137638 0.058965333 0.041458488
0.041770916 0.033166483 0.060008015 -0.04257445 0.046909507 0.02710752 -0.0572703 -0.05330907
0.022626545 -0.040210318 -0.043267768 0.032309018 0.023834331 -0.06462815 0.031756632 -0.0034766903
00000000: 7141 4e3a 92db 07bd 2d47 693c 4c4b 4c3d
00000010: 3c87 5d3d 0cb1 103c 2e32 2bbd 3ea2 f33c
00000020: e33c 38bd 3c9a 873d 165d 6abd 5d46 bbbc
00000030: 0bcd 20bd 6c0d 683d 0c17 c53b f65c 1ebd
00000040: 280a 673d d288 f53c 7351 4dbd 2db0 e03c
00000050: 9106 1f3d 753f 453d ce3f afbc 7dc5 593d
00000060: 5854 cb3c 0764 7fbd e973 223d 84be 79bd
00000070: c8fd b0bc 9699 643d 628e 7fbd d200 6cbd
00000080: e002 7d3c dcad 323d c645 ebbc c385 53bd
00000090: 515b 023d 8e5b e33a 4144 8fba 0113 15bc
000000a0: 681d 583d 8d0c 32bd 3e3b 4dbd b062 843c
000000b0: 66f4 a1bc ffde ca3c f068 a83c 086b afbc
000000c0: 7e84 703c 8055 2cbc c07d 47b8 23df 873d
000000d0: 2ee7 de3c 1ef9 4e3c 78d2 21bd 3f04 4f3c
000000e0: 00d9 7abd 6124 a9bb 73e6 933d 00e8 d4bc
000000f0: 3650 c33c 3977 a43c ba62 5b3b d505 4f3d
00000100: d782 6d3d 18ec 81bc 14a6 2ebc 9efd 713d
00000110: f2bf 05bc 7ec4 d2bc 4414 a4bc c638 023d
00000120: 11c9 9cbc bb1b 3ebd 75dc 55bd 9b6c 823d
00000130: 778e 78bd a6bd a2bb facb 863d a6e7 6a3d
00000140: 5180 13bd 509f 8f3d 883e 533d b8f5 8d3d
00000150: bb19 6e3c 90de a43c 24cd 843d 7177 fbbc
00000160: 4a22 5b3d a145 893c 46cd 1b3d c1cb 5bbd
00000170: 0614 683c da10 adbc de5c 9a3b f05e 0bbd
00000180: c835 f83c ba7c 563d 9805 2ebd 209e 223d
00000190: c08a 3cb7 9f12 63bd f09d 433d 48ee 6c3d
000001a0: ce2d 7fbd 1119 82bc fcf8 27bd bc00 66bd
000001b0: 3909 293c 89c6 9c3c a285 713d 60d0 293d
000001c0: fb17 2b3d 94d9 073d f7ca 753d 8c62 2ebd
000001d0: 2f24 403d 9710 de3c 4394 6abd 9d5a 5abd
000001e0: 4e5b b93c 93b3 24bd 8b39 31bd 7656 043d
000001f0: 3740 c33c c35b 84bd 3e13 023d 2fd9 63bb

decoder.tree_conv.3.weights.weight f4 [256, 128, 3]
0.006634522 0.0112102 0.038450535 0.023916908 0.031862926 -0.04016463 0.034711882 0.055485446
0.016389681 -0.021037525 0.04858131 -0.0086648045 0.028316213 0.050082013 -0.026688641 -0.008775051
0.008496247 0.04915125 0.00053354766 -0.031033078 -0.01914351 -0.03462426 -0.02397584 0.026260387
-0.031004056 0.044933703 -0.026896251 -0.005646744 0.027306883 0.040996477 0.03452679 -0.05430262
-0.04623528 0.03034639 -0.046469904 -0.05471305 0.016431551 -0.0018909473 -0.022668442 -0.018630678
-0.03322679 -0.019252416 -0.0067143263 -0.021205606 0.021290597 0.026853763 0.0462484 -0.04654826
0.028707538 -0.041272357 0.0386773 -0.0004709833 -0.03626345 -0.018072028 -0.020451033 -0.017868625
0.04043898 -0.03757029 -0.035736073 -0.00082001265 0.04190861 -0.005253678 0.006057686 -0.006997706
0.028785616 0.0076679983 0.01098588 0.028816277 -0.043092873 0.051919494 0.030329466 -0.010161352
0.039680567 -0.011691474 0.01845754 0.030052371 -0.053386472 -0.0084343515 -0.01332098 0.03264364
0.020226354 0.0006267237 0.009280947 -0.040196758 -0.05017275 -0.025105217 0.034379795 0.054788336
-0.023377977 -0.020279832 -0.015827285 -0.0026559844 -0.010580516 0.018819606 0.017683942 -0.0013295513
0.033021502 -0.008194346 -0.005374621 0.033269864 0.014701605 0.011502789 0.036514997 0.027770935
0.03254398 0.028274583 -0.04044881 0.0019944126 0.015870735 -0.021153769 0.021923965 -0.046425037
0.030105036 -0.0031696751 0.017157618 0.0017413485 -0.027099036 0.023666138 0.03935249 -0.01385247
-0.0044247727 -0.02615675 -0.012887895 -0.02710995 0.0077066105 -0.023281198 -0.050315578 -0.012814731
-0.031758163 0.037398525 0.03547906 0.0086940555 -0.022649484 0.0057798377 0.023555208 0.03332646
-0.028870469 -0.010914891 0.050815344 0.03035326 0.041712582 -0.016832076 -0.012131416 0.004817199
-0.024745828 0.0028606888 -0.029343558 -0.004599585 0.013587556 -0.010386078 0.01884691 0.008186772
0.0116974125 0.0068108723 -0.04601596 0.044909053 -0.025596527 0.046138223 -0.04589541 -0.008143949
-0.019684259 0.03399655 -0.0040599643 -0.04922147 0.0445393 -0.02463396 -0.03279314 -0.007074139
-0.0075461245 -0.054054454 -0.051885013 -0.015722686 -0.025086744 -0.04062945 -0.024976376 0.026260488
0.054100897 -0.00068461464 0.027910557 -0.053402584 -0.013523962 0.024046473 0.04839702 0.002239466
-0.014419097 -0.033783246 0.0045791324 0.03213419 0.005605723 0.016427997 9.215725e-05 -0.034463696
-0.043953672 0.027778832 -0.04258899 0.0030782567 -0.010090397 0.0472049 0.034869663 0.0023712004
0.040393677 -0.011720749 -0.03947888 0.022141175 -0.039699677 0.03936782 -0.04002989 -0.012377263
0.034421165 -0.014280435 -0.03346628 0.04512895 -0.028875608 -0.019496663 0.031343266 -0.040260587
-0.0018626007 -0.044305895 0.0030028983 0.036620356 -0.0022389567 0.005552063 0.005916515 0.04424717
0.009316964 -0.020649757 -0.03306531 0.051080316 0.01565198 0.00087265973 -0.027311364 -0.0025894076
-0.007937118 -0.047978774 -0.019044295 0.041908912 0.03408402 -0.01707613 -0.04546268 -0.014716324
0.016969634 0.030311877 -0.0064828424 0.025074925 0.012095817 0.017635807 -0.0060421424 -0.016326705
-0.010881808 -0.0055172727 -0.0040142583 0.047322676 -0.020251308 0.05444148 0.023621583 0.04318939
00000000: 6866 d93b fdaa 373c 4f7e 1d3d 64ed c33c
00000010: b382 023d ab83 24bd 0c2e 0e3d b544 633d
00000020: a743 863c e356 acbc 32fd 463d d3f6 0dbc
00000030: 67f7 e73c cc22 4d3d 23a2 dabc 3bc5 0fbc
00000040: d833 0b3c d252 493d c7dd 0b3a 1539 febc
00000050: dad2 9cbc 2bd2 0dbd fb68 c4bc 0620 d73c
00000060: 38fc fdbc 670c 383d 8755 dcbc 5208 b9bb
00000070: afb2 df3c eceb 273d f76b 0d3d 6d6c 5ebd
00000080: 3461 3dbd fe98 f83c 3a57 3ebd cb1a 60bd
00000090: 769b 863c aad9 f7ba 2bb3 b9bc 5d9f 98bc
000000a0: d118 08bd 3eb7 9dbc da03 dcbb 61b7 adbc
000000b0: 9e69 ae3c 6cfc db3c f66e 3d3d 63a9 3ebd
000000c0: 122c eb3c 340d 29bd 176c 1e3d 4fee f6b9
000000d0: fc88 14bd ca0b 94bc ed88 a7bc 3961 92bc
000000e0: 58a3 253d 4ee3 19bd fd5f 12bd 1ef6 56ba
000000f0: 5da8 2b3d 0c27 acbb 8e7f c63b 034d e5bb
00000100: d0cf eb3c d543 fb3b 1ffe 333c 1d10 ec3c
00000110: 2782 30bd 89a9 543d 8075 f83c cd7b 26bc
00000120: 1788 223d 998d 3fbc 4434 973c 6430 f63c
00000130: c6ab 5abd 3c30 0abc 3d40 5abc 56b5 053d
00000140: bdb1 a53c b74a 243a 1d0f 183c 5ba5 24bd
00000150: f181 4dbd 75a9 cdbc d4d1 0c3d bc69 603d
00000160: 2c83 bfbc e421 a6bc 39a8 81bc 0610 2ebb
00000170: e759 2dbc 932b 9a3c eadd 903c 5744 aeba
00000180: 8e41 073d 9441 06bc 971d b0bb fb45 083d
00000190: 00df 703c 3276 3c3c c090 153d df7f e33c
000001a0: d64c 053d 19a0 e73c a7ad 25bd b1b4 023b
000001b0: 5803 823c ab4a adbc e399 b33c 2e28 3ebd
000001c0: d69e f63c 53ba 4fbb 228e 8c3c f63d e43a
000001d0: ccfe ddbc 7ddf c13c 1430 213d 78f5 62bc
000001e0: affd 90bb ae46 d6bc c027 53bc b015 debc
000001f0: bc87 fc3b 36b8 bebc b517 4ebd e1f4 51bc
00000200: d914 02bd 322f 193d 7e52 113d 8371 0e3c
00000210: 698b b9bc cb64 bd3b daf6 c03c 5381 083d
00000220: c381 ecbc 5fd4 32bc c023 503d 66a7 f83c
00000230: d0da 2a3d 6ce3 89bc d9c2 46bc 98d9 9d3b
00000240: c3b7 cabc 657a 3b3b e761 f0bc 1eb8 96bb
00000250: 579e 5e3c 5e2a 2abc d664 9a3c cf21 063c
00000260: 81a6 3f3c bd2d df3b 3b7b 3cbd 8ef2 373d
00000270: cfaf d1bc 6ffb 3c3d d3fc 3bbd 336e 05bc
00000280: e240 a1bc f73f 0b3d 7309 85bb 749c 49bd
00000290: d76e 363d 29cd c9bc 1952 06bd 2ece e7bb
000002a0: 7b45 f7bb 3468 5dbd 6185 54bd ddcc 80bc
000002b0: b782 cdbc 116b 26bd 429b ccbc 3c20 d73c
000002c0: e798 5d3d b677 33ba aea4 e43c abbc 5abd
000002d0: 9c93 5dbc 1cfd c43c f43b 463d 01c4 123b
000002e0: 143e 6cbc 4d60 0abd 8c0c 963b 249f 033d
000002f0: 36b0 b73b 0294 863c 8c44 c138 ce29 0dbd
00000300: c408 34bd 6f90 e33c cb71 2ebd 94bc 493b
00000310: 3152 25bc ed59 413d 7ed3 0e3d 2466 1b3b
00000320: d773 253d 6208 40bc 9bb4 21bd 6961 b53c
00000330: 219c 22bd 2740 213d 62f6 23bd 01ca 4abc
00000340: 35fd 0c3d 7cf8 69bc f013 09bd 22d9 383d
00000350: 8a8c ecbc 77b7 9fbc cc61 003d 49e8 24bd
00000360: 8222 f4ba 197a 35bd 46cc 443b 3aff 153d
00000370: 76bb 12bb 15ee b53b 53df c13b 853c 353d
00000380: 2ea6 183c ae29 a9bc 7e6f 07bd 9839 513d
00000390: 9538 803c 34c3 643a 15bc dfbc 0db3 29bb
000003a0: b00a 02bc 6485 44bd c802 9cbc aea8 2b3d
000003b0: af9b 0b3d 3de3 8bbc 1337 3abd bd1c 71bc
000003c0: e703 8b3c 9d50 f83c 066e d4bb ee69 cd3c
000003d0: 892d 463c f878 903c 2afd c5bb 95bf 85bc
000003e0: 9c49 32bc 3dca b4bb 0a8a 83bb 6cd5 413d
000003f0: 12e6 a5bc 08fe 5e3d 0d82 c13c 5ce7 303d

decoder.tree_conv.3.weights.bias f4 [256]
-0.020256124 0.040906582 -0.043028753 0.04838027 0.026090495 -0.026822235 -0.0064672674 -0.035565287
0.013014454 0.049818933 -0.03709838 0.04646626 -0.042637758 -0.011702201 -0.00034542236 0.010511854
-0.021256438 0.02841609 -0.04130722 0.019295326 0.008098667 -0.02324063 0.0024517078 0.013662301
0.05175075 -0.0068215495 -0.01195641 -0.0053823795 -0.028345395 -0.025089905 0.02380563 -0.010969788
-0.024453953 -0.021473428 0.034218173 -0.0005291857 0.0074869 -0.005767391 -0.012316985 0.05912533
-0.04645637 0.050415486 -0.00515888 -0.0060737585 0.037699237 0.042001978 0.03224277 0.044331897
-0.019682253 0.013118057 -0.04916592 0.009044688 0.03819934 0.03192682 0.015740454 -0.034236267
0.01753921 -0.044934195 -0.04802569 0.018945657 0.015860744 -0.042383216 0.030143797 -0.0031566948
-0.0412614 0.029398149 -0.044906005 0.050972126 0.013763781 -0.0016082024 0.03154399 -0.016939634
0.009449199 0.027201643 0.019987466 0.028398538 0.03962312 -0.02163758 0.024909887 0.011098057
0.026564982 0.05440082 0.0053365226 0.04126001 0.009721876 0.032762013 0.00604196 0.011619184
0.04439968 -0.027355306 0.048841592 0.041810665 -0.045429025 -0.04282066 -0.042623967 -0.027472725
0.012223558 0.052418977 -0.03236381 0.060832635 0.049175136 -0.006248944 -0.02024787 0.030809958
-0.03664784 0.009225803 0.025932286 0.05873926 -0.015959166 0.05661513 -0.026385015 0.03465533
-0.005384725 0.053805236 0.021464925 0.014246887 0.0002518933 -0.029537844 0.033933036 0.007714921
0.04375245 0.047517337 -0.038062822 -0.025687965 0.009248018 -0.01221292 0.0081865825 -0.041667465
-0.035401322 0.03936089 -0.043434612 -0.044010326 0.006195841 0.017964724 -0.013217798 0.017489206
-0.035950657 -0.007072916 -0.035483774 0.013741541 0.045515813 -0.036785237 0.0072352597 0.022114547
-0.03254957 0.028030783 -0.032166924 0.015958486 -0.0073490134 -0.016563008 -0.03855472 0.008330886
-0.021151025 0.014847727 -0.027272398 -0.011411592 0.0044260444 0.0023929223 -0.0049223537 -0.027815958
-0.010835346 -0.0125578875 0.039442714 -0.03272426 -0.011911085 -0.0020915968 -0.0130531695 0.038513303
-0.015612859 0.030032972 0.0025116606 -0.0032556015 -0.019684054 -0.01452565 -0.025980072 -0.047514364
0.05530997 0.04868467 -0.00081639364 0.03767485 0.0019761566 -0.016019296 0.029115396 0.015303043
0.050672937 -0.03829198 0.036961116 0.0022977705 -0.016500978 0.034610573 0.050096143 0.048827235
0.0030955155 -0.0371354 0.0055513373 0.039963424 0.008352699 -0.005827854 0.011894436 0.02064215
-0.045083694 -0.020632071 -0.0017767355 0.009905028 -8.378053e-05 -0.033079844 0.027493121 0.03500633
0.04670901 0.015630478 0.00738304 0.019486584 0.025789395 -0.004688078 0.012342204 0.0130421
-0.039535627 0.005682171 0.0024869498 0.009704464 0.017625632 0.031611033 0.031945027 0.012015439
-0.048077498 -0.03600119 0.044376835 0.00995086 -0.023897352 0.014290497 -0.037290044 0.027771
-0.032671314 0.016702572 -0.03018634 -0.004395443 -0.049940255 0.036846217 0.030216457 0.01510339
-0.04243297 -0.0013217279 -0.016932799 0.02746951 0.012449618 0.04759695 -0.032877006 0.011987753
0.014786299 0.027846249 0.0063545997 -0.022693487 -0.02819088 0.053254433 0.007299264 0.01632944
00000000: 2cf0 a5bc a98d 273d eb3e 30bd 642a 463d
00000010: bcbb d53c 4eba dbbc 5feb d3bb e8ac 11bd
00000020: 943a 553c f00e 4c3d 79f4 17bd 6853 3e3d
00000030: eea4 2ebd 97ba 3fbc ce19 b5b9 e939 2c3c
00000040: fb21 aebc dcc8 e83c c231 29bd 3b11 9e3c
00000050: 45b0 043c 2263 bebc d5ac 203b d8d7 5f3c
00000060: 98f8 533d 4e87 dfbb d1e4 43bc ac5e b0bb
00000070: 9a34 e8bc 5889 cdbc 0604 c33c a0ba 33bc
00000080: a853 c8bc 0be9 afbc 5b28 0c3d 0db9 0aba
00000090: ab54 f53b 62fc bcbb 2ecd 49bc 672d 723d
000000a0: 0949 3ebd 7880 4e3d d20b a9bb 6106 c7bb
000000b0: 846a 1a3d 440a 2c3d ff10 043d 5d95 353d
000000c0: ad3c a1bc 1eed 563c 3462 49bd 2c30 143c
000000d0: e976 1c3d b2c5 023d 20f2 803c 543b 0cbd
000000e0: 64ae 8f3c eb0c 38bd 96b6 44bd ec33 9b3c
000000f0: 64ee 813c 069a 2dbd 20f0 f63c 8de0 4ebb
00000100: b701 29bd 63d4 f03c 5cef 37bd 26c8 503d
00000110: 7b81 613c 51ca d2ba 4534 013d fdc4 8abc
00000120: d0d0 1a3c fbd5 de3c c1bc a33c 0da4 e83c
00000130: da4b 223d 4b41 b1bc d20f cc3c a0d4 353c
00000140: ce9e d93c 65d3 5e3d ffdd ae3b 4200 293d
00000150: 8148 1f3c 7631 063d a2fb c53b 645e 3e3c
00000160: 70dc 353d 3c18 e0bc 1f0e 483d a941 2b3d
00000170: c913 3abd b764 2fbd 7896 2ebd 7b0e e1bc
00000180: 5145 483c 48b5 563d ea8f 04bd a42b 793d
00000190: de6b 493d f1c3 ccbb dcde a5bc 2a65 fc3c
000001a0: 0c1c 16bd d327 173c f26f d43c 9498 703d
000001b0: ccbc 82bc 44e5 673d 6325 d8bc bff2 0d3d
000001c0: 5972 b0bb e162 5c3d 36d7 af3c c66b 693c
000001d0: 8c10 8439 59f9 f1bc 5efd 0a3d 73cd fc3b
000001e0: c535 333d 8aa1 423d c3e7 1bbd 916f d2bc
000001f0: 0085 173c b318 48bc 0421 063c 81ab 2abd
00000200: fa00 11bd e238 213d 7ee8 31bd 2c44 34bd
00000210: 7b06 cb3b c22a 933c 778f 58bc 8645 8f3c
00000220: ff40 13bd ebc3 e7bb 6f57 11bd 3324 613c
00000230: ca6e 3a3d 1eac 16bd c215 ed3b 9129 b53c
00000240: b352 05bd d0a0 e53c 77c1 03bd 5fbb 823c
00000250: fecf f0bb 25af 87bc 8eeb 1dbd 457e 083c
00000260: ea44 adbc e143 733c 5d6a dfbc b0f7 3abc
00000270: 5a08 913b 93d2 1c3b b24b a1bb 4bde e3bc
00000280: bc86 31bc 99bf 4dbc af8e 213d e009 06bd
00000290: b626 43bc 2c13 09bb f6dc 55bc 20c0 1d3d
000002a0: 14cd 7fbc b507 f63c ac9a 243b ee5b 55bb
000002b0: 7440 a1bc fefc 6dbc 29d4 d4bc 6c9e 42bd
000002c0: b58c 623d 9469 473d 4003 56ba f250 1a3d
000002d0: 6882 013b e63a 83bc 6983 ee3c 9db9 7a3c
000002e0: 6d8e 4f3d 0dd8 1cbd 8a64 173d 3196 163b
000002f0: 0f2d 87bc d1c3 0d3d 9d31 4d3d 11ff 473d
00000300: 22de 4a3b 4a1b 18bd fee7 b53b b0b0 233d
00000310: c2d9 083c 95f7 bebb e1e0 423c ba19 a93c
00000320: aea9 38bd 9704 a9bc 5ae1 e8ba b348 223c
00000330: 54b3 afb8 bb7e 07bd 4139 e13c cc62 0f3d
00000340: f251 3f3d 7d0b 803c 6eed f13b 54a2 9f3c
00000350: 4844 d33c 739e 99bb f536 4a3c 88ae 553c
00000360: 1cf0 21bd 8131 ba3b 18fc 223b 79ff 1e3c
00000370: a163 903c 927a 013d cad8 023d 67dc 443c
00000380: e9ec 44bd fc75 13bd 7cc4 353d ef08 233c
00000390: 61c4 c3bc b022 6a3c 72bd 18bd 0280 e33c
000003a0: 5bd2 05bd d5d3 883c 5849 f7bc a607 90bb
000003b0: 278e 4cbd 0fec 163d 8188 f73c 3674 773c
000003c0: 32ce 2dbd d43d adba a7b6 8abc bd07 e13c
000003d0: 7cf9 4b3c 05f5 423d 0aaa 06bd 4868 443c
000003e0: 3c42 723c d11d e43c 3f3a d03b b1e7 b9bc
000003f0: 8ff0 e6bc 5221 5a3d aa2e ef3b 51c5 853c

decoder.tree_conv.6.weights.weight f4 [2, 256, 3]
0.019126756 0.009336702 0.0065281265 0.02277201 -0.02828124 -0.03894976 0.008564606 0.017347272
0.028542139 -0.007344992 -0.004889799 -0.026698897 0.014549404 -0.032687206 -0.03353929 0.021678438
0.008498834 -0.029005453 -0.0058760922 0.017400362 0.015363124 0.021842074 0.017936323 0.012948321
-0.016676633 -0.0012147498 0.021582583 -0.011494791 0.021996072 0.014082041 0.02600384 -0.019745246
-0.003035754 -0.01977287 -0.016722335 -0.022697948 -0.017350428 -0.007013098 -0.00710596 -0.022090044
-0.0027234387 0.032618877 0.020593263 0.011467882 0.001427549 -0.020596148 -0.008697708 -0.032928534
-0.02777143 -0.02045892 -0.028617844 -0.007492052 -0.017901385 0.0055538085 -0.041712664 -0.03391759
0.0049448004 -0.0072950544 -0.0042145047 0.023271322 0.021140933 0.020904427 0.016391318 -0.0099447705
-0.038882606 0.003652538 -0.01572302 -0.037000544 -0.016754411 0.027853468 0.037584167 -0.025634672
-0.013798281 0.016359424 -0.0019177019 0.033795875 -0.0006582345 -0.0014154839 0.01553823 0.016266845
-0.018202854 0.023166617 0.007853324 -0.0028283887 0.0267472 0.00036996137 -0.0047198343 0.025049401
0.024136698 -0.010827983 0.005067733 -0.026541151 0.003437727 0.022130076 -0.0019436518 -0.038379516
-0.0024256557 -0.005960604 0.01377281 -0.02847902 -0.018907638 0.022084428 0.013488577 -0.02781313
0.00558621 0.0224659 0.030373778 -0.022884354 -0.022737559 -0.022369048 0.029013043 0.006548954
0.017706655 0.004310662 0.00028383266 -0.015104859 0.008756444 0.023264421 -0.019477967 0.030713497
0.007026916 -0.03949266 -0.04319123 -0.028274555 0.010354125 -0.008177314 0.0022321655 0.026881024
0.012601075 -0.010090015 -0.029742608 -0.001227134 -0.0081341965 -0.022697093 0.025453005 -0.037405398
0.0059163286 0.023597315 -0.018727198 -0.021725126 -0.007436545 0.0052250037 0.0011047306 -0.023869187
-0.0244567 -0.008514563 -0.03445499 0.035496265 0.015868457 0.0015448695 -0.029367445 -0.018692425
-0.03660104 0.015089487 -0.004630898 -0.041118972 -0.024483101 0.016420772 -0.025467925 0.0070095127
-0.024992287 0.0021287077 -0.012073696 0.028015345 0.00053970556 0.0010147762 0.020690715 0.026867844
0.028032321 0.014155142 0.020073878 -0.027215237 -0.007822884 -0.004755327 -0.03231839 0.0050662416
0.029571513 0.014638125 0.0072451304 -0.03113716 0.00943702 -0.03438356 0.037110236 -0.0028783975
-0.011124176 0.020723533 0.027821766 -0.014540906 -0.035684682 0.032798357 0.03527255 -0.016535308
-0.028721198 -0.013779467 -0.02935815 0.0013813139 -0.028846525 0.0025892302 0.02658064 0.003877521
-0.033998825 0.030222183 -0.0031872545 -0.031679153 -0.023119988 0.024636393 0.02994325 0.023168359
-0.0075812335 -0.0177881 -0.03319174 -0.007789594 -0.037248667 0.02597736 0.008939645 0.019534186
0.034728467 -0.0038914403 0.019295488 0.000121379155 -0.01734164 -0.03466013 0.03276457 0.02119429
0.00026573765 0.017451275 -0.023722399 -0.0066100736 0.023582632 -0.0009547176 -0.024096122 0.011173841
0.016105287 -0.0064421953 0.026238462 0.019751918 -0.026949145 -0.02600023 -0.011540057 0.004161642
0.03088135 -0.023376876 0.01629836 0.0043607242 -0.035893302 0.019455815 -0.02821396 -0.013199171
-0.03890645 0.023568567 0.03916692 0.013827691 0.026535839 0.023358542 0.03202807 0.0077965125
00000000: b7af 9c3c f7f8 183c e5e9 d53b 5e8c ba3c
00000010: 0fae e7bc c989 1fbd 9052 0c3c de1b 8e3c
00000020: 34d1 e93c 42ae f0bb 9b3a a0bb a5b7 dabc
00000030: a060 6e3c 05e3 05bd 7f60 09bd fb96 b13c
00000040: b23e 0b3c d89c edbc 3c8c c0bb 348b 8e3c
00000050: 9db5 7b3c 26ee b23c 32ef 923c 3225 543c
00000060: 6f9d 88bc 3d38 9fba f5cd b03c a654 3cbc
00000070: 1b31 b43c 5cb8 663c 0106 d53c c8c0 a1bc
00000080: 80f3 46bb b7fa a1bc 47fd 88bc 0cf1 b9bc
00000090: 7c22 8ebc 21ce e5bb 1dd9 e8bb 2ef6 b4bc
000000a0: b87b 32bb 5f9b 053d 34b3 a83c c9e3 3b3c
000000b0: 991c bb3a 41b9 a8bc d580 0ebc 12e0 06bd
000000c0: e980 e3bc 7799 a7bc f86f eabc e37f f5bb
000000d0: eda5 92bc b9fc b53b e6da 2abd 2ced 0abd
000000e0: fe07 a23b 5a0b efbb d419 8abb 80a3 be3c
000000f0: c02f ad3c c33f ab3c 1647 863c 64ef 22bc
00000100: 5e43 1fbd 6b5f 6f3b 90cd 80bc e28d 17bd
00000110: 8c40 89bc f52c e43c dbf1 193d ceff d1bc
00000120: 2f12 62bc 3304 863c 665b fbba 8b6d 0a3d
00000130: 5f8d 2cba c287 b9ba 0f94 7e3c 0c42 853c
00000140: 271e 95bc ebc7 bd3c 3aab 003c 7d5c 39bb
00000150: f21c db3c 60f7 c139 d7a8 9abb 6734 cd3c
00000160: 53ba c53c da67 31bc 3a0f a63b d46c d9bc
00000170: 7d4b 613b 224a b53c 22c2 feba d733 1dbd
00000180: c0f7 1ebb 2c51 c3bb 5aa7 613c d54c e9bc
00000190: 31e4 9abc 67ea b43c 31ff 5c3c 5cd8 e3bc
000001a0: 870c b73b 680a b83c 6ed2 f83c f877 bbbc
000001b0: 1e44 babc 4b3f b7bc c3ac ed3c 9c98 d63b
000001c0: 8c0d 913c 7440 8d3b 60cf 9439 5f7a 77bc
000001d0: 3077 0f3c 0795 be3c 4290 9fbc df9a fb3c
000001e0: 0b42 e63b 0ec3 21bd 4ae9 30bd 0aa0 e7bc
000001f0: 59a4 293c 24fa 05bc 8649 123b 9835 dc3c
00000200: bd74 4e3c 9750 25bc c5a6 f3bc c9d7 a0ba
00000210: 4b45 05bc 41ef b9bc d282 d03c 6736 19bd
00000220: c3dd c13b 284f c13c c869 99bc e4f8 b1bc
00000230: 43ae f3bb 8236 ab3b 9ccc 903a 5089 c3bc
00000240: 6b59 c8bc aa80 0bbc ad20 0dbd 8864 113d
00000250: 91fe 813c 387d ca3a ff93 f0bc db20 99bc
00000260: f9ea 15bd e539 773c cabe 97bb 5e6c 28bd
00000270: c990 c8bc db84 863c 1ca2 d0bc 0eb0 e53b
00000280: a0bc ccbc ca81 0b3b c0d0 45bc 7080 e53c
00000290: 077b 0d3a 3d02 853a 937f a93c f419 dc3c
000002a0: 0aa4 e53c f8ea 673c f971 a43c 7df2 debc
000002b0: 8e2b 00bc 93d2 9bbb 4a60 04bd b702 a63b
000002c0: f53f f23c bfd4 6f3c 8f68 ed3b 5b13 ffbc
000002d0: bb9d 1a3c c7d5 0cbd e700 183d 7fa3 3cbb
000002e0: 2d42 36bc 66c4 a93c 79ea e33c fb3c 6ebc
000002f0: 1a2a 12bd 9257 063d f379 103d 0e75 87bc
00000300: b848 ebbc 46c3 61bc 8180 f0bc 340d b53a
00000310: 8c4f ecbc 13b0 293b a4bf d93c 021e 7e3b
00000320: 5a42 0bbd 8394 f73c 42e1 50bb 00c2 01bd
00000330: 2166 bdbc 43d2 c93c 8c4b f53c 92cb bd3c
00000340: ff6b f8bb 59b8 91bc 10f4 07bd da3f ffbb
00000350: 0f92 18bd 79ce d43c 9777 123c 2806 a03c
00000360: 703f 0e3d 8907 7fbb 9211 9e3c f08c fe38
00000370: 0e10 8ebc c8f7 0dbd 2434 063d a69f ad3c
00000380: b452 8b39 faf5 8e3c 7a55 c2bc 5199 d8bb
00000390: 5d30 c13c 0346 7aba 3b65 c5bc 7c12 373c
000003a0: 3cef 833c 0d19 d3bb 0bf2 d63c c6ce a13c
000003b0: 74c4 dcbc 6ffe d4bc 8212 3dbc 625e 883b
000003c0: e3fa fc3c dd80 bfbc 2384 853c 68e4 8e3b
000003d0: db04 13bd cd61 9f3c f620 e7bc 5641 58bc
000003e0: 5f5c 1fbd de12 c13c 7e6d 203d 8a8d 623c
000003f0: b061 d93c 6a5a bf3c de2f 033d e379 ff3b

decoder.tree_conv.6.weights.bias f4 [2]
-0.03689609 0.021487648
00000000: 5b20 17bd dd06 b03c
