src/Models/cost.onnx (onnx, 693037 bytes, 9 tensors)

tree_conv.0.weights.weight f4 [256, 55, 3]
000000 f3 a6 20 bd 84 84 35 bd a7 13 8c 3d 6b 76 e5 3a
       -0.039221715 -0.04431583 0.06839686 0.0017506605
000010 eb cf da 3c 12 94 60 bd ad e4 3a 3c 24 3c 58 bd
       0.026710471 -0.05482871 0.01140706 -0.05279173
000020 7d 66 78 bd 3a d1 9a 3d 55 eb bc bc 7d 2c 11 3d
       -0.060644615 0.07559438 -0.023061434 0.035442818
000030 cd 8d 89 bd fe 5f 3b bc 6e d7 26 bd 3c 03 16 3c
       -0.067164995 -0.011436461 -0.040732794 0.009156045
000040 21 ca 97 3d 58 6f f7 3b dd e6 ff bc d9 8c cb 3c
       0.074116 0.007551115 -0.031238014 0.024847435
000050 f9 8d d1 bc 01 a7 90 3d 37 b6 cc 3c 12 04 99 bd
       -0.025580393 0.070631035 0.02498923 -0.074714795
000060 ce e6 bd bf 8f 4a b1 3f 1d 90 07 c0 87 7a a3 bc
       -1.4836061 1.3850878 -2.118171 -0.019955887
000070 00 e5 2f bd 8b 96 03 bd fb fa d3 bb f1 03 7a bd
       -0.042943 -0.03212599 -0.006469128 -0.061038915
000080 2e eb 19 bc 0f 14 37 c0 2f 6d 12 c0 60 5f 1a 3f
       -0.00939445 -2.8605993 -2.287914 0.6030178
000090 ad 1f 24 bd d5 27 71 bd 58 31 66 bd 9c cd 2c bd
       -0.04006927 -0.058875877 -0.0561994 -0.042188272
0000a0 97 2d 2b 3d 3f e8 97 bd 5c 1f c1 3d 1c 0d 20 bf
       0.041791525 -0.07417344 0.094298095 -0.62520003
0000b0 7b 33 73 3d d0 df 36 3b 62 51 8e 3d 12 9a ce bc
       0.059375267 0.0027904399 0.06949116 -0.02521995
0000c0 57 e9 6f bd 97 83 6f bd 74 be ba 3b 14 77 a0 3e
       -0.05857214 -0.058475103 0.0056989733 0.3134085
0000d0 69 6a c4 bc 29 87 ec bc e5 69 95 bd ec 7f 18 3d
       -0.023976522 -0.028873043 -0.072955884 0.03723137
0000e0 39 44 ca 3c b7 95 41 40 9c 1c 62 3f e7 11 49 be
       0.024690734 3.0247629 0.88324904 -0.19635735
0000f0 c0 fb ce 3d 00 19 3d 3e c0 18 20 3d d1 7e 7d bc
       0.10106611 0.18466568 0.039086103 -0.01547213
000100 4e 0d 1c 3d e1 9a 49 bd 83 01 b4 3c 5a e4 46 3d
       0.038098626 -0.04921997 0.021973377 0.048557617
000110 9f 93 c9 3c 4b 3f 97 bd 84 a5 2f 3c 0f 75 23 bc
       0.024606524 -0.07385119 0.010720614 -0.009976639
000120 a7 56 97 bd f9 fb 9d bc b0 53 11 bc e7 36 98 bd
       -0.073895745 -0.019285189 -0.00887005 -0.07432347
000130 2b 05 a3 bc 1a 9e 9e 3d 85 0a 94 bd 49 63 4d 3d
       -0.019899925 0.07744999 -0.07228569 0.050143514
000140 ff 82 6c bd d2 b8 15 3d 01 69 39 bc 92 b9 ee 3c
       -0.057742115 0.03655321 -0.011316539 0.029141221
000150 f8 38 f8 3d ef 7d 9a 3d c2 cf e0 3f cd 0a c9 bb
       0.12120241 0.07543551 1.7563403 -0.0061353208
000160 84 78 97 bd 7d 19 db bc 82 68 71 3d 69 c9 85 bd
       -0.073960334 -0.026745552 0.058937557 -0.065325566
000170 d5 42 8d 3a 28 89 ce b9 3b 0a 6d 3d 30 35 64 3d
       0.0010777364 -0.0003939357 0.057871085 0.055714786
000180 71 dc 17 3c dd 9a 89 bf 79 0e 77 bd 6f 97 2e bd
       0.009268866 -1.0750386 -0.060316537 -0.042624887
000190 ac f7 9d bb 26 48 20 bd e6 14 95 3d 77 24 f2 3c
       -0.0048207846 -0.039131306 0.07279377 0.029558403
0001a0 05 2b c6 bc a8 6e c7 3e 12 d2 82 3f df 5a 03 bd
       -0.024190435 0.38951612 1.0220358 -0.032069083
0001b0 ef 39 9d 3d 07 ba 16 3c c8 27 7a 3d 74 cf 1b 3d
       0.076770656 0.009199626 0.061073095 0.03803964
0001c0 b3 0a 32 bc 14 21 6f 3d 2e 27 f5 bc 75 0f 89 bd
       -0.010866809 0.058381155 -0.029925909 -0.06692401
0001d0 f5 c6 02 3c 18 49 1c bd 8c 89 cc bc 02 1c 92 3d
       0.007982005 -0.038155645 -0.024967931 0.07134248
0001e0 b7 d3 85 bc 51 33 17 3c 63 80 92 bd 47 e1 45 bc
       -0.016336305 0.009228543 -0.07153394 -0.012077636
0001f0 64 0c 80 bd 72 dd 84 3d 10 f8 08 c1 8f df 01 bd
       -0.06252363 0.0648755 -8.560562 -0.031707343
000200 f8 65 76 be a8 4b 02 3f ba 73 49 3f 29 d0 f6 bc
       -0.24062335 0.5089669 0.7869221 -0.030128555
000210 3c c1 f8 3c 41 4f 1c 3d e8 2a 8c bc fb 10 91 3d
       0.030365579 0.03816152 -0.017110303 0.07083317
000220 06 a9 8f 3d be a8 3a 3d 13 50 07 be 0c 81 55 bf
       0.070146605 0.04557108 -0.1321414 -0.83400035
000230 6a ba c5 3d b4 4e ac bc 9c cd 2d 3d 88 81 42 3c
       0.09654696 -0.021033622 0.042432413 0.011871703
000240 3d 3f 18 bc 40 21 49 3d bb 02 4f 3d ca ae 31 bd
       -0.009292421 0.049103975 0.050539713 -0.043379582
000250 2b 90 8c 3d 48 a9 65 bd 88 03 ad 3b ff b9 03 bd
       0.06863435 -0.056069642 0.005279962 -0.0321598
000260 50 5f b7 bc 7e e6 47 3d 6a 65 39 bd 00 d1 96 3d
       -0.022384316 0.0488038 -0.04526273 0.07364082
000270 a1 77 94 40 42 a3 de 3f ff d2 d9 3e 8a 36 6f be
       4.639603 1.7393572 0.4254379 -0.23360649
000280 42 9e e9 be 9e 7e de 3f 61 20 6e 3f 92 2d 80 bd
       -0.45628554 1.738239 0.93018156 -0.06258692
000290 ed b8 81 c1 18 e4 56 bd f8 29 c8 3b 99 ff b0 bc
       -16.215296 -0.05246362 0.0061085187 -0.021606253
0002a0 bf 65 4b 3b 25 1a eb 3c 73 fc 55 bd a1 c1 82 bd
       0.0031035987 0.02869899 -0.052242707 -0.06384588
0002b0 ba 5e b9 3b 29 e2 35 3d c2 1b 16 bd c6 bc ab bc
       0.0056570442 0.044405136 -0.036647566 -0.020964038
0002c0 04 6c 2c bd 92 eb fd 3c 7b 9a fc bb 2d b0 55 3d
       -0.0420952 0.030996118 -0.007708845 0.052169967
0002d0 a5 1a 99 3d 0b 86 67 3c 6f fb 0d bd b8 49 36 3d
       0.07475785 0.014131079 -0.034663614 0.044503897
0002e0 4b fe 68 3d 48 ba 8b bd c1 2f 37 3d 65 54 b3 bb
       0.056883138 -0.0682264 0.044723276 -0.005472707
0002f0 b6 ac 07 bd 14 fb 33 c0 ba 2f f1 3e 29 62 f8 40
       -0.033123694 -2.8121996 0.47106725 7.7619824
000300 ad 52 0f 3d 8b 02 d9 bc da 37 84 3d ae 25 e0 3c
       0.034990955 -0.02649047 0.06455965 0.027361717
000310 69 8f 0c 3d 6d e9 21 bd a7 69 91 c0 6c e1 2b bf
       0.034316454 -0.039529253 -4.544147 -0.6714084
000320 9d f4 52 c0 3d b6 89 bd 19 8d 67 3d e2 94 80 3c
       -3.29618 -0.06724212 0.056531046 0.015695993
000330 a2 01 cb 3b b8 f6 02 3c a5 5c 98 bc 9a 2b d6 bf
       0.006195263 0.007993393 -0.018598864 -1.6732056
000340 7c 23 a0 3f 2f 8c 13 bd 41 9d 2d 3d 24 60 9f 3d
       1.2510829 -0.03602236 0.042386297 0.07782009
000350 15 e3 8d bd c8 8e 00 3d ba 71 0c 3d cc 70 84 bd
       -0.06928078 0.031386167 0.034288146 -0.06466827
000360 85 91 62 bd a8 91 8b 3d 98 e3 5a 3d 22 59 4f 3c
       -0.05531456 0.06814891 0.053439707 0.012655528
000370 09 1d e0 bb 33 4a c0 3c 5d 00 9e 40 2a 90 b6 c0
       -0.0068393988 0.023472881 4.9375443 -5.705098
000380 b7 c4 f8 be bb 8d 30 40 ad 61 f0 3e de 15 42 bc
       -0.48587582 2.7586505 0.4694952 -0.011846034
000390 1a e3 6c bd e3 c0 92 bd 48 26 de 3a a1 7c 44 3d
       -0.05783377 -0.071656965 0.0016948665 0.047970418
0003a0 95 4f 5b 3d 5b 38 3d 3d 7b e4 94 3d 7b 67 e0 bc
       0.053542692 0.046196323 0.07270142 -0.027393093
0003b0 c0 f1 82 bd 99 f4 01 bd 68 17 22 bd ca 6c bc bc
       -0.063937664 -0.031727407 -0.039573103 -0.023001093
0003c0 5f 9b 8e bd 63 40 94 3c 61 1a af bc df cd 0e bd
       -0.069632284 0.018097108 -0.021374883 -0.034864303
0003d0 1f 31 93 bd 30 74 66 bd da 4b 6b 3d d8 69 92 3d
       -0.071871035 -0.05626315 0.057445385 0.07149094
0003e0 39 e0 50 3d 0f a5 62 c0 40 95 0e 40 45 52 c8 c0
       0.050995085 -3.5413244 2.2278595 -6.2600427
0003f0 b0 04 32 3d f7 8e 57 3d 2c 3c b2 3c 56 07 7b bc
       0.0434615 0.052626576 0.021757208 -0.015321573

tree_conv.0.weights.bias f4 [256]
000000 fc 19 91 c0 eb 42 15 c1 9a c5 3c c0 3a a4 de 40
       -4.534422 -9.328837 -2.9495606 6.957547
000010 3d 4b fb c0 2a 0f 26 c0 a7 4d 2e 41 db ba 27 c0
       -7.8529344 -2.5946755 10.893958 -2.6207798
000020 1e 79 9a c0 51 3c 24 bf 39 e5 0f 41 d3 af 05 41
       -4.827285 -0.64154536 8.993463 8.355426
000030 4a 70 1f 41 93 f3 50 c0 e9 d4 fa 40 2f 0c b2 40
       9.964914 -3.2648666 7.83849 5.5639873
000040 60 91 67 c0 83 22 08 c1 50 5c ff 40 21 e5 1b c1
       -3.618248 -8.508426 7.9800186 -9.74344
000050 44 0d f4 40 ce 1d e0 40 d7 10 0f c0 8f 69 03 c1
       7.6266193 7.0036383 -2.2354028 -8.213271
000060 72 dc da c0 38 64 40 40 a3 ad 43 41 8d ac ca bf
       -6.83941 3.0061169 12.229892 -1.5833908
000070 4b b5 7f c0 85 1b e8 40 35 22 e9 be f4 86 0a c1
       -3.9954402 7.2533593 -0.4553391 -8.657948
000080 87 42 31 c0 61 d1 d1 40 99 dc f1 40 fb 80 47 41
       -2.7696855 6.556809 7.5581784 12.468989
000090 12 d4 f8 c0 83 82 f5 40 62 d1 85 c0 ba a3 ba c0
       -7.7758875 7.6721816 -4.1818094 -5.832486
0000a0 c5 45 23 c1 18 e4 42 c0 3e a1 2b 40 67 73 13 40
       -10.204534 -3.0451717 2.6817164 2.3039186
0000b0 46 8e bf c0 34 0a ae c0 ae 8f 38 c0 71 6a 23 41
       -5.9861174 -5.4387455 -2.8837695 10.213487
0000c0 1b 2d 41 c0 5f 38 ae 40 14 e4 39 41 ec 6b 58 40
       -3.018378 5.444381 11.618183 3.381587
0000d0 37 33 f0 c0 bf 9b ec c0 26 c6 fa 40 0c dd 2e 41
       -7.506252 -7.394012 7.836688 10.9289665
0000e0 f5 a9 1d 41 fb ba 80 c0 1e 65 17 c1 a9 99 22 41
       9.853993 -4.022825 -9.462187 10.162515
0000f0 dd a8 fe c0 65 2d 30 41 95 d4 80 40 6d 98 da 40
       -7.958113 11.011083 4.02595 6.8311067
000100 11 4b d4 c0 d8 b0 09 c1 7e 93 1d c1 fa c3 e8 40
       -6.6341634 -8.605675 -9.848509 7.273923
000110 f5 73 26 40 00 26 73 bf 7d ac 13 41 2a 09 04 c1
       2.6008275 -0.9497986 9.229611 -8.252237
000120 80 ef 1e c0 50 eb fe c0 18 af 23 c1 1a 2c 78 3f
       -2.483368 -7.9662247 -10.2302475 0.96942294
000130 82 2c a2 40 52 79 1f c1 a0 6c e9 c0 9c d0 fc 40
       5.067933 -9.967119 -7.29451 7.900465
000140 3f 51 ff 40 24 57 14 c1 0b a1 ba 40 c7 f1 1f c1
       7.9786677 -9.271275 5.8321586 -9.996528
000150 38 fb 02 c1 15 fd bb c0 7e f1 0e be 2c 5a 2e 41
       -8.186333 -5.874644 -0.1395931 10.897015
000160 6f f6 07 41 d4 ad 28 c0 43 71 d9 40 8d 23 1b c0
       8.497664 -2.6356096 6.795076 -2.4240448
000170 cf 16 14 41 2f b4 94 c0 6c 4e aa 40 35 6d 9f bf
       9.2555685 -4.646995 5.322073 -1.2455202
000180 75 d8 cb c0 1d 3f dd 40 dd 5c aa c0 d1 8e 29 c1
       -6.370173 6.9139543 -5.323836 -10.597367
000190 81 ee 06 c1 2f a6 01 40 31 61 e2 c0 78 7f 17 c0
       -8.4332285 2.025768 -7.074364 -2.367155
0001a0 c5 41 0d c1 0d 3d 2e c0 30 ca e7 bf 1c 64 0e c1
       -8.828557 -2.7224762 -1.8108578 -8.899441
0001b0 a7 2f 2b 40 b2 95 5e 40 f6 1b 87 c0 65 a0 de be
       2.6747835 3.4778867 -4.222163 -0.43481746
0001c0 e0 27 09 c1 de 5d 4d 40 a4 7d 00 c1 5d ea a9 c0
       -8.572235 3.2088542 -8.030674 -5.309859
0001d0 eb 96 06 c0 5b 06 f9 be 14 17 52 40 0f 45 01 41
       -2.1029613 -0.4863766 3.2826586 8.07936
0001e0 ed 5b 4a 3f 7f 6b 67 c0 bc ee 8a c0 eb 77 10 41
       0.7904652 -3.615936 -4.3416424 9.029277
0001f0 2c 48 80 c0 43 9f 98 40 e7 87 9a c0 86 7a 3d 41
       -4.00881 4.769441 -4.8290896 11.842413
000200 ba 05 f7 c0 12 b0 cf c0 27 7e af c0 c9 8f 24 40
       -7.719449 -6.490243 -5.4841495 2.571276
000210 41 e3 97 3f a4 1b 22 41 79 84 05 c1 9c af 85 c0
       1.1866227 10.131748 -8.344842 -4.1776867
000220 84 88 1e 41 3e df 0a c1 9d fb 08 41 76 46 0b c1
       9.908329 -8.6795025 8.561429 -8.704702
000230 d4 43 a8 bf 13 1a bc bf 6d bb 91 c0 12 d3 0c c1
       -1.31457 -1.4695457 -4.554129 -8.801531
000240 67 86 f7 40 98 ea 9c c0 f9 b4 65 40 bc e8 e3 40
       7.7351565 -4.903637 3.5891707 7.12216
000250 1e 33 1e 3f 77 c8 13 c1 a0 eb 2b 40 5e 11 27 41
       0.6179675 -9.236442 2.6862564 10.44174
000260 4b d7 a3 c0 1a c1 ae c0 60 ef 4a c0 f8 42 8b 40
       -5.120031 -5.461072 -3.1708603 4.351925
000270 cf 2a 0c c1 74 23 5c 40 84 80 96 40 e3 9f 12 c1
       -8.760451 3.439664 4.703188 -9.164035
000280 b5 47 6d c0 fb d7 cc c0 0b a0 31 41 7a a1 cb bf
       -3.7075016 -6.401365 11.101573 -1.5908654
000290 69 31 05 c1 e6 cb 5e c0 55 31 36 41 ec f7 17 41
       -8.324563 -3.481195 11.387044 9.498028
0002a0 c9 65 4b c0 e2 71 01 41 c0 14 fd c0 53 15 62 c0
       -3.1780875 8.090303 -7.908783 -3.5325515
0002b0 d5 2e 70 c0 b9 97 20 c1 1f dd e7 c0 8f 9c 82 c0
       -3.7528584 -10.037042 -7.2457423 -4.081611
0002c0 c9 d4 87 40 78 89 9f 3f 16 d3 ff bd 9b 70 d5 bf
       4.2447248 1.2463827 -0.12491433 -1.667499
0002d0 39 eb cb 40 a0 51 1a c1 7d 09 0d be e6 6f 35 c1
       6.3724637 -9.644928 -0.1377315 -11.339819
0002e0 ba d7 49 c0 ba da f0 3f 08 8a 81 40 f0 97 99 c0
       -3.153792 1.881675 4.0480995 -4.799797
0002f0 73 01 73 40 e0 ce da 40 b8 3a 1b 41 bc 1a 44 40
       3.7969635 6.8377533 9.701836 3.0641317
000300 a7 c3 9f c0 bb a7 eb 3e dc 7d e3 c0 bd 04 75 c0
       -4.9926333 0.46026406 -7.1091137 -3.8284142
000310 d8 2e ed 3f e8 b1 f6 c0 e1 f9 e3 c0 8e 8d b7 c0
       1.852992 -7.709217 -7.124253 -5.7360296
000320 86 ef bf 40 52 06 ee 40 e2 59 1b 40 17 85 33 41
       5.9979887 7.4382715 2.427361 11.219993
000330 a9 be 09 41 0a f8 0d c0 c6 03 3e 40 f0 8d 13 c1
       8.609048 -2.218264 2.9689803 -9.222153
000340 c2 fb 53 41 75 e8 eb bf a1 c9 08 c1 6f 3f 1a c0
       13.248964 -1.8430315 -8.549226 -2.4101217
000350 8a 02 25 41 57 a9 c0 c0 65 7a f8 bf 40 a8 1d c0
       10.31312 -6.0206714 -1.9412352 -2.4633942
000360 1d ac 8b c0 b8 52 b1 bf 4a b5 ca 40 0b 29 b0 c0
       -4.36476 -1.3853369 6.33463 -5.50501
000370 91 cc 81 c0 6f 0f bb c0 18 0c 0f c1 de 25 1f 41
       -4.0562215 -5.845634 -8.940453 9.946745
000380 b3 28 47 c0 58 35 e7 c0 c0 00 0f c1 b4 eb 09 c1
       -3.111859 -7.2252617 -8.937683 -8.620045
000390 f3 f3 dc bf 09 e0 19 c1 b5 15 1a 41 23 89 1f 41
       -1.7261947 -9.617196 9.6303 9.970981
0003a0 67 0f 79 c0 c0 2e 41 c0 31 77 93 40 ed e0 ec 40
       -3.891565 -3.0184784 4.6082997 7.4024568
0003b0 56 d6 06 41 0b 1a 8d 40 f7 b8 3f 41 e3 1c e2 c0
       8.427328 4.409429 11.982657 -7.066026
0003c0 03 2a 21 c1 10 40 c0 3d 7d 9f 76 c0 8a 6f 03 c1
       -10.072757 0.09387219 -3.8534844 -8.214731
0003d0 92 ed 1e 41 78 ae 22 41 4a 0b 1a 41 92 cb f2 3e
       9.933001 10.167595 9.627756 0.47420937
0003e0 b4 a0 a3 40 33 6e 98 c0 b8 51 24 c0 e6 fc 47 41
       5.113367 -4.763452 -2.5674877 12.499243
0003f0 b4 e3 f4 40 24 8f 61 bf 5d d9 63 c0 d8 35 8b c0
       7.652796 -0.8810904 -3.5601418 -4.3503227

tree_conv.3.weights.weight f4 [128, 256, 3]
000000 44 54 5c c0 0e 13 26 c0 1c d7 aa 40 5e 9b 83 3f
       -3.4426432 -2.594913 5.3387585 1.0281789
000010 a9 b7 89 bf 85 b0 47 40 a3 32 4d c0 cb 28 85 c0
       -1.0759174 3.120149 -3.2062156 -4.1612296
000020 b8 d3 ab 40 bc 9d 6c bf 62 66 9b 3e ba de a7 3f
       5.3695946 -0.92428184 0.3035155 1.3114846
000030 e5 cc 52 40 76 18 a5 c0 55 cc dc 3f 6e 58 45 c0
       3.2937558 -5.159236 1.7249857 -3.0835223
000040 c4 82 b9 c0 43 0e a1 40 4a d0 2f c0 61 74 ef c0
       -5.7972126 5.032991 -2.747088 -7.4829564
000050 47 9b 05 40 77 79 02 40 9e 07 26 c0 59 dc a2 40
       2.0876024 2.0386636 -2.594215 5.089398
000060 60 50 34 40 19 9a ce bf 27 85 7f 40 7e 10 51 3e
       2.8174057 -1.6140777 3.992502 0.20416448
000070 a8 c8 62 40 4f a0 d1 bf 41 c1 b3 3b 1a 16 ff c0
       3.543497 -1.6377047 0.005485684 -7.971448
000080 f6 96 21 40 75 a9 5a 3f 66 b1 86 bf 30 4e ab 40
       2.524839 0.8541482 -1.0522888 5.3532944
000090 f8 c1 ab be d3 0f df bf d4 b2 a8 40 b3 b8 8c 3f
       -0.33546424 -1.7426704 5.2718296 1.0993866
0000a0 dd f7 f3 3f 5e 28 a8 40 eb a9 b4 3f 6d 66 1f c1
       1.9060017 5.2549276 1.4114355 -9.962506
0000b0 af 6e 7e 3f e8 be 13 40 e7 1e b5 c0 12 28 9b 40
       0.9938764 2.308527 -5.6600223 4.8486414
0000c0 9e 62 60 40 57 80 43 c1 34 f3 a1 40 5c 38 68 40
       3.506019 -12.218833 5.060938 3.62844
0000d0 0a 26 2b c0 3c 05 ef 3e 38 e5 e6 3e f2 5d 04 c1
       -2.6741967 0.4668368 0.45096755 -8.272936
0000e0 10 cf 87 3f 0c bc 20 40 da 8a 31 c0 cb d0 fe 3f
       1.0610065 2.5114775 -2.7740998 1.9907469
0000f0 bc 19 8a bc e0 4a 58 bf 20 8f ae 40 09 d3 9c bf
       -0.016857974 -0.8448925 5.4549713 -1.2251903
000100 29 dc 79 c0 4f 30 b1 3f f7 ef 57 40 58 cf 53 c1
       -3.9040625 1.3842868 3.3740213 -13.238121
000110 e0 dd a7 40 27 41 3b 40 4a f7 58 c0 28 a4 8c 3f
       5.2458344 2.9258516 -3.3900933 1.0987597
000120 60 23 22 40 58 be 57 c0 33 32 90 3f 0a d8 8e 3e
       2.533409 -3.3709927 1.126532 0.278992
000130 51 fd 0b c1 0f c7 99 40 eb 9f 1e 40 6c 85 39 3e
       -8.749345 4.805549 2.4785106 0.18117303
000140 68 03 bc 40 f6 cf 02 c0 55 b1 c8 40 6e 67 a7 40
       5.875416 -2.043943 6.271647 5.2313757
000150 e9 ed c3 3f 3d 2d ae 40 11 89 53 40 f7 f8 a5 be
       1.530698 5.4430223 3.3052409 -0.32416508
000160 67 67 97 3e f2 11 a8 bd 25 45 8d bf 82 ab cf c0
       0.29571077 -0.08206548 -1.1036726 -6.489686
000170 55 57 a1 40 00 65 9e 3e dc 53 43 40 f3 a9 8a 40
       5.0419106 0.30936432 3.0519934 4.3332458
000180 f8 2e 73 c0 83 87 cf c0 2d 03 a3 40 d7 61 bb c0
       -3.7997417 -6.485292 5.0941377 -5.8556933
000190 2c fc 6b c0 4b c1 9d 40 57 95 1b be 1a 11 6c bf
       -3.6872663 4.9298453 -0.15193687 -0.92213595
0001a0 c6 20 92 3f 25 c1 a1 40 d0 4d 71 c0 61 b2 e0 40
       1.1416252 5.054827 -3.7703743 7.021775
0001b0 a1 2f 2c 40 ee f5 64 c0 d7 31 11 40 55 69 b9 c0
       2.690407 -3.5775104 2.268667 -5.794108
0001c0 6a 58 3a c1 07 cb a1 40 5c 26 33 40 7d 52 c2 c0
       -11.646585 5.0560336 2.7992163 -6.0725694
0001d0 25 a2 f0 3f f5 de c1 3f c9 d4 f5 be 66 88 72 40
       1.8799483 1.5146166 -0.48013905 3.789575
0001e0 70 ed 3a 40 77 7a 98 c0 ef f1 69 3f 00 eb 03 3f
       2.920742 -4.7649493 0.91384786 0.51530457
0001f0 b0 dd c0 40 cd 62 31 40 64 35 79 3e 52 ae 2d c0
       6.0270615 2.7716553 0.24336773 -2.7137647
000200 9b c0 87 40 31 06 45 40 9b bc c6 c0 11 82 a9 40
       4.2422614 3.078503 -6.210523 5.2971272
000210 cd 46 8d 40 c5 46 d2 bf 43 1e 3d 40 bb e4 32 40
       4.4148927 -1.6427847 2.954972 2.7952106
000220 bf 91 5f c0 4e 03 43 40 cc e0 95 be d1 56 c5 c0
       -3.4932706 3.0470767 -0.2927307 -6.1668477
000230 7a 68 a5 40 e2 45 e0 3e 05 e5 1e c1 c2 80 8e bf
       5.1690035 0.43803316 -9.930913 -1.1133044
000240 9d a6 3b 40 87 66 9e c0 78 0e 70 40 f4 fe d7 3e
       2.9320443 -4.9500155 3.750883 0.421867
000250 ef cb 26 40 24 a3 c4 3f 00 90 f8 bf be 9f 09 40
       2.606197 1.5362287 -1.9418945 2.150375
000260 31 03 46 40 c0 26 51 3d 9f 79 cc 3f 6e 72 53 c0
       3.0939448 0.051062346 1.5974616 -3.3038592
000270 de 0f 12 3f ca 27 aa 40 d7 7c a3 40 6a ac 79 3f
       0.5705546 5.317357 5.1089892 0.9752871
000280 37 9e 76 bf d6 fa 8b 40 c4 0b f1 3e be 97 fe c0
       -0.96335167 4.3743696 0.4707929 -7.956023
000290 6c a5 4f 3f 3c b4 07 c0 4d 9f 01 40 b6 0e 83 40
       0.8111179 -2.1203756 2.025348 4.095546
0002a0 c0 ee 64 be 81 ba 1e c1 7d b3 be bf ed ef eb be
       -0.22356701 -9.920533 -1.4898525 -0.46081486
0002b0 4c 1a f1 bf c2 d2 a7 40 f3 4a d2 3f f0 fe 2b bf
       -1.883615 5.2444773 1.6429123 -0.6718588
0002c0 49 7c 16 40 79 31 cf 3e 24 c5 1d c1 72 6a aa bf
       2.3513358 0.40467432 -9.86063 -1.3313735
0002d0 ed 9e 25 40 8d c7 a1 c0 e8 04 ac 3f 81 7e 97 c0
       2.587825 -5.055609 1.3438997 -4.7341924
0002e0 aa af fe c0 ed 13 df be 1a 7b 6f 3f b6 c8 d5 c0
       -7.9589434 -0.4356989 0.93547213 -6.680751
0002f0 ac 6b db 3f 84 42 75 c1 17 88 9d 41 92 6c 96 40
       1.7142234 -15.328739 19.69145 4.700753
000300 be 2b d6 3e db 05 12 40 b2 69 5f 40 e3 d3 6d 3f
       0.41830248 2.2816074 3.4908261 0.9290144
000310 d5 0e a9 bf 2a 75 2f 40 d8 d9 4f 40 ec fa 90 c0
       -1.3207651 2.7415261 3.2476711 -4.53063
000320 b4 05 b6 3f 08 00 68 bd ab 3a f5 c0 e3 76 f6 3f
       1.422049 -0.056640655 -7.6634116 1.9255031
000330 ef c3 aa 3e ad ee 08 3e 9b b5 5a c0 5d b2 9f be
       0.3335261 0.13372298 -3.4173343 -0.31190768
000340 d9 23 72 40 1b f8 a0 40 6d a6 21 40 d5 7d 19 3f
       3.783438 5.0302863 2.5257828 0.5995763
000350 2b 60 b1 40 b1 27 bc 3f 25 bd 28 3f f5 06 43 40
       5.5429893 1.4699613 0.6591361 3.0472996
000360 69 51 84 bf 32 db 7e c0 bd d6 a4 40 64 15 c5 3f
       -1.0337344 -3.9821286 5.151213 1.5397153
000370 c2 8f 21 3f 7a 9c 21 40 cc a8 30 40 91 61 1f bf
       0.6310998 2.5251756 2.7603025 -0.6225825
000380 35 de 97 3e 5f b4 b7 bf b7 a1 dc 40 fb e7 c4 bf
       0.29661718 -1.435192 6.8947406 -1.5383295
000390 5a dc 10 bf 4f ea 4d 40 61 54 a8 bf 33 d3 ff 3f
       -0.5658623 3.217426 -1.315075 1.9986328
0003a0 5b 4a 6b bf 2c b7 fb 3f 4f 6b 78 40 b3 59 5c c0
       -0.9191033 1.9665275 3.8815496 -3.4429748
0003b0 35 39 b1 40 5f 44 8e 3f e9 37 19 c1 f3 45 e7 3f
       5.5382333 1.1114615 -9.57615 1.8068222
0003c0 68 a5 84 3f cc e8 9d c0 b8 ca 2a 40 88 28 56 40
       1.0362978 -4.9346676 2.668623 3.3462238
0003d0 6e 3a a4 c0 bf 10 14 40 22 a9 a2 bf 08 fe 8c c0
       -5.1321325 2.313522 -1.2707865 -4.4060097
0003e0 ac 2c eb 3f 2b 8a 07 40 22 3e 1b c0 ee 00 9c 3f
       1.8373008 2.117808 -2.4256673 1.2187784
0003f0 40 f7 3f 40 fa 70 24 c0 48 71 1a 40 39 e2 56 40
       2.999466 -2.5693955 2.4131641 3.3575575

tree_conv.3.weights.bias f4 [128]
000000 3e 1e a7 40 6e a0 fc bf f4 62 03 41 22 29 c6 3f
       5.2224417 -1.9736459 8.2116585 1.5481303
000010 fa 39 f7 3e 80 f6 f6 40 36 f0 00 41 cf 35 b5 40
       0.4828642 7.7175903 8.058645 5.6628184
000020 95 fb 4c 40 9c 96 a7 40 41 9b 42 40 b3 e6 ad 3d
       3.2028553 5.237135 3.040726 0.08491268
000030 7d 93 c6 40 d8 f4 84 3e 1c ca 12 bc a6 6d bb 40
       6.205504 0.2596805 -0.008959319 5.857135
000040 cb aa 16 3f c1 9c bc c0 59 88 0e 3f 6e de 9f bf
       0.5885436 -5.894135 0.556768 -1.2489755
000050 fa 18 cc c0 3d 80 b0 40 62 a5 23 c0 cd 02 8e c0
       -6.378049 5.515654 -2.5569692 -4.437842
000060 4c 98 97 3f ae 34 42 40 6b d1 f4 be 14 df 62 40
       1.1843352 3.0344653 -0.47816023 3.5448656
000070 7d 75 57 3f 81 cd de 40 ba e9 da 3f 78 6d b4 40
       0.8416365 6.962586 1.7102578 5.638363
000080 1d 0b a5 3e a0 c3 8d 3c f2 74 ac 40 aa c7 d8 40
       0.3223504 0.017305195 5.3892756 6.774373
000090 15 cc 13 40 3e 26 91 3e c9 7c 9a 40 3c 79 83 40
       2.3093312 0.2834949 4.8277326 4.108549
0000a0 01 b2 e5 3f 3e 01 65 40 15 be 4b 3f cd e4 be c0
       1.7944947 3.5782008 0.7958692 -5.96543
0000b0 97 70 b9 40 1e 22 98 3f 3a 3b 9a bd 86 91 95 be
       5.794994 1.1885412 -0.07530828 -0.29212588
0000c0 c3 b5 f1 40 8f 10 53 40 50 b7 08 40 d9 68 d9 40
       7.5534377 3.2978857 2.1361885 6.794049
0000d0 07 d1 bc c0 2b 58 59 be 7f 9b af 40 31 e0 1c 40
       -5.900516 -0.2122504 5.4877315 2.4511836
0000e0 54 c8 a5 3f a5 fe 2a 40 c9 fa a4 40 b1 46 f0 40
       1.295176 2.6717923 5.1556134 7.5086293
0000f0 3c 43 18 bd eb cc 7e 3f 6f 0f f8 40 fd 44 af 3e
       -0.037173495 0.9953143 7.751884 0.3423232
000100 6d 51 e9 3f a4 f8 07 3f 9c 6c 85 3f 58 d2 c6 c0
       1.8227974 0.5311377 1.042377 -6.2131767
000110 a7 73 e9 3e d4 b0 35 40 01 f1 c6 40 41 b2 4e 3f
       0.45596048 2.8389177 6.2169194 0.80740744
000120 e8 d5 16 3f fa e0 c0 40 a5 9e bf 3f 63 80 64 c0
       0.58920145 6.027463 1.497029 -3.570336
000130 43 90 b7 3e 04 03 62 3f ea e1 4d 41 1d b8 46 c0
       0.3585225 0.8828585 12.867655 -3.1049874
000140 b3 dd d8 bf 17 6d c3 40 d7 64 7e 3f 91 fc ae 3f
       -1.6942657 6.1070666 0.9937262 1.3670827
000150 b9 e7 5d c0 a7 94 21 40 96 2c 3f 40 1c 55 0f 40
       -3.4672682 2.524698 2.9870963 2.2395697
000160 4a d4 90 bf 8c 6a 99 40 54 c9 0c 41 7d 8c b3 bd
       -1.1314785 4.794256 8.799152 -0.087670304
000170 85 32 9f 3f 46 2a f2 40 1f d2 c6 40 b5 90 04 41
       1.2437292 7.5676603 6.2131495 8.285329
000180 2d 59 8c be bc df 05 bf 6e bd f3 40 dd 2a b1 c0
       -0.27411786 -0.52294517 7.6168737 -5.5364823
000190 61 1b 83 40 cd 40 09 41 3f 3c 58 3f 8e 19 0e 40
       4.097092 8.5783205 0.8446693 2.2203097
0001a0 2d dc af c0 ab 72 0d 40 ca e2 a3 40 1e 73 96 be
       -5.495627 2.2101238 5.121434 -0.29384702
0001b0 4b 5f 60 c0 df 13 a1 40 8b 82 57 bf 21 40 1c 40
       -3.5058162 5.0336757 -0.8418357 2.441414
0001c0 61 32 8d 40 e2 24 d3 bf 2b d2 b2 40 a8 15 a8 bf
       4.4124 -1.6495631 5.5881553 -1.3131609
0001d0 a3 c0 a7 3f ab 01 cf 40 d0 8b f7 3e 0c 64 0c 40
       1.3105663 6.4689536 0.48348856 2.1936064
0001e0 fd 90 72 3e 1a f7 84 40 13 f0 91 c0 9d cd 5a c0
       0.23688121 4.155164 -4.560556 -3.4187996
0001f0 ed 83 52 40 80 2e 12 bf ae 55 ee 3f 11 8c 15 41
       3.289302 -0.57102203 1.8619897 9.346696

tree_conv.6.weights.weight f4 [64, 128, 3]
000000 20 a7 8c be ac 45 27 c0 99 b9 94 c0 54 b2 b6 bf
       -0.27471256 -2.6136274 -4.647656 -1.4273171
000010 75 11 86 40 ef 69 d7 3f b2 f6 92 3f c3 e8 9b 3f
       4.189631 1.6829203 1.1481535 1.2180408
000020 e8 a7 68 c0 01 59 ee 3f 94 41 b2 3c 85 06 53 c0
       -3.6352482 1.8620912 0.021759786 -3.297273
000030 6a 92 70 3e 61 9d 44 40 4c 4b 3d bd 3b fc 71 bf
       0.23493353 3.0721056 -0.046214387 -0.945255
000040 c5 da ad 3f a0 3d 3f bf 0f 0d bf 3e 90 64 72 3f
       1.3582388 -0.7470341 0.3731465 0.94684696
000050 f8 6a 8b c0 f5 c8 71 bf 7d 6d f7 3f bc b2 85 c0
       -4.3568077 -0.9444726 1.9330288 -4.178068
000060 f5 7c f7 3f fe 79 47 40 9c dd 62 bf fc a7 4c c0
       1.9335009 3.1168208 -0.886194 -3.197753
000070 8f 80 8f 40 43 9c 75 c0 17 22 5a 40 e3 60 ca 3f
       4.484443 -3.8376625 3.4083307 1.5810817
000080 50 e1 18 3f a3 53 91 be 83 38 4c 3f 0d c0 65 bf
       0.597188 -0.28384122 0.7977373 -0.8974617
000090 5b 01 97 40 0c 22 81 40 66 d7 46 c0 cb a4 34 40
       4.7189155 4.035406 -3.1068969 2.8225582
0000a0 d3 1f 5a 40 23 33 95 bf 8f 6b 81 3f 1d af 16 40
       3.4081924 -1.1656231 1.0110949 2.354438
0000b0 ab bb 1d bf 6a 82 5b 40 8e 63 3b c0 a6 5c ca c0
       -0.61614484 3.4298348 -2.9279513 -6.3238096
0000c0 c5 6d c2 3e 30 0b 93 3f c8 61 ee 3e 5e 40 0f c1
       0.37974373 1.1487789 0.46558976 -8.953215
0000d0 3f 9e 39 bd 22 68 cb bf 87 f0 a2 3f 51 0f a2 40
       -0.04531693 -1.5891154 1.2729653 5.0643697
0000e0 75 e4 26 bf db 91 31 40 9a 66 81 40 5e 50 e0 3f
       -0.6519235 2.7745273 4.0437746 1.7524526
0000f0 e9 6e 09 3f 18 6c 2b 40 29 1d 3c c0 1d 7c c1 3f
       0.5368486 2.6784725 -2.9392798 1.5116001
000100 ca 1c 32 3f 64 ac 51 bf d6 9e cc 3e 15 d6 4b 40
       0.6957518 -0.8190367 0.39964932 3.1849415
000110 63 24 d1 3f a9 59 d6 3f f4 46 90 40 e2 77 a6 be
       1.6339229 1.6746112 4.5086613 -0.32513338
000120 c5 0e c9 be 1e 23 92 40 3a a0 a7 bf 62 10 1c 40
       -0.3926908 4.566787 -1.3095772 2.4385
000130 a3 eb 10 c0 95 59 1a 3f 4c cc 86 c0 2d 33 af 40
       -2.2643821 0.6029294 -4.2124386 5.474997
000140 01 ac 09 40 93 2d f7 3e c9 db dc 3f 66 5c 7f c0
       2.1511233 0.48276958 1.7254573 -3.9900146
000150 fe d9 b6 bd bc 86 55 3f 12 c5 09 c1 65 8a ca be
       -0.089282975 0.83408713 -8.610613 -0.39558712
000160 1b 63 c0 3f b9 7d 5c c0 cf a8 57 be ac d8 08 bf
       1.5030245 -3.4451735 -0.21060489 -0.53455615
000170 c9 ca ef bf 74 01 b3 bd 68 bc 8d 3f 25 0d 75 c0
       -1.873376 -0.087405115 1.1073122 -3.8289273
000180 c6 6e 84 40 14 46 aa 40 cb fb fd bf 8c 95 0f 3e
       4.138522 5.3210545 -1.9842466 0.14021891
000190 c9 99 3e 3f 51 b9 31 c0 67 d1 41 bf c3 ef d8 3f
       0.7445341 -2.7769358 -0.7571015 1.694817
0001a0 c5 68 0d c1 dc 2f 47 3f 36 c6 f9 3d f0 3e bb c0
       -8.8380785 0.778074 0.12196009 -5.851433
0001b0 62 da e6 3f c7 95 06 40 7e 20 07 40 0b 7e bb be
       1.8035395 2.1028917 2.1113582 -0.366196
0001c0 54 3e b6 3d 94 31 bd c0 9a 69 b0 bf 26 87 01 c0
       0.08898607 -5.912302 -1.3782227 -2.0238738
0001d0 94 bc ca bf 62 0b cb 3e fc d5 56 40 73 6a 43 c0
       -1.58388 0.39657122 3.3568106 -3.0533721
0001e0 d4 04 77 3e 6a 91 6a 40 80 3d 81 be fb b1 29 bf
       0.24122936 3.6651254 -0.25242233 -0.662872
0001f0 f1 cc 7e 3f de 43 85 c0 8e 46 6f 3f a4 2b 3c 40
       0.99531466 -4.1645346 0.9346703 2.9401636
000200 21 49 71 be 0f 0e b9 c0 f3 20 53 c0 0f 84 dc bf
       -0.23563053 -5.782966 -3.298886 -1.7227801
000210 15 ae a1 c0 2e ed 56 c0 c9 28 f2 c0 09 3a 4c 3f
       -5.0525002 -3.3582263 -7.5674787 0.79776055
000220 ec 3e 15 3e 86 58 df bf a4 eb c0 bf 70 62 14 40
       0.14574784 -1.744889 -1.5071912 2.3185081
000230 4a eb 7c 3f cd 1b 72 3f af c7 3c 40 07 0e 6e 3e
       0.9879652 0.9457367 2.9496877 0.23247539
000240 8a 2d 13 3e 97 74 d5 3f 84 b6 af c0 b1 c3 e3 3f
       0.1437284 1.6676205 -5.4910297 1.7794095
000250 cd 29 81 bf 16 29 80 3d ff b0 4b bf 08 3b 19 3f
       -1.0090882 0.062578365 -0.7956695 0.598557
000260 7c 80 b0 bf a2 6b 55 40 de 67 52 bf 18 ad 64 c0
       -1.378921 3.3346944 -0.8218974 -3.5730648
000270 6c 8d 3e 40 9b 32 42 40 3d c1 57 3f 9a eb 53 c0
       2.9773817 3.0343387 0.84279233 -3.311255
000280 1f 7d 3f c0 8a b4 3b c0 17 9a 16 bf 50 6e a8 3f
       -2.9920118 -2.9328942 -0.5882887 1.3158665
000290 c5 0a 22 c0 60 80 92 be 69 22 1b bf 64 65 8e c0
       -2.5319073 -0.28613567 -0.6059938 -4.449877
0002a0 21 46 f4 3f 2d 02 63 40 37 ff a7 be 24 cd 38 40
       1.9083902 3.5470078 -0.328119 2.8875208
0002b0 26 10 01 40 67 cf 00 bf 72 e5 33 40 73 1d 4e 3f
       2.0166106 -0.5031647 2.8108792 0.80513686
0002c0 a3 69 8c be 60 72 7c 3f 36 ec ab be 3e 05 33 c0
       -0.27424344 0.9861202 -0.33578652 -2.797195
0002d0 05 76 ce 3f 1b 5f 38 3d 25 c2 d3 be bb a1 01 3f
       1.6129767 0.045012575 -0.41359058 0.50637406
0002e0 92 80 84 40 57 66 df 3f c2 38 89 bf c8 3e a1 3f
       4.1406946 1.7453107 -1.0720446 1.2597284
0002f0 5f 96 c3 c0 e8 ca 0e 3e 15 e2 13 40 9e f7 82 3f
       -6.112106 0.1394459 2.310674 1.0231817
000300 0b 10 c2 3f 6a a6 13 3f db ac bd bf 86 be a6 3e
       1.5161146 0.576758 -1.4818376 0.32567233
000310 e3 16 07 c0 f6 72 f4 c0 de 81 ac be e3 8e 18 40
       -2.110772 -7.6390333 -0.3369283 2.383721
000320 40 57 12 3e db c1 d8 bf fc 64 77 40 d2 c9 82 40
       0.14291096 -1.693416 3.8655386 4.0871363
000330 b2 15 79 bf 97 6c 6c 40 27 10 20 40 f5 7f f6 be
       -0.9729873 3.6941278 2.5009859 -0.48144498
000340 c5 01 b0 3e 61 cb 9f c0 35 ec 53 be d3 fd 61 3f
       0.3437635 -4.9935765 -0.20695575 0.8827793
000350 61 61 99 c0 31 97 e9 3e 44 0e b8 be 6d cd 8f bf
       -4.793137 0.45623162 -0.35948384 -1.1234566
000360 23 7e 73 3f 2b fa 5a 3f 1b 76 88 c0 7e b2 e4 3f
       0.95114344 0.85537976 -4.264417 1.7866971
000370 51 85 8f bf 06 a5 64 c0 9c 6e 92 be ad 6c 02 40
       -1.121256 -3.5725722 -0.28600013 2.037883
000380 48 21 b9 3e 40 a7 0a bf 73 92 43 40 fb 3b 08 3f
       0.36158204 -0.54161453 3.0558136 0.5321652
000390 57 44 c3 be 90 68 15 40 7b e8 1b 3f 44 fd 12 40
       -0.38138077 2.334507 0.6090161 2.296708
0003a0 f5 62 50 40 c0 ba e0 bd 7a c7 45 40 60 fc 4b c0
       3.2560399 -0.1097312 3.0903 -3.1872787
0003b0 df 79 a7 c0 8f d2 21 c0 62 72 c8 3e 6f 52 58 3f
       -5.233627 -2.5284765 0.39149767 0.84500784
0003c0 d0 83 b9 3d 5b bb 6e 40 10 15 20 40 28 32 86 40
       0.09058344 3.7301853 2.5012856 4.1936226
0003d0 de 86 f2 bf 6c ec ac bf 7c a1 1a c0 68 f6 da bf
       -1.8947408 -1.350965 -2.4161062 -1.7106447
0003e0 31 2e 52 c0 9f f1 89 3f 88 59 7c 40 a1 e7 01 3d
       -3.2840693 1.0776862 3.9429646 0.03171504
0003f0 5a b6 7d c0 98 1a d7 40 b0 66 6d 40 53 1a 08 40
       -3.9642549 6.7219963 3.7093925 2.1266067

tree_conv.6.weights.bias f4 [64]
000000 b9 c9 a7 c0 e1 49 af 40 db 40 79 c0 ef 9e 85 40
       -5.2433743 5.4777684 -3.8945835 4.175651
000010 2a 5a e9 3f 54 af b4 40 1c f6 e9 40 7c 84 a6 bf
       1.8230641 5.6464024 7.3112926 -1.3009181
000020 d6 2b 4f 3f 5d 69 6f 40 dc 87 77 40 8e 87 e0 40
       0.80926263 3.7408059 3.8676672 7.016547
000030 56 b7 85 3f 53 cd 0b 40 ee 4c b6 c0 5c 11 8e 40
       1.0446575 2.184407 -5.696891 4.439619
000040 ed 90 44 40 30 f4 8e 3f 99 83 99 3f 2c cf 41 40
       3.0713456 1.116827 1.1993285 3.0282698
000050 de 30 bc 40 74 63 f3 40 d4 eb f3 3e 9b 82 16 be
       5.880965 7.6058903 0.4764086 -0.1469826
000060 09 24 39 40 96 62 30 40 e0 d2 98 40 82 43 a3 40
       2.8928244 2.7560172 4.7757416 5.1019907
000070 1f b4 bc 40 b1 11 54 40 57 eb 9b 40 06 03 95 c0
       5.8969874 3.3135798 4.872478 -4.656619
000080 e4 68 45 40 53 ee 9f 40 63 fc 7a 40 fa c5 7c 40
       3.084527 4.9978423 3.9216545 3.9495835
000090 fa 30 84 40 37 35 31 40 e0 0f 76 40 db 33 60 3f
       4.1309786 2.768873 3.844719 0.87579125
0000a0 13 d7 c7 40 dd d2 da 40 af 9d d3 3f f5 ce 8e 40
       6.245004 6.83824 1.6532496 4.4627633
0000b0 56 46 fb 40 25 32 8f 40 25 ea 65 40 0b 54 46 40
       7.852336 4.474871 3.592416 3.0988796
0000c0 10 0c b1 40 f5 9a a0 40 9d b8 8a 40 0b c5 a2 c0
       5.5327225 5.0189157 4.335036 -5.086553
0000d0 05 88 28 3f 33 36 92 c0 06 15 c7 40 8e 0b 45 40
       0.6583255 -4.569116 6.2213163 3.0788302
0000e0 a1 35 65 40 a1 88 9e 40 b7 7f 33 40 fc 1b 3a 40
       3.5813982 4.9541783 2.80467 2.907958
0000f0 a3 27 04 41 eb 2c b2 40 76 2f d0 40 3b f1 97 40
       8.259677 5.567983 6.5057936 4.748197

tree_conv.9.weight f4 [32, 64]
000000 f9 ef 34 41 fd 19 fc 3f 03 a1 25 41 87 a7 e6 3f
       11.308587 1.9695431 10.3518095 1.8019875
000010 27 3b 20 40 ef aa f9 3f 88 7b 83 40 6b 91 16 41
       2.5036104 1.950529 4.1088295 9.410502
000020 ff 3b a7 3e 2f aa 0b 40 b4 8f 0a 41 f0 e0 11 40
       0.3266296 2.1822622 8.660084 2.279354
000030 33 de 54 3e 8b ce 5b be 86 ac 0e 41 04 81 2c 40
       0.20787887 -0.21465509 8.91712 2.6953745
000040 fb 74 b8 be 6d e3 4d 41 fe 53 e1 40 2d 58 93 bf
       -0.3602675 12.868024 7.041503 -1.1511284
000050 f4 a0 1a 40 6a ed 7f 3f de e6 19 42 2f d1 a9 3f
       2.4160738 0.9997164 38.475456 1.3266963
000060 eb 70 c9 40 e6 39 b2 3f ea e3 99 40 a8 6a 98 40
       6.295034 1.3923919 4.8090715 4.7630196
000070 7f a6 56 40 a0 9b 3d 3f 36 a0 23 40 ce 33 a7 40
       3.353912 0.7406559 2.5566535 5.225074
000080 fa 5a fe 3f 26 4c 64 40 27 c3 70 40 7b d0 b9 bf
       1.9871514 3.5671477 3.7619112 -1.4516748
000090 94 17 c3 3f 68 80 03 41 e7 64 8a bf b4 7a 82 40
       1.524157 8.218849 -1.0812043 4.0774784
0000a0 d7 58 d0 3f df 53 c6 3f 8d dd bc 3f e4 43 1f 40
       1.6277112 1.5494345 1.4755112 2.4885187
0000b0 8c ce 87 3f 38 ca 15 40 1a 71 1b 40 89 56 11 41
       1.0609908 2.3404675 2.4287782 9.083627
0000c0 b7 be f4 3f 2b ba bd bf b1 5d 6d 40 2c 0a 14 41
       1.9120702 -1.4822439 3.7088435 9.252483
0000d0 65 81 51 3e 01 d5 a8 40 26 cf 3c 41 1f b1 78 40
       0.20459516 5.2760015 11.800573 3.8858106
0000e0 14 c6 0c bf 3e 60 f0 40 79 a5 9e 3e 6e 6b 93 3e
       -0.54989743 7.5117483 0.3098562 0.287929
0000f0 d7 b2 7a 3e d5 8c c5 3f 73 71 7c 40 fe 13 b0 bf
       0.24482284 1.5433604 3.9444244 -1.3756101
000100 58 79 2c 41 9a c2 d4 40 a5 de 12 41 60 1f a8 40
       10.779625 6.648755 9.179357 5.25383
000110 63 6a a1 40 c4 7e a3 40 7c ba de 40 6c 0a 19 41
       5.0442367 5.1092243 6.960264 9.565044
000120 fe 29 aa 40 5c a4 97 40 4f 5a 44 41 62 71 b3 40
       5.317626 4.7388134 12.272048 5.6075907
000130 bd 23 ac 40 f3 2f 97 40 96 78 b6 40 6f b3 ae 40
       5.3793626 4.724603 5.70222 5.4594035
000140 2d 1f 96 40 1f 8d 5a 41 1f 74 28 41 f2 4f 94 40
       4.6913056 13.659453 10.52835 4.634759
000150 c5 97 b4 40 54 0d be 40 ed ac ff 41 f5 7e c0 40
       5.6435266 5.939127 31.959436 6.0154977
000160 cc 79 dd 40 90 93 85 40 68 35 d2 40 bb 20 11 41
       6.921118 4.174263 6.5690193 9.070491
000170 c1 76 c3 40 a4 4d bb 40 60 60 b6 40 ad 21 e8 40
       6.1082463 5.8532276 5.6992645 7.254111
000180 55 95 e4 40 73 79 c0 40 58 64 ec 40 ab 78 98 40
       7.143229 6.0148253 7.387249 4.76473
000190 82 a7 9a 40 19 e7 1d 41 79 32 9e 40 6a 6f cd 40
       4.8329477 9.86892 4.943661 6.4198503
0001a0 9f 2c ae 40 db e3 b4 40 ac a6 a6 40 39 46 9c 40
       5.442947 5.6528144 5.2078457 4.883572
0001b0 8d 6a c4 40 a4 f0 e0 40 07 9d bb 40 38 34 37 41
       6.1380067 7.029375 5.8629184 11.450249
0001c0 18 3c d7 40 99 c9 a0 40 76 b8 b5 40 09 6c 00 41
       6.7260857 5.024609 5.678767 8.026376
0001d0 14 e0 99 40 d6 f0 86 40 64 ce 27 41 4b 39 c2 40
       4.8086033 4.216899 10.487888 6.069494
0001e0 d7 6d a4 40 b3 f5 17 41 d5 6a a9 40 02 86 a9 40
       5.138408 9.497485 5.294291 5.2976084
0001f0 b9 6d af 40 a0 20 b7 40 11 c4 d4 40 7d 77 97 40
       5.482144 5.7227325 6.648934 4.733336
000200 60 a1 8b be 0d cc 56 bf 95 99 28 bf 8f 0b a6 bf
       -0.27271557 -0.83905107 -0.6585935 -1.2972277
000210 a1 ec 2a bf 27 55 2c bf 27 7c 30 c0 ff 34 31 bf
       -0.6676732 -0.6731743 -2.7575777 -0.6922149
000220 88 8a 02 bf 81 44 30 bf 37 55 9d bf 37 8d 34 bf
       -0.5099263 -0.6885453 -1.229163 -0.70527977
000230 37 15 22 bf 40 fc f3 be 61 e3 84 3e 60 43 2e bf
       -0.6331362 -0.4765339 0.25954726 -0.68071556
000240 52 e2 f9 be 30 4e 77 bf eb c1 9a bf ca 66 24 bf
       -0.4880548 -0.9660368 -1.2090429 -0.64219344
000250 f8 9d d9 bf 21 ad 2a bf 6e 63 9d c0 a9 3f 02 bf
       -1.7001333 -0.66670424 -4.9183874 -0.5087839
000260 40 6b 48 bf 8e bf 17 bf 9e ab 67 bf 09 8c 32 bf
       -0.7828865 -0.59276664 -0.9049624 -0.69744927
000270 1d 77 06 bf 3c 42 13 bf 76 bf 27 bf 79 22 0a bf
       -0.525255 -0.5752294 -0.6552652 -0.5395885
000280 0b 3c 41 bf 07 07 27 bf d3 d4 23 bf 26 04 22 bf
       -0.75482243 -0.652451 -0.6399662 -0.6328758
000290 38 f9 09 bf ec 48 14 bf a4 46 1e bf ad 84 18 bf
       -0.538959 -0.5792377 -0.6182654 -0.5957745
0002a0 3b 8c 32 bf 71 94 17 bf f7 92 12 bf 30 ff 2f bf
       -0.69745225 -0.5921088 -0.572555 -0.6874876
0002b0 d1 fc 50 bf ef cb 27 bf 6c 8c 1c c0 1d 73 44 c0
       -0.8163577 -0.6554555 -2.4460707 -3.069526
0002c0 df 25 0e bf 5e 8a 2f bf 21 5b 1b bf a1 d7 4c bf
       -0.55526537 -0.68570507 -0.60685927 -0.80016524
0002d0 d4 f2 15 bf 41 df e1 be 9c 07 5f bf 2a 74 1c bf
       -0.5857365 -0.44115642 -0.87120986 -0.6111475
0002e0 67 f8 1e bf e1 89 58 bf a6 2b 01 bf ba e4 c9 be
       -0.6209778 -0.84585387 -0.5045723 -0.39432317
0002f0 8c 05 0c bf d4 ce 23 bf e0 b6 3c c0 26 c4 12 bf
       -0.54695964 -0.6398747 -2.9486618 -0.5733055
000300 49 77 d4 3e 28 95 89 be ca 93 8d bd a3 72 fe 3f
       0.41497257 -0.2687161 -0.06912954 1.9878734
000310 84 11 03 bf d4 43 13 bf 20 6d 79 3e 4b 25 1f bf
       -0.511986 -0.5752537 0.24358034 -0.6216628
000320 1b f1 66 be 15 2e 01 bf 0c a0 79 bf 35 4c b0 be
       -0.22552912 -0.5046094 -0.9750984 -0.3443314
000330 cb f9 18 bf b4 67 05 bf cd c3 ab 3f cc c9 16 bf
       -0.59756154 -0.52111363 1.3419129 -0.5890167
000340 98 a5 02 bf f8 18 5a bf 84 a1 6f bf b0 d9 fd be
       -0.51033926 -0.8519435 -0.9360583 -0.49580145
000350 e8 72 fa 3f b1 db 8a be 8c 07 7c c0 8e 2b f7 be
       1.9566317 -0.27120736 -3.9379606 -0.48275417
000360 cd 8a 07 bf fe da 11 bf 17 e4 f9 be cb b5 48 bf
       -0.5294617 -0.5697478 -0.4880683 -0.78402394
000370 72 7a 29 bf 16 5f f2 be f8 f1 0e bf bb 2d dc be
       -0.6620246 -0.4733817 -0.55837965 -0.4300364
000380 28 fc 30 bf f0 ca bd be 45 0b 1b bf f1 7f df be
       -0.6913476 -0.37068892 -0.6056407 -0.436523
000390 31 8e d4 be d7 91 37 bf 37 98 16 bf 47 a2 f9 be
       -0.41514733 -0.7170691 -0.5882601 -0.4875662
0003a0 1c 26 01 bd cd e4 ab be 22 c5 02 bf 85 9e 13 bf
       -0.031530485 -0.33573 -0.5108205 -0.57663757
0003b0 0d 69 b1 be 7a c8 1c bf 2c 45 d1 3f 3a af 05 c0
       -0.3465046 -0.612434 1.6349235 -2.08882
0003c0 3b e0 fc be cb 15 05 bf 56 89 27 bf 38 14 aa 3f
       -0.49389824 -0.5198638 -0.65443933 1.328742
0003d0 a6 19 27 bf a8 6d 73 be 52 a0 3f bf 95 f3 ea be
       -0.6527351 -0.237723 -0.74854004 -0.45888963
0003e0 2c 24 9f be a9 09 11 bf 60 66 05 bf 24 a0 00 be
       -0.31082284 -0.56655365 -0.52109337 -0.12561089
0003f0 81 3d 19 bf 09 22 80 be a2 f9 90 3f 6d b5 0a bf
       -0.5985947 -0.25025967 1.1326182 -0.54183084

tree_conv.9.bias f4 [32]
000000 aa 78 07 40 96 34 7f 40 ce f5 df be 90 ff c1 be
       2.1167397 3.9875846 -0.43742222 -0.3789029
000010 00 e0 78 40 07 d0 c9 40 5e cb 6e 40 1a f0 d5 be
       3.8886719 6.306644 3.7311625 -0.41784745
000020 01 cb 04 bf 7b 20 cc 40 48 85 fd be aa bc ac 40
       -0.5187226 6.378965 -0.49515748 5.3980303
000030 70 36 0f be 86 31 88 40 4c 6c 09 be d2 5f 9e c0
       -0.1398561 4.2560453 -0.13420218 -4.949197
000040 3a e4 1b bf 11 7a c4 40 26 dd 53 bc 01 24 df be
       -0.6089512 6.1399007 -0.012931144 -0.43582156
000050 14 cb ef be 8a 5f 2f be 6f 45 8e c0 5d 52 a5 40
       -0.46834624 -0.17126289 -4.445976 5.166304
000060 fa ef 00 bf 85 a9 ca 40 a2 50 80 40 d3 cd be 40
       -0.50366175 6.3331933 4.009843 5.962625
000070 19 0c 98 be 46 65 a6 c0 50 ef 11 bf c0 8b 1b bf
       -0.2969673 -5.1998625 -0.57005787 -0.60760117

tree_conv.11.weight f4 [1, 32]
000000 2b 3d 48 41 79 d8 1f 41 84 2b d9 bf 6d 24 45 bf
       12.514934 9.99035 -1.6966405 -0.77008706
000010 2b b3 1f 41 c1 37 1f 41 ed aa 20 41 d3 da bb c0
       9.981242 9.951112 10.04173 -5.870462
000020 7d bf 40 bf 59 47 21 41 14 26 8e c0 bb 0d 21 41
       -0.7529219 10.079919 -4.442148 10.065852
000030 86 c0 57 c0 d6 54 1e 41 8f e7 e6 c0 7d e7 20 c1
       -3.3711257 9.895712 -7.2157664 -10.056516
000040 fd 99 d1 3d 2d 70 22 41 22 1e aa c0 d6 2f 68 be
       0.10234449 10.152387 -5.3161783 -0.22674498
000050 29 66 d3 be 80 3b 07 c0 08 96 1f c1 b0 c6 1f 41
       -0.4128888 -2.1130066 -9.974129 9.986008
000060 bb db 9c be 05 3d 21 41 30 59 1f 41 99 ec 21 41
       -0.3063639 10.077397 9.959274 10.120263
000070 84 8b 2d c0 8a 7a 1f c1 63 45 91 be a3 95 d3 bf
       -2.7116404 -9.967417 -0.2837325 -1.653004
