src/Models/cost.onnx (onnx, 683631 bytes, 11 tensors)

tree_conv.0.weights.weight f4 [256, 50, 3]
000000 e2 93 0f 3c e3 ca 64 bd d3 0b 95 bb b9 86 f8 3a
       0.008763285 -0.05585755 -0.0045485287 0.0018961049
000010 df ee 64 3d 39 3b 08 bd b1 56 17 3d e7 d5 f3 3c
       0.055891868 -0.033259604 0.03694791 0.029765083
000020 95 8a 01 bc a9 1c 05 3d 6d 43 7d 3d 18 71 62 bd
       -0.007906576 0.032498036 0.06183188 -0.055283636
000030 28 e7 db b9 c2 da 60 3d db a9 63 bc 81 63 5b bd
       -0.0004194316 0.054896124 -0.013895477 -0.05356169
000040 7a ef 4a 3c 7e 5c 95 3d f0 7e f9 bb 7f de c7 3c
       0.012386197 0.07293032 -0.007614009 0.024398087
000050 55 15 32 3c 28 cf 55 bd ff 06 c9 bb 23 f2 8e 3d
       0.010869344 -0.052199513 -0.006134867 0.06979778
000060 ae 82 8e bd 33 02 84 3d d7 30 d5 bb 73 7d a6 3a
       -0.06958519 0.06445732 -0.0065060663 0.0012702182
000070 88 bd f0 bc e3 23 06 bd b4 f9 93 bd 76 de 99 bd
       -0.02938725 -0.032749068 -0.072253615 -0.07513134
000080 d1 8d 43 bc a6 be 64 3c 51 4a 7a 3d de 98 84 3d
       -0.011935667 0.01396147 0.06110603 0.064744696
000090 79 f4 3c 3d f4 9b 79 3d 0c d3 37 3d 4d e2 4f bd
       0.046131585 0.060939744 0.044879004 -0.050752927
0000a0 11 25 94 bd 8e 8f a6 3d 2f f9 92 3c 4e 35 a2 3c
       -0.07233632 0.0813285 0.017941086 0.019800808
0000b0 53 da 25 bd 14 bb 11 3c 17 e7 93 bd 91 08 f1 3c
       -0.040491413 0.008894701 -0.07221811 0.02942303
0000c0 1f 65 54 3d e2 e2 89 3d f6 45 95 3c 73 d6 10 bd
       0.05185425 0.067327276 0.018221837 -0.035360765
0000d0 63 42 93 bd c4 71 95 3b 60 0e e7 3c a8 70 3a 3d
       -0.07190397 0.004560681 0.028205097 0.045517594
0000e0 f1 fc 04 3c 1c 94 c2 bc 43 75 49 3d be 36 d7 bb
       0.008116947 -0.023752265 0.049184095 -0.006567805
0000f0 b6 36 e5 bc 06 71 81 3d 58 5c 72 bd 45 ff 74 3c
       -0.02798019 0.06320386 -0.059170097 0.014953439
000100 90 3d a4 bd 87 69 19 3d ca ff 8e bd 78 2a 54 3d
       -0.080195546 0.037454154 -0.06982382 0.051798314
000110 bf 15 65 bd 47 91 a0 3c f8 dc af 3b e4 d0 8a bd
       -0.05592894 0.019600524 0.0053669177 -0.06778124
000120 a2 dc 95 3d 2e 7b 79 3d f2 8f b0 3a e2 3d 93 3d
       0.07317473 0.06090849 0.0013470633 0.071895376
000130 3f 45 bc 3c 30 83 a6 3d 34 69 23 3b e6 70 ca bc
       0.022982238 0.08130491 0.0024934532 -0.024712037
000140 ce 2c a2 3d bd 63 7a bd e6 f1 24 3c 34 37 be 3b
       0.07918702 -0.061130274 0.010067439 0.0058049206
000150 0a e1 2a bd 0a cb e1 bc ef cb 1c bd fd d5 56 3c
       -0.04171852 -0.027562637 -0.038280424 0.013112542
000160 a4 70 4a 3d f0 c9 81 bd 3f be 79 3d 78 69 9e 3c
       0.04942383 -0.06337345 0.06097245 0.0193374
000170 65 b1 9d bd 53 a4 e8 3b 69 a2 0d 3c 68 e1 ec 3c
       -0.07699851 0.007099667 0.008644679 0.028916076
000180 22 c9 5d bd ac 62 7a 3c 62 9c 1c 3d 4d 30 68 3a
       -0.054146893 0.015282314 0.038235076 0.0008857295
000190 26 d9 4c 3d 92 3f 4e 3d 82 d8 49 bd 49 dc 8e 3d
       0.050011776 0.050353594 -0.049278744 0.0697561
0001a0 da 19 30 bd c2 37 7c bd 54 c4 d9 bc c2 37 92 bc
       -0.042993404 -0.061576612 -0.026582874 -0.017848853
0001b0 e2 d1 a5 3d 35 6a f0 3c 23 61 f6 3b 2b cd 4d 3d
       0.080966726 0.029347518 0.007518904 0.05024449
0001c0 04 f1 7a bd 04 0d 9f bd 20 1d 57 3d d2 7e 31 bd
       -0.061265007 -0.077661544 0.05251801 -0.043333836
0001d0 86 4a 42 3d 8f d1 37 3c 6f c9 68 3c 55 7e 77 3d
       0.047434352 0.011219396 0.014208182 0.060423214
0001e0 41 d7 12 bd df 6e 4f 3b f0 7b 75 3d aa 9a 1b 3d
       -0.035849813 0.0031651778 0.05993265 0.037989296
0001f0 72 2a 60 bc a3 03 9a 3d fa 0a 84 bd 45 1d 48 bd
       -0.013681995 0.07520225 -0.06447406 -0.04885604
000200 ab 69 bb 3c 47 4c 87 3c 51 cf 08 bd 22 23 3c bc
       0.022877535 0.016515864 -0.033400837 -0.011482986
000210 0c 64 40 bd 95 9a 27 bd 08 74 d8 3c e8 9a 8e 3d
       -0.046970412 -0.040918905 0.026422516 0.0696314
000220 62 e5 8f 3c 87 72 87 bc e6 46 97 3d 13 c4 8e bd
       0.017565433 -0.016534103 0.0738657 -0.06970992
000230 fb 45 e5 bc cc 09 74 bd 74 67 84 3d cd d5 17 3d
       -0.02798747 -0.059579656 0.064650446 0.03706913
000240 fb 4c bf 3c 35 02 33 bd 85 0b 2d 3d b0 39 a7 bd
       0.023352137 -0.043703277 0.042247314 -0.081653
000250 fd 84 91 bc cf 48 a7 bd 8c 0d 58 bd 68 fc 29 3d
       -0.017763609 -0.08168184 -0.052747294 0.04150048
000260 6b fb 90 bd c0 31 83 bc 46 b3 e2 38 ad 6a 16 3c
       -0.07079204 -0.016014934 0.00010809912 0.009180707
000270 df c6 c0 bc 71 6b 2c bc 5e fc 9a bc fa a7 bf 3c
       -0.02353233 -0.010523663 -0.018919166 0.023395527
000280 12 93 9b 3d 16 95 3c 3d 2f 32 6a bd 10 ec bb 3b
       0.07596411 0.046040617 -0.057176765 0.005734928
000290 46 a9 87 3d 2a 96 f4 3c 73 0b e1 bc 32 36 9b 3c
       0.06624083 0.02985676 -0.02747128 0.01894674
0002a0 09 0f 0a bc 41 07 60 3d 96 dc a7 bc da 17 95 bb
       -0.008426436 0.054694418 -0.020490926 -0.0045499625
0002b0 22 b4 13 bd 62 8b a6 bd ad ae 88 3c fc dd 35 bd
       -0.03606046 -0.08132054 0.016684854 -0.044401154
0002c0 13 59 1d bd 4c b8 94 bc a5 8b 0b bc 6d 2d 7c 3d
       -0.038415026 -0.018154286 -0.008517181 0.06156676
0002d0 8d 3b a2 3c c9 d3 39 bd bd 7c 9e bd 35 e5 2b bd
       0.019803787 -0.04536799 -0.07738636 -0.041966636
0002e0 e2 38 0a bc c7 cf 91 bd bf 51 21 3a 33 75 c8 3c
       -0.0084364135 -0.071197085 0.0006153844 0.024469947
0002f0 e7 0b 81 3c c0 45 7f bd 66 45 de bc 73 0e d4 bc
       0.015752746 -0.06232238 -0.027132701 -0.025885796
000300 7d 95 84 bd 01 2c f6 3c 5f ff 6b 3d b8 ee 14 3c
       -0.06473825 0.03005028 0.057616588 0.009090118
000310 f5 ce 94 bc fa a8 9c 3d 5d a3 a0 bd c7 9d e2 3c
       -0.018165091 0.07649417 -0.07843659 0.027663125
000320 70 29 5e bc 29 2b 3e 3c b5 8e 80 bd 8e 91 8d 3d
       -0.013559684 0.01160697 -0.06277219 0.06912528
000330 77 94 14 bd d1 65 83 3d 7b a1 7f 3d 41 e0 40 3d
       -0.0362744 0.06415904 0.06240986 0.047088865
000340 42 21 49 bc 6e 8d ae 3c ac 4e 4c bd f6 a0 77 bb
       -0.012275996 0.021307673 -0.049879715 -0.003778515
000350 ca 86 90 3d 26 91 4a 3d ca 78 ac bb 67 18 be 3c
       0.07056959 0.04945483 -0.0052634226 0.023204995
000360 a7 84 95 3d e4 d5 6e 3d 4a fd ec ba 4f f4 b3 bc
       0.07300692 0.05830945 -0.0018080857 -0.021967081
000370 91 7c 59 bd b4 a5 03 bd a9 27 65 3d 6f f9 33 bb
       -0.05309731 -0.03214045 0.055946026 -0.0027461906
000380 57 37 29 3d e6 ba e0 3b 20 f8 8e 3d 19 0a 9d 3d
       0.04131254 0.0068582175 0.0698092 0.076679416
000390 9c a2 b7 bb e8 76 e3 bc 79 98 c3 ba 53 70 f6 3b
       -0.0056041013 -0.02776666 -0.001492276 0.0075207143
0003a0 08 a4 6e bd 47 99 16 bd 31 a5 52 3b 45 22 86 bd
       -0.0582619 -0.03676727 0.0032141919 -0.06549505
0003b0 93 b0 c6 bc f1 2f 84 bd 91 f2 15 3d a6 15 86 3d
       -0.024254119 -0.064544566 0.036608282 0.06547098
0003c0 b3 29 42 b9 24 60 0d 3d 43 83 80 bc d7 7c 8a 3d
       -0.00018516816 0.034515515 -0.01568759 0.067620926
0003d0 35 8e 0b 3d 14 e7 24 bd 8c e3 92 3d 2a 00 4b bd
       0.034071166 -0.040259436 0.07172307 -0.049560703
0003e0 71 68 97 3c 9e b4 1a 3c 3c 51 01 bd 93 a9 11 bd
       0.018482419 0.009442477 -0.03157161 -0.03556211
0003f0 9e 62 22 bb db f6 ac bc 3e ec 46 bb 98 1c 46 bd
       -0.0024778019 -0.021113804 -0.0030353214 -0.048367113

tree_conv.0.weights.bias f4 [256]
000000 8e 4f 85 3d 14 42 1b bd 49 bb 4b bd 43 c5 d1 bc
       0.065093145 -0.037904814 -0.049739156 -0.025606757
000010 2d 91 11 bd c2 ae a6 3d 09 1c 0a 3c c6 18 67 3d
       -0.03553884 0.08138801 0.008429536 0.05642011
000020 78 8d 62 3d 24 8c 19 bd df ae 94 3d 27 1a 2d 3d
       0.055310696 -0.037487164 0.072599165 0.04226127
000030 de 4f 35 3d df 46 12 bd 7a d6 8b bd 91 66 da 3c
       0.04426562 -0.03571212 -0.068280175 0.026660236
000040 80 91 99 3d 12 5d 2e 3d 84 a5 85 bd 66 33 43 bd
       0.07498455 0.042569228 -0.0652571 -0.04765644
000050 1d 32 04 3d f1 3c 2b bd 8e cc 3a 3c 4c a0 a3 3c
       0.032274354 -0.041806165 0.011401309 0.019973896
000060 cd f1 a3 bd 94 e7 75 bb a9 ca 3b 3d 4c 28 28 3c
       -0.08005104 -0.0037522065 0.04584757 0.010263514
000070 bf ce de 3c 93 7a fd 3c d5 66 24 bd 3a 09 8d 3d
       0.027198194 0.030942237 -0.04013713 0.068865255
000080 60 78 81 3c bd 5d cb bb 91 82 f2 3c 6e 69 64 bd
       0.01580447 -0.006206243 0.029603275 -0.055764608
000090 00 54 18 3d 6a 04 f7 3c 62 5a 17 3c 4e e4 db 3c
       0.037189484 0.030153472 0.009237858 0.026842263
0000a0 d0 d7 9d bd d6 4d 5d 3d 7d 1a 35 bd 55 40 80 3d
       -0.077071786 0.05402931 -0.044214714 0.0626227
0000b0 2e 51 8e bd 2b 12 0c bd 72 b5 ec bc 6a b0 7f 3c
       -0.069490775 -0.034197014 -0.028895114 0.015606025
0000c0 ad 2f 65 bd 20 b6 cd 3c 40 e0 81 bd 30 52 54 3d
       -0.05595367 0.025111258 -0.063416004 0.051836193
0000d0 e3 01 61 bd 85 04 bd 3c cd 81 c0 3c 07 8d a0 3d
       -0.05493344 0.023073444 0.023499394 0.07839399
0000e0 2b b3 90 bc e8 d0 97 bd 03 a2 83 bc db e7 a0 bc
       -0.017663559 -0.074128926 -0.016068464 -0.019641807
0000f0 af 42 a6 bd 4a 99 59 3d 87 4a a5 3d fe 18 ea 3c
       -0.08118188 0.053124703 0.080708556 0.02857637
000100 40 58 7c bd 59 40 87 3d 6c 13 cd 3c d0 54 96 3d
       -0.0616076 0.0660407 0.025033675 0.073403955
000110 04 4e 5c 3d a7 50 71 3d b7 06 6c 3d 39 e2 ff 3c
       0.05378534 0.058914807 0.05762359 0.031235801
000120 36 ea 8a bd 15 d9 9f bd 31 64 15 3d 3c ed 72 bd
       -0.067829534 -0.07805077 0.036472503 -0.059308276
000130 05 29 3f bd 35 87 5d 3d da f9 70 bd df 41 86 bd
       -0.04666998 0.05408402 -0.058832027 -0.06555533
000140 68 01 cf 3c 43 65 2c bc cc 23 f2 3c 40 2a e7 ba
       0.025269225 -0.01052219 0.029558085 -0.0017636493
000150 c4 23 60 3b c3 0e 95 bd bc a0 ac bc 26 e7 6f bd
       0.0034201005 -0.07278206 -0.021072738 -0.05857005
000160 ab 4b 1e bc 80 37 7b 3c 29 a8 80 bd de b6 68 3d
       -0.009661595 0.015333056 -0.06282074 0.05681502
000170 5b 98 06 bd 2b 33 97 3d d0 3f 99 bd 28 b9 a2 bd
       -0.03286014 0.073828064 -0.074828744 -0.07945472
000180 cf 10 84 bd c8 df b6 bc 58 07 50 3c 9e 6f a8 bc
       -0.064485185 -0.022323504 0.012697063 -0.020561036
000190 e1 cb 47 bd 10 58 2d 3b b7 81 45 3a 2a 7e 99 bd
       -0.04877842 0.0026450194 0.00075342826 -0.07494767
0001a0 77 0f 8e bd ed a5 8f bd f0 ca 67 bd 4a dd 91 bd
       -0.069365434 -0.0701407 -0.05659002 -0.07122286
0001b0 30 a9 cf bc 53 33 5c 3d 2c c6 71 3d 96 2c d9 bc
       -0.02534923 0.053759884 0.059026882 -0.026510518
0001c0 78 f8 6b bd 99 a2 55 bd f2 76 27 bd 19 93 6f bd
       -0.057610005 -0.05215702 -0.04088492 -0.058489893
0001d0 c0 44 09 3d 5a 00 95 3d b2 77 e9 3b 05 28 39 3b
       0.03351283 0.07275458 0.0071248645 0.0028252613
0001e0 87 1c 09 3d 5d 6e 93 bd 3c ff 95 3d ef 54 5d bd
       0.03347447 -0.071987845 0.07324073 -0.054036077
0001f0 ad d0 5d 3d 56 8c 40 bc e3 08 98 3d 0c 5d 82 3d
       0.054154087 -0.011752209 0.0742357 0.063654035
000200 ef a1 5b bd 61 a5 e1 3c 37 9c 33 3d 8b b8 9c 3d
       -0.05362123 0.02754468 0.04385015 0.07652386
000210 98 61 ed bc e3 eb 94 3d be 3c 64 3d 69 68 16 3d
       -0.0289772 0.07271554 0.05572199 0.036720667
000220 95 3f 18 3d 01 0d 9a 3d bc f7 86 3c c0 0e 96 bd
       0.03717001 0.075220115 0.01647555 -0.07327032
000230 e7 d8 fe bb b8 a2 4a 3d 6f 22 8d 3d cb 56 04 bc
       -0.0077773216 0.049471587 0.06891333 -0.008077334
000240 28 68 ba bc 24 bd 80 3d d3 08 7b 3d 43 65 6c 3d
       -0.022754744 0.06286076 0.061287712 0.05771376
000250 17 03 91 3d 66 96 38 bd 53 d7 97 bd aa 72 5c 3d
       0.070806675 -0.045065306 -0.07414117 0.05382029
000260 f1 08 bc 3c 9a 2c 92 3d 07 f8 6d bd bc 5d 82 3d
       0.022953482 0.07137413 -0.058097865 0.06365535
000270 28 70 52 3d c5 aa 9a 3d 91 48 c0 bc 19 00 28 bd
       0.05137649 0.07552103 -0.023472102 -0.041015718
000280 23 86 66 bd 39 d8 32 bd ae c6 c8 3c 20 53 37 bd
       -0.056280266 -0.043663237 0.0245088 -0.04475701
000290 af aa 5a 3d 8b b8 f9 3c 0c 37 8a bd c8 e7 4d bd
       0.053385433 0.030483505 -0.067487806 -0.050269872
0002a0 53 8a 21 3d de cc 59 ba d2 1e dd bc 70 3c 7a 3d
       0.039438557 -0.00083084207 -0.026992235 0.061092794
0002b0 18 93 df bc c2 24 1c 3d fa af 09 3d 2e 93 09 bc
       -0.02729182 0.038120992 0.03361509 -0.008396907
0002c0 e3 06 4d bc b8 a5 8c bd bc 6d 9c bd bb 53 4f 3d
       -0.012513849 -0.06867546 -0.07638118 0.05061696
0002d0 75 95 7e bd 1c cb 26 3d 0d e5 b2 bc e1 08 fd 3c
       -0.062154252 0.040721044 -0.021837736 0.030888023
0002e0 75 ca c5 bc 95 9b 92 3d 55 f6 a4 3d 2c 58 91 3d
       -0.02414439 0.07158581 0.080547966 0.070968956
0002f0 dd 24 bd bc 7f 58 92 bd 65 55 05 3d b3 e6 52 3c
       -0.023088867 -0.071457855 0.03255214 0.012872386
000300 81 15 a4 bd e4 21 81 3d 71 04 ac 3c d2 f4 08 3d
       -0.08011914 0.06305292 0.020998212 0.033436604
000310 d6 43 e7 3c 14 30 5d bb 56 13 d4 3b 3c dc 2c bd
       0.028230589 -0.003375058 0.0064720316 -0.04220222
000320 fc ee a1 3d 45 64 7e bd 9e a3 fe 3c 9b b8 24 bd
       0.07906911 -0.062107343 0.031083878 -0.040215116
000330 55 5f 36 bd cc 73 ca 3c 92 50 f4 3c 29 7f 90 bd
       -0.04452451 0.02471342 0.029823575 -0.07055504
000340 79 df e4 3c ee 34 16 3d c6 b3 0f bd 77 8f 3f 3d
       0.027938591 0.03667157 -0.035083555 0.046767678
000350 c9 be f9 3c 9a d9 30 3d 36 02 59 3d 9c 7a 24 3d
       0.030486481 0.04317627 0.052980624 0.040155992
000360 2f ee 5a 3d 07 82 c2 bc 3b 10 6c 3d 8c 84 0d bd
       0.053449806 -0.023743642 0.057632666 -0.034550235
000370 70 4c c0 3c e4 34 99 3d da e7 e0 3b 31 29 20 3c
       0.023473948 0.07480791 0.0068635764 0.009775446
000380 f0 b5 5c bb 77 58 5c 3d 40 1f 89 bd 37 b2 16 3d
       -0.003367778 0.053795304 -0.066954136 0.036791053
000390 8a b3 fa bc 40 2b 88 3d d0 ba 89 bd 22 5c 8b bd
       -0.030603189 0.06648874 -0.06725085 -0.06804682
0003a0 ce ae 3b bd 37 0b 5d bd 2a b1 9c bc cc af 03 bd
       -0.045821004 -0.053965773 -0.019127447 -0.032150075
0003b0 4b e8 ce bc 9a 07 93 3d 5f 0e 70 3d 1c 5e ae bc
       -0.02525725 0.07179184 0.058607455 -0.02128511
0003c0 ea c4 28 3d 00 d1 96 3d 12 e1 5a 3d 3b 2a b4 bc
       0.041203417 0.07364082 0.0534373 -0.021992793
0003d0 4f 73 96 bd fd 05 3f 3d ba 07 86 bd 48 73 72 3d
       -0.07346212 0.04663657 -0.065444425 0.059191972
0003e0 92 fe 2e bd c9 df c8 3c 0e 61 74 3d 5f 93 a9 bc
       -0.042723246 0.024520772 0.05966287 -0.020700155
0003f0 33 6c 1f 3d 50 c4 7a bc 21 4b 99 bd a5 28 59 bd
       0.038921546 -0.015305594 -0.07485033 -0.053017277

tree_conv.3.weights.weight f4 [128, 256, 3]
000000 1c 3a 37 3b 24 2e 84 bc 0e 9b ac bc 42 fa b2 3c
       0.002795822 -0.016135283 -0.02107003 0.021847848
000010 6a 84 8d bc db 14 cf 3b 95 9b e6 bc 6a 74 30 3b
       -0.017275054 0.006319625 -0.02815036 0.0026924857
000020 3f 34 ad 3c 39 da 97 bc bb f9 c7 bc 85 20 64 bc
       0.021143077 -0.018536674 -0.024411073 -0.013923769
000030 df 47 cb 3c 37 79 98 bc 6a f1 c0 3c d1 b1 d5 bc
       0.024814544 -0.018612487 0.023552615 -0.026085766
000040 78 2a 06 3d bf 1b f2 bc 8f 12 f3 3c 8d dc d7 bc
       0.032755345 -0.029554246 0.029671935 -0.026350284
000050 80 4f be 3c 36 27 72 3c c1 cd 6d 3c 75 35 6c 3b
       0.023231268 0.014779856 0.014514388 0.0036042605
000060 81 bb 4a 3b 93 b4 0b bd fd 05 5e 3c d2 6a 75 bc
       0.0030934515 -0.034107756 0.013551232 -0.014979081
000070 d5 74 ab bc 7e e0 aa bb 49 51 0d 3d 4c cb 0b 3c
       -0.020929733 -0.00521475 0.034501348 0.0085323565
000080 6a ba ec bc 6d b2 e0 bc fa b5 9f 3a a4 7a b2 bc
       -0.028897483 -0.02742883 0.001218497 -0.021786995
000090 e7 b3 0f bd d9 81 cb 3c 8a 85 19 bc a1 f3 dd bc
       -0.035083678 0.02484219 -0.009370217 -0.02709371
0000a0 b2 ad b7 bc 95 40 e3 3a aa 3b 04 3d 9b 4c 9b 3c
       -0.022421692 0.0017337973 0.032283463 0.018957427
0000b0 00 a1 06 3d cd d1 5d bb 84 ff bf 3c f8 96 94 bc
       0.032868385 -0.0033846975 0.023437269 -0.018138394
0000c0 00 dc b4 bc 85 00 98 3c 5b 69 dc bc 32 b7 b1 bc
       -0.02207756 0.018554935 -0.026905706 -0.0216938
0000d0 c1 96 b0 3c 77 92 2a bc 5b 07 3a bb 8c 3d 0f 3d
       0.02155626 -0.0104108965 -0.0028385732 0.034970805
0000e0 cc 1b 40 3b 64 97 4a 3c 63 cc 8c bb f5 22 8b 3a
       0.0029313443 0.012365196 -0.0042968257 0.0010615276
0000f0 f7 54 ef 3c a9 fc ca 3c 86 0f 15 bc c6 19 f5 bc
       0.02921532 0.02477868 -0.009097939 -0.029919516
000100 42 a0 9a bc 26 02 b0 bc b6 95 a8 3b 34 c7 9e 3c
       -0.018875245 -0.0214854 0.0051448 0.019382097
000110 90 9f 60 bc 7d 44 82 bc 18 6f b2 bc 7a 42 88 bc
       -0.013709918 -0.015901798 -0.02178149 -0.016633261
000120 9b eb a8 ba c2 8f 94 bc fe 4f 05 bd ba 48 2d 3c
       -0.0012887599 -0.018134955 -0.03254699 0.010576421
000130 b7 42 f2 bc d4 ee d2 bc b7 91 95 3a 42 dc a9 3c
       -0.029572828 -0.025748648 0.0011411224 0.02073491
000140 ca e9 27 bc 75 45 ee 3b aa 41 8f bb 17 d2 00 bd
       -0.010248611 0.0072714635 -0.0043718414 -0.031450357
000150 d1 ae b1 3b 36 3b 08 bd f2 23 da 3c 8b d1 cf bc
       0.005422451 -0.033259593 0.026628468 -0.025368473
000160 da 35 9b bc 2c 46 d8 bc 9f 47 e7 bc f1 e7 06 bd
       -0.018946577 -0.026400648 -0.028232394 -0.03293604
000170 a5 21 3d bc 56 4d dc bb f5 d6 52 3c 95 95 10 3d
       -0.011543666 -0.0067230863 0.012868633 0.035298903
000180 b0 d8 b2 3c 3f 9c 03 3d 29 66 c8 bb 5c af 75 ba
       0.02183184 0.03213143 -0.006115694 -0.0009372139
000190 f8 75 0b bd 6c 61 ad 3c 0f b1 a5 3b d8 0e a3 bc
       -0.03404805 0.021164618 0.0050565074 -0.019904539
0001a0 f6 64 fd bc f3 e7 db bc 65 8b 4e bc cb a8 03 3c
       -0.030931931 -0.026844 -0.012606476 0.008035849
0001b0 29 4f da 3c d1 8a e7 bc e3 56 45 bb 26 84 d0 bb
       0.026649075 -0.028264435 -0.0030111603 -0.0063634096
0001c0 b8 46 79 bc 54 83 ec bc eb c7 f8 3b a6 8c ea bc
       -0.015214615 -0.028871216 0.0075921915 -0.02863152
0001d0 ad 4b 88 3c bf f5 b7 3c 36 09 fa 3c 27 ad 97 3c
       0.016637648 0.022456048 0.03052197 0.018515183
0001e0 54 6d 30 ba 5e 2d 03 bc d9 68 05 3d 55 cb 4f 3c
       -0.00067301583 -0.008006422 0.032570694 0.0126827555
0001f0 02 95 52 3c 26 74 4b bc d0 bd 0b 3d 69 57 54 3b
       0.012852909 -0.012417829 0.034116566 0.0032400733
000200 60 ea 29 bc ef 98 78 bc db ca ec 3b bd 69 eb bc
       -0.010370821 -0.015173181 0.0072263307 -0.028736943
000210 43 7e b4 3c 1a c6 b9 bb 21 72 ab 3c 4c 41 ea 3c
       0.022032863 -0.0056693675 0.020928444 0.02859559
000220 7f e6 a1 3c de e7 41 3c 7f 37 05 bc 27 ed 0f bd
       0.01976323 0.011835067 -0.008130907 -0.035138275
000230 89 68 3e 3c 85 3b e1 bb f5 39 84 bb d8 a9 0b bc
       0.011621603 -0.0068735504 -0.0040352293 -0.008524381
000240 aa 56 4c bc 57 6a ef bc 08 ff 1f 3b 91 ff 0c bd
       -0.012471834 -0.029225511 0.0024413485 -0.034423415
000250 a2 82 9b 3c 74 c7 85 bc 02 dc 01 3c 48 2f 92 3c
       0.018983189 -0.016330458 0.007925989 0.017844811
000260 08 b5 0e bc a9 fd b4 bc d4 f4 6d 3c 50 e0 b2 3c
       -0.008710153 -0.02209361 0.014523704 0.021835476
000270 f2 57 b7 3c 47 fc f6 3c 03 70 26 3c 57 74 aa bc
       0.022380803 0.030149592 0.010158542 -0.020807428
000280 42 11 ed 3c 81 6f 40 bc 5a 7e b0 3c 60 6a ec 3b
       0.028938893 -0.011745335 0.021544624 0.0072148293
000290 a8 18 0d 3d 05 5d 96 bc e0 92 7b bc 24 a9 09 bd
       0.034447342 -0.018354902 -0.015354842 -0.03360857
0002a0 67 42 b2 3c fc bd e5 bc 69 56 de bc 79 51 f7 bc
       0.021760179 -0.028044693 -0.027140813 -0.030190216
0002b0 b5 62 69 3c da 96 12 bd c4 50 bc 3c 17 29 ca bc
       0.014244725 -0.035788395 0.02298773 -0.024677796
0002c0 e7 62 04 bd 7b 7f ab 3c be 90 3b bc 25 26 01 bd
       -0.032320883 0.02093481 -0.011448083 -0.031530518
0002d0 d9 1e 06 bd 1e 1a a1 3c b3 6e 59 3b b2 7e 11 3d
       -0.032744262 0.019665774 0.0033177554 0.035521217
0002e0 9b 38 35 bc a2 57 e0 bc 31 cc fb 3c 07 db 0d bd
       -0.011060859 -0.027385537 0.030737014 -0.03463271
0002f0 1c fc 40 bc c6 55 e1 bc 34 62 0b bb bd 2a 6b 3c
       -0.011778858 -0.02750672 -0.002126825 0.014353451
000300 fd 8d f3 bc 92 95 c3 bc 5d 3e 2b bc a2 06 16 3d
       -0.029730791 -0.023875032 -0.01045188 0.03662742
000310 9d 2f 0c 3d c3 3f 14 bc 11 ee 88 3b 46 a8 c4 3c
       0.034225095 -0.009048405 0.0041787704 0.02400602
000320 e5 af 83 bb 19 6d 20 3c 05 fc ee 3c 98 0f 69 3c
       -0.004018771 0.009791636 0.029172907 0.014224909
000330 2b bb 12 bd 73 6e 87 3b 62 5f 09 3d 1d aa fa 3c
       -0.03582303 0.0041330396 0.03353823 0.030598694
000340 0f bc 0c bd 76 4a 06 bd 5f 27 6d 3c 30 51 e1 3c
       -0.034359034 -0.032785855 0.014474719 0.027504534
000350 70 c6 91 bc 3a 2f 17 bd 33 a1 0a bd 76 8e cb 3c
       -0.017794818 -0.036910273 -0.033845138 0.024848204
000360 45 88 60 bc a0 74 0c 3b c6 e6 c0 bb e5 f9 23 bc
       -0.013704364 0.0021431819 -0.0058868853 -0.01000831
000370 f4 e3 cb 3b 4f ea cf bc fe 3b cc bb 3a a7 a5 bb
       0.0062222425 -0.025380282 -0.0062327376 -0.0050553354
000380 1e f3 d5 bc 5e 2b 2a bc 40 42 24 3c 69 fb 0d 3c
       -0.026116904 -0.010386316 0.010025561 0.008665898
000390 a8 e7 f5 bc 92 50 e1 3c 1c fa 8b 3c 35 c5 ef bc
       -0.030017689 0.02750424 0.017087035 -0.02926884
0003a0 34 7b c4 bb b0 0e be 3c 59 e3 cf 3c f2 5b 0a bd
       -0.0059961323 0.023200363 0.025376962 -0.033779092
0003b0 cd b2 e4 bc 09 29 ea 3c 45 95 46 bc 23 ca 48 3c
       -0.02791729 0.02858402 -0.01212055 0.012255224
0003c0 a0 32 1a 3b 3d 6d 29 3c c2 c6 b0 bc 06 20 ac bc
       0.002352871 0.010340986 -0.02157915 -0.021011364
0003d0 f3 70 27 3c 7c fe 0a bd 6c 73 ec bc 9b 06 0a 3d
       0.0102198 -0.0339341 -0.028863631 0.033697706
0003e0 50 5d 1a bb 0e bc 9f bc 0d d8 e1 bc a2 6e 2c 3c
       -0.0023554154 -0.019498851 -0.027568841 0.010524424
0003f0 ef 36 d4 3b 15 df 99 3c 98 c6 5f bb 56 75 5c bc
       0.006476275 0.018783132 -0.003414547 -0.013455709

tree_conv.3.weights.bias f4 [128]
000000 7d aa 19 bc 9f 90 fe 3b 8c 07 03 3d df 6c c0 bc
       -0.0093790265 0.007768705 0.03198962 -0.023489414
000010 5a 4b 0a 3d 88 18 7a bb be 34 03 bc 7a 29 86 bc
       0.033763267 -0.0038161594 -0.00800818 -0.0163772
000020 dd 3b eb 3a 81 71 79 3c 55 9b f4 3b 76 bc 7c bc
       0.0017946918 0.015224815 0.007464806 -0.015425792
000030 f4 07 a3 bc a8 2b 00 bd 13 c1 ca bc ca e2 8c bc
       -0.019901253 -0.031291634 -0.024750268 -0.017197985
000040 e3 b8 cb 3b ad d1 b2 3b 2e 3f d6 3b 29 d7 db bc
       0.0062171086 0.005457124 0.0065382933 -0.026835995
000050 d4 b8 56 3c 33 a3 74 bc d8 95 d3 bb b3 49 ed bc
       0.01310559 -0.014931488 -0.0064570718 -0.028965807
000060 1c 34 38 bc d0 ef 82 bc cb 6d ad bc f0 04 71 bc
       -0.011242893 -0.015983492 -0.021170517 -0.01471065
000070 3d 87 f7 bc b7 51 d4 bc ca 84 2d 3c 7d b1 4b 3c
       -0.030215854 -0.02591787 0.010590741 0.012432453
000080 ad 01 d2 3c f8 8e da 3c 79 a1 87 bc 3f 66 39 3c
       0.025635565 0.026679501 -0.016556488 0.011315881
000090 5d e6 36 bc d9 cb 01 bc f9 7d de 3b 13 c8 18 bc
       -0.011163321 -0.007922136 0.0067899195 -0.009325045
0000a0 96 b9 d5 bc eb 61 8c 3c 53 8a de 3c 72 61 2c 3c
       -0.02608947 0.017136535 0.027165568 0.01052128
0000b0 23 9a aa 3c dc 3c a3 bc a1 76 af 3c 3c 14 a6 bc
       0.020825451 -0.019926481 0.021418871 -0.02027332
0000c0 89 34 ed 3c d5 7f 0e 3c be e6 dc 3b cd b0 da 3c
       0.028955715 0.00869747 0.006741374 0.026695633
0000d0 95 a6 c6 3c 11 a4 84 ba b0 2c 9a bb 92 e5 95 bc
       0.024249354 -0.0010119696 -0.004705034 -0.018297944
0000e0 ed b3 06 3a 83 1c ed bc e4 93 bf 3c b7 99 b6 bc
       0.00051385054 -0.02894426 0.02338595 -0.022290094
0000f0 e3 20 0a 3d 00 ea 05 bc 5f 16 86 3c ca 89 04 3d
       0.03372277 -0.008173466 0.01636809 0.03235797
000100 e5 79 eb 3c e4 50 1a bc f5 73 c8 3c f2 48 6c 3c
       0.028744647 -0.0094187 0.024469355 0.014421688
000110 df bd c9 3b ba 9d b1 bc 0c ad 75 bc 1b 43 c6 3c
       0.0061566676 -0.021681655 -0.014994871 0.02420192
000120 49 d4 fb bc 79 01 ed bc 3f 09 a3 bb 0f ac ae bc
       -0.030740874 -0.028931366 -0.0049754675 -0.021322278
000130 11 9c e3 3c 81 97 bb bc d3 e2 0b bc 3c 33 09 bc
       0.02778438 -0.022899391 -0.008537966 -0.008374032
000140 23 dd a5 bc e5 0d 66 3c 3f 39 db bb 5a 62 df 3c
       -0.020247048 0.014041399 -0.006690174 0.027268577
000150 22 06 c4 bb 78 fa 2f 3c 5d de de 3c 62 41 e5 bc
       -0.0059821764 0.010740869 0.02720564 -0.027985279
000160 f7 92 14 bc 39 a1 4f 3c ce 3a a5 bc c1 57 17 bd
       -0.009068242 0.012672716 -0.020169642 -0.036948923
000170 bf ab bc 3c e4 c3 a8 bc d5 c8 43 3c 5b 37 c5 bb
       0.023031114 -0.02060122 0.011949738 -0.006018562
000180 5c c4 09 3c ad 69 0b bb 8f 8a f0 3b 3d 5d df 3a
       0.008408632 -0.0021272704 0.007340736 0.0017041337
000190 f9 10 0a 3c 1b ec 2d 3c 74 a3 f2 bb 53 61 92 3c
       0.008426898 0.010615374 -0.007404739 0.017868673
0001a0 11 53 ba bc 62 1f 2a bc b8 db 8b bc 5a ba c5 ba
       -0.022744687 -0.010383459 -0.017072544 -0.0015085444
0001b0 70 0f 9a bc 55 c2 59 3a ff 92 f0 3c da 0c a5 bc
       -0.01880619 0.0008306851 0.029366968 -0.02014773
0001c0 5e 6d af 3b c8 67 59 3c 37 76 a9 3c 2f 2e 26 bc
       0.0053536138 0.013269372 0.020686252 -0.010142847
0001d0 dd 30 1d bc 0b 50 99 bc a1 a3 69 3c 08 21 c7 bc
       -0.009594169 -0.018714925 0.014260204 -0.024307743
0001e0 35 bf 11 3c f0 c7 5f 3c 63 58 87 bc 89 c5 3e 3c
       0.008895685 0.013658509 -0.016521638 0.011643776
0001f0 ad 52 e6 3c 62 3d 07 3d a6 f1 6c bc e8 25 e6 3c
       0.028115595 0.033017524 -0.01446191 0.028094247

tree_conv.6.weights.weight f4 [64, 128, 3]
000000 93 5c 42 bd 77 6e 34 3d f8 25 63 3b 68 0f e4 3b
       -0.047451567 0.04405066 0.0034660082 0.0069598444
000010 91 22 23 3c 11 51 80 3b 57 96 44 3d 49 c6 f8 3c
       0.009956972 0.003915914 0.047994938 0.030367987
000020 cd 44 7e 3c ea 9f 97 ba dd 56 13 bd 0c ea 45 3d
       0.015519333 -0.0011568044 -0.03597151 0.048318908
000030 da a9 a7 3c 93 72 00 bd 1d bd 9f bc 76 6b f8 3c
       0.020466734 -0.031359266 -0.019499356 0.030324679
000040 ec ce a7 bc 19 1a 7e ba 1e 48 49 bd 58 33 28 bc
       -0.02048441 -0.000969322 -0.049141042 -0.010266148
000050 a0 ec 56 bc e6 90 02 bc 6c a8 89 3c 3c 69 a1 3c
       -0.013117939 -0.007969117 0.016803943 0.0197035
000060 8b c5 13 3d 95 ad 39 3d e4 f3 4b 3d 60 9a 6d 3c
       0.036077064 0.045331556 0.04979314 0.014502138
000070 05 07 2c bd e8 d4 4c 3c c3 cf 47 bd d0 a8 1b 3d
       -0.04199888 0.012501933 -0.04878212 0.03800279
000080 60 c1 c0 3c 60 f8 6d bc 05 33 8b bc 22 b6 0a 3d
       0.023529708 -0.014524549 -0.016992101 0.0338651
000090 e7 5f ce 3c 13 de 4c bb b4 46 d7 bb 29 45 ce 3c
       0.025192214 -0.0031260296 -0.0065697078 0.025179463
0000a0 b1 ff fa 3b cf 84 30 bd fe 7d 1b bd 9f 61 22 3d
       0.0076598753 -0.043095406 -0.037961952 0.03964388
0000b0 56 c0 23 3d 13 2f 17 3d 01 21 06 bd 22 cb 50 3d
       0.039978348 0.036910128 -0.03274632 0.050974973
0000c0 6c 52 5a bc 1b a6 be 3b b6 c0 c0 bc 6f 9c 1f b9
       -0.013325315 0.005818141 -0.023529392 -0.00015221698
0000d0 a4 db 2e 3b ba f4 da bc 78 f1 4e 3c f5 63 30 bd
       0.002668121 -0.026728023 0.012630813 -0.043064076
0000e0 03 7b 78 3c 38 26 1e 3d e6 5f 2f bd 14 84 13 3d
       0.015166047 0.038610667 -0.042816065 0.03601463
0000f0 19 3e ba bc 18 4b 95 bb 15 ec 06 3d a1 9e a3 bc
       -0.022734689 -0.004556071 0.03293999 -0.019973101
000100 71 dc 8a bc b2 06 d7 bc 9c 84 1e bd 41 50 07 bd
       -0.016950818 -0.02624831 -0.038700685 -0.03303552
000110 27 1a bb bc 84 db 13 3d 5c 25 67 bc c8 b3 6e 3c
       -0.022839619 0.03609802 -0.014108028 0.01456923
000120 5f 27 b7 3b 47 3a c8 bc a3 e2 ec bc 31 24 08 bd
       0.00558941 -0.024441851 -0.028916663 -0.03323764
000130 bb 0a 3a bd 13 a9 e6 bc 45 8b 1b 3d a6 f8 6f 3c
       -0.04542039 -0.028156793 0.037974615 0.014646685
000140 a7 29 cd bc ee 0a 17 bb f8 2c fc bb 7f 8b 8e 3c
       -0.025044275 -0.0023047286 -0.0076957904 0.017400501
000150 7d 47 20 3d a9 3e 16 bd 99 f4 9d 3c f6 77 2b 3d
       0.039130677 -0.03668085 0.019281672 0.04186245
000160 c8 c3 8e bc 4d a9 d9 bb 99 71 de bb e1 f7 9f bc
       -0.01742734 -0.0066424967 -0.0067884442 -0.019527378
000170 43 b3 40 3d 1e f3 3b bd b1 b4 b5 bc 3a 70 8a 3c
       0.047045957 -0.04588615 -0.022180887 0.016899217
000180 bd e8 db bc aa 92 32 bd 2d f6 7b 3b bd 23 1e bd
       -0.026844377 -0.0435969 0.0038446293 -0.0386083
000190 27 79 31 bd 9f da 29 bd 46 a8 3f 3d 2d 95 33 3d
       -0.04332843 -0.04146826 0.046791337 0.043843437
0001a0 16 04 41 3c dc 68 77 3c a1 cc 1f bd 94 7a 24 bc
       0.011780759 0.015100684 -0.03901351 -0.0100389905
0001b0 7d 80 62 3c c0 28 15 3a 52 9e 9e 3c 30 34 b0 3c
       0.013824579 0.0005689971 0.019362602 0.02150926
0001c0 5a e2 14 bc de de 57 3c 17 76 af bc db 83 16 3c
       -0.00908717 0.013175694 -0.021418614 0.00918671
0001d0 e6 c6 b1 3c 4d 82 40 3d cb 69 c4 bc 2e b4 29 bc
       0.021701287 0.046999265 -0.023976227 -0.0103579
0001e0 62 03 ae 3c fc c2 97 bc 0c d6 0b bd 89 87 49 bd
       0.021241847 -0.018525593 -0.034139678 -0.049201522
0001f0 cc b0 d5 bc 32 b9 45 3d 62 5c 7f 3c 05 b0 1b bd
       -0.02608528 0.04827232 0.015585991 -0.038009662
000200 83 a7 42 bd bf d3 24 3d 65 49 bb 3a 39 4b a6 bc
       -0.047523033 0.040241 0.0014288841 -0.02029954
000210 b4 4c 2a bd 80 6d bb bc a8 79 49 3d 5c c0 35 3d
       -0.041577056 -0.022879362 0.049188286 0.0443729
000220 a8 8d fc bc 9f 38 c2 3c e4 3d 75 bc f0 13 a6 bc
       -0.030829266 0.02370864 -0.014968369 -0.020273179
000230 72 14 a7 bc cb 34 3e bd ae 1c 27 bd 4a b9 2a 3d
       -0.020395491 -0.046437066 -0.040798835 0.04168061
000240 47 5d d4 bb 03 0c 4a bd a2 d5 1b bc 3a 83 f5 3c
       -0.006480846 -0.04932786 -0.009511383 0.0299698
000250 b1 3a c2 3a e9 8a 17 3d 9d 9c d4 bc 93 9a 2b bc
       0.0014818517 0.03699771 -0.025953585 -0.010473865
000260 1b 37 ce bc b8 4a 81 3c ed e2 22 bd 68 de 45 3d
       -0.02517276 0.015782699 -0.039767195 0.048307806
000270 70 d0 48 bd 2f 03 03 3d 90 68 b6 bc 9d 81 03 3d
       -0.049026906 0.031985458 -0.022266656 0.03210603
000280 49 30 e5 bc 91 a6 81 bc 7f fe 21 3c 1a 5f ce 3b
       -0.027977126 -0.015826495 0.009887337 0.006297958
000290 08 4d fa 3c 48 f6 95 bc b3 08 fd bc b0 e3 82 bb
       0.03055431 -0.018305913 -0.030887937 -0.0039944276
0002a0 a3 c5 75 3c 2f 4b 05 bd 30 c9 38 3c ce f3 12 bd
       0.015000734 -0.032542404 0.011278436 -0.03587704
0002b0 29 28 23 bd a4 4b 57 3b 0b 99 0a 3d 56 02 20 bd
       -0.03983322 0.0032851482 0.03383736 -0.039064728
0002c0 2c 7b 94 3b c7 57 4b 3d ca be a4 3c 82 d0 1f bd
       0.004531285 0.049644258 0.020110507 -0.039017208
0002d0 35 43 7b 3c d0 4a d4 bc f8 62 35 bd 79 2d 2c 3c
       0.015335848 -0.02591458 -0.044283837 0.010508888
0002e0 54 e7 79 3c 21 d7 0c bd 41 2b ab bb 34 51 23 bd
       0.015252907 -0.03438485 -0.005223662 -0.039872363
0002f0 4d 7d 0f 3d 0e 81 29 bd 95 dc 9a 3c 8d 1f 29 bb
       0.035031606 -0.04138284 0.01890401 -0.002580616
000300 70 f0 ab 37 5a 95 c5 ba f2 2d 59 bc 19 52 ee 3c
       2.0496751e-05 -0.0015074417 -0.013255583 0.029091882
000310 2e 21 2d bd 80 d4 ff 3c 25 51 b8 3b 38 f7 dc bc
       -0.04226797 0.031229258 0.0056249076 -0.026973352
000320 27 5a 1e bd 85 bc 3e 3c 19 74 af bc 9d 95 3a bc
       -0.038660195 0.011641626 -0.021417664 -0.01138821
000330 b0 ad 15 3d cc 15 1f bd bd c5 09 bd 20 07 7c 3c
       0.036542594 -0.038839146 -0.033635844 0.015382558
000340 28 a2 39 bd c4 ee 2e 3c 79 85 46 bd 4f 45 4b bd
       -0.04532066 0.010677043 -0.048467133 -0.049626645
000350 6f 3d 54 3d aa 29 67 3c 6b 40 95 bc 48 8c f9 bc
       0.0518164 0.014109055 -0.018219193 -0.0304624
000360 f8 23 76 bb 57 62 79 ba f4 d2 60 bc ab 62 b5 bc
       -0.003755806 -0.000951325 -0.01372217 -0.022141775
000370 c6 92 5d 3c c7 ad 38 3d 14 92 9a 3c 90 c6 ad bc
       0.013523763 0.045087602 0.018868484 -0.021212846
000380 60 6e 09 bd 70 a5 42 bd e6 ea 25 ba 64 d8 4c ba
       -0.033552527 -0.047521055 -0.0006329253 -0.0007814227
000390 22 cb 08 3d 27 44 80 3b e1 66 f1 bc 1a 08 df 3c
       0.033396848 0.0039143744 -0.029468002 0.027225543
0003a0 fa 85 88 bc eb 16 05 3d 4d d5 47 bd aa fe cd 3b
       -0.016665448 0.03249256 -0.048787404 0.006286462
0003b0 98 6d 16 3b b8 4f cc bc fe 59 03 3d 29 f3 4c bd
       0.0022953507 -0.024940357 0.032068245 -0.050036583
0003c0 b2 ab 1c 3d b7 24 35 3d 21 a4 51 3d 9e 9a cf 3b
       0.03824968 0.044224467 0.051181916 0.0063355705
0003d0 31 de 3b 3d 5a fd 37 bd 04 4f 13 bd d0 61 25 3c
       0.045866195 -0.04491935 -0.035964027 0.010094121
0003e0 50 fc 83 bc 0a 9e 07 3d 46 ed 33 bd 04 9c 0a 3d
       -0.016111523 0.033109702 -0.043927453 0.033840194
0003f0 4c a0 0a 3d 46 56 f5 3c d7 ca e0 3c 5e 0f 2c 3d
       0.033844277 0.029948365 0.027440472 0.042006843

tree_conv.6.weights.bias f4 [64]
000000 4e 85 77 bc 74 cf 1f bd 24 e1 25 bd d8 fd a9 3b
       -0.015107466 -0.039016202 -0.040497914 0.0051877312
000010 b8 05 68 3c 4b 3a 84 ba 1d 38 1e 3d b3 1a 1f bc
       0.01416152 -0.0010088173 0.038627733 -0.009710955
000020 1a 50 17 bc b4 02 f9 36 9f f8 99 bb 01 62 9e 3c
       -0.009235406 7.421093e-06 -0.0046988274 0.019333841
000030 94 84 ce bc 48 c8 35 bd 6d a7 97 3c 15 4e 11 3d
       -0.025209703 -0.044380456 0.018512452 0.035474855
000040 cb b3 2c bd de 9e 1e 3c 56 33 c1 3c 9b e4 26 3d
       -0.04216365 0.009681432 0.02358405 0.04074536
000050 11 ff 93 3c 83 de 86 bb e9 9a 0b 3d a2 2e b0 bc
       0.018065961 -0.004115881 0.03408328 -0.021506611
000060 d2 d3 d3 3b e5 96 e3 3c fa 25 2c bd 52 c0 27 bc
       0.00646446 0.027781913 -0.042028405 -0.010238724
000070 87 f0 f2 3c ef 51 5c 3c 02 94 0e 3d 22 c5 29 bd
       0.029655708 0.013447269 0.03480912 -0.041447766
000080 89 4a 56 3c 3b 9e 32 3d 3b ed d2 bb 9d 0e 22 bd
       0.013079294 0.04360793 -0.0064369715 -0.039564718
000090 a3 5a 22 3c 4e 2c 1d ba 27 90 40 bc d6 e5 fe 3c
       0.009909305 -0.00059956766 -0.011753119 0.031115454
0000a0 5b d5 1a 3d e9 77 0d 3c 61 68 84 bc 5e 19 9d ba
       0.037801128 0.008634546 -0.016163053 -0.001198571
0000b0 1b 15 7b 3b 34 c3 0e bd a0 4d 07 3d 0e e5 12 3d
       0.003831214 -0.03485413 0.033033013 0.035862975
0000c0 c0 8a ec bc c7 c1 25 3b db 28 28 bc 48 cf 01 3d
       -0.028874755 0.0025292502 -0.010263647 0.03169182
0000d0 be 3d 4d 3d 87 1f 2f 3d 4a ae c2 bc 9f 0f 05 3c
       0.05010771 0.042754676 -0.023764748 0.0081214
0000e0 60 3d b8 bb 3a 39 00 bd ca 82 f2 3c 4d 94 9c bc
       -0.005622551 -0.031304576 0.02960338 -0.019113684
0000f0 56 ef ce 3c c8 32 ab bc 40 27 da bb 59 b5 0a bd
       0.025260609 -0.020898238 -0.006657511 -0.033864353

tree_conv.9.weight f4 [32, 64]
000000 ab 22 cc bd 1f b8 f5 bd f7 54 2d 3d ba 1c 8a 3d
       -0.0996755 -0.11998009 0.042317357 0.067437604
000010 d5 52 91 3d c8 73 df bc e0 74 8d ba 7d ac 66 3d
       0.07095877 -0.027276888 -0.0010792278 0.05631684
000020 2a 28 bf 3d df 36 ba bd 04 87 fa bd 64 cb f6 bd
       0.093338326 -0.09092497 -0.122327834 -0.120505124
000030 c9 5c 21 bd 20 14 ea bd 08 29 96 bc 46 da 0c 3d
       -0.039395127 -0.1142962 -0.018330112 0.03438785
000040 29 dd b5 bd 1d 50 22 bd 5c 2e f9 3d 04 91 b6 bc
       -0.088800736 -0.039627183 0.121670455 -0.022285946
000050 e0 e7 35 3d b0 80 0a 3c 8c cb b0 3d be 7c f9 bd
       0.044410586 0.008453533 0.086325735 -0.12181996
000060 94 40 29 3d ae 99 23 bd f0 57 b2 3c 40 ec 28 bd
       0.041321352 -0.039941482 0.021770447 -0.04124093
000070 c6 db b5 3d 0d f7 21 bd 1e e0 48 3d c5 82 34 bc
       0.08879809 -0.039542247 0.04904186 -0.011017506
000080 fa 0c c1 3d 4b 48 31 bd da 3d 6e 3d 16 22 6e 3d
       0.09426303 -0.043281835 0.058164455 0.058137976
000090 ee ad 93 bd de 6c d5 bd f0 d7 9e bd 88 3e 9c 3c
       -0.07210909 -0.104211554 -0.077560306 0.019072786
0000a0 8e a5 bc 3d af 16 95 bd 7b 19 bc 3d c3 08 1a bd
       0.092112646 -0.07279717 0.091845475 -0.037606012
0000b0 0d c0 a3 3d 55 81 94 3d 93 07 bc 3d d7 a5 ba bd
       0.07995615 0.072512306 0.09181132 -0.09113663
0000c0 d2 4c c7 3d 4d 4c cf 3b 94 3d b8 bd a8 93 0c bd
       0.09731449 0.0063262344 -0.0899612 -0.034320503
0000d0 25 da 83 bc 9d ad 21 3d 40 b3 2f 3d 5f ae 8b bd
       -0.01609523 0.03947221 0.042895555 -0.06820368
0000e0 b5 73 63 3c b0 46 4c 3d 24 e1 cc bd 61 32 4a 3c
       0.013882567 0.0498721 -0.1000388 0.012341113
0000f0 91 f9 66 bd 65 88 93 bd 86 04 59 bd af 3f ad 3d
       -0.05639035 -0.072037496 -0.05298283 0.08459412
000100 7f dc ae bd a4 10 15 3d 59 73 f4 3d eb fc ee bd
       -0.0853815 0.036392823 0.11936063 -0.11669334
000110 5a ff aa bc da 86 aa bc 43 b0 71 bd 35 8a 86 bd
       -0.020873714 -0.020816255 -0.059005987 -0.0656933
000120 08 fd a9 bd ca 14 98 bd 3c 26 b4 bd 2c 9e a6 3d
       -0.08300215 -0.0742584 -0.08796355 0.08135638
000130 33 a7 11 3c cf 73 bd bd d9 dc 9f 3d f4 b6 7f 3c
       0.008889961 -0.09250604 0.07805795 0.015607584
000140 ed 86 68 bd b4 5f 46 bd 65 c7 9c bd f9 f4 b9 bd
       -0.0567693 -0.048431113 -0.07655219 -0.09079928
000150 ca a1 bf bc eb 9e 18 bc 7d 7c 36 bd 0c ac 5c 3d
       -0.023392577 -0.009315233 -0.044552315 0.053875014
000160 17 0b f0 bc 87 d2 2f bd 28 2a de bd 2d 24 b3 3c
       -0.029302163 -0.042925384 -0.108478844 0.021867836
000170 86 5e e6 3d c1 f5 f4 3c d7 61 df 3d 5b 20 f0 3d
       0.11248498 0.02990234 0.10907333 0.11724921
000180 3c 72 27 bb 75 04 d5 bd 0b 5f 49 bc 34 41 d2 39
       -0.0025550267 -0.10401241 -0.012290726 0.000401029
000190 c0 33 9c 3a 66 d0 ea 3d 39 df 64 bc bf 6f 85 bd
       0.0011917278 0.1146553 -0.013969236 -0.065154545
0001a0 bd e3 c0 3c 8d 12 c7 3c 09 39 75 bc 93 99 81 bd
       0.023546094 0.024300838 -0.0149672115 -0.0632812
0001b0 59 37 ca bd e3 b2 9b bd 31 3a f1 3d c4 89 c7 3d
       -0.09873838 -0.07602479 0.11778677 0.097430736
0001c0 98 e8 38 bd 81 60 df bd 41 47 95 3d b5 6b 19 bd
       -0.045143694 -0.109070785 0.07288981 -0.037456233
0001d0 a3 4c 44 3d f2 ba eb bd 8a 29 d6 bd 59 af bf bd
       0.04792465 -0.11510266 -0.10457142 -0.09359617
0001e0 1e b2 ed 3d 63 17 e1 bd 3e c1 17 3d c4 01 a1 bb
       0.11606239 -0.10990789 0.037049524 -0.0049135406
0001f0 ff f9 f1 bd ee fc c4 bd 04 d4 70 3d 3f 04 d4 bd
       -0.11815261 -0.09618555 0.058795944 -0.103523724
000200 dc 68 8b bd 8a 95 77 bb 7e 00 d4 3d 58 42 01 bc
       -0.0680711 -0.0037778341 0.103516564 -0.007889353
000210 da 2c f9 bd b4 35 d7 3d 00 14 f5 3d 1a 5a 5a bd
       -0.12166758 0.1050829 0.11966705 -0.053308584
000220 bf c3 b0 bd 11 a8 ce ba 37 a3 de bc 15 28 2d bb
       -0.086310856 -0.001576664 -0.027177436 -0.0026421596
000230 f5 92 8a bd b7 2b d6 38 99 fb e1 bd e3 d0 e1 3b
       -0.06766311 0.00010212458 -0.110343166 0.0068913563
000240 1e 8c 93 bd 80 6f 98 3d 3d 6d 27 bd 71 6a e7 bd
       -0.072044596 0.07443142 -0.040875662 -0.11299599
000250 64 18 da 3b f2 e9 cb 3d 6c 44 7f 3c f7 ae eb bd
       0.0066557396 0.09956731 0.015580278 -0.11507981
000260 35 3a 8d 3c 41 69 86 3d 87 31 e3 3c 01 28 10 bd
       0.01723967 0.06563044 0.027733577 -0.0351944
000270 43 64 9c bc ea df a2 bd 4b 8a 90 bd aa a9 ab 3d
       -0.019090777 -0.079528645 -0.07057627 0.0838197
000280 fa dc 08 3c 39 39 7f bd 4a 95 40 3d 80 be 6d bd
       0.008353466 -0.06231043 0.047017373 -0.058043003
000290 cb 04 b2 3d e0 dc a6 bd e2 41 aa 3d de 9c e5 3d
       0.086923204 -0.08147597 0.083133474 0.11211561
0002a0 d7 4d d1 3d 15 8a 76 3c 48 8d c9 bd b9 c2 a4 bd
       0.10219925 0.01504757 -0.098414004 -0.08044953
0002b0 c0 bc ed bc 5a c8 88 3d 1e a4 07 bd 22 4f fd 3c
       -0.029020667 0.06678839 -0.0331155 0.030921523
0002c0 7b 20 b7 3d 0e e9 bb 3d 4a 55 29 3d 85 11 fc 3d
       0.08941742 0.09175311 0.041341104 0.12308029
0002d0 db 9e ec bc cf 4b 00 be c8 a8 f4 3d b9 42 e4 3d
       -0.028884342 -0.12528919 0.11946255 0.11145539
0002e0 38 e6 d9 3d b1 e4 ad bd ce 72 95 3d aa 2d 76 3c
       0.10639614 -0.08490885 0.07297288 0.015025536
0002f0 88 58 3d bd cc 2f 57 bd 41 3b 5c 3d f4 28 bd bd
       -0.046227008 -0.052535817 0.053767446 -0.09236327
000300 12 dd 33 3c 3d fd 6b 3d a8 71 20 3c d8 2c ac 3c
       0.010978 0.057614554 0.009792723 0.021017477
000310 5d ff 34 bd d4 c6 ee 3d c2 ba 84 3b f6 b5 fe bd
       -0.044188846 0.11659017 0.0040505836 -0.1243705
000320 a6 40 f3 3d 16 a6 81 3c a0 14 b4 bd bf ea b0 3d
       0.11877565 0.015826266 -0.087929964 0.08638524
000330 ca 74 8d bd 29 95 c0 3d dc d0 62 3d 5e 08 a0 bd
       -0.06907041 0.0940345 0.055374965 -0.07814096
000340 1e 13 50 3d 10 a0 30 3d 77 8f 3a 3c 6d 46 95 3a
       0.05079948 0.043121397 0.011386744 0.0011388786
000350 c7 00 4a 3c 2b f4 ee 3d a7 95 f9 bd 52 96 44 3a
       0.012329287 0.11667665 -0.12186747 0.0007499206
000360 b5 f8 54 3d 01 61 b9 3d 5f a7 87 3d 50 e3 c5 3c
       0.051994998 0.09051705 0.066237204 0.024156243
000370 a3 b9 26 bd f9 ff 82 bd e7 40 9e 3d 20 61 e7 3d
       -0.04070438 -0.06396479 0.07727223 0.11297822
000380 7a c5 d9 3d 7e c9 a7 bd 59 5b 76 3a 19 19 d4 3d
       0.10633369 -0.081927285 0.0009397767 0.103563495
000390 80 6a b3 3c 97 4c ce 3d 73 f6 ce 3d 67 b0 88 bd
       0.02190137 0.10073202 0.101056 -0.06674271
0003a0 66 60 14 3d 29 d7 a9 bd d8 f9 c6 bd a8 ae 98 3d
       0.036224745 -0.08292992 -0.09715623 0.07455188
0003b0 bb 18 1c bd e4 9a a1 bd 63 db b5 3d e9 34 df 3d
       -0.038109522 -0.07890871 0.08879735 0.10898764
0003c0 a1 8d d5 3d 38 42 62 bb ab a5 98 bd a7 03 2e bd
       0.10427404 -0.0034524333 -0.07453474 -0.042483952
0003d0 27 13 36 3d b5 a2 d1 bd a6 4b 38 bd dc 6f 80 bc
       0.04445186 -0.10236112 -0.04499402 -0.015678339
0003e0 ad 3f 7c 3d 0e 7f 52 3d 26 96 c3 3d 25 b9 85 3d
       0.061584163 0.0513907 0.09550123 0.06529454
0003f0 62 97 d0 3d 46 ae 6b bd 9f 07 4c bd 4a 62 86 bc
       0.10185124 -0.057539247 -0.049811956 -0.01640429

tree_conv.9.bias f4 [32]
000000 e8 86 c1 3d 55 87 02 bd 04 e0 09 bd 36 01 6d bd
       0.094495595 -0.031867344 -0.033660904 -0.057862483
000010 20 4b d4 3d 15 72 78 bc ed d7 4e bc 37 f3 42 3d
       0.103658915 -0.015163918 -0.012624723 0.04759523
000020 6c f4 8a bd c5 92 bc 3c b7 16 5e 3d 50 14 97 3d
       -0.06784901 0.023019204 0.05422088 0.07376921
000030 ce 2e a6 3d 4e 2f 83 3d 9d 4d ec 3d b0 60 e1 bd
       0.08114396 0.06405507 0.11538241 -0.1100477
000040 b9 c7 73 bd b2 b0 a0 bd b7 1c 84 3d 29 8e c7 3d
       -0.059516642 -0.07846202 0.064507894 0.09743912
000050 69 03 1b 3d eb c8 f1 3d 87 6c de 3d 55 d3 d5 3c
       0.03784505 0.118059 0.10860544 0.026101748
000060 70 0a 5f 3d 11 f5 d6 bd 17 c4 9c bc 51 e5 c6 bd
       0.054453313 -0.104959615 -0.019136472 -0.097117074
000070 8d b7 c8 bd 1a 59 c6 3d f9 6a cc bd 19 38 53 bd
       -0.098006345 0.096849635 -0.09981341 -0.05156717

tree_conv.11.weight f4 [16, 32]
000000 c9 5f 8f 3d d1 3f ba 3d a1 c9 46 3d a7 ee 0c bd
       0.070006914 0.09094203 0.048532132 -0.034407284
000010 d0 41 76 3d 5b 30 1e 3d 95 a2 25 ba f1 4d 2c 3e
       0.060121357 0.038620334 -0.0006318477 0.16826607
000020 7a c8 31 3e 10 06 38 3c db c7 a4 bd b8 e2 f2 bd
       0.17361632 0.011231914 -0.08045932 -0.118596494
000030 83 2d 60 bd 89 f2 e3 bd 08 6b c0 bd e4 80 d9 bd
       -0.054730903 -0.11130244 -0.093954146 -0.10620287
000040 78 04 b5 bc 9e 90 1f be ed ac 72 bd 28 2e 07 be
       -0.022096857 -0.15582511 -0.059246946 -0.13201201
000050 c3 ae c3 3b 8b ec 16 3e fc a2 39 bd 49 2d 00 3e
       0.005971761 0.14738671 -0.04532145 0.12517275
000060 15 73 23 be 2f f7 f1 bd f5 32 66 3d 5e 3e 54 bc
       -0.15961869 -0.11814725 0.05620094 -0.012954323
000070 41 b1 59 bd 31 8d 92 bd a4 76 1d be 6a 18 29 be
       -0.053147558 -0.071558364 -0.15377289 -0.1651322
000080 e2 df 1a be d8 dd 81 bd c0 c2 30 be 37 72 f6 39
       -0.15124467 -0.063411415 -0.17261791 0.00047005873
000090 20 78 00 be 90 f2 05 be 3f 0c d7 3d 85 9d 9d bd
       -0.12545824 -0.13080812 0.10500383 -0.0769606
0000a0 3e 59 d6 bc 8b 3d 8a 3d 66 23 e1 bc 65 0d 39 3d
       -0.0261656 0.0675002 -0.0274827 0.04517879
0000b0 47 f8 e3 3c 0a c4 22 3b a9 e6 8c bd 3f c5 45 3c
       0.027828349 0.0024836087 -0.068799324 0.012070953
0000c0 ce 41 1b be fd 7c 14 3e c1 74 0d be 9b dd 3c bb
       -0.15161821 0.14500804 -0.1381407 -0.002881861
0000d0 0f f6 27 3e 7e 82 15 3b dc f5 ca bd b2 de 1d bd
       0.16402458 0.0022813375 -0.09910175 -0.038542457
0000e0 7f 4d 55 bb cc b0 2a bd e6 2c c1 3c 15 93 e2 3c
       -0.0032547412 -0.041672513 0.02358098 0.027658025
0000f0 b4 e1 1d 3e 76 20 1e 3e 07 b7 16 be 5d f5 d8 3d
       0.1541813 0.1544207 -0.14718257 0.10593674
000100 87 34 13 3d 33 37 86 3d 5b 57 34 3d b4 8b 15 3e
       0.035938766 0.06553497 0.04402862 0.14604074
000110 f4 bd ec 3d ae 27 8c bd e0 e7 c3 3d db d7 02 bd
       0.11559668 -0.06843506 0.09565711 -0.031944137
000120 21 1e 84 3c 13 5f 0a 3e 0d 9c f0 3b b4 9e 21 3e
       0.016127648 0.1351283 0.0073428215 0.15783197
000130 2d 31 48 bd 88 ce 80 3d 72 a5 62 bd 8a 1d fe bd
       -0.048875023 0.06289393 -0.055333562 -0.12407978
000140 fa f8 8b bd 65 54 a1 3d 4d 53 9d bc 82 8b e7 bd
       -0.06834598 0.07877425 -0.01920476 -0.11305906
000150 2c 26 21 be a2 e6 fd bd d6 62 1a 3d 0f 61 80 bc
       -0.15737218 -0.12397505 0.037691914 -0.015671281
000160 d6 12 22 be b1 23 32 3d 51 d7 c8 3c 6c 8b c4 3d
       -0.15827498 0.04349107 0.024516733 0.09596905
000170 86 1a 72 bc ac 94 0e 3d 3a f1 90 3c 4d 4b 32 be
       -0.0147768315 0.034809753 0.01769315 -0.17411537
000180 7c f6 b7 3b 83 f8 c7 bd d0 32 3b 3d 32 41 68 3d
       0.0056141 -0.09764197 0.045702755 0.0567028
000190 7b 0a 31 be 41 03 cb bd 8b 5b dd bd 30 b4 2d 3e
       -0.17289154 -0.0991273 -0.10808476 0.16963267
0001a0 32 52 cf 3d bc 56 d5 bd 6a bd 58 3c d8 35 3f 3c
       0.101230994 -0.10416934 0.013228754 0.011670552
0001b0 26 83 b2 3d a3 c7 d7 bd ee 5e bb bd 4b fc 02 bd
       0.08716421 -0.105361246 -0.09148966 -0.031978887
0001c0 de 78 fa 3d 9c 13 f2 bd a6 49 f0 bd d5 61 37 bd
       0.12230085 -0.118201464 -0.11732797 -0.044771034
0001d0 06 83 58 bc 1c 5a e9 bc 0a 97 bd 3d e1 32 14 3e
       -0.013214832 -0.02848535 0.09257324 0.14472534
0001e0 ed a7 4a bc 8e d3 44 bd d3 3d 8e 3d 5a 27 77 bd
       -0.012369138 -0.048053317 0.06945386 -0.060340263
0001f0 40 2b 22 3e d6 8e 27 3e 2b 43 3a 3d 22 9f 84 3d
       0.15836811 0.16363081 0.045474213 0.06475665
000200 b1 bd 22 3e cb 20 ef bd 13 75 75 bd f1 63 e5 3c
       0.15892674 -0.11676177 -0.059926104 0.028001757
000210 41 3a 21 3e 70 69 1f bd 20 73 1b be e6 c1 b5 bd
       0.15744878 -0.038918912 -0.15180635 -0.08874874
000220 a7 18 5d 3d 46 d6 27 3e 0a 34 6a bd 41 99 2d be
       0.05397859 0.16390333 -0.057178535 -0.16952993
000230 ec b6 2a be ec ad 30 3e b4 f9 bc bd a9 5d 92 bd
       -0.16671342 0.17253846 -0.092273146 -0.071467705
000240 52 f3 8c 3c 70 f1 13 be 61 2b ef bd 2a d8 fa 3d
       0.017205868 -0.1444757 -0.11678196 0.12248261
000250 3b 31 00 3c 43 20 18 be 47 dd 86 3d dc 3a d2 3d
       0.007824237 -0.14856057 0.06585174 0.10265133
000260 2b 07 11 bd 9b a4 9f bd ae 1e d1 bd 85 ca ee 3b
       -0.035407227 -0.07795068 -0.1021093 0.007287326
000270 65 62 1c bd cf 33 15 bd 46 fe 35 3e 64 10 88 3c
       -0.038179774 -0.03642636 0.17772779 0.016609378
000280 b7 b2 21 3d 2f 29 37 bd de 99 1e 3e c2 aa f8 bd
       0.039477076 -0.04471701 0.15488383 -0.121419445
000290 90 bb 2f be 8a b6 e0 bd 18 b5 03 3e 34 49 e7 bd
       -0.17161393 -0.109723166 0.1286205 -0.11293259
0002a0 3a 5e da bd 86 fb c1 bd 50 f6 0b be 3e 64 c6 3d
       -0.106625035 -0.094718024 -0.1366818 0.096870884
0002b0 25 9e f1 3d 62 58 0c be f2 7c cf bd 19 04 13 be
       0.11797742 -0.1370559 -0.10131253 -0.14357032
0002c0 ac 75 0d 3e e9 15 1c bd 68 f0 09 3e e1 cc fe bd
       0.1381442 -0.038106833 0.13470614 -0.12441421
0002d0 bd 63 0e bd 47 7a 11 3d 3f 25 f8 bc e1 09 c3 bd
       -0.034763087 0.035517003 -0.030291198 -0.095233686
0002e0 a9 fd d7 3d 93 1f 1a 3e e2 86 2c 3e 0f c5 00 3e
       0.10546429 0.15051107 0.16848329 0.12575172
0002f0 81 f1 0b 3d 56 d9 ae bd 36 29 03 3e b6 06 1e 3e
       0.034165863 -0.08537547 0.1280869 0.15432248
000300 a8 d4 99 bb 1d 65 44 38 2a 96 2d 3e 70 38 de 3d
       -0.00469454 4.682421e-05 0.16951814 0.10850608
000310 51 0f f2 bd 4e fe 10 be 45 1c 80 3d 19 cf 6e 3d
       -0.118193276 -0.1415951 0.06255392 0.058302972
000320 74 95 01 be b5 82 2d 3e b5 19 dd 3d 30 e4 2d be
       -0.12654668 0.16944392 0.10795919 -0.16981578
000330 c5 b1 2e be 52 c3 b4 3d cc 5b a2 bc 22 fb e7 3d
       -0.17060001 0.08826317 -0.019819163 0.11327197
000340 51 fd a1 3a 7c ec 85 bd c9 7f ce 3d ef 10 2a be
       0.0012358819 -0.065392464 0.10082967 -0.16608022
000350 10 96 b6 bd 17 3d ec 3d 27 ca 14 be 5b 32 e9 bd
       -0.08915341 0.115350895 -0.1453024 -0.11386558
000360 92 53 74 3d 24 4d d9 3d 59 bf 08 be cc 33 2b 3e
       0.05965001 0.106104165 -0.13354243 0.16718978
000370 27 a2 b0 bd 0f b0 2a bd 92 2d e6 bd e0 d4 e1 3d
       -0.08624678 -0.04167181 -0.112391606 0.11026931
000380 a1 ec b1 bd a5 6f f2 bd 68 12 e2 3d 57 b9 52 bd
       -0.086877115 -0.11837701 0.11038667 -0.051446285
000390 1c 50 fb bd 34 e0 0c be 33 73 b3 3d d0 24 4e bd
       -0.12271139 -0.13757402 0.08762207 -0.050328076
0003a0 fa c0 40 bc 78 6e 77 bd 1a 55 51 bd a1 d4 45 3d
       -0.011764759 -0.060408086 -0.05110655 0.04829848
0003b0 ee 83 1b be 7b a3 8e 3d 43 45 2d 3e e9 6f 9c bc
       -0.15187046 0.06964775 0.16920952 -0.019096332
0003c0 5e de 04 be bc 76 f3 bd ec 66 04 be bf c7 8b 3d
       -0.12975451 -0.11887881 -0.12929887 0.06825208
0003d0 6a 79 fb 3d e7 65 df bd ba 15 62 bc c6 50 e5 bd
       0.12279017 -0.10908108 -0.013799125 -0.11197047
0003e0 68 7c 95 3d 76 fd a2 bd 76 39 0d be dd 72 07 3e
       0.07299119 -0.079585 -0.13791451 0.1322741
0003f0 11 55 07 be ab b4 f3 bd 9e 2a 99 3d a6 bd 98 3d
       -0.13216044 -0.11899694 0.07478832 0.074580476

tree_conv.11.bias f4 [16]
000000 9c 01 27 3e 2e f5 a2 bd 26 e7 13 3c 9b f4 0b be
       0.16309208 -0.079569206 0.009027278 -0.13667528
000010 62 15 9a bd 47 24 36 3e 5e 9d a8 3d f2 f6 2a 3e
       -0.0752361 0.17787276 0.082331404 0.16695765
000020 08 ef 10 3e fc e6 39 3c 31 75 15 be b0 c1 0d be
       0.14153683 0.011346575 -0.14595486 -0.13843417
000030 47 d8 9a bd a3 c7 fb 3c 28 ab 3a bd 82 47 14 be
       -0.07560783 0.030734843 -0.045573384 -0.14480403

tree_conv.13.weight f4 [1, 16]
000000 79 8d 6b be d6 6a 47 bc 81 8d bc bd 94 36 3b be
       -0.23003186 -0.012171468 -0.09206677 -0.18282539
000010 55 08 1f 3e e3 44 10 3e a8 80 5b be da 41 5b be
       0.15530522 0.14088778 -0.21435797 -0.21411839
000020 80 a2 96 3d 7c 30 e9 bd d9 87 c6 3d c5 b8 91 bc
       0.07355213 -0.11386201 0.0969388 -0.0177883
000030 6c 0c ea 3d e1 87 86 3b 40 d2 ee 3d 9f de 8e 3d
       0.114281505 0.0041055535 0.11661196 0.06976055
