src/Models/cost.onnx (onnx, 681599 bytes, 15 tensors)

tree_conv.0.weights.weight f4 [256, 50, 3]
0	0x3d91e797	0.071242504
1	0xbda73c0b	-0.08165749
2	0x3bc35c25	0.005961912
3	0xbd893fb0	-0.067016006
4	0x3da32459	0.07965917
5	0x3d13c330	0.036074817
6	0xbd497d6b	-0.049191874
7	0x3d2f27f4	0.04276271
8	0xbd96473a	-0.07337804
9	0x3d18bcfe	0.037289612
10	0xbd4874cd	-0.048939515
11	0xbd7ce9d5	-0.061746437
12	0x3ca1a360	0.019731224
13	0xbd1ad59d	-0.037801374
14	0xbd5d9849	-0.05410031
15	0x3d9b271a	0.075758174
16	0xbd939e7d	-0.072079636
17	0x3d54da1e	0.051965825
18	0x3ccf74ad	0.02532419
19	0x3d8fefd8	0.070281684
20	0xbb3636f1	-0.0027803744
21	0xbcd55bdd	-0.02604478
22	0x39ae2347	0.0003321415
23	0xbc9850f6	-0.018593293
24	0x3da4308d	0.08017073
25	0xbae9605d	-0.0017805208
26	0xbd68ccf5	-0.056836087
27	0xbd1dc3b0	-0.0385167
28	0xbd327807	-0.0435715
29	0x3d6184fa	0.055058457
30	0xbd05e768	-0.03269139
31	0xbc48aa76	-0.012247672
32	0x3d9beda6	0.07613687
33	0xbc1cbc32	-0.009566354
34	0x3ced381f	0.028957425
35	0xbd0200f1	-0.03173918
36	0xbd504684	-0.0508485
37	0x3d9e52da	0.077306464
38	0xbd953111	-0.07284749
39	0x3d816d93	0.06319728
40	0xbcc77824	-0.02434928
41	0xbd9e44b2	-0.07727946
42	0x3c506618	0.012719654
43	0x3c9baebb	0.019004216
44	0x3ca5a5a6	0.020220589
45	0xbd96eefb	-0.07369801
46	0xbbd7309e	-0.006567075
47	0x3d93a728	0.07209617
48	0xbd81943f	-0.06327104
49	0xbda294bf	-0.07938527
50	0x3ccbef82	0.02489448
51	0xbc933613	-0.01797012
52	0x3bcc167a	0.0062282654
53	0x3d6db4f6	0.058033906
54	0x3da4feba	0.08056398
55	0x3c812578	0.015764937
56	0x3c5a092d	0.013307852
57	0xbd7dff0e	-0.062010817
58	0xbd503715	-0.05083378
59	0xbcfb3ece	-0.030669596
60	0x3bfc636b	0.0077022812
61	0x3b457dcc	0.0030134795
62	0x3d94f6ff	0.07273673
63	0x3d12ced7	0.03584179
64	0x3cce823d	0.025208587
65	0x3c9aba02	0.018887524
66	0x3d58494a	0.05280427
67	0x3d2242b4	0.039614394
68	0x3b9eb08b	0.004842823
69	0x3c8bbb4f	0.01705709
70	0x3d859f3e	0.06524514
71	0xb748b1e3	-1.1962346e-05
72	0xbc934577	-0.01797746
73	0x3d33fb72	0.04394097
74	0xbbbae75b	-0.0057038493
75	0xbcca482a	-0.024692614
76	0xbd8d110f	-0.06888019
77	0xbd312033	-0.0432436
78	0x3d20bc2f	0.039241966
79	0xbd822026	-0.06353788
80	0xbbaa0ac8	-0.0051892735
81	0xbd194dbf	-0.03742766
82	0xbd1594f5	-0.03651901
83	0x3d0afc03	0.033931743
84	0x3d4f003e	0.05053734
85	0x3da08a8d	0.078389265
86	0x3d92dffa	0.071716264
87	0x3d776e2f	0.060407814
88	0x3d8eb317	0.069677524
89	0x3d932b65	0.07186011
90	0xbd639d7c	-0.05557011
91	0xbda58c71	-0.08083428
92	0xbd996129	-0.07489235
93	0xbcf231f0	-0.029564828
94	0xbda31efd	-0.07964895
95	0x3cd4fc9a	0.025999356
96	0xbd4850dd	-0.048905242
97	0x3d80a6e6	0.06281833
98	0x3c2075e7	0.009793735
99	0x3da03586	0.07822709
100	0x3d92a007	0.07159429
101	0x3d96dfec	0.073669285
102	0x3d6df3cd	0.058093835
103	0xbcc99752	-0.024608288
104	0x3d8d2c81	0.06893254
105	0x3d8b4991	0.06801141
106	0xbc1cb5e8	-0.009564854
107	0x3d43e2c0	0.047823668
108	0x3d70feea	0.058836855
109	0xbc947397	-0.018121524
110	0x3da67a3c	0.08128783
111	0xbc23b1b5	-0.009991099
112	0x3d65c0c6	0.056092046
113	0x3d7c8277	0.06164786
114	0xbd3abf35	-0.045592505
115	0xbb640f00	-0.003479898
116	0xbc6988fc	-0.014253851
117	0x3d81f274	0.063450724
118	0x3d9f8096	0.07788198
119	0xbd679f69	-0.05654851
120	0x3d1f312d	0.038865257
121	0xbd776927	-0.060403015
122	0xbcabad76	-0.020956736
123	0xbd45e1c4	-0.04831101
124	0xbca2391f	-0.019802628
125	0xbd8315c0	-0.06400633
126	0xbc33c3a8	-0.010971941
127	0xbd926ff3	-0.07150259
128	0x3d8708ac	0.06593451
129	0x3cc8c3b5	0.024507383
130	0xbc6499c8	-0.01395268
131	0x3cf76795	0.030200759
132	0x3d262c06	0.040569328
133	0xbca25e40	-0.019820333
134	0xbd9f0138	-0.07763904
135	0xbd55ac58	-0.052166313
136	0xbda2fe9b	-0.079587184
137	0xbb2bbde5	-0.0026205715
138	0xbda0de55	-0.078549065
139	0xbc274683	-0.010209682
140	0x3d829014	0.06375137
141	0xbd0316c4	-0.032004133
142	0xbd8342df	-0.06409239
143	0x3d7ee1df	0.062227126
144	0xbcd58c54	-0.02606789
145	0x3d38d7ee	0.0451278
146	0x3ca92c57	0.020651026
147	0x3d311584	0.04323341
148	0xbd9b516f	-0.075838916
149	0x3d18ebb0	0.037334144
150	0x3d90d0b1	0.07071055
151	0x3cdb1fe5	0.026748607
152	0x3cef408e	0.029205587
153	0xbd34cbb1	-0.044139568
154	0xbc82d0c0	-0.01596868
155	0xbcf486f0	-0.0298495
156	0xbcfc349d	-0.030786807
157	0xbd2b6797	-0.041846838
158	0x3d13ab14	0.036051825
159	0xbd84926d	-0.06473241
160	0x3d2c3efb	0.04205225
161	0xbd9f1bb8	-0.07768959
162	0xbda01c85	-0.0781794
163	0xbd5c3df5	-0.053770024
164	0x3d484296	0.048891626
165	0x3baca535	0.0052687177
166	0x3bc87d39	0.0061184433
167	0x3da33366	0.07968788
168	0xbda26a76	-0.07930462
169	0x3cb2cef7	0.021827204
170	0x3c8fa7b9	0.017536031
171	0x3d127f02	0.035765655
172	0x3d9a3ca3	0.07531097
173	0xbd475663	-0.04866637
174	0xbabed986	-0.0014560677
175	0x3d82205f	0.063538305
176	0x3d8a2fbe	0.06747387
177	0xbce4bb76	-0.02792142
178	0x3d8f39e5	0.069934644
179	0x3cd56537	0.02604924
180	0x3cc62ef3	0.024192309
181	0x3d5bda63	0.053675067
182	0x3ab2ba3c	0.0013635824
183	0x3d49a314	0.04922779
184	0x3d2270e3	0.03965844
185	0xbd813fe4	-0.06311014
186	0x3c4f441d	0.012650517
187	0x3c9398a5	0.018017123
188	0xbd5ea4c3	-0.054356348
189	0xbd9ef0e0	-0.07760787
190	0x3d08b9a6	0.033380173
191	0xbd841f11	-0.06451238
192	0xbd253699	-0.04033527
193	0xbcbbe6fb	-0.022937289
194	0xbd84d5e9	-0.064861126
195	0x3d839cd8	0.064264
196	0x3d17f63f	0.037100073
197	0x3d3160d9	0.04330525
198	0xbccd14b5	-0.025034288
199	0xbc854384	-0.016267546
200	0x3d029452	0.03187973
201	0xbcd7a695	-0.02632455
202	0x3d123b81	0.03570128
203	0xbc3ec6de	-0.011644093
204	0xbc8ad382	-0.016946558
205	0x3c0013ee	0.007817252
206	0xbd2b71d6	-0.04185661
207	0xbd14fc62	-0.036373504
208	0x3d9a9b62	0.07549168
209	0x3d9ba925	0.07600621
210	0x3cfd259f	0.030901728
211	0xbd05bb24	-0.032649174
212	0x3d943cd3	0.07238164
213	0x3cb73471	0.022363873
214	0x3ccafbb4	0.024778225
215	0x3cf3f131	0.029778095
216	0x3d7981d6	0.060914837
217	0xbd527e95	-0.05139025
218	0xbd714e5c	-0.05891262
219	0x3bbff30d	0.0058578313
220	0x3d6706ec	0.056403086
221	0x3d0a4582	0.033757694
222	0x3ca28aa6	0.019841503
223	0x3d21760a	0.03941921
224	0x3d252476	0.040317975
225	0xbd96867a	-0.07349868
226	0x3cf98459	0.030458616
227	0xbd7ffb7a	-0.062495686
228	0xbc3e5dbe	-0.01161903
229	0xbcead5ee	-0.028666463
230	0xbd806041	-0.06268359
231	0xbd0d7d09	-0.03454307
232	0x3cd2339e	0.025659379
233	0xbd6b903a	-0.057510592
234	0x3c8a13ab	0.016855082
235	0xbb430b0e	-0.0029761228
236	0xbcc8b922	-0.02450234
237	0x3cf60758	0.030032799
238	0x3d279a97	0.040918913
239	0x3d70373a	0.05864642
240	0xbd5987e3	-0.053108107
241	0xbd3225fd	-0.04349326
242	0x3da30420	0.07959771
243	0xbc7af8fa	-0.01531815
244	0x3d8635e4	0.065532476
245	0x3bc43496	0.005987714
246	0x3d4da1e9	0.050203238
247	0xbc2d21cc	-0.01056714
248	0x3c2ada4b	0.010428022
249	0x3d3cb93f	0.046075102
250	0x3d629771	0.055320207
251	0xbd802f2c	-0.06258997
252	0xbda01b5b	-0.07817718
253	0xbcd14248	-0.0255443
254	0xbd5ded1a	-0.054181196
255	0x3c024822	0.007951768

tree_conv.0.weights.bias f4 [256]
0	0x3d4a36b4	0.049368575
1	0x3d937eb4	0.07201901
2	0xbd30d911	-0.04317576
3	0xbbe827e5	-0.007084834
4	0x3c479f91	0.01218404
5	0x3d9296bf	0.07157659
6	0x3c9b6d7c	0.018973105
7	0x3d8ae4be	0.0678191
8	0xbd10fce7	-0.035397436
9	0x3d45b557	0.048268642
10	0xbd91d709	-0.07121093
11	0xbd57a847	-0.052650716
12	0x3d7bb8dd	0.061455596
13	0xbd413f16	-0.047179304
14	0x3c2f0fdb	0.010684933
15	0x3bb39b78	0.00548118
16	0x3d89a42c	0.067207664
17	0xbd17c7f5	-0.03705593
18	0x3d16a00d	0.03677373
19	0xbc1f02f5	-0.009705295
20	0xbd18e6b2	-0.037329383
21	0x3d55be56	0.05218347
22	0x3d42adca	0.04752902
23	0xbd17e76f	-0.037085947
24	0xbd0b3d35	-0.03399392
25	0xbd8ea623	-0.06965282
26	0x3cc586c5	0.024112115
27	0x3d2f23d5	0.04275878
28	0x3c9d4085	0.019195804
29	0x3ceea5e9	0.029131847
30	0x3d2cae93	0.042158674
31	0xbda67616	-0.08127992
32	0x3d10d783	0.035361778
33	0xbda72403	-0.081611656
34	0x3c02672a	0.007959167
35	0x3d5a7842	0.053337343
36	0x3c6ee56e	0.0145810675
37	0x3d87e535	0.06635515
38	0x3d9f67b4	0.07783452
39	0xbc58b768	-0.013227321
40	0xbd2876bd	-0.041128863
41	0xbd7e77e6	-0.062126063
42	0xbd009ac9	-0.031397615
43	0xbd96cc62	-0.07363202
44	0xbd6364ba	-0.055515982
45	0xbb8e8918	-0.004349839
46	0x3cacf57a	0.021113146
47	0x3d53b35d	0.051684726
48	0x3d936ad9	0.07198114
49	0xbbd7d4ef	-0.006586663
50	0xbcb476c1	-0.022029283
51	0xbda042f4	-0.0782527
52	0x3aee8b9c	0.0018199566
53	0x3c832624	0.016009398
54	0xbd654081	-0.05596972
55	0x3c9ad1a7	0.018898798
56	0x3d638477	0.05554625
57	0x3d82c718	0.0638563
58	0x3cd9a46f	0.026567666
59	0x3cbc616e	0.022995677
60	0x3d4aab05	0.049479503
61	0x3d350261	0.04419172
62	0xbcb56f65	-0.022147844
63	0xbd811a21	-0.06303812
64	0xbd09d107	-0.03364661
65	0x3c5617ae	0.013067169
66	0xbd40f76c	-0.04711096
67	0x3da11cf1	0.07866848
68	0xbcb62383	-0.02223373
69	0xbd3585a7	-0.044316914
70	0xbda1a3c6	-0.078925654
71	0x3cecbd1a	0.028898764
72	0xbd7c0f92	-0.061538287
73	0xbcc3cab8	-0.023900375
74	0x3b1f8448	0.002434032
75	0x3c321c67	0.010871029
76	0xbd4204c7	-0.047367837
77	0x3d2033a1	0.039111737
78	0xbd85f523	-0.06540897
79	0xbd7e2f41	-0.062056784
80	0x3d92b014	0.071624905
81	0x3d10de38	0.035368174
82	0x3d438d8a	0.047742404
83	0xbd46e3db	-0.048557144
84	0xbc987da3	-0.018614596
85	0xbd1b99ae	-0.037988357
86	0xbd210e20	-0.03932011
87	0xbd474e06	-0.048658393
88	0xbd1995e1	-0.03749645
89	0x3c23b561	0.009991975
90	0x3d519161	0.051164035
91	0x3d843301	0.06455041
92	0x3c96db2c	0.018415056
93	0xbc142a74	-0.009043325
94	0x3d051bfa	0.032497384
95	0xbc5a0a3c	-0.013308104
96	0xbd075618	-0.03304109
97	0x3d7dafcc	0.06193523
98	0xbc9642a1	-0.018342318
99	0x3ce00302	0.027345184
100	0xbd8851a3	-0.06656196
101	0x3d75bd66	0.059995078
102	0x3d405385	0.04695465
103	0x3ceadb79	0.028669106
104	0x3d982082	0.074280754
105	0xbca4055e	-0.02002209
106	0xbcba242a	-0.022722322
107	0xbd34b68b	-0.0441194
108	0xbd519e19	-0.051176164
109	0x3d13ad7f	0.03605413
110	0xbcaeb268	-0.021325305
111	0x3c4e3415	0.0125856595
112	0xbcb5342e	-0.022119608
113	0xbd97d866	-0.074143216
114	0xbd9fac53	-0.0779654
115	0x3d853711	0.06504644
116	0xbda1ae37	-0.07894557
117	0xba09c8eb	-0.00052560744
118	0x3c835d7b	0.016035786
119	0xbccf44a1	-0.02530128
120	0xba41bda1	-0.00073906226
121	0x3b7cbf13	0.0038566038
122	0x3d546c2d	0.051860977
123	0xbc74fcfb	-0.014952893
124	0x3d7fa1b3	0.062410068
125	0xbca01c82	-0.019544844
126	0x3b8f9d19	0.004382741
127	0xbcd7331c	-0.026269488
128	0x3c706a91	0.014673845
129	0x3d4f634f	0.050631817
130	0x3c7ae977	0.015314451
131	0xbcb4d0a2	-0.02207214
132	0xbd760c38	-0.060070246
133	0x3d19d18e	0.037553363
134	0x3d3c458d	0.045964766
135	0xbb4d77c2	-0.0031351899
136	0xbc87c9f3	-0.01657579
137	0xbcc51da9	-0.024061995
138	0x3cd8390c	0.02639439
139	0x3da1715e	0.07882951
140	0xbd8d465c	-0.068981856
141	0x3d71e735	0.059058387
142	0x3d490906	0.04908087
143	0x3d1f7eba	0.038939215
144	0xbd97cdeb	-0.074123226
145	0xbd0091f5	-0.031389195
146	0xbce85412	-0.0283604
147	0x3ce4f22f	0.027947513
148	0x3d65122b	0.05592553
149	0x3afaf6c0	0.0019147024
150	0xbcdd7018	-0.02703099
151	0xbc9050d9	-0.017616676
152	0x3c010638	0.007875018
153	0x3d8773a8	0.066138566
154	0x3c0f2263	0.008736226
155	0x3d0669bd	0.032815684
156	0xbc1c5c41	-0.009543479
157	0x3d5c1830	0.053734004
158	0xbd78aefc	-0.060713753
159	0xbd33f9f9	-0.043939564
160	0x3ca9bb7b	0.02071928
161	0xbd39c300	-0.045351982
162	0xbab0769b	-0.0013463082
163	0xbd50a20b	-0.050935786
164	0xbc00904d	-0.007846904
165	0xbc37fc52	-0.011229591
166	0xbd868025	-0.065674104
167	0x3cc8406c	0.024444781
168	0xbd47cd4d	-0.048779774
169	0x3d93bd2b	0.07213815
170	0x3d9672f8	0.07346147
171	0x3d309e39	0.043119643
172	0xbd5d69e6	-0.05405607
173	0xbc96fd19	-0.018431233
174	0xbda319ba	-0.07963891
175	0xbd9bfb9c	-0.0761635
176	0x3d2f7dd6	0.042844616
177	0xbd2d0a74	-0.042246297
178	0x3cfb2b71	0.030660363
179	0xbcfbc56b	-0.030733785
180	0xbd7316bf	-0.059347864
181	0x3d11a032	0.035553165
182	0x3d9f0950	0.07765448
183	0xbc92e560	-0.01793164
184	0xbd664ce3	-0.05622567
185	0x3d7a3f4c	0.06109552
186	0xbd8ae318	-0.06781596
187	0xbd544779	-0.051825974
188	0x3d412093	0.047150206
189	0x3d969a30	0.07353628
190	0xbcd77562	-0.02630109
191	0xbd79268d	-0.06082778
192	0xbcdbee6d	-0.026847089
193	0xbd5fdfb1	-0.054656688
194	0x3d0b60d6	0.034027897
195	0xbd9b2693	-0.07575717
196	0x3d19170e	0.037375502
197	0x3d6a2a6c	0.057169363
198	0xbcba74e3	-0.022760814
199	0xbd01ced1	-0.031691376
200	0x3d72a1b1	0.059236232
201	0x3d8fbbe6	0.07018261
202	0xbd4ed2fb	-0.050494175
203	0xbd866e9a	-0.06564064
204	0xbd9273fd	-0.07151029
205	0x3da06841	0.07832385
206	0xbda1e73b	-0.07905432
207	0x3d865082	0.065583244
208	0x3d579142	0.052628763
209	0x3c0f3fd8	0.008743249
210	0xbcdca54d	-0.02693429
211	0x3bdf7c4c	0.0068202373
212	0xbd63c926	-0.055611752
213	0x3d8bc0c9	0.0682388
214	0x3d0da980	0.034585476
215	0x3ce76dd3	0.02825061
216	0xbd292601	-0.04129601
217	0xbcf7cc57	-0.030248804
218	0x3cbf4ddf	0.023352562
219	0xbad3830b	-0.0016137076
220	0x3d62925a	0.055315353
221	0x3d3008fc	0.04297732
222	0xbd34efd0	-0.044174016
223	0x3a80b0e0	0.0009818338
224	0x3d01e670	0.031713903
225	0x3c9f576c	0.019450866
226	0x3cf9fb26	0.030515265
227	0x3d9ec22e	0.077518806
228	0x3cda34e2	0.026636545
229	0x3b804394	0.003914306
230	0x3ca2b516	0.01986174
231	0x3da170f6	0.07882874
232	0xbd12c2da	-0.035830356
233	0xbca317fb	-0.019908896
234	0xbccf5124	-0.025307246
235	0x3cd9e0a9	0.026596384
236	0xbd05e25c	-0.032686576
237	0x3c639064	0.013889406
238	0x3d88782d	0.06663547
239	0xbd98bf68	-0.07458383
240	0xbd95fe7e	-0.07323931
241	0x3d2980f4	0.041382745
242	0xbc01778f	-0.00790204
243	0xbce86f1c	-0.028373294
244	0xbd19e96f	-0.037576135
245	0x3ba76bad	0.0051092715
246	0x3d727d15	0.05920132
247	0xbd29b600	-0.041433334
248	0xbb970e5c	-0.004609866
249	0x3d4a5eda	0.049406864
250	0xbd9ed6d3	-0.07755818
251	0x3c847c03	0.016172415
252	0xbc8f2fa6	-0.017478775
253	0xbd9b0d35	-0.075708784
254	0x3d5aec40	0.05344796
255	0x3d889aac	0.06670126

tree_conv.3.weights.weight f4 [128, 256, 3]
0	0x3b3d200f	0.002885822
1	0xbb844878	-0.0040369593
2	0x3b930407	0.004486564
3	0x3c9c197e	0.019055124
4	0xbce381a9	-0.027771788
5	0xbd0923d6	-0.03348144
6	0xbc81b88e	-0.015835073
7	0x3c85a776	0.016315203
8	0x3cac0d27	0.021002365
9	0x3cc7bb55	0.024381319
10	0x3ca705d7	0.020388527
11	0x3d0defbc	0.034652457
12	0x3cb1fe02	0.021727566
13	0x3bde6e7c	0.006788073
14	0xbce415ae	-0.027842369
15	0x3c25b3d0	0.010113671
16	0xbc3cee6f	-0.011531456
17	0xbd057508	-0.032582313
18	0xbbb5529f	-0.005533531
19	0x3b9d3e5f	0.004798695
20	0xbc28fe91	-0.0103146
21	0xbbeaa369	-0.0071605933
22	0x3cd637b3	0.026149606
23	0xbc885384	-0.016641386
24	0xbc93d011	-0.01804355
25	0x3d12d027	0.03584304
26	0x3cb7864d	0.022402907
27	0xbca4d982	-0.020123247
28	0xbccc8723	-0.024966782
29	0x3bad0100	0.00527966
30	0x3cfa8d18	0.030584857
31	0x3d098543	0.033574354
32	0xbd0f6eca	-0.035017766
33	0x3d071ed2	0.032988377
34	0xbcfa934f	-0.03058782
35	0xbc3a8899	-0.0113851065
36	0x3cd2e8e7	0.025745822
37	0x3c13b86b	0.009016137
38	0x3cb60a5f	0.022221742
39	0x3d06d2ff	0.032916065
40	0xbc4c49dd	-0.012468782
41	0x3cb1be1a	0.021697093
42	0xbce56c2b	-0.02800568
43	0x3c9f2f9c	0.019431882
44	0x3d04af51	0.032393757
45	0xbbe8117c	-0.0070821624
46	0x3c8d5e74	0.017256953
47	0xbcd4b25c	-0.025963955
48	0x3c2f5a14	0.010702629
49	0xbb20e776	-0.0024552024
50	0x3bc6882b	0.006058713
51	0x3bbfe785	0.0058564567
52	0x3d13c3a0	0.036075234
53	0xbcbd2333	-0.023088073
54	0xbc7c921d	-0.0154156955
55	0x3c6ea122	0.014564784
56	0xbcbdb476	-0.02315734
57	0xbc863c40	-0.016386151
58	0x3bdacb07	0.006677035
59	0xbbdaf61e	-0.0066821715
60	0xbc4973f0	-0.012295708
61	0x3caa6917	0.020802064
62	0xbccaa524	-0.024736948
63	0x3c865e95	0.016402522
64	0xbabd5047	-0.001444348
65	0xbba15066	-0.0049229143
66	0x3d03183b	0.03200553
67	0x3c409215	0.011753579
68	0x3bb4cfac	0.0055179205
69	0xbcfaa749	-0.030597346
70	0x3c4b2d76	0.012400975
71	0x3c12cdcc	0.008960199
72	0x3c978c4b	0.018499514
73	0xbcda84b9	-0.026674615
74	0x3cca6290	0.024705201
75	0x3ba62de9	0.005071391
76	0xbc98cdb6	-0.018652778
77	0x3c0f19b6	0.008734157
78	0x3d08763a	0.033315875
79	0xbcc4350a	-0.023951072
80	0xbb67f27b	-0.0035392332
81	0x3cd93803	0.026515966
82	0xbc97293b	-0.018452277
83	0xbce240ab	-0.027618727
84	0x3c206e88	0.009791978
85	0x3bcfe06a	0.006343891
86	0x3ca64126	0.020294737
87	0xbcf0c186	-0.029389154
88	0x3c2dbaf5	0.010603656
89	0xbc87c32c	-0.016572557
90	0x3c4cafca	0.012493083
91	0xbce1b72a	-0.02755316
92	0xbc93b6dd	-0.018031532
93	0xbd0786f1	-0.033087675
94	0x3c59d32c	0.013294976
95	0x3cbae5bd	0.022814626
96	0x3d0c595a	0.0342649
97	0xbd06e8b6	-0.032936774
98	0xbb8d5d28	-0.0043140836
99	0x3c76e3ae	0.0150689315
100	0x3c43b871	0.01194583
101	0x3ce249cb	0.027623078
102	0x3c58a1ae	0.013222141
103	0xbce7470c	-0.02823212
104	0xbcc47975	-0.023983696
105	0xbd0af778	-0.03392741
106	0x3c5da40b	0.01352788
107	0x3c642666	0.0139251705
108	0xb908d851	-0.00013050555
109	0xbc0c71bb	-0.008572037
110	0xbbab5c4e	-0.0052295094
111	0xbc54100a	-0.012943277
112	0xbb68618f	-0.003545854
113	0x3cf6a0a7	0.030105902
114	0xbc3e8f4d	-0.011630845
115	0x3ca80c48	0.020513669
116	0xbcacce69	-0.021094518
117	0x3d10a175	0.035310227
118	0x3cb7dc9a	0.022444058
119	0x3ce33427	0.02773483
120	0x3c2e735f	0.010647624
121	0xbb9541a5	-0.0045549446
122	0x3c9251b7	0.01786123
123	0x3c184d81	0.009295822
124	0xbbb1217b	-0.0054056025
125	0x3c21698d	0.009851825
126	0x3bc10907	0.0058909687
127	0xbbe3ca84	-0.006951632
128	0xbcad054a	-0.021120686
129	0xbcfc1c6a	-0.030775268
130	0x3c482381	0.012215496
131	0xbcb261b9	-0.021775113
132	0xbce5c5ba	-0.028048385
133	0x3c921a50	0.017834812
134	0x3cd35937	0.025799377
135	0x3c239c4f	0.009985997
136	0xba9b0d8c	-0.0011829599
137	0xbccfb645	-0.025355468
138	0xb9a71256	-0.00031866384
139	0xbcac51c7	-0.021035088
140	0xbd07be2e	-0.033140354
141	0xbd03bc88	-0.03216222
142	0x3ce6c936	0.028172117
143	0x3d0293ab	0.03187911
144	0x3d00d985	0.031457443
145	0x3b23d14b	0.0024996575
146	0x3d0e00ce	0.034668736
147	0xbcbcfbd4	-0.0230693
148	0x3cdd5588	0.027018324
149	0x3cec6b09	0.028859632
150	0x39b194a9	0.0003387083
151	0xbc2bdeed	-0.010490161
152	0xbc6ef831	-0.014585541
153	0x39f89524	0.00047413365
154	0xbc87d74c	-0.016582154
155	0x3bd1e44f	0.0064053903
156	0x3d1204a2	0.03564895
157	0x3c9379aa	0.01800235
158	0xba40767c	-0.00073418743
159	0xbc886a73	-0.016652321
160	0xbcc46938	-0.023975953
161	0xbcf2c57f	-0.02963519
162	0xbd030f08	-0.031996757
163	0x3c2533d4	0.010083158
164	0xbcfc32fb	-0.030786028
165	0x3ba8f187	0.0051557454
166	0xbc3c6ada	-0.011500085
167	0x3b3f9581	0.0029233398
168	0xbcbd1d1c	-0.02308517
169	0xbc266a4b	-0.010157178
170	0x38e0fcf7	0.00010728271
171	0xbd02d12b	-0.03193776
172	0x3c8d4a44	0.017247327
173	0x3c795c07	0.015219695
174	0xbc5f1b89	-0.013617405
175	0x3cbc0521	0.022951664
176	0x3cd182fe	0.025575157
177	0x3c6be428	0.014397658
178	0x3d07c477	0.033146348
179	0xba6d6a7a	-0.0009056699
180	0x3cb7ecaa	0.022451717
181	0xbbe42d86	-0.0069634346
182	0x3cbb0ed6	0.022834223
183	0x3c0fe5d5	0.008782824
184	0xbbf45145	-0.007455977
185	0xbce19ffb	-0.027542105
186	0xbc483016	-0.012218496
187	0xbbfbcc67	-0.007684279
188	0xbbbb5f6a	-0.0057181614
189	0xbc8f3a3c	-0.017483823
190	0x3c35547f	0.011067509
191	0x3beddf40	0.0072592795
192	0xbc9f8b1b	-0.01947551
193	0x3d0b627a	0.03402946
194	0xbd1030bb	-0.035202723
195	0x3c0c2e20	0.008555919
196	0x3d105e36	0.035246097
197	0xbc519e49	-0.012794086
198	0x3b8aa2d6	0.0042308373
199	0x3c804c40	0.015661359
200	0xbc2bf504	-0.010495428
201	0x3bcac5ee	0.006188146
202	0xbb9b1275	-0.004732425
203	0xbcc45f6f	-0.023971288
204	0x3d0645cf	0.03278142
205	0xbcbbe1ac	-0.022934757
206	0xbd096399	-0.03354225
207	0x3ca262d2	0.019822512
208	0x3ce59b24	0.028028078
209	0x3cee9ff0	0.029128999
210	0x3c49db78	0.012320392
211	0xbbc13bc1	-0.005897016
212	0xbc4d1ca3	-0.012519035
213	0xbb7f308d	-0.003893885
214	0x3b4a2b71	0.0030848647
215	0xbcab61b7	-0.020920618
216	0x3999f867	0.00029367508
217	0xbbc5a1f1	-0.006031268
218	0xbc872fe7	-0.016502334
219	0xbbbaca0c	-0.0057003554
220	0xbd0ce832	-0.034401126
221	0xbca2a7e1	-0.019855442
222	0x3aa7b94e	0.0012796314
223	0xbd05b94a	-0.03264741
224	0xbcf3410a	-0.029694099
225	0x3cc28820	0.02374655
226	0x3d0bf2a9	0.034166966
227	0x3d025d3d	0.0318272
228	0xbcf43aae	-0.029813137
229	0x3b17a8d7	0.0023141408
230	0x3c016c6f	0.007899388
231	0x3b4593eb	0.003014798
232	0x3d112901	0.035439495
233	0xbcda88e8	-0.02667661
234	0xbcf0efc9	-0.029411213
235	0x3cf8c660	0.03036803
236	0x3c793824	0.015211139
237	0xbc810f49	-0.015754359
238	0xbcae267d	-0.021258587
239	0x3cf46e1b	0.029837659
240	0xbc85404e	-0.016266014
241	0xb96afd16	-0.00022410261
242	0x3cef4866	0.029209327
243	0x3ca7b684	0.020472772
244	0xbd10cd0c	-0.035351798
245	0x3d019be4	0.03164281
246	0xbc164d96	-0.009173771
247	0xbbe855f0	-0.0070903227
248	0x3d088289	0.033327613
249	0x3c77dd1d	0.015128401
250	0xbcb20c6b	-0.021734437
251	0x3c8682b7	0.016419752
252	0xbc2d5907	-0.010580308
253	0xbc0d7e21	-0.0086360285
254	0x3ca46ef3	0.020072436
255	0xbad02bad	-0.0015882157

tree_conv.3.weights.bias f4 [128]
0	0x3c7e1c22	0.015509637
1	0x3d0eb9f9	0.034845326
2	0x3c256cda	0.010096753
3	0xbc706a70	-0.014673814
4	0x3c16a3f7	0.009194366
5	0x3c9c3d0b	0.019072076
6	0xbcb8345a	-0.0224859
7	0x3cc1dd0a	0.02366497
8	0xbc7b86e7	-0.015351987
9	0x3bec0213	0.0072023957
10	0xbd12211d	-0.03567611
11	0xbb9bafff	-0.004751205
12	0x3d028cd5	0.03187259
13	0xbbc88431	-0.006119274
14	0xbbfb07cb	-0.007660841
15	0x3c6209b0	0.013796255
16	0xbbd3c168	-0.006462265
17	0xbc67cef1	-0.01414846
18	0xbcc36f46	-0.02385677
19	0x3b9a6431	0.004711651
20	0xbc64cd6e	-0.013964994
21	0xbc8260bd	-0.015915269
22	0x3c5fee17	0.013667605
23	0x3cb8441a	0.02249341
24	0x3bf64ff2	0.0075168544
25	0x3b9b4d18	0.004739415
26	0x3caef3fa	0.021356571
27	0x3ca664ae	0.02031168
28	0x3c952b32	0.018209074
29	0xbd01e7e0	-0.031715274
30	0x3cac27a9	0.021015005
31	0xba91bfd0	-0.0011119787
32	0xbb2c80fa	-0.0026321993
33	0x3cdcb156	0.02694003
34	0xbc8541d4	-0.01626674
35	0xbcba1786	-0.022716295
36	0x3bdca516	0.006733547
37	0xbcf8ea84	-0.030385263
38	0xbc68c449	-0.014206954
39	0xbcbf915e	-0.023384746
40	0xbc762e0b	-0.015025626
41	0xbca85a5b	-0.020550897
42	0x3c019e7e	0.007911323
43	0xbd11e6cf	-0.035620507
44	0xbc96d372	-0.018411372
45	0x3bf3e87c	0.007443486
46	0x3cea640e	0.028612163
47	0xbc8bc0f4	-0.01705978
48	0x3cabec6e	0.020986762
49	0x3c91c0c7	0.017792119
50	0xbc50d45f	-0.012745946
51	0xbb688ab3	-0.0035483062
52	0x3c3249c1	0.010881842
53	0xbb328a68	-0.002724314
54	0xbcc536c3	-0.024073964
55	0x3ca2ff46	0.019897114
56	0x3c7c35e2	0.015393706
57	0x3cf583d4	0.029970087
58	0xbcf6c31b	-0.03012233
59	0xbc58264e	-0.013192726
60	0xbc664887	-0.014055378
61	0xbc3d62c7	-0.011559195
62	0x3c1f2481	0.009713293
63	0x3ceb99ab	0.028759798
64	0xbc977c1e	-0.0184918
65	0xbcaab6a9	-0.020839052
66	0x3cdf809a	0.027283002
67	0x3cb96942	0.022633199
68	0x3c7dfc06	0.015501982
69	0x3d09541e	0.033527486
70	0xbd0ecc39	-0.03486273
71	0x3cc0db78	0.02354215
72	0xbc58f9c0	-0.013243139
73	0xbc4a2247	-0.012337274
74	0xbb8a1677	-0.004214104
75	0x3d09ec5d	0.03367268
76	0xbc8f9066	-0.01752491
77	0x3ce62026	0.028091501
78	0xbc91d45d	-0.017801458
79	0xbc23225a	-0.0099569205
80	0x3d07e31b	0.03317557
81	0x3bcdbb31	0.0062784185
82	0xbcbd9e7f	-0.023146866
83	0x3c20ad72	0.009806978
84	0x3ace4bef	0.0015739183
85	0xbcb783d9	-0.022401737
86	0x3d0b971a	0.03407965
87	0x3ce4651e	0.027880248
88	0x3c442057	0.011970601
89	0x3c59b59d	0.013287929
90	0xbd009e15	-0.03140076
91	0xbcb7d581	-0.022440674
92	0x3cca3b80	0.024686575
93	0xbcd6ec8c	-0.026235841
94	0x3c4cc9ef	0.012499317
95	0x3d104ba2	0.03522838
96	0x3c28f23f	0.010311662
97	0xbc910dc3	-0.017706757
98	0x3c1df73f	0.009641468
99	0xbca70b0e	-0.020391013
100	0x3cc141aa	0.023590881
101	0xbc144250	-0.009049013
102	0xbbcb85b1	-0.0062110056
103	0xbb9a9ef0	-0.004718654
104	0x3cc2f73b	0.02379953
105	0xbcad7bac	-0.021177135
106	0x3cb98a86	0.022649061
107	0x3c5c724d	0.013454986
108	0x3c2fd938	0.010732941
109	0x3b70c769	0.0036739951
110	0x3d02a839	0.03189871
111	0xbcf4db81	-0.029889824
112	0xbce08e68	-0.027411655
113	0xbbc774e6	-0.0060869334
114	0xbcfa4ffd	-0.03055572
115	0x3c90c52a	0.01767214
116	0x3cf4b687	0.029872192
117	0xbd12fb51	-0.035884205
118	0x3ceb0dd2	0.028693113
119	0xbcb321d3	-0.021866715
120	0xbb3d91fa	-0.002892612
121	0x3b00363c	0.0019563576
122	0xbcf6a6d4	-0.030108847
123	0x3c6858ae	0.014181299
124	0x3d074496	0.033024393
125	0xbb99bdd7	-0.00469182
126	0xbc09836c	-0.00839315
127	0xbbf765fa	-0.0075499984

tree_conv.6.weights.weight f4 [64, 128, 3]
0	0xbd314268	-0.04327622
1	0xb95ce2ba	-0.00021065297
2	0x3d45f9c1	0.048333887
3	0x3d4d95f0	0.05019182
4	0x3c8e9de5	0.017409274
5	0xbcecc87e	-0.028904196
6	0x3d1978d8	0.03746876
7	0xbd40617a	-0.04696796
8	0xbd38e17f	-0.045136925
9	0x3d2dc87a	0.042427517
10	0x3cbd4aff	0.02310705
11	0x3d17a0ac	0.037018463
12	0x3ca755de	0.020426687
13	0x3cb28c24	0.02179534
14	0xbcb1ab83	-0.021688228
15	0xbd3d9095	-0.046280462
16	0xbc8d0250	-0.017213017
17	0x3cb44ce3	0.022009319
18	0xbce81dd5	-0.028334538
19	0xbd0c5a41	-0.03426576
20	0x3bf3cbc8	0.007440064
21	0xbc328f09	-0.01089836
22	0xbc7467a9	-0.014917293
23	0xbd00a3d7	-0.03140625
24	0x3c5326e0	0.0128876865
25	0x3ca6ddfc	0.020369522
26	0x3d41f657	0.04735407
27	0xbcc53bd8	-0.024076387
28	0x3d2b2f14	0.041792944
29	0x3c5d5a03	0.01351023
30	0x3c361565	0.011113499
31	0xbd2f71d3	-0.04283316
32	0x3c923fe7	0.017852737
33	0x3d2cb988	0.042169124
34	0xbbf391ac	-0.007433137
35	0x3c9125b6	0.017718177
36	0xbc902cb3	-0.01759944
37	0x3c32b4f6	0.010907402
38	0x3caa2b5b	0.020772627
39	0x3c95ef37	0.018302543
40	0x3bfd8713	0.0077370494
41	0x3cf168c6	0.029468905
42	0x3d43a289	0.047762427
43	0xbd103199	-0.03520355
44	0x3c5e6cde	0.013575761
45	0x3d3e91a8	0.046525627
46	0xbd001a86	-0.031275295
47	0xbd3801fb	-0.044923764
48	0x3c34fc5e	0.011046497
49	0x3d17dd5f	0.03707635
50	0xbd44d582	-0.04805518
51	0x3d26e0a8	0.040741593
52	0xbc51be4a	-0.012801716
53	0x3bc2227f	0.0059245224
54	0xbbe0b0ae	-0.0068569994
55	0xbc0b977c	-0.008520003
56	0xbba0ed6e	-0.0049111163
57	0x3d3e73c8	0.046497136
58	0x3d0fbee9	0.035094175
59	0x3ce5b0c2	0.028038386
60	0x3cc57676	0.024104338
61	0xbc49e941	-0.0123236785
62	0xbc8730c7	-0.016502751
63	0x3cc29edb	0.023757389
64	0x3d3472a7	0.044054653
65	0x3d0df74a	0.03465966
66	0xbc88c7dc	-0.016696863
67	0x3ce1bb51	0.02755514
68	0x3c93d1a9	0.01804431
69	0xbc3a8f46	-0.011386698
70	0xbcf0aac6	-0.029378306
71	0xbbc3f9f4	-0.0059807245
72	0xbc9aa757	-0.018878622
73	0x3bccdc2a	0.0062518315
74	0x3cc844a1	0.024446787
75	0xbd47ddea	-0.048795618
76	0xbd05ea9a	-0.032694437
77	0x3d271baf	0.040797886
78	0x3c2e8ae1	0.0106532285
79	0x3d369156	0.044572197
80	0xbc2a59dc	-0.010397401
81	0xbbf57f78	-0.007492002
82	0x3ce30b34	0.027715303
83	0xbc722b99	-0.014780902
84	0x3d1bb029	0.038009796
85	0x3bdef330	0.0068038926
86	0xbc6102ab	-0.013733546
87	0x3d23d65e	0.03999936
88	0xbcf738a4	-0.030178376
89	0x3d2baca1	0.04191268
90	0x3c15ad1b	0.00913551
91	0x3c938a6c	0.01801034
92	0xbca48b33	-0.020085907
93	0xba3e0586	-0.0007248748
94	0xbc6b560c	-0.014363777
95	0xbc65c763	-0.014024588
96	0x3ccda2b2	0.025101993
97	0x3c13f719	0.009031081
98	0x3d188c64	0.037243262
99	0x3d3af691	0.0456453
100	0xbca9f345	-0.020745883
101	0xbce28e70	-0.02765581
102	0xbc4cfdab	-0.012511651
103	0xbd11bc0f	-0.035579737
104	0x3d24c2d8	0.04022488
105	0xbc395348	-0.01131136
106	0x3d0bbd06	0.034115814
107	0x3b82c714	0.003991017
108	0x3d1a719b	0.037706
109	0x3d3f0848	0.046638757
110	0x3cc11bd1	0.023572834
111	0xbcd1eee0	-0.0256266
112	0x3d281efd	0.041045178
113	0xbd186844	-0.03720881
114	0x3bc20bc2	0.005921812
115	0xbc9db5fb	-0.019251814
116	0x3b80f553	0.003935495
117	0xbc7188e9	-0.014742115
118	0x3c743655	0.014905532
119	0x3d26bfe6	0.040710352
120	0x3c3e7e97	0.011626861
121	0xbd15fc32	-0.036617465
122	0x3c8739a8	0.016506985
123	0x3d191108	0.037369758
124	0xb9d6f1ca	-0.00040997408
125	0x3b8131d6	0.0039427085
126	0xbbe34d69	-0.0069367182
127	0x3c55bcd3	0.0130455075
128	0xbb7c008b	-0.0038452472
129	0x3bee9283	0.007280649
130	0x3ba73c6f	0.00510364
131	0x3d2e25b4	0.042516425
132	0xbbdbb1fe	-0.006704568
133	0xbb8d734c	-0.004316723
134	0x3c33af41	0.010967077
135	0xbc5b20c6	-0.013374513
136	0x3ceafa91	0.028683932
137	0xbcd83179	-0.026390778
138	0xbd1d5c48	-0.038418084
139	0x3d024e23	0.0318128
140	0x3d3a8b42	0.045542963
141	0xbd03b35e	-0.03215348
142	0x3d493ba1	0.049129132
143	0xbb56bf4c	-0.003276783
144	0xbd0470d6	-0.03233417
145	0x3cdb27d3	0.026752388
146	0xbca340c8	-0.019928351
147	0x3d2913ff	0.041278835
148	0xbbcccab2	-0.006249749
149	0xbc93203d	-0.017959708
150	0xbcc6aea3	-0.024253195
151	0xbcd107a4	-0.025516339
152	0x3cc96c5b	0.0245878
153	0xbd016813	-0.031593394
154	0xbb875763	-0.0041302904
155	0x3cd5c456	0.026094597
156	0x3d18a8e7	0.037270453
157	0xbd28b7c3	-0.041190874
158	0x3c820d15	0.015875379
159	0x3be749e8	0.007058371
160	0xbbcfeafe	-0.006345152
161	0xbcd17905	-0.025570402
162	0x3cd25815	0.025676766
163	0x3c7ad053	0.015308457
164	0xbc90c258	-0.017670795
165	0x3ca2dd07	0.019880785
166	0x3d4bd436	0.049762927
167	0x3c813dd1	0.015776547
168	0x3d4d7feb	0.05017082
169	0x3c40335a	0.011730993
170	0x3cb426ae	0.0219911
171	0xbd18ebc0	-0.037334204
172	0xbd06467b	-0.03278206
173	0xbd14e605	-0.036352176
174	0xbd2a0679	-0.04151008
175	0x3d10ab3a	0.035319544
176	0x3c92d667	0.0179245
177	0xbbb1223f	-0.005405694
178	0xbd4f684e	-0.050636582
179	0x3c5c6a4c	0.0134530775
180	0xbb4ee20b	-0.0031567838
181	0x3ca42328	0.020036295
182	0x3ce23832	0.027614687
183	0x3d0f1ea5	0.034941334
184	0xbc80ed4d	-0.015738154
185	0xbd438ecf	-0.047743615
186	0xbcff04fe	-0.03113031
187	0x3ccb3ba6	0.024808716
188	0xbccb7c72	-0.024839614
189	0x3c1c45e1	0.009538145
190	0x3d395597	0.04524764
191	0xbd4b22e9	-0.04959384
192	0xbc8b59e8	-0.017010644
193	0xbc739eaf	-0.014869376
194	0x3d2095b2	0.03920526
195	0xbc0bb54a	-0.008527109
196	0x3ca8427b	0.020539513
197	0xbced1040	-0.028938413
198	0xbd391010	-0.045181334
199	0x3d0ef06d	0.034897257
200	0xbcfe1192	-0.031014238
201	0x3d0d20b3	0.034455013
202	0xbd4d77d9	-0.050163124
203	0x3caf868a	0.021426458
204	0x3d0169d0	0.03159505
205	0xbd0618c4	-0.032738462
206	0x3d50532b	0.050860565
207	0x3c0fcbb4	0.008776594
208	0x3d176dd9	0.036969993
209	0xba479725	-0.000761377
210	0xbc26d480	-0.0101825
211	0x3b1ffc52	0.002441187
212	0x3cee9c3f	0.029127238
213	0x3d0b16c2	0.03395725
214	0x3d09711a	0.033555128
215	0xbc233b90	-0.009962931
216	0xbd0678f6	-0.0328302
217	0x3c00f7e9	0.007871606
218	0x3be1ac04	0.006886961
219	0xbbba3aba	-0.0056832703
220	0x3c0f2794	0.0087374635
221	0xbcc09070	-0.023506373
222	0x3cc2d051	0.023780974
223	0xbd0c90e2	-0.03431786
224	0x3ca1645a	0.019701172
225	0x3ac72cb7	0.0015195821
226	0xbc136f70	-0.008998737
227	0xbd341382	-0.043963917
228	0x3d0062e0	0.031344295
229	0x3ca52db0	0.020163387
230	0x3c4eb1d4	0.01261564
231	0xbcd768a9	-0.026295023
232	0x3d42837f	0.047488686
233	0x3d24633b	0.040133696
234	0x3b6c70ae	0.0036077905
235	0xbc932ac3	-0.017964726
236	0x3c8fe4e2	0.017565195
237	0xbbd8cdb5	-0.006616319
238	0x3d4d0efb	0.050063115
239	0xbc93a39e	-0.018022355
240	0xbca5b8c6	-0.020229708
241	0xbca38278	-0.019959673
242	0x3c13e695	0.009027143
243	0x3b27dbc2	0.0025613164
244	0xba0cd2e1	-0.00053719996
245	0x3d344f97	0.044021215
246	0x3c447443	0.01199061
247	0x3d40994a	0.047021188
248	0x3d242961	0.040078525
249	0xbd154e0a	-0.036451377
250	0xbbc3111a	-0.0059529664
251	0xbca567f5	-0.020191172
252	0x3ca4f3eb	0.02013584
253	0xbd40f1f9	-0.047105763
254	0x3ca24196	0.019806664
255	0x3b0bb072	0.0021314886

tree_conv.6.weights.bias f4 [64]
0	0xbba6725f	-0.005079552
1	0x3cbc9794	0.023021497
2	0xbccd6021	-0.025070252
3	0x3d129bae	0.035793
4	0xbcbf5cf5	-0.023359755
5	0x3c22ed35	0.00994425
6	0xbbd64901	-0.0065394645
7	0xbc9dfd36	-0.01928578
8	0xbd22352e	-0.039601497
9	0xbc9c286c	-0.019062243
10	0xbca327cd	-0.01991644
11	0x3d0d7022	0.034530766
12	0xbb6e2787	-0.0036339478
13	0x3c97c53e	0.01852667
14	0x3c8f4742	0.017490033
15	0x39c76835	0.00038033878
16	0xbc4937a6	-0.012281334
17	0x3cc3dcf6	0.023909073
18	0x3d1a621d	0.037691224
19	0x3d460dae	0.04835289
20	0xba88a306	-0.0010424561
21	0xbc2684b7	-0.010163478
22	0xbd43bda8	-0.047788292
23	0xbca6fc6b	-0.020384034
24	0xbbe2462c	-0.006905338
25	0x3d0cbe48	0.034361154
26	0xbc629462	-0.0138293225
27	0xbcb4cfbe	-0.022071715
28	0xbcabf506	-0.02099086
29	0xbce9b65f	-0.028529344
30	0xbc8acbec	-0.01694294
31	0xbd4d748e	-0.050159983
32	0xbd4c52d8	-0.049883693
33	0xbb361f4a	-0.0027789646
34	0xbb6ca205	-0.0036107313
35	0xbd0a271f	-0.033728715
36	0x3d303b7b	0.043025475
37	0x3d233821	0.03984845
38	0xbd268857	-0.040657368
39	0xbcaa90c8	-0.02082099
40	0xbd5398ae	-0.05165928
41	0xbb99b9b1	-0.0046913256
42	0xbcffd141	-0.03122771
43	0xbd14f76b	-0.03636877
44	0xbd000777	-0.03125712
45	0xbd1b8760	-0.0379709
46	0x3bcabd66	0.006187129
47	0x3c18296e	0.009287221
48	0xbcb5b174	-0.022179343
49	0x3b888103	0.00416577
50	0xbad561c2	-0.0016279744
51	0xbc2ff911	-0.010740534
52	0x3d02771b	0.03185187
53	0x3d30e91d	0.043191064
54	0x3c96832e	0.018373098
55	0xbd469190	-0.048478663
56	0xbd3c06af	-0.04590481
57	0x3d31985f	0.043358203
58	0x3d4f6c68	0.050640494
59	0xbd144598	-0.036199182
60	0xbc9cda97	-0.0191472
61	0x3cb81b61	0.022473993
62	0xbcb819a8	-0.022473171
63	0x3cab494c	0.020908974

tree_conv.9.weight f4 [64]
0	0x3f8017b5	1.0007235
1	0x3f7fde28	0.9994836
2	0x3f8015f5	1.0006701
3	0x3f8015e4	1.000668
4	0x3f7fe350	0.99956226
5	0x3f80157a	1.0006554
6	0x3f7fe8a5	0.9996436
7	0x3f801a8b	1.00081
8	0x3f800701	1.0002137
9	0x3f80047d	1.000137
10	0x3f801b6e	1.0008371
11	0x3f801a6b	1.0008062
12	0x3f80192d	1.0007683
13	0x3f7fdd25	0.99946815
14	0x3f80151d	1.0006443
15	0x3f8003db	1.0001177
16	0x3f80197d	1.0007778
17	0x3f801133	1.0005249
18	0x3f7fd252	0.999303
19	0x3f7fd4df	0.9993419
20	0x3f801ae5	1.0008208
21	0x3f8015fa	1.0006707
22	0x3f80113b	1.0005258
23	0x3f8016a3	1.0006908
24	0x3f801b81	1.0008394
25	0x3f8019af	1.0007838
26	0x3f7fd6eb	0.99937314
27	0x3f801845	1.0007406
28	0x3f801bcf	1.0008487
29	0x3f80063e	1.0001905
30	0x3f8015d0	1.0006657
31	0x3f801838	1.0007391
32	0x3f800e7a	1.0004418
33	0x3f800016	1.0000026
34	0x3f7fe98c	0.9996574
35	0x3f8003e7	1.0001191
36	0x3f801950	1.0007725
37	0x3f8018a0	1.0007515
38	0x3f7fee1d	0.9997271
39	0x3f7fe7c3	0.99963015
40	0x3f7ff770	0.99986935
41	0x3f80188e	1.0007493
42	0x3f8014b8	1.0006323
43	0x3f801560	1.0006523
44	0x3f801939	1.0007697
45	0x3f800fbc	1.0004802
46	0x3f8016e5	1.0006987
47	0x3f8004b7	1.0001439
48	0x3f8014e9	1.0006381
49	0x3f7fded9	0.99949414
50	0x3f8018a6	1.0007522
51	0x3f801bec	1.0008521
52	0x3f7fe727	0.99962085
53	0x3f7fe506	0.9995884
54	0x3f801aac	1.000814
55	0x3f801835	1.0007387
56	0x3f800283	1.0000767
57	0x3f7ff2f3	0.99980086
58	0x3f7ff12c	0.99977374
59	0x3f7fd99c	0.9994142
60	0x3f8019d4	1.0007882
61	0x3f801697	1.0006894
62	0x3f7ff085	0.9997638
63	0x3f7fdf87	0.9995045

tree_conv.9.bias f4 [64]
0	0xba1bb062	-0.0005939064
1	0x3a5e7a0a	0.0008486813
2	0xba3a03ab	-0.00070958835
3	0x3a353f48	0.00069140317
4	0xba4202d7	-0.0007400936
5	0xb9d5c117	-0.0004077039
6	0xba3ff0dc	-0.00073219626
7	0xba454dfb	-0.00075265736
8	0x3a21bbb5	0.0006169633
9	0xba2bf2d0	-0.0006559314
10	0xba360788	-0.0006943871
11	0x3a36168f	0.00069461105
12	0xba096b6e	-0.00052421435
13	0x3a50ba20	0.0007962305
14	0x3a4212f5	0.00074033375
15	0x3a525eea	0.00080250076
16	0xba2d4985	-0.00066103815
17	0x3a19159b	0.0005839706
18	0x3a286c1e	0.0006424802
19	0x3a260366	0.0006332904
20	0xba42ad99	-0.0007426381
21	0xba4ceff8	-0.00078177406
22	0x3a46db1b	0.000758575
23	0x3a34a19a	0.00068905356
24	0xb9f96173	-0.00047565586
25	0x393a98f0	0.00017795316
26	0x3a3f8d2a	0.0007307107
27	0x3a363056	0.00069499516
28	0xba445171	-0.00074889424
29	0x3a2c9332	0.0006583213
30	0xb8e83155	-0.00011071811
31	0xb8b9c740	-8.8586006e-05
32	0xba267e72	-0.0006351239
33	0xba35db72	-0.0006937302
34	0x3a3f1031	0.00072884845
35	0xba40b571	-0.00073512556
36	0x3a375550	0.00069936085
37	0xba3245e4	-0.00068005756
38	0x3a46bb0b	0.0007580972
39	0xb94cb544	-0.00019522483
40	0x3a26b95e	0.00063600193
41	0x3a339afa	0.00068514014
42	0x3a48eabb	0.0007664372
43	0x3a2ed6f6	0.0006669605
44	0xba4a2617	-0.00077113643
45	0x3a2a3e18	0.0006494238
46	0xba50b651	-0.00079617376
47	0x3a6002f5	0.00085453625
48	0xba445aad	-0.00074903184
49	0x3a2e1031	0.0006639986
50	0xb9fa4afc	-0.00047739584
51	0xba3491bb	-0.00068881706
52	0x3a36d461	0.0006974396
53	0xba3741fd	-0.0006990729
54	0x3a1edfcb	0.00060605694
55	0xba48c967	-0.0007659406
56	0xba3e6882	-0.00072634977
57	0xba38728c	-0.0007036112
58	0xba39913f	-0.00070788333
59	0x3a469f67	0.00075768534
60	0xba33eaa1	-0.00068632705
61	0xba371ee4	-0.0006985499
62	0x3a30e509	0.0006747996
63	0x3a326fbd	0.00068068114

tree_conv.9.running_mean f4 [64]
0	0x4085b872	4.1787653
1	0x402b27c6	2.6743026
2	0x40755579	3.8333418
3	0x4055c227	3.339975
4	0xbd04490c	-0.032296225
5	0x4027ec91	2.6238139
6	0x3fdf5952	1.7449133
7	0x407929af	3.8931692
8	0xbb9424c3	-0.004520984
9	0x3e009048	0.12555039
10	0x3f900d2f	1.1254023
11	0x3fa95ebd	1.3232037
12	0x401ff9a4	2.4996119
13	0x4044d437	3.0754526
14	0x3ff44568	1.9083681
15	0x409ee0dc	4.9649487
16	0x4061c072	3.527371
17	0x4096e78f	4.7157664
18	0x3fef2159	1.8682052
19	0x3f5b4566	0.8565277
20	0x404e401d	3.2226632
21	0x4045c26a	3.089991
22	0x3f595a71	0.8490363
23	0x40944b31	4.6341786
24	0x406fa10a	3.744204
25	0x40aeb246	5.459262
26	0x40a991a9	5.299031
27	0x403bbbca	2.9333367
28	0x406d4d71	3.7078516
29	0x403db5ee	2.964229
30	0x3f7fc938	0.9991641
31	0x4054c37c	3.3244314
32	0x40d9f55e	6.811202
33	0x404bcfaa	3.1845498
34	0x4081965a	4.0496035
35	0x3f315acd	0.69279176
36	0x3eb92c70	0.36166716
37	0x3ffb2778	1.962142
38	0x3fab0040	1.3359451
39	0x407e0065	3.968774
40	0x40c90ffc	6.283201
41	0x40995b32	4.7923822
42	0x3f99a105	1.2002264
43	0x402544c1	2.5823214
44	0x40bc1b2e	5.878318
45	0x40376abe	2.86589
46	0x400d99e4	2.2125177
47	0x408063db	4.0121894
48	0x3f93df46	1.1552513
49	0x40b75fc9	5.7304425
50	0x4091ab9a	4.5521975
51	0x40c8f9c5	6.2804894
52	0x404b5412	3.1770062
53	0x3f999b5a	1.2000535
54	0x3f11454f	0.5674638
55	0x402dc50e	2.7151523
56	0x3dcff9bf	0.10155057
57	0x4072c842	3.7934728
58	0x408fb7dc	4.491194
59	0x3fbbfafc	1.4685969
60	0x3fd7cc72	1.6859267
61	0x40622efe	3.5341182
62	0x3fc68d2a	1.551183
63	0x4041ceb1	3.0282404

tree_conv.9.running_var f4 [64]
0	0x3f793839	0.97351414
1	0x3f4f8788	0.8106618
2	0x3f6c898d	0.92397386
3	0x3f3796fe	0.7171477
4	0x3c9cf630	0.01916036
5	0x3f30340c	0.6882942
6	0x3f32cff8	0.69848585
7	0x3f250202	0.6445619
8	0x3d5385cb	0.051641267
9	0x3e4ec0a7	0.20190679
10	0x3f392300	0.7231903
11	0x3f3715e7	0.71517795
12	0x3f419951	0.7562457
13	0x3f8a0f15	1.0785853
14	0x3f848343	1.0352558
15	0x3fff4d16	1.99454
16	0x3f2592eb	0.64677304
17	0x40217c09	2.5231955
18	0x3f06ae1a	0.5260941
19	0x3fb59199	1.4185058
20	0x4020c953	2.5122879
21	0x3f12b3e2	0.5730573
22	0x3f3c125a	0.734655
23	0x3f63832b	0.8887202
24	0x3f227b56	0.63469446
25	0x3fbbd7ae	1.4675195
26	0x3f96dd66	1.1786315
27	0x3f29025c	0.66019225
28	0x3fa771f9	1.3081657
29	0x3fa83aad	1.3142906
30	0x3f83ff3e	1.0312269
31	0x3f1448ef	0.5792379
32	0x400f0346	2.2345748
33	0x3f46cc79	0.7765575
34	0x4000963e	2.00917
35	0x3eef0072	0.46680027
36	0x3e2c6a86	0.1683751
37	0x3f187de3	0.5956709
38	0x3f1be288	0.60892534
39	0x3f9561dd	1.167049
40	0x3fc93ba4	1.5721326
41	0x4019c8b7	2.4028757
42	0x3f3bba76	0.7333139
43	0x3fab0866	1.3361938
44	0x3fc7042a	1.5548146
45	0x3fcf60b8	1.6201391
46	0x3f2b99c3	0.67031497
47	0x3f4fee10	0.8122263
48	0x3dd0f838	0.10203594
49	0x3fe4a66b	1.7863287
50	0x3f9c570a	1.2214062
51	0x3fdbe166	1.7178161
52	0x3f634bcf	0.8878755
53	0x3e8e01ac	0.2773565
54	0x3ee2a287	0.44264624
55	0x3f41e4bb	0.7573964
56	0x3d95814c	0.07300052
57	0x3f5adb7c	0.85491157
58	0x3fa7ac87	1.3099526
59	0x3ef982b9	0.48732546
60	0x3ed99804	0.4249879
61	0x3f3d90d2	0.74049103
62	0x3fa2154a	1.2662747
63	0x3f20929d	0.62723714

tree_conv.10.weight f4 [32, 64]
0	0xbc8f47f9	-0.017490374
1	0x3d67deea	0.05660907
2	0x3d9dd120	0.07705903
3	0x3dc1a3da	0.0945508
4	0x3c0660c9	0.008201786
5	0x3df54ec7	0.11977916
6	0xbcaa323b	-0.020775905
7	0xbdb503a1	-0.08838583
8	0x3d8c4bf2	0.06850423
9	0x3cab2229	0.020890312
10	0xbdcead0b	-0.10091599
11	0x3dd686e0	0.10474944
12	0x3da3e7b8	0.08003181
13	0xbde0e4c5	-0.10981134
14	0xbd8cfa90	-0.068837285
15	0x3cc5ba3b	0.024136653
16	0xbdb62179	-0.08893103
17	0xbdcf2c80	-0.101159096
18	0x3c8f029b	0.017457297
19	0xbbd0cb73	-0.0063719093
20	0xbd6bc008	-0.057556182
21	0x3d51ccd7	0.05122074
22	0xbdc21e74	-0.09478465
23	0x3c17d586	0.009267217
24	0xbce77ba3	-0.028257197
25	0x3de95fb4	0.11395207
26	0x3d4f8301	0.050662044
27	0x3d997536	0.07493059
28	0xbdb1cfb8	-0.08682197
29	0x3acd5829	0.0015666533
30	0xbdcb183c	-0.09916732
31	0xbbce1fbc	-0.006290404
32	0xbd8beab9	-0.06831879
33	0xbd936d99	-0.071986385
34	0x3d9cad1f	0.07650208
35	0xbce801ad	-0.028321112
36	0x3d75c54f	0.06000262
37	0xbd2a1b0d	-0.041529704
38	0x3d9be811	0.076126225
39	0xbd55a01f	-0.052154656
40	0x3dbee73e	0.0932145
41	0x3db32377	0.08746999
42	0x3de8e5fd	0.11371992
43	0xbd6d1b97	-0.05788764
44	0xbd99e218	-0.07513827
45	0x3d28560f	0.041097697
46	0xbde43f54	-0.111448914
47	0x3ce0abd4	0.027425684
48	0x3dc689dc	0.09694263
49	0x3dade136	0.08490221
50	0x3c0d6f7d	0.008632538
51	0xbc81cc8d	-0.015844608
52	0xbcdbc206	-0.026825916
53	0x3dd67b84	0.104727775
54	0xbd78ea01	-0.06077004
55	0xbdbc0086	-0.09179787
56	0xbcf2562d	-0.029582107
57	0x3cf3c24b	0.029755732
58	0x3d860480	0.06543827
59	0x3d40174f	0.04689723
60	0x3c80fe47	0.015746249
61	0x3d857dc0	0.065181255
62	0xbd19a7d6	-0.037513576
63	0x3de08c44	0.109642535
64	0x3d5aa3d8	0.05337891
65	0x3cd50589	0.026003616
66	0x3ddcfeec	0.1079081
67	0xbca8353c	-0.020533197
68	0x3dac3fac	0.08410582
69	0xbd1b48e5	-0.037911315
70	0x3c81cc4c	0.015844487
71	0xbdd77ba0	-0.105216265
72	0xbd85d310	-0.065343976
73	0x3c16e07d	0.009208796
74	0x3dddc2d3	0.108281754
75	0xbd3fb64c	-0.04680471
76	0xbb023b3f	-0.001987174
77	0xbdd19d9f	-0.10235142
78	0x3d5e4828	0.054268032
79	0x3dcff3c1	0.10153914
80	0xbd54f69a	-0.05199299
81	0xbda2d38a	-0.07950504
82	0xbd817574	-0.063212305
83	0x3d9eb1cd	0.077487566
84	0x3dcd3cda	0.10021372
85	0xbdfb53ba	-0.12271829
86	0x3c0d2f07	0.008617169
87	0x3d115031	0.035476867
88	0x3d7fda3e	0.06246399
89	0x3d9e100a	0.07717903
90	0x3cf0bc22	0.029386584
91	0xbdaa1282	-0.08304311
92	0xbdcb9135	-0.099398054
93	0xbdd7ef79	-0.10543723
94	0xbcb52465	-0.02211208
95	0x3dbd1070	0.09231651
96	0x3df53da4	0.11974648
97	0x3bf11160	0.0073568076
98	0xbdf9d84e	-0.1219946
99	0xbc8adcbb	-0.016950956
100	0x3b2cf049	0.0026388338
101	0xbb6f1f22	-0.0036487062
102	0x3b6f68a6	0.0036530881
103	0x3cfadc9e	0.030622777
104	0xbdbbb84d	-0.09166012
105	0x3dca349a	0.09873314
106	0xbd85376d	-0.06504712
107	0x3de3e2c0	0.111272335
108	0x3d76702b	0.060165565
109	0x3d966ea7	0.07345324
110	0x3d32eca9	0.043682728
111	0xbda8707c	-0.0822458
112	0xbd86dc0f	-0.065849416
113	0xbdab9bcc	-0.08379325
114	0x3d58e2a0	0.0529505
115	0xbcb16689	-0.021655338
116	0xbde943d2	-0.11389889
117	0x3c7dc06e	0.015487773
118	0xbd17c88e	-0.0370565
119	0xbd6e2a93	-0.05814607
120	0xbd63113c	-0.055436358
121	0x3c851bcb	0.016248604
122	0x3da35d6f	0.079768054
123	0xbd37bc23	-0.044857156
124	0xbd84ea07	-0.0648995
125	0x3da3c822	0.07997157
126	0xbd400942	-0.04688383
127	0xbdda93f5	-0.10672752
128	0xbd032e39	-0.032026503
129	0xbcc648a9	-0.024204569
130	0xbdb27830	-0.0871433
131	0xbda62770	-0.08112991
132	0xbd61ff78	-0.055175275
133	0x3db64cea	0.08901389
134	0x3db85b87	0.090018325
135	0xbdec64d5	-0.1154267
136	0xbd9dc59b	-0.07703706
137	0x3dea14a9	0.11429722
138	0x3df291a0	0.11844182
139	0xbdf19fe9	-0.117980786
140	0x3d107099	0.03526363
141	0x3be527e6	0.0069932817
142	0x3da8ea44	0.082478076
143	0xbdfe58d6	-0.12419288
144	0x3c9e687d	0.019336933
145	0x3deb59aa	0.114917114
146	0xbdc56dfb	-0.09640118
147	0x3dba26d4	0.09089437
148	0xbdc3ec75	-0.09566585
149	0x3d53cd6e	0.051709585
150	0xbbcc3436	-0.00623181
151	0x3db7b8a2	0.08970763
152	0x3d91a407	0.07111364
153	0xbd9753db	-0.07389041
154	0xbd179664	-0.037008658
155	0xbdcd8a42	-0.10036136
156	0xbdf2d811	-0.11857618
157	0xbd0217fe	-0.031761162
158	0xbc081ba7	-0.008307374
159	0x3cd8c5bf	0.02646148
160	0xbd169385	-0.03676178
161	0x3db48510	0.08814442
162	0x3dbd8bef	0.09255206
163	0x3d98d262	0.07462002
164	0xbd1b2fb1	-0.03788728
165	0x3d62d21d	0.05537616
166	0xbc3cad59	-0.011515939
167	0x3d816d69	0.063196965
168	0xbde1528f	-0.11002075
169	0x3db30e56	0.08742969
170	0xbd1dc6f6	-0.038519822
171	0xbdd95607	-0.106121115
172	0xbd3686f4	-0.044562295
173	0xbd1c14d3	-0.038105797
174	0xbcd2d139	-0.02573453
175	0x3dc754a0	0.09732938
176	0xbd3c6a64	-0.0459999
177	0x3d5783dc	0.052615985
178	0x3dc88620	0.09791207
179	0xbdcd54ce	-0.10025941
180	0xbdb3d70a	-0.0878125
181	0x3bdc6ee7	0.006727088
182	0x3aea640f	0.0017882603
183	0xbd89918f	-0.06717216
184	0x3daae496	0.083443806
185	0x3d8955be	0.06705807
186	0xbca207ed	-0.01977917
187	0x3ce6e4b6	0.02818523
188	0xbcd2a004	-0.025711067
189	0xbcf1cb6b	-0.029515943
190	0xbdd5d588	-0.104411185
191	0xbda2f73d	-0.07957313
192	0xbd0bfd96	-0.034177385
193	0x3c9255fb	0.017863264
194	0x3dbe2dc7	0.09286075
195	0xbda0e829	-0.07856781
196	0xbdc5e401	-0.09662629
197	0xbc63e09f	-0.013908534
198	0x3b726c7a	0.0036990927
199	0xbdeaa85c	-0.11457893
200	0xbd23740e	-0.0399056
201	0x3dfe70eb	0.12423881
202	0xbd14e0bf	-0.036347147
203	0x3d54a571	0.05191559
204	0x3bde2aa1	0.006779984
205	0x3d15eb80	0.036601543
206	0xbdb6ecd7	-0.08931892
207	0x3db92a11	0.09041227
208	0xbb6dbf41	-0.0036277326
209	0xbdbffe71	-0.09374703
210	0xbd9dd843	-0.07707264
211	0xbd5fca15	-0.05463608
212	0xbd94a0e1	-0.07257248
213	0x3de871e0	0.11349845
214	0xb9430f4b	-0.00018602346
215	0x3da8723a	0.08224912
216	0x3dd41604	0.10355762
217	0xbdade5b4	-0.08491078
218	0xbda38984	-0.079852134
219	0xbd2048c7	-0.039131906
220	0x3ce044c6	0.027376544
221	0xbdc673e7	-0.09690075
222	0xbb9d98fe	-0.004809498
223	0x3d449e18	0.048002332
224	0x3d45034c	0.048098847
225	0xbd5b3e94	-0.053526476
226	0x3d2d8ce9	0.04237071
227	0xbb9cbf14	-0.0047835205
228	0xbdf4712a	-0.11935647
229	0x3dc86cc2	0.09786369
230	0xbd95dc42	-0.073174015
231	0x3dd77645	0.10520605
232	0x3d5aa195	0.053376753
233	0xbcd93559	-0.026514696
234	0xbd5357b3	-0.05159731
235	0x3c9f36bf	0.019435285
236	0x3cf2a7a7	0.029620958
237	0xbdb298c3	-0.08720543
238	0xbd1c559e	-0.03816759
239	0x3db39420	0.08768487
240	0xbdf0107a	-0.11721893
241	0x3de12859	0.10994024
242	0x3be8ebb5	0.0071081766
243	0xbdaf93a6	-0.085730836
244	0xbca67ed2	-0.020324145
245	0xbd1f217a	-0.038850285
246	0xbd6a149c	-0.05714856
247	0xbce380d5	-0.027771393
248	0xbd9c1444	-0.07621053
249	0x3cc5cda9	0.024145918
250	0xbdc9cd65	-0.09853629
251	0xbdc07a00	-0.0939827
252	0x3dd1a8cf	0.10237276
253	0x3ca4699d	0.020069892
254	0x3d1971d6	0.037462078
255	0xbd4915b1	-0.049092952

tree_conv.10.bias f4 [32]
0	0x3df87159	0.12130994
1	0xbdc05394	-0.09390941
2	0xbde84984	-0.11342147
3	0x3b772ec4	0.0037717083
4	0x3d579533	0.05263252
5	0x3dfadaff	0.122488014
6	0xbc7536d8	-0.014966689
7	0x3cafbe22	0.021452967
8	0xbd8fce80	-0.070218086
9	0x3d1e7eb3	0.03869505
10	0x3de07be3	0.109611295
11	0xbd91d0b4	-0.07119885
12	0x3b5f1f38	0.0034045707
13	0x3d38576d	0.04500525
14	0x3c27968e	0.010228766
15	0xbd52b762	-0.05144442
16	0xbdf181a1	-0.11792303
17	0xbd73b2f9	-0.059496854
18	0x3d4c81a1	0.04992831
19	0xbcd4d063	-0.025978273
20	0xbd63327c	-0.055468068
21	0x3d9a52e5	0.07535342
22	0xbd977927	-0.07396155
23	0xbd3e3f19	-0.046446893
24	0xbdd4a42e	-0.10382877
25	0x3d605b69	0.054774676
26	0xbdc2b6bc	-0.0950751
27	0xbd304380	-0.043033123
28	0x3dbf305b	0.09335395
29	0xbcb1d008	-0.021705642
30	0xbd950181	-0.072756775
31	0x3dd2ac94	0.10286823
