src/Models/cost.onnx (onnx, 681599 bytes, 15 tensors)

tree_conv.0.weights.weight f4 [256, 50, 3]
0.02180295 -0.07161387 -0.0041829445 -0.053451248 0.06873721 0.06333772 0.060262572 0.0014695582
0.06845238 -0.05335919 0.052115124 0.077308506 -0.062437296 -0.034883827 -0.054510843 -0.03375485
0.0055691 0.027869785 -0.06872035 -0.06543782 -0.047102503 -0.015318102 -0.05865467 0.052779596
0.042393204 0.0054381564 0.02332855 -0.014257219 0.051603265 -0.0765167 -0.009267119 0.0050941827
-0.038895074 -0.043060787 0.004245572 0.024193801 -0.023027496 0.024062606 0.03924217 0.033754576
-0.04456061 -0.04985025 -0.025604492 -0.06864651 -0.029128673 0.068890944 -0.039688602 0.004442041
0.009055517 0.048192244 0.0625777 -0.0739127 0.035211958 0.01367193 -0.07934224 -0.040803917
0.013152603 0.054553457 0.046500523 -0.04369738 0.070459716 0.023315703 0.014964905 0.05494874
0.013264237 0.008441572 -0.01612823 -0.07614089 -0.008531615 0.08119031 -0.026431393 0.009884704
0.03449336 -0.008376455 0.07398912 0.050768215 0.012756316 0.038983397 -0.010843433 -0.06937024
-0.05842081 -0.03382268 0.061152924 -0.053464834 -0.04891049 0.064192235 -0.056126036 0.042826917
0.006436433 0.040289816 0.06719506 -0.0063178223 -0.033462256 0.01834439 0.07900187 0.004941909
-0.03170177 -0.07494841 0.04868555 -0.00074289186 0.05236863 -0.013939463 -0.06288182 0.0657449
0.057440706 0.03364315 0.018800156 0.064564936 0.03740309 0.038028706 -0.059999283 0.0034928687
-0.045136258 -0.021406312 -0.07816482 0.0022646247 -0.08076247 0.04841147 0.054580946 -0.0553651
0.04873241 -0.061992817 -0.076932035 0.012400164 -0.06307948 -0.05439014 -0.077687755 0.067598365
-0.014366923 -0.074404694 0.0293482 0.076585464 -0.07800387 -0.031475473 -0.021855313 -0.014289932
-0.039349742 0.04456488 0.01996022 -0.016013162 -0.07614696 -0.010156692 0.04912694 -0.02986838
0.01978111 0.0634031 -0.003590673 -0.0034625537 0.009704681 0.003563856 -0.018726826 0.070736274
-0.05023353 0.013823002 0.011077989 -0.03781725 -0.043472257 -0.06410025 -0.019556839 -0.052157134
-0.047221445 -0.07367365 -0.035568893 -0.02981951 0.061514795 0.056548163 -0.080165125 -0.014570352
0.073332295 0.07196793 0.006690183 0.034247145 -0.03210906 0.06862871 0.0796658 -0.0121843945
0.07991108 0.0729314 -0.07293646 0.020134926 0.055567887 0.060519524 0.08132687 0.024565034
0.03971597 -0.009919803 -0.0034668806 -0.07295429 -0.04804959 0.0012759425 -0.0065492205 0.052831754
0.0056812484 0.053462762 -0.07191206 0.013037245 0.033385526 0.044789407 0.027087122 -0.027184077
-0.06707831 0.043711375 0.059338834 -0.03087975 0.0041262573 0.013285941 0.05503971 -0.02967263
-0.026364027 0.01246677 -0.05247309 0.081367634 0.053986732 0.024818024 0.06230426 0.06444601
-0.07443912 0.022488637 0.008614768 -0.044539697 -0.029695867 0.034718428 0.0138037205 0.032497842
-0.040530182 0.03029616 -0.0053930185 0.0040331446 0.03488041 0.020503296 -0.05934674 0.021737842
0.0073959227 0.009573585 0.07949856 0.0011130043 -0.0129940575 0.07146014 0.023465302 0.0005491486
0.042851333 0.014067213 0.07671124 0.06450083 0.027600208 0.03798233 -0.025018334 -0.07402719
-0.018627612 -0.011464201 0.036983274 0.05718641 -0.017311735 -0.015311482 0.008709221 -0.033621114
00000000: 1a9c b23c 4baa 92bd 1511 89bb b2ef 5abd
00000010: 18c6 8c3d 35b7 813d e3d5 763d 319e c03a
00000020: c330 8c3d 2a8f 5abd ab76 553d ec53 9e3d
00000030: 40be 7fbd 58e2 0ebd c346 5fbd 8742 0abd
00000040: ff7c b63b 2d4f e43c 41bd 8cbd 4404 86bd
00000050: 8eee 40bd c7f8 7abc e13f 70bd 6b2f 583d
00000060: 7fa4 2d3d 9032 b23b 841b bf3c 1c97 69bc
00000070: f25d 533d cab4 9cbd 1dd5 17bc 1aed a63b
00000080: 7150 1fbd 8260 30bd 701e 8b3b 1432 c63c
00000090: 29a4 bcbc f11e c53c 66bc 203d 3d42 0a3d
000000a0: 3085 36bd c72f 4cbd 83c0 d1bc 8b96 8cbd
000000b0: 419f eebc b216 8d3d 8490 22bd 8a8e 913b
000000c0: 975d 143c 3b65 453d bd28 803d 8b5f 97bd
000000d0: 6a3a 103d 3b00 603c 2f7e a2bd 0222 27bd
000000e0: 047e 573c 7273 5f3d 5577 3e3d 06fc 32bd
000000f0: 2f4d 903d 9300 bf3c 5c2f 753c ee11 613d
00000100: 3e52 593c 854e 0a3c 5a1f 84bc c1ef 9bbd
00000110: 30c8 0bbc 1b47 a63d a686 d8bc 74f3 213c
00000120: e948 0d3d 663d 09bc 9c87 973d 55f2 4f3d
00000130: deff 503c 0ead 1f3d a8a8 31bc fc11 8ebd
00000140: a94a 6fbd a789 0abd 7d7b 7a3d f1fd 5abd
00000150: 5e56 48bd 3877 833d 6ae4 65bd 476b 2f3d
00000160: b7e8 d23b ef06 253d 909d 893d bc05 cfbb
00000170: b80f 09bd f946 963c bbcb a13d bdef a13b
00000180: b7d9 01bd 8d7e 99bd 806a 473d a1be 42ba
00000190: 7d80 563d 5862 64bc 2fc8 80bd 43a5 863d
000001a0: f246 6b3d 66cd 093d c902 9a3c 9f3a 843d
000001b0: fc33 193d fdc3 1b3d cfc1 75bd 9de8 643b
000001c0: cce0 38bd 4a5c afbc e114 a0bd 196a 143b
000001d0: cb66 a5bd 1b4b 463d 4590 5f3d 84c6 62bd
000001e0: a39b 473d 2eec 7dbd 8b8e 9dbd 0f2a 4b3c
000001f0: d02f 81bd 32c8 5ebd c21a 9fbd 0371 8a3d
00000200: 3e63 6bbc 7d61 98bd a36b f03c d7d8 9c3d
00000210: 7ec0 9fbd 6dec 00bd ea09 b3bc 5220 6abc
00000220: 322d 21bd aa89 363d 9e83 a33c 092e 83bc
00000230: f0f2 9bbd 4168 26bc 5539 493d 88ae f4bc
00000240: ff0b a23c 7cd9 813d 7f51 6bbb 03ec 62bb
00000250: 6200 1f3c 958f 693b 0069 99bc 2ede 903d
00000260: adc1 4dbd df79 623c 7480 353c 43e6 1abd
00000270: f70f 32bd fe46 83bd aa35 a0bc b8a2 55bd
00000280: 466b 41bd 36e2 96bd b0b0 11bd 0c48 f4bc
00000290: f0f6 7b3d 0c9f 673d 9d2d a4bd 7cb8 6ebc
000002a0: 3e2f 963d ec63 933d 5339 db3b bc46 0c3d
000002b0: ca84 03bd 368d 8c3d d327 a33d 0ea1 47bc
000002c0: 6ca8 a33d 0f5d 953d b65f 95bd 00f2 a43c
000002d0: 279b 633d 52e3 773d b48e a63d 9c3c c93c
000002e0: 37ad 223d ab86 22bc 9b34 63bb 0f69 95bd
000002f0: a6cf 44bd 873d a73a d89a d6bb 1c66 583d
00000300: c429 ba3b c5fb 5a3d a146 93bd 2b9a 553c
00000310: 43bf 083d 1975 373d d0e5 dd3c 24b1 debc
00000320: 5a60 89bd b30a 333d 470d 733d 88f7 fcbc
00000330: 8e35 873b 47ad 593c 5271 613d 0414 f3bc
00000340: 5ff9 d7bc 6c41 4c3c 06ee 56bd 13a4 a63d
00000350: 3121 5d3d 2b4f cb3c c032 7f3d 45fc 833d
00000360: 8a73 98bd 173a b83c f524 0d3c 426f 36bd
00000370: bf44 f3bc e934 0e3d 0029 623c 751c 053d
00000380: fa02 26bd a72f f83c ebb7 b0bb 7828 843b
00000390: c3de 0e3d 87f6 a73c 9115 73bd 8f13 b23c
000003a0: 7f59 f23b 87da 1c3c 24d0 a23d 3ae2 913a
000003b0: 07e5 54bc b259 923d 4e3a c03c bdf4 0f3a
000003c0: e184 2f3d 2b7a 663c c81a 9d3d 0319 843d
000003d0: d519 e23c 5c93 1b3d 40f3 ccbc 919b 97bd
000003e0: ef98 98bc 58d4 3bbc c67b 173d 4c3c 6a3d
000003f0: 57d1 8dbc 03dd 7abc 1fb1 0e3c 4bb6 09bd

tree_conv.0.weights.bias f4 [256]
0.011770667 -0.011733036 -0.025203798 -0.07451902 -0.006241543 -0.023527231 0.04218843 0.052258402
0.017948527 0.052673347 -0.019081995 0.013564442 0.07774462 0.025711842 0.0148816975 0.04640631
0.013265923 0.006589095 -0.008991115 0.038316812 -0.080322765 0.047456652 -0.056541476 -0.07681558
0.06935055 -0.06425996 -0.012733203 -0.02244473 0.045141023 0.045477696 -0.037840717 0.0220879
0.036963917 -0.07661185 0.05280023 0.03534795 0.06529784 -0.0545944 0.030841665 0.0043880953
-0.0029487002 -0.0029683865 0.04028727 -0.07065401 0.01615299 0.06897645 -0.06124737 0.008566472
0.037587237 -0.018678099 -0.05518272 0.0663813 -0.052345436 -0.06627373 0.07404895 -0.075030655
-0.07927204 0.06772678 0.053658035 0.052554283 -0.06062832 -0.004353188 -0.055794593 0.017390788
0.036649268 0.00875005 -0.04746392 0.05292194 0.013895244 -0.0045812693 -0.07560229 0.052089658
-0.071209714 0.032647982 0.064403385 -0.0294911 0.06040856 -0.06872948 -0.07141995 0.010434886
-0.06221827 -0.018292442 -0.06566442 -0.07226116 0.032077037 0.07016193 0.03597061 0.03212
0.049829874 -0.051967762 0.08155677 0.032760274 0.012774511 0.023406036 0.05767802 0.03404762
-0.03284443 0.08121677 0.045035176 -0.026018094 0.042501282 -0.020660091 0.012163939 -0.021078877
-0.051015414 -0.055957165 0.051606216 -0.05212147 -0.044531 -0.01638065 -0.07720384 -0.030916985
-0.041294854 0.057248093 -0.02012989 0.059425317 0.0050120843 0.035480622 0.07324682 -0.07942087
0.07472131 0.048342854 -0.07514221 0.050471194 0.048791222 0.029853731 0.07402761 -0.041699417
0.05429647 0.06090706 -0.039845567 -0.01699817 -0.06832702 -0.061602112 -0.05500617 -0.054683782
-0.0598023 -0.08133045 -0.059584223 -0.018455626 -0.011798145 -0.065152414 -0.07403866 0.072615616
-0.05193652 0.042546708 -0.041991454 0.055019572 0.0062305746 -0.0008760487 -0.0419313 -0.07717798
-0.0731961 0.029255169 0.0038570852 -0.04572393 0.07358463 0.0119321095 -0.060205687 -0.06871391
-0.01093896 -0.005193913 -0.02439819 -0.025379697 -0.03323057 0.06302531 -0.00917583 0.05881224
-0.045348994 -0.04276558 -0.066162854 -0.021405777 0.058337443 -0.044962972 0.06556082 0.028842604
-0.0040735905 0.04855982 -0.018463394 -0.062344078 -0.036607545 -0.06535822 0.05851047 -0.061302196
0.002629491 -0.052094407 -0.049891435 -0.069401965 -0.058729716 -0.069719754 0.0069024144 -0.073644094
-0.028523613 0.012864348 0.07327556 0.029608874 -0.014330891 0.059912544 0.0013181969 -0.03485922
0.05458891 -0.0022394191 0.0056342147 0.03226464 -0.04699711 0.018124593 -0.044825006 0.048271567
0.023173073 -0.045870658 0.07779845 -0.02874412 0.03945224 -0.0043742424 0.010779024 0.04496534
-0.030663004 -0.06060373 0.06260089 -0.075635865 -0.068805404 0.03140063 0.03105443 0.062891915
-0.06803471 -0.048710376 0.07559838 -0.04668486 0.04920899 0.053895455 -0.044450875 0.0815546
-0.050561655 0.07717154 0.056049477 -0.037217557 0.03741259 -0.036949366 -0.005228774 -0.061008707
-0.081646025 -0.04935036 -0.07345757 0.007978515 -0.07109651 0.07665804 -0.06764168 -0.062099088
0.03746288 -0.023199616 -0.012136723 -0.07694838 0.048668012 -0.05878789 -0.030555075 0.031223308
00000000: c1d9 403c eb3b 40bc 3278 cebc 6e9d 98bd
00000010: dc85 ccbb 2ebc c0bc c6cd 2c3d e80c 563d
00000020: ca08 933c 02c0 573d d851 9cbc 653d 5e3c
00000030: 9238 9f3d a4a1 d23c 5dd2 733c 8b14 3e3d
00000040: 5059 593c 56e9 d73b 784f 13bc 17f2 1c3d
00000050: 4380 a4bd e861 423d 0998 67bd 7d51 9dbd
00000060: a907 8e3d ba9a 83bd ed9e 50bc 03de b7bc
00000070: cbe5 383d d246 3a3d defe 1abd aff1 b43c
00000080: 7a67 173d ace6 9cbd 0e45 583d 03c9 103d
00000090: e0ba 853d 619e 5fbd a9a7 fc3c 03ca 8f3b
000000a0: fb3e 41bb 4389 42bb 4404 253d 0db3 90bd
000000b0: 4653 843c 8643 8d3d 86de 7abd 635a 0c3c
000000c0: 13f5 193d d002 99bc 4707 62bd ebf2 873d
000000d0: 2b68 56bd 85ba 87bd faa6 973d aca9 99bd
000000e0: 6159 a2bd 57b4 8a3d 87c8 5b3d 2943 573d
000000f0: 6755 78bd 30a5 8ebb df88 64bd 2077 8e3c
00000100: 8b1d 163d 5f5c 0f3c 8769 42bd adc4 583d
00000110: e1a8 633c 791e 96bb 60d5 9abd f75b 553d
00000120: 66d6 91bd e4b9 053d ece5 833d 5297 f1bc
00000130: f76e 773d 0bc2 8cbd 9f44 92bd 16f7 2a3c
00000140: 96d8 7ebd 08da 95bc 117b 86bd a9fd 93bd
00000150: 3663 033d 0fb1 8f3d eb55 133d 4390 033d
00000160: 691a 4c3d 26dc 54bd 3c07 a73d a32f 063d
00000170: 2f4c 513c 04be bf3c ca3f 6c3d 8475 0b3d
00000180: e287 06bd fa54 a63d ce76 383d e623 d5bc
00000190: d315 2e3d 5a3f a9bc 424b 473c 9cad acbc
000001a0: 8af5 50bd 5733 65bd 0a61 533d 537d 55bd
000001b0: 2366 36bd b730 86bc 0c1d 9ebd 9e45 fdbc
000001c0: cb24 29bd fa7c 6a3d 70e7 a4bc f667 733d
000001d0: 693c a43b 2154 113d 6e02 963d 69a7 a2bd
000001e0: 7c07 993d 2803 463d 29e4 99bd e2ba 4e3d
000001f0: 4ed9 473d d08f f43c ca9b 973d 02cd 2abd
00000200: fa65 5e3d ae79 793d 1b35 23bd bf3f 8bbc
00000210: 09ef 8bbd 7f52 7cbd 264e 61bd 1afc 5fbd
00000220: 42f3 74bd 9490 a6bd 960e 74bd 4130 97bc
00000230: 024d 41bc a16e 85bd 95a1 97bd 7fb7 943d
00000240: 63bb 54bd 7545 2e3d 3bff 2bbd 345c 613d
00000250: d929 cc3b a2a6 65ba 28c0 2bbd 7d0f 9ebd
00000260: d6e7 95bd 89a8 ef3c 27c7 7c3b 0449 3bbd
00000270: 8ab3 963d e57e 433c 3d9a 76bd e1b9 8cbd
00000280: 5339 33bc b331 aabb b7de c7bc 15e9 cfbc
00000290: c71c 08bd 6a13 813d 3856 16bc 1ae5 703d
000002a0: debf 39bd f62a 2fbd 6480 87bd 2b5b afbc
000002b0: 3ef3 6e3d 182b 38bd c044 863d 5347 ec3c
000002c0: c17b 85bb a9e6 463d 8b40 97bc 815c 7fbd
000002d0: cbf1 15bd 88da 85bd ada8 6f3d 0318 7bbd
000002e0: 8a53 2c3b f260 55bd f65a 4cbd 9e22 8ebd
000002f0: 928e 70bd 3bc9 8ebd a62d e23b b7d2 96bd
00000300: 5aaa e9bc fcc4 523c 7f11 963d 4f8e f23c
00000310: 1dcc 6abc db66 753d 59c7 ac3a 8bc8 0ebd
00000320: 9f98 5f3d 38c3 12bb 389f b83b ed27 043d
00000330: 0b80 40bd 077a 943c 6d9a 37bd 68b8 453d
00000340: 75d5 bd3c dfe2 3bbd cb54 9f3d ca78 ebbc
00000350: ac98 213d ce55 8fbb 819a 303c 942d 383d
00000360: fb30 fbbc 9e3b 78bd e534 803d fae6 9abd
00000370: d9e9 8cbd f29d 003d dc65 fe3c 7acd 803d
00000380: c855 8bbd 8884 47bd 53d3 9a3d a038 3fbd
00000390: 5e8f 493d 7bc1 5c3d 1f12 36bd 1906 a73d
000003a0: bd19 4fbd 1d0c 9e3d 2394 653d 7071 18bd
000003b0: f23d 193d 3858 17bd 2356 abbb 44e4 79bd
000003c0: 0836 a7bd 9a23 4abd ec70 96bd 51b8 023c
000003d0: 0c9b 91bd e4fe 9c3d b987 8abd 9d5b 7ebd
000003e0: ad72 193d 1f0d bebc 1bd9 46bc 1d97 9dbd
000003f0: 1c58 473d 92cb 70bd a34e fabc 06c8 ff3c

tree_conv.3.weights.weight f4 [128, 256, 3]
0.0297158 0.028296195 0.033060603 -0.035188057 0.0051590106 -0.011832212 -0.002318394 0.009292352
0.012061225 -0.029410511 -0.018212942 -0.014106144 0.025060382 -0.016617749 0.011389278 0.035186533
0.032690387 -0.023941237 -0.0107854465 0.0022292861 0.003626394 -0.016583906 0.027116904 -0.015545734
0.010739207 0.021695448 0.008696759 -0.025350656 -0.017100118 -0.023279527 0.012260014 -0.035135835
0.01374872 -0.028213995 0.0063713314 -0.0019349209 0.015735112 -0.027880264 0.014801355 0.024847979
-0.014292654 0.012980036 0.035831485 0.018403461 0.012179975 0.023473721 -0.017318517 0.009716552
0.00062448677 0.017398393 0.0103125945 0.008711227 -0.028809363 0.016444594 0.0015709241 -0.024145184
0.01163391 0.026615389 0.009893342 0.021755205 -0.010792651 0.010548979 0.012507096 0.0068659093
0.020201914 -0.033025157 -0.01012052 -0.021200567 0.0022075695 0.031613432 -0.017726641 -0.032254696
0.02605015 -0.012044907 -0.01572237 0.018605527 -0.02019766 -0.015632842 -0.01880567 -0.0056097815
0.025024822 0.024447938 0.023927221 0.015985796 -0.010153749 -0.0059623546 -0.00395951 0.02395458
-0.019346656 -0.02968998 0.008745063 0.016502544 -0.030057792 0.014558748 -0.017377952 0.026807072
0.0045846696 0.034618877 -0.013643823 0.03334831 -0.018465074 0.013734526 0.011244591 -0.016732736
-0.0067504602 0.027603382 -0.019830612 -0.007331516 0.011138414 0.0076417145 0.022724004 0.0226665
-0.03437827 0.0047331154 0.018995833 -0.013824829 0.019672582 0.0031834356 -0.028834252 0.018542454
0.032034382 -0.018266799 -0.02602547 -0.02501349 -0.0295548 0.009478947 -0.010524289 0.0017460213
-0.025377542 0.009679928 -0.005456011 0.012540477 -0.0350116 -0.018384604 0.0050785225 0.00020683724
-0.02539925 0.03161176 -0.03342178 -0.033583168 0.034272138 -0.033976983 -0.01389519 -0.001816601
0.015467443 0.017115382 0.031292785 0.029002346 -0.027644161 0.018404605 0.0066742804 -0.0184029
0.025430147 0.02237518 -0.029752247 0.015789323 -0.009600543 -0.006196415 -0.025493797 0.0346758
-0.027212065 0.03593581 -0.032510545 0.03144079 -0.009510667 0.008679722 -0.00938552 -0.017696302
-0.022723675 -0.02004376 -0.02784028 0.014091576 0.030457111 -0.02376608 -0.017236196 0.0082653845
0.020928407 -0.015737709 -0.01586347 0.021717299 0.02806533 -0.033633914 -0.023138788 -0.027858086
-0.012887827 -0.02734685 -0.032293666 -0.0052295723 0.02184326 0.0043472205 0.022346325 0.00451845
-0.025406431 -0.02514439 -0.020402001 0.0053585693 -0.0277202 -0.009791776 0.015920334 -0.030805353
-0.02563976 0.011834822 0.018299706 -0.02339724 0.009908952 -0.030613909 0.009460014 -0.0014443864
0.0030710855 0.00017482706 0.012613877 -0.004840077 -0.009775299 -0.021084031 -0.018083239 -0.0007512207
-0.013101985 0.030620959 0.008337069 -0.0028597086 -0.024532149 0.008911197 0.008677091 -0.026211381
0.007189487 0.0027088504 0.02560854 0.023311693 0.022701407 -0.008241522 0.009131587 0.013965016
-0.00335345 -0.0051408866 0.01585881 -0.03474293 0.008784741 -0.007679649 -0.023873478 -0.0063102427
-0.024980308 -0.0054717106 0.008161964 -0.007555822 0.026640875 -0.0226282 0.008777033 0.01583185
0.00039235508 -0.03597184 -0.028039292 -0.029785007 0.0046557095 -0.021995207 0.023974357 -0.0034481862
00000000: 8d6e f33c 6ccd e73c 8e6a 073d 5a21 10bd
00000010: eb0c a93b e5db 41bc 32f0 17bb f33e 183c
00000020: 729c 453c 50ee f0bc 4f33 95bc 751d 67bc
00000030: 6e4b cd3c f221 88bc 189a 3a3c c11f 103d
00000040: 5be6 053d 6a20 c4bc 71b5 30bc 3719 123b
00000050: cca8 6d3b f9da 87bc 4524 de3c 89b3 7ebc
00000060: 80f3 2f3c a7ba b13c da7c 0e3c 2eac cfbc
00000070: 8c15 8cbc b5b4 bebc 3ade 483c 98ea 0fbd
00000080: 5042 613c 0921 e7bc 9ac6 d03b 2c9d fdba
00000090: ece6 803c 2765 e4bc 6281 723c fd8d cb3c
000000a0: bc2b 6abc 38aa 543c 09c4 123d dbc2 963c
000000b0: 858e 473c f64b c03c 90df 8dbc 2c32 1f3c
000000c0: 99b4 233a 1387 8e3c 28f6 283c 89b9 0e3c
000000d0: 9d01 ecbc d0b6 863c 77e7 cd3a 1fcc c5bc
000000e0: 289c 3e3c 8408 da3c af17 223c f937 b23c
000000f0: a9d3 30bc a0d5 2c3c 90ea 4c3c 6cfb e03b
00000100: 7c7e a53c 6345 07bd 8ad0 25bc d0ac adbc
00000110: dfac 103b 167d 013d 7637 91bc 801d 04bd
00000120: 2067 d53c 0058 45bc 33cc 80bc 9e6a 983c
00000130: 9075 a5bc 7210 80bc 590e 9abc 42d2 b7bb
00000140: db00 cd3c 0b47 c83c 0503 c43c a5f4 823c
00000150: e95b 26bc db5f c3bb c7be 81bb 653c c43c
00000160: e17c 9ebc 6738 f3bc 7447 0f3c 5830 873c
00000170: c23b f6bc d187 6e3c 355c 8ebc 819a db3c
00000180: ff3a 963b 86cc 0d3d 578a 5fbc 3d98 083d
00000190: 1144 97bc c706 613c 3c3b 383c 1713 89bc
000001a0: f732 ddbb 7d20 e23c cf73 a2bc 373d f0bb
000001b0: e57d 363c 5967 fa3b b127 ba3c 19af b93c
000001c0: 3bd0 0cbd 4018 9b3b 269d 9b3c 8981 62bc
000001d0: 6528 a13c 30a1 503b cf35 ecbc 58e6 973c
000001e0: 7c36 033d 41a4 95bc 5e33 d5bc 17e9 ccbc
000001f0: e81c f2bc 964d 1b3c 116e 2cbc c1da e43a
00000200: 90e4 cfbc 9098 1e3c 56c8 b2bb 9376 4d3c
00000210: 5368 0fbd 4f9b 96bc bc69 a63b 73e2 5839
00000220: 1712 d0bc 557b 013d 47e5 08bd 818e 09bd
00000230: f160 0c3d 732b 0bbd a7a8 63bc 041b eeba
00000240: 286b 7d3c 8f35 8c3c dd2c 003d 5496 ed3c
00000250: 0276 e2bc 41c5 963c ecb3 da3b aec1 96bc
00000260: e252 d03c 274c b73c fcba f3bc 9c58 813c
00000270: 994b 1dbc 4c0b cbbb 5ed8 d0bc 3608 0e3d
00000280: d6eb debc 6e31 133d c729 05bd 0fc8 003d
00000290: a1d2 1bbc 6535 0e3c b9c5 19bc d6f7 90bc
000002a0: 0027 babc d032 a4bc 4d11 e4bc 5be0 663c
000002b0: 3181 f93c 15b1 c2bc ec32 8dbc 896b 073c
000002c0: 0d72 ab3c 5eec 80bc 1cf4 81bc 7ae8 b13c
000002d0: 43e9 e53c b7c3 09bd 8e8d bdbc a436 e4bc
000002e0: 7727 53bc 8006 e0bc 5d46 04bd d55c abbb
000002f0: a3f0 b23c 2173 8e3b a40f b73c 810f 943b
00000300: 2621 d0bc 9cfb cdbc 1922 a7bc f096 af3b
00000310: 7915 e3bc af6d 20bc 5c6b 823c 825b fcbc
00000320: 790a d2bc d7e6 413c 44e9 953c 92ab bfbc
00000330: 2859 223c 05ca fabc 2dfe 1a3c 9151 bdba
00000340: 4444 493b c851 3739 6faa 4e3c 8299 9ebb
00000350: 9328 20bc 6bb8 acbc 4d23 94bc 91ed 44ba
00000360: b5a9 56bc ced8 fa3c 3498 083c f369 3bbb
00000370: a5f7 c8bc 4500 123c 5c2a 0e3c 40b9 d6bc
00000380: ca95 eb3b f886 313b 00c9 d13c 2af8 be3c
00000390: 4df8 b93c 7307 07bc a79c 153c 86cd 643c
000003a0: 8ec5 5bbb e274 a8bb 56ea 813c 9a4e 0ebd
000003b0: e0ed 0f3c 91a5 fbbb 5092 c3bc 27c6 cebb
000003c0: 81a3 ccbc 094c b3bb c2b9 053c d496 f7bb
000003d0: f73d da3c c65e b9bc 8bcd 0f3c ccb1 813c
000003e0: 02b5 cd39 3557 13bd a8b2 e5bc b0ff f3bc
000003f0: ec8e 983b 4b2f b4bc df65 c43c f7fa 61bb

tree_conv.3.weights.bias f4 [128]
0.029984169 0.022962688 0.005201202 -0.0024568758 -0.00023053835 -0.0033426806 -0.024700748 0.029595464
0.019534424 0.011297162 0.015198074 -0.013862403 -0.025391204 -0.0051781805 -0.014268931 -0.017214848
0.034971662 -0.0027818347 0.014324999 -0.009794543 0.0062349276 -0.0001053476 0.020518549 0.027971204
-0.03273055 0.03272828 -0.015931098 0.01443688 -0.010080733 0.0023124274 -0.009324581 -0.014464667
-0.022337869 0.029022481 -0.0013534493 -0.02928129 -0.009531442 -0.024663463 -0.015941007 0.023476321
0.030206103 0.018511763 -0.02251795 0.008498622 -0.009581723 0.00042241917 0.01975018 -0.022726908
-0.020939939 -0.013351762 -0.001802007 0.015150295 0.023136074 -0.030488292 -0.006366736 0.016908731
0.035801455 0.0348231 -0.03412811 0.010735132 0.010072364 -0.008504005 0.022345904 -0.020897357
0.014996974 0.013104277 -0.015876992 0.03490382 -0.023089241 -0.033636034 0.0041050944 0.016735546
-0.00789503 0.031044476 0.0020574247 -0.012212877 -0.0059544644 -0.017220335 0.011178638 0.017233046
-0.0022150169 0.033332564 0.032931797 0.014635065 -0.03168246 -0.01541979 -0.031993914 -0.018368766
-0.0008643191 0.020802982 -0.014973844 0.00914906 -0.019812236 0.017580694 0.011997542 0.0009017219
-0.02876954 0.0055195433 -0.0006137739 0.00591083 0.007000526 0.012351706 0.0152548915 -0.011377389
0.019403372 0.0026226104 -0.016615782 0.008562642 -0.026251232 -0.0015977174 0.03478175 -0.035199277
0.006692934 -0.006559405 0.013325834 -0.0163264 -0.007859649 -0.019313322 0.020717697 -0.028079884
-0.016278774 -0.019806376 -0.023900071 -0.00595987 -0.017894246 -0.03516553 -0.03459352 0.02593198
00000000: 5ca1 f53c 3f1c bc3c d86e aa3b 8903 21bb
00000010: abbc 71b9 e010 5bbb 3959 cabc 3072 f23c
00000020: a806 a03c bb17 393c 5801 793c 221f 63bc
00000030: 3701 d0bc baad a9bb 3cc8 69bc 2706 8dbc
00000040: 723e 0f3d 714f 36bb 67b3 6a3c 4a79 20bc
00000050: 5d4e cc3b 10ee dcb8 8416 a83c de23 e53c
00000060: 7810 06bd 170e 063d ef81 82bc aa88 6c3c
00000070: a929 25bc 188c 173b 21c6 18bc 36fd 6cbc
00000080: e8fd b6bc 8ec0 ed3c 3966 b1ba 51df efbc
00000090: c429 1cbc 080b cabc b796 82bc 6a51 c03c
000000a0: ca72 f73c fba5 973c 9077 b8bc ce3d 0b3c
000000b0: a9fc 1cbc 2478 dd39 21cb a13c c82d babc
000000c0: 3c8a abbc 59c1 5abc 5231 ecba f138 783c
000000d0: dd87 bd3c 95c2 f9bc 0da0 d0bb 2e84 8a3c
000000e0: 8ca4 123d aba2 0e3d ebc9 0bbd 68e2 2f3c
000000f0: 8e06 253c 6254 0bbc c20e b73c ef30 abbc
00000100: deb5 753c 52b3 563c 7710 82bc 4ff7 0e3d
00000110: a625 bdbc f0c5 09bd 0784 863b fc18 893c
00000120: 285a 01bc fc50 fe3c dcd5 063b 8518 48bc
00000130: ab1d c3bb a911 8dbc 9b26 373c 512c 8d3c
00000140: d129 11bb ba87 083d 7ee3 063d e9c7 6f3c
00000150: 78c5 01bd 49a3 7cbc 0d0c 03bd 187a 96bc
00000160: 7993 62ba 046b aa3c db54 75bc f0e5 153c
00000170: 454d a2bc 6305 903c 5791 443c 8861 6c3a
00000180: 19ae ebbc 49dd b43b abe5 20ba a3af c13b
00000190: ab64 e53b cf5e 4a3c a7ef 793c 3a68 3abc
000001a0: d2f3 9e3c 1ae0 2b3b d21d 88bc 534a 0c3c
000001b0: d30c d7bc 806a d1ba 4f77 0e3d 1e2d 10bd
000001c0: 6650 db3b 47f0 d6bb 9954 5a3c f1be 85bc
000001d0: c2c5 00bc f936 9ebc 29b8 a93c c907 e6bc
000001e0: 105b 85bc fb40 a2bc 15ca c3bc 034b c3bb
000001f0: f496 92bc bb09 10bd efb1 0dbd 4e6f d43c

tree_conv.6.weights.weight f4 [64, 128, 3]
0.028452817 0.0388892 0.031639747 0.03154991 0.03155824 -0.015527205 -0.04414072 -0.026898492
0.029562468 -0.018208446 0.020094546 0.0024431152 -0.037437167 0.030819248 0.030323047 0.0371744
0.03192435 0.008266733 -0.00843233 -0.0015287135 0.04809065 0.0027969202 0.027512832 -0.01515494
-0.031058202 -0.016964575 -0.03682746 0.040698588 -0.03162478 0.018628947 0.03385954 0.039138522
-0.039477527 -0.035195153 -0.034232102 -0.00935063 -2.7018361e-05 0.050390657 0.029629443 -0.031096336
0.0014585531 0.019468741 -0.04542607 -0.0028462817 -0.021025706 0.0076657296 -0.031356703 0.03732328
0.013992768 0.03930588 0.025214557 -0.005403368 0.03877177 -0.006215434 -0.028257541 0.009387113
0.019803358 -0.017299747 0.04927298 -0.031079574 0.04159126 -0.034623377 -0.007223204 -0.024579009
-0.0092769135 0.003937584 0.036046047 -0.03663431 0.013844421 -0.0005915732 -0.011448399 -0.048169088
-0.006641772 0.023032527 0.023476934 -0.024886586 -0.019185862 0.036084026 0.0032830185 -0.004031401
0.040312458 0.02087082 0.020173788 -0.019747822 -0.045850307 -0.014079579 0.017966945 0.018222984
-0.029739907 0.032780707 0.048429463 0.0080198245 -0.044276603 -0.0034387351 -0.029872552 -0.00018722384
-0.03100099 -0.03395585 0.029280838 0.010376921 -0.019812563 0.03519167 0.028271392 0.010983798
0.016120419 -0.030551901 0.020908054 -0.0018200723 -0.03321349 0.026306804 0.004091732 -0.035596583
0.029519636 0.008671977 -0.027023293 -0.017257629 -0.0025351346 0.04235892 -0.009886595 0.044161126
0.0023811278 -0.025056614 0.020332394 -0.009873113 0.009489389 -0.011928445 0.0014456738 0.04676301
0.038201246 -0.026589835 0.024989089 0.048714712 -0.005332785 -0.030699158 -0.0029372957 0.0019525393
-0.031499993 -0.013926494 0.036073033 0.033186585 -0.018953724 -0.024892425 0.006505565 -0.016144454
0.0023911768 0.024731949 -0.024864277 -0.01530739 -0.038446646 -0.02593119 -0.020330299 -0.01793834
0.024424745 -0.04515376 0.041993532 0.050287608 -0.012771711 0.0070894193 0.03047965 0.03409008
-0.031012831 -0.038000286 0.00837796 -0.009737773 0.040228803 0.021913202 -0.021706197 0.034702815
0.036413573 -0.050177485 0.018027905 0.026253678 -0.040679656 -0.044449635 -0.033815034 0.03345862
0.015687175 -0.025511323 0.027196074 -0.048741855 0.042987585 0.031052608 -0.009769784 -0.04402394
0.023090573 -0.024372803 -0.033375967 -0.012480607 -0.041492987 -0.021615347 0.046573557 0.014784527
0.024859747 0.03764452 0.048637915 0.04962806 0.044905644 -0.03837126 0.04099647 0.026056152
-0.0067717894 0.0024099187 0.04488273 -0.04838318 0.03933131 0.025559274 -0.03458632 -0.027858023
-0.025371289 -0.02970787 0.024412379 -0.044176295 0.032773826 0.03317239 -0.02686586 0.00033143442
0.018402135 -0.04461732 0.0029248176 -0.0043674614 -0.038667917 0.03268272 -0.0059268633 0.03461547
-0.03876072 0.022728048 -0.018498883 -0.0037111016 -0.033218816 -0.035478167 -0.019230403 -0.028246885
-0.043473534 -0.04867512 -0.04515755 0.012596161 -0.012583427 0.009946863 -0.033692386 0.02250948
0.017266063 -0.027334053 0.043396484 -0.036095954 -0.02881727 -0.0068155527 -0.019790277 0.03225899
0.037398905 -0.035512052 -0.0033624675 -0.040033426 0.028665978 0.0070421845 -0.0012491868 0.018334912
00000000: e215 e93c 484a 1f3d ae98 013d 7a3a 013d
00000010: 3743 013d d165 7ebc e6cc 34bd 3a5a dcbc
00000020: fd2c f23c e129 95bc 519d a43c ac1c 203b
00000030: b757 19bd a678 fc3c 0a68 f83c 2f44 183d
00000040: 1bc3 023d 3171 073c c127 0abc 1d5f c8ba
00000050: b4fa 443d 894c 373b 9762 e13c 6d4c 78bc
00000060: c56d febc 4bf9 8abc 64d8 16bd 90b3 263d
00000070: fc88 01bd bc9b 983c 4db0 0a3d b74f 203d
00000080: 30b3 21bd cb28 10bd f636 0cbd 6333 19bc
00000090: 7da5 e2b7 6f66 4e3d 72b9 f23c bebd febc
000000a0: ec2c bf3a e97c 9f3c b010 3abd af88 3abb
000000b0: 1a3e acbc cd30 fb3b e36f 00bd 4ce0 183d
000000c0: ec41 653c 34ff 203d c28e ce3c bc0e b1bb
000000d0: 26cf 1e3d d7aa cbbb 5c7c e7bc 68cc 193c
000000e0: a73a a23c 33b8 8dbc 77d2 493d 979a febc
000000f0: 995b 2a3d 3ed1 0dbd a0b0 ecbb eb59 c9bc
00000100: 32fe 17bc d906 813b 05a5 133d dc0d 16bd
00000110: b6d3 623c ce13 1bba 1192 3bbc f34c 45bd
00000120: 39a3 d9bb b6ae bc3c b352 c03c f4de cbbc
00000130: ab2b 9dbc d8cc 133d e927 573b d819 84bb
00000140: ad1e 253d 48f9 aa3c 8043 a53c 2fc6 a1bc
00000150: 88cd 3bbd 09ae 66bc 6a2f 933c 5e48 953c
00000160: 1ba1 f3bc 1045 063d f95d 463d 9565 033c
00000170: 625b 35bd 675c 61bb 48b7 f4bc 8451 44b9
00000180: caf5 fdbc 4a15 0bbd 5ede ef3c f603 2a3c
00000190: f54d a2bc 2425 103d 6899 e73c 63f5 333c
000001a0: f80e 843c fb47 fabc 5e47 ab3c 7e8f eeba
000001b0: de0a 08bd 5e81 d73c f013 863b b9cd 11bd
000001c0: 2ad3 f13c e814 0e3c f45f ddbc df5f 8dbc
000001d0: 8024 26bb 8c80 2d3d 63fb 21bc 4ce2 343d
000001e0: b20c 1c3b 8743 cdbc 1f90 a63c d6c2 21bc
000001f0: 6279 1b3c 866f 43bc c37c bd3a 928a 3f3d
00000200: e978 1c3d edd2 d9bc ebb5 cc3c 1489 473d
00000210: a5be aebb cd7c fbbc a57f 40bb 59ec ff3a
00000220: 2306 01bd f32b 64bc 51c1 133d a8ee 073d
00000230: d744 9bbc 33eb cbbc a22c d53b 6041 84bc
00000240: 4ab5 1c3b a89a ca3c 2bb0 cbbc d9cb 7abc
00000250: 3b7a 1dbd a66d d4bc ba8b a6bc 6df3 92bc
00000260: 6716 c83c 26f3 38bd 6901 2c3d 61fa 4d3d
00000270: 7040 51bc 5c4e e83b 75b0 f93c 0aa2 0b3d
00000280: 9f0e febc 30a6 1bbd b643 093c 2e8b 1fbc
00000290: f5c6 243d 5183 b33c 32d1 b1bc 8a24 0e3d
000002a0: 6626 153d e886 4dbd 42af 933c f411 d73c
000002b0: b69f 26bd d210 36bd a281 0abd e80b 093d
000002c0: 6482 803c 1ffd d0bc 4dca de3c 8aa5 47bd
000002d0: c013 303d 0a62 fe3c 7211 20bc 7252 34bd
000002e0: 7128 bd3c 79a9 c7bc 3db5 08bd 767b 4cbc
000002f0: 8df4 29bd ab12 b1bc eac3 3e3d cd3a 723c
00000300: aba6 cb3c 2431 1a3d 8d38 473d cb46 4b3d
00000310: fbee 373d 2f2b 1dbd eaeb 273d b673 d53c
00000320: e3e5 ddbb baef 1d3b f4d6 373d 712d 46bd
00000330: de19 213d af61 d13c 63aa 0dbd 8236 e4bc
00000340: 73d7 cfbc eb5d f3bc 78fc c73c 34f2 34bd
00000350: d93d 063d c6df 073d cb15 dcbc 60c4 ad39
00000360: 13c0 963c a7c0 36bd 4cae 3f3b ec1c 8fbb
00000370: 4062 1ebd 51de 053d 2236 c2bb f3c8 0d3d
00000380: 90c3 1ebd 2c30 ba3c f88a 97bc f435 73bb
00000390: 7410 08bd 8e51 11bd 1489 9dbc 0366 e7bc
000003a0: 4e11 32bd 905f 47bd 20f7 38bd 2160 4e3c
000003b0: b82a 4ebc 2bf8 223c 0701 0abd cd65 b83c
000003c0: 8f71 8d3c aaeb dfbc 83c0 313d 5ad9 13bd
000003d0: 3212 ecbc 0055 dfbb 381f a2bc 0122 043d
000003e0: 982f 193d 1675 11bd d85c 5cbb 17fa 23bd
000003f0: ead4 ea3c 20c2 e63b c1bb a3ba 1933 963c

tree_conv.6.weights.bias f4 [64]
-0.027130386 0.034297973 0.021361602 0.0460479 -0.028272491 -0.011570833 0.02617418 0.046322417
0.044124924 0.025222443 0.041889045 -0.037093077 0.026348826 0.012074988 0.005343882 0.044121295
0.014403848 0.0027719191 0.014679397 -0.006990937 -0.01215682 -0.031568248 0.007394826 -0.0028728573
0.027517179 -0.02273099 0.030276388 0.026897384 -0.019024994 -0.012796603 -0.042889718 -0.018827248
-0.036402546 0.0514102 0.036537398 0.012406519 -0.014984974 0.048339088 -0.013712686 -0.013755436
-0.045760956 -7.2312378e-06 -0.025121257 0.017218057 0.012733364 -0.046176415 0.027561145 -0.00515657
0.04384707 0.024049936 -0.040926408 0.01099277 -0.013109262 0.027834339 -0.019984977 -0.004436548
-0.0028033433 -0.03410595 0.013839856 -0.007558631 -0.021764254 0.018287659 0.047075734 0.01178283
00000000: 8b40 debc 087c 0c3d 87fe ae3c b99c 3c3d
00000010: b69b e7bc 9793 3dbc 3c6b d63c 93bc 3d3d
00000020: 56bc 343d 4c9f ce3c d993 2b3d e9ee 17bd
00000030: 7ed9 d73c 2cd6 453c bb1b af3b 88b8 343d
00000040: 1efe 6b3c 16a9 353b db81 703c 3b14 e5bb
00000050: 662d 47bc b54d 01bd 4c50 f23b 8c46 3cbb
00000060: b56b e13c 5736 babc 3006 f83c e757 dc3c
00000070: 4eda 9bbc d8a8 51bc 21ad 2fbd 9a3b 9abc
00000080: d61a 15bd 8093 523d 3da8 153d b644 4b3c
00000090: 8983 75bc 35ff 453d 2cab 60bc 7b5e 61bc
000000a0: d76f 3bbd dca3 f2b6 18cb cdbc e20c 8d3c
000000b0: 999f 503c 7b23 3dbd e9c7 e13c 72f8 a8bb
000000c0: fc98 333d 5f04 c53c 73a2 27bd 051b 343c
000000d0: 3bc8 56bc d704 e43c 89b7 a3bc 7660 91bb
000000e0: 4cb8 37bb aeb2 0bbd 90c0 623c 64ae f7bb
000000f0: f34a b2bc 00d0 953c 7cd2 403d c50c 413c

tree_conv.9.weight f4 [64]
0.99878603 1.0004894 1.0008671 1.0009216 1.0014238 0.9992121 0.99970233 1.0011832
0.9988571 1.0011525 0.99855775 0.99909395 1.001938 1.001808 0.99911225 0.99866176
0.99836457 0.9990316 0.99870306 0.99905676 0.9984419 0.9985151 0.99890244 0.99975395
1.0009363 0.9986268 0.9987239 0.99949163 0.99849737 0.9986348 0.99830157 0.9984404
1.0007213 0.9984761 1.0009959 0.9991546 0.99803627 0.99868715 0.99832225 1.000405
0.99891156 1.0001 0.9990205 0.99872965 0.99910545 0.9990183 0.9987807 0.99978274
1.0013922 0.99886465 1.0005949 1.0002427 0.99938196 0.99962825 0.99930066 0.9984244
1.0005867 1.0009723 0.99824584 0.9994011 0.9993461 1.001421 1.0000349 0.9989319
00000000: 71b0 7f3f 0910 803f 6a1c 803f 331e 803f
00000010: a82e 803f 5dcc 7f3f 7eec 7f3f c526 803f
00000020: 19b5 7f3f c425 803f 7ba1 7f3f 9fc4 7f3f
00000030: 813f 803f 3f3b 803f d2c5 7f3f 4ca8 7f3f
00000040: d294 7f3f 89c0 7f3f 01ab 7f3f 2fc2 7f3f
00000050: e399 7f3f b09e 7f3f 12b8 7f3f e0ef 7f3f
00000060: ae1e 803f 02a6 7f3f 5fac 7f3f afde 7f3f
00000070: 869d 7f3f 88a6 7f3f b190 7f3f ca99 7f3f
00000080: a317 803f 219c 7f3f a220 803f 99c8 7f3f
00000090: 4e7f 7f3f f6a9 7f3f 0c92 7f3f 450d 803f
000000a0: abb8 7f3f 4703 803f cfbf 7f3f bfac 7f3f
000000b0: 60c5 7f3f aabf 7f3f 18b0 7f3f c3f1 7f3f
000000c0: 9f2d 803f 98b5 7f3f 7e13 803f f407 803f
000000d0: 7fd7 7f3f a3e7 7f3f 2bd2 7f3f be98 7f3f
000000e0: 3a13 803f dc1f 803f 0a8d 7f3f c0d8 7f3f
000000f0: 25d5 7f3f 902e 803f 2501 803f 00ba 7f3f

tree_conv.9.bias f4 [64]
0.0018175108 -0.0019070045 0.0006260156 0.00185925 0.0017208433 -0.0018160546 0.0018478297 0.0016267913
0.0012717233 -0.0013516273 -0.0018860169 -0.0008929595 0.002112936 0.0014092128 -0.0018009623 -0.0018282866
0.0014547746 -0.0015955657 -0.0018681887 0.0019614215 0.0016307433 -0.001058369 -0.00092016975 0.0012467267
0.0014341614 0.00030165774 0.0016843624 -0.0018203014 0.0017880341 0.0018546463 -0.0009254431 -0.0017394552
-0.0016391372 -0.0019577504 0.0018342186 -0.0019029912 -0.0015850686 -0.0020624897 -0.0016540788 0.00031035792
0.0019020267 0.0020230862 -0.00086770416 0.00181844 0.0018670044 0.001286678 -0.0018298645 -0.0017953388
0.0018962419 0.0012024335 -0.0018518388 0.0019519372 -0.0019326025 -0.0019935889 -0.0018632931 -0.0012723715
-0.0022014272 -0.0017534655 -0.0018944665 0.0015511593 -0.0004933991 -0.0020421327 -0.001868199 -0.00073052675
00000000: 8b39 ee3a 74f4 f9ba 321b 243a 14b2 f33a
00000010: eb8d e13a ae08 eeba e032 f23a 0f3a d53a
00000020: f4af a63a 1629 b1ba 3a34 f7ba 7f15 6aba
00000030: 2f79 0a3b 56b5 b83a 440e ecba 1ea3 efba
00000040: 23ae be3a 4d22 d1ba 03de f4ba 318b 003b
00000050: aabe d53a f8b8 8aba 8c37 71ba 3569 a33a
00000060: 79fa bb3a d127 9e39 d3c5 dc3a 2e97 eeba
00000070: 785c ea3a 9a17 f33a 6f99 72ba 6efe e3ba
00000080: 51d8 d6ba 9a4d 00bb 2a6a f03a ca6d f9ba
00000090: 14c2 cfba d62a 07bb adcd d8ba 89b7 a239
000000a0: 6d4d f93a c195 043b a476 63ba b958 ee3a
000000b0: 46b6 f43a c0a5 a83a 10d8 efba 9351 ebba
000000c0: 528b f83a f99a 9d3a 66b9 f2ba 25d8 ff3a
000000d0: 614f fdba dfa6 02bb be39 f4ba b4c5 a6ba
000000e0: d245 10bb 8ad4 e5ba bf4f f8ba 4550 cb3a
000000f0: 7457 01ba 4dd5 05bb 5bde f4ba d280 3fba

tree_conv.9.running_mean f4 [64]
5.255799 3.7615273 3.100793 1.119127 0.87322575 5.8301086 4.0627728 4.7376366
2.5048397 2.9252758 3.311923 1.0405636 1.6180233 4.1271605 3.089736 2.7696095
3.748502 1.3274193 2.0250137 2.1041224 0.120400086 0.75868624 2.5598145 0.3068583
3.4224114 2.6309824 4.129075 3.649223 2.022137 4.207477 0.03699687 1.7092239
2.8215168 1.9004918 1.2080173 6.501551 4.511956 3.7192316 3.4488983 1.7326727
0.39072946 0.93991816 3.1826644 1.5252076 2.205915 2.602164 4.7221413 3.8720536
1.4890943 1.980865 4.066059 2.0847807 4.5331826 3.3904274 2.1279352 4.5039806
1.7172805 2.4732676 2.436478 5.036962 2.8174372 5.884599 3.7662005 2.7955189
00000000: 812f a840 ddbc 7040 6473 4640 8e3f 8f3f
00000010: b98b 5f3f 4090 ba40 3c02 8240 b89a 9740
00000020: 4b4f 2040 b837 3b40 8cf6 5340 3031 853f
00000030: 631b cf3f b311 8440 3cbe 4540 4841 3140
00000040: 75e7 6f40 e0e8 a93f d399 0140 f1a9 0640
00000050: 5294 f63d 4339 423f 00d4 2340 881c 9d3e
00000060: ca08 5b40 0462 2840 6221 8440 df8c 6940
00000070: b16a 0140 a7a3 8640 088a 173d d9c7 da3f
00000080: bb93 3440 5143 f33f 50a0 9a3f b50c d040
00000090: f261 9040 e407 6e40 c0ba 5c40 38c8 dd3f
000000a0: b10d c83e 7a9e 703f c6b0 4b40 013a c33f
000000b0: b62d 0d40 db89 2640 c81b 9740 bacf 7740
000000c0: a49a be3f fc8c fd3f 281d 8240 0c6d 0540
000000d0: d50f 9140 c3fc 5840 1730 0840 9c20 9040
000000e0: d9cf db3f 044a 1e40 41ef 1b40 cb2e a140
000000f0: e450 3440 a34e bc40 6e09 7140 c8e9 3240

tree_conv.9.running_var f4 [64]
1.6345938 1.5230811 0.6132572 0.7247308 1.7601695 2.6406229 2.1539626 1.6707857
1.1930954 2.816216 0.8723747 0.8974565 2.3968487 0.9666144 0.9804366 0.88993466
1.354134 1.3078051 0.4166511 3.1166885 0.10882566 2.0293877 1.6459045 0.24706292
0.7496157 0.973317 1.7130095 1.0177834 1.4658575 2.291021 0.011295141 0.7392396
1.4108462 0.1958291 0.9490336 2.3947206 1.2631868 1.5140537 0.8140918 1.9783825
0.17635396 1.0301656 1.8126711 0.9303526 2.2137675 3.8770528 1.9223124 3.350945
2.4209263 1.6850272 1.1544169 1.5401006 1.5355161 0.65660906 0.766582 2.2109158
0.19836164 0.6354816 0.5301857 1.6506772 2.1249433 1.8443723 0.7594279 1.6209724
00000000: 5f3a d13f 52f4 c23f 6dfe 1c3f f587 393f
00000010: 3c4d e13f f7ff 2840 86da 0940 4edc d53f
00000020: 5ab7 983f e23c 3440 f353 5f3f b6bf 653f
00000030: f865 1940 0b74 773f e5fd 7a3f c2d2 633f
00000040: 4354 ad3f 2866 a73f 4b53 d53e d377 4740
00000050: fddf de3d 7de1 0140 00ad d23f 10fe 7c3e
00000060: d1e6 3f3f 4e2b 793f e543 db3f ba46 823f
00000070: 38a1 bb3f 17a0 1240 410f 393c ce3e 3d3f
00000080: 9c96 b43f 6c87 483e def3 723f 1a43 1940
00000090: 1bb0 a13f 83cc c13f 5268 503f a33b fd3f
000000a0: 2296 343e 77dc 833f 9b05 e83f 972b 6e3f
000000b0: 5eae 0d40 a221 7840 550e f63f e275 5640
000000c0: 75f0 1a40 f9ae d73f efc3 933f 0422 c53f
000000d0: cb8b c43f 8817 283f b83e 443f a57f 0d40
000000e0: 501f 4b3e ecae 223f 40ba 073f 6449 d33f
000000f0: 12ff 0740 6414 ec3f de69 423f 067c cf3f

tree_conv.10.weight f4 [32, 64]
-0.074368015 -0.02561327 -0.0027966418 -0.0111009665 -0.031652838 0.04477463 0.0816215 0.098338224
0.05019454 0.07035104 -0.06534371 -0.03225367 -0.10702747 0.06497095 -0.039572388 0.0366337
-0.078732274 -0.079692945 0.037784673 -0.058122013 0.011705019 0.0450776 -0.07379255 -0.07679785
-0.047138557 0.06452473 -0.0637274 -0.09742853 0.08961824 0.090706825 -0.032116752 -0.12164638
-0.07707213 0.10118083 -0.05113449 -0.06087403 -0.08019709 -0.0031468451 -0.010921115 0.0881183
0.023717426 -0.044782497 0.072841175 0.0067237797 0.112557776 -0.052626107 0.08523049 0.1017302
0.01568222 0.025347447 0.089595 -0.107908875 0.022541981 0.07549111 0.08663123 0.08533174
-0.018004788 -0.12168632 -0.10464914 -0.02969748 -0.052956257 -0.05710616 -0.025041716 -0.12165193
0.072648056 -0.069964014 0.016226277 -0.0628063 -0.108216256 0.11529337 -0.12119486 -0.081241004
0.02842937 -0.0882686 0.11037055 0.09631707 0.047132794 -0.091235906 0.06073324 -0.101761855
0.082744636 -0.038089234 -0.03158217 0.003242425 -0.09006867 0.039725177 -0.06998945 0.0797952
-0.041714195 0.08643546 -0.11861341 -0.028230136 -0.07501854 -0.09652002 -0.06160673 -0.074986845
-0.067584656 -0.058389362 0.04006176 0.08366724 -0.06255096 0.11066895 0.057104968 0.05401421
0.094901666 -0.010893876 -0.09524264 0.029443651 0.01099572 -0.023390682 0.03420173 -0.0045071854
0.08928901 0.110642426 0.10968899 0.035562973 0.025351113 -0.07332389 0.11309809 0.03698935
0.004247249 -0.11144568 0.047142733 -0.07959497 -0.11335907 0.10713745 0.054572172 -0.011136734
-0.11225321 -0.01152078 -0.07924279 0.050297122 0.09296495 -0.0819816 0.120845124 -0.08308841
0.11491123 0.0032887792 -0.11394944 0.018059673 0.094111264 0.044844143 -0.033680357 -0.10959831
-0.09579696 -0.1206273 -0.046274874 0.08809592 0.056970827 0.03358048 0.107740544 -0.11882881
-0.0055233594 0.02613517 -0.12040419 -0.087906525 0.09086872 0.05717608 -0.067943245 -0.09653749
0.09911594 -0.122536995 -4.809899e-05 0.05879303 0.1139548 -0.07134058 0.10074959 0.059462626
0.06102771 0.0030295036 -0.07491152 0.11105284 0.101826034 0.0030858172 0.017660925 0.107259475
-0.048915654 0.09063061 -0.0049689864 0.0075431424 -0.10684422 0.040735666 0.09758311 0.05481391
-0.11238131 0.09073725 -0.021232413 0.005605895 -0.061452776 -0.09572769 0.014830435 -0.02182158
-0.11462907 -0.11931663 0.056534197 0.044959716 0.12284078 0.058067553 0.11898625 -0.006118984
-0.10837127 0.1144321 -0.06294885 -0.056216627 -0.07912106 0.08638609 0.037105024 -0.09504031
0.10190318 0.041122466 0.010851476 -0.121713065 0.03921131 0.102130026 -0.1197603 0.11997366
-0.10181209 -0.11738248 0.05359258 0.010112349 0.11332836 0.046932854 0.03346421 0.124199994
0.11200431 0.07161021 -0.032720573 -0.025069207 0.017967386 0.02576743 0.118394405 -0.026717812
-0.035349034 -0.055532463 0.074276485 0.044422906 -0.1116944 0.043403734 0.04677652 0.0038526722
-0.081894636 0.058616932 0.0891128 -0.07718221 -0.07015504 0.033519145 0.0843925 -0.097554624
-0.100260526 -0.08243772 -0.0967312 -0.0021878346 0.041098017 0.061883554 0.012868819 0.021392127
00000000: 424e 98bd ecd2 d1bc dd47 37bb d4e0 35bc
00000010: 68a6 01bd 9a65 373d 2c29 a73d 8d65 c93d
00000020: ca98 4d3d 3514 903d ecd2 85bd 6d1c 04bd
00000030: 3831 dbbd 7d0f 853d a816 22bd 380d 163d
00000040: 633e a1bd 0e36 a3bd 1ac4 1a3d 5911 6ebd
00000050: 68c6 3f3c 4aa3 383d 8c20 97bd 3148 9dbd
00000060: 5c14 41bd 8b25 843d 8383 82bd 9c88 c7bd
00000070: c589 b73d 80c4 b93d db8c 03bd bd21 f9bd
00000080: fed7 9dbd e537 cf3d 6672 51bd 0c57 79bd
00000090: 5f3e a4bd 4d3b 4ebb 7aee 32bc 5e77 b43d
000000a0: 0c4b c23c da6d 37bd c12d 953d 2753 dc3b
000000b0: b184 e63d 798e 57bd 538d ae3d ec57 d03d
000000c0: 0078 803c 73a5 cf3c 957d b73d 54ff dcbd
000000d0: f6a9 b83c 159b 9a3d b76b b13d 68c2 ae3d
000000e0: c77e 93bc ad36 f9bd 4a52 d6bd 2148 f3bc
000000f0: a9e8 58bd 26e8 69bd 4924 cdbc a624 f9bd
00000100: 81c8 943d 4b49 8fbd f8ec 843c 97a0 80bd
00000110: 7ca0 ddbd ee1e ec3d 0335 f8bd af61 a6bd
00000120: b6e4 e83c 2bc6 b4bd f409 e23d e241 c53d
00000130: 510e 413d e4d9 babd 6bc3 783d 8568 d0bd
00000140: 0576 a93d 7503 1cbd 4e5c 01bd dd7e 543b
00000150: ec75 b8bd deb6 223d a156 8fbd aa6b a33d
00000160: 81dc 2abd 1305 b13d 96eb f2bd e342 e7bc
00000170: 52a3 99bd 4aac c5bd 5757 7cbd b492 99bd
00000180: d369 8abd af29 6fbd cd17 243d bb59 ab3d
00000190: b81a 80bd 67a6 e23d e6e6 693d 013e 5d3d
000001a0: ce5b c23d 3a7c 32bc 930e c3bd d033 f13c
000001b0: 6427 343c d19d bfbc 1d17 0c3d 03b1 93bb
000001c0: 28dd b63d 7f98 e23d 9fa4 e03d 7baa 113d
000001d0: 23ad cf3c d62a 96bd f99f e73d 2582 173d
000001e0: 822c 8b3b a23d e4bd bd18 413d b002 a3bd
000001f0: cd28 e8bd e16a db3d 1287 5f3d d976 36bc
00000200: 03e5 e5bd a7c1 3cbc 0b4a a2bd 5b04 4e3d
00000210: 6864 be3d f8e5 a7bd a67d f73d 422a aabd
00000220: 9456 eb3d 8f88 573b 535e e9bd e1f1 933c
00000230: 68bd c03d 7eae 373d 6af4 09bd 1475 e0bd
00000240: 3231 c4bd 720b f7bd b98a 3dbd a26b b43d
00000250: 3e5a 693d af8b 093d 13a7 dc3d 855c f3bd
00000260: 4cfd b4bb 6d19 d63c 7996 f6bd 5608 b4bd
00000270: 6119 ba3d 7731 6a3d d425 8bbd 73b5 c5bd
00000280: 4cfd ca3d adf4 fabd e6bd 49b8 f6d0 703d
00000290: 2261 e93d 031b 92bd cd55 ce3d 158f 733d
000002a0: 31f8 793d a38a 463b 366b 99bd ac6f e33d
000002b0: 2b8a d03d 6c3b 4a3b a5ad 903c dbaa db3d
000002c0: c85b 48bd 8b9c b93d e1d2 a2bb 772c f73b
000002d0: 24d1 dabd 71da 263d a7d9 c73d 8d84 603d
000002e0: 2c28 e6bd 74d4 b93d 99ef adbc a8b1 b73b
000002f0: e8b5 7bbd e10c c4bd 5afb 723c 2cc3 b2bc
00000300: a5c2 eabd 475c f4bd 6790 673d ae27 383d
00000310: f293 fb3d 3ed8 6d3d 10af f33d c281 c8bb
00000320: c2f1 ddbd 605b ea3d 54eb 80bd 6843 66bd
00000330: 390a a2bd 31eb b03d 70fb 173d 7ea4 c2bd
00000340: 9db2 d03d 0870 283d 64ca 313c b344 f9bd
00000350: 0a9c 203d 8c29 d13d e344 f5bd c0b4 f53d
00000360: db82 d0bd 3a66 f0bd e583 5b3d 44ae 253c
00000370: b318 e83d aa3c 403d c411 093d 915c fe3d
00000380: 8462 e53d 60a8 923d 0206 06bd f05d cdbc
00000390: 5730 933c 3816 d33c c478 f23d 50df dabc
000003a0: 26ca 10bd 0276 63bd 451e 983d cbf4 353d
000003b0: 09c0 e4bd 1dc8 313d bc98 3f3d 1d7d 7c3b
000003c0: 60b8 a7bd 4f18 703d c680 b63d b511 9ebd
000003d0: 72ad 8fbd 5f4b 093d fad5 ac3d b8ca c7bd
000003e0: 6455 cdbd 1bd5 a8bd 021b c6bd c661 0fbb
000003f0: 6556 283d 9c79 7d3d bdd7 523c 8b3e af3c

tree_conv.10.bias f4 [32]
-0.08484116 -0.055816244 0.06316759 -0.043159798 -0.06791933 -0.10069911 -0.051939856 -0.015411462
-0.019948447 0.02150325 0.037494875 0.033652104 -0.008447194 -0.018465238 -0.08589922 -0.009392563
-0.094156995 0.096785635 0.071030006 -0.09755372 0.051476795 0.04433812 -0.065103 -0.035203237
-0.120031945 -0.07983433 -0.012056838 -0.09781963 -0.074409805 -0.01084791 0.05146723 -0.116856836
00000000: 34c1 adbd 939f 64bd 025e 813d 54c8 30bd
00000010: 4a19 8bbd 563b cebd e3be 54bd 5b80 7cbc
00000020: ed6a a3bc 9527 b03c 3a94 193d cad6 093d
00000030: 1966 0abc 6944 97bc eeeb afbd 44e3 19bc
00000040: 62d5 c0bd 8c37 c63d 2e78 913d 3fca c7bd
00000050: 55d9 523d e39b 353d b954 85bd 4531 10bd
00000060: 4fd3 f5bd 2e80 a3bd 0b8a 45bc a855 c8bd
00000070: 2b64 98bd 6fbb 31bc 4dcf 523d a352 efbd

tree_conv.12.weight f4 [16, 32]
0.01196427 -0.0204519 -0.16534925 0.097807385 0.05254675 -0.17092536 -0.03219324 0.15845618
-0.1123341 0.0903815 -0.10373073 -0.16405886 -0.110431 0.14598161 -0.14011484 0.09665623
0.083010934 -0.04208275 -0.03848269 -0.020136084 0.09458279 0.17873085 -0.03555738 0.08854907
-0.09579087 -0.012282039 -0.070135824 0.08717693 -0.1708149 -0.050177995 -0.075314716 -0.005594122
-0.135955 -0.108498625 0.0033193773 -0.1702603 0.077486634 0.14081955 0.16576843 0.08852697
0.12359469 0.17098826 -0.14537935 -0.087546855 0.14001426 0.08484357 0.021101369 0.1229208
0.0867333 0.029043144 0.04048049 -0.031237135 0.13752566 0.11899092 -0.08249108 0.046801012
-0.020043582 0.13653372 0.03836775 -0.029987093 0.16461524 -0.055864733 -0.04196482 -0.16943158
-0.12851396 0.017993461 0.01539901 0.005497287 -0.06318474 0.13906163 0.14160347 -0.17598262
0.08290748 -0.03090621 0.12737963 0.04069083 0.07709488 -0.059912097 -0.027147727 0.14394069
0.1301837 0.040988043 -0.06083681 0.02953944 -0.13409959 0.11772201 -0.14551453 0.083142675
0.003052155 0.036971543 -0.007895606 0.17272453 -0.044382084 0.099018954 0.1741492 -0.13371699
0.14652395 0.020120958 0.16903889 0.17324227 0.06795725 0.15171199 0.047249712 0.14411311
-0.11792924 0.03491688 -0.11754965 0.1729523 0.029817017 0.06187795 0.17157929 0.16492777
0.018792244 0.066344686 0.1727287 -0.07570279 0.13083091 0.17474666 0.14740345 0.07861469
0.04634493 0.06587888 -0.17871048 -0.16177537 0.17021815 0.040182684 0.14180285 -0.009445969
-0.115549654 0.12057704 -0.17297716 -0.08819509 0.03660953 0.0064037037 0.11991922 -0.112211175
-0.1244922 0.035036944 0.031694736 0.08610713 -0.10515695 0.13455187 0.08085467 0.16828403
0.06585133 0.10551855 -0.03482769 -0.111885436 0.05067219 0.14852658 0.17373088 -0.09316274
0.031657077 0.12411784 0.1068808 0.052791357 0.099523045 0.034811404 0.11145907 0.05141184
-0.00839715 -0.113753505 -0.10502478 -0.02044212 0.17426331 0.14793368 -0.0038772314 0.11747241
0.15709661 0.06573373 -0.15672427 -0.07258073 -0.08929394 0.007511682 0.12696362 -0.1216664
0.04725815 -0.12429985 -0.12057618 -0.08962651 -0.012755136 -0.12805149 0.01993509 0.03809174
-0.02246233 0.027176477 0.025761498 0.12686841 0.13387282 -0.035518672 -0.016157791 0.13355048
-0.0754289 0.07596335 -0.12968245 -0.17259684 0.14053267 0.11603702 -0.15767285 -0.09638319
-0.101147264 -0.08561927 -0.038519613 0.16816685 0.061062045 -0.063046396 -0.019110443 0.046380468
-0.16512643 -0.05233244 -0.06724195 0.08163128 -0.07038097 0.13241217 0.10292298 0.052088574
-0.020717788 0.1604638 0.06219072 0.06966124 0.13165608 -0.050622165 -0.0004796584 0.016457053
-0.052596424 0.06297122 0.1316272 -0.13703412 -0.08243588 0.14944142 -0.14425273 -0.1613398
-0.015405358 -0.11635285 0.17320351 0.053124793 0.16609536 -0.059622973 -0.10045601 0.05695429
-0.16968499 -0.0053397384 0.12127523 -0.122801624 0.16299844 -0.035632156 -0.10180492 0.17094257
0.12394529 -0.075803936 0.01695273 -0.027235761 -0.10747234 0.0019374372 0.1673856 -0.14249629
00000000: c905 443c be8a a7bc 5051 29be 3d4f c83d
00000010: 433b 573d 0f07 2fbe 0fdd 03bd 5642 223e
00000020: 6c0f e6bd f019 b93d c770 d4bd 0cff 27be
00000030: a629 e2bd 347c 153e 447a 0fbe b4f3 c53d
00000040: a301 aa3d f65e 2cbd 06a0 1dbd 6ef4 a4bc
00000050: 9fb4 c13d 3805 373e 9ea4 11bd 3759 b53d
00000060: 012e c4bd 9b3a 49bc 5fa3 8fbd d189 b23d
00000070: 1aea 2ebe 7187 4dbd 9a3e 9abd e64e b7bb
00000080: ca37 0bbe 8734 debd e989 593b b758 2ebe
00000090: 50b1 9e3d 0033 103e 33bf 293e a14d b53d
000000a0: 361f fd3d 8c17 2f3e 53de 14be c44b b3bd
000000b0: e65f 0f3e 77c2 ad3d c7dc ac3c e6bd fb3d
000000c0: 3aa1 b13d e3eb ed3c dfce 253d 05e5 ffbc
000000d0: 87d3 0c3e 83b1 f33d 15f1 a8bd 6bb2 3f3d
000000e0: 7032 a4bc 7fcf 0b3e 8027 1d3d 7ea7 f5bc
000000f0: e690 283e 6bd2 64bd 4ee3 2bbd 797f 2dbe
00000100: 2a99 03be 0667 933c 214c 7c3c 9622 b43b
00000110: 0067 81bd 2c66 0e3e 8000 113e ca34 34be
00000120: 66cb a93d 052f fdbc ce6f 023e 6eab 263d
00000130: ece3 9d3d 6366 75bd e964 debc 3065 133e
00000140: e04e 053e 14e3 273d 0530 79bd b2fc f13c
00000150: 6751 09be 3d18 f13d c301 15be b546 aa3d
00000160: aa06 483b 796f 173d 925c 01bc b3de 303e
00000170: fdc9 35bd 73ca ca3d 2b54 323e 1bed 08be
00000180: 600a 163e b5d4 a43c 8818 2d3e 6c66 313e
00000190: 2c2d 8b3d 635a 1b3e ea88 413d 6392 133e
000001a0: e384 f1bd 0105 0f3d dfbd f0bd 681a 313e
000001b0: d142 f43c bc73 7d3d 7bb2 2f3e d3e2 283e
000001c0: 31f2 993c b9df 873d cbdf 303e 100a 9bbd
000001d0: 8af8 053e caf0 323e eef0 163e bd00 a13d
000001e0: 2ed4 3d3d 82eb 863d e1ff 36be 71a8 25be
000001f0: ab4d 2e3e 9996 243d c434 113e 44c3 1abc
00000200: 4ca5 ecbd 18f1 f63d ed20 31be a19f b4bd
00000210: e0f3 153d 29d6 d13b 3598 f53d f9ce e5bd
00000220: c4f5 febd e682 0f3d 57d2 013d ef58 b03d
00000230: 875c d7bd f7c7 093e 2297 a53d a652 2c3e
00000240: 10dd 863d 1c1a d83d 7ba7 0ebd 3124 e5bd
00000250: a48d 4f3d 5a17 183e 82e6 313e 1bcc bebd
00000260: daaa 013d 7e31 fe3d 52e4 da3d c03b 583d
00000270: bdd2 cb3d 6796 0e3d a744 e43d 3995 523d
00000280: 3394 09bc 99f7 e8bd 3b17 d7bd 3c76 a7bc
00000290: 1572 323e ed7b 173e 2619 7ebb 6095 f03d
000002a0: efdd 203e 689f 863d 547c 20be 35a5 94bd
000002b0: bedf b6bd 8e24 f63b c002 023e 3c2c f9bd
000002c0: c391 413d eb90 febd a5f0 f6bd 1b8e b7bd
000002d0: ebfa 50bc ee1f 03be ea4e a33c 1606 1c3d
000002e0: ec02 b8bc 34a1 de3c c709 d33c cbe9 013e
000002f0: f515 093e 077c 11bd 585d 84bc 75c1 083e
00000300: 787a 9abd ac92 9b3d 7acb 04be 3abd 30be
00000310: cce7 0f3e d1a4 ed3d fe74 21be 8d64 c5bd
00000320: 4c26 cfbd 2859 afbd bec6 1dbd ee33 2c3e
00000330: 321c 7a3d 781e 81bd 818d 9cbc 72f9 3d3d
00000340: e716 29be 8a5a 56bd 26b6 89bd 4d2e a73d
00000350: e623 90bd 0e97 073e 49c9 d23d d45a 553d
00000360: 5ab8 a9bc 9f50 243e b2bb 7e3d 8daa 8e3d
00000370: dad0 063e 3059 4fbd a97a fbb9 f1d0 863c
00000380: 596f 57bd 0ef7 803d 48c9 063e ac52 0cbe
00000390: 25d4 a8bd 2c07 193e fdb6 13be 4336 25be
000003a0: c166 7cbc 674a eebd 435c 313e 6299 593d
000003b0: e714 2a3e 3837 74bd e1bb cdbd e748 693d
000003c0: e7c1 2dbe f9f8 aebb 265f f83d 6b7f fbbd
000003d0: 10e9 263e 06f3 11bd 197f d0bd 920b 2f3e
000003e0: 07d7 fd3d 183f 9bbd 74e0 8a3c 881d dfbc
000003f0: 751a dcbd 9bf1 fd3a 2167 2b3e 8cea 11be

tree_conv.12.bias f4 [16]
0.03364798 -0.16332476 -0.04996949 -0.13839704 -0.02866972 -0.030400733 -0.04642082 0.17780857
0.0015453858 -0.03682929 -0.042759437 -0.16662456 0.028660411 -0.0851371 -0.08198262 -0.017217724
00000000: 77d2 093d 9b3e 27be cfac 4cbd f4b7 0dbe
00000010: c3dc eabc f50a f9bc c223 3ebd 7313 363e
00000020: 8b8e ca3a 4fda 16bd 8524 2fbd a19f 2abe
00000030: 3dc9 ea3c 5c5c aebd 81e6 a7bd 2f0c 8dbc
