src/Models/cost.onnx (onnx, 681599 bytes, 15 tensors)

tree_conv.0.weights.weight f4 [256, 50, 3]
00000000: cfd0 37bd 34f2 d9bc 5d9c 75bd aad3 f23c
00000010: 739d 92bc dbb8 ccbc d24c be3c bd89 97bd
00000020: d6c7 21bc b9ae cdbb a1a9 053d 11c1 99bd
00000030: f37c c4bc 9567 8e3d 7238 853d 4452 aabc
00000040: f717 74bd 67b2 3dbc 50fe 0f3d 816c 25bd
00000050: dd77 183d e366 c8bb 3c00 81bc e980 cdbc
00000060: 92cf 9cbd 3490 0d3d 3ff2 673c e0de 5f3c
00000070: ebad 6dbd 2180 9bba aecf 883d 9062 ec3c
00000080: d639 be3c ff75 95bd ddee 8cbc a74f bf3c
00000090: 3dbc 02bd 8286 d53c a8e2 dcbc 2d3a 0c3c
000000a0: ca94 e1bc 3ceb a43d 1e69 0abd fa93 953b
000000b0: 3340 d1bc 0b16 f6bc 24cc 913d 97ec 973d
000000c0: ca2b ba3c 8d37 2cbd fbe9 51bd 8a22 a7bd
000000d0: 2552 343c 5e37 a73b 6c8e 823d b80e 5ebd
000000e0: 4ec9 d53a 6b20 52bd 7afa 76bd 9489 2c3d
000000f0: 7a9b 5c3d 0c7b 803d 67dc 2dbd 7022 fd3c
00000100: 96a8 a3bd 7eb8 a23d 080e 113d 7e5a 63bc
00000110: 2ec1 99bb 321e 953c 9672 bb3c 02e3 01ba
00000120: 8ac1 05bd 4e34 82bd e1b5 40bd ca3d 3d3d
00000130: ebd1 843d fb20 88bd 1ce4 55bd 2930 7f3d
00000140: 278a 253d 65cf 453d 20d0 a43d 5c9c 13bc
00000150: 9150 ee3c 82c2 abbc e382 40bd 2370 853d
00000160: f56f 74bc d678 69bd 53d7 9bbd 1425 423d
00000170: f144 1f3d 81a1 913d a079 7c3d d5c5 1dbd
00000180: 9b0f ab3c f878 81bd 00f4 05bc 25fb 12bd
00000190: 4875 4dbd df36 9338 5114 88b9 2153 a4bd
000001a0: 0956 343d c3cc 493d 1336 59bd 8fa5 a33d
000001b0: 8131 9c3d 40f6 2e3d ef4e 803d 950f 953d
000001c0: 26b9 033c ef53 7bba a9fe 413d cd75 d23c
000001d0: ce54 ba3c 188a 88bd b150 0a3d 1f5c 00bd
000001e0: a232 22bd ceb8 5bbd 6718 71bd 0a75 c53c
000001f0: a9c7 53bd e29c 94bd c570 9f3d 8aae 87bd
00000200: b288 693d 16a8 dd3c 5310 21bd e6e7 44bd
00000210: bf6f d0bc e27d 0ebd e29c 14bd 7108 91bd
00000220: 19b3 56bd 7dc5 6fbd b1b1 12bd ca47 543d
00000230: 5cb1 76bd 5308 2f3d a0e9 f8bc bfa9 61bd
00000240: 89e4 febc c738 6bba b2a0 8cbd 6b5b af3c
00000250: e746 83bd b210 8c3d 1c50 ffbc a4fa a1bd
00000260: 20da 453d bcf2 8e3d 4d17 e2bc aa59 18bd
00000270: 5fb8 693d 5f95 c2bc e8f0 a33c 0920 04bd
00000280: 902f 703d 5b39 833d 1bc3 7abd c6af 1b3d
00000290: b4fd 6e3d 8fb3 90bd ad92 823c 55c9 87bd
000002a0: 78c1 16bd 2080 d2bb 01f7 98bd 8168 75bd
000002b0: 593e 91bd fb4f 49bb 2a31 9d3d b14e 8cbd
000002c0: 671f a23d 0cb5 9f3c 5716 09bd fb55 91bd
000002d0: 5e8a 983d bfad 09bc 766c 433d 1872 463d
000002e0: 831e 0bbd 299f 0bbc 7edf b83c 45ad 503d
000002f0: 8f04 10bd 443c 92bd 0707 813d 18a2 a8bc
00000300: 142f e5bc a677 993d 5658 663d 591c 073c
00000310: 5936 9f3c 0b1a 393d 7151 2a3d 93e9 ecbc
00000320: 81ab 05bd ee83 403d b693 5b3d ddcc 413c
00000330: 5ce2 513d c2a1 6abc d820 f6bb 8807 a7bd
00000340: 00f9 853c 97dd 55bd 1955 5dbd 9647 8cbd
00000350: 1c30 083d dc86 92bd 58ff 8d3d df4a babc
00000360: 44fa 00bd c188 833d 45cd 83bd 0135 9a3d
00000370: 9467 2a3c 8c13 bbbc e62a ae3c f0b8 d9bc
00000380: 31e6 6f3d 3aac 993d 4327 803d 7552 013d
00000390: 87a6 6b3d bfb8 a53d b67b 48bd ae43 e73c
000003a0: 09a4 473c cd40 06bd 25f6 553d c3f2 083d
000003b0: 50e5 9d3d 8646 54bc fc2b 7e3d ba2b a1bd
000003c0: 85d1 d83b 6eab 4e3c fd87 013d ee06 4b3d
000003d0: 0c5c 2b3d 14c1 35bd 2062 513d a149 85bd
000003e0: daee 343d 0d6d 1abc 9eca 523d 6eb8 debc
000003f0: 5a0d 36bd 2716 3c3d 4ab8 2abd 7e64 c43c
-0.04487687 -0.02660475 -0.059963573 0.029641945 -0.017897343 -0.02499049 0.02322999 -0.07399318
-0.009874305 -0.006276932 0.032632474 -0.075075276 -0.023985362 0.069533505 0.06504907 -0.02079118
-0.059593167 -0.011578179 0.03515464 -0.04038668 0.037223686 -0.0061157807 -0.015747182 -0.025085883
-0.076567784 0.03456135 0.014156877 0.013663977 -0.05802719 -0.0011863747 0.06680237 0.028855592
0.023220938 -0.072978966 -0.017203743 0.02335341 -0.0319178 0.026065115 -0.026963547 0.008558792
-0.027536768 0.0805268 -0.033791654 0.0045647593 -0.025543308 -0.030039808 0.07119015 0.07418173
0.022725958 -0.042045165 -0.05124853 -0.08160885 0.011005913 0.005103036 0.06374821 -0.054213256
0.0016310604 -0.051300447 -0.060297467 0.042123392 0.05385921 0.06273469 -0.04244652 0.03090021
-0.079911396 0.07945345 0.035413772 -0.0138765555 -0.0046922183 0.018202875 0.022881787 -0.0004954786
-0.032655276 -0.063576326 -0.047048453 0.046201505 0.06485351 -0.066469155 -0.052219495 0.06230179
0.040414955 0.04829349 0.08047509 -0.009009447 0.029091151 -0.020966772 -0.046999823 0.06515529
-0.014919271 -0.057000004 -0.07609429 0.04739864 0.038884107 0.071108826 0.06163943 -0.038518745
0.020881465 -0.06321901 -0.00817585 -0.03588404 -0.050160676 7.019727e-05 -0.00025955078 -0.08023668
0.044027362 0.04926754 -0.053030085 0.07990562 0.076266296 0.04271531 0.062650554 0.07278363
0.008039748 -0.0009587397 0.047362003 0.025690937 0.022745516 -0.06666964 0.03376836 -0.031337854
-0.03959907 -0.05364304 -0.058861163 0.02410366 -0.051704083 -0.072564855 0.07785181 -0.066250876
0.05701513 0.027057689 -0.03932221 -0.048072718 -0.02544391 -0.03478802 -0.036282428 -0.07081688
-0.052416895 -0.05853795 -0.03581399 0.051826276 -0.060227737 0.042732548 -0.030384839 -0.055093523
-0.031114833 -0.0008972999 -0.06866588 0.021405896 -0.06410008 0.06839122 -0.031166129 -0.07909134
0.048303723 0.06979892 -0.027599001 -0.037194885 0.057060596 -0.023752866 0.020012334 -0.032257114
0.05863911 0.06407424 -0.061221223 0.038009427 0.05834742 -0.07065498 0.015939081 -0.06630198
-0.0368056 -0.006423965 -0.07468987 -0.059914116 -0.0709197 -0.0030717838 0.07675393 -0.06850947
0.07916146 0.01949551 -0.03346857 -0.070964776 0.074482664 -0.008403241 0.04771086 0.048448652
-0.033964645 -0.008521833 0.022567507 0.050946493 -0.035160597 -0.07140401 0.063001685 -0.020585105
-0.02797655 0.07493524 0.056236587 0.008246505 0.019435095 0.045190852 0.041581575 -0.02891997
-0.032634262 0.047000818 0.053607665 0.011828628 0.051241264 -0.014320793 -0.0075112395 -0.08155733
0.016354084 -0.052213278 -0.054036234 -0.068495914 0.033249006 -0.07154629 0.069334686 -0.02274078
-0.031488672 0.06422568 -0.064356364 0.07529641 0.0104006715 -0.02283647 0.02126069 -0.026577443
0.058569137 0.07503553 0.062574886 0.031572778 0.05753186 0.08091878 -0.048946105 0.028230514
0.012185105 -0.032776643 0.052236695 0.03343464 0.077097535 -0.012956267 0.062053666 -0.07869668
0.0066167735 0.012614114 0.03162383 0.049567156 0.04183583 -0.044373587 0.05111897 -0.06508184
0.0441731 -0.009425414 0.051462762 -0.027187552 -0.044446327 0.045919564 -0.041679658 0.0239737

tree_conv.0.weights.bias f4 [256]
00000000: 4047 f23b ba37 943d adb2 56bd 0f0a 06bd
00000010: 9a38 fbbc 9fe9 563d 0119 62bd b7c3 9e3d
00000020: fbe8 71bd 3c6a 7ebd 54b9 24bd 3940 923c
00000030: ab85 79bd 79aa f9bc 13e5 833c 3401 febc
00000040: f584 15bd 6f19 a03d 4bed 5f3c 6f3b e6bc
00000050: 5495 f3bc 9fb1 8fbd c6c8 583d 41fd dabc
00000060: f75a 113d f7b7 153d f14d da3c 5d9f 8ab9
00000070: c4c3 a7bc a087 c2bc eb0f 6dbd 73b4 9c3d
00000080: c83b 4e3d 83ca 86bd ffb5 d5bc a3ec 56bc
00000090: 8d2b 113c ecb8 95bc 0b7b 4abd 1a43 343d
000000a0: 2e15 9dbd d18c 763d 8095 77bd 97e4 453d
000000b0: acd8 8d3d 4794 bcbb b3fd 8c3d 5121 25bd
000000c0: 36ef 46bd fd92 fabc 7535 85bd b155 65bd
000000d0: cda5 e4bb c4de a2bd eab2 853d 75a5 31bd
000000e0: 1b53 92bd 6f57 b3b9 f3e9 ebbc 4504 d53c
000000f0: d94f 7e3d 2a88 9d3d 282b 643d 7b16 4ebd
00000100: 1a60 8bbd 7e0c 693d d992 923d b478 363d
00000110: 65c8 433b 4290 a33d d4c1 e9bc 833d 88bd
00000120: 5228 afba 5be2 9ebd 1452 e5bc e687 a63c
00000130: 3ff1 99bd 2e4e 06bd ce9e debb 0451 7bbd
00000140: e7f4 2f3d ecca 5d3c 4dc3 31bd a80d 0abd
00000150: 7ff5 84bd 8b85 efbc 5edc 8e3d 6fbb 7b3d
00000160: d149 0bbd 958b 12bd 9097 96bc 2128 a6bd
00000170: 0ba8 cfbc 688e 0fbd ae6c c5bc dc8b a3bd
00000180: 315f 9cbd 492a 9abb 5d4a eebc b55a 313c
00000190: 81ed 84bd 5c1f 10bd ea03 073d 7054 2a3d
000001a0: 76ca 8e3d ac1b 053d ca93 b53c 2b1a 2aba
000001b0: f24e 6a3d ab9f a2bd 1896 76bd 70b2 b7bc
000001c0: e8cf 5abd 4bf3 02bd f671 0a3d 678f 083d
000001d0: 3809 7f3d ec50 8abc e1c5 c93c 18fd 50bc
000001e0: 71ad 8abd 6622 5cbd 1b79 7e3d e1af 1f3d
000001f0: 2c2d b4bb a589 9fbd 8912 973d b2a6 82bd
00000200: ef78 4d3d 63a0 08bd c900 05bd 92f3 a23b
00000210: c727 9abd 09bd 2ebd bf0d 57bd dc3d 853d
00000220: d2da 97bd 4685 993d 3e64 06bd 6159 be3c
00000230: 92db 553d d982 cf3c 54dc 143d 025a 7dbc
00000240: 7d53 f5bc 52e3 9ebd 8776 3b3d 7d9a 8c3b
00000250: 4e4b 3ebd a5b7 963d 02fd bbbc 803c 483d
00000260: a00c 9d3d f705 aebc 80ba 49bd 1367 8fbd
00000270: 037c 30bc 3437 88bd a8dc 24bd f626 233d
00000280: 64ac c0bc f549 91bd e469 a23c 0f42 5dbd
00000290: 22da 0d3d 92db 61bd e97f 53bd 029f 333d
000002a0: 176c 163d 63c9 b73b 1701 7a3d 59e4 043d
000002b0: efdf a03c 8d37 a3bc 1402 7bbb 3fc6 d53c
000002c0: c9ed 583d 58d5 783d 5ee2 9c3d 33e8 2dbd
000002d0: 33ee 8fbd de81 cc3c ff3d 67bc 4f10 a43d
000002e0: 7c9e e1bc bc57 9f3d 4019 5bbd b95d b8bc
000002f0: 6a64 6c3d 8cf8 133d d620 333d ec20 d8bc
00000300: 6838 38bd 6c6e a23d 3af7 953d 430a 6dbd
00000310: 2765 993d 7a04 883d 5672 2fbd 29d6 31bc
00000320: bfeb 0f3d ba62 1bbc bb3e 8dbd 721c 3bbc
00000330: b66b 92bd 7b38 523b bdb2 ca3c 638a bd3c
00000340: 9078 793d a240 0d3d 36e9 ffbb 6602 a1bd
00000350: 2071 8e3d 5ae7 4dbc fc14 fe3c e595 f13c
00000360: 8e7f 80bd 5834 4abd e75d ae3c 2776 a6bc
00000370: 1e75 803d 8c24 70bc 36bb 88bd 498b 5dbd
00000380: 580a fb3c d167 da3c 74a0 943d 28b1 943d
00000390: bd9a f7bc 2dde dcbc 14da 4e3d c235 82bd
000003a0: 6a6f a0bd 3405 8e3d efd4 2b3d f3e8 5a3d
000003b0: ad44 383d fc5f 753c 1d12 3abc 56d4 273d
000003c0: f94b d2bb a2d9 a2bc e5b8 eebb a16f 28bd
000003d0: 83bb 5f3d 2168 823d 3e1b 62bd 064d 93bd
000003e0: 70ee 4abc 96bd a1bd ef6b 16bc cd54 213d
000003f0: 6e9f c9bc 1cc1 8c3c cfa6 03bd d0e9 75bd
0.0073937476 0.072371915 -0.052416492 -0.032724436 -0.030666638 0.052468892 -0.055199627 0.077521734
-0.059060078 -0.06211303 -0.040215805 0.01785289 -0.06091849 -0.030476796 0.016100442 -0.031006433
-0.03650375 0.07817351 0.013667415 -0.028104512 -0.029734291 -0.070163004 0.052925847 -0.026732089
0.03548714 0.036552396 0.026648493 -0.00026440146 -0.02047909 -0.023746312 -0.05787651 0.076516055
0.05034998 -0.06581595 -0.026087759 -0.013117942 0.008860481 -0.018276654 -0.04943375 0.044009306
-0.07670055 0.060192887 -0.06044531 0.048313703 0.069260925 -0.0057549807 0.06884327 -0.040314976
-0.048567973 -0.030587668 -0.06504337 -0.055989925 -0.006977773 -0.079526454 0.06528266 -0.043370683
-0.07144757 -0.00034206684 -0.02879808 0.026003012 0.062087867 0.07691987 0.05570522 -0.050314408
-0.06805439 0.05689668 0.07156915 0.044548705 0.0029874083 0.07986499 -0.028534807 -0.066523574
-0.0013363457 -0.07758018 -0.02799324 0.020328473 -0.07516717 -0.0327894 -0.0067938333 -0.06135656
0.042958166 0.01353715 -0.043399144 -0.03370443 -0.06492137 -0.029238483 0.069756255 0.061458047
-0.034005944 -0.035777647 -0.018382818 -0.08113123 -0.025348684 -0.03504792 -0.024099674 -0.079856604
-0.07635344 -0.004704748 -0.029088194 0.010824849 -0.06490613 -0.035186157 0.032962717 0.041584432
0.0697221 0.032497093 0.022165198 -0.00064888847 0.057204194 -0.079406105 -0.060201734 -0.022423953
-0.05342093 -0.031970304 0.033800088 0.033339884 0.06226465 -0.01688429 0.024630489 -0.012755655
-0.067713626 -0.053743742 0.062127214 0.03898609 -0.005498549 -0.077899255 0.07376582 -0.06379451
0.05016416 -0.03335608 -0.032471452 0.0049728835 -0.07527118 -0.042660747 -0.052503344 0.06505939
-0.074147835 0.07496123 -0.032810442 0.023235979 0.05221135 0.025330948 0.036342934 -0.015463354
-0.029947037 -0.07758202 0.045767333 0.0042908774 -0.046458535 0.07359246 -0.022947792 0.048885822
0.07668424 -0.021243079 -0.049250126 -0.07002082 -0.010771754 -0.06651154 -0.040249497 0.039832078
-0.023519702 -0.07094184 0.019825883 -0.054018077 0.034631856 -0.05514104 -0.051635657 0.043852814
0.036724176 0.005608724 0.061036196 0.03244433 0.01963803 -0.01992395 -0.00383008 0.026095508
0.052961145 0.060750335 0.076603636 -0.04245777 -0.07027855 0.02496427 -0.014113902 0.08010923
-0.027541392 0.07780406 -0.053490877 -0.022505628 0.05771295 0.036125705 0.043732487 -0.026382886
-0.04497567 0.079312176 0.07322545 -0.057871114 0.074899964 0.06641479 -0.04283365 -0.010854282
0.035136934 -0.009483987 -0.068967305 -0.011420356 -0.071494505 0.0032077122 0.024743432 0.023137277
0.060905993 0.034485467 -0.0078097833 -0.078617856 0.06955171 -0.012567366 0.031015866 0.02949042
-0.06274329 -0.049366325 0.02128501 -0.020320011 0.06272338 -0.014657151 -0.06676333 -0.05408791
0.03064458 0.026660832 0.072571665 0.072603524 -0.030225152 -0.02696141 0.050500944 -0.0635791
-0.078337505 0.06934586 0.041951116 0.053444814 0.04498737 0.014976498 -0.011356858 0.040973984
-0.006417748 -0.019879166 -0.0072852247 -0.041122083 0.054622184 0.06367517 -0.05520176 -0.071924254
-0.0123859495 -0.07897489 -0.009181007 0.039387513 -0.024612155 0.017181925 -0.032141503 -0.060037434

tree_conv.3.weights.weight f4 [128, 256, 3]
00000000: bc86 97bc b41f f6bc 4c84 95bb 44f6 65bc
00000010: e1d9 a63c 14e9 b63b 0ba7 61bc ddbe dcbb
00000020: 1e85 0d3c 47a9 81bc 0e1f bb3b 5bf1 ebbc
00000030: 373a 6dbc 7cfd 4fbc 25d4 bfbb 6f24 b63c
00000040: b9bd 113d b310 c73b 0b86 53bc c981 9dbc
00000050: 0f1f 5cbb 341f 973c 5001 d23c ad76 f0bc
00000060: edb5 d3bc ecd3 b5bc 3e94 ab3c c2cf afbc
00000070: 39f6 f73b 469b 82bc ee38 dabb cfdd cb3c
00000080: f082 ad3c 43ce dfbb 3ff1 97bc 8c48 eebc
00000090: a62a f8bc 1c83 e6bc e81d 72bc 3ba9 3fbb
000000a0: 3629 e23b 77b1 0c3d d602 08bd e34d 643b
000000b0: c9b0 feba 1be6 8bbc 5fad 053d 4da4 2e3c
000000c0: d4d4 eabb 7a54 c23b 7ed7 61bb 9339 09bd
000000d0: a194 41bc 6025 993c 3e4f 86bc 9912 823c
000000e0: 9236 aa3b 152c e13c 902f ccbc 166f cb3c
000000f0: 1f22 00bd 2c2b 09bd be05 f1bc c88a 11bd
00000100: b18f 963c 88cb 0cbd 13ec e3bc 267f 9c3c
00000110: 20db 4d3c 30cf 103d 73fe e43c 4fc1 06bd
00000120: 8012 d73c 49f2 dc3c 94d1 833c 21dd c1bc
00000130: d263 183c 62b4 e33c 80b9 92bc c2be 01bd
00000140: d320 b13c a2fa 193b 8482 083d bc44 773a
00000150: 0fec 3dba 1edb b73b cf95 013d 4fbe 113d
00000160: f0e1 4dbc 1e5d 6cbc 91bb 0f3d 9f57 053d
00000170: 4e35 f9bc 0829 ae3c ff0f abbc 8bca 0bbd
00000180: ea4a 07bd 9bec 05bd 93e9 4c3c 8ce0 083d
00000190: f234 3dbc 5a6c 323b 38c1 c7bc 6168 a23c
000001a0: de5b 3c3c 56e1 fb3b 3cd4 9bbc e73d 3f3a
000001b0: 6494 a4bc 8832 0fbd abde ef3b f2bf b93c
000001c0: 111f 5bbc 0050 4e3c dd7c 3dbc 34d5 073d
000001d0: 79af 3cbc 7150 80bc 9923 cfbc b911 493c
000001e0: 047b b1bc 695a 9b3c 337b f5bc 953a 96bc
000001f0: 2e91 013d 6f8a ca3c c941 bcbc b762 033c
00000200: 879b 08bd d14c e1bc 6b17 e8bc 731d b93b
00000210: a112 fdbc 15d3 f63c 9649 e4bb d0b7 9dbc
00000220: b9cf e23a ebc3 22bc 0157 9fb9 bff7 023c
00000230: d87e f4bb ac34 97bb ee54 013d 2bdd c83c
00000240: 1401 a8bc 3847 38bb 680d 0cbd 2611 01bd
00000250: 98a2 b1bb 0fa4 a03c 5927 8bbb 741d f83c
00000260: 7df7 cf3c 007d 0dbd a4a1 fcbc e47a d13c
00000270: dc59 bc3c 4604 fb3c 83f0 4d3c de34 b83c
00000280: 5e92 f43c a5fa 983c 0fd6 f23c b2a6 063c
00000290: 5760 fcbb 8b4e b43c f2ac ad3c a9f5 24bc
000002a0: 58ea aabc 14ad 783c e138 653c e9e8 fdbc
000002b0: 01ea be3c da72 803c 781e e4bc 7172 673c
000002c0: e8ea 733c 54dc 3ebc cec1 d53c a70a 653c
000002d0: 8119 0bbd 19ab dcbb 052b 94bb f1b2 883c
000002e0: 98ff 743b ddc6 87bc 6437 933a 21d5 04bc
000002f0: 0336 9bbb 36e7 c1bc 4a4f e43c 832a 00bc
00000300: faac e83c 5c86 b9bc 0878 fd3c c00e 603c
00000310: 0940 8f3c a103 a7bc 6d5d 9f3c 3900 a33b
00000320: 0156 de3b 2216 933c 9b31 e73c 59da 9a3c
00000330: 366b 973c 272e d33c 0872 44bc 6f45 763b
00000340: a29a f83b 02e6 ddbc 762c 083d 2530 f1bc
00000350: f12f ee3c 9568 babc 3494 833a 9064 ecbb
00000360: dab6 6cbc f3a0 e0bc 22b8 3ebc ddaf 6fbb
00000370: 1e99 36bb 5747 e63c 1829 14bc e632 a63b
00000380: 1d37 bbbc a0f8 dd3c 18ae febb 82a2 a9bc
00000390: 7854 fc3b 0c8d d53c 13cc 913b c3c4 713c
000003a0: 422f c5ba 2a98 dd3c eafc 10bc 57f4 d23c
000003b0: b40d c5bc 2531 ef3c e084 f7bc 6aa2 d33c
000003c0: 0d89 a4bb f64d 12bd b802 f9bb 0a08 da3c
000003d0: 6912 f03c d6c7 8bbc 5ded 913c 6258 e3bc
000003e0: a7fe 2339 8b45 98bc 1975 e73c 015a 00bd
000003f0: 4591 bcbc 6cf9 ed3c 683a 56bc 854a d43c
-0.018496864 -0.030044414 -0.00456289 -0.014035765 0.020367565 0.0055819843 -0.013772736 -0.00673662
0.008637695 -0.015827788 0.005710489 -0.02880161 -0.0144792115 -0.012694713 -0.005854147 0.02223417
0.035581324 0.0060749887 -0.012910376 -0.019226925 -0.0033587848 0.018447496 0.025635391 -0.029353464
-0.025843585 -0.022195779 0.02094471 -0.021461371 0.007567194 -0.01594318 -0.0066596186 0.02488604
0.0211806 -0.0068300082 -0.018547652 -0.029087327 -0.030293774 -0.02813869 -0.014777638 -0.0029245156
0.0069018854 0.03434893 -0.03320583 0.0034836463 -0.0019431348 -0.017077496 0.032636043 0.01065929
-0.0071664844 0.0059304805 -0.0034460719 -0.033502173 -0.011815221 0.01869458 -0.016395207 0.015878009
0.0051944936 0.02748684 -0.024925023 0.024833243 -0.03128254 -0.033488438 -0.029421683 -0.035532743
0.018379064 -0.03437379 -0.02782253 0.019103598 0.0125644505 0.03535384 0.027953362 -0.032899197
0.026253939 0.026971 0.016091146 -0.023665013 0.009301143 0.027795974 -0.017910719 -0.03167606
0.021622097 0.0023495336 0.033327594 0.00094325445 -0.00072449533 0.0056108376 0.03163701 0.035581883
-0.012566075 -0.014426498 0.035090987 0.032554265 -0.030420925 0.0212598 -0.020881651 -0.034128707
-0.033030428 -0.032696348 0.01250686 0.03341727 -0.011548268 0.0027225227 -0.024384126 0.019825162
0.011496512 0.0076867742 -0.0190221 0.0007295296 -0.02009029 -0.0349603 0.0073202453 0.022674534
-0.013374106 0.012592316 -0.011565414 0.03316231 -0.011516445 -0.015663357 -0.025285529 0.012272292
-0.021665104 0.01896401 -0.029965973 -0.018338481 0.031632595 0.024724213 -0.022980588 0.008019141
-0.033351447 -0.02750245 -0.028331479 0.0056492626 -0.030892672 0.030129949 -0.00696678 -0.019252688
0.0017304338 -0.009934406 -0.00030391666 0.007993638 -0.00746141 -0.0046144333 0.031575136 0.024519524
-0.020508327 -0.0028118622 -0.034192473 -0.031510495 -0.005420994 0.01960948 -0.004246634 0.030287482
0.025386566 -0.034543037 -0.030838795 0.025571294 0.022992067 0.030641686 0.0125695495 0.022486147
0.02985495 0.018674204 0.029643087 0.008218454 -0.0077019143 0.022010108 0.02120063 -0.010068336
-0.020863697 0.015177984 0.013990612 -0.03099485 0.023304941 0.015679765 -0.02784656 0.014126406
0.014887549 -0.01164921 0.02609339 0.0139795905 -0.03395987 -0.0067342636 -0.00452173 0.016686888
0.003738379 -0.016574318 0.0011231718 -0.0081074545 -0.0047366633 -0.02366982 0.02786984 -0.007822636
0.028402794 -0.022647075 0.030941024 0.013675392 0.017486589 -0.020387473 0.019453729 0.004974392
0.006785155 0.01795489 0.028221896 0.018902944 0.01848374 0.025778843 -0.011990078 0.0037578007
0.007586793 -0.027087215 0.033245526 -0.029441902 0.029075595 -0.022754947 0.0010038675 -0.0072141364
-0.014447892 -0.027420497 -0.01164058 -0.0036573329 -0.002786226 0.02811019 -0.009043001 0.0050719855
-0.022853428 0.027096093 -0.0077722184 -0.020707373 0.007700499 0.026068233 0.0044493764 0.014756384
-0.0015043991 0.027050097 -0.008849362 0.025751276 -0.024054386 0.029198239 -0.030214727 0.025834281
-0.0050212205 -0.03571888 -0.007599201 0.026615161 0.029305654 -0.017063063 0.017813379 -0.027752105
0.00015639757 -0.018587848 0.028254079 -0.031335834 -0.023018489 0.029049598 -0.013075449 0.02591444

tree_conv.3.weights.bias f4 [128]
00000000: b9ec 943c d6b6 0f3b d549 133c 1969 14bd
00000010: 9483 443c 5d6a 2dbc a3a3 ab3c 37cd 3d3c
00000020: 1000 b43c f3b4 cdbc 5195 643c b33f a83c
00000030: 4ed4 b0bc 5940 82bc 6405 113c ba5b 8bbc
00000040: e3df ea3c ddc8 013d b3a7 60ba 9016 f6bc
00000050: d7a4 d53c 626c eabc e075 c63b 28b0 b1bb
00000060: 1126 aa3a 8c28 0ebd 2cff 59bb 6587 acbc
00000070: 58f1 cbbc d893 673c f2f5 86bc 992e 1dbc
00000080: 1875 aa3c 7397 f23c 9e25 b6bc 237c 50bc
00000090: 59ef 013b 1d63 12bc 804b 78bc 9574 d0bc
000000a0: 551a 61bb 857f c5bc 2a73 94bc 0412 0fbd
000000b0: 6fea d0bc 944e ed3c 34e1 7f3c 7960 093d
000000c0: 6508 abbc 4364 103d da04 d93c bfe2 c8bc
000000d0: 6b7b ddbb d07f 093b 4861 41bc b62f fd3c
000000e0: 6831 98bc 9cd9 58bc d2c6 58bb 6480 97bc
000000f0: 705d c1bc da96 5dbc 3ecc c9bc af7e cabc
00000100: 9ad6 593c a23a 04bd 45b9 90bc 0adb 0c3d
00000110: 2949 e8bc df07 2ebc 6d81 ca3c cf2a f83c
00000120: d63b d23b 3a8f 693c 421d fbbc 8fcc 38bc
00000130: bb27 bdbc e840 08bd 55cb 50bb 9902 533c
00000140: a3c3 9a3c 5086 693c f86e febc 344d 01bd
00000150: 6f96 67bb d59a 0bbb 248a d4bc 789b eabc
00000160: e850 113d 6ee6 94bc f750 043c 8007 b83c
00000170: a773 2cbc 3756 02bd d547 ed3b 5b89 10bd
00000180: 335c 03bd c0e8 c1bb e89c f6bc 37f8 f13c
00000190: 5b28 abbc 060b efbc 5f33 b1bc 4a34 b93c
000001a0: a713 ac3c c59e ba3c 1ff3 793c 6b80 a83a
000001b0: c8b6 d6bc 9622 743c 2a78 153c 9d42 ffbc
000001c0: 5c5d 0a3d 7acd d03b 0c76 09bc 8cbe 2cbc
000001d0: de32 363c 1f2d 3a3a 51f2 f4bc 8c55 01bd
000001e0: 85d2 e53c 6ade 79bb fe65 373c f69b 08bd
000001f0: c728 153d e98e 97bc 90f7 d4bc 9856 a13c
0.018179284 0.0021929047 0.008989771 -0.03623304 0.011994261 -0.010584441 0.020952052 0.011584572
0.021972686 -0.025110697 0.013951615 0.020538187 -0.02158561 -0.015899824 0.008851383 -0.017011512
0.02867121 0.0316857 -0.0008569911 -0.030040056 0.026079578 -0.028616134 0.0060565323 -0.005422611
0.0012981315 -0.034706637 -0.0033263667 -0.021060655 -0.024895355 0.01413437 -0.016474698 -0.009593629
0.020807788 0.029613232 -0.022234734 -0.012724909 0.00198265 -0.008934763 -0.015154719 -0.025446216
-0.003434797 -0.024108658 -0.01812132 -0.03492929 -0.025502412 0.028968133 0.015617657 0.03353927
-0.020878026 0.035251867 0.026491571 -0.024522183 -0.0067590973 0.0020980723 -0.011802979 0.03090654
-0.018578246 -0.013235476 -0.003307749 -0.018493839 -0.023604125 -0.013524735 -0.024633523 -0.02471861
0.013295794 -0.03228248 -0.017666468 0.03438858 -0.028355198 -0.010621994 0.024719918 0.03029385
0.0064158244 0.014255339 -0.0306536 -0.011279239 -0.023090234 -0.033265024 -0.0031859477 0.012879037
0.018892115 0.014253214 -0.031058773 -0.031567767 -0.0035337468 -0.0021302004 -0.025944777 -0.028638586
0.03547755 -0.018176284 0.008075944 0.022464514 -0.010525621 -0.031820502 0.007241229 -0.035287242
-0.03207035 -0.0059176385 -0.030104116 0.029537303 -0.020893266 -0.029180061 -0.021630941 0.022607941
0.021005465 0.022780785 0.0152557185 0.0012855654 -0.026210204 0.014900824 0.009122888 -0.031159693
0.03378044 0.006372151 -0.008389961 -0.010543477 0.011120526 0.00071020605 -0.029900702 -0.031575724
0.028054485 -0.0038126954 0.01119375 -0.03335186 0.03641584 -0.018500762 -0.025996953 0.019694611

tree_conv.6.weights.weight f4 [64, 128, 3]
00000000: 5ae2 113d b63a 143c ac38 113d 412b 343d
00000010: 4e7c 5ebc 2198 2a3d c120 11bd 2371 bcbc
00000020: fa2c fbbb c1ce 0d3d 1088 393c 5b13 053a
00000030: b63d 063d 8a36 9e3a c2b7 85bc ca8e 9e3c
00000040: 3e7f 473c d92d 09bd 982c 163c 8de4 dc3b
00000050: 7b1b 95bc 9ef2 5fbb 07a3 1ebd e3b3 96bc
00000060: 0cc0 173d 8784 303d 5108 3e3d 40ae c1bc
00000070: ce64 14bd 20b7 1c3d 9ca0 37bd 5df3 113a
00000080: d611 313d a93b 443d 28b8 4bbd 4533 213c
00000090: 898a 81bc b277 09bd 5b7f 97bc b719 e4bc
000000a0: 7213 dc3c f305 dfbc 14f3 263d d865 45bd
000000b0: cfb5 313d 1fba 1fbd 38f3 aebb f1ab 45bc
000000c0: c788 4bbd f7b8 373d f5f0 e6bc b404 1f3d
000000d0: 0ba6 12bd f41c 5e3c 123f f2bc d71a 423d
000000e0: 2163 e7bc 4c0b 9a3a 8dcd aabc 657c 28bd
000000f0: 1929 b3bc 757a 3cbd 8097 ae3b 5035 363d
00000100: 8174 23bd 9f80 d2bb 948a 493d d891 fbbc
00000110: aadc be3a d65e b03c 5ecf cc3a 307f 5c3b
00000120: e3d0 343c 67cc 46bc fbcd 37bd 4c4c cd3c
00000130: 78aa 36bd eba2 90bc b5ea 5dbb e297 abbc
00000140: a4d9 8b3c 8f0a 2b3d 0719 2e3d 92ea 2fbd
00000150: 961a 193d ccf8 c1bc dd21 19bc 0c75 01bd
00000160: 7718 17bd 5054 4e3d 3a15 b8bc 62c4 1ebc
00000170: bc13 20bd 6f42 dbbc 0223 09bd d063 dabc
00000180: 7fdb 05bb bdde e9bc f191 06bc a301 0cbd
00000190: 4b16 02bc b304 bfbc 84ff fabc 7eb0 253d
000001a0: b04d 4dbd 78fb 373c 8603 313c fdfc bc3c
000001b0: 6452 23bc a357 28bd 4942 b03a ed36 363d
000001c0: 1077 1abd 7136 893b da27 453c fc91 12bd
000001d0: e310 2d3c 08b0 32bd 0976 21bc f8f1 c4bc
000001e0: dc0b 783c e1e0 46bd e01b 15bd df51 553c
000001f0: 5e59 493d e5eb 54bc b8b6 f3bb 7b70 8a3c
00000200: 6fbf f0b9 54ab 6f3c 6034 1e3d f32b 5a3c
00000210: cddb 0d3d 5c42 4f3b abf8 a23c 438d e23c
00000220: 0d59 de3c d254 503c 7c54 acbc fd96 9f3c
00000230: 7da8 003d 48ee 413b 6764 373c b5f9 06bd
00000240: 6732 98bc c904 293d 05d6 ddbc bf06 e13c
00000250: cef9 c7bc 23bf a1bc 47d9 423d 0a8e 3abd
00000260: b1d5 f83c 542e f5bb 9479 24bd efb2 393d
00000270: 1a75 49bc d53b 09bd c249 2a3d 5460 e83c
00000280: a256 64bc b39b 073d 8d95 b3bc 8597 f9bc
00000290: 6fa8 1bbd fd85 bebc e07a efbc 08e7 423d
000002a0: f152 383d 74cf f93c 1e92 293a b8ed 0b39
000002b0: 9a02 963c dfce 7b3c b5f0 2f3d f03e ce3c
000002c0: 2fa6 06bc c8c2 98bc 94ac debc ca62 1f3d
000002d0: b9cf 483c e010 b3bc b7a3 06bd 0328 e4bc
000002e0: 00f3 19bd bc65 323d b97c c63c bc9e f93b
000002f0: 05f9 853c 4429 173b 083e 99bc 2331 0bbd
00000300: 1d4d 053d 52b9 4d3b a35c 48bd 7833 cdbc
00000310: 5f82 323d 5af9 0ebc b4c0 403d 1e3e 72bc
00000320: 31d0 173c 795b bebc d84b 963c 883b 3f3d
00000330: 6542 a2bc a5ad 473d 06bd 353d d284 163d
00000340: f0ef 4c3d 8657 29bc b330 3cba 29ef 3abb
00000350: ab2b b7ba bae1 04bd 4dd2 473d 3814 a93a
00000360: 58df c73c a4d2 dc3c 69d8 813c ceb1 aa3c
00000370: 7ad2 b3bb e7eb 51bd 15cb 27bc 9540 29bd
00000380: 550e 053d ad01 36bd cab1 e33c 9bfa 2b3c
00000390: 5167 24bd 41fc 493d bece 9d3c 0352 c53b
000003a0: 136d 35bd f0d1 29bd 9976 4b3d beed 1cbd
000003b0: 3672 33bd eda4 043d 7fca 12bc 6ce9 203d
000003c0: a850 ca3c 41cd 663c 3c08 c0bc e7fa a23c
000003d0: fa0d e7bc 6e53 263b 9ac9 703c 1cdf 0bbb
000003e0: 8bfc f1bc e009 0e3d 9776 f0bc e9ac 2cbc
000003f0: f6dd 30bd e0af adba d6ad a83c dcc1 1239
0.035616256 0.009047201 0.035454437 0.043986563 -0.013579441 0.041648988 -0.035431627 -0.023003167
-0.0076652737 0.034621004 0.011323944 0.00050764316 0.032773696 0.0012070697 -0.016322974 0.019355197
0.012176333 -0.03349099 0.009165905 0.0067411126 -0.01820158 -0.003417171 -0.038729694 -0.018396324
0.037048385 0.043095138 0.04639465 -0.02364266 -0.036228947 0.03826058 -0.044830903 0.0005567575
0.0432299 0.04790846 -0.049736172 0.009838884 -0.015813129 -0.033561416 -0.018493345 -0.027844293
0.026864741 -0.027224516 0.04075916 -0.04819283 0.043386277 -0.03899586 -0.0053390525 -0.01206492
-0.049690988 0.04485413 -0.02819107 0.038822845 -0.035802882 0.013556708 -0.02957109 0.047388878
-0.02824551 0.0011752634 -0.020849967 -0.041134257 -0.021870183 -0.04601522 0.005328119 0.044484437
-0.03990603 -0.0064240242 0.049204424 -0.030709192 0.0014561613 0.021529596 0.0015625765 0.0033645146
0.011036131 -0.012133694 -0.044874173 0.025060795 -0.044596165 -0.01765581 -0.003386182 -0.020946447
0.017071553 0.041758116 0.042504337 -0.042948313 0.03737887 -0.023678206 -0.009346453 -0.031605765
-0.036888566 0.050373375 -0.02247106 -0.009690376 -0.03908132 -0.026765076 -0.03348065 -0.026658922
-0.002042502 -0.028548593 -0.008213506 -0.03418125 -0.007939885 -0.02331767 -0.030639417 0.04045152
-0.050122917 0.011229388 0.010804063 0.023069853 -0.009968374 -0.041099202 0.0013447489 0.044485975
-0.037711203 0.004187398 0.012033427 -0.035783753 0.010563108 -0.043624908 -0.009854802 -0.024041161
0.015139546 -0.048554305 -0.036403537 0.013020008 0.049157493 -0.012995695 -0.0074375533 0.016899338
-0.00045918996 0.01462825 0.038624167 0.013316142 0.034633446 0.0031625247 0.019893965 0.02765525
0.027142072 0.012715535 -0.021036379 0.019481177 0.031410683 0.002959149 0.011193371 -0.032952983
-0.018578721 0.04126433 -0.027079592 0.027469037 -0.024411108 -0.019744461 0.047570493 -0.045545615
0.030375334 -0.0074823294 -0.04015501 0.04533666 -0.012295986 -0.033504326 0.041574247 0.028366245
-0.0139366705 0.03310747 -0.021921897 -0.030467758 -0.038002428 -0.02325725 -0.029233396 0.04758361
0.045000974 0.03049443 0.00064686115 0.0001334463 0.018311787 0.015369146 0.042954165 0.025176495
-0.008218332 -0.018647566 -0.027181901 0.038912572 0.012256556 -0.021858633 -0.032870974 -0.02785111
-0.03758526 0.043554053 0.024229394 0.0076177996 0.016354093 0.0023065368 -0.018706337 -0.033982407
0.032544244 0.0031390977 -0.04891647 -0.025048956 0.043581363 -0.008726442 0.047058776 -0.014785318
0.009265945 -0.023236977 0.018346712 0.046687633 -0.01980705 0.048749585 0.04436972 0.03674776
0.05003351 -0.010335809 -0.00071788876 -0.0028523898 -0.0013974806 -0.032441832 0.048784543 0.0012899702
0.02439849 0.02695591 0.015850263 0.020836737 -0.0054877372 -0.051250365 -0.01024129 -0.041321356
0.03248437 -0.044435192 0.027794737 0.010496761 -0.040137593 0.049312834 0.019263621 0.0060217394
-0.044293474 -0.041459978 0.04967365 -0.038312666 -0.043810092 0.032383848 -0.008959412 0.03928511
0.024696663 0.014087022 -0.023441426 0.01989503 -0.028204907 0.0025379318 0.014696503 -0.00213427
-0.029539367 0.034677386 -0.029353423 -0.010539272 -0.04318043 -0.0013251267 0.020590704 0.00013995863

tree_conv.6.weights.bias f4 [64]
00000000: 1cef 49bd f604 28bd fa30 1b3d a1bf db3c
00000010: 29e8 32bd e459 163d b93b 03bd c1e0 673b
00000020: ebac 273d 1185 3e3d a725 e7bc 1fbc 70bc
00000030: 4bec cebc 176d 2c3d ee34 42bb c7ac 13bd
00000040: 9b56 863c 91ba 9bbc 1002 183d 8ea4 40bd
00000050: 931d 623b ada9 4fbd e8c3 843c e4cf 8dbc
00000060: 1688 5eba a9b6 ef3c 6d07 253d 82f2 4bbb
00000070: ae20 223b 25ad 09bd 25c9 953c 177a e8bb
00000080: 315e c1bc cad8 ac3c 5232 89bc bb00 283d
00000090: 3a81 eebc 0f94 8abc 8cf1 90bc 4c0d 4d3d
000000a0: 0f2d 893b b0f8 1b3d 0d63 153d 6c80 3fbd
000000b0: b49c 053d 8ece 293b c6a0 e439 825e 86bc
000000c0: 6769 303d 630d 6c3b c84c 373d dce0 73bc
000000d0: aee8 03bd 546a 9c3b 5f1f 9c3b 2029 9f3c
000000e0: 3b01 06bd f60f babc 83fc e33c 126a e23c
000000f0: a471 a73c 7465 7c36 91cf 01bb 3b2c 24bd
-0.049300298 -0.041020356 0.037888505 0.026824774 -0.043678436 0.03670682 -0.032039378 0.0035381767
0.04093639 0.04651362 -0.028216196 -0.014693289 -0.025259158 0.042096224 -0.00296336 -0.036053445
0.016398719 -0.01900986 0.037111342 -0.04703193 0.003450249 -0.050698925 0.016206697 -0.017311044
-0.00084889063 0.029261904 0.040290285 -0.0031119888 0.0024738717 -0.03361239 0.01828439 -0.0070946324
-0.023604484 0.021099467 -0.016747627 0.04101632 -0.029114354 -0.016916303 -0.017693304 0.05006151
0.0041862796 0.038078964 0.036471415 -0.046753332 0.032620147 0.002591047 0.00043607334 -0.016402487
0.04306927 0.0036018721 0.04475096 -0.014885154 -0.032204323 0.0047734175 0.004764482 0.01942879
-0.032716017 -0.022712689 0.027830368 0.027638469 0.02043993 3.760998e-06 -0.0019807557 -0.040081244

tree_conv.9.weight f4 [64]
00000000: a31f 803f 0e13 803f 57b9 7f3f 530c 803f
00000010: ed1b 803f 40ef 7f3f d802 803f 7c0f 803f
00000020: 98f1 7f3f 45d8 7f3f 801d 803f 0607 803f
00000030: 140e 803f 0ccd 7f3f f1e4 7f3f a51e 803f
00000040: 400e 803f 4104 803f a603 803f 61c9 7f3f
00000050: f8fe 7f3f 77dd 7f3f 66d8 7f3f 2510 803f
00000060: f322 803f 0008 803f c81a 803f 8a1e 803f
00000070: ce12 803f 9a26 803f 8ad8 7f3f e1ca 7f3f
00000080: 3308 803f 13cf 7f3f 47e2 7f3f 041b 803f
00000090: b919 803f 8602 803f bcd2 7f3f daf0 7f3f
000000a0: cfd5 7f3f af21 803f ee19 803f 9c27 803f
000000b0: b120 803f 3b05 803f c101 803f a411 803f
000000c0: 5826 803f 40f5 7f3f 98ef 7f3f 81bf 7f3f
000000d0: 1925 803f f625 803f f605 803f b2f8 7f3f
000000e0: e7be 7f3f fb18 803f 0308 803f 30f2 7f3f
000000f0: 53e2 7f3f 9cf8 7f3f 5c1c 803f 3ee5 7f3f
1.0009655 1.0005815 0.9989218 1.0003761 1.0008522 0.9997444 1.0000868 1.0004725
0.9997802 0.99939376 1.0009003 1.0002143 1.0004296 0.9992225 0.9995871 1.0009352
1.0004349 1.0001298 1.0001113 0.99916655 0.99998426 0.99947304 0.9993957 1.0004927
1.0010666 1.0002441 1.0008173 1.000932 1.0005739 1.001178 0.9993979 0.99918944
1.0002502 0.99925345 0.99954647 1.0008245 1.000785 1.000077 0.9993093 0.99976885
0.9993562 1.001028 1.0007913 1.0012088 1.0009977 1.0001596 1.0000535 1.0005383
1.0011702 0.99983597 0.99974966 0.99901587 1.0011321 1.0011585 1.0001819 0.99988854
0.9990067 1.0007623 1.0002445 0.99978924 0.9995472 0.9998872 1.0008655 0.9995917

tree_conv.9.bias f4 [64]
00000000: 8ef7 97ba fa55 99ba e6ab 9c3a ba27 77ba
00000010: 2a7d 8dba 587c 06ba d1d6 a43a 297b cf39
00000020: f39e a3ba 277a 8f3a 1b3d eeb9 8aa9 5eb9
00000030: 869d 8d3a 4c6e 3b3a f0a1 5fba 837b a5ba
00000040: 7ce8 b13a e832 573a 42f2 8eba 32c5 a6b9
00000050: 687f 90ba cbd0 963a 1b33 95ba 29e5 a6ba
00000060: 54fb aa3a 9a1b 95ba d796 aaba 272b a63a
00000070: 5efa a53a 44a0 a7ba 9576 43ba 0411 9f3a
00000080: 4cc7 1a3a fd8e 543a d2ff a4ba 9c3a a739
00000090: 9edf 96ba f14f d7b9 2874 4038 61da 5b3a
000000a0: 51aa 7f3a be63 5bba 3672 a83a a5be a7ba
000000b0: 53fb 9aba e4b4 a5ba a8d5 1c39 a6bb 9d3a
000000c0: 516d aaba 91c5 96ba 3186 863a f6b9 5c39
000000d0: ac65 b1ba a194 a6ba b4e9 863a 2280 f9b9
000000e0: 4f09 573a 968c a8ba 64b8 a4ba 06ef 9c3a
000000f0: a2a4 1338 7e83 a0ba 9a9f ae3a 5b7e 953a
-0.0011594163 -0.0011698597 0.0011953085 -0.0009428222 -0.0010794748 -0.0005130223 0.0012576227 0.00039573878
-0.0012483284 0.0010946438 -0.00045440425 -0.00021234728 0.0010804392 0.00071499194 -0.00085309055 -0.001262531
0.0013573314 0.0008209185 -0.0010905939 -0.0003180891 -0.0011024298 0.0011506317 -0.0011383028 -0.001273309
0.0013044872 -0.0011376024 -0.0013014924 0.0012677655 0.0012663116 -0.0012788852 -0.000745633 0.0012135808
0.00059043313 0.0008108465 -0.0012588447 0.0003189639 -0.0011510735 -0.00041067557 4.5884546e-05 0.0008386728
0.0009752857 -0.000836905 0.001285142 -0.0012797905 -0.0011824168 -0.0012642411 0.00014956912 0.0012034073
-0.001300255 -0.0011502971 0.0010263381 0.00021050111 -0.0013534329 -0.001270909 0.0010293038 -0.00047588447
0.0008202986 -0.0012859281 -0.001256716 0.001197309 3.5200857e-05 -0.0012246219 0.0013322711 0.0011405455

tree_conv.9.running_mean f4 [64]
00000000: 2238 7040 e7c3 f23f a0d6 a340 61d9 7b40
00000010: d139 4c40 ac5f 9a40 e3e9 e93f 6e72 5b3f
00000020: c878 6740 d08f f93f bcd4 253f ce2b 1c40
00000030: 77ca 4940 f740 4240 0586 2440 d473 6440
00000040: f93f 4d40 a293 7640 940e 0340 b62e 883d
00000050: 389d 8340 ee08 b83f f760 f93e d2ad 8940
00000060: 259a d73f 9559 6540 e099 5e40 feb9 b93f
00000070: 9e22 bb3f 8d16 ee40 569f 383e da06 1040
00000080: 3b83 e33d b93b 2840 bcc0 103e f68a 6940
00000090: 888a b840 64d3 7840 cf66 0b40 bcd9 5240
000000a0: f516 3640 1f6e 4540 031b f23f af34 863f
000000b0: 0cd2 7e3f 71f0 3640 926f 5940 1c2b 0340
000000c0: 4121 7a40 861d d83f 814f 6940 b101 4440
000000d0: 5325 a340 dd1e 3740 c747 7240 9197 5c3e
000000e0: 0d89 8640 78ce 3f40 18f3 3a40 1aaa 0b40
000000f0: d12f 2140 399a 2c40 21b0 a03e c09e 983f
3.753426 1.8966035 5.1199493 3.9351428 3.1910288 4.8241787 1.8274502 0.8572148
3.616747 1.9497013 0.6477773 2.4401736 3.1529825 3.0352151 2.57068 3.5695696
3.2070296 3.8527608 2.0477648 0.066495344 4.1129417 1.4377725 0.4870679 4.3024683
1.6843916 3.5835927 3.4781418 1.4509885 1.4619939 7.440253 0.18029532 2.2504182
0.111090146 2.6286452 0.14136022 3.6491065 5.7669106 3.8879023 2.17815 3.2945395
2.8451512 3.0848463 1.8914493 1.0484828 0.99539256 2.8584254 3.3974347 2.0495062
3.9082797 1.688401 3.6454775 3.0626032 5.098306 2.8612587 3.785631 0.21542193
4.20423 2.9969769 2.9210873 2.1822572 2.5185435 2.696913 0.31384376 1.1923447

tree_conv.9.running_var f4 [64]
00000000: 9217 b83f 4837 a33e 46f5 0e40 3770 2f3f
00000010: dfd3 783f c0c0 c93f d833 383f 696e 0c3f
00000020: 8993 913f 8613 3d3f 2cbb d13e cd6f df3e
00000030: 7b05 a93f ca27 4c3f 3fca 973f c0d1 643f
00000040: 522a d93f c722 4540 f4bf 2d3f cba8 693c
00000050: 66e8 503f 6c55 793f 32b6 bf3e bc9e 6a3f
00000060: dd9e 373f 33fa 7a3f f52b 3a3f a42f 663f
00000070: a9e7 6a3f 27ac fd3f 2184 653e ebe1 683f
00000080: 2c1c 933d 4740 b53f 7094 763d a794 6a3f
00000090: c6e5 ea3f 0a41 5b3f 1f78 773f f5d0 9b3f
000000a0: d087 913f 4611 573f 4784 a23f bed8 9e3e
000000b0: 5ad7 763e 8982 873f 1980 9d3f b8cd 5a3f
000000c0: d651 d53f b4c6 7b3f 955a 5e3f 5157 ba3f
000000d0: e0bf df3f c5f7 223f d829 d13f 854e 5d3e
000000e0: e392 2740 0daa f23f 248b 903f b7da b23f
000000f0: 93f9 8d3f 60c1 c03f 2013 ee3e 4cac 4d3f
1.4382193 0.31878114 2.2337203 0.685306 0.9719829 1.5761948 0.7195411 0.5485597
1.1373149 0.73857915 0.40963113 0.43639985 1.3204798 0.79748213 1.1858596 0.89382553
1.696604 3.0802476 0.6787102 0.014261435 0.8160461 0.9739597 0.37443691 0.9164846
0.7172678 0.98038024 0.72723323 0.89916444 0.91759735 1.9818162 0.22413684 0.90969723
0.07183108 1.4160241 0.060200155 0.91633075 1.8351371 0.85646117 0.96667665 1.2173144
1.1369572 0.8401073 1.2696618 0.31024736 0.24105588 1.0586711 1.2304717 0.8547015
1.6665599 0.9835007 0.8685697 1.4557897 1.7480431 0.63659316 1.6340895 0.21611984
2.6183403 1.8958145 1.1292462 1.3972996 1.1091789 1.5059013 0.46498966 0.8034103

tree_conv.10.weight f4 [32, 64]
00000000: 8e18 b3bc 72bd 7a3c 16b5 a3bc 7d6f 6abd
00000010: 8c7c b83d 3aa4 93bd 6ba7 2dbd bacd 423c
00000020: f0f9 d43d e415 fcbd 7e16 6ebd ade3 e4bd
00000030: fb84 4a3c 2d94 fdbd e61a 973d d20c ffbc
00000040: 9cc6 7cbd 00f6 e0bd 9f8d 64bb dcf3 043c
00000050: 7f68 2abd 0b5c 34bd b097 b1bd d4a1 ae3d
00000060: 1d5f b63d b1c2 06bd 882a a5bd 52be 113d
00000070: f343 1cbd c80a f7bd d031 ff3d 8d3d fe3d
00000080: 8de8 b6bd 1ddf c23d a5fb dabc a767 84bc
00000090: cace 53bd b213 eebd efa5 ccbd f57a f7bd
000000a0: b643 15bc 3b15 22bb 2a38 1fbd cda6 b5bc
000000b0: ee0b f73d 5347 d0bd 431d df3c 744b d2bc
000000c0: 9760 d8bc ac5e a93d 1ba7 cebd 0860 a4bc
000000d0: b906 bdbd bb36 e8bd 18af 60bd 918a 253d
000000e0: ba0e f43d 13d9 33bd 4a4a e7bd e48d e9bd
000000f0: 941f df3d 3414 fb3d 7539 693d 4fad a53d
00000100: dcd0 bdbd 04cc 64bc c8e1 44bd 5c97 a23c
00000110: 427a 1cbd 9fa6 593d 63b2 b7bb 8381 dc3b
00000120: 23e0 b2bd fb3a 51bd 7ac0 093d 09ed 8f3d
00000130: 6b1b 6cbd b034 e63d 4d6c 2bbc d767 1d3d
00000140: b883 b1bd cb97 9a3d fbda b03d f282 c9bd
00000150: 8551 bb3d f81f c8bd 679a 7dbd aeca d5bd
00000160: 732b 5bbb 07be f93c 2462 bd3d 43fc 4abd
00000170: 8e64 ecbd 1441 bd3d c3a0 c13b 661f e7bc
00000180: 4f34 cebc dca4 17bd 2b2b 05bd 770a 953d
00000190: d676 973d 57eb e0bb e5a1 e7bd e81d a13d
000001a0: 400a eabd 59a7 6f3d f9fe c939 f25e b13c
000001b0: 57ee 04bc b512 d33c 4dec 713d e602 993d
000001c0: 524c 903b 2cb9 53bd 13fd 943d 7057 923d
000001d0: 7224 c43d e2b0 593c 2005 ac3c 4d44 a83d
000001e0: fb64 11bc b6cd d8bd 8683 253d 0603 0f3d
000001f0: fae5 e93d ba2f 44bd 3c1e a3bd 4a4a ea3d
00000200: 8bea 16bd 8e1d a9bd 516b 413d 2299 97ba
00000210: da0d 9a3d 23c9 e13d 1f23 9c3d 1394 adbd
00000220: d1cf df3a e7a3 59bc 8be7 5ebd 5bf6 8f3b
00000230: 531c e13d 9fbf 293d f5a8 593d 5d3f 263c
00000240: 5166 8c3c 09ba da3d 211d b63d d114 ed3b
00000250: 8c3a 5dbd af77 f73c 31b8 583d 8012 f3bd
00000260: c6af e73d 5847 033d 8e1d abbd 2fca cf3d
00000270: 7f26 78bd b7b0 cb3c 9844 c2bd ed50 b9bc
00000280: c835 023d 20c2 8d3d 3802 fabd d2f8 a23c
00000290: 5210 82bd c4b6 9b3d 23ed dc3d 1b68 133d
000002a0: 0ab9 d1bc 90e7 b9bd ad56 c83d d35b d13d
000002b0: 3c14 103c 1535 c83d c8d7 f7bd ac37 623d
000002c0: e229 bd3d 68fe c1bd 2440 45bd 3773 d5bd
000002d0: 3f4e 85bd 9524 6fbd 2089 c33c 97bf 3b3c
000002e0: c9c4 b6bd a27d ad3d dd77 b0bd 218e c23d
000002f0: f0de d03d 7f4d 26bb 0697 703d 4c9b 8a3d
00000300: de6c 40bc 4947 f9bc 10dd f5bd 32b9 a5bd
00000310: 98e6 09bd 6736 20bd 95f8 4f3d 1625 433d
00000320: 747a 8b3d 54ed 423d 445c 8ebd 06de b23d
00000330: 7824 8ebc 3e13 e9bd 20d3 dd3d e0ad 0e3d
00000340: 0a37 283d 8317 5abd 3d09 57bd b172 ebbc
00000350: 4d03 893d e068 e63c 5979 bb3c 50fd e7bc
00000360: 698d fdbd 9352 323b 7270 dcbc 7c82 863d
00000370: 7f89 b33d a42c d6bd 19d6 dd3c 64f8 6eba
00000380: ff45 c0bd 0371 9f3d e116 a6bd 82b7 403c
00000390: 7e3c cfbd 7227 f5bc 1605 75bd 087d aa3d
000003a0: 59fd 3fbd 6710 89bc 7fbb 60bd e0a3 8cbd
000003b0: da1d c7bd 767a 963c 97e5 e7bd ad5e 9f3d
000003c0: 839f babc c782 d3bd 4692 79bb b354 883d
000003d0: 99c4 c5bd fb99 eb3c 3ae6 fabc 143c b5bd
000003e0: e386 a0bc 67af ecbd becc 27bd 7278 babd
000003f0: cacb ef3d a0e5 f1bc 7f72 f23b b955 a4bc
-0.021862295 0.015303956 -0.01998381 -0.05723523 0.090081304 -0.07209058 -0.04239599 0.011889869
0.10399234 -0.12308863 -0.05812692 -0.11176238 0.012360807 -0.12381778 0.07378177 -0.031134043
-0.061712846 -0.10984421 -0.0034874452 0.008114781 -0.04160356 -0.04403309 -0.0867151 0.0852696
0.0890486 -0.032900516 -0.08064753 0.035581894 -0.03815074 -0.12062603 0.12460673 0.12414084
-0.08931074 0.09515212 -0.026731322 -0.016162707 -0.05171088 -0.1162485 -0.09992587 -0.12083999
-0.009110382 -0.0024731893 -0.03887192 -0.022174263 0.12062822 -0.10169854 0.027235633 -0.025670744
-0.026413245 0.0827001 -0.100904666 -0.020065323 -0.09229798 -0.11338564 -0.054854482 0.04041535
0.11916871 -0.04390819 -0.112934664 -0.114040166 0.10894695 0.12259713 0.05693956 0.080896966
-0.092683524 -0.013964657 -0.048066884 0.019847564 -0.03820253 0.053137418 -0.005605982 0.006729306
-0.08734157 -0.05108164 0.033630826 0.07027633 -0.057643335 0.11240518 -0.010462833 0.038429108
-0.086677015 0.075484835 0.08635517 -0.09839429 0.09146408 -0.097717226 -0.061914828 -0.10439049
-0.0033442646 0.03048612 0.092472345 -0.04955698 -0.11542617 0.09240928 0.005909057 -0.028213214
-0.025171427 -0.037022457 -0.03251187 0.07277387 0.07395713 -0.006863992 -0.11310176 0.07867032
-0.11427736 0.058509205 0.00038527677 0.021651719 -0.008113465 0.025765756 0.059063245 0.07471256
0.0044036293 -0.051690266 0.072748326 0.07145584 0.09577264 0.013286801 0.020998538 0.08216152
-0.008874173 -0.10586111 0.040408634 0.034914993 0.11420818 -0.047897078 -0.07964751 0.11439951
-0.03684477 -0.0825759 0.047221486 -0.0011566023 0.07522173 0.11024692 0.07623886 -0.084755085
0.0017075484 -0.013283706 -0.054420035 0.0043933815 0.109917305 0.04144251 0.053139646 0.010146943
0.017138632 0.10680015 0.08892275 0.0072351475 -0.054010913 0.030208437 0.052910034 -0.11868763
0.11312823 0.03205046 -0.083552465 0.10145985 -0.060583588 0.024864538 -0.094857395 -0.022621596
0.03178957 0.06921792 -0.122074544 0.019894037 -0.06350769 0.07603219 0.10787418 0.035987955
-0.025600929 -0.0907737 0.09782157 0.10222592 0.008793887 0.097757496 -0.12101704 0.055228874
0.09236504 -0.09472352 -0.048156872 -0.10422366 -0.06509065 -0.058384497 0.023869097 0.011459253
-0.089242525 0.08471228 -0.08616612 0.09499765 0.10198772 -0.002537578 0.058737777 0.06767902
-0.011744706 -0.0304295 -0.12005055 -0.08091964 -0.033667177 -0.039114382 0.050774176 0.04764279
0.068104655 0.047589615 -0.06951192 0.08733754 -0.017351374 -0.11380623 0.108312845 0.03483379
0.041068114 -0.05324508 -0.052499045 -0.028741213 0.06690083 0.02812618 0.022885012 -0.028319031
-0.123804875 0.0027209863 -0.026909087 0.06567857 0.0876646 -0.10457733 0.027079629 -0.00091159926
-0.09388351 0.07785227 -0.081098326 0.011762502 -0.1011896 -0.029926036 -0.059819303 0.08324629
-0.04687247 -0.016731454 -0.05486631 -0.06867194 -0.097224906 0.01836894 -0.11323088 0.0778173
-0.02278114 -0.10327678 -0.003808157 0.0665678 -0.09656639 0.028759947 -0.030627359 -0.088493496
-0.019595569 -0.11556893 -0.04096674 -0.09105004 0.117087916 -0.029528439 0.007398903 -0.020060407

tree_conv.10.bias f4 [32]
00000000: 0401 bcbd 60b0 4d3d 9972 a2bd 16a4 efbd
00000010: 3633 c73c d45d b0bd 2848 f73d 1a5b 713c
00000020: f785 eebd 1ed9 053d 9523 7e3d 606e c1bd
00000030: 54a7 b63d c169 c03d 4ce2 95bd 2736 bf3d
00000040: 1cff f93d 7f8a d7bd b65c ddbd f0b6 f63d
00000050: 3edd 293b 9934 d9bc 6993 80bd fba5 14bd
00000060: b9c8 ef3d 588b ec3d f624 aa3c 742d d33d
00000070: 3ac7 a63d b6a5 1d3d 449f 92bd 2836 81bc
-0.09179881 0.050217032 -0.07932014 -0.11701219 0.024316411 -0.08611646 0.120743096 0.014731193
-0.116466455 0.032677762 0.062045652 -0.094448805 0.08918634 0.09395171 -0.07318553 0.093365006
0.122068614 -0.10524463 -0.10808699 0.12046611 0.0025919224 -0.026514338 -0.06278116 -0.036291104
0.11708207 0.11550015 0.020769577 0.10311404 0.08143468 0.038488112 -0.07159284 -0.015772894

tree_conv.12.weight f4 [16, 32]
00000000: 4dba 8b3d 8370 c0bc d3f9 193d c1cf 303e
00000010: 41d4 0f3e 9a0f eb3d 3c2c e43d a5b4 8dbd
00000020: 0a5f 883c b444 04be bfbb 023e a8f1 dfbd
00000030: a6bc cb3d f104 173e 56b2 213e 8e23 783b
00000040: 0448 05be 3db9 97bd 5f44 12be 8c04 103e
00000050: 3c45 78bc f6e5 b43d a937 a5bb 518d 0d3e
00000060: 6f74 f93d c735 143e 879e cabd 222c 053e
00000070: d42f 1d3e 34b6 0cbd 4f9a a03c fdaf 9ebd
00000080: a353 283d 4c04 30be 5ef7 0b3e f53c 62bc
00000090: 45d1 f4bd ccce 7a3b eb25 ad3d 97a2 0cbd
000000a0: fbff b13d 60a5 05be 1f89 7dbd dbaf ccbd
000000b0: a501 813d 28d8 e2bc 8eec 983d 0a29 2cbe
000000c0: fe81 1d3e c092 a9bd 95ba e9bc ea77 58bd
000000d0: 90ce 683d 5ee2 2dbb 19d6 b5bc 6884 80bd
000000e0: c471 d33d da64 283e d56e 0ebd 1521 1dbe
000000f0: 81ac 173e 7b3a 25be 79b0 fabd eade e9bd
00000100: 01e1 12be 14ba 34bc b075 8bbc 38c4 8ebc
00000110: 1677 f1bd 095f cebc 5ac6 1cbe 2107 8e3d
00000120: 9e95 ac3d e2e4 ec3d 3cbf b13d 05c6 c2bd
00000130: ad7f 02be e723 ffbd ce65 febc 773c 86bd
00000140: fcc7 3fbd 5e67 173d a22c f0bc 91cd f03d
00000150: 410e 83bd 3e3f e63d 4856 e7bc 1c8f 10bc
00000160: be49 9abd ff74 86bd 6cb1 78bd 9e73 433d
00000170: 731c c73d 20ac b7bd 16a5 293e 2a1a afbd
00000180: 66f9 e53d 2ee0 21be 9f1c 13be 81cf 2abe
00000190: 2458 ecbd 4daf 0ebe e346 2d3e 5f96 98bd
000001a0: f507 29be ef67 7fbd 4f18 c1bd bdaa 07be
000001b0: 9304 4a3d 41e6 04bd 1e7c 213d b15e 293e
000001c0: 8bdf f8bc 9f52 0bbe 88b9 e03c 468b 603c
000001d0: e7e4 133e 816e 1bbc 6dea 1b3d f829 19bd
000001e0: 58da 143e cfde b73d b1fd 01bd d769 dc3c
000001f0: 12a2 df3d c86b 0c3e 363d 323e 5095 16be
00000200: f106 0f3d 91df f33d 2721 cabd 29e2 c93d
00000210: 8561 3f3d 6f14 a73d 4c59 023e a6f6 173e
00000220: c804 f03c 58df dbbb c126 b0bc ea2f 54bc
00000230: 109f 263e faf3 aa3d d618 a23c 57ec 163d
00000240: c39e adbd e814 793c 00fb 963b aae3 1cbd
00000250: 6875 00be fe24 23be f3ce 083e 33ba b2ba
00000260: 6863 b83d 9804 ef3d 3d1b f23d f10f 5f3d
00000270: ab3d f5bd 4c8e 8dbd 8644 163e 4aa0 67bc
00000280: d4d1 1dbe f931 c0bd dd1e a53d 84f9 143e
00000290: d859 bb3d e2f5 2c3e 78e4 193c e3ff f53d
000002a0: 590e e73d b541 debd b360 8dbc 5690 f0bd
000002b0: f3a9 7f3d 754a 5c3d b2d9 ec3d 31be c13c
000002c0: fb90 623c 44c2 24be d0f8 04be ea44 30be
000002d0: 38a9 25be 7ef9 3abd 4b2a 9abd 29c8 c93a
000002e0: cc5a 7e3c f9cd f13d 94a4 f1bd 0cfb 24be
000002f0: 1e58 553d 1576 05bd f948 36bd e3d2 18be
00000300: a400 333e b188 9e3d 4575 0b3e b29b 1bbe
00000310: e09f 6dbc 3e31 333e c2ad bc3d e6be 883d
00000320: d0cb 863c 91d4 9a3c ee99 f23c d932 f13d
00000330: 384a 193e 3586 b43d 9341 313d f76d 10be
00000340: c745 77bd 07db c03c 8f2a e5bd 4c06 92bc
00000350: e5cd d53c d9d4 ee3d 4239 0d3e f5f7 a4bd
00000360: 2500 2a3e c251 e4bc 3f96 01be fa7c bfbd
00000370: 699a 0f3d c04d 28be 939e 85bd 0dd4 a8bd
00000380: 11db 163e 545b 493d 01f1 7cbd cf74 95bd
00000390: 5c31 2ebc a759 02be 67d2 03be 0347 143e
000003a0: c54a 163c 57b1 063e 0c4c eabd 886f 003e
000003b0: c5f4 b9bc 9aee 02be 8851 a03c d24c 6d3d
000003c0: d023 ccbd 1c84 f13c 50e5 2fbe bdc8 843d
000003d0: 560f f3bc a664 37bd ae04 1a3e d001 f43c
000003e0: ff38 9c3d dd0d 4b3d d18e 1d3d 66ba cbbc
000003f0: c0f2 2a3e 6133 5a3d 549b 88bd 8283 aa3d
0.068226434 -0.02349115 0.037591767 0.17266752 0.14045812 0.11477585 0.111412495 -0.06919221
0.01664688 -0.12916833 0.12766932 -0.10934764 0.09948091 0.14747979 0.15790686 0.003786299
-0.13015753 -0.07408378 -0.14283894 0.14064234 -0.0151532255 0.08832924 -0.0050420356 0.13823439
0.12180411 0.1447364 -0.09893518 0.13005117 0.15350276 -0.03435345 0.01960483 -0.07748411
0.041095387 -0.17189139 0.13668582 -0.013808479 -0.119539775 0.0038270233 0.08454498 -0.034334745
0.086914025 -0.13051367 -0.061898347 -0.09994479 0.06299142 -0.027690962 0.07466994 -0.1681253
0.1538162 -0.082799435 -0.028531352 -0.052848734 0.05683762 -0.002653263 -0.022196816 -0.062752545
0.103244334 0.16444722 -0.034773666 -0.15344651 0.14811899 -0.1613559 -0.12240691 -0.114194706
-0.14343645 -0.011030693 -0.017023891 -0.017427549 -0.11790292 -0.0251918 -0.1531004 0.069349535
0.08426975 0.115670934 0.08679053 -0.095104255 -0.12744017 -0.1245802 -0.031054404 -0.065545015
-0.04682158 0.036963813 -0.029318158 0.11757959 -0.06399203 0.11242531 -0.028239384 -0.008823182
-0.075335965 -0.06565284 -0.060716078 0.047717683 0.09722223 -0.08968377 0.16566882 -0.08549912
0.112292096 -0.15808174 -0.14366387 -0.16680719 -0.11540249 -0.1393406 0.16921572 -0.07450556
-0.16506942 -0.06235498 -0.094284646 -0.13248725 0.04932077 -0.03244615 0.039425008 0.16540028
-0.030380031 -0.13605736 0.027432218 0.01370508 0.14442788 -0.009486795 0.038065363 -0.03739354
0.14536417 0.08978044 -0.03173608 0.026905937 0.10919584 0.1371299 0.17406163 -0.14705396
0.03491873 0.11907876 -0.098696046 0.0985759 0.04672386 0.08158194 0.12729377 0.14840183
0.029299155 -0.0067099743 -0.021502854 -0.012950877 0.16271615 0.08347316 0.019787233 0.036846485
-0.08477547 0.015202738 0.0046075583 -0.038303055 -0.12544787 -0.1593208 0.13360195 -0.0013635814
0.09003335 0.11670798 0.118216015 0.054458562 -0.11974653 -0.069119066 0.14674577 -0.014137337
-0.15412074 -0.093845315 0.08062527 0.14548308 0.09147996 0.16890672 0.00939285 0.12011697
0.112820335 -0.10852376 -0.017258024 -0.1174628 0.062417936 0.053781945 0.115649596 0.02365026
0.013828511 -0.16089731 -0.1298554 -0.17213789 -0.16177833 -0.04564809 -0.07527598 0.0015394735
0.015524577 0.11806864 -0.11798969 -0.16111392 0.05208599 -0.032583315 -0.044503186 -0.14924197
0.17480713 0.077409156 0.13618954 -0.15196112 -0.014503449 0.17499253 0.09212829 0.06677036
0.016454607 0.018900188 0.029614415 0.117772765 0.14969718 0.088146605 0.043275427 -0.14104448
-0.06036928 0.02354194 -0.11189758 -0.017825268 0.026099155 0.11661691 0.13791373 -0.080551066
0.16601618 -0.027871016 -0.1265497 -0.09350009 0.035059366 -0.1643591 -0.06524386 -0.082435705
0.14732005 0.049159363 -0.061753277 -0.0729767 -0.010631885 -0.12729512 -0.12873231 0.14480214
0.0091731 0.13153587 -0.11440286 0.12542546 -0.022699723 -0.12786332 0.019570127 0.05793459
-0.09967768 0.02948194 -0.1717732 0.064836 -0.029670399 -0.04477372 0.15040848 0.02978602
0.07628059 0.049573768 0.03846628 -0.024869155 0.16694164 0.053271655 -0.066702515 0.083258644

tree_conv.12.bias f4 [16]
00000000: ce71 17be 5f23 55ba 1f12 273e 1a44 f33c
00000010: f86a 23be 0899 bcbd a655 ffbd c271 babd
00000020: ac3f 3f3d 13cc 213d 557a a23d 3ff1 423d
00000030: b318 aa3d 5e05 69bd 4fe7 f4bd b499 86bc
-0.14789507 -0.0008130576 0.16315506 0.02969556 -0.15958774 -0.09208876 -0.12467508 -0.09103729
0.04669158 0.03950126 0.07933489 0.04759335 0.08305492 -0.056889884 -0.11958181 -0.016430713
