src/Models/cost.onnx (onnx, 681599 bytes, 15 tensors)

tree_conv.0.weights.weight f4 [256, 50, 3]
00000000: 53c9 193c 8f33 b4ba 4190 76bd ee36 5e3d
00000010: 47e0 22bc b956 313d ed0c fa3c c4fc a8bc
00000020: 9cb6 05bd c20f 393d f804 6a3b 6df9 64bd
00000030: 9d9e b9bc f499 973d 87ae 97bd 5efa 773d
00000040: 3794 83bd 8d7b 4dbd ce6e 103c a3d2 a03d
00000050: addc 11bc f1f2 92bd da7e 9ebd ba7f 9f3b
00000060: 570a c8ba 23af 3ebd 41a3 26bd 2e8d 7fbc
00000070: a785 63bd 6b8a cc3c ba7d ddbc 8aa2 923d
00000080: 0b6d 533c ca0c 95bd f901 82bc df7d 543d
00000090: 6b09 863d d442 88bd 0c16 443b 1cf8 28bd
000000a0: c024 95bd c885 8a3d 168b 65bd 4b4e a63d
000000b0: b67d 7cbd 9639 ccbc 297b 293b 0d8b 253d
000000c0: dff7 c33c 06f4 c8bc 5003 90bd cc5d a6bd
000000d0: cc0b a1bd f8c6 503c 8823 873c 0811 38bd
000000e0: 698f 853c 77ac a6bd b5e0 88bc e29a 96bd
000000f0: 0144 363c 62c6 76bc 04d1 2abd b120 36bc
00000100: 1b04 f0bc 6e5a a23d 081e 2b3d 72f5 72ba
00000110: c266 93bd 9adb 8c3d 50b0 20bd 0b95 95bd
00000120: c4b2 c0ba 38dc d0bc b3a1 293b 9e8b f1bc
00000130: 03cd 4c3d fedc 7c3b 1e73 32bd 4f3a 4cbd
00000140: b820 16bd fb39 88bd f1f3 2ebd 4f1b 95bd
00000150: 4154 883d fe50 883d a077 0d3d 75dc 6b3d
00000160: 1d81 2a3c a4b6 97bd 775a 2c3d b06a 8f3c
00000170: 70a0 413d 744d 123d 05f1 003d 776b 87bc
00000180: 2207 a2bd 1fc8 703c a09d d43c 9767 41bd
00000190: 0580 1dbd d711 82bd b0de 08bc e1dc 113d
000001a0: 0fa9 8a3d bd6c 99bd be28 9a3d 5256 773d
000001b0: 29fb a73b 0d59 9cbd ce26 7cbd 52f8 493b
000001c0: 658c 84bd 23a1 3bbd ca31 5dbd 4a1f c0bc
000001d0: 9dad 603b 546c c23c 4f09 353d 24a1 98bd
000001e0: a2df 9d3d 3278 d83c 0bb5 8e3d 9251 f83b
000001f0: fbbe 82bd f603 55bd 81e9 56bd de27 3cbc
00000200: 2f30 64bd 2532 2d3d 307b 583d ac67 39bd
00000210: 7ab7 243b 668f d93c 5d8d 3dbd f5f0 f2bc
00000220: 18db 11bd 43b2 813d 113c 8dbd d401 b13c
00000230: b3f7 abbb a21c 573c 27d1 3bbc c1da 543d
00000240: 067c 1ebd e01d 08bd 0c4f 423d 5dc2 8b3d
00000250: 7daa e5bc ca9a 7cbd 2cce 383d 5e7f 95bd
00000260: 1984 0a3d f52f 09bd 582d 413d 6ac9 3cbd
00000270: 2f1c 38bc fc34 a6bc 1326 98bc f127 f6bc
00000280: 2dbe ec3c 7944 98bd f56c 8a3d e96a 993d
00000290: 9a20 173d d124 b63b 6ca8 4cbd 6fc1 193d
000002a0: 52f0 82bd e5c8 073d 7487 39bd 561d b8bb
000002b0: 458c 92bc 4d65 2a3d e57f 8bbd a9c2 8bbd
000002c0: 6d72 023c a13a 493d 24b6 89bd 2e27 2c3c
000002d0: 35e5 d53c af56 afbc 5da3 0bbd da01 f1bc
000002e0: 4001 45bd f2ec a0bd 6cd0 fc3a daf3 ce3b
000002f0: 999f 0bbd 251f 93bd 8efa 85bc 8007 31bd
00000300: bf1c 76bd b640 1d3d 0d3e 583d 25bf 13bc
00000310: d6d4 26bd 070f 3bbd 9166 b8bc edd9 8b3c
00000320: 8c07 d2bc f34a a13d 03c5 50bd db25 94bd
00000330: 1429 37bd 1a25 833d 8897 623c 50d0 2f3d
00000340: e989 ac3c 9e5f a23d 6211 e73b 7019 63bd
00000350: c49e 6ebc 6ba7 9f3d f00b a53d 76f6 a03d
00000360: 0015 b33c 25b1 973d 94b9 ea3c 562f c23c
00000370: 6219 363c a6ac 9b3c 9267 eebc 740f 9c3d
00000380: 4db8 91bc 9cab 7cbd ad64 323d 1637 3bbd
00000390: 6228 1a3c 26e4 fbbc 046e 0f3c 61d8 853d
000003a0: ba61 1cbd d661 e1bc cde6 813d fe40 96bd
000003b0: 38c2 873c 6aef 88bd 643d 903d 80c5 743d
000003c0: a662 a4bd 8938 0fbc b11b 8cbd a762 04bb
000003d0: 623f e3ba 4b69 5fbd 0ab9 2bbd e7a1 44bd
000003e0: 9a9a 6abd a7bf 423c 7f8f 2b3d 99d0 0fbd
000003f0: 440a 9abd edb3 6f3c 1cac 2dbd fd49 68bd
0.009386378 -0.0013748276 -0.060196165 0.054251604 -0.009941167 0.043295596 0.030523742 -0.02062834
-0.032644853 0.045181043 0.0035708528 -0.055901933 -0.02265864 0.07402411 -0.07406335 0.060541503
-0.06424754 -0.050166655 0.00881548 0.07852676 -0.008902711 -0.07175244 -0.07739039 0.004867521
-0.001526187 -0.046553742 -0.040683035 -0.015597625 -0.055547383 0.024968347 -0.02703749 0.07159908
0.012904416 -0.0727783 -0.015870081 0.051877853 0.06544765 -0.066533715 0.0029920368 -0.04125224
-0.072824 0.06763798 -0.056040846 0.08120402 -0.061643325 -0.024929803 0.0025860763 0.040415812
0.023921905 -0.024530422 -0.07031882 -0.08123359 -0.07863578 0.01274275 0.016496435 -0.044938117
0.016303735 -0.08138364 -0.016708711 -0.0735376 0.011124612 -0.015061947 -0.04170324 -0.011116193
-0.029298833 0.07927404 0.041776687 -0.00092681416 -0.07197334 0.06877823 -0.039230645 -0.07303818
-0.0014701714 -0.025495633 0.0025883734 -0.02948552 0.050000202 0.003858387 -0.043566816 -0.049860295
-0.036652297 -0.06651684 -0.04271311 -0.07280599 0.06656695 0.06656073 0.03453791 0.05758329
0.01040676 -0.07407883 0.04207846 0.017506927 0.047272146 0.035718396 0.031479854 -0.016530735
-0.07911517 0.01469615 0.025954068 -0.04721793 -0.038452167 -0.06351059 -0.008353874 0.035611037
0.067705266 -0.07491443 0.07527302 0.060385056 0.005126376 -0.076341726 -0.061560445 0.0030818176
-0.06472091 -0.04580797 -0.05400256 -0.02345242 0.003428317 0.023733296 0.04419833 -0.0745261
0.0770867 0.026424501 0.06968125 0.0075780833 -0.06384083 -0.05200573 -0.05246878 -0.011484114
-0.055710014 0.04228415 0.052851856 -0.045264885 0.0025133775 0.026557636 -0.046277393 -0.029655913
-0.035609335 0.06332829 -0.068962224 0.021607317 -0.005248034 0.013129385 -0.01146344 0.051966432
-0.038692497 -0.033231616 0.047438666 0.06824181 -0.028035397 -0.061671056 0.045118496 -0.07299684
0.033817384 -0.033493 0.047162384 -0.04609052 -0.011237188 -0.020288937 -0.018572843 -0.030048342
0.028899277 -0.07434935 0.06759063 0.074910946 0.036896326 0.005558588 -0.049965307 0.03753799
-0.06393494 0.033150572 -0.045295194 -0.0056187315 -0.017889151 0.041600514 -0.06811503 -0.06824238
0.007961852 0.04912818 -0.06724194 0.010507388 0.026110271 -0.021403639 -0.034091342 -0.029419828
-0.048096895 -0.07857694 0.0019288189 0.0063156905 -0.03408775 -0.07183675 -0.016354825 -0.043220043
-0.06008601 0.03839179 0.05279355 -0.00901774 -0.04073032 -0.045668628 -0.022509845 0.017071689
-0.025638364 0.078756236 -0.050969135 -0.07233783 -0.04471691 0.06403561 0.013830073 0.04292327
0.021061854 0.07928394 0.0070516327 -0.05544418 -0.01456422 0.07795604 0.080589175 0.07859509
0.0218606 0.074068345 0.028652944 0.023704212 0.01111445 0.019003224 -0.02910212 0.07620135
-0.017788077 -0.061687097 0.043553043 -0.04570683 0.009409042 -0.030748438 0.008754257 0.065354116
-0.038179137 -0.027512472 0.0634285 -0.07336615 0.016572103 -0.066862896 0.07042959 0.059758663
-0.08026628 -0.008741506 -0.06841219 -0.0020200403 -0.0017337615 -0.054543775 -0.041924514 -0.048005965
-0.057276346 0.011886514 0.041884895 -0.035111044 -0.07521489 0.0146303 -0.042400464 -0.056711186

tree_conv.0.weights.bias f4 [256]
00000000: 2a48 8c3d 7399 ef3c 3606 18bd 0008 22bc
00000010: 80fe febb 94a9 85bd dd4f 75bd 25f1 0bbc
00000020: 6bcd a1bd e7ad 8b3d 4f8c 8f3b 1eac 61bc
00000030: cce2 573c 54c1 0fbd cf2f 9dbd e40c 6abd
00000040: 87a4 8d3c 3243 08bd f946 863d df87 5dbd
00000050: 5061 233d f7e9 8b3d 5d58 a5bd aba3 73bd
00000060: 2f2b 82bd 2a1f 903d 84b2 09bb cae1 023c
00000070: 023e 94bd baf7 27bd b8cf 9c3d f3b7 783a
00000080: de3a 553c 04d0 fabc f28d bcbc a104 363d
00000090: dc55 6d3d a816 54bd c396 7b3c 9c3e 8dbd
000000a0: 28f8 3c3c 4ca1 cfbc 9561 85bd c6da 62bc
000000b0: 04af b2bc 553e b2bc 94c3 3ebd cccf 1e3d
000000c0: 94a7 5ebc 9151 853c 9ca7 a23d 51d3 e739
000000d0: 241f 3f3d 8d02 4dbd b786 62bd e35b 16bd
000000e0: 95ce 32bd c916 833d 3b2d e5bc bdfc 433d
000000f0: cda2 323d ea30 983c 15e0 3f3d 5f65 e5bc
00000100: f193 4b3d c451 793c 8146 5d3d 9224 e33c
00000110: dd96 93bc 44fd 00bd efed d8bc c32b 9f3d
00000120: 2906 1bbd d2f6 44bd 1ec4 943d 0d89 a33d
00000130: 546e afbc f776 56bc fa6f a4bd d461 d03c
00000140: 1af9 2c3c 1cf8 d8bb cd88 853d a3c5 9ebd
00000150: a719 2bbd 3625 663d b53f 41bd 39f0 05bd
00000160: 2946 013d d6d8 573d 25a7 723d e8fb 27bd
00000170: 820e 66bd b914 6e3d 5497 c9bc 2454 523d
00000180: 8e6d 27bd c72a 893d 5d21 84bd 7800 f53c
00000190: 6af6 bcbc 7c00 17bd 0e8f 6d3d d1ee 6ebd
000001a0: 08a9 da3c 5bc0 3abd bf1d 3bbd 2a71 673b
000001b0: cb82 a5bd b6f7 083d 28aa 43bc b7c8 593d
000001c0: a7d1 77bd f8fe 1d3d 26eb f53b 8af8 1c3d
000001d0: e2f3 2b3d 0d29 88bd 3829 37bd 29a5 87bd
000001e0: 5271 9f3d c842 96bd bab0 9e3d 8553 88bd
000001f0: 395d 93bd 7a28 85bd 4457 95bd dcf0 b83c
00000200: b75c 5cbc e887 9abd 3cfc 5a3a 84d4 c63b
00000210: 707e 883c e3e5 2cbc 14a3 3d3d 859b 19bd
00000220: 10d3 483d 23b1 efbb befb b239 7837 fa3c
00000230: c144 3cbc db1d a1bd edf3 dc3c c457 8abd
00000240: 42d6 0a3d 7cab 45bc 7266 48bd 2dc5 40bd
00000250: 6fd0 8abd 25f5 883d 128b 483c b223 8c3c
00000260: 76cb 9c3c 9db9 c43a c1c6 9b3d 2a53 08bd
00000270: b90f 113c 352f 543c aa69 923d b436 1ebd
00000280: 8f7c 183c 4ad3 9bbd 7a74 4d3d 8e22 9b3c
00000290: f7bf 9eba c32a 323d 6011 973c 6d71 edbc
000002a0: c7a2 263d b038 a13c b162 19bb 64dd b2bc
000002b0: 4dee fb3b aaf6 46bd 62b1 93bd 2744 edbb
000002c0: 9843 693b 431c 90bd 2558 a03c 8908 43bd
000002d0: 4f3c 573c cc66 90bd 1f9d 6fbd e643 2a3d
000002e0: 7895 1c3c 2dd2 81bd b4fd 7e3d 4b09 dcbb
000002f0: 673f 65bd cd50 023c dc0b 763c 4bf3 9bbd
00000300: 35de b3bb 6409 163d f9d8 233d fa8f 293d
00000310: 54a5 12bd 4e32 823c 3a4e 88bd 339e 1a3d
00000320: 7fc7 8d3d 6403 a03d 97ae f73b 1e1c f6bc
00000330: ce6a 91bd a725 103d 2a94 5e3d 7059 913d
00000340: e698 39bd fa40 973d 5ed3 9c3d 9be1 f33b
00000350: b842 80bc 482d 373c 4e42 343c b8a6 183d
00000360: 4fd8 103d af97 763c acd7 1b3d e5a8 1b3d
00000370: b872 28bd 9c9b e53c 244a 463d 010e 9d3d
00000380: e2e8 9fbd e8b2 84bd c883 16bd d2d0 d0bb
00000390: 8c0e 1e3d c342 7f3d e0f9 96bd 949b 07bd
000003a0: 9d7e bcb8 912b 713c 4f00 0ebd 7722 0c3d
000003b0: 30df 903d d400 d83a 7cd3 b1bc 6196 59bd
000003c0: 640a e8bb de41 88bd 8682 103d 259c d23c
000003d0: f5a8 043d 8079 d83c 020d 3b3d cfc3 8ebd
000003e0: df30 06bd bec3 13bd 0f88 983b 4a77 8fbd
000003f0: 775e 0abc 5895 e6bc 698f 903d 3a2b d83c
0.06849702 0.029247975 -0.0371153 -0.009889603 -0.0077818036 -0.06526485 -0.059890617 -0.00854138
-0.079005085 0.068202786 0.0043807398 -0.013773946 0.013176631 -0.03509648 -0.076751344 -0.0571412
0.017290367 -0.033267207 0.06556506 -0.054084655 0.039887726 0.06831735 -0.080734946 -0.059482258
-0.06355893 0.07037194 -0.0021010945 0.007988403 -0.072383896 -0.041007735 0.07656807 0.000948786
0.013014523 -0.030616768 -0.023016904 0.04443801 0.05794321 -0.05177942 0.015355769 -0.068967074
0.011533774 -0.025345467 -0.06512753 -0.013846105 -0.02181197 -0.021758238 -0.046573237 0.03877239
-0.013589758 0.016274245 0.07942125 0.00044217196 0.046660557 -0.05005126 -0.055304255 -0.036708724
-0.043654043 0.0640083 -0.02797567 0.047848452 0.04361229 0.018578012 0.04684456 -0.028002439
0.049701635 0.015217248 0.054022316 0.027727399 -0.018016273 -0.031491533 -0.026480643 0.07772019
-0.03784767 -0.04808695 0.07263969 0.07985125 -0.021414913 -0.013089887 -0.0802917 0.025437273
0.010557437 -0.006621374 0.06520233 -0.0775254 -0.04177251 0.05618783 -0.047179896 -0.032699797
0.03156105 0.052697025 0.059241433 -0.04101172 -0.05616618 0.05812523 -0.024608292 0.051349774
-0.040875964 0.06697612 -0.06451676 0.02990745 -0.023066718 -0.036865696 0.057997756 -0.05833322
0.026691929 -0.0455936 -0.045682665 0.0035315254 -0.080815874 0.03343936 -0.011942424 0.053169932
-0.060502674 0.038573235 0.0075048385 0.038322963 0.04198063 -0.06648455 -0.044717044 -0.06623299
0.07785286 -0.07336956 0.07748552 -0.06656555 -0.07195515 -0.06501861 -0.07292035 0.022575788
-0.013449839 -0.07545453 0.0008353626 0.0060678143 0.016661853 -0.010552856 0.0462981 -0.03750183
0.04902941 -0.0073148175 0.00034138368 0.030544028 -0.011491002 -0.078670226 0.026971782 -0.06755021
0.03389574 -0.012064811 -0.048925824 -0.04706304 -0.06778037 0.066873826 0.012240188 0.017106865
0.019139986 0.001500893 0.07606269 -0.033282436 0.008853846 0.012950708 0.0714906 -0.038626388
0.009307041 -0.076086596 0.05015991 0.018937375 -0.0012111653 0.043497812 0.018440902 -0.02898475
0.04068258 0.019680351 -0.0023404772 -0.021834083 0.00768832 -0.04857508 -0.072115675 -0.0072407904
0.0035593268 -0.070366405 0.01957328 -0.04761556 0.013136937 -0.07050857 -0.05849945 0.04156866
0.0095571205 -0.06338916 0.06225367 -0.006714975 -0.05596867 0.007953835 0.015017476 -0.07614764
-0.0054891356 0.03663005 0.040001843 0.041397072 -0.0358022 0.015893128 -0.066555455 0.037748527
0.069228165 0.07813147 0.0075586545 -0.030042704 -0.071004495 0.035192158 0.05434052 0.07097137
-0.04531183 0.0738544 0.076575026 0.0074426658 -0.015656814 0.0111802295 0.011002136 0.03726837
0.035362538 0.015050813 0.038047478 0.038002867 -0.04112503 0.028028302 0.04841055 0.07668687
-0.07808091 -0.06479436 -0.03674677 -0.0063725496 0.03858809 0.06231953 -0.073718786 -0.033107355
-8.988122e-05 0.01471986 -0.034668263 0.034212556 0.0707382 0.0016479739 -0.021707289 -0.053121928
-0.007081317 -0.06653188 0.035280727 0.025709221 0.032387692 0.026425123 0.045666702 -0.06970941
-0.03276145 -0.036075346 0.0046548913 -0.070051745 -0.008445374 -0.028147385 0.07058603 0.0263878

tree_conv.3.weights.weight f4 [128, 256, 3]
00000000: 6300 a5bc 3859 063d 4759 6dbb 3896 a33b
00000010: 3517 1c3c 4dc8 de3c 27ca 11bd 1684 153a
00000020: 1a3b bbbc 673d 0e3d ea55 00bd 4248 b63c
00000030: 08c1 70bc 6a77 ccbc 41a2 1cbb eb5b 59bc
00000040: 3b65 94bc 6db2 a53b a25b 1f3c 927f 9a3c
00000050: eb49 093d db1b 45bc cb43 9c3b a1fe 233b
00000060: 42e2 b0bc e8ae 09bd 8e0c 033c 699b 64bb
00000070: b58b e53b 2f4c e33c adcf e33a 9397 ebbc
00000080: 5da7 e93c aae9 a7bb ee23 8fbc ce21 23bc
00000090: 0801 ed3c c5a0 c8bb d7dc 5938 9eaf c4bb
000000a0: 2915 a03b f91f c33c 5b9c afbc e16c c43c
000000b0: 98da ac3c f54f fdbc ca3b aa3c bd35 65bc
000000c0: 6df7 10bd f0e6 9b3c 7b5f 0dbc f45d 873c
000000d0: 7fee 6f3c 3f2e cb3c 36aa 7fbc 9cea acbc
000000e0: d67f 97bc 8049 ac3c 91c5 7dbb fc6f b8bc
000000f0: a541 633c 7f35 8ebc a26b 0cbd ead2 b03c
00000100: 12a2 b73b e890 63bc be92 a5bc 5dda 0abc
00000110: 7d30 de3b 7349 48bc 62be 1cbc 33a2 06bd
00000120: 7696 da3c dcef f9bc 0445 40bc d5d7 0abd
00000130: 62c2 5839 56a2 3bbc 7754 f7bb 6918 37bc
00000140: 8771 fc39 146b bb3c 6191 283c d95e 133d
00000150: 6c5a 943c af72 f9bc 94b9 0fbd 62ea 0c3d
00000160: b558 853b c52f 033d 0e39 a33b 4b06 79bb
00000170: 0f8a ca3c 7050 11bd 37e8 f13c 0c5c febb
00000180: 2e79 26bc 6704 073c 1ebe 2abc 38b9 993c
00000190: 679f b4ba 4ddf 093d d012 59bc 67b5 5dbc
000001a0: 69a0 983b afef 403c ab21 823b 5f11 fb3b
000001b0: c78b efbc 834a 12bd 84f1 ebbc a7b9 00bd
000001c0: fbbd 0fbb dd1e 14bc 321a 9a3b 5a9b 54bc
000001d0: fe16 9fbc 4090 90bc 8825 eabc 3828 f3bc
000001e0: 5423 b83c 0c8f c23c 92f1 0fbd a175 5f3c
000001f0: 16cf 183c c116 e6bc bb65 d43c 39f0 713c
00000200: 9179 a43a 8ad4 71bc 5f95 973a 1a51 f33c
00000210: a093 35bc 222c e73c 6380 bfbc 94ec 31bc
00000220: 2fe3 67bc 4da4 813c 7061 5e3c d551 88bc
00000230: 4da2 543c aea5 c73c 752d b43b a066 1ebc
00000240: 8d30 d4bb df66 9d3b 3bc0 133d da6f 013d
00000250: d97e 8f3c b4b5 16bc a238 ae3c 0c32 e9bc
00000260: 829a bcbc 6c38 563c 14f6 b5bc 6465 07bd
00000270: 88e7 0d3d 7178 6c3c 7439 663c d9fe e53c
00000280: 3b45 78bc 8ed6 023d a124 cfbc a829 b3bc
00000290: 9c1a 2cba e3cb 6e3c 6de8 443c 7a2f 14bd
000002a0: 5313 90bc 3eaa 54bc b0f6 cdba f80a edbc
000002b0: 2c5e 013d 09c7 97bb 6b94 0a3d 6314 e0bc
000002c0: 64cb 5c3c 149d ae3c 5204 82bb 9a02 06bd
000002d0: d7f4 10bd 01e1 03bd abdb 0ebd b3fc d9bc
000002e0: a668 113d 6ded 03bd 31c8 80bc b5bc e7bc
000002f0: 33f2 c8bc 1e22 0739 62be 6cbc 8da0 473b
00000300: 6dd0 c63c 09a9 f4bc 7934 24bb 08f1 183c
00000310: de0a e03c 3e51 c8bb 2cca 0ebd 0895 4e3b
00000320: dd48 17bc 4ecd c63c a2e8 efbc ee17 8f3b
00000330: 1e0f 36bc e0cd 05bc 9b0b 903c e558 9d3a
00000340: 0ece 9f3c 23b7 083c 8176 e6bc 5926 fb3c
00000350: 73e5 743c 1abf debb e302 5d3c 54a9 62bc
00000360: 1d3d 023c b297 6a3b e6c5 083d e433 1ebc
00000370: f41b 55bc b66e ea3b e5b7 97bc ec00 c4bb
00000380: 7a7c 903b 8eb8 52bb 5533 bb3c 34cc 433a
00000390: 6d10 c9bc 122e 0cbd 7edb d33c 8e4e d2bc
000003a0: 12b2 d0bc 30b9 bfbc 9523 523c d5f7 08bd
000003b0: ad21 edbc 8202 ec3c 844d 913c ba1d a3ba
000003c0: 524f 473c 7eca 12bd 1c35 693c fb63 12bd
000003d0: b746 18bc 7bed b4bc 2077 093d ab16 49bc
000003e0: be96 f83c 6146 dabc 03db 103d 3170 9ebc
000003f0: 21be 023d cb3a 12bd 5bb8 aabc f306 12bd
-0.020141786 0.03279993 -0.0036216544 0.0049922727 0.009527017 0.02719512 -0.035593178 0.0005703581
-0.02285533 0.034726527 -0.031331934 0.022251252 -0.01469446 -0.024959285 -0.0023900422 -0.013266544
-0.018114677 0.0050566704 0.009726437 0.018859658 0.03351776 -0.012030567 0.0047688237 0.0025023597
-0.021592263 -0.03361407 0.007998599 -0.003488267 0.0070051798 0.027746288 0.0017380618 -0.0287588
0.028522188 -0.0051242905 -0.017473187 -0.00995679 0.028931156 -0.006122681 5.1942505e-05 -0.0060023805
0.004885335 0.023818957 -0.02143686 0.023977699 0.021100327 -0.030921916 0.020780463 -0.013989863
-0.035392214 0.019031018 -0.008628721 0.016524293 0.014644264 0.024802325 -0.015604546 -0.021107964
-0.018493574 0.021031141 -0.0038722495 -0.022514336 0.013870631 -0.017359493 -0.034282334 0.021584947
0.005604037 -0.013889529 -0.020211574 -0.008474913 0.0067806826 -0.012224543 -0.009566875 -0.03286953
0.026683073 -0.030509882 -0.011735205 -0.03389724 0.00020671778 -0.011452278 -0.007547911 -0.011175253
0.0004814977 0.022878207 0.010288567 0.035979126 0.018109523 -0.030450193 -0.03508909 0.034403212
0.0040694126 0.03202798 0.0049811667 -0.0037998136 0.024724035 -0.0354771 0.029529674 -0.0077624377
-0.010160727 0.008240796 -0.010421304 0.018765077 -0.0013780416 0.03366022 -0.013249114 -0.013532019
0.0046577943 0.011775895 0.0039712987 0.007661983 -0.029241456 -0.03571559 -0.028801687 -0.031427052
-0.0021933306 -0.0090405615 0.0047028298 -0.012976492 -0.019420143 -0.017646909 -0.02858235 -0.029682264
0.022477783 0.02374985 -0.03514249 0.013638885 0.009326717 -0.028087022 0.025927415 0.014766746
0.0012548437 -0.014760146 0.0011564902 0.029701758 -0.01108256 0.028219286 -0.02337665 -0.010859627
-0.014153286 0.015825415 0.013573036 -0.016640583 0.012978149 0.024370994 0.005498583 -0.009668022
-0.0064755143 0.004803523 0.036071997 0.03160081 0.01751654 -0.009198595 0.021267239 -0.028466247
-0.023022894 0.013074975 -0.022212066 -0.033055678 0.034644634 0.014433012 0.014051784 0.028075622
-0.015153225 0.031942897 -0.02528602 -0.02187045 -0.00065652444 0.014574978 0.012018305 -0.03617809
-0.01758734 -0.012980042 -0.0015713777 -0.028935894 0.03158395 -0.004631881 0.03383295 -0.027353471
0.0134762265 0.021315135 -0.0039678 -0.032717325 -0.035389747 -0.032197002 -0.03487746 -0.026609754
0.03550019 -0.03220885 -0.015720459 -0.028288225 -0.024529552 0.00012887313 -0.014449688 0.0030460686
0.024269307 -0.029865758 -0.002505569 0.00933481 0.027348932 -0.0061132004 -0.034860775 0.0031521935
-0.009233681 0.024267819 -0.029285733 0.0043668663 -0.011112003 -0.00816676 0.017583659 0.0012004642
0.019507434 0.008344444 -0.028132679 0.030657934 0.014947283 -0.0067976834 0.013489458 -0.013834316
0.007949141 0.0035795984 0.033391856 -0.009655926 -0.013007153 0.007154311 -0.018520305 -0.005981555
0.00440937 -0.003215346 0.022851625 0.00074690883 -0.024543965 -0.034223624 0.025861498 -0.025672223
-0.025475536 -0.023403734 0.012825866 -0.033439476 -0.028946722 0.02880979 0.017737158 -0.0012444772
0.0121649075 -0.035837643 0.014233854 -0.03573988 -0.0092942035 -0.022085896 0.033560872 -0.012273471
0.030345317 -0.026644887 0.035365116 -0.019340606 0.031919602 -0.0357006 -0.02083986 -0.03565116

tree_conv.3.weights.bias f4 [128]
00000000: cb39 d63b 3816 c63c 4d72 d43c 2495 d439
00000010: 68af a43c e0a4 ec3c 34a5 d8bc f7e2 7abc
00000020: 0468 cbbc c43a e9bc fe27 0abd 5ceb 0fbd
00000030: de04 97bb 39d8 05bd f8f1 2abc 4273 72bc
00000040: 6dd0 df3c 952f 9abc fd4c 21bb 02c5 a8bb
00000050: 11e7 d7ba 23d0 9d3c 68a7 9bba b8e3 b03c
00000060: 78fa 903c 4e03 11bd dd64 11bd f2a1 003d
00000070: 9a46 2f3c e978 9bbc 8947 0e3d 764b cfbc
00000080: d43e 0c3c 9054 b7bc 40ad d13a 6754 88ba
00000090: 6d2a 30bc c81a 023d ce0f 803a 10bd b6bc
000000a0: fca4 c0bc 6f30 ecbc 39d0 b63c 25e6 04b8
000000b0: b9ba babc 3e23 0dbd 8a20 f93c 3671 213c
000000c0: bf32 bf3c 3296 8abc ca92 863c 5b31 b83c
000000d0: c169 163b 49a7 f93c 64ae 903c 1e4e 6d3c
000000e0: 33bd 833c a70b 12bd 735e adbc 9ac0 b53a
000000f0: 8fec a5bc 0f12 b73c fc6d c9bc e5c4 9b3b
00000100: 79b7 0a3d 3da1 a2bb f7ac 013d a073 01bc
00000110: a34a d6bc aceb 923c 2b6b 0bbd 16ca 06bb
00000120: f669 f9bc 0986 90bc 1d3d d0ba 98aa f63c
00000130: ca6a 8bba ee67 103c e56f da3c 1bfc acbc
00000140: d0ba 4cbc 06a9 18bc 03c7 c2bb 40db 413c
00000150: 49e6 9bbc aaf8 35bc 3fe1 163b 718d a9bc
00000160: 5c38 84bc 0162 febc f1a2 6fbb 3ecc 753c
00000170: d273 d23c 6ff5 eabc 9199 94bb d270 54b9
00000180: e6c7 96bb 63bb cf3c 652b 82bb 930a d23c
00000190: 3954 26bc 90bc a23c 74d0 573b d521 0a3d
000001a0: ee73 aabc db6a 2fbc ed6a 60bc aace 76bc
000001b0: f34d d0bb 25c0 dfbc 081d 213c cac7 b93b
000001c0: 8288 7fba d16e 4bbc 990b 8c3a f85f e8bc
000001d0: 0857 04bd 5ce7 b93c 9453 273b 2a7e 73bc
000001e0: 6841 47bc 08ca 0a3d a682 ab3c 9f3e 54bc
000001f0: b7b2 e63c f249 02bd 2067 49bb a02e 1b3c
0.006537651 0.024180517 0.02593341 0.0004054691 0.020103171 0.028887212 -0.026445962 -0.015312902
-0.024829872 -0.028470404 -0.033729546 -0.035136566 -0.0046087345 -0.03267691 -0.010433666 -0.014797987
0.027321065 -0.018821517 -0.002461254 -0.0051504383 -0.0016472061 0.019264286 -0.0011875452 0.02159296
0.017697558 -0.035403542 -0.03549658 0.031404443 0.010697985 -0.018978553 0.03473619 -0.025304537
0.008559901 -0.02237919 0.0015997067 -0.001040113 -0.010752303 0.03176382 0.0009770335 -0.022306949
-0.02351617 -0.028831689 0.022316085 -3.168559e-05 -0.022794114 -0.034457438 0.030411024 0.009853652
0.023339627 -0.016917322 0.016427416 0.022484472 0.0022951218 0.030475276 0.01766128 0.014483957
0.016081428 -0.035655644 -0.021163201 0.0013866604 -0.020254401 0.022347478 -0.024588577 0.0047536963
0.03386638 -0.0049630688 0.031659093 -0.007901102 -0.026158636 0.017934643 -0.03403775 -0.002056723
-0.030446034 -0.017642038 -0.0015887354 0.030110642 -0.0010636684 0.008813841 0.026664684 -0.021116307
-0.012495711 -0.009317642 -0.005944134 0.011832058 -0.019030707 -0.011106649 0.002302244 -0.020697327
-0.016140155 -0.031052591 -0.0036565627 0.015002308 0.025689993 -0.028681485 -0.004534908 -0.00020259924
-0.0046014665 0.025357908 -0.003972458 0.025639808 -0.010151916 0.019865304 0.0032930644 0.03372367
-0.020807233 -0.010706629 -0.013697368 -0.015063921 -0.0063569485 -0.027313301 0.009833582 0.0056695687
-0.0009747819 -0.012416557 0.0010684609 -0.028366074 -0.032309562 0.022693329 0.0025531994 -0.014861623
-0.01216159 0.03388408 0.020936321 -0.012954383 0.02816139 -0.0318088 -0.0030731633 0.0094715655

tree_conv.6.weights.weight f4 [64, 128, 3]
00000000: 381f 71bc 5b11 123d beac 153b ad5b 56bc
00000010: a33f 0c3d abb8 4d3d 4639 353d e6b6 f0bb
00000020: 8119 66bb 4f61 03bd 6f67 093c 1815 a4bb
00000030: 58f2 253d df68 f63c c251 b5bc f543 cdbb
00000040: d2bc 953b 4684 4d3a 91eb 50bc 1c6e a5bb
00000050: 777a 043c 2ab8 9a3c 01a9 89bc a1b4 ad3c
00000060: 3eaa efba ebed 20bd 24a9 99bb 23b4 1cbd
00000070: 45d6 3ebd d486 0ebd 163f 43bd 06f5 fbbc
00000080: b474 a0bc afee 18bd deb8 8c3b 5c8f 153d
00000090: 8b3c c7bb 9b76 a4bc 5a1b 4ebc 708b b03b
000000a0: 6ede 2dbd afe4 293c abff f13c 18d1 53bc
000000b0: 962a acbc b81c 12bd 1e0b 443d 2507 4abd
000000c0: 248e c63b ec6d 4bbd 72c1 18bd c5e1 c139
000000d0: edf9 84bc fbdb 513b 7c27 483d 9f13 1fbd
000000e0: e93a bb3b 7a8f d93c 2b86 1bbd 8e94 3ebd
000000f0: fdce 4c3c 6699 23ba 3dc2 303d 8584 41bd
00000100: 7b0c 0a3c c92b eebc 043d ec3c 783a a23c
00000110: a360 09bd 5efc c7bc 61de 5fbb ec57 133d
00000120: a93d e4bc 62b4 9a3c 7a19 28bd f8b8 5ebc
00000130: 8920 4a3d 895b 37bd a04e 253b 5a93 ea3b
00000140: 5ca0 353d 9eec ee3b d125 ab3a 039d 3a3d
00000150: f212 67bc 5265 1fbb 3f65 1fbd 1e62 2d3c
00000160: 14df c6bc 6b58 703c cdff 36bd f2b2 813c
00000170: baa9 803c c485 bb3c b21e ac3c cc77 d63b
00000180: d920 92bc 7e0a a7bc 7720 b5bc 8178 f1bc
00000190: aafe aa3c 777b 153d cd0e f4bc f53a d5bc
000001a0: 0873 0abd f019 103d 8f49 9c3c b7f3 01bd
000001b0: b848 f3bc 1dbe 583c 8ca4 41bd dd2f 003d
000001c0: 311c 41bd a5df ff3c f696 f2bb a5b3 033d
000001d0: d8c7 fbbc f450 3e3c e01c 1c3a c9c3 b93c
000001e0: a67c 4abd 36ee eb3b 076a 043d 2cbb fa3c
000001f0: 0bc0 b03c 43eb ff3c af86 b3bc 132e d03c
00000200: f4e4 1cbd dae3 1d3d 5a9e e13c 4ea8 db3c
00000210: afef 55bb c64d 943c c629 0ebd 3df3 233d
00000220: a8f6 583c 5762 b0bc 0030 ccba adc5 ae3c
00000230: 59ef e83c f370 1e3d acd3 24bc 5d9a 213c
00000240: a05c 0fbd 892a 3d3c 2c9d 09bd da06 e63c
00000250: 7a0f 0cbd c18c 2f3d 6a0f a5bc 3d69 84bc
00000260: af48 4bbd f022 063c 1400 4d3d 2a4f 813c
00000270: 1a31 033d 9cdd 71bb aa0e 2ebd eba1 2bbd
00000280: 9a19 d339 d55d 02bc fe9b 43bd 9e84 18bd
00000290: 7eec 62bc 3b31 513d df5e b5bb 1701 d8bb
000002a0: a135 12bd d5cb 12bc f435 4dbd d81b b6bc
000002b0: b6c9 603b 30aa 55bc fc80 4c3d 2856 3d3d
000002c0: 917d 543b ab8e 35bd 5442 5e3c 9b13 203d
000002d0: 0945 433d fb04 cfbc 4c51 043d ba87 a839
000002e0: 2d17 21bd 0e01 0e3d 3598 bdbc b482 77bc
000002f0: 5b11 203d e68e 5cbc 6c47 383d 9c10 3dbd
00000300: 9a02 ea3c 4277 15bc 2b37 bf3c feb7 933c
00000310: b2d6 123d da6b df3c 340a c2bc 9c78 febc
00000320: 24f3 19bd 1409 99bc 5c4a 313d ad9d de3c
00000330: de72 903b 54d5 b9bc 1ddf bb3b 3e10 9dbc
00000340: 3db4 ef3c c99c 0c3d a259 e53b 3c2e 973c
00000350: 9d23 96bb 8f71 623c 6737 f43c 66df c3bc
00000360: 2014 c23b e085 b63c a62a 483d 243d e6bc
00000370: 5409 39bd 82ff 843c 5ede 8f3a 5cdc 4a3c
00000380: 3fb0 0cbd 803c afbc 01aa 413d 145e 78bc
00000390: be80 733b 85d9 a73c d93c e43c fe8f 03bc
000003a0: fdbb 8a3c 0619 463d 0674 efbc ffbe 2bbd
000003b0: 4cb0 9b3c 85d5 0e3d 9904 e9bc 669e 01bd
000003c0: fbae 3a3d 9f63 443a 27df 3a3d b7af 8cbc
000003d0: 2816 26bd 21f4 4d3d 445c a23c ad84 423d
000003e0: 6c28 17bd 992d edbc 0391 b8bc edae cebc
000003f0: c02d 28bd 5a47 43bd 5f25 0d3d 1012 1e3d
-0.014716916 0.035661083 0.0022838558 -0.013083381 0.034240376 0.05022494 0.044244073 -0.007346022
-0.0035110416 -0.032075223 0.008386477 -0.0050073974 0.04051432 0.030079303 -0.022133712 -0.0062642046
0.0045696283 0.00078398397 -0.012751476 -0.0050485265 0.0080858385 0.018886644 -0.01680422 0.021204295
-0.0018284989 -0.039289396 -0.0046893526 -0.03825773 -0.046591062 -0.03479655 -0.047667585 -0.030756485
-0.019586898 -0.037337 0.004294499 0.03651367 -0.0060802153 -0.020076087 -0.012579763 0.005387716
-0.042448454 0.010369464 0.029540857 -0.01292827 -0.0210164 -0.03567192 0.047862165 -0.04932322
0.006059425 -0.049665377 -0.03729386 0.0003698004 -0.016232455 0.0032021988 0.04886578 -0.03883707
0.0057138097 0.026557673 -0.03796975 -0.04652839 0.012500522 -0.00062408147 0.04315399 -0.04724552
0.008425827 -0.029073613 0.028837688 0.01980327 -0.033539426 -0.02441233 -0.0034159648 0.03597252
-0.027861433 0.018884841 -0.04103992 -0.013593905 0.049347434 -0.04476503 0.0025223866 0.007158679
0.044342384 0.0072913906 0.0013057535 0.045559894 -0.014103638 -0.0024321866 -0.038914915 0.010582475
-0.024276294 0.014669518 -0.044677544 0.015832398 0.015705932 0.022890933 0.02101073 0.0065450426
-0.017837929 -0.020390745 -0.022110207 -0.029476406 0.020873386 0.0364947 -0.029792214 -0.02602909
-0.03380111 0.035180986 0.019078044 -0.031726565 -0.029697761 0.01322892 -0.047276065 0.031295646
-0.047146026 0.031234572 -0.00740325 0.032153744 -0.030734941 0.01161598 0.00059552304 0.022676365
-0.04943528 0.007200028 0.032327678 0.030606829 0.021575948 0.031240111 -0.021914808 0.025412595
-0.038304284 0.038547374 0.027541328 0.026813652 -0.0032644083 0.018103492 -0.034707807 0.040026892
0.013242401 -0.021531267 -0.001557827 0.021334494 0.028434442 0.038681936 -0.010060232 0.009863463
-0.035000443 0.011545786 -0.033597156 0.028079439 -0.034194447 0.042858843 -0.020148952 -0.016163463
-0.049629863 0.008187041 0.050048903 0.015784819 0.03202925 -0.003690577 -0.042494453 -0.041902464
0.0004026413 -0.007956942 -0.047756188 -0.03723585 -0.013850329 0.05107234 -0.005534991 -0.006591927
-0.035695676 -0.00895973 -0.05010028 -0.022230074 0.0034299917 -0.013041064 0.049927697 0.046224743
0.0032423476 -0.044325512 0.013565619 0.039081197 0.04767326 -0.02527093 0.032304093 0.0003214458
-0.039328743 0.034668975 -0.023143867 -0.015106846 0.03907905 -0.013461804 0.04498999 -0.046158418
0.028565694 -0.009122672 0.023341736 0.01803207 0.03584928 0.027273107 -0.023686506 -0.03106337
-0.037585393 -0.018681087 0.043283805 0.027174795 0.0044082245 -0.02268473 0.0057333843 -0.019172784
0.029260749 0.03432921 0.0069992105 0.018454663 -0.004581882 0.01382102 0.029811574 -0.023910236
0.0059228092 0.022280633 0.048868798 -0.028105326 -0.04517491 0.016235117 0.0010976305 0.012381639
-0.03434777 -0.021391153 0.04728127 -0.015159149 0.0037155594 0.020489464 0.027861046 -0.008029936
0.016935343 0.048363708 -0.029230129 -0.041930195 0.019004963 0.034871597 -0.028444575 -0.0316452
0.04557703 0.00074916513 0.04562297 -0.017173631 -0.040548474 0.050281648 0.019819386 0.04748981
-0.036903784 -0.028952407 -0.022530084 -0.025229895 -0.041059256 -0.047675468 0.034459468 0.038591444

tree_conv.6.weights.bias f4 [64]
00000000: 515d f23c b14d 35bd b19e 1abd 4441 e73b
00000010: 5c5e 6fbc dff0 01bd 709a 163d 7b6a 6e3c
00000020: 6be6 013d 2496 153d 8708 be3c 422b 18bd
00000030: 44f2 6e3c 85e6 233d ce7c 263d d3a7 123c
00000040: ccf6 3d3c d92d d83c 468b 27bd 54a9 60bc
00000050: 2313 42bd b41f 01bd c5de b4bc 6e61 3fbd
00000060: f4d9 d83c c07b b23c 500e 173d d85f 0b3d
00000070: 8a19 c5bb bfbd cfbc 19b4 913c a439 09bd
00000080: ecb0 323d 4d39 72bc 0887 493b 06e0 26bd
00000090: a9a2 88bc e7b7 253d 6d25 f9bc 821b acbc
000000a0: b7bd 1e3c 2af3 f839 bf21 09bc 8b56 db3c
000000b0: 2e73 503c 2990 253d eb5a 4abd fed4 313d
000000c0: 760f 9abc 9dd5 df3c 7272 a7bc e633 bc3c
000000d0: 5be7 113d 7b7e 08bd 6ab3 143d a68f 513d
000000e0: ec89 2dbc a1bb 383c a789 97bb 5a1c 443d
000000f0: 57e9 f0bc 5700 22bd 2c4d f5bc e5c2 c6bc
0.029585512 -0.044263545 -0.037748996 0.007057341 -0.014609899 -0.031723853 0.036768377 0.014551754
0.031713884 0.03652014 0.023197426 -0.03715063 0.014584128 0.040014762 0.040646367 0.008951145
0.0115944855 0.02638905 -0.040904306 -0.013712246 -0.04738153 -0.031524375 -0.022078881 -0.046723776
0.026471116 0.021787524 0.036878884 0.03402695 -0.0060150074 -0.025359033 0.017786073 -0.033502236
0.043625757 -0.014784169 0.003075065 -0.04074099 -0.016679125 0.040458586 -0.030413354 -0.02100921
0.009688786 0.00047483417 -0.008369862 0.026774665 0.0127227735 0.040420685 -0.049403112 0.043416016
-0.0188062 0.027323538 -0.020440314 0.022973966 0.03562103 -0.033323746 0.036303915 0.051162384
-0.010591965 0.011275203 -0.0046245637 0.0478786 -0.02940814 -0.039551105 -0.029944025 -0.024262855

tree_conv.9.weight f4 [64]
00000000: c349 803f 7fdd 7f3f bb35 803f db25 803f
00000010: 3036 803f 4533 803f 2bf8 7f3f 2ee3 7f3f
00000020: fcda 7f3f 25e5 7f3f 311b 803f 728e 7f3f
00000030: 873c 803f 3141 803f 894b 803f 414a 803f
00000040: 253d 803f 59d6 7f3f 303f 803f 3e18 803f
00000050: 96d2 7f3f 0142 803f 37cd 7f3f 7d0d 803f
00000060: ae22 803f 03a4 7f3f 1fc7 7f3f a43b 803f
00000070: 50bd 7f3f 2840 803f 30eb 7f3f f1e5 7f3f
00000080: 3f3a 803f bcb0 7f3f 9a31 803f 0bec 7f3f
00000090: 9135 803f 58fa 7f3f f1c4 7f3f 0134 803f
000000a0: 52ba 7f3f 093d 803f 3936 803f 3b0f 803f
000000b0: a822 803f dd35 803f 021d 803f 38b2 7f3f
000000c0: 3a12 803f 7b41 803f 2f06 803f c83c 803f
000000d0: 22e9 7f3f 9742 803f f720 803f c12d 803f
000000e0: fe02 803f a028 803f 0ce1 7f3f e903 803f
000000f0: 0841 803f cf20 803f 7e13 803f 1e0d 803f
1.002251 0.9994735 1.0016397 1.0011553 1.0016537 1.0015646 0.9998805 0.99956024
0.9994352 0.9995902 1.0008298 0.9982673 1.0018471 1.0019895 1.0023052 1.002266
1.001866 0.99936444 1.0019283 1.0007398 0.99930704 1.0020143 0.9992251 1.0004116
1.0010583 0.9985964 0.9991321 1.0018201 0.9989824 1.0019579 0.9996824 0.9996024
1.0017775 0.9987905 1.0015137 0.9996955 1.0016347 0.9999137 0.99909884 1.001587
0.9989368 1.0018626 1.0016547 1.0004648 1.0010576 1.0016438 1.0008852 0.99881315
1.0005562 1.0019983 1.0001887 1.0018549 0.9996511 1.0020322 1.001006 1.0013963
1.0000913 1.0012398 0.9995277 1.0001193 1.0019846 1.0010012 1.0005949 1.0004003

tree_conv.9.bias f4 [64]
00000000: 40ea faba 7679 083b c46d ffba 653b 0abb
00000010: 00aa faba 0f83 f73a 18fa 7639 cd22 00bb
00000020: e78d e5ba 4bd7 a6ba d286 eaba c88c f63a
00000030: 6cef 9a3a 43ab ad3a e70f f03a 151d c43a
00000040: 499d c0ba b13d cb3a 62d7 f5ba f97e 053b
00000050: fbfe 56ba 253d e73a 2524 06bb 6436 0e3b
00000060: fc4b e1ba 9fc2 0b3b 3c96 c73a fc20 3fba
00000070: 0b10 06bb 81d3 13bb 92e5 073b d63f e13a
00000080: e091 0f3b 22ec 0c3b ce1c 02bb b4f9 03bb
00000090: 9ca0 15ba f381 fc3a 0d85 03bb 4dcf ebba
000000a0: 3aae 15bb ddc0 d73a b794 f43a 46bc f6ba
000000b0: 8fc9 03bb ab22 0abb 3dff 08bb 87f7 9eba
000000c0: 5798 deba d0ab 05bb 8fe6 07bb 7b24 01bb
000000d0: cb4d f73a e3e2 063b e257 e73a cde1 04bb
000000e0: 649c fb3a c7f4 fc3a dcca 013b dd3f f13a
000000f0: 911b 0ebb 9491 bb3a 2502 073b 3efd 7339
-0.0019143298 0.002082435 -0.0019487669 -0.002109253 -0.001912415 0.0018883663 0.00023553555 -0.0019551993
-0.0017513604 -0.0012728957 -0.0017892963 0.0018810267 0.0011820621 0.0013249893 0.0018315286 0.001496228
-0.0014695312 0.0015506056 -0.0018756206 0.002036987 -0.0008201447 0.0017642124 -0.002046832 0.00216999
-0.0017188783 0.002132572 0.0015227268 -0.0007290987 -0.002045634 -0.0022556486 0.00207362 0.0017185162
0.0021907017 0.002150305 -0.0019853595 -0.0020137848 -0.00057078316 0.0019264802 -0.0020068318 -0.0017990858
-0.0022839443 0.0016460676 0.0018660043 -0.001882442 -0.0020109152 -0.0021077793 -0.0020904087 -0.0012128212
-0.0016982657 -0.0020396598 -0.002073679 -0.0019705582 0.0018867789 0.0020582012 0.0017650092 -0.002027619
0.0019196388 0.0019299024 0.0019804752 0.0018405874 -0.0021683911 0.0014310353 0.0020600643 0.00023268626

tree_conv.9.running_mean f4 [64]
00000000: e791 9040 2412 b040 1878 7340 91c9 3a40
00000010: 5c30 e73f 7d7a 9040 ec65 4840 f742 cd3f
00000020: 6b6b 1f40 56b0 9540 ec71 ae40 d527 3740
00000030: bd0e 2f40 ff71 6940 48bb 9740 6109 3a40
00000040: 7885 2240 493c c040 6b3d 9840 3cc1 cc3f
00000050: 23bf 1340 8eb5 2740 8d2a 063f def1 8640
00000060: d016 6a40 469c 6d40 dbc1 6640 b0b3 8640
00000070: 3e0d 4e40 be6b 0e40 25d3 1b40 aae8 8040
00000080: 023b 853f 0817 5f40 cafe 6e40 2ad8 653f
00000090: 409c 9c40 1890 f03f 985d a840 cb69 3e40
000000a0: c7d3 0040 8206 a83f a2da 113e e483 c83e
000000b0: cbb1 833f ba97 2b3e 578e 6b40 ec7b 4c40
000000c0: 51c5 ad3f c789 9a40 1946 3640 f4dc a540
000000d0: 3f33 f43f c1aa 1940 042b 1540 a1e1 943f
000000e0: 2d86 773f 7a3d f83e b46d 973f fc6c 9d3f
000000f0: 9e91 b33f 4451 483f dce3 4f40 ee7a 0f3f
4.5178103 5.5022144 3.804205 2.9185526 1.8061633 4.514952 3.1312208 1.6036061
2.4909313 4.6777754 5.4514065 2.8618062 2.7352746 3.6475828 4.7416115 2.9068224
2.5393963 6.007359 4.7574973 1.599647 2.308541 2.6204562 0.5240868 4.217025
3.6576424 3.7126632 3.605582 4.2094345 3.2195582 2.225326 2.4347622 4.0284014
1.0408633 3.4857807 3.734301 0.89782965 4.8940735 1.8793974 5.261425 2.975207
2.0129259 1.3126986 0.14243558 0.39163125 1.0288633 0.16757098 3.6805627 3.1950636
1.3575841 4.8293185 2.8480284 5.183222 1.9078139 2.401047 2.3307505 1.1631356
0.9668911 0.48484403 1.1830354 1.2298884 1.4028814 0.78249 3.2482824 0.5604695

tree_conv.9.running_var f4 [64]
00000000: cfa9 523f eb22 0640 c8bc 8c3f d0ff ac3f
00000010: 5ac8 223e 2bf1 733f 81c6 323f 081e 0f3f
00000020: 7e94 a73e c576 3f40 71dd b83f 47c4 7a3f
00000030: 1076 1e3f 9f2c db3f 8c4a 6c3f 6e3f 543f
00000040: c96b 913e 0e4a b63f eb0d 853f ce1e c03f
00000050: fa75 a13f ffc2 a93f d25d 613e 5568 3640
00000060: c27e 993f a81f 8f3f 1654 f43e 392b 2540
00000070: 7f0a a63f c1d9 063f dc3e 583f cb1b 833f
00000080: c0c3 3a3f 350b c13f fed8 223f 9644 293f
00000090: e0c5 aa3f 93cb 153f f126 c23f 5025 683f
000000a0: 7148 5b3f 003c 473f f80e 4b3d 0e10 433e
000000b0: f8f0 3f3f 0374 dc3c ba09 333f ff7d f23f
000000c0: db9d e33d f1f7 2340 cc12 113f 29da b33f
000000d0: eaa4 093f 237c e53f 279b ac3e f665 363d
000000e0: d5a7 d43e 3b87 023f 78e5 113f 35da 0e3f
000000f0: f8d4 b83d 84d1 403f e09c 9c3f acdc 413e
0.8229036 2.0958812 1.0995111 1.3515568 0.1589674 0.9528987 0.6983414 0.559052
0.32730478 2.991624 1.4442579 0.97955745 0.618989 1.7122992 0.9230125 0.82909286
0.28402546 1.424135 1.0394872 1.5009401 1.2614129 1.3262633 0.22008446 2.850118
1.1991808 1.1181536 0.47720402 2.580763 1.2971953 0.52676016 0.84470916 1.0242857
0.7295494 1.5081545 0.63612354 0.6612028 1.3341637 0.58513755 1.5168134 0.90681934
0.8565741 0.7782593 0.049574822 0.19049093 0.74977064 0.026910787 0.69936717 1.8944701
0.11114093 2.5620081 0.56669307 1.4050952 0.53767264 1.7928509 0.33712122 0.04453083
0.41534296 0.50987595 0.56990767 0.5580171 0.090249956 0.75319695 1.2235374 0.18931836

tree_conv.10.weight f4 [32, 64]
00000000: 6c65 39bd 7732 18bd 4cc2 df3d 8ad4 d2bd
00000010: 3208 0c3d b7ce e43d 9e3e fabd f98c dabd
00000020: 2d52 7ebd 35b5 3d3d 7e73 34bd 3c07 fbbc
00000030: 7ebe a83d c77a bcbd 259f 403d 5f41 eb3d
00000040: 451b 2d3c 2c3b 503d ab71 1d3d 570b ad3d
00000050: 30b7 f43d 1da4 763d 860b ef3d 1764 5c3d
00000060: 4fa5 b6bd a924 663d 4896 643d 9723 873d
00000070: 7cd1 293c cd04 f93d b937 923d bb84 973d
00000080: 2996 3d3d 693d 4dbc 5b44 a33c 7bef d63d
00000090: 8302 fd3d 786c 99bd cdfd 2bbc 8a94 8f3d
000000a0: b465 843d 1f02 893c 1dbd ff3d 2d39 25bd
000000b0: eee6 103d a84f e7bd d72a 233d e441 ef3c
000000c0: 3f93 743d 9aec f0bc 19dd cf3d a7a2 df3d
000000d0: 5049 22bd cd25 dd3d c8ad ac3d 9037 e5bd
000000e0: a63a d7bd 749a edbb f8b4 2fbd 04ac 893d
000000f0: 5d2f c5bd 4cce 543d 73d7 b23d f180 9a3d
00000100: e7d2 e6bd 235e 4dbb e0b2 ab3d 3d3e f2bc
00000110: 20e8 de3c 3c0f 8bbd 6b2e ba3c cab3 9dbd
00000120: 4a9d 983d 1e0d 973d a6d2 e3bd a4f4 e6bd
00000130: 8199 d03d 2c60 493c cfaf f13d 4d0a c7bd
00000140: ac2d bebd e672 a83d 47cd 83bd c0eb ebbd
00000150: 83b8 8e3d 0ed6 e4bd b627 8f3d 9800 e0bc
00000160: 50bf db3d 3b2e 9a3d c14e b9bd 790d c4bd
00000170: 4115 85bd 3467 a7bd 9b1e fe3d 5bc1 44bd
00000180: a8de f0bd 4140 d23d 737a 5abb 6e91 c8bd
00000190: 96eb 373d 856b 23bd 4b40 b2bc 579e ce3c
000001a0: a0b6 5a3d 2e07 2bbd dc0a ccbd 0426 fa3d
000001b0: b805 ff3d 8207 473c cde9 62bd ebdc 23bd
000001c0: 9783 f93d 30f2 b73d 3c06 8d3d 5ace 103d
000001d0: f072 c3bd f246 d53d 2662 40bd 6f53 d0bd
000001e0: d56c adbd 7f80 a2bc 385d e8bc a13a c53d
000001f0: a567 d3bd 7f25 a53a 8def 19bd c106 babd
00000200: 4a5a b73d eee4 1c3d 7b92 a3bd f858 99bd
00000210: 56be 97ba 3153 ba3d 7255 c83d d0a5 0abc
00000220: 1253 353d 83ad 973d 6e5b 113d f5c0 123d
00000230: 6f65 243d 033f 933d 650a 81bd 3395 f6bd
00000240: a6de d23d e731 59ba b670 ea3d fa87 f53d
00000250: b11f 6dbc e0fa b4bd 784a 32bb d770 c0bd
00000260: 116b cb3d 79ca 42bc 4c62 b33b 474f 8f3b
00000270: 68cb 073b f52c bf3d ef15 1bbb ff19 fdbd
00000280: 2002 a03c 96d3 8f3b 490b d53c a688 f7bd
00000290: 9e60 cc3d 5b73 893c e691 3c3c 7a44 6ebd
000002a0: 4715 f4bd 3143 843d 1008 843c b415 f43c
000002b0: c587 edbd ffde f5bc 3030 a53d 399f e33d
000002c0: cde8 e8bb 8f81 a43d a1e0 66bd 125d 283d
000002d0: 43e6 43bd 84ad cbbd 8ece b13c 1a78 c5bd
000002e0: e234 fa3d 8862 6b3d f502 46bd 49d6 fb3d
000002f0: 26ee 81bd 5b91 c7bd e345 f13d d7eb b3bd
00000300: 8d9d d4bc aa8e bc3c 3ef1 ad3d 2b93 82bc
00000310: 6cdd 873d 5da0 8cbd 5e3e a6bd 3da5 bdbb
00000320: 8f93 44bd 7210 a93c ce60 873d d789 60bc
00000330: 6235 abbd 6635 b0bd 72ea 2ebd 6eaf cdbc
00000340: c274 dcbd f620 17bd 8e7e efbd 2999 b53c
00000350: fed6 053a c7de e23b 909d 94bd 2842 3a3c
00000360: 33f6 aeba 37e0 0bbd b8cd db3a 2391 19bc
00000370: 7979 84bd 6abf 5c3d d9a9 753d b9f3 613d
00000380: 1734 be3d 2e2e f43d fbdb cfba c163 0ebd
00000390: c0ea 23bc ee4a a5bd 3c47 023c 602c c3bd
000003a0: 8a26 44bd 9fa8 b03c 8fa7 00bd f602 49ba
000003b0: 7484 f23d 6fba a13d 55d2 62bd 0e41 d8bd
000003c0: 1a26 cfbd 5dd3 87bd 8cc6 273d 0044 033d
000003d0: c0a7 80bd 8737 dd3d b236 abbd 3161 b0bb
000003e0: 5c5d 9dbd f2de e9bd d1bc dc3d 2f99 b6bd
000003f0: d60f 34bd 858c e7bd 2468 863d 8851 4abd
-0.04526274 -0.037157502 0.10925731 -0.10294445 0.034187503 0.1117224 -0.122189745 -0.1067142
-0.062090088 0.04631539 -0.044055454 -0.030643098 0.082394585 -0.092031054 0.047026772 0.11487078
0.010565584 0.05083768 0.03843848 0.084494285 0.11949003 0.060215104 0.1167212 0.05380639
-0.08918249 0.056187306 0.055807382 0.06598585 0.010364886 0.12159119 0.071395345 0.07398363
0.046285782 -0.012526848 0.019930055 0.10494896 0.12353995 -0.07491392 -0.010497523 0.070107535
0.06464711 0.016724644 0.12487242 -0.04033773 0.03537648 -0.1129449 0.039835777 0.029206224
0.059710737 -0.029409695 0.10149593 0.10919695 -0.039620697 0.107982256 0.08431584 -0.11192238
-0.10509233 -0.0072510783 -0.042897195 0.067222625 -0.096281745 0.051954553 0.087325 0.07544125
-0.11270695 -0.0031336627 0.08383727 -0.029570693 0.027210295 -0.06790015 0.022727212 -0.07700308
0.074518755 0.07375549 -0.111241624 -0.1127713 0.101855285 0.012290996 0.11801111 -0.097187616
-0.09286055 0.0822504 -0.06435638 -0.11519575 0.069687866 -0.1117364 0.06989996 -0.027344033
0.10729849 0.07528349 -0.09048224 -0.09572882 -0.064981945 -0.08173981 0.12408181 -0.04803596
-0.11761218 0.10266162 -0.0033337146 -0.097933635 0.044902407 -0.03989746 -0.021759173 0.025221987
0.05339682 -0.041754894 -0.09963009 0.12214282 0.12452263 0.012147786 -0.05539875 -0.040005606
0.12183302 0.089817405 0.06885955 0.035353042 -0.09543407 0.10413922 -0.0469686 -0.10172164
-0.08468024 -0.019836662 -0.028364763 0.09630323 -0.10322503 0.0012599676 -0.03758197 -0.090833195
0.08952768 0.038304262 -0.07986923 -0.074876726 -0.001157711 0.09097899 0.097819224 -0.008462384
0.044268675 0.074061416 0.035487585 0.03582855 0.040135797 0.07189753 -0.06300811 -0.12040176
0.10296373 -0.0008285329 0.11447279 0.11988826 -0.014472888 -0.08836913 -0.0027205031 -0.093965225
0.09932531 -0.011889094 0.0054743644 0.0043734643 0.0020720605 0.09334747 -0.0023664196 -0.12358474
0.019532263 0.0043892367 0.026006358 -0.120866105 0.09979366 0.016778639 0.011509394 -0.058170773
-0.11918121 0.06458128 0.016117126 0.029795505 -0.115981616 -0.03001356 0.08065832 0.11114354
-0.00710783 0.08032524 -0.056366567 0.041104384 -0.047827017 -0.09945205 0.021704938 -0.09642048
0.12217118 0.057467014 -0.048342664 0.12296731 -0.06344251 -0.09744521 0.11780908 -0.08785217
-0.025954032 0.023017246 0.08493279 -0.015939316 0.0663403 -0.06866524 -0.08117364 -0.00578752
-0.047992285 0.020637725 0.06610261 -0.013704739 -0.08359791 -0.08603935 -0.042704053 -0.025108065
-0.10764457 -0.03689667 -0.1169406 0.022167759 0.00051055837 0.00692353 -0.07256615 0.011368312
-0.001334852 -0.034149375 0.0016769683 -0.009372982 -0.064684816 0.053893484 0.059976432 0.055164073
0.09287279 0.119228706 -0.0015858406 -0.0347631 -0.010004699 -0.08070932 0.007951554 -0.09529948
-0.047888316 0.02156478 -0.031409796 -0.0007667983 0.1184167 0.078968875 -0.05537637 -0.10559283
-0.10114689 -0.06632111 0.040960833 0.03204727 -0.06281996 0.108016066 -0.08360042 -0.00538268
-0.076838225 -0.114194766 0.10778201 -0.08915936 -0.043960415 -0.11306099 0.06562832 -0.04939416

tree_conv.10.bias f4 [32]
00000000: 9706 37bd 01cf 773c c259 90bd 7d26 cd3d
00000010: 78cd 23bd 95f3 a13d 3f5e d7bd 89bb dbbd
00000020: 366a 723d 7365 33bd c69e 2fbc 375a 5dbc
00000030: 02d8 11bd fc8d 98bc ed26 e03d 5ab1 983d
00000040: 0f20 c13d 45c7 8fbd ba85 b03d 2ec6 e33b
00000050: 52ef 4a3d 1bce 76bc 8a02 aabd 8b79 ebbb
00000060: 6308 18bc 5e17 f33d 7e7b f13c fdf1 a93d
00000070: 698c ec3d 1d45 203d 9543 b53d aa26 1d3c
-0.04468402 0.015125037 -0.0704837 0.10017107 -0.039990872 0.07907788 -0.10516023 -0.10729129
0.059183322 -0.04379792 -0.010719007 -0.013510278 -0.03560639 -0.01862239 0.109449245 0.07455702
0.09429943 -0.070204295 0.08619256 0.006951115 0.04954464 -0.015063788 -0.083012655 -0.00718612
-0.009279343 0.11869691 0.029477831 0.08298109 0.115502186 0.03912841 0.08850781 0.009591738

tree_conv.12.weight f4 [16, 32]
00000000: 2a0f 30be f2cf 8dbc 441c ff3d 8f3d d4bd
00000010: d13f 253d 0622 a4bb b8e4 373c 36f9 313e
00000020: f134 663d 41ca f03c 8ef1 8b3d eb1f cbbd
00000030: 6e64 26bd 67b1 bf3d 4e3a 063e 2ab9 03ba
00000040: f722 813d 0006 29bd 74eb 363d 1fba 1ebe
00000050: 13b4 1fbe 23bd 073e f81a c73d c21c d03d
00000060: 7cef 223d 8841 ecbd 86a0 743d 37c2 173e
00000070: cdbd 5c3c 1350 1abe de4c 2a3d cce4 df3d
00000080: c720 a0bd e0d8 0c3e 1cbf a13d f6b2 26be
00000090: 45c6 9bbd 088e 1fbe 7b69 023e ea80 793d
000000a0: 449a 123e 628d 2d3e a688 3fbd c5b0 da3d
000000b0: 7bea e7bd 469d 8abd c466 833d fdc6 9dbc
000000c0: 1a31 e5bd 3960 c9bd 73fe c23d 2eb2 ba3d
000000d0: e58a 82bd d9bd 1abe 9560 78bd 0801 f23d
000000e0: f216 b83d 0ce6 c63d 06f1 983d bf38 33bc
000000f0: c6b3 ed3d d697 00be f635 8f3d 94a8 d8bd
00000100: dfce b43d 8cc3 5abc 49c4 313d 2355 043d
00000110: c69d b73d 16e1 28be 2d0a f6bb 293d 0dbe
00000120: f25f dfbd 6a52 f43c 6a1e 313d 8fa0 9cbc
00000130: ac72 8d3c 4bed 243d f53d 56bd 06b7 cdbc
00000140: ace3 e3bd b1f4 32be 8fe3 98bd b93b 343e
00000150: 7671 dabd 925a 00be 665d dcbc 4209 e0bd
00000160: 6056 273e 7104 00bd 2ce3 80bd c8e1 f43b
00000170: 31a3 ad3d bd06 0ebe 84fe 0fbe b48d 99bc
00000180: 5e02 343e fd5e 4f3d c52e 2ebe 796a 963d
00000190: 9cac bd3d e5da 1cbd cee1 11bd 28d7 43ba
000001a0: bc00 e33c 7399 283e 185e 083e eede 843d
000001b0: f3ca 2f3e d69e f43d 2fc7 d7bd bed2 2e3e
000001c0: 8978 c23d cedb 84bb b642 253d 3ed3 26be
000001d0: 82b0 64bd 09c9 9abd 76eb 27be d31e 7d3b
000001e0: a63c bebd a5ee 843d 0d76 21be ac40 22be
000001f0: 8ea0 473c 7bb2 143e 9cf8 11be 98f7 12bc
00000200: 7d36 8d3c 0499 1c3d cc7b e6bc d4ab 37bd
00000210: 9073 013e aa56 f2bd 4211 92bd 006a a53d
00000220: be5f e53c e42b ad3c 1ee5 b1bd cc5e 4dbd
00000230: 462b 043e d488 f83d 4f00 a0bc 5f84 413d
00000240: 4d32 d03c 822c 133e 7b37 153e 3c65 10be
00000250: 0387 d6bd 52b8 0abe 89f0 943d 50f6 fcbd
00000260: 35da 573d 4ad4 1c3e 2427 d5bd 9d42 273b
00000270: b1aa 0a3e 32b2 093d ed38 443c 347e d7bc
00000280: 404d dabc 91a8 2bbe 3f1e 81bd fca6 e93d
00000290: a641 28be 236c 2c3c 56e4 3abb 5b2d 89bb
000002a0: 5c39 2dbe 5666 1ebd 0bbd b73c 918c bb3d
000002b0: e0d3 da3d 4cee ed3d 9e80 293e 3191 57bc
000002c0: cb6c dfbd 474d 9abd 53fd dc3d 6c8a 90bd
000002d0: 1730 b73d 530b 183e e8cf 253e 5790 f5bd
000002e0: b81e c0bd 8b90 b7bd b930 2dbe f5a6 cbbc
000002f0: fe58 f7bd 02d3 9b3d 78fe b53d 15f1 e3bd
00000300: dbeb d73b c97f 59bd b4aa 1a3c 39e8 c0bd
00000310: ff20 053e eef2 29be 28dd 193e d3ee db3c
00000320: d70d 973c e5d1 0ebe c5ba 823c e6b3 1d3e
00000330: a33b 1abe 3d6d 0c3e fbbe 15bc 0cfd 8fbd
00000340: b84e c43d ff22 d9bd 9e59 c73d 3767 7b3d
00000350: 0fd1 663d 6bae b7bd abf4 063e 0957 d5bd
00000360: 8ad1 b83d e3a1 e0bd bb44 383d 3955 19be
00000370: 4db3 0b3e 2c96 c9bc 7595 02be 60f3 a5bd
00000380: eba5 1f3e 04bc a93d ad3c 963c 8548 c4bc
00000390: 79c5 2e3e c843 e7bd f14e 25be c6ba ac3d
000003a0: 166e f2bd 9af4 48bd 786f d23d b0b8 513d
000003b0: 25c4 873d 3ed6 6a3d f00d f3bc 96b0 0abe
000003c0: c8d9 f8bb 9748 073e 8cf8 be3c 5988 793d
000003d0: 356a 2a3e 495f 2cbe f451 223e 86da 09be
000003e0: 4e01 e9bd 382d 313e 00ef 7f3d a397 803c
000003f0: e767 10bd d978 03be a693 1c3e 4517 283e
-0.17193285 -0.01731107 0.12456563 -0.10363304 0.040344063 -0.0050089387 0.011223964 0.17380223
0.056202833 0.029393317 0.06833182 -0.09918197 -0.04062312 0.09360009 0.13108179 -0.0005024845
0.06305497 -0.041265488 0.04465814 -0.15500687 -0.15596037 0.13255744 0.09721941 0.10161735
0.03977917 -0.115359366 0.0597234 0.14820181 0.013472986 -0.15069608 0.041577213 0.109323114
-0.07818752 0.13754606 0.07897779 -0.16279206 -0.07606176 -0.15581524 0.1273555 0.060913958
0.1431666 0.16948465 -0.046761177 0.10678247 -0.113240205 -0.06768279 0.06416085 -0.019259924
-0.11191006 -0.09832806 0.095211886 0.09116016 -0.06374148 -0.15111484 -0.060638983 0.11816603
0.089887515 0.09711847 0.074678466 -0.010938822 0.11606555 -0.12557921 0.06992714 -0.10579029
0.0882852 -0.013352286 0.043400083 0.032307755 0.0896564 -0.16492113 -0.0075085373 -0.13792862
-0.10906972 0.029824454 0.043241896 -0.019119529 0.017266594 0.040265363 -0.05230518 -0.025111686
-0.11127409 -0.17476155 -0.07465278 0.17600907 -0.10666172 -0.1253455 -0.026900005 -0.10939266
0.16341543 -0.031254236 -0.062933296 0.0074732043 0.08478392 -0.13869758 -0.14061934 -0.018744327
0.17579028 0.050627697 -0.17010029 0.07344527 0.09261438 -0.03829469 -0.035615735 -0.00074707204
0.027710311 0.16464786 0.13317144 0.06487833 0.17167263 0.11944358 -0.10536038 0.1707258
0.094956465 -0.004054523 0.040346824 -0.1629152 -0.055832393 -0.07557876 -0.16398415 0.003862311
-0.092889115 0.0649083 -0.15767689 -0.15844983 0.012184275 0.1452121 -0.14254993 -0.008970164
0.017237896 0.038231865 -0.028135203 -0.044841602 0.1264174 -0.11832936 -0.07132198 0.080768585
0.027999755 0.021139093 -0.08686279 -0.050139233 0.12907133 0.12135473 -0.019531397 0.04724538
0.02541461 0.14372447 0.14571945 -0.14101118 -0.1047497 -0.13546875 0.07272441 -0.12351668
0.052698333 0.15315357 -0.10407856 0.0025521882 0.13541676 0.033617206 0.011976463 -0.026305296
-0.026648164 -0.16763522 -0.06304597 0.11408803 -0.16431293 0.010523829 -0.0028517446 -0.004186315
-0.16916412 -0.038671814 0.02242901 0.0915767 0.10684943 0.11617717 0.1655297 -0.013157175
-0.109094225 -0.07534271 0.10790505 -0.07057652 0.08944719 0.1484807 0.16192591 -0.11990421
-0.09380859 -0.08963116 -0.16913117 -0.024859885 -0.12077521 0.07608606 0.08886427 -0.11129967
0.0065893955 -0.05310038 0.009440113 -0.09419293 0.13000868 -0.16596577 0.1502577 0.026847279
0.018439217 -0.13947256 0.0159582 0.15400657 -0.15061812 0.13713546 -0.009139772 -0.07030687
0.09585327 -0.10602378 0.0973389 0.06137773 0.056351718 -0.089688145 0.13179271 -0.10416991
0.090243414 -0.109683774 0.04498742 -0.14973916 0.13642617 -0.02460774 -0.12752326 -0.08103061
0.15590636 0.08287814 0.01833948 -0.023960361 0.17067517 -0.11292225 -0.16143395 0.08434062
-0.118374035 -0.049061395 0.10275167 0.051201522 0.066292085 0.057333224 -0.029669732 -0.13543925
-0.007594321 0.13211285 0.023311876 0.060921047 0.16642077 -0.16833223 0.15851575 -0.13462266
-0.11377202 0.17302406 0.062483788 0.015697306 -0.03525534 -0.12839068 0.15290698 0.16415127

tree_conv.12.bias f4 [16]
00000000: d72c d33d 82cb 20be 95c9 0b3e f368 433d
00000010: 2e30 c03d 3b3f 1d3e f2f5 b53c 4cfe 2ebe
00000020: 940c 2a3c f87e 753c 2b87 b63c 0093 283d
00000030: b388 6d3c e656 263e b67c c3bc bb23 af3d
0.10311287 -0.15702632 0.13651116 0.04770751 0.093841895 0.15356152 0.022212002 -0.17089194
0.010378975 0.014983885 0.02228125 0.041155815 0.014497924 0.16244087 -0.023863178 0.08551737
