src/Models/cost.onnx (onnx, 681599 bytes, 15 tensors)

tree_conv.0.weights.weight f4 [256, 50, 3]
0	0xbbc6239c	-0.0060467254
1	0x3d313e93	0.043272566
2	0x3d9c3d09	0.07628829
3	0x3d7a5235	0.061113555
4	0x3d65b623	0.056081902
5	0xbd973eeb	-0.073850475
6	0xbd9bbaf9	-0.076040216
7	0xbd08f10c	-0.033433005
8	0xbd177f1f	-0.036986466
9	0xbd23b3f7	-0.03996655
10	0x3d1c5170	0.038163602
11	0xbd8df578	-0.06931585
12	0xbd1d7600	-0.03844261
13	0x3cd67270	0.026177615
14	0xbcde9513	-0.027170694
15	0x3d23a6f4	0.03995414
16	0x3d3f80c3	0.046753656
17	0x3d8dc9ff	0.06923293
18	0xbda52793	-0.08064189
19	0x3d8f84e1	0.070077665
20	0xbc7f56f7	-0.015584699
21	0xbc8e5189	-0.017372863
22	0xbda157f7	-0.07878106
23	0xbb2f823a	-0.0026780502
24	0x3c38d114	0.011280317
25	0xbd33c27c	-0.043886647
26	0x3c3f1b2c	0.011664193
27	0xba1b755a	-0.00059302675
28	0xbd89b932	-0.06724776
29	0xbd4ea100	-0.05044651
30	0x3d46ec99	0.04856548
31	0xbd714988	-0.058908015
32	0x3d813311	0.06308568
33	0xbcab9dce	-0.02094927
34	0x3d746373	0.059665155
35	0xbd96d2c1	-0.07364417
36	0x3b9ed698	0.004847359
37	0x3d841ee7	0.06451207
38	0xbd9514d6	-0.07279365
39	0xbda07351	-0.07834495
40	0x3be0af40	0.006856829
41	0x3c90aef1	0.017661544
42	0x3a820b2e	0.0009921545
43	0xbc56ebd4	-0.013117749
44	0xbd6a453d	-0.057194937
45	0xbd018fe1	-0.031631354
46	0x3d02894a	0.03186921
47	0x3d932bda	0.071860984
48	0x3c41a6c9	0.01181955
49	0xbd67a1d8	-0.05655083
50	0x3d8ec366	0.06970863
51	0xbd9e591d	-0.07731841
52	0xbb93de56	-0.0045125885
53	0x3c5ef6f3	0.013608682
54	0x3d9147d7	0.070937805
55	0xbd0869fc	-0.0333042
56	0xbcd14091	-0.025543483
57	0x3d0ae422	0.03390897
58	0x3d5b28c2	0.053505667
59	0xbd08ff8a	-0.033446826
60	0x3d4069dd	0.04697596
61	0xbd53c5e3	-0.05170239
62	0x3d1925e7	0.037389662
63	0x3b3f2451	0.0029165933
64	0x3d646a8a	0.055765666
65	0xbb659beb	-0.0035035561
66	0xbd947092	-0.072480336
67	0xbd0af3e6	-0.033924006
68	0xbd7ce2a6	-0.061739586
69	0xbd40e1eb	-0.047090452
70	0xbd7426b9	-0.05960724
71	0x3d5c1047	0.05372646
72	0x3cff5469	0.03116818
73	0xbd1fc6bf	-0.0390079
74	0x3c27de42	0.0102458615
75	0xbcdb9fa1	-0.026809515
76	0x3d576084	0.05258228
77	0x3d2d5a6e	0.04232257
78	0xbd808103	-0.06274607
79	0xbd1ad6a2	-0.037802346
80	0x3c15f9ff	0.009153842
81	0xbd5a83b9	-0.053348277
82	0xbd0cb03f	-0.03434777
83	0xbd12f3c4	-0.035877004
84	0x3da67a1a	0.08128758
85	0x3d4c2766	0.04984226
86	0xbd45d69c	-0.04830037
87	0xbd32da97	-0.043665495
88	0x3d97b88d	0.07408247
89	0x3c877b8d	0.016538406
90	0x3c805a85	0.015668163
91	0xbd5b2ffc	-0.05351256
92	0xbd7e40f7	-0.062073674
93	0xbd7f3ede	-0.062315814
94	0xbd1e84ab	-0.03870074
95	0x3cc549fd	0.024083132
96	0xbd485bcd	-0.048915673
97	0xbd552dc3	-0.052045595
98	0x3bf72143	0.007541807
99	0x3da5c26d	0.080937244
100	0x3da3204e	0.07965146
101	0xbc5ec910	-0.013597742
102	0xbd54efe5	-0.051986594
103	0xba421e99	-0.0007405072
104	0xbd9082e5	-0.07056216
105	0x3b615c58	0.0034387317
106	0x3c496b7a	0.012293691
107	0x3cebd174	0.028786398
108	0x3d690841	0.056892637
109	0x3d03c7e5	0.032173056
110	0xbd7766bc	-0.06040071
111	0x3c95ed04	0.018301494
112	0xbd37106a	-0.044693388
113	0xbca232a6	-0.019799542
114	0xbd3009ce	-0.0429781
115	0x3d0d8a11	0.0345555
116	0x3be83f53	0.007087627
117	0x3d3e55ad	0.046468426
118	0x3b00ba21	0.0019642191
119	0xbd0cda18	-0.034387678
120	0x3d456d7f	0.048200127
121	0xbd43bed5	-0.047789413
122	0x3b9d6a31	0.004803919
123	0x3c917c16	0.017759364
124	0xbcec9799	-0.028880881
125	0x3d15dda5	0.03658833
126	0xbba5301a	-0.0050411345
127	0xbc6eb6d2	-0.014569955
128	0xbb78ef2f	-0.0037984361
129	0xbd423d47	-0.04742172
130	0xbd54e8db	-0.05197988
131	0x3d6d3870	0.05791515
132	0x3d1d834c	0.038455293
133	0xbd0770eb	-0.03306667
134	0x3da0da40	0.07854128
135	0xbc8ebd68	-0.0174243
136	0x3c84be6d	0.016204083
137	0x3d8545f0	0.0650748
138	0xbd6872a4	-0.056749955
139	0xbd2d528f	-0.042315062
140	0x3c2c349d	0.010510591
141	0xbcf40167	-0.029785825
142	0x3d165a5d	0.03670727
143	0x3d76ef34	0.060286716
144	0x3c2dac11	0.010600106
145	0x3d86ab56	0.065756485
146	0x3cd413b8	0.025888309
147	0xbd91ab5f	-0.071127646
148	0x3d1d95a4	0.038472787
149	0xbd4af07f	-0.04954576
150	0x3d833035	0.06405679
151	0x3da0379a	0.07823105
152	0xbd84570a	-0.06461914
153	0x3c11c514	0.008897085
154	0x3ccc4f3e	0.02494013
155	0xbd2bfb82	-0.041987903
156	0xbcb7ecdf	-0.022451816
157	0xbcc7717e	-0.02434611
158	0x3cc76439	0.024339782
159	0x3d27e5cf	0.040990647
160	0xbc8915e2	-0.016734067
161	0x3d4d7bd8	0.050166935
162	0xbda2a4c4	-0.07941583
163	0x3d91ab0f	0.07112705
164	0x3cc1c67a	0.023654211
165	0xbda1352f	-0.07871472
166	0x3b6c995a	0.0036102147
167	0x3cb118bb	0.021618238
168	0xbd96c345	-0.073614635
169	0x3d469c3c	0.04848884
170	0x3c16fcfe	0.0092155915
171	0x3c887cf9	0.016661154
172	0xbd2e9098	-0.042618364
173	0xbd514ced	-0.051098753
174	0xbcf8f5aa	-0.03039058
175	0x3cc905d2	0.024538908
176	0xbd2d30d4	-0.042282894
177	0x3d7a74bc	0.061146483
178	0xbcea7022	-0.028617922
179	0x3cde137a	0.027108897
180	0x3cc04ed1	0.023475083
181	0xbd9bc594	-0.076060444
182	0x3da0dfd9	0.078551956
183	0xbda54229	-0.0806926
184	0x3c5c96c9	0.013463684
185	0x3d7f34c1	0.06230617
186	0xbcb3aa4c	-0.02193179
187	0x3c7f6e07	0.015590197
188	0x3d7bb07e	0.061447613
189	0xbbceeb00	-0.0063146353
190	0x3d73b14d	0.05949526
191	0x3d23e8da	0.040016986
192	0xbd9ab27c	-0.075535744
193	0x3c95a9f6	0.01826952
194	0xbc7d0a84	-0.015444402
195	0xbd7a62dd	-0.06112944
196	0xbd5ccaa4	-0.05390419
197	0x3cde8912	0.02716497
198	0x3d10f543	0.03539015
199	0xbd48b4e8	-0.04900065
200	0xbc2cc117	-0.010544083
201	0xbca5126a	-0.020150382
202	0x3caedd00	0.021345615
203	0x3cc3a330	0.023881525
204	0x3c9ea4cf	0.019365696
205	0x3d7e94c5	0.062153596
206	0x3c302f79	0.010753506
207	0x3cca2d2b	0.02467974
208	0x3d46f415	0.04857262
209	0x3d4aee40	0.04954362
210	0x3d347dbf	0.044065233
211	0xbd0971fc	-0.03355597
212	0x3bc7668d	0.006085223
213	0x3bb02a4b	0.0053761355
214	0xbd0e2f44	-0.034713045
215	0x3d853d7c	0.06505868
216	0xbd890143	-0.06689694
217	0x3c5d22b1	0.013497041
218	0xbccf9e3c	-0.025344007
219	0xbd728938	-0.059212893
220	0xbc3988b6	-0.011324098
221	0xbc1b0098	-0.009460591
222	0x3d30159d	0.042989362
223	0x3d85c45d	0.06531594
224	0x3da4fec6	0.08056407
225	0x3d70a377	0.058749642
226	0xbd3ef72a	-0.046622433
227	0xbd7b6653	-0.06137688
228	0xbd87cd9d	-0.066310145
229	0xbcba659d	-0.022753531
230	0xbd8da248	-0.06915718
231	0x3b4aa3f3	0.0030920475
232	0xbd47c341	-0.048770193
233	0xbbe06f12	-0.006849178
234	0x3d93f3d8	0.07224244
235	0xbb1c617b	-0.0023861814
236	0x3d89b5cf	0.0672413
237	0x3d88a01b	0.06671163
238	0xbcdbf58d	-0.026850486
239	0xbd8d519e	-0.06900333
240	0xbd93692c	-0.07197794
241	0x3d4774da	0.048695423
242	0xbd46b84d	-0.048515607
243	0xbd34a3bf	-0.044101473
244	0xbd8bfd4c	-0.06835422
245	0xbd91a242	-0.07111026
246	0xbd37d7c2	-0.044883497
247	0x3ca02e47	0.019553317
248	0xbd6111bd	-0.054948557
249	0x3d0639bb	0.0327699
250	0xbc355558	-0.011067711
251	0x3c8b4a9d	0.017003352
252	0x3d7a8ce2	0.061169513
253	0xbc4ee986	-0.0126289185
254	0xbd1ae106	-0.037812255
255	0xbd071346	-0.032977365

tree_conv.0.weights.bias f4 [256]
0	0x3d610953	0.054940533
1	0x3d2f5396	0.042804323
2	0x3da6a3c0	0.081367016
3	0xbd78c129	-0.060731087
4	0x3d4ecc21	0.05048764
5	0x3d270bb9	0.040782664
6	0xbcb54933	-0.02212963
7	0xbca01381	-0.01954055
8	0xbc2dbc40	-0.010603964
9	0x3d96ec7e	0.07369326
10	0x3d2b30db	0.04179464
11	0x3d5a67aa	0.053321518
12	0x3b98b615	0.0046603777
13	0x3da17a46	0.0788465
14	0x3d885253	0.06656327
15	0x3c984195	0.01858596
16	0x3d47e97a	0.048806645
17	0x3c187704	0.009305719
18	0xbbda32d5	-0.0066588917
19	0x3c48c6cc	0.012254428
20	0xbd93832e	-0.07202755
21	0x3d01fb4b	0.031733792
22	0xbcf8cb86	-0.030370485
23	0xbd0463fe	-0.032321922
24	0xbd873131	-0.066011794
25	0xbd43fddc	-0.04784952
26	0xbcbf2598	-0.023333356
27	0x3c7a1934	0.015264798
28	0xbd7fe858	-0.06247744
29	0x3d92daaf	0.07170617
30	0xbd071db1	-0.0329873
31	0xbce1005b	-0.02746599
32	0xbd106bc2	-0.035259016
33	0xbd75f350	-0.060046494
34	0xbd94ed8b	-0.0727187
35	0xbcf83df9	-0.030302988
36	0xba586082	-0.0008254127
37	0xbba71dbf	-0.0050999816
38	0x3d442866	0.04789009
39	0xbc36bae3	-0.011152956
40	0x3d463624	0.048391476
41	0xbd4bbdfa	-0.049741723
42	0xbcec8a7b	-0.028874626
43	0x3d60672c	0.054785892
44	0xbced9ad2	-0.029004488
45	0xbc210f0a	-0.009830246
46	0x3da24ab9	0.079244085
47	0xbd74e2d3	-0.05978663
48	0x3a46bd99	0.0007581353
49	0xbd541589	-0.05177835
50	0xba19dbc2	-0.0005869233
51	0xbb52af59	-0.0032147972
52	0xbd7742f8	-0.0603666
53	0xbc39c78e	-0.011339081
54	0x3d2f26dc	0.04276167
55	0x3cf4bd68	0.029875472
56	0x3d48ca72	0.049021192
57	0xbd4108b9	-0.04712746
58	0x3ba44527	0.0050131264
59	0xbd6efec5	-0.058348436
60	0xbbf3f127	-0.007444519
61	0x3d08ea60	0.033426642
62	0xbd4bdc3d	-0.049770582
63	0x3b87fe66	0.0041501997
64	0x3cb3a90d	0.021931196
65	0xbda65c4b	-0.08123072
66	0x3d176f12	0.03697116
67	0xbcba6ae0	-0.02275604
68	0xbc4983a8	-0.012299456
69	0xbd4a8780	-0.04944563
70	0x3cf9063d	0.030398482
71	0x3d355982	0.044274814
72	0xbcb3b9c5	-0.021939168
73	0xbd3275a4	-0.043569222
74	0x3c76aa2d	0.0150552215
75	0x3d1f150a	0.038838424
76	0xbd93ee14	-0.07223144
77	0x3b07898a	0.0020681345
78	0xbd51f2c8	-0.051256925
79	0x3c7de052	0.015495377
80	0xbd8b734f	-0.06809103
81	0xbd896770	-0.06709182
82	0xbd9bb877	-0.07603543
83	0x3ca1de78	0.019759402
84	0xbc5b5ab4	-0.0133883245
85	0xbda36f83	-0.079802535
86	0xbb012fb5	-0.0019712273
87	0xbd788180	-0.060670376
88	0xbc838844	-0.016056187
89	0x3d338422	0.043827184
90	0x3d816c9f	0.06319546
91	0xbd5113f7	-0.05104443
92	0xbd2a5372	-0.041583486
93	0xbc62399c	-0.01380768
94	0xbd128055	-0.03576692
95	0xbd517bc4	-0.051143423
96	0xbcd2ad17	-0.025717301
97	0xbae0c11f	-0.0017147398
98	0xbd0ff95b	-0.035149913
99	0x3ceea4c2	0.029131297
100	0xbc788cdf	-0.015170305
101	0x3c64b22e	0.013958497
102	0x3c8f1632	0.017466638
103	0x3c8f197e	0.01746821
104	0x3d9f9e0f	0.07793819
105	0xbca6328c	-0.020287775
106	0xbd0c24b5	-0.034214694
107	0x3c90112c	0.017586313
108	0xbd1654fe	-0.03670215
109	0x3cabcd1d	0.02097183
110	0xbd95f0e6	-0.07321338
111	0xbd6eea1d	-0.058328737
112	0x3d9c3c0a	0.07628639
113	0x3d9b479b	0.07582017
114	0x3d9a2eb6	0.07528441
115	0xbc176b14	-0.009241838
116	0x3d7ef31c	0.062243566
117	0x3d7e5ccc	0.062100217
118	0xbd9ec7ae	-0.0775293
119	0x3ce6f6a9	0.028193789
120	0x3c6ec35a	0.014572943
121	0xbc05934b	-0.008152793
122	0x3d9ade61	0.07561947
123	0x3d1cf5e7	0.03832045
124	0x3d13d308	0.036089927
125	0xbd4ae761	-0.049537066
126	0xbadb7ec7	-0.0016746157
127	0xbd0bb30a	-0.03410629
128	0x3d3df040	0.0463717
129	0x3d09c333	0.033633422
130	0x3da7166e	0.08158575
131	0xbd88b7d7	-0.0667569
132	0xbd75ccbf	-0.060009714
133	0x3d9dfc50	0.077141404
134	0xbd89d7ad	-0.0673059
135	0x3d04c95e	0.0324186
136	0xbd557a2d	-0.05211847
137	0xbd3e8f74	-0.046523526
138	0x3d8d5bb9	0.0690226
139	0xbb3281f2	-0.0027238098
140	0xbd99232c	-0.07477412
141	0xbd38d03c	-0.045120463
142	0xbda186b9	-0.078870244
143	0x3d565005	0.052322406
144	0xba30c1a2	-0.0006742721
145	0xbca1a822	-0.019733492
146	0x3d335377	0.04378077
147	0xbd767242	-0.06016756
148	0x3c68b91b	0.014204289
149	0x3d940447	0.07227378
150	0x3da0e24c	0.07855663
151	0xbd482f1a	-0.048873045
152	0x3d6bf0ec	0.057602808
153	0x3c5b68a8	0.013391651
154	0x3d1a5526	0.03767886
155	0xbd523bbd	-0.051326502
156	0xbcd5d7ea	-0.026103932
157	0x3d6a2fec	0.057174608
158	0x3c3e8bd9	0.011630022
159	0xbd983537	-0.07432025
160	0xbcec769c	-0.028865151
161	0xbd8d8f96	-0.069121525
162	0x3d6ef763	0.058341395
163	0x3d8c6254	0.06854692
164	0xbbea158c	-0.007143682
165	0x3d68d47f	0.056843277
166	0xbd1400b4	-0.036133483
167	0xbd057ff1	-0.032592718
168	0x3d8fbaf3	0.070180796
169	0xbd23499e	-0.03986513
170	0x3cd51785	0.026012192
171	0x3bb1b478	0.005423125
172	0xbd0ad785	-0.03389694
173	0x3d6c1d06	0.057644866
174	0xbd524c19	-0.051342104
175	0x3d805f3e	0.06268166
176	0x3d5e42ff	0.05426311
177	0x3afa30cd	0.001908803
178	0x3d5813e9	0.052753363
179	0x3d6295b6	0.055318557
180	0x3d577bb9	0.052608225
181	0x3d449805	0.04799654
182	0xbca91849	-0.020641463
183	0xbd244db7	-0.040113177
184	0x3c17cc9f	0.009265094
185	0xbd4651dd	-0.048417915
186	0xbb943568	-0.004522968
187	0xbd2706f5	-0.04077812
188	0xbd8cb5e2	-0.06870629
189	0xbcd0072e	-0.025394049
190	0xbd8fecde	-0.07027601
191	0xbd7ee6d9	-0.062231872
192	0x3d915a89	0.07097346
193	0x3d963947	0.073351435
194	0xbcfa342d	-0.030542457
195	0x3b92fcd5	0.0044857063
196	0x3d25d2cf	0.040484246
197	0xbda05910	-0.07829487
198	0xbd614e9c	-0.05500661
199	0xbd7e1c60	-0.06203878
200	0xbd98b759	-0.07456846
201	0x3d76b427	0.0602304
202	0xbd9b994b	-0.07597598
203	0x3c2309a9	0.009951034
204	0x3d2c7c73	0.04211087
205	0x3c6b50de	0.014362542
206	0xbaaabd8a	-0.0013026458
207	0xbb68d83e	-0.003552928
208	0x3d8acc39	0.06777234
209	0x3d3cb64d	0.046072293
210	0x3d84ee53	0.06490769
211	0x3d6f1444	0.058368936
212	0xbd7333a8	-0.059375435
213	0x3d61207c	0.05496262
214	0xbda6ad02	-0.08138467
215	0x3d461346	0.048358224
216	0xbc1ccaf8	-0.009569876
217	0x3da1395b	0.07872268
218	0xbcc075af	-0.023493616
219	0xbb6a1605	-0.003571869
220	0xbb7c90e0	-0.00385385
221	0xbc87dd52	-0.016585026
222	0x3d29d0b5	0.041458804
223	0xbce93ddd	-0.028471882
224	0xbcb35c1d	-0.021894509
225	0x3cd0406c	0.025421344
226	0xbcb70132	-0.022339437
227	0xbda6a912	-0.08137716
228	0x3d9c6707	0.076368384
229	0x3d919ec7	0.071103625
230	0x3d6226f9	0.05521295
231	0xbb6f0936	-0.0036473996
232	0x3d22af8d	0.0397182
233	0xbcd3994f	-0.02582994
234	0x3d6e9917	0.058251467
235	0xbbb0a17a	-0.0053903433
236	0x3d91b95d	0.07115433
237	0xbd52bddb	-0.05145059
238	0x3d5c09e1	0.05372036
239	0x3c91f5f9	0.017817484
240	0xbd79a4b6	-0.060948096
241	0xbd8f0653	-0.06983628
242	0x3d9774c7	0.073953204
243	0xbd0d8cba	-0.034558035
244	0xbcdb4fde	-0.026771482
245	0x3c812f92	0.015769754
246	0x3d9268cf	0.07148897
247	0xbd963016	-0.073333904
248	0x3c9f6566	0.01945753
249	0xbc8b0c80	-0.016973734
250	0xbcd082f5	-0.02545307
251	0xbb330bc8	-0.0027320255
252	0x3da23d65	0.07921866
253	0xbd055251	-0.032549206
254	0x3c138dad	0.009005946
255	0xbab42426	-0.0013743683

tree_conv.3.weights.weight f4 [128, 256, 3]
0	0xbc81da49	-0.015851157
1	0x3d118d32	0.035535045
2	0xbcdeb6af	-0.02718672
3	0xbc92a566	-0.017901134
4	0xbc1f0053	-0.009704667
5	0xbc72122c	-0.01477484
6	0x3c2f7f22	0.010711463
7	0x3d1106df	0.035406943
8	0xbcf10be8	-0.029424623
9	0xbcb01df0	-0.02149865
10	0xbcfb9798	-0.030711934
11	0x3d167656	0.036733948
12	0x3ce94da2	0.028479401
13	0xbbc9c7a7	-0.0061578336
14	0xbcdeeb45	-0.027211795
15	0x3bde582c	0.0067854133
16	0x3d09eabf	0.033671137
17	0x3a3d6559	0.000722488
18	0xbc8b451b	-0.017000725
19	0x3bf5efcd	0.007505393
20	0x3c6ad293	0.014332431
21	0xbc23cb36	-0.00999718
22	0x3b41b77e	0.0029558833
23	0xbc2ebde2	-0.010665389
24	0xbbe939bf	-0.0071174796
25	0x3c966c99	0.01836233
26	0xbcc79daa	-0.024367172
27	0x3c8a41bc	0.016877048
28	0x3cddc9c9	0.027073758
29	0x3b2ffac5	0.002685235
30	0xbb40c772	-0.0029415754
31	0x3d05b83a	0.032646395
32	0x3cbc82ea	0.023011643
33	0xbb7aa7c5	-0.003824697
34	0xbc90bc77	-0.017667992
35	0x3bbb833e	0.0057224324
36	0xbcdb77c8	-0.026790515
37	0xbb3110ca	-0.0027018064
38	0x3d0f3555	0.03496297
39	0xbca521d5	-0.020157734
40	0x3cefa462	0.029253189
41	0x3c90f159	0.017693209
42	0x3bf7f13d	0.0075665996
43	0xbc877a20	-0.016537726
44	0x3cda7546	0.026667248
45	0x3cf8f46f	0.030389993
46	0xbcdf9a27	-0.027295185
47	0xbd107c89	-0.035275016
48	0xbd09e03b	-0.03366111
49	0xbb46c907	-0.0030332224
50	0x3cd287f2	0.02569959
51	0xbc8ad7e5	-0.01694865
52	0xbc01012f	-0.007873817
53	0x3cd96704	0.02653838
54	0xbcf70490	-0.030153543
55	0xbc59c413	-0.013291377
56	0x3cd28af8	0.025701031
57	0x3cc380c0	0.023865104
58	0xbc570c4b	-0.0131254895
59	0xbcdd6fdb	-0.027030876
60	0x3cea2b4c	0.028585099
61	0xbcffbb78	-0.031217322
62	0x3b915536	0.0044352068
63	0x3bc60909	0.0060435575
64	0x3b6d45a5	0.0036204841
65	0xbccc45a7	-0.024935557
66	0x3c8015ee	0.015635457
67	0xbc85997e	-0.016308542
68	0x3bb594e8	0.0055414326
69	0xbc6d6934	-0.014490414
70	0x3cd25f5a	0.025680233
71	0x3ca58e32	0.020209406
72	0xbcb6f6fe	-0.022334572
73	0xbce599ff	-0.028027533
74	0xbc0a3a95	-0.008436819
75	0xbc89d210	-0.016823798
76	0xbd032087	-0.032013442
77	0x3ce09436	0.027414422
78	0xbd10b6c6	-0.035330556
79	0x3c5f57b6	0.013631752
80	0x3b9176c4	0.004439207
81	0xbd078e61	-0.033094767
82	0xbcd82ff6	-0.026390057
83	0xbd07c62c	-0.033147976
84	0xba3d8c3e	-0.00072306755
85	0xbbed2146	-0.0072366325
86	0xb968fe34	-0.00022219942
87	0xbc81140f	-0.015756635
88	0xbcfb85d8	-0.03070347
89	0xbc906c99	-0.017629908
90	0xbd0fd6eb	-0.03511707
91	0xbbeb42fa	-0.007179615
92	0xbcb81db1	-0.022475095
93	0x3cdc0e25	0.026862213
94	0xbc5a1c3a	-0.013312394
95	0xbc81b24f	-0.015832094
96	0x3cf95e4e	0.030440476
97	0xbc8a3596	-0.016871255
98	0x3a830921	0.0009997227
99	0xbbdd71a4	-0.006757932
100	0x3cf2ac81	0.029623272
101	0x3cf47eb2	0.02984557
102	0xbcb24945	-0.021763453
103	0x3a4e237e	0.0007863565
104	0x3b8223bd	0.0039715455
105	0xbb00a7e0	-0.0019631311
106	0xbafd05c5	-0.0019304088
107	0xbd0e6431	-0.03476352
108	0x3bc51c3e	0.0060153296
109	0xbbfb19da	-0.007662994
110	0x3d0fd883	0.03511859
111	0x3c316122	0.010826381
112	0x3c8e0351	0.017335566
113	0x3cca0cc2	0.024664287
114	0xbca5d808	-0.020244613
115	0xbc0e8407	-0.00869847
116	0x3cc7f49a	0.024408627
117	0xbc9372a6	-0.017999005
118	0x3c8d86f0	0.017276257
119	0x3caf458a	0.021395463
120	0x3ca9f990	0.020748883
121	0x3cf0a040	0.029373288
122	0x3c7850ed	0.015156013
123	0x3b1f219f	0.0024281514
124	0xbd0a1de3	-0.03371991
125	0xbc1d0501	-0.009583713
126	0x3c02401e	0.007949857
127	0x3d0045fe	0.03131675
128	0xbcdfcc44	-0.027319081
129	0x3bcb89fe	0.0062115183
130	0x3bd3cc0d	0.0064635337
131	0xbc513363	-0.012768599
132	0x3ba34815	0.004982958
133	0xbc398d3a	-0.011325175
134	0xbba1a550	-0.004933037
135	0x3ce39eac	0.027785622
136	0x3cb2613a	0.021774877
137	0xbce5ba7c	-0.028043024
138	0x3b34a6d4	0.0027565258
139	0x3cb0d846	0.021587502
140	0x3bbe64f4	0.0058103744
141	0x3cdee104	0.027206905
142	0xbb54c954	-0.0032468634
143	0x3d0346f5	0.03205009
144	0x3c7bdd38	0.015372567
145	0xbcf587f1	-0.029972048
146	0xbd0c1325	-0.034197945
147	0xbcfdfa60	-0.031003177
148	0x3cf948ec	0.03043028
149	0x3b6dd4f4	0.003629026
150	0x3cae9613	0.021311795
151	0x3b46d555	0.0030339558
152	0x3bcbe737	0.0062226313
153	0x3d01fbc6	0.03173425
154	0xbcd2348d	-0.025659824
155	0xbcdda7bc	-0.027057521
156	0x3d051ac4	0.03249623
157	0x3cd772c8	0.02629985
158	0xbbde572d	-0.0067852945
159	0xbd0d9f43	-0.034575712
160	0xbc36edf9	-0.011165136
161	0x3d0a2c8e	0.033733897
162	0xbc848d08	-0.01618053
163	0xbcb9a932	-0.022663686
164	0xbb78e859	-0.0037980287
165	0xbcc5b961	-0.024136247
166	0x3c8657f9	0.01639937
167	0xbb394c38	-0.002827419
168	0xbcd8ed82	-0.02648044
169	0x3c901f41	0.017593028
170	0x3c5fab5d	0.013651696
171	0x3d0fe097	0.035126295
172	0xbc70cc16	-0.014697095
173	0x3bf827f7	0.0075731236
174	0xbc62525a	-0.013813579
175	0xbcd02de1	-0.025412502
176	0xbd096f0a	-0.03355316
177	0x3cb6ff7b	0.02233862
178	0xbb0c9999	-0.0021453856
179	0x3c8587e7	0.016300155
180	0x3bfce393	0.0077175586
181	0x3c17a0e7	0.009254671
182	0xbbd18674	-0.006394202
183	0x3cba3035	0.022728065
184	0xbb9d66a7	-0.004803497
185	0x3d147d16	0.036252104
186	0xbc82a7c0	-0.01594913
187	0xbb43a91a	-0.002985543
188	0x3c369119	0.011142992
189	0x3b76a7d1	0.0037636647
190	0xbc88a9de	-0.016682561
191	0x3d09f66f	0.033682283
192	0xbce72d49	-0.028219836
193	0xbcb9f9cb	-0.022702118
194	0x3cd9ea84	0.026601084
195	0xb90be425	-0.00013341063
196	0xbba9eea2	-0.005185918
197	0xbd0eb3b4	-0.034839347
198	0xbd055509	-0.0325518
199	0x3cdd513b	0.027016273
200	0xbc4b7440	-0.012417853
201	0x3c3517cc	0.011053037
202	0x3c9f75a1	0.01946527
203	0x3cd700bc	0.026245467
204	0xb9025f7d	-0.00012433338
205	0xbc5bc609	-0.0134139145
206	0xbcf34e2f	-0.029700367
207	0x3c3d5515	0.01155593
208	0x3d0c1b4f	0.03420573
209	0xbc2c9769	-0.010534146
210	0x3aeb5a39	0.0017955966
211	0xbcbfaf5c	-0.023399048
212	0xbcbb1496	-0.022836965
213	0xbb889ada	-0.0041688504
214	0xbcba0943	-0.022709494
215	0xbc9fc712	-0.019504104
216	0x3c708297	0.014679573
217	0x3d117963	0.035516154
218	0xbcabbe1d	-0.020964677
219	0xbc9483f0	-0.018129319
220	0x3d02566b	0.031820696
221	0x3d0a3411	0.03374106
222	0xbcd43a32	-0.025906656
223	0xbad63e6f	-0.0016345511
224	0xbbe4a86b	-0.006978085
225	0xbcbdea2b	-0.023182949
226	0x3d06dcc7	0.032925393
227	0xbd00aaa4	-0.031412736
228	0x3b84b217	0.0040495503
229	0xbc5a60e3	-0.013328764
230	0x3cb18e9f	0.021674452
231	0xbbb92d09	-0.0056511206
232	0x3cddd1a6	0.027077507
233	0xbb97c5d6	-0.004631738
234	0x3ccaa375	0.024736146
235	0xbcd327ac	-0.025775753
236	0x3cdffa63	0.027341073
237	0xbc503d88	-0.012709983
238	0xbc15f73d	-0.0091531845
239	0x3cb2116b	0.021736821
240	0x3c247935	0.010038664
241	0xbc55846f	-0.013032063
242	0x3ccdb7d8	0.025112078
243	0x3c68eb21	0.014216215
244	0xbca7cf6f	-0.020484654
245	0x3d0f5131	0.03498954
246	0x3aacea33	0.0013192355
247	0xbcabde3e	-0.020979997
248	0x3d06be48	0.03289631
249	0x3cb8f143	0.02257598
250	0xbc3025eb	-0.010751228
251	0xbd0fb825	-0.035087723
252	0x3cf0a079	0.029373394
253	0x3ccf93b6	0.025338989
254	0xbc6f4d69	-0.014605858
255	0x3bf523bf	0.007481068

tree_conv.3.weights.bias f4 [128]
0	0x3c83a4e9	0.016069846
1	0xbbb11c57	-0.0054049897
2	0xbc32c4a7	-0.010911143
3	0xbbeda4fa	-0.0072523328
4	0xbcaa1fc1	-0.020767095
5	0x3926dccd	0.00015913248
6	0x3b9bb523	0.004751818
7	0xbcfb41dd	-0.030671054
8	0x3cbb966b	0.022898873
9	0x3cb09e45	0.021559844
10	0xbd147c9f	-0.03625166
11	0xbcd914c5	-0.026499161
12	0x3ce211cc	0.027596377
13	0xbc21e78d	-0.009881866
14	0x3d000a00	0.031259537
15	0x3cf89ac5	0.030347237
16	0x3d028962	0.0318693
17	0xbca06601	-0.01957989
18	0x3c732214	0.014839668
19	0xbcaa8a06	-0.020817768
20	0x3c1c5b29	0.009543219
21	0xbcbbe3db	-0.022935798
22	0xbd020dba	-0.031751372
23	0x3ce35082	0.02774835
24	0x3d02d7ac	0.031943962
25	0x3d089c1a	0.033351995
26	0xbc073c8e	-0.008254183
27	0xbd0eed0f	-0.034894045
28	0xbcbd615a	-0.02311771
29	0xbd028eed	-0.031874586
30	0xbc6edcf8	-0.01457905
31	0x3d0cfc61	0.034420375
32	0xbc30b046	-0.010784214
33	0xbc0df0a0	-0.0086633265
34	0x3cd70980	0.026249647
35	0xbc865d2d	-0.016401852
36	0xbcadb8b3	-0.021206236
37	0x3bf6c4ff	0.007530808
38	0xbca877ca	-0.020564932
39	0xbc90ca2b	-0.017674526
40	0x3ceb5e74	0.028731562
41	0x3ccee84b	0.02525725
42	0x3cbe0920	0.02319771
43	0xbc267ca5	-0.0101615535
44	0xbcd8c9c6	-0.0264634
45	0xbd0f6e1d	-0.03501712
46	0x3cded2fc	0.027200215
47	0x3bab622d	0.0052302093
48	0x3c91e151	0.017807635
49	0xbbc80efb	-0.0061053014
50	0xbd0e9f32	-0.03481979
51	0xbbac50d4	-0.005258659
52	0x3d0700cb	0.03295974
53	0x3cbf1b2c	0.023328386
54	0xbcb493b9	-0.022043096
55	0x3c206228	0.009789027
56	0x3c80a9d2	0.015705977
57	0xbc7c0ac9	-0.015383431
58	0x3b204e6b	0.0024460803
59	0x3d0abd5e	0.033872
60	0xbcc1f7c7	-0.02367772
61	0xbcb29ed4	-0.02180425
62	0xbcfb34fc	-0.030664913
63	0xbb8ccbac	-0.0042967405
64	0x3d05505b	0.032547336
65	0xbd13430f	-0.035952624
66	0x3cf1ee04	0.02953244
67	0x3d0edb44	0.034877077
68	0x3cb366ea	0.02189966
69	0xbba6a579	-0.005085644
70	0xbc9b1f9c	-0.018935971
71	0xbce76d4e	-0.028250363
72	0xbbe3c97a	-0.006951508
73	0xbbb43df5	-0.00550055
74	0x3c8b1713	0.016978776
75	0x3c8de1dc	0.017319612
76	0x3cca3c4f	0.02468696
77	0x3c989ac7	0.018628491
78	0x3c961979	0.018322693
79	0x3c13da08	0.009024151
80	0xba126076	-0.0005583832
81	0xbbc4beed	-0.0060042054
82	0x3d01fd94	0.03173597
83	0x3aafbfc0	0.0013408586
84	0x3cf1279e	0.029437836
85	0xbd098387	-0.0335727
86	0xbd098db6	-0.03358241
87	0x3cb44602	0.022006039
88	0xbc8164d1	-0.015795143
89	0xbc6a012b	-0.014282505
90	0xbc52d7cc	-0.012868833
91	0xbc4d4259	-0.012528026
92	0x3ce72eb4	0.028220512
93	0xbd022cd3	-0.03178103
94	0x3c41949c	0.011815216
95	0xbbc4f93a	-0.0060111554
96	0xbafd45b7	-0.0019323145
97	0x3d0fce6f	0.03510898
98	0xbbb9f60d	-0.0056750835
99	0xbccd9b7e	-0.025098559
100	0x3c05eeef	0.008174642
101	0xbd0d24ce	-0.034458928
102	0x3c39a321	0.011330397
103	0xbc8662d2	-0.016404543
104	0x3cdf092e	0.027226057
105	0x3cba4687	0.022738708
106	0x3d03af6c	0.032149717
107	0x3bca564f	0.0061748396
108	0x3d125415	0.035724718
109	0x3c9e4921	0.01932198
110	0xbcfea22e	-0.031083193
111	0xbd0e40bb	-0.0347297
112	0xb8a29d70	-7.754087e-05
113	0x3cb98d4b	0.022650382
114	0x3cd1b8b3	0.025600767
115	0xbbfbee1f	-0.0076882984
116	0x3c842ef5	0.016135672
117	0xbd07f6d6	-0.033194385
118	0xbc6539d1	-0.013990835
119	0xbc6a2e8c	-0.014293324
120	0x3d057827	0.03258529
121	0xbcebcce0	-0.028784215
122	0xbbb2f543	-0.0054613664
123	0xbb95c3f1	-0.004570477
124	0x3c6939de	0.014234988
125	0xbcd36c32	-0.025808427
126	0xbcaada9e	-0.020856198
127	0xbc156d44	-0.009120289

tree_conv.6.weights.weight f4 [64, 128, 3]
0	0xbcf8ff06	-0.030395042
1	0xbb84e30b	-0.004055386
2	0xbbcccd5b	-0.006250066
3	0x3ccf7f20	0.025329173
4	0xbd5381b3	-0.051637363
5	0x3c7eb453	0.015545922
6	0xbd14cea5	-0.036329884
7	0x3c810ae2	0.01575226
8	0x3ca4a023	0.02009589
9	0xbd47356c	-0.04863493
10	0xbd1f7743	-0.038932096
11	0xbcc770d8	-0.0243458
12	0x3bc7f40f	0.006102092
13	0xbc87d7e3	-0.016582435
14	0x3c1400f6	0.009033432
15	0xbd3482ca	-0.044070043
16	0xbd25de29	-0.04049507
17	0x3b8550f6	0.004068489
18	0x3ca4bc2f	0.020109264
19	0xbd430dc6	-0.047620557
20	0xbd02692a	-0.031838574
21	0xbd1a1f7f	-0.037627693
22	0xbd498d52	-0.04920704
23	0x3d1aa518	0.037755102
24	0x3d265321	0.04060662
25	0x3c0e999e	0.008703617
26	0xbcb580d0	-0.02215615
27	0x3c54fca1	0.012999685
28	0x3d1748aa	0.036934532
29	0xbd2967d4	-0.041358784
30	0xba171a37	-0.0005764099
31	0x3d11d005	0.035598774
32	0x3d3d9fab	0.04629485
33	0x3ce2434c	0.02761998
34	0x3d0b3d62	0.033994086
35	0xbc0e189b	-0.008672859
36	0x3d4318c0	0.047631025
37	0x3cef5a8e	0.029217985
38	0x3893f98a	7.0559865e-05
39	0xbcba06c2	-0.0227083
40	0x3c517de4	0.012786362
41	0xbcf678b3	-0.03008685
42	0x3d1ab6fd	0.037772167
43	0xbbcb3115	-0.0062009194
44	0xbcfc1b81	-0.030774834
45	0xbd186d78	-0.037213773
46	0x3cd96614	0.026537932
47	0x3cbf212f	0.023331253
48	0xbd331fb7	-0.043731418
49	0x3cc23359	0.023706125
50	0xbc859d4c	-0.016310357
51	0xbcc44c12	-0.023962054
52	0x3ccc42df	0.02493423
53	0x3d1e163e	0.03859543
54	0xbd03fd20	-0.03222382
55	0xbd338a09	-0.043832812
56	0x3b77a463	0.003778719
57	0x3d1ed0be	0.03877329
58	0x3cf8850a	0.030336875
59	0xbd1636ec	-0.03667347
60	0x3d07975b	0.03310333
61	0x3cf8b0ae	0.030357685
62	0xbd4a5128	-0.049393803
63	0xbb518df5	-0.0031975482
64	0x3d459908	0.048241645
65	0x3c6b3834	0.014356662
66	0xbd2305cb	-0.039800446
67	0xbd239daa	-0.039945282
68	0xbcb27bb0	-0.021787494
69	0xbb1d652d	-0.0024016604
70	0xbd19ad62	-0.037518866
71	0x3d377885	0.04479267
72	0x39fc9eaa	0.000481834
73	0xbb1f00cd	-0.0024261952
74	0xbd0a8b0f	-0.033824023
75	0xbc6b4b2f	-0.014361187
76	0xbb3c947e	-0.0028775032
77	0x3d3fbe5d	0.046812404
78	0xbcd5b3ce	-0.026086714
79	0xbb42d06c	-0.002972628
80	0xbd16ad25	-0.036786217
81	0xbc2b705a	-0.010463798
82	0xbc3f70e9	-0.011684635
83	0x3d37c2ed	0.04486363
84	0x3d32dbb1	0.043666545
85	0x3933aafa	0.00017134464
86	0xbca81c83	-0.020521408
87	0x3c3b7602	0.0114417095
88	0xbbf31fb3	-0.0074195503
89	0xbc3bc500	-0.011460543
90	0xbd2abe9a	-0.041685678
91	0x3c0cec4d	0.00860126
92	0xbb8583d0	-0.004074551
93	0x3ce33223	0.027733868
94	0x3cd2aee3	0.025718158
95	0xbd1182b3	-0.035525035
96	0xbce9ed42	-0.028555516
97	0xbccfc16b	-0.025360784
98	0xbc4a3363	-0.012341353
99	0x3ce3a21f	0.027787266
100	0x3c9e6817	0.019336743
101	0xbb11864c	-0.0022205291
102	0x3a251cd7	0.0006298548
103	0xbc563c5e	-0.013075916
104	0xbd2aa82d	-0.04166429
105	0xbd045ceb	-0.032315176
106	0xbc18cbcc	-0.009325933
107	0x3c4acfd3	0.012378651
108	0x3d2972b5	0.04136916
109	0xbca4d333	-0.020120239
110	0x3d29ea17	0.04148301
111	0xbca37ce3	-0.019957012
112	0xbcc9df68	-0.024642661
113	0xbcf4b57b	-0.029871693
114	0x3ce91b94	0.028455533
115	0xbd325efc	-0.043547615
116	0x3cf10780	0.029422522
117	0x3d3a45c9	0.04547671
118	0xbd33a63d	-0.04385971
119	0x3cc3dbc9	0.023908513
120	0xbd21b5b7	-0.039479937
121	0xbc61699d	-0.01375809
122	0x3cfde27b	0.030991783
123	0xbcc0654b	-0.0234858
124	0xbc6d5fbb	-0.014488156
125	0x39c76b06	0.00038035976
126	0xbd0168b3	-0.03159399
127	0xbb6ce06f	-0.0036144515
128	0x3c35ec3a	0.011103684
129	0xbbadb7cb	-0.005301451
130	0x3d1070c4	0.03526379
131	0x3d48e047	0.049042013
132	0x3cce25c3	0.02516449
133	0x3c90f079	0.017692791
134	0x3cecca69	0.02890511
135	0xba056a16	-0.00050893554
136	0x3d1e0560	0.038579345
137	0x3d3989cf	0.04529744
138	0xbd4b62db	-0.049654823
139	0xbc698362	-0.0142525155
140	0xbc8bb95f	-0.017056165
141	0x3d34d55d	0.04414879
142	0x3d4bb703	0.04973508
143	0xbc2e0447	-0.010621137
144	0x3bf9809a	0.0076142075
145	0xbd2ea1eb	-0.042634886
146	0x3cde3afd	0.027127737
147	0xbb3c8f39	-0.002877189
148	0xbd43a571	-0.0477652
149	0xbd50e1fe	-0.050996773
150	0xbc8836d8	-0.016627714
151	0x3cf4fe4c	0.029906414
152	0x3b29edc6	0.0025929078
153	0xbb2dcdcf	-0.0026520377
154	0x3d0bd634	0.034139827
155	0xbc4504d3	-0.012025076
156	0x3d32ccfe	0.043652527
157	0x3d0bc272	0.034120984
158	0xbd3cf385	-0.046130676
159	0x3cb89347	0.022531165
160	0xba6fcc69	-0.0009147586
161	0xbb1570fa	-0.0022802935
162	0x3cb50145	0.022095332
163	0x3d089083	0.033340942
164	0xbb9d5752	-0.004801669
165	0xbcec407b	-0.02883934
166	0xbd083c3e	-0.033260576
167	0x3a192f2c	0.0005843516
168	0xbd3e82e7	-0.046511557
169	0xba8628b7	-0.0010235523
170	0x3c603577	0.013684622
171	0xbd4cfff5	-0.050048787
172	0xbd1caacb	-0.03824882
173	0xbd2f752c	-0.042836353
174	0x3caaa6cc	0.020831488
175	0xbd31bdb8	-0.04339382
176	0xbd2b58a2	-0.041832574
177	0xbd3bf2d5	-0.04588588
178	0xbd30f601	-0.043203358
179	0x3d30bf16	0.043150984
180	0x3ca231b7	0.019799097
181	0xbd2c3652	-0.04204399
182	0xbd2960f9	-0.041352246
183	0x3cfc5815	0.03080372
184	0x3cf293de	0.029611524
185	0x3cb7ea8a	0.022450704
186	0xbbb93ec6	-0.005653235
187	0x3d393043	0.04521204
188	0xbd3b5767	-0.04573765
189	0x3cd81222	0.026375834
190	0x3d1dea42	0.038553484
191	0xbc86301c	-0.016380362
192	0x3bb12faf	0.0054072957
193	0xbcc9faea	-0.024655778
194	0x3ca24536	0.019808393
195	0xbb7e44ab	-0.0038798254
196	0xbd179c08	-0.037014037
197	0xbce03ab7	-0.027371747
198	0xbbf27aa8	-0.0073998757
199	0xbd4e1cd1	-0.05032045
200	0xbcf51e18	-0.029921576
201	0xbb0997a0	-0.0020994917
202	0x3d029204	0.031877533
203	0x3d1834c2	0.03715969
204	0xbc319f26	-0.010841167
205	0x3c971895	0.018444339
206	0x3cffbf08	0.03121902
207	0x3d1f222b	0.038850944
208	0xbc060f8e	-0.008182419
209	0xbc6b2c37	-0.014353803
210	0x3d42f99e	0.047601335
211	0xbc87ca4d	-0.016575957
212	0x3c87f99f	0.01659852
213	0x3d407bac	0.046992943
214	0x3d30d76b	0.04317419
215	0xbd3c2f21	-0.045943383
216	0xbd00247b	-0.03128479
217	0xbd548bc4	-0.051891103
218	0x3cf6f36a	0.030145366
219	0xbcd2ac5c	-0.025716953
220	0x3ce1db49	0.027570384
221	0x3c229b5f	0.009924739
222	0xbabe573d	-0.0014521849
223	0x3d1d92a4	0.038469926
224	0xbc32b2ec	-0.010906916
225	0x3beeb4cd	0.0072847367
226	0xbd08fd26	-0.033444546
227	0x3cb606cd	0.02222004
228	0xbd18aef6	-0.03727623
229	0xbbc10a94	-0.0058911536
230	0xbd1e43c6	-0.038638853
231	0xbd1d3af4	-0.0383863
232	0xbd481259	-0.048845623
233	0xbce5833d	-0.02801668
234	0xba86c839	-0.001028306
235	0x3d1fb84b	0.038994115
236	0xbd275e09	-0.040861163
237	0xbcc2e506	-0.023790848
238	0x3cd5e116	0.026108306
239	0xbbf10dd2	-0.007356384
240	0x3ca6ae05	0.02034665
241	0xbcca8afc	-0.024724476
242	0xba68ccb4	-0.0008880601
243	0x3d4d677e	0.050147526
244	0xbd27a1cd	-0.04092579
245	0xbce44549	-0.027865069
246	0xbcdd04f4	-0.0269799
247	0x3d39e62d	0.04538553
248	0x3cd66a0b	0.026173612
249	0xbc915906	-0.017742645
250	0x3cc67eb2	0.024230335
251	0x3d35521e	0.044267766
252	0xbcaea420	-0.021318495
253	0x3d127cae	0.035763435
254	0x3c634099	0.013870382
255	0xbd08dafd	-0.03341197

tree_conv.6.weights.bias f4 [64]
0	0xbcc2cc99	-0.0237792
1	0x3c10e843	0.008844438
2	0xbbbbfa2e	-0.005736611
3	0xbd2d56b1	-0.042319003
4	0xbc4ec185	-0.012619381
5	0xbbfb7909	-0.0076743406
6	0xbce1d17d	-0.027565712
7	0x3d23a3b0	0.039951026
8	0xbcbb14a1	-0.022836985
9	0x3cd99641	0.026560904
10	0xbcc72ed7	-0.024314327
11	0xbcc0fc1f	-0.02355772
12	0x3cd9d981	0.026592972
13	0xbd134e01	-0.035963062
14	0xbc0dbc31	-0.008650825
15	0x3cdfcc09	0.027318971
16	0x3d25194f	0.04030734
17	0x3d450700	0.04810238
18	0x3c1ad820	0.009450942
19	0x3c8121ae	0.01576313
20	0x3d1a4d41	0.03767133
21	0x3bdfb970	0.006827526
22	0x3c801116	0.015633147
23	0xbc9e5dd9	-0.01933186
24	0xbd291aed	-0.041285444
25	0x3baea85d	0.005330129
26	0x3b12ab8b	0.002238008
27	0xbbd5b6c0	-0.0065220296
28	0xb9c2d5bc	-0.00037161808
29	0x3c401fa2	0.011726292
30	0xbd02e678	-0.031958073
31	0xbc4d38b7	-0.012525729
32	0x3bca1b5e	0.006167813
33	0x3ca314a6	0.019907307
34	0x3c9d1fdb	0.019180229
35	0xbb6cffba	-0.0036163167
36	0x3c2dabb6	0.010600021
37	0xbc391257	-0.0112958765
38	0x3ac58802	0.0015070441
39	0x3d0ec819	0.034858797
40	0xbd195350	-0.03743297
41	0x3cd05bcf	0.025434403
42	0xbbda44eb	-0.0066610477
43	0xbce4f147	-0.027947081
44	0xbd1ec55f	-0.038762446
45	0x3d3d8228	0.046266705
46	0xbcb906c2	-0.02258623
47	0x3c859509	0.016306417
48	0xbcb465d9	-0.022021221
49	0x3ca9e271	0.020737858
50	0xbc42b5d3	-0.011884171
51	0x3cf5844f	0.029970316
52	0xbcec1242	-0.0288173
53	0x3bc3add5	0.00597165
54	0xbd310b29	-0.043223534
55	0x39ed7c0f	0.00045296593
56	0xbd3c212f	-0.045930084
57	0x3d4537c3	0.04814888
58	0xbd3af3c6	-0.045642637
59	0x3d489e6e	0.048979215
60	0x3c859b4c	0.016309403
61	0xb8a6e024	-7.957246e-05
62	0x3cac3b5e	0.021024402
63	0xbcfc03b5	-0.030763486

tree_conv.9.weight f4 [64]
0	0x3f8048d3	1.0022224
1	0x3f803196	1.0015132
2	0x3f801ccc	1.0008788
3	0x3f7fdf3c	0.99950004
4	0x3f804ecd	1.0024048
5	0x3f7fa7b6	0.9986528
6	0x3f7fe6a3	0.999613
7	0x3f802c1e	1.0013463
8	0x3f803e5a	1.0019028
9	0x3f80326d	1.0015389
10	0x3f7fcbcf	0.9992036
11	0x3f8034cd	1.0016114
12	0x3f8046de	1.0021627
13	0x3f7ff573	0.999839
14	0x3f803aeb	1.001798
15	0x3f80352c	1.0016227
16	0x3f8022e8	1.0010653
17	0x3f803dd2	1.0018866
18	0x3f8042f6	1.0020435
19	0x3f80231d	1.0010716
20	0x3f804ae6	1.0022857
21	0x3f803f85	1.0019385
22	0x3f802a96	1.0012996
23	0x3f7fc4bd	0.99909574
24	0x3f8024be	1.0011213
25	0x3f804565	1.0021178
26	0x3f8014c6	1.000634
27	0x3f803fb2	1.0019438
28	0x3f801000	1.0004883
29	0x3f804a97	1.0022763
30	0x3f8017f2	1.0007308
31	0x3f803c71	1.0018445
32	0x3f803716	1.0016811
33	0x3f803711	1.0016805
34	0x3f8023c6	1.0010917
35	0x3f80462d	1.0021416
36	0x3f802116	1.0010097
37	0x3f803f03	1.001923
38	0x3f802c8b	1.0013593
39	0x3f804344	1.0020528
40	0x3f80196d	1.0007759
41	0x3f803fcb	1.0019468
42	0x3f8033e5	1.0015837
43	0x3f802788	1.0012064
44	0x3f8047ee	1.0021951
45	0x3f802699	1.0011779
46	0x3f8042ae	1.0020349
47	0x3f80494d	1.002237
48	0x3f8029e7	1.0012788
49	0x3f803b38	1.0018072
50	0x3f8039f8	1.0017691
51	0x3f803783	1.0016941
52	0x3f8046b6	1.0021579
53	0x3f8022e7	1.0010651
54	0x3f80492c	1.002233
55	0x3f8042dc	1.0020404
56	0x3f804065	1.0019652
57	0x3f804991	1.0022451
58	0x3f8049a0	1.0022469
59	0x3f80395c	1.0017505
60	0x3f804c59	1.00233
61	0x3f8011e9	1.0005466
62	0x3f804463	1.002087
63	0x3f804827	1.0022019

tree_conv.9.bias f4 [64]
0	0xba97181a	-0.0011527569
1	0xbafc356a	-0.0019241993
2	0xbb1eb83e	-0.0024218704
3	0x3b0959f1	0.002095815
4	0x3b0106b4	0.0019687833
5	0xbb0e6e7e	-0.002173334
6	0xbb008026	-0.0019607632
7	0x3ac855be	0.0015284342
8	0xbaeed75b	-0.001822214
9	0x3b07c60e	0.0020717415
10	0x3a1ecc89	0.00060577
11	0x3b06e91b	0.002058572
12	0x3b0e6d6e	0.0021732706
13	0x3b084a3e	0.0020796205
14	0x3b0b6e7b	0.0021275568
15	0xbad15579	-0.0015970907
16	0x3b024251	0.0019875953
17	0xbb0369d6	-0.0020052097
18	0xbb03621b	-0.002004749
19	0x3b0e3194	0.0021697031
20	0xbb0533f7	-0.0020325163
21	0x3a45ffdd	0.000755308
22	0xbae9189b	-0.0017783822
23	0xbb0a439e	-0.0021097432
24	0x3b0af47f	0.002120286
25	0x3b07838f	0.002067778
26	0x3b03c703	0.0020107634
27	0x3af5d2a2	0.001875479
28	0x3b033afd	0.0020024173
29	0x3b060511	0.0020449797
30	0xbaf90570	-0.0018998813
31	0x3b04e9a7	0.002028087
32	0x3b1a9a7b	0.0023590613
33	0x3b19459d	0.002338744
34	0x3a9cd058	0.0011963947
35	0xbaf4be26	-0.0018672391
36	0xbb05459e	-0.0020335685
37	0x3afb1386	0.0019155599
38	0x3a774d9e	0.0009433868
39	0x3af95c84	0.0019024764
40	0xbb0617be	-0.0020460929
41	0xba913e7d	-0.0011081245
42	0xbaf348ce	-0.0018561126
43	0xbb076d76	-0.002066461
44	0xbaf88831	-0.0018961487
45	0x3b082c3a	0.0020778314
46	0xb91bfb5c	-0.0001487559
47	0x3ab9ef58	0.001418571
48	0x3b026f93	0.001990293
49	0xbb1256c5	-0.002232955
50	0x3b018143	0.0019760884
51	0x3b093ca6	0.002094069
52	0x3b112620	0.0022147968
53	0x3aea41cf	0.0017872396
54	0xbb0078b6	-0.00196032
55	0xbad9729d	-0.0016589944
56	0xbafe70a0	-0.0019412227
57	0xbb029d7a	-0.001993029
58	0x3b08dc14	0.002088313
59	0x3b03748a	0.0020058476
60	0xbb0ba551	-0.0021308253
61	0x3b027584	0.001990647
62	0xbafae935	-0.0019142987
63	0xbb023bbd	-0.0019872033

tree_conv.9.running_mean f4 [64]
0	0x400cb224	2.1983728
1	0x408af026	4.341815
2	0x4099f3b8	4.811001
3	0x401d4d10	2.4578285
4	0x3dd59c93	0.10430255
5	0x3f6db389	0.92852074
6	0x4026952e	2.6028552
7	0x3f3e79eb	0.7440478
8	0x3ff1ee60	1.8900871
9	0x4045ec38	3.0925426
10	0x3eee8dfc	0.465927
11	0x3fd148e2	1.6350367
12	0x405803b8	3.375227
13	0x4037021f	2.8595045
14	0x3f55dd52	0.83540833
15	0x4089dc3c	4.308134
16	0x3f859294	1.0435357
17	0x4084a15f	4.1446986
18	0x3fc0a81e	1.5051305
19	0x402bf6c7	2.686937
20	0x3f9f5ec2	1.2450793
21	0x40644540	3.5667267
22	0x4023f12f	2.5615957
23	0x3f7ba382	0.9829637
24	0x3e04f444	0.12983805
25	0x3f558aa2	0.8341466
26	0x40385870	2.8803978
27	0x405acacd	3.418628
28	0x3f372f2e	0.71556365
29	0x3de210d9	0.1103837
30	0x40488a9f	3.1334608
31	0x40060136	2.093824
32	0x404c7e95	3.195226
33	0x408537c0	4.1630554
34	0x3ff90378	1.9454184
35	0x3fe5c0d6	1.7949474
36	0x3f84149e	1.0318792
37	0x3fb0418a	1.3770001
38	0x404240a3	3.035195
39	0x3ea3ae64	0.31968987
40	0x4033548b	2.802035
41	0x40624efc	3.5360708
42	0x40263e7f	2.5975645
43	0x400f7748	2.2416553
44	0x40724cd0	3.7859383
45	0x405720c4	3.3613749
46	0x40b7f7dc	5.7490063
47	0x40aa372d	5.3192353
48	0x4076a3cb	3.8537471
49	0x3fecf72d	1.8512932
50	0x3f516904	0.81800866
51	0x3fd05356	1.6275432
52	0x3f5a12e7	0.8518509
53	0x4089aca0	4.3023224
54	0x4012b6fe	2.292419
55	0x40947217	4.638927
56	0x40477244	3.1163492
57	0x408ae685	4.3406396
58	0x3f954792	1.1662467
59	0x3fb5e722	1.4211161
60	0x407e3490	3.9719582
61	0x4045a495	3.0881703
62	0x40c31a81	6.0969853
63	0x3fdd1866	1.7273071

tree_conv.9.running_var f4 [64]
0	0x3f14f34e	0.58183753
1	0x3f481142	0.78151333
2	0x3fb90109	1.4453441
3	0x3f9e744b	1.237924
4	0x3a50c84d	0.00079644175
5	0x3ee30493	0.44339427
6	0x3f979fd8	1.1845655
7	0x3e3d1810	0.1846621
8	0x3f0eb731	0.5574828
9	0x401368ec	2.303279
10	0x3e8a4cf4	0.27011836
11	0x3fbcd1a0	1.4751472
12	0x3f87ce18	1.060977
13	0x3f5ab7bb	0.854366
14	0x3f3d54cb	0.7395751
15	0x3f79d357	0.97588104
16	0x3f09d84e	0.5384568
17	0x3f670a62	0.9025022
18	0x3e190024	0.1494146
19	0x3fbfe3ad	1.4991356
20	0x3d80d15b	0.062899314
21	0x3ee8c01c	0.45459068
22	0x3f8e3ed0	1.1112919
23	0x3f35afd9	0.7097145
24	0x3d19f571	0.037587587
25	0x3f342d45	0.70381576
26	0x3fb783b0	1.4337063
27	0x3fea5f42	1.831032
28	0x3f157ce3	0.58393687
29	0x3b6fe356	0.0036604009
30	0x3faa50c0	1.3305893
31	0x3f45306d	0.77027017
32	0x4008fb85	2.1403515
33	0x3fc4e3b2	1.5381987
34	0x3f1f7c9f	0.6229953
35	0x3f9c50ad	1.221212
36	0x3e980c40	0.29696846
37	0x3f614026	0.8798851
38	0x3f4655fa	0.7747494
39	0x3ce38e3a	0.02777778
40	0x3f0b2bbc	0.5436361
41	0x3f18913d	0.59596616
42	0x3ebd18d4	0.36933005
43	0x3ecde90f	0.40216872
44	0x3f06cfe9	0.52660996
45	0x3fb5d4e3	1.4205593
46	0x3f9ed33d	1.2408215
47	0x3fdf61e9	1.7451755
48	0x3f803bcc	1.0018249
49	0x3dfe9c8e	0.12432204
50	0x3edceab8	0.43147826
51	0x3f5eb12c	0.8698909
52	0x3f2d4ff4	0.67700124
53	0x3fc9a28d	1.5752732
54	0x3f4dfeab	0.8046672
55	0x402ff8ee	2.7495685
56	0x3f04de7a	0.5190197
57	0x3f528b50	0.82243824
58	0x3f84c15d	1.037151
59	0x3f0b0c2d	0.54315454
60	0x3f0c722f	0.5486173
61	0x3fb9f25f	1.4527091
62	0x3f9a5e36	1.2060001
63	0x3dfb923e	0.12283753

tree_conv.10.weight f4 [32, 64]
0	0xbcca7378	-0.024713263
1	0xbdb95617	-0.090496235
2	0x3d7ec57f	0.062200066
3	0xbd54507f	-0.05183458
4	0x3dada8c6	0.084794566
5	0x3d13be85	0.036070365
6	0x3a58782b	0.00082576525
7	0x3d92a1a6	0.07159738
8	0x3db3e9bd	0.087848164
9	0xbdb946b5	-0.090466894
10	0x3de2fd5b	0.1108348
11	0xbdd6a3db	-0.10480472
12	0xbd89806e	-0.06713949
13	0xbddc1319	-0.1074583
14	0x3d9518d0	0.07280123
15	0xbd4cff9e	-0.050048463
16	0x3de55f64	0.11199835
17	0x3de60d0e	0.11232959
18	0x3bcb9f40	0.0062140524
19	0x3d4aff42	0.04955984
20	0x3d3b0f9a	0.045669176
21	0x3d94edeb	0.07271942
22	0x3b422f22	0.0029630144
23	0xbdda4d80	-0.10659313
24	0x3c8fbca8	0.017546013
25	0xbde8c5d2	-0.11365856
26	0x3c9ffe73	0.01953051
27	0x3d1ee5ca	0.038793363
28	0x3de504ec	0.111825794
29	0xbc6d0e25	-0.014468704
30	0x3d66a5df	0.05631053
31	0xbdd102ec	-0.102056354
32	0x3cf1f15a	0.02953403
33	0xbd658396	-0.056033693
34	0x3db01fe8	0.08599836
35	0xbcc656a6	-0.02421124
36	0x3c9233d0	0.017846972
37	0x3d966fcb	0.073455416
38	0xbd85244a	-0.06501062
39	0xbd591b52	-0.05300457
40	0x3d357699	0.044302557
41	0xbcf5441a	-0.0299397
42	0x3df9d29b	0.12198373
43	0xbc6d9591	-0.014500991
44	0xbd0b0d28	-0.033948094
45	0x3d832924	0.06404331
46	0x3d21dc82	0.039516933
47	0x3dab189f	0.083543055
48	0xbddf0ae2	-0.108907476
49	0xbd829e7c	-0.06377885
50	0x3dfd59a1	0.12370611
51	0xbd83c351	-0.06433738
52	0xbd861118	-0.06546229
53	0xbda1ebc6	-0.07906298
54	0x3b40b5d3	0.002940525
55	0x3d832ba0	0.06404805
56	0x3c9b983c	0.01899349
57	0xbdbf9321	-0.093542345
58	0x3b341cf1	0.002748307
59	0x3dd95a98	0.106129825
60	0x3dee8714	0.11646858
61	0x3dcebae3	0.100942396
62	0x3d0e77e8	0.03478232
63	0xbd0c6d84	-0.03428413
64	0xbdb4ea0f	-0.08833706
65	0x3ced34d1	0.028955849
66	0xbd988a18	-0.07448214
67	0xbdcdcad0	-0.10048449
68	0x3db07d9b	0.08617707
69	0xbc945450	-0.01810661
70	0x3d38528e	0.045000605
71	0xbdae3e54	-0.08507982
72	0x3d2ba8e5	0.041909117
73	0xbb9491ef	-0.004533998
74	0xbd1f3ef9	-0.038878415
75	0x3dc41dd9	0.095760055
76	0xbda98a36	-0.08278315
77	0xbdc6b7dc	-0.09703037
78	0xbc352229	-0.011055508
79	0x3dd5c0e5	0.10437182
80	0xbded528f	-0.115880124
81	0xbdc9775b	-0.098372184
82	0x3d65788d	0.05602317
83	0xbc3c0f49	-0.011478254
84	0x3d8de3b5	0.06928197
85	0xbdbe605e	-0.09295724
86	0xbb850e50	-0.004060544
87	0x3ba82936	0.005131866
88	0x3da59676	0.08085339
89	0x3c127e13	0.008941191
90	0x3d44ca7d	0.04804467
91	0x3cb9e0bf	0.022690175
92	0x3d862bad	0.06551299
93	0xbdfcac07	-0.12337499
94	0xbcb1707d	-0.021660084
95	0x3c75358a	0.014966378
96	0x3d695092	0.056961603
97	0x3d45cff8	0.048294038
98	0xbddd838e	-0.10816108
99	0x3b7d74b8	0.0038674306
100	0xbd19a792	-0.037513323
101	0xbdbfc977	-0.09364598
102	0xbc8252bd	-0.015908593
103	0xbcccbfd3	-0.024993813
104	0xbd8dc6be	-0.06922673
105	0xbdefd055	-0.11709658
106	0x3dda24c8	0.10651547
107	0x3c97d598	0.018534467
108	0xbdb255f0	-0.087077975
109	0xbc649092	-0.013950484
110	0x3d416f43	0.047225248
111	0x3d8bafb9	0.06820626
112	0xbd8df425	-0.069313325
113	0xbc890e44	-0.016730435
114	0x3bf3738e	0.0074295467
115	0x3d25e179	0.04049823
116	0x3b441dfa	0.0029925094
117	0x3d9924ba	0.07477708
118	0x3df28f7c	0.11843774
119	0xbd0bb82f	-0.034111198
120	0x3ded3312	0.115820065
121	0x3d5dda6d	0.054163385
122	0xbbec665f	-0.007214352
123	0x3df26417	0.11835497
124	0x3de2e786	0.11079316
125	0x3de6c6e5	0.11268405
126	0x3c0bdf85	0.008537178
127	0xbdd3c78b	-0.10340794
128	0xbd49ce24	-0.049268857
129	0xbd62c04d	-0.055359174
130	0xbdcb1f59	-0.099180885
131	0xbdeb8c6a	-0.11501391
132	0xbdbfa4e5	-0.09357623
133	0x3ca8eb11	0.0206199
134	0x3dc17467	0.0944603
135	0x3dd23304	0.10263637
136	0xbcc1e55e	-0.023668941
137	0xbdd7f2ac	-0.10544333
138	0xbde357c5	-0.11100725
139	0xbd2f963f	-0.042867895
140	0xbdd8615d	-0.105654456
141	0xbd8130e0	-0.0630815
142	0x3dc8c9a5	0.09804086
143	0x3d1309c4	0.035897985
144	0x3da05a8c	0.078297704
145	0xbdd4aec7	-0.10384899
146	0x3dda44cd	0.10657654
147	0xbd4fca92	-0.050730295
148	0xbdce7fb0	-0.10082948
149	0x3d9d96b6	0.076947615
150	0x3d337ea5	0.04382195
151	0x3dca4db3	0.09878101
152	0xbc567388	-0.013089068
153	0x3dd1ee0e	0.102504835
154	0xbbb44f92	-0.0055026496
155	0x3c8d7d9e	0.017271813
156	0xbd9be531	-0.07612074
157	0xbdd32c74	-0.10311213
158	0x3d81a531	0.06330336
159	0xbcbb9a8e	-0.022900846
160	0xbd2304a6	-0.039799355
161	0xbd00df4c	-0.031462952
162	0xbd0d2a57	-0.034464207
163	0x3d88e1db	0.066837035
164	0x3d5e0249	0.054201398
165	0x3d0cfdc5	0.0344217
166	0xbdcedb3f	-0.101004116
167	0xbce89cb9	-0.028395044
168	0x3d7810a3	0.06056274
169	0x3df38ae3	0.11891725
170	0xbd77a07c	-0.060455784
171	0x3db83aa5	0.089955606
172	0x3d42fe85	0.04760601
173	0x3df5c687	0.12000757
174	0x3d26b149	0.040696416
175	0xbc8af7f5	-0.016963938
176	0xbda596ae	-0.080853805
177	0x3d835a90	0.06413758
178	0xbde444ed	-0.11145959
179	0xbd9a5c8a	-0.07537182
180	0x3c8228f4	0.015888669
181	0x3dfed23a	0.12442441
182	0xbd52f9c2	-0.05150772
183	0x3daf82af	0.08569848
184	0x3ccddfbb	0.025131097
185	0xbd4ed7ed	-0.05049889
186	0xbde2521e	-0.11050819
187	0x3d5ea3fe	0.054355614
188	0xbd3a7db6	-0.045530044
189	0x3d9a3267	0.07529145
190	0xbdeb4273	-0.114872836
191	0x3dd2ad1c	0.10286924
192	0xbc14e05e	-0.009086696
193	0xbdf98dc0	-0.1218524
194	0x3d853d73	0.06505861
195	0x3d8ac49e	0.06775783
196	0x3c1a1818	0.009405158
197	0xbde641f2	-0.11243047
198	0x3d42db8d	0.04757266
199	0x3d47a5dd	0.048742164
200	0xbdf55f0f	-0.119810216
201	0x3d67c3f9	0.05658338
202	0x3dcae75f	0.09907412
203	0x3d881a71	0.06645668
204	0x3de3038f	0.11084663
205	0x3d1e4479	0.03863952
206	0x3b8d66f3	0.004315251
207	0x3dfb34b6	0.12265913
208	0xbcc9bb4e	-0.024625447
209	0xbd0e0f38	-0.034682482
210	0xbdcf34a8	-0.10117465
211	0x3da5cfec	0.080962986
212	0xbded77de	-0.115951285
213	0xbd30f22f	-0.043199714
214	0xbd388644	-0.04504992
215	0x3dab7b12	0.08373083
216	0xbdd7cdae	-0.10537277
217	0x3def9d06	0.11699872
218	0x3c92c86a	0.01791783
219	0x3d503161	0.05082834
220	0x3cd2cabe	0.02573144
221	0x3cf304e6	0.029665422
222	0x3df344b2	0.11878337
223	0x3dd62229	0.10455734
224	0x3cfbf94a	0.030758519
225	0xbd5049e9	-0.050851736
226	0x3c408f6a	0.011752943
227	0x3d6b7c44	0.057491556
228	0xbd260c95	-0.040539343
229	0xbcf80087	-0.030273689
230	0x3ddcc11f	0.107790224
231	0x3dab6ddb	0.08370563
232	0x3d3fab3c	0.04679416
233	0x3dcbe995	0.099566616
234	0xbdfb8860	-0.12281871
235	0x3ae845d4	0.0017721006
236	0xbd2cd84d	-0.042198468
237	0x3bc03aca	0.005866383
238	0xbdd7a4cb	-0.10529479
239	0x3ac6db3d	0.0015171539
240	0xbdf86540	-0.12128687
241	0x3dcf06cf	0.101087205
242	0x3db3b321	0.087744005
243	0x3df72271	0.12067116
244	0x3da152d6	0.07877128
245	0x3d989e04	0.07452014
246	0xbdc55ec9	-0.096372195
247	0x3d150884	0.036385074
248	0xbd856db3	-0.06515064
249	0xbd37468b	-0.04474501
250	0x3d4d622f	0.050142463
251	0x3de399d9	0.111133285
252	0xbe024f19	-0.12725486
253	0xbd9d8c57	-0.07692783
254	0xbd5d6b99	-0.05405769
255	0xbca324e9	-0.019915061

tree_conv.10.bias f4 [32]
0	0xbbbb89e2	-0.005723224
1	0xbd004bf4	-0.031322435
2	0x3d6614bb	0.056172114
3	0x3bf83e93	0.007575819
4	0x3cfe5580	0.031046629
5	0x3daac035	0.08337442
6	0xbd684947	-0.056710508
7	0x3dfdbb71	0.12389267
8	0x3c681b82	0.014166715
9	0xbd18004a	-0.03710965
10	0x3bc01cdb	0.005862815
11	0x3d33a6b0	0.043860137
12	0x3c6aa203	0.014320853
13	0xbc0c8b41	-0.008578123
14	0x3ca46c49	0.020071166
15	0xbd407885	-0.046989936
16	0xbdba88f1	-0.09108151
17	0xbd8ccc14	-0.06874862
18	0xbd9e2c4b	-0.07723292
19	0xbd4bf389	-0.0497928
20	0xbdcafe87	-0.099118285
21	0xbdaddfaa	-0.08489926
22	0x3db77c3e	0.08959244
23	0x3c3cb1c4	0.011516992
24	0xbbc928e1	-0.0061389063
25	0x3da8553c	0.08219382
26	0x3dd6d682	0.10490133
27	0x3d766962	0.060159095
28	0xbd9ad278	-0.07559675
29	0x3d6987dc	0.05701433
30	0xbc61593f	-0.013754188
31	0xbdd67397	-0.10471266
