src/Models/cost.onnx (onnx, 677676 bytes, 9 tensors)

tree_conv.0.weights.weight f4 [256, 50, 3]
00000000: 6dd4 45bc 0ec6 8b3d 1f69 973d 5fac 8dbd
00000010: 0fb4 2dbd f07f 363d 1d7a 1a3d 05dd 193d
00000020: 6153 6cbc 829c 40bd 95d6 1d3d a708 1fbd
00000030: 00b4 263d e975 89bd 977d 82bd 806e 2cbc
00000040: 8d7d 713d bd85 7b3d 9c67 383d a7b5 0e3c
00000050: 124d 8b3d ca84 4340 ed74 b13f ecf2 e6bf
00000060: 4c3f 89bc 8fda 213d 8a41 10bd e9b0 03bd
00000070: 35b3 6dbb 6c04 df3c 0a4c 10c0 8591 bfbf
00000080: 4bc9 b93f 4bcf 893d 7f8f 8f3d d494 c73c
00000090: 90ef 0fbd f204 263d 4b7b 133b 97bc e23e
000000a0: ec43 f3bd fcce 36bd 01d7 5d3d 73ba 483d
000000b0: 2567 b23c 7575 9dbc 52f7 aa3b c863 0cbd
000000c0: c956 c13e 8e44 01bd 8e15 46bd 0dea 6bbd
000000d0: 9b49 6e3c 6452 383d 148d b23e 66fb 02bf
000000e0: 7b31 91bd d22c 853e 2c05 b93e 0e4c 23bc
000000f0: 96ae 93bd df2c 7e3d 2f9a 7cbd 572d 9cbd
00000100: 2735 1bbd 5fe7 a63c e0d9 793d 6132 8ebd
00000110: e778 9a3d bc02 913d fab7 f33c 2534 24bd
00000120: 44cd 3e3d 1b06 8dbd 0d8c de3c 5862 86bf
00000130: 5d67 cc3e dc27 6c3f 81a8 66bd dbf1 5c3d
00000140: fdc4 5c3d fea3 b53c 1540 4f3d 44df 603d
00000150: 951a 81bd 2863 da39 df6b 6fbd 638e 4a3d
00000160: 2862 a33f de08 12bd 32d9 4bbd 7c27 413d
00000170: 43ca 8b3d 44d1 d73c fbe3 7abd 3d91 6cbd
00000180: 1db8 0fbf 8325 03be a52a 753d 72bd 693a
00000190: effb fabc fc96 943c fde2 98bc 0efb 62bd
000001a0: 548c 0a3d 28b2 193c 9dd9 39bd eb8e 2cbd
000001b0: ec8b 2ebc 2093 d53c 4538 d5bc c8ee 573b
000001c0: dda1 91bd ddfb 5fbc 9842 9fbe 8bc0 4f3e
000001d0: 4288 563d 3cbc 083f 5725 db3c 64eb 0c3f
000001e0: 775f 5dbf 7537 9ebc 8c0c a33d 03f4 5e3c
000001f0: 16a5 053d 93c0 203b 8b65 9b3f fd2d 583f
00000200: a9e2 f83e b5f4 5bbb 99f9 a03d b207 66bb
00000210: e67e 9fbd 372f 093d e480 72bd af3a a8bc
00000220: 498c 32bd 74ab 4fbd ab09 4c3d b19f 85bd
00000230: 7f31 94bc 0b6e 54be 4ea0 eebe a70c 833e
00000240: c1fc 663d 38f6 ce3e 81a1 983f 3485 ce3d
00000250: 4fb6 023d 3436 7ec0 31c0 eabb 65e9 9fbd
00000260: 062a 2ebc 92ec 8a3d 2c28 163b 7494 683d
00000270: 6402 c93b b373 863c 1e0d a93c 4f39 1c3d
00000280: 59cf 31bd 33d6 74ba 154f 2e3d a9d4 563d
00000290: 48b1 8d3d dd7b 78bc bd78 99bd fefb b2bb
000002a0: 5b45 22bd faf0 1a3d ca5b 5f3d c891 27c0
000002b0: e684 9f40 e9e4 0b41 09a7 a13d 090c 6cbd
000002c0: 198c c63c 3c12 573d caae cabc ec9d f93c
000002d0: b7f6 8dbf cb8d 0fc0 56c0 cfc0 9e19 283c
000002e0: de17 373d 4a7a 4abd 4dff 0ebd 389a 94bd
000002f0: 1998 fa3c 5d27 e03f 2e7a 0dbf 02ac 173b
00000300: cb8d 9aba bffa 9b3c 9f1d 81bd da91 19bd
00000310: 5058 d0bc a34f 9cbd 9232 a5be 27c2 83bd
00000320: 5e35 62bc 5307 90bd 07a0 893d 4788 90bd
00000330: 8ac6 df3e 38e3 353f 07e5 703f ac38 4c3f
00000340: 8a50 be3f fcb7 30bd 3078 6b3d 77f2 2f3d
00000350: a7a5 75bd 4713 a73d 195e dcbc f781 8bbd
00000360: e19d 503d 834f cebc 1f97 083c 8f5c d03c
00000370: cfc8 8a3d 7cbc 263d d294 da3c 3cdc 693d
00000380: 7cce 953d 5001 873e e3c3 85c0 3ee5 14c0
00000390: 34fd 58bd c7e4 4d3d 51e7 363d a576 a53d
000003a0: beef cfbb f03e 83bc 8c05 263d 4c87 20bc
000003b0: 5b50 02bd 2591 ae3f 9ba8 673d 3e99 34bd
000003c0: 5ecc 913d 00c4 a33b 3da3 de3c 07d1 103d
000003d0: 7fbb 273d 9a12 2bbd fd2a 54be da16 463d
000003e0: b19f 4d3d 85d1 e53c ef96 9d3b 057d 5f3d
000003f0: 7e3f 98bd d4c1 f4bc c283 1d3d 1a88 1c3d
-0.012074572 0.06824885 0.07393097 -0.06917643 -0.042408045 0.044555604 0.037714113 0.037564296
-0.014424176 -0.047024257 0.03853472 -0.03882661 0.040699005 -0.06711943 -0.063716106 -0.010524392
0.058957625 0.06140684 0.045020685 0.0087103015 0.06801809 3.0549798 1.3863808 -1.8042884
-0.016753815 0.039515074 -0.035218753 -0.032151137 -0.0036270146 0.027223788 -2.254641 -1.4966284
1.4514555 0.06728991 0.070097916 0.024362959 -0.035140574 0.04053206 0.0022503908 0.44284508
-0.118781894 -0.04463099 0.05416012 0.049005937 0.021777699 -0.019221047 0.005217471 -0.034274846
0.37761524 -0.03155952 -0.0483604 -0.057596255 0.014543916 0.04500045 0.3487326 -0.51164854
-0.07089516 0.26010758 0.36136758 -0.009966863 -0.07211034 0.06205451 -0.06167048 -0.076258354
-0.037892487 0.020373998 0.060998797 -0.06943203 0.075425915 0.070806 0.029750813 -0.04008879
0.046582475 -0.0688593 0.02716639 -1.0498762 0.3992261 0.9224832 -0.05631304 0.05394159
0.0538988 0.022172924 0.050598223 0.054900423 -0.06303898 0.00041654077 -0.058452483 0.049452197
1.276433 -0.035652988 -0.04976768 0.047156796 0.06825688 0.026344903 -0.061252575 -0.057755698
-0.5614031 -0.12807278 0.059855122 0.0008916474 -0.03063771 0.018138401 -0.018662924 -0.055415206
0.033825234 0.009380855 -0.045373548 -0.042128485 -0.010653477 0.026071131 -0.026027808 0.0032948721
-0.07110951 -0.013670889 -0.31105494 0.20288293 0.05237604 0.5341222 0.026751203 0.5504668
-0.8647379 -0.019313553 0.079613775 0.013607982 0.03262814 0.0024528846 1.2140363 0.8444517
0.48610428 -0.0033562605 0.07860107 -0.0035099802 -0.07787876 0.033492293 -0.05920495 -0.020535795
-0.043590818 -0.05070062 0.049813908 -0.06524599 -0.018090008 -0.20745103 -0.46606678 0.2559559
0.05639339 0.40422225 1.1924287 0.10084 0.031912144 -3.9720583 -0.0071640243 -0.07808188
-0.010630136 0.067834035 0.0022912128 0.0567822 0.006134318 0.016412592 0.020636138 0.03814059
-0.043410633 -0.00093397795 0.042555887 0.052448902 0.06918579 -0.01516625 -0.07493732 -0.0054621687
-0.039616924 0.03782747 0.054530896 -2.6182728 4.984973 8.743386 0.078931876 -0.057628665
0.024236726 0.052507624 -0.024741549 0.03047081 -1.1090916 -2.2430294 -6.4922285 0.010260014
0.044700496 -0.04943303 -0.034911443 -0.072559774 0.030590104 1.7512013 -0.55264556 0.0023143296
-0.0011791525 0.019040463 -0.06304478 -0.03749261 -0.025432736 -0.07632377 -0.32265145 -0.06433516
-0.013806669 -0.07032647 0.06719976 -0.07057243 0.4370616 0.71049833 0.9409947 0.79773974
1.4868329 -0.04314421 0.057487667 0.042955842 -0.05997243 0.08157974 -0.026900338 -0.06811898
0.050931815 -0.025184399 0.008336811 0.02543476 0.067765824 0.040707096 0.026682291 0.057094797
0.073147744 0.2636819 -4.180162 -2.3264918 -0.05297585 0.050267007 0.044654194 0.0807927
-0.006345718 -0.016021222 0.040532634 -0.009797882 -0.031814914 1.3638045 0.05655728 -0.044091456
0.07119058 0.0049977303 0.027177447 0.035355594 0.040950295 -0.041765787 -0.20719524 0.048361637
0.05020112 0.028054008 0.0048092525 0.054562587 -0.07433985 -0.02987758 0.038455732 0.038215734

tree_conv.0.weights.bias f4 [256]
00000000: a117 b9be e3d9 513e fba9 0340 789c b4bf
00000010: 90a8 82be 58b1 7c3f 8d83 853f d4af 53be
00000020: d8f2 0540 aafd 6dbe 5bd5 413e 0bfa 9d3e
00000030: c393 473f 4120 0abf f3da 6a3f 2236 c740
00000040: df55 cd3e 2ebb 22bf e4bc b53f 1b4e 1c3f
00000050: a8a2 d6bf 0bd1 98bf 697f cfbf c929 1ac0
00000060: 9997 30bf f381 1fbf 7ff0 d2be 630c a4bc
00000070: 3733 083f aa5f c7bf 04dc 17bf 509c 32bf
00000080: 5d0b a03d 245b 54be 09e5 e33d 13e0 8bbd
00000090: d940 95bf e206 98bf 2ea8 df3e aa2b 05bf
000000a0: 9c73 33bd b327 9fbe 480c c7bf 5720 5fbe
000000b0: 700a 113f 4f87 74be fe2a d3bf 17a7 dcbd
000000c0: d74f 0a3f 8f67 bcbf 235d 583d eb16 273e
000000d0: a394 bdbf dfba 6c40 1d82 54bc c9d9 02c0
000000e0: 73ab 633f bdc1 09c0 20df cdbe 0478 133e
000000f0: a022 4ebf fdc7 82be b185 e3be 50eb a2bf
00000100: 3fd4 9c3f e239 82be d1b3 1abf 96b2 ea3f
00000110: e7c7 e8be 6342 993e ccf7 15be 9e34 b4be
00000120: 491e c6bf 0f74 f8bf cb2e e2be 5554 b8be
00000130: 1239 53bf f7fc fdbe 3add fcbe ba73 03bf
00000140: 8f31 e6bf 94b0 373e a400 4abf 2545 7abe
00000150: c145 3d3e 482c 333f cfea 4b40 0624 273d
00000160: 4615 62bd 92b9 a33e eb6d 873d e698 cdbb
00000170: f78d febd bd94 9ebe 1a52 adbf 93be acbf
00000180: d4f5 ad3e 4760 9ebf 93d1 31bf 6662 87bf
00000190: d7cd 323f d235 743f a54d 06bb 7432 d8bf
000001a0: 417c cebe f1f8 7fbd 3b3b 323f 119c eabe
000001b0: 8584 c1be a5dc 52bf 5314 653f 4a02 0ebe
000001c0: 6b9b 16bd c5e4 afbd 19ed 55bf 5b89 f1bf
000001d0: e698 12bf 56a3 aabe 7e86 7fbf eeda 15bf
000001e0: e0bb 53bf d686 1fbf a092 283f 16cc 6f40
000001f0: f53b 4140 f611 09c0 33e0 a7bf afb6 96bf
00000200: c969 0b3f 5cc5 123e 6eec 19be 971f 1fbf
00000210: 1ab7 46bf 4ffb 993e 8213 eebe 2120 88bf
00000220: 6f65 413f e168 403f b731 42bf 0be0 21bf
00000230: bbce a03f 94c5 b8be e5a5 66bf bb1d 13be
00000240: 0398 503f 323e 14bf e436 90bd 2dac b5bc
00000250: 9aa2 d53f 87ed 08bf f0c2 153f 26cd 5abe
00000260: 8e17 0f3f ab64 abbe 873e f6bf db81 d8be
00000270: 5cd2 c6bd e101 963e 1c33 1cbd 445d 9c40
00000280: 792b efbe 7496 e13e 6694 2e3f 7c8c 41bf
00000290: 1b2b b63e 6c8e b4bf 2a21 dc3f e65c 153f
000002a0: 4127 4b3f 1d54 1ebf 6337 5b3f 4c30 6dbd
000002b0: 46f8 a4bf e182 123f e6ab c0bf 6285 3c3f
000002c0: 4ce9 d13e 754f c73c d748 30bf edd5 3a3d
000002d0: ed73 69be cf64 4540 6650 28bf a7da 9b3c
000002e0: 6afb 77bf 763a 0fbf e167 b1bf 7dab 9cbf
000002f0: 267e e6bf 640b ffbf 822c b13e aae3 91bf
00000300: 3d77 4640 e109 693f 03bd c3bf 8c3d 01c0
00000310: a763 5bbe 1678 30be 136b 853e 8229 08c0
00000320: 0940 293f c089 073f edf6 103f 3894 c6be
00000330: 7271 7740 49b2 4d3f a427 40bf 7810 db3d
00000340: ae27 90be 47df 9fbf aff5 cabf d210 2cbf
00000350: 95e6 9dbf 228c 08bf 3da8 1c3f 4352 2cbf
00000360: fe0b 03be 0412 c73e aa80 6bbe b28f bcbe
00000370: 0b26 373e 3f50 3a3d 0f45 713e 6109 40bf
00000380: 7b01 7a40 aab0 6fbf c15f c1bf 0f53 5440
00000390: f2cb 5ebe 9308 bebf 669e 1c3f 4783 b33c
000003a0: e7a5 b7bf 2aa0 5abf 5d84 61bf c368 dbbe
000003b0: b5ea 9bbf 1858 663e 5cab 043f 0590 c53f
000003c0: 2827 b0bc bf50 c7bd 021b e4bf b225 9dbf
000003d0: 27df a0bf 6192 0ec0 f9b1 043d 7f73 8840
000003e0: a616 1f3f ec08 07c0 077b 24be 0d9f b73f
000003f0: dc28 a2bf ddf6 dcbe d732 c7be 6541 9a3d
-0.3615084 0.20493273 2.0572498 -1.411025 -0.25519228 0.98708105 1.0430771 -0.20672542
2.092947 -0.23241296 0.18929045 0.3085483 0.7795984 -0.53955466 0.9174034 6.225358
0.40104577 -0.63566864 1.419827 0.6105668 -1.6768389 -1.1938795 -1.6210757 -2.4088004
-0.6898132 -0.6230766 -0.4119911 -0.020025438 0.5320315 -1.5576069 -0.5932009 -0.69769764
0.078146674 -0.20737892 0.11127669 -0.06829848 -1.1660415 -1.18771 0.43682998 -0.5201975
-0.043811426 -0.31084976 -1.5550623 -0.2178968 0.5665655 -0.23879741 -1.6497495 -0.10774057
0.54028076 -1.4719104 0.052823197 0.16317336 -1.4810985 3.6989057 -0.012970475 -2.0445426
0.88933486 -2.1524498 -0.40209293 0.14401251 -0.80521584 -0.25543204 -0.44437936 -1.2728062
1.2252272 -0.25434786 -0.6043063 1.833575 -0.45465013 0.29933462 -0.14645308 -0.35196394
-1.5477992 -1.9410418 -0.44176325 -0.3600184 -0.8250896 -0.4960706 -0.49387532 -0.5134846
-1.7983874 0.17938453 -0.7890723 -0.24440439 0.1848364 0.6998944 3.1862066 0.04080584
-0.05519607 0.31977516 0.06612762 -0.0062743304 -0.124294214 -0.30972853 -1.354068 -1.3495659
0.33976614 -1.2373132 -0.6946041 -1.0576904 0.69845337 0.95394623 -0.0020493057 -1.6890397
-0.40329173 -0.06249327 0.6962163 -0.45822194 -0.37796417 -0.82367927 0.8948414 -0.1386806
-0.036769312 -0.08588556 -0.8356491 -1.8870043 -0.57264555 -0.3332774 -0.99814594 -0.58537185
-0.8270855 -0.6231512 0.6584873 3.7468314 3.0192845 -2.1417212 -1.3115295 -1.1774501
0.5445829 0.14333099 -0.15031597 -0.6215758 -0.7762314 0.30074546 -0.46499258 -1.0634805
0.755454 0.7516003 -0.7585711 -0.6323249 1.2563089 -0.3608824 -0.90096885 -0.1436681
0.8148195 -0.579074 -0.070417196 -0.022176826 1.6690247 -0.5348744 0.58500576 -0.2136732
0.55895317 -0.3347524 -1.9237832 -0.42286572 -0.097080916 0.29298308 -0.03813468 4.886385
-0.46712855 0.440601 0.6819519 -0.7560499 0.35579762 -1.4105964 1.7197621 0.58344877
0.7935677 -0.61847097 0.8563139 -0.057907388 -1.2888267 0.57230955 -1.5052459 0.73641026
0.40998304 0.02432988 -0.68861145 0.04561417 -0.22798128 3.0842779 -0.6574768 0.01902516
-0.96868 -0.5594858 -1.3859826 -1.2239834 -1.8007247 -1.9925351 0.3460427 -1.1397603
3.1010277 0.910307 -1.5292057 -2.0193815 -0.21424733 -0.17233309 0.26058254 -2.1275334
0.66113335 0.52944565 0.5662678 -0.38784957 3.8662992 0.80350167 -0.75060487 0.106965005
-0.28155273 -1.2490014 -1.5856227 -0.67213166 -1.2335993 -0.53338826 0.6119421 -0.6731302
-0.12797543 0.38880932 -0.229983 -0.3682838 0.17885606 0.045486685 0.235615 -0.7501431
3.9063404 -0.9362894 -1.5107347 3.3175695 -0.21757486 -1.4846367 0.61179197 0.021913184
-1.4347504 -0.8540064 -0.88092595 -0.42853364 -1.2181002 0.22494543 0.51823974 1.5434576
-0.021503046 -0.09732198 -1.7820742 -1.2277129 -1.2568101 -2.2276843 0.03239629 4.2640986
0.62143934 -2.1099195 -0.16062556 1.4345413 -1.2668719 -0.43157092 -0.38905975 0.07532004

tree_conv.3.weights.weight f4 [128, 256, 3]
00000000: ee07 46bf 4b97 cb3c 6ad0 76c0 84e0 b3bf
00000010: dbfe 89be 95ab 48c0 ad44 2b40 34a6 5dc0
00000020: 136d 7c40 aaf5 d4be 63c0 85ba 5356 8ec0
00000030: 9f88 15c0 52bb c43c 6499 19c0 7669 2340
00000040: 85ee 3a40 5e91 6ac0 5671 0040 d24b 3740
00000050: d3a9 83c0 aa12 77be 0ef5 ffbd de4f 58c0
00000060: 5b72 20be 3e73 e2be 870c 13c0 6ae2 9abf
00000070: a080 9a3d 0fab 82c0 5b91 e5bf 0497 debe
00000080: 7e66 9cc0 7059 1a3f 80b5 2abe 6eeb 483e
00000090: 84c2 813f 9eb0 98bf 6214 b93f 7d79 5ebf
000000a0: e614 c93e 02e2 fdbe 315b 1cbf 7690 e3be
000000b0: a082 91c0 d363 4340 7fdd 1a40 e596 d0c0
000000c0: 0e5e 80c0 a78d 943f d1e2 1ec0 0334 033f
000000d0: 51f5 bfbe 55ca 91bf e8df e6bf b8ac 103f
000000e0: 40a3 4fc0 ff6a d0bf 2398 113c b564 d0c0
000000f0: 086f 403f a1ac 6ebe d12a 84c0 7eed 25bf
00000100: 8818 d93d 8a3e a5c0 601a 23bc 607e c53d
00000110: ace2 dac0 041c e1bd f929 b43e f374 96c0
00000120: 8d56 bb3f 7167 e7bc 700e 96c0 0a33 e0be
00000130: eec4 dd3d 6276 88c0 0acc 6b3e ff24 863f
00000140: 6d13 c2c0 523c 0a3f 7176 a03f fb27 72c0
00000150: 57d7 8d3f feb6 a53e e295 a0c0 94f9 2e3f
00000160: e541 133c 7bff 253e ed6b 32bf dbe4 b33c
00000170: fcf7 93c0 fac2 8cbf 7bdb a1bd 3590 a4c0
00000180: 965a 4d3f f4b9 053e 5ac4 a6c0 88cc 60bf
00000190: 59db d63c ac14 85c0 5ec5 863f 532d e83e
000001a0: b2b8 98c0 7638 b33f 03b7 9cbf fa43 873f
000001b0: 4e02 973f d78d dbbf 7354 173f f924 40be
000001c0: 08d2 f7bd 2e28 febf bc27 b93e 7a9b 59bf
000001d0: e667 c4bf 216c 70be b30e e2bb f298 3fc0
000001e0: 4c00 14bf c53f 343f 1646 54be b434 d93e
000001f0: 37b7 383f 245d 96c0 2f8c 933f 5c58 d4bf
00000200: 81b3 343f ca40 cfbf 5c3c d4be f6ea 58c0
00000210: 58f3 58c0 c991 05bd e9d5 2cc0 f928 c5be
00000220: d0b3 943e e718 aabe c532 943f f4c9 cbbf
00000230: d835 3c3f 4236 813e 5323 363f ef36 7bc0
00000240: 5f90 8bbf 7afb acbe 2611 c8c0 6f4e 5f3e
00000250: 4692 103e 45ea fe3c c3aa 8d3f ea29 89bf
00000260: e2a4 59c0 6f10 a4bd 609f 2b3d d8f5 073e
00000270: a38b c73e 0f20 21bd 0011 11c0 75c2 6140
00000280: 5adb 1c40 5cfe a0c0 8a47 19bf 4f6b 283e
00000290: 977b 79c0 8c74 70bd 6e28 253e 2fbb b9c0
000002a0: 8e00 78bf 419e 0ebe 2011 acc0 6f31 3b3f
000002b0: 8fc5 4d3b 8e59 88c0 2c5f 9d3f d90d bdbf
000002c0: 19df 87c0 efcc 903f e556 fd3e 376a 1dc0
000002d0: ef22 a4bf fe26 4dbe 733c b3c0 35e4 e0be
000002e0: de1f 2bbe 550d 9ac0 f860 f2bd 48ab 60bf
000002f0: 660b cc3d 8259 643f f354 e2bf 0f9a 623f
00000300: 3768 d8bf 07a8 bc3e 91f7 a6bf 3b2c d0be
00000310: 6142 4b3f 1a6d 1d3e 848e a93d 1f49 3bbc
00000320: 4d8b b2be 6c62 f33f d2ab 61c0 ffca 6940
00000330: 40d1 933f 14a8 06c0 9ff7 0a3f bce4 863f
00000340: b211 613d c30f 96c0 7f72 66c0 236f 7d3f
00000350: a406 b0bf 9045 c13f 59a4 1bbf 481d 5a3f
00000360: aad9 f1be a8e6 b13c 53dc 8dc0 4fe5 b93e
00000370: 3fd2 c7bd 4aa0 70bf 40ba 463f 17e6 fcbf
00000380: fa44 d43e e057 c4bf 467e 123e c1b9 b9c0
00000390: 48f6 28bf 0547 1f3d 7563 99c0 c6d1 b23f
000003a0: 9588 8ebf 0948 173f 588d 16be 3d34 283e
000003b0: 8693 483e abd3 09bf 21f3 a03e a7ac a9c0
000003c0: 8015 94c0 1896 4bbe c186 89c0 e368 9a3f
000003d0: 8d4c 1f3f 7f36 34c0 9111 c63f 6cff 743e
000003e0: edd0 82c0 9e5e d2bf 79b1 bb3d 9b2e 1bc0
000003f0: d221 6fbf 668a c13e c4df 9fbf 1f23 b43f
-0.7735585 0.024852416 -3.8564706 -1.4052892 -0.26952252 -3.1354725 2.6760666 -3.4632692
3.9441574 -0.41593677 -0.001020443 -4.4480376 -2.3364637 0.024015103 -2.3999872 2.5533118
2.920808 -3.6651225 2.0069175 2.8640027 -4.1144805 -0.24128214 -0.12497912 -3.3798747
-0.15668623 -0.44228548 -2.2976396 -1.2100346 0.075440645 -4.083381 -1.7934984 -0.4347459
-4.8875113 0.6029272 -0.166708 0.1962106 1.0137486 -1.1928899 1.4459345 -0.86904126
0.39273757 -0.49586493 -0.6107665 -0.44446152 -4.5471954 3.0529678 2.419769 -6.5184197
-4.0114813 1.1605729 -2.4825938 0.5125124 -0.3749185 -1.1389872 -1.8037081 0.5651355
-3.244339 -1.6282653 0.00888637 -6.5122933 0.7516942 -0.2330804 -4.1302266 -0.6481551
0.10600382 -5.163884 -0.009955019 0.09643245 -6.84017 -0.10991672 0.35188273 -4.701776
1.4635788 -0.028247567 -4.6892624 -0.4378894 0.10828577 -4.264451 0.23027053 1.048004
-6.0648713 0.5399829 1.2536145 -3.7836902 1.1081342 0.32366174 -5.0182962 0.68349576
0.008987878 0.1621074 -0.6969593 0.021959713 -4.6240215 -1.0997002 -0.07903191 -5.1426034
0.8021635 0.13059217 -5.2114687 -0.8781209 0.02622764 -4.1587734 1.0528982 0.4534708
-4.772546 1.4001606 -1.2243351 1.056762 1.1797578 -1.7152661 0.59113234 -0.18764104
-0.12100607 -1.9856012 0.36163127 -0.85002863 -1.5344207 -0.23478748 -0.006898725 -2.99371
-0.57812953 0.70409805 -0.2072986 0.42423022 0.72154564 -4.6988697 1.1527156 -1.6589465
0.705864 -1.6191647 -0.414523 -3.3893409 -3.3898525 -0.032609735 -2.700556 -0.38507822
0.29043436 -0.33222124 1.1577994 -1.5921006 0.7351966 0.25236708 0.7114765 -3.9252279
-1.0903434 -0.3378561 -6.2520933 0.21807264 0.14118299 0.031117568 1.1067737 -1.0715916
-3.4006886 -0.08010947 0.04190004 0.13277376 0.38973722 -0.039337214 -2.2666626 3.5274937
2.4508882 -5.0310497 -0.59874785 0.16447185 -3.8981683 -0.058704898 0.16128704 -5.8040996
-0.96875846 -0.13927557 -5.3770905 0.73122305 0.0031398272 -4.260932 1.2294669 -1.4769851
-4.2459836 1.1312541 0.49480358 -2.4596078 -1.2823161 -0.20034406 -5.601129 -0.43924108
-0.16711375 -4.8141274 -0.118349016 -0.87761354 0.099631116 0.8919908 -1.7682174 0.88516325
-1.6906804 0.36846945 -1.3044301 -0.40658745 0.7939816 0.1537365 0.08279136 -0.011431008
-0.34871903 1.9014411 -3.526112 3.653015 1.1548233 -2.1040087 0.5428409 1.0538554
0.054948516 -4.689424 -3.6007383 0.98997706 -1.3752027 1.5099354 -0.6079765 0.8520093
-0.47236377 0.02171643 -4.433145 0.3630776 -0.09756898 -0.9399458 0.77627945 -1.9757718
0.41458875 -1.5339317 0.14305982 -5.803925 -0.66000795 0.03888609 -4.7933908 1.3970268
-1.1135432 0.5909429 -0.14702356 0.16426177 0.19587526 -0.53838605 0.31435493 -5.3023257
-4.6276245 -0.19881475 -4.2976995 1.2063259 0.6222618 -2.8158262 1.5474111 0.2392556
-4.0880036 -1.6435125 0.091647096 -2.4247196 -0.9341098 0.37800902 -1.2490163 1.4073218

tree_conv.3.weights.bias f4 [128]
00000000: 18e4 7bc0 1b63 1f3f 0d9e 0a40 385e eb3e
00000010: 16ae 2040 0f98 6f3e 7f81 9e3f 1936 9ec0
00000020: 4c62 653f dcf7 0b3f e06a 0d40 77ec 1f41
00000030: ba0f 4cc0 f9a7 f63e ed87 a33f bc18 fabf
00000040: bf43 9240 3a46 1141 58ea 4fbf d098 56c0
00000050: bceb 7740 40fc c8be ea62 13be da2f 1240
00000060: bd34 793f c762 873e c693 9e3f fc95 803f
00000070: e1fe f13f 85ec 643f 8d1d 3340 7195 4040
00000080: 92de 1340 5996 1040 0122 473f cac9 c63f
00000090: 7d5b 9f3f 70b9 a1bd d8c8 1440 f5f8 f83f
000000a0: a41b 753e d7d8 ad40 84ae eb3f 296a 40c0
000000b0: 4151 3b40 7665 4a3e 00ec be40 8d0f 0cbf
000000c0: ddad 0e3f bb6d 2f40 283c 423f cb19 9740
000000d0: 2603 89bf 4384 9140 abab 08c0 f467 c43f
000000e0: 56f2 08c0 eadf f23f 637e 7640 8934 50be
000000f0: af0b 0e40 e319 1dbf adf0 503f bfea 933f
00000100: 7095 ee3f 7136 ebbf 680c dc3f 6118 7d40
00000110: 1671 cabf 111d cb3f 208c 2741 c8ab 2d40
00000120: 0542 8040 c066 573f ce7e dd3f 6f57 4d3e
00000130: 3918 9d3f bfeb c940 77f5 6dbe e3af 2c40
00000140: a033 2b40 37c4 d8be b680 c740 193c 02bd
00000150: f0b8 ca40 064a 3640 ff3b 813f b529 c7bd
00000160: 0117 1841 882d 2fc0 24a5 db40 f91f e13f
00000170: fc6d 88bf da03 8d3f 247e 0e41 ec11 1bc0
00000180: 2e54 5ebf 1281 6740 2230 2b40 f691 2b40
00000190: 5eca 853e 8d60 f9be cdc2 2140 386d 99c0
000001a0: 81ce 07c0 5b64 d73f 4f1e 133f 51e0 953f
000001b0: 69c1 b93f dcb7 8a40 5c15 9ebf ab90 1841
000001c0: e014 b9bf 0a21 2340 8930 5ec0 2100 3e40
000001d0: 9703 dfbf 9f1a 04c0 b8c7 ddbf fb06 d73e
000001e0: 158a d6bc 5f52 1c40 d512 eabc dd16 283f
000001f0: 3787 9c3f 73ef b8c0 aeaa 7f40 ff7c 2640
-3.9357967 0.622606 2.1658967 0.4597032 2.5106254 0.2339785 1.2383269 -4.9441037
0.89603114 0.5467508 2.2096481 9.995231 -3.1884599 0.48175028 1.2775856 -1.9538798
4.57077 9.079645 -0.81216955 -3.353077 3.873763 -0.3925495 -0.14393201 2.2841706
0.973461 0.2644255 1.2388847 1.0045772 1.8905908 0.894234 2.7986786 3.0091212
2.3104596 2.2591765 0.7778626 1.5530331 1.2449795 -0.078966975 2.3247585 1.9450976
0.23936325 5.4327197 1.8412633 -3.0064795 2.9268343 0.19765267 5.9663086 -0.5471123
0.55734044 2.7410724 0.7587304 4.7218986 -1.0704086 4.547395 -2.1354778 1.5344224
-2.139791 1.8974583 3.851464 -0.2033254 2.219463 -0.61367625 0.8161724 1.1556014
1.8639355 -1.8375989 1.7191286 3.954613 -1.5815761 1.5868245 10.47171 2.7136097
4.008059 0.8414116 1.7304323 0.20052885 1.2273017 6.3100276 -0.23238169 2.6982353
2.675026 -0.423372 6.234462 -0.031795595 6.3350754 2.848268 1.0096434 -0.09724752
9.505616 -2.737154 6.863909 1.7587882 -1.0658565 1.10168 8.905796 -2.4229689
-0.868472 3.6172528 2.6748128 2.6807837 0.26130956 -0.48706475 2.5275147 -4.7945824
-2.121979 1.6827501 0.5746812 1.1709081 1.4512149 4.334944 -1.2350268 9.535319
-1.4459496 2.5488915 -3.4717124 2.9687579 -1.742297 -2.0641248 -1.7326574 0.41997513
-0.02618889 2.4425275 -0.028573433 0.65659887 1.2228764 -5.7792296 3.9947925 2.6013792

tree_conv.6.weights.weight f4 [64, 128, 3]
00000000: 6de1 e03f cc3f 8abe 2495 0ebf 55a1 f1bc
00000010: ca5b bcbe 74fc 343e b346 7fbf 3a66 7cbe
00000020: e6a4 c7bc 00ba 913d d5dc b3bd dc14 f1be
00000030: 58a5 dcbd b448 2d3d 2d28 b0bd 3a62 62be
00000040: 38f9 573e b434 6ebe 84f3 a43d 01b6 9cbe
00000050: e362 943e 31ee ad3e c37a c03e ea27 54be
00000060: 65fb 963e 349e 4c3e c7ae 18bf c4b5 003e
00000070: 0fe7 0d3f 383f febd b471 043f 1e67 99be
00000080: 99d5 dbbe 57b5 34bf 894f 373f 91a8 ffbe
00000090: 2073 ab3e 455f 113f c754 9dbe 3fc2 a13d
000000a0: 66f1 2ebe afa2 ecbe 189c d23e cde1 d23c
000000b0: 279b ff3d 2178 643f b626 fdbe c8bc 003f
000000c0: b898 66bf ba45 82be 14e6 7abe 8d1a f9bc
000000d0: 6589 08bf a490 8ebd cd4d 44bf 5894 d83e
000000e0: 66a2 103f ea0e 743e 0ba9 153f 1197 993d
000000f0: b0a6 f33d 3dad 8e3e 8885 08be 5b33 1dbe
00000100: 83d7 343d 3285 dabe 8c97 113d d7fd d03e
00000110: bdcb 2dbf 4cd9 813e bcf7 613f 9527 17bf
00000120: b705 a13d eba3 d5bd 5c5f 2ebf 5fb0 e9bd
00000130: 3296 bebe b3c3 b8bc d203 2b3f 18d3 2d3f
00000140: 826c cebd ae53 9c3e 5c3a 54be d7e2 ecbe
00000150: 0f5b d23d f39c 1f3f 6270 9cbe a099 d8be
00000160: 8d6b f9be 250f 6e3e d457 adbe b352 be3e
00000170: 9676 233e 72d1 eabe deb5 773e d636 843e
00000180: 42a8 93bd 9389 133d 0d1a e43d 5073 28be
00000190: d5a4 99bf 0bd7 78be 6025 573e ad30 24bd
000001a0: 9eea f0be 39e5 0e3f cf89 f53e 2f4c d2be
000001b0: f01d 21bf ca7d 07be e82e 72be a246 0b3e
000001c0: b62c 19bf a5c4 3a3e e2ae c0bc d885 8e3e
000001d0: 192e a53e 50c5 efbd bf61 a13e 816b c7be
000001e0: 457d 4abe ac79 09be a6c8 71be 31ae c5be
000001f0: e84a 5fbe 8c9f 0abc b596 53be 505e f1be
00000200: 73f2 ff3e 1f3d 0abd b2dc b3be a612 643e
00000210: 4066 bfbd fd99 55bd 763a 7c3e 0e26 bdbe
00000220: 1893 a83e c011 0dbf 0568 023f e70d 073f
00000230: e227 a0be 7e47 d93e ffd2 9fbe 8ea0 113e
00000240: 4864 8c3f dbd0 48bd 0f00 1dbf 6105 c13e
00000250: b55e 773f 86d5 713e fb4e ce3e 94ef c23e
00000260: dd26 e0be 8a2d fe3d e20e 6dbf 1612 3fbe
00000270: b67d adbe 12cf 7e3e 1cd0 47bf cf0a 003f
00000280: accd f0be 912a f43c 5df0 d13e aa0e 18bf
00000290: 6c96 9d3e 4f59 063e fcaf 1f3e 6dc0 cabe
000002a0: 608f 423f 429e 03bf 057c d3be f650 4c3f
000002b0: a729 93bd 3b86 01be 9cbc 16be e6a5 003d
000002c0: a651 4e3e 2d88 28bf da7b 60bf 191b 2e3e
000002d0: 06aa 2cbf 55d1 d63e 34e0 6d3e 9f4c 4ebe
000002e0: 15ed e1bd 3a8f 9e3e d3b8 46be 81ad 713f
000002f0: b581 893e 74b9 aa3d 6604 b23c 7a68 7cbd
00000300: 0f92 15be 7a83 fe3e fce5 7abe ad6b da3e
00000310: cd94 803e 7734 acbd 026d b7bd 08ee c73d
00000320: 16bc 86be 719b 963e 2979 4d3f e31d 533e
00000330: e510 7e3e 9613 1e3f 175a 253f 236c a0be
00000340: e790 e23d 37f5 d2be efe7 9ebe ea9c 03bf
00000350: d1a6 d7bd 5b46 b73d 63b5 83be 0125 ba3d
00000360: f41e 023f 702c 13be 6ecb 7fbe e5fc 32bf
00000370: 77a1 e4be 2493 10bf 0be5 b33e ce64 63be
00000380: 9ad2 77be 5b28 1d3d 587f 013d 2576 2fbf
00000390: 73c3 9d3e 223b 0d3f 52d5 09bf e060 793e
000003a0: 5c00 26bf ba95 0fbe 757a 4c3e 846f 7fbf
000003b0: 3d0b e43e ed82 0a3f b4b5 a3be f6c3 f0be
000003c0: 3e76 babd 0c2e 853e 186d 9a3e 4420 06bf
000003d0: e255 ae3d 07f8 babe 3c23 91bb e9bc f23e
000003e0: 759d 8dbd d72b 203f 0e24 6dbe 831a c3be
000003f0: 5fe2 97bf 80cd fcbe c375 043f c95e 283f
1.7568794 -0.27001798 -0.5569632 -0.029495874 -0.3678878 0.17674428 -0.99717253 -0.24648371
-0.024370622 0.07115555 -0.08782355 -0.47086227 -0.10773724 0.042305663 -0.08601413 -0.22107783
0.21091163 -0.23262292 0.080542594 -0.30607608 0.28981695 0.33970788 0.3759366 -0.20718351
0.29488674 0.19982225 -0.5964169 0.12569338 0.5543069 -0.12414402 0.51736 -0.29961485
-0.429364 -0.705892 0.71605736 -0.49933293 0.3348627 0.56785995 -0.30728742 0.078983776
-0.17084274 -0.46217868 0.41134715 0.025742436 0.12480765 0.892458 -0.49443597 0.5028806
-0.9007678 -0.25443822 -0.2450183 -0.030408168 -0.5333465 -0.06961182 -0.76681215 0.42300677
0.564978 0.23833814 0.58461064 0.07499517 0.118970275 0.27866545 -0.13332188 -0.15351622
0.04415084 -0.42679745 0.035544917 0.40818664 -0.67889005 0.25361097 0.8826864 -0.5904477
0.07862418 -0.104316555 -0.68114257 -0.11410593 -0.37223965 -0.022554254 0.66802704 0.6790023
-0.1007929 0.30532593 -0.20725387 -0.46266815 0.10271274 0.6234886 -0.3055449 -0.42304707
-0.48714867 0.23247965 -0.3385607 0.3717247 0.15963206 -0.4586292 0.2419047 0.25823087
-0.07209827 0.036019873 0.11137781 -0.16450238 -1.2003428 -0.24300782 0.21010351 -0.040085483
-0.47054 0.55818516 0.47956702 -0.41073748 -0.62936306 -0.13231578 -0.23650706 0.13601163
-0.5983385 0.18239076 -0.02352089 0.2783649 0.32261732 -0.11707556 0.31519887 -0.38949206
-0.19774349 -0.1342532 -0.23611698 -0.3860946 -0.21805918 -0.0084608905 -0.20662959 -0.47142267
0.49989662 -0.033749696 -0.35129315 0.22272739 -0.093456745 -0.052148808 0.24631676 -0.36943096
0.32924724 -0.5510521 0.5093997 0.5275559 -0.31280428 0.42437357 -0.31215665 0.14221403
1.0968103 -0.049027305 -0.61328214 0.37699416 0.96628886 0.23616609 0.40294632 0.3807341
-0.4377965 0.1241103 -0.92600834 -0.18659243 -0.33884972 0.24883679 -0.78051925 0.5001649
-0.47031915 0.029805453 0.41003695 -0.59397376 0.30778825 0.13120006 0.15594476 -0.39599934
0.7600002 -0.5141336 -0.41305557 0.79811037 -0.07185679 -0.12648861 -0.14720386 0.031408213
0.20148334 -0.6583279 -0.8768898 0.17002524 -0.67446935 0.41956583 0.23230058 -0.20146416
-0.11031548 0.30968648 -0.19406442 0.9440537 0.2685677 0.083361536 0.021730613 -0.061623074
-0.14606498 0.49709684 -0.24501795 0.42660275 0.25113526 -0.084084444 -0.089563385 0.09762198
-0.26315373 0.29415467 0.80263 0.2061687 0.24811132 0.61748636 0.6459059 -0.31332502
0.11062794 -0.4120271 -0.31036326 -0.51411307 -0.105298646 0.08948966 -0.25724325 0.09089089
0.5082848 -0.1437242 -0.24979946 -0.69917136 -0.44654438 -0.5647452 0.35135683 -0.22206423
-0.24201432 0.038368564 0.031615585 -0.6853965 0.30813178 0.55168355 -0.53841126 0.24353361
-0.648443 -0.1402196 0.19968589 -0.99779534 0.44539824 0.54106027 -0.31974566 -0.47024506
-0.09104584 0.26011693 0.30161357 -0.52392983 0.085124746 -0.36517355 -0.004429249 0.47409752
-0.06914798 0.62566894 -0.23158285 -0.38106164 -1.1865958 -0.49375534 0.5174219 0.6576963

tree_conv.6.weights.bias f4 [64]
00000000: 62cf 53be da96 8f3e c1d0 cf3d 70e6 353f
00000010: dce9 7d3e 546a 043f d132 253f 39d0 363f
00000020: 4387 97be a66c 163f 2715 1e3f a348 2fbe
00000030: e6f3 a03e 8a22 413f 2164 de3d a72e 303f
00000040: 526d 90bd 0b9d 023f 6a03 683f 8ba2 063f
00000050: 8622 e93e 6805 a23e b40f 11be 9075 c03e
00000060: 4b91 e43e 9cda c83e d206 223f c6b9 833e
00000070: 0ecf 4d3e 8280 b43e ddbb 243f 3e38 17bc
00000080: acef 383f 42dc f63e 4010 783d 5b0f 203f
00000090: 2c16 d53e 4f5e 4d3f 26d4 6d3e 004b cf3e
000000a0: 4105 863e 50e7 c43e a929 023f 3dc0 e1be
000000b0: 208e b7ba 2326 edbe 6a3d 613e ed06 c1bd
000000c0: 3752 bd3e 8d78 153f 0d5a d53e 9e23 883e
000000d0: 4bb0 a93e 7af7 1a3f 0107 0abe 79d9 643e
000000e0: 2720 303f be91 7b3d b33e b0bd 08e0 363f
000000f0: 7ba1 123f d662 97be 37d1 36bd 8eff a0bc
-0.20684579 0.28044778 0.101472385 0.71054745 0.24796242 0.51724744 0.64530665 0.7141147
-0.29595384 0.58759534 0.61751026 -0.17117552 0.3143608 0.7544333 0.10858942 0.68821186
-0.07052101 0.5102088 0.9063021 0.5259177 0.45534152 0.3164475 -0.14166147 0.37589693
0.446421 0.39229286 0.63291657 0.2572767 0.20098516 0.35254294 0.64349157 -0.009229718
0.7224071 0.48214918 0.060562372 0.6252343 0.41618478 0.8022203 0.2322546 0.40486908
0.26175883 0.38457727 0.5084482 -0.4409198 -0.0014004149 -0.46318159 0.21996084 -0.09425149
0.36976787 0.5838707 0.41670266 0.26589674 0.33142313 0.6053387 -0.13479234 0.22348584
0.6879906 0.061418287 -0.08605709 0.71435595 0.5727765 -0.29567593 -0.044633117 -0.019653108

tree_conv.9.weight f4 [32, 64]
00000000: a0fe 2d40 01d0 3040 7207 9041 bd75 8640
00000010: ee7e ac40 39a7 3540 71b6 2840 9f33 6540
00000020: 3bee a640 e0c8 6440 17b7 5c40 b492 3b40
00000030: 2b02 f63f 6b38 6f40 34f6 9341 d51a 8140
00000040: c77c 9940 c39c 6140 83ce 2740 7151 5040
00000050: 0c18 3d40 fd08 8240 189e 6e40 6f8b 7b40
00000060: 90cb 5a40 b7e4 9b40 2c28 9b40 de07 8340
00000070: 1c8f c240 022e 8540 0877 0b40 a7a5 8b40
00000080: 88be 1040 af2d 4f40 6c07 7940 a2b1 4440
00000090: a2fb 8b40 9c38 4940 c530 4440 f80f a240
000000a0: df2d bd40 038e 2540 795f bc40 fe3c 7840
000000b0: b709 6040 3c34 a340 e05e 1340 89d2 8940
000000c0: c928 1a40 7bb8 2440 eedd 8140 4ffb 5040
000000d0: c2d3 1640 0c06 9340 048c 2240 e9c5 4040
000000e0: 4bd2 8040 4d17 1740 3f24 4a40 8e47 8c40
000000f0: cd48 5840 4101 5a40 b399 5140 21a4 7940
00000100: 1535 8d40 df5e 6940 c3cf 9b41 10b1 9f40
00000110: 20d3 bf40 5f26 7c40 8df3 6140 625e 8f40
00000120: 3228 b140 6c35 9d40 7c8d 9e40 db28 8f40
00000130: a3e4 3740 fd3d 9d40 4fbb 9641 d8e9 a440
00000140: aca5 a940 c2b6 8440 7fc5 7740 3f1e 9940
00000150: 30a6 8240 9cef 9240 3f02 8540 5107 aa40
00000160: a38e 8a40 96cb ae40 ea83 b240 2fe5 b340
00000170: 81ec d440 4185 aa40 a95e 5840 b5be c240
00000180: a306 5840 7dfb 8640 383b 8c40 9021 6b40
00000190: b774 ab40 6546 8d40 4a56 8240 121d b440
000001a0: 42b9 e940 34e8 5c40 0881 dd40 7a7d 9540
000001b0: 7aaf 8840 efdf ab40 db3a 5f40 bd58 9140
000001c0: 13cc 5640 28a0 6640 4ef7 a740 89aa 8e40
000001d0: 435d 4440 5090 aa40 32e9 7540 b96b 7740
000001e0: eac4 ab40 d342 5940 b24a 8b40 d76a b740
000001f0: 0501 7c40 195c a040 9310 8440 b8cb 9340
00000200: 4f4e 9540 fb63 7240 e8df 9c41 9a3e a040
00000210: 558f bb40 35e9 8240 6f73 6340 e7db 8f40
00000220: e92b af40 1126 9a40 6065 a340 01cc 8c40
00000230: 79b7 3c40 3dc8 9d40 a730 9641 da3b a740
00000240: 4295 af40 76c8 8940 8fe6 8040 a739 a040
00000250: 65a2 8040 2001 9040 3535 8840 984b ab40
00000260: 583d 8c40 66a7 ae40 e375 b440 1c5a b640
00000270: 31a5 d140 8daf ad40 a0cb 5e40 f960 c340
00000280: 1de4 6240 af11 8c40 c312 8c40 5170 6e40
00000290: 929e b240 809a 8e40 af18 8140 b07f b440
000002a0: 3dfd ec40 85ef 5e40 a7a9 d740 197a 9040
000002b0: 973a 8340 fd18 b340 d799 5740 d4d0 9640
000002c0: ed5c 5140 f770 6f40 2b21 a940 51a0 9340
000002d0: 2ea3 4940 f270 ae40 0e9f 7940 5c1c 7f40
000002e0: fa1c b040 05be 5240 6f24 9140 1aa0 b640
000002f0: 80b6 8540 9a2b a040 4120 8440 bd5a 8e40
00000300: 90c3 3940 021d 4540 2ae7 9341 c909 8d40
00000310: f406 b640 1b40 4c40 25fa 3140 eea0 7240
00000320: d513 aa40 a64d 7740 49a5 6d40 fe6e 5440
00000330: 1e9a 0c40 cca8 7f40 59f8 9441 148b 8f40
00000340: 5374 a140 b343 6840 7248 4740 4de6 6d40
00000350: c1de 4a40 fd71 8440 c6d3 8140 4628 8840
00000360: 77f8 5f40 d601 9d40 4098 a440 e171 8d40
00000370: 1d55 c440 f5bd 9240 6734 2540 1f92 9f40
00000380: df3d 2c40 fd85 6040 7af7 7a40 5fc8 5040
00000390: f1f9 9440 1158 6040 58dd 5340 306f a540
000003a0: a758 c340 1979 3040 1726 c140 d23d 8640
000003b0: 2eae 6c40 2a16 a840 542e 2440 95ef 8940
000003c0: a6e1 2740 ce23 3240 3910 8a40 945c 5f40
000003d0: 5bc2 1f40 c8ff 9540 84cb 2f40 1cfa 4e40
000003e0: d84f 8d40 08b1 2040 820d 6340 2e62 9640
000003f0: 4a75 6240 3239 6f40 e8e8 5f40 a5b7 8140
2.718666 2.7626956 18.003635 4.2018723 5.3904943 2.8383315 2.6361353 3.5812757
5.216581 3.5747604 3.448675 2.930829 1.9219412 3.7378185 18.495216 4.0345254
4.7964816 3.525193 2.6219795 3.2549708 2.9545927 4.063597 3.7283993 3.9303854
3.4186745 4.8716693 4.848654 4.0947104 6.0799694 4.161866 2.17914 4.363971
2.261629 3.2371633 3.891078 3.0733418 4.374467 3.1440802 3.0654767 5.0644493
5.9118495 2.5867927 5.8866544 3.8787227 3.500593 5.1001263 2.3026657 4.30695
2.4087393 2.5737598 4.058341 3.2653387 2.3566747 4.594488 2.5397959 3.0120795
4.0256705 2.3607972 3.1584623 4.3837347 3.3794434 3.4063265 3.275006 3.9006426
4.4127297 3.6464155 19.476446 4.990364 5.994522 3.939842 3.5304902 4.4802713
5.5361567 4.912771 4.954771 4.4737372 2.8733299 4.913817 18.84146 5.1535454
5.3014736 4.1473093 3.8714292 4.784942 4.0827866 4.591749 4.156524 5.313393
4.3299117 5.462352 5.578603 5.6217265 6.65387 5.3287663 3.3807776 6.0857797
3.375405 4.2181993 4.382229 3.6739235 5.3579974 4.414843 4.0730333 5.6285486
7.3038645 3.4516726 6.922001 4.671567 4.2714205 5.3710856 3.4879673 4.5420823
3.3562057 3.6035252 5.2489386 4.4583173 3.0681922 5.3301163 3.842358 3.8659499
5.3677874 3.3947036 4.352868 5.731792 3.9375622 5.0112424 4.127023 4.618618
4.665809 3.7873523 19.60933 5.007642 5.8612466 4.0909677 3.5539205 4.4955935
5.47411 4.817147 5.106125 4.399903 2.9486983 4.930693 18.773756 5.226056
5.48697 4.3057203 4.0281444 5.0070376 4.0198236 4.5001373 4.256495 5.3529778
4.3824883 5.4579344 5.6393905 5.6984997 6.551415 5.4276795 3.4811783 6.1055875
3.545173 4.3771586 4.3772902 3.7256052 5.5818567 4.45636 4.034263 5.640587
7.405913 3.483369 6.7394595 4.5149045 4.100902 5.5968003 3.3687646 4.7129917
3.2712967 3.7412698 5.285299 4.61332 3.1505847 5.4512873 3.900333 3.986106
5.503537 3.2928479 4.5356975 5.7070436 4.178528 5.0053225 4.1289372 4.4485765
2.9025612 3.0798955 18.487873 4.4074445 5.688349 3.1914127 2.7808926 3.7910724
5.314921 3.8641143 3.7132132 3.3192744 2.1969066 3.9946775 18.621264 4.4857273
5.0454497 3.629132 3.1137967 3.7171814 3.1698458 4.1389146 4.0571012 4.254916
3.49954 4.906474 5.143585 4.420151 6.13539 4.585688 2.5813234 4.986587
2.6912763 3.508178 3.9213548 3.2622297 4.6555104 3.5053751 3.3103848 5.1698227
6.104572 2.7573912 6.0358996 4.1950464 3.698131 5.2527056 2.5653276 4.310496
2.6231475 2.7834353 4.3144803 3.4900255 2.4962375 4.6874733 2.7467966 3.2340155
4.4159966 2.5108051 3.5476995 4.699485 3.5384088 3.737866 3.4985905 4.0536675

tree_conv.9.bias f4 [32]
00000000: a076 e63f ff2e 5a40 a3a5 5f40 123a 0740
00000010: 8c20 40be f71f 13bc 66d5 8dbd 7d4c 29c0
00000020: 6d8e 2540 baf7 d73f f82d 2b40 af2e 5640
00000030: 84e5 1dc0 4b45 8840 41a4 9140 f6a9 0cbe
00000040: fa83 0ebe a057 9540 60dc 0dc0 b69f 7b40
00000050: 5da8 3fc0 f41d 86bd fe4b 1740 ea5e 29bf
00000060: 1a20 31c0 eafe 5140 f552 9d40 8c18 23c0
00000070: db86 23c0 7cad 8140 da41 b840 4f84 2fbe
1.8004951 3.4091184 3.4944847 2.1129193 -0.18762416 -0.008979789 -0.06925468 -2.6452935
2.586818 1.6872475 2.6746807 3.3465993 -2.4671335 4.2584586 4.5513005 -0.1373671
-0.13917533 4.6669464 -2.2165756 3.931623 -2.994651 -0.06548682 2.3640132 -0.6616045
-2.7675843 3.2811837 4.9163766 -2.5483732 -2.555106 4.0524273 5.7580385 -0.17140315

tree_conv.11.weight f4 [1, 32]
00000000: 8607 ec40 b650 f340 e0e2 f240 4a4a ed40
00000010: 68ea aebf 9090 dfc0 90a7 f8be 7a8e efc0
00000020: 7355 f740 7996 e840 8774 f740 4958 f640
00000030: 6f04 f4c0 c77b ec40 0fad eb40 93fd ffc0
00000040: 493e d9bf 4af8 f140 c03b f8c0 eaeb f040
00000050: 1cde f0c0 19b3 4bc0 0e42 f240 364b 01c1
00000060: 3368 ecc0 3dd0 f040 33a8 f940 0860 f7c0
00000070: 1a85 f6c0 57f8 f140 8384 1241 a5c0 4fbf
7.3759184 7.6036024 7.5901947 7.4153185 -1.3665285 -6.986397 -0.4856534 -7.486142
7.729181 7.2683682 7.7329745 7.698277 -7.625541 7.3901095 7.3648753 -7.999704
-1.6972133 7.5615587 -7.7572937 7.528798 -7.527113 -3.1828063 7.5705633 -8.080862
-7.3877196 7.5254197 7.801782 -7.7304726 -7.7037477 7.561565 9.1573515 -0.8115333
