src/Models/costL1-1_0.onnx (onnx, 677677 bytes, 9 tensors)

tree_conv.0.weights.weight f4 [256, 50, 3]
0	0xbcea2743	-0.028583175
1	0xbd6adf7f	-0.05734205
2	0x3da4b92f	0.080431335
3	0xbd35be0a	-0.04437069
4	0xbd95dd82	-0.0731764
5	0x3d8c72d5	0.0685784
6	0x3d3d6a0f	0.046243723
7	0x3d097aa3	0.03356422
8	0x3c8b18c4	0.016979583
9	0x3da6f33d	0.08151863
10	0x3d8f588f	0.06999313
11	0x3d4c8d05	0.049939174
12	0xbd6ea990	-0.058267176
13	0x3b70c210	0.0036736764
14	0xbd656bfb	-0.05601118
15	0x3d37f991	0.04491574
16	0xbc734613	-0.01484825
17	0xbb7d1d7f	-0.0038622317
18	0x3bf33be9	0.0074229133
19	0xbd0ab2af	-0.033861812
20	0xbd44a24b	-0.048006337
21	0x4338439f	184.26414
22	0x424c0a00	51.009766
23	0xc1bb775e	-23.433285
24	0xbbacf71a	-0.0052784802
25	0xbd85a873	-0.0652627
26	0x3d4b5ca4	0.049648896
27	0xbca54f9c	-0.020179562
28	0x3d94e32d	0.07269893
29	0x3d40b412	0.04704673
30	0xc25a7cec	-54.621994
31	0xc1a924d9	-21.142992
32	0x41a896ff	21.073729
33	0x3a1b1c84	0.000591703
34	0xbd9a601b	-0.07537862
35	0x3d6818fd	0.056664456
36	0xbd68e98e	-0.05686336
37	0xbbeb233c	-0.007175831
38	0xbd3ef59f	-0.04662096
39	0x3f4a7e63	0.790991
40	0xc1ae68c5	-21.801157
41	0xbd20296b	-0.039102
42	0x3d0aece9	0.03391734
43	0x3c274ead	0.010211629
44	0xbd1c8737	-0.03821489
45	0x3d1dbdd2	0.038511105
46	0x3da2b756	0.07945125
47	0x3d1b3dc5	0.037900705
48	0xc08716f6	-4.221553
49	0x3d283495	0.04106577
50	0x3b559d84	0.0032595107
51	0x3d988982	0.074481025
52	0x3cf391e3	0.02973265
53	0x3d3cdae6	0.046107195
54	0xc307fc58	-135.98572
55	0xc30f0466	-143.01718
56	0xbf12bb76	-0.5731729
57	0xc127fa39	-10.4985895
58	0x40d37442	6.6079416
59	0xbcaa5bcc	-0.020795725
60	0x3c6376d3	0.01388331
61	0xbcea00d9	-0.028564857
62	0x3c5f4807	0.0136280125
63	0xbd305894	-0.043053225
64	0x3d9bd859	0.076096244
65	0xbd5ffc38	-0.054683894
66	0x3d7ff7ac	0.062492058
67	0xbd69758d	-0.05699687
68	0x3d548465	0.051884074
69	0xbc9e1a93	-0.019299781
70	0xbd8d7ef9	-0.06908984
71	0xbd9e49b6	-0.07728903
72	0x3b7dd36a	0.003873075
73	0x3d19bdd5	0.037534554
74	0xbd78184b	-0.060570043
75	0xc30494d9	-132.58144
76	0xc289de30	-68.93396
77	0x40701e11	3.751835
78	0xbca11df6	-0.019667607
79	0xbc927613	-0.017878568
80	0x3d02c7ae	0.03192871
81	0x3c217d59	0.009856545
82	0x3d268325	0.040652413
83	0xbd13bd8d	-0.03606944
84	0x3acc5600	0.0015589595
85	0xbc041683	-0.008062008
86	0xbda4323b	-0.08017393
87	0x3fdddf9d	1.7333866
88	0x4206ce33	33.701366
89	0xbb4034b3	-0.0029328286
90	0x3d8c64ac	0.06855139
91	0x3d745fc7	0.059661653
92	0xbd2e9a33	-0.042627525
93	0x3d3c294f	0.045937832
94	0xbd081e4d	-0.033232022
95	0xbd8677bb	-0.065658055
96	0x401c85ca	2.4456658
97	0x400518ba	2.0796342
98	0x3d34d1c9	0.04414538
99	0x3c351ff2	0.01105498
100	0xbc4fea45	-0.012690132
101	0x3d57033b	0.052493315
102	0xbd83e791	-0.06440652
103	0x3b74ab94	0.0037333714
104	0x3cd06341	0.025437953
105	0x3d66ded8	0.056364864
106	0xbcfdbd6e	-0.030974116
107	0x3c01f871	0.007932768
108	0xba9466ef	-0.001132218
109	0xbd891824	-0.066940576
110	0x3d27108d	0.04078727
111	0x3bae5fd4	0.005321482
112	0x3d0a8983	0.033822548
113	0x3d525015	0.051345903
114	0x3f17faa9	0.5936685
115	0x41765f5d	15.398282
116	0xbd2c0f22	-0.04200662
117	0xc1e1845f	-28.189634
118	0xbd44a8f7	-0.0480127
119	0xc310d8cc	-144.84686
120	0x40860b85	4.188906
121	0x41693380	14.575073
122	0x3c6c4741	0.014421285
123	0xbd8ae9fc	-0.0678291
124	0x3b636711	0.0034698884
125	0xbb906336	-0.004406358
126	0xc3141d47	-148.11436
127	0xc31f689e	-159.40866
128	0x3f49586b	0.7865054
129	0xbb735b82	-0.00371334
130	0x3caafc87	0.020872368
131	0x3da6ea6b	0.081501804
132	0x3cf7e7b0	0.030261844
133	0x3d6aa154	0.05728276
134	0x3d5433d9	0.05180726
135	0x3cf3a40e	0.029741313
136	0x3d19bf65	0.037536044
137	0x3c8ba40f	0.017046003
138	0x3d6fbc29	0.058529053
139	0xbbef55e8	-0.007303942
140	0xbcce44ac	-0.02517923
141	0xc397fb49	-303.96317
142	0xc3c97cb0	-402.97412
143	0xc1498c22	-12.596712
144	0x40df8f96	6.9862776
145	0xc23e16fd	-47.52245
146	0xc383340d	-262.40665
147	0xc20a5539	-34.583225
148	0x418fcee9	17.97603
149	0xc38f8dd1	-287.10794
150	0x3d6f531c	0.05842887
151	0xbd91ec60	-0.07125163
152	0xba88bfc8	-0.0010433132
153	0x3d918ba4	0.071067125
154	0x3cf093b5	0.029367307
155	0xbd2e43c8	-0.04254511
156	0xbd2f2083	-0.042755615
157	0xbd1281b1	-0.035768215
158	0xbca4fe8e	-0.020140912
159	0x3c3f6be2	0.011683436
160	0x3aa4aea9	0.001256426
161	0x3d9f8029	0.077881165
162	0x3b59bc6d	0.0033223883
163	0x3d9d8cbe	0.0769286
164	0x3c811d8f	0.015761165
165	0xbd5a67da	-0.053321697
166	0x3d93e662	0.072216764
167	0xbd605dd0	-0.054776967
168	0xbc5afa89	-0.013365396
169	0x3bd586a7	0.006516296
170	0xbc539fa7	-0.012916482
171	0xc31903a7	-153.01427
172	0xc2d8b40b	-108.35165
173	0xc2574eca	-53.826942
174	0x3d9ef830	0.07762182
175	0x3d95d093	0.07315173
176	0x3c0baae0	0.0085246265
177	0x3d93d2df	0.07217955
178	0x3d6193be	0.05507254
179	0xbcbf107f	-0.023323296
180	0x42d44b01	106.14649
181	0x4289df84	68.936554
182	0x41ac3854	21.527504
183	0xbd3d4676	-0.046209775
184	0xbd0c47c9	-0.034248147
185	0x3c26ebcd	0.010188055
186	0x3d841563	0.06449392
187	0xbca36e9d	-0.019950205
188	0xbc8cc0a6	-0.017181706
189	0xc2a98530	-84.76013
190	0xc2579fe0	-53.906128
191	0xbd184843	-0.03717829
192	0x3d7c5839	0.061607573
193	0x3d960466	0.07325058
194	0x3c27008a	0.010193
195	0x3d76564a	0.060140885
196	0xbb9fd3df	-0.004877552
197	0xbc5782d7	-0.013153753
198	0x40fcba2d	7.8977265
199	0xbd913d76	-0.07091801
200	0xbd3359df	-0.04378688
201	0xbce3e395	-0.02781848
202	0x3d6fd45f	0.058552142
203	0x3d8951e1	0.0670507
204	0xc2392db5	-46.294636
205	0x43c32013	390.25058
206	0xc23277dc	-44.61705
207	0x421ee6bb	39.725323
208	0x4283f2eb	65.97445
209	0xbd7d5db4	-0.06185694
210	0x3d7b1d38	0.061307162
211	0xbcdd4616	-0.027010959
212	0x3d8fe821	0.07026697
213	0xbaa55c15	-0.0012615944
214	0x3c54684e	0.012964321
215	0x3d9ed3ef	0.07755267
216	0xbd7bcaeb	-0.061472815
217	0xbd818838	-0.0632481
218	0x3b461723	0.0030226193
219	0xbb599d13	-0.0033205196
220	0x3cc474ae	0.023981418
221	0x3c4322fa	0.0119101945
222	0xbd503764	-0.050834075
223	0xbd64f0b0	-0.0558936
224	0xbda54dd3	-0.080714844
225	0x421018ee	36.024345
226	0xc1b6716a	-22.805378
227	0xc11ac3c3	-9.672793
228	0xbc967de7	-0.018370582
229	0xbd801476	-0.062539026
230	0x3d86dcce	0.06585084
231	0xbd415d14	-0.047207907
232	0x3da58122	0.08081271
233	0xbd7a0240	-0.061037302
234	0x3d3b2170	0.045686185
235	0xbd44c0d7	-0.04803547
236	0xbd9be74f	-0.07612478
237	0x4233cec9	44.95194
238	0xc3d9bdea	-435.4837
239	0x3d3a9451	0.0455516
240	0xbda1f863	-0.07908704
241	0x3d8bc451	0.06824554
242	0x3d0869de	0.033304088
243	0xbd441be0	-0.047878146
244	0x3da36c0b	0.07979592
245	0x3da558d9	0.08073587
246	0x404c9562	3.1966176
247	0x405834a4	3.378213
248	0xbc8699b0	-0.016430706
249	0xbc0a8f6e	-0.008457048
250	0x3d0e60c4	0.03476025
251	0x3c387e88	0.011260636
252	0xbd46028a	-0.048342265
253	0x3d128217	0.035768595
254	0xbc66e0cd	-0.014091683
255	0xbd0670e7	-0.032822516

tree_conv.0.weights.bias f4 [256]
0	0xc2548eec	-53.139572
1	0xc24fcb0d	-51.94829
2	0xc2cdf468	-102.977356
3	0x42a3aa64	81.832794
4	0xc1c52245	-24.641733
5	0x43841447	264.15842
6	0x43936a3c	294.82996
7	0x435ebc90	222.73657
8	0x4302739e	130.45163
9	0xc190e2b9	-18.110704
10	0x41ce2cc4	25.771858
11	0xc2d05035	-104.156654
12	0xc1498a4d	-12.596265
13	0x4393324c	294.39294
14	0x43d3766d	422.9252
15	0x439dcdc8	315.60767
16	0x432a2075	170.12679
17	0xc2ac6f36	-86.21721
18	0x4324eba3	164.92046
19	0x421417ef	37.023373
20	0x43c0039a	384.02814
21	0x432bd268	171.8219
22	0xc207e2af	-33.97137
23	0xc2c553cd	-98.66367
24	0xc2140cb5	-37.01241
25	0xc31306a5	-147.02596
26	0x43247484	164.45514
27	0xc34ad38d	-202.82637
28	0x43a0f90f	321.94577
29	0x431ba0f3	155.62871
30	0xc33b08dc	-187.0346
31	0xbffb04e8	-1.9610872
32	0x43620dfe	226.05466
33	0x42b4fce9	90.493965
34	0x41ea1db0	29.264496
35	0xc0ebc122	-7.367326
36	0xc27dad85	-63.419453
37	0xc25c25bb	-55.036846
38	0x428bad73	69.83877
39	0x40a3a8f4	5.114374
40	0x43ca22a0	404.2705
41	0x40f277df	7.5771327
42	0x41663939	14.38897
43	0xc25a2a1a	-54.541115
44	0x4302e115	130.87923
45	0x438e8601	285.0469
46	0xc2cc4f8e	-102.15538
47	0xc2fe84b6	-127.2592
48	0xc2369e43	-45.654552
49	0x40b4cdcb	5.650121
50	0xc2d22b58	-105.084656
51	0x4370d097	240.8148
52	0x419e692c	19.801353
53	0xc18f0dab	-17.881674
54	0x412d55ff	10.833495
55	0xc2bfb799	-95.85859
56	0x4100c561	8.048188
57	0x430dcd2b	141.80144
58	0xc1362aa3	-11.385409
59	0xc2bd56b8	-94.66937
60	0xc34974db	-201.45647
61	0x43540b98	212.04529
62	0x43d85a59	432.70584
63	0x415c5c81	13.772584
64	0xc220320c	-40.048874
65	0xc1c4e39d	-24.61114
66	0xc20a456a	-34.567787
67	0xc0656a07	-3.5845964
68	0x433b7b06	187.48056
69	0xc2c5d8e1	-98.92359
70	0xc2184131	-38.063663
71	0x4389d535	275.66568
72	0x43a98ffd	339.1249
73	0x438dc635	283.5485
74	0x42ffffa1	127.999275
75	0x437ae870	250.90796
76	0x430ef68b	142.96306
77	0xc1dea8ac	-27.83236
78	0xc2a957f1	-84.67176
79	0x4390d895	289.69205
80	0x4398e338	305.77515
81	0x42062065	33.531635
82	0xc2b7b8c6	-91.860886
83	0xc21bd559	-38.958347
84	0x42ce0489	103.00886
85	0x43563ffb	214.24992
86	0x42948017	74.250175
87	0x411b3ed2	9.702837
88	0xc293def6	-73.93547
89	0x4372edde	242.92917
90	0xc2ab2913	-85.58022
91	0xc34d94b6	-205.5809
92	0x4360efa4	224.9361
93	0x41b0ee0c	22.116234
94	0xc28e8f57	-71.27996
95	0x42d4a0e1	106.31422
96	0x43322735	178.15315
97	0x4305f9d3	133.97588
98	0xc28a5df9	-69.18354
99	0x3faf0fcc	1.3676696
100	0xc2b0a7a7	-88.327446
101	0xc2ca9d4c	-101.30722
102	0x41091a5c	8.568935
103	0xc20f4034	-35.8127
104	0xc32968ce	-169.4094
105	0x43dc6c90	440.84814
106	0x43be3b63	380.46396
107	0x42066297	33.59628
108	0x4300e84a	128.90738
109	0x4379be0c	249.74237
110	0xc3466979	-198.412
111	0x434f7174	207.44318
112	0x43259674	165.5877
113	0xc274f9e5	-61.244038
114	0x416cdf86	14.804571
115	0x42242038	41.031464
116	0xc1a4d202	-20.602543
117	0x42736334	60.846878
118	0x435f207e	223.12692
119	0xc1414284	-12.078739
120	0xc3393f9f	-185.24852
121	0xc1496f0f	-12.589614
122	0xc29f123f	-79.53564
123	0xc27f6e6e	-63.85784
124	0x42d4235b	106.06905
125	0x42084533	34.067577
126	0xc2c1ce51	-96.90296
127	0x43261b89	166.10756
128	0xc2afe816	-87.95329
129	0xc2aa5405	-85.1641
130	0x42dca632	110.3246
131	0xc2cc65db	-102.19894
132	0x4385e701	267.80472
133	0x4266c3b7	57.691128
134	0xc317327f	-151.19725
135	0xc287c196	-67.8781
136	0xc2a6aeef	-83.34167
137	0x42e76fed	115.718605
138	0xc28a830e	-69.25597
139	0xc22417a0	-41.02307
140	0x43e3a740	455.30664
141	0xc1502ab0	-13.010422
142	0xc0c34ea7	-6.103351
143	0x43841580	264.16797
144	0x431ae1fb	154.88274
145	0xc2c11939	-96.54926
146	0x4158080d	13.5019655
147	0x43772f9d	247.18599
148	0xc24457ad	-49.08562
149	0xc21fcbf2	-39.949165
150	0xc295ebb9	-74.960396
151	0x3f4b9441	0.7952309
152	0xc2a45e14	-82.18375
153	0xc2a352ac	-81.66147
154	0xc327b6af	-167.71361
155	0x432e1f1d	174.12154
156	0x4171cc03	15.112308
157	0x43512dc3	209.17876
158	0x430f1f7f	143.12303
159	0x430025c1	128.14748
160	0x4382fe43	261.98642
161	0x4395cd93	299.60605
162	0x411413b2	9.254808
163	0x422a4e34	42.57637
164	0x42bbe245	93.94193
165	0x43752314	245.13702
166	0x4319417b	153.25578
167	0x3f28bcb8	0.6591296
168	0x432edc07	174.85948
169	0xc33278fb	-178.47258
170	0x437bd973	251.84941
171	0xc2e52ef8	-114.591736
172	0xc298cae2	-76.396255
173	0x43529366	210.57578
174	0x4353c922	211.78568
175	0x424e7946	51.61843
176	0x43259eac	165.61981
177	0x4390e77b	289.80844
178	0x43c1b677	387.4255
179	0xc3390aad	-185.0417
180	0xc3015122	-129.31693
181	0xc1a18ca7	-20.193678
182	0xc29fb64c	-79.85605
183	0x439269e9	292.82742
184	0x43d16b9a	418.84064
185	0x4395f855	299.9401
186	0x4286ed86	67.46391
187	0xc365383f	-229.21971
188	0x43986aba	304.8338
189	0xc20d6412	-35.347725
190	0x43e813c1	464.15433
191	0xc2196e85	-38.35793
192	0x4410ff90	579.99316
193	0xc35c0967	-220.03673
194	0xc23b391d	-46.805775
195	0x436efc7e	238.9863
196	0xc3797aa2	-249.47903
197	0xc28f09f7	-71.51946
198	0xc2ebaf89	-117.84284
199	0x40a97934	5.2960453
200	0xbfe4e76f	-1.7883128
201	0x43951862	298.1905
202	0x439db297	315.39523
203	0xc2b6a867	-91.32891
204	0xc2079e5c	-33.904648
205	0xc327b275	-167.6971
206	0xc31f097c	-159.03705
207	0x43595e91	217.3694
208	0xc304ca3b	-132.78996
209	0x43a1ddc1	323.73245
210	0xc309cf87	-137.81065
211	0xc0f9615c	-7.7931347
212	0x415d8894	13.845844
213	0xc2160bff	-37.511715
214	0xc3829476	-261.15985
215	0x43f6a98a	493.32452
216	0x4439abc1	742.68365
217	0xc3486e80	-200.43164
218	0xc200893d	-32.13402
219	0xc2ef212e	-119.564804
220	0xc3220915	-162.03548
221	0x42ffd07b	127.90719
222	0x43bfcd3f	383.6035
223	0xc283b281	-65.84864
224	0xc276553b	-61.583233
225	0xc31479c4	-148.47565
226	0xc2e5088e	-114.51671
227	0x42df2580	111.57324
228	0xc29d9e48	-78.80914
229	0xc28d80ce	-70.75157
230	0xc31a8631	-154.52419
231	0x4389d3ba	275.6541
232	0xc2daec6e	-109.46178
233	0xc212cbd4	-36.69905
234	0x4298f13f	76.47118
235	0xc2785425	-62.082172
236	0xc182950f	-16.322783
237	0xc330a349	-176.63783
238	0x43941bce	296.21722
239	0xc22e0f0e	-43.5147
240	0x40a699d7	5.2062793
241	0x41e2d4c8	28.353897
242	0x4140ffe7	12.062476
243	0xc36b643c	-235.39154
244	0xc285eabc	-66.958466
245	0xc33c4710	-188.27759
246	0x43a344ba	326.53693
247	0x4200b0ef	32.172787
248	0x433fdf2b	191.87175
249	0x428a5822	69.172134
250	0xc215ce54	-37.451492
251	0x4385bc1c	267.4696
252	0x4303bf8e	131.74826
253	0xc28bcb1a	-69.89668
254	0x3fe0deed	1.7568032
255	0x4290940a	72.28914

tree_conv.3.weights.weight f4 [128, 256, 3]
0	0x425d9b8d	55.401905
1	0x401ee849	2.4829276
2	0xc28b0620	-69.51196
3	0xc1ed5c0e	-29.669949
4	0x415004d5	13.00118
5	0x420e1f3d	35.530506
6	0x4252cb97	52.69882
7	0x42aef0e6	87.470505
8	0x425e9ee0	55.65515
9	0xc12834ca	-10.512888
10	0xc1fa0f28	-31.2574
11	0xc2b3dee4	-89.93533
12	0x428cdf17	70.43572
13	0x41c19a16	24.200237
14	0xc2c5151b	-98.54122
15	0xc19576ad	-18.682947
16	0xc22b58be	-42.836662
17	0x43b18d96	355.10614
18	0xc102d1da	-8.176233
19	0x42c1bfa9	96.87434
20	0xc3161002	-150.06253
21	0x431232a7	146.19786
22	0x41ee1850	29.761871
23	0xc297f3b4	-75.97598
24	0x41d322bd	26.391962
25	0x427b8cb4	62.887405
26	0xc2f735e6	-123.60527
27	0x42ba7eb1	93.247444
28	0x41fdcf12	31.726109
29	0x426e6615	59.59969
30	0xc1c18242	-24.188602
31	0xc1454c77	-12.331168
32	0xc2fc918e	-126.28429
33	0xc0a433e5	-5.131335
34	0x4299ef5e	76.967514
35	0x42c99867	100.79766
36	0x429b12cb	77.536705
37	0x4217f583	37.989758
38	0x4203e545	32.973896
39	0xc35d9717	-221.5902
40	0x41815daa	16.170734
41	0xc2c05adb	-96.17745
42	0x4390892c	289.07166
43	0xc22506d1	-41.256657
44	0xc0fc2957	-7.8800464
45	0xc22ebd8e	-43.685112
46	0xc1373c33	-11.452197
47	0xc30bda25	-139.85213
48	0x42b23584	89.10452
49	0x42b263c9	89.19489
50	0xc2fa4515	-125.134926
51	0x40b8e640	5.7781067
52	0x418028ec	16.019981
53	0xc288476b	-68.13949
54	0x429720d4	75.56412
55	0xc0873a09	-4.2258344
56	0xc224b766	-41.1791
57	0xc11b22d0	-9.695999
58	0x42ef66c3	119.70071
59	0x4222e4c6	40.72341
60	0xc1683e70	-14.515244
61	0x43374037	183.25084
62	0x440e90d7	570.2631
63	0xc304f4b0	-132.95581
64	0x4264674f	57.100887
65	0x42d4b068	106.34454
66	0x425eef36	55.733604
67	0x427f190d	63.774464
68	0x42aa271e	85.0764
69	0xc26f72e1	-59.862186
70	0x427cda1e	63.213005
71	0x4357eb94	215.92023
72	0x420405d7	33.005703
73	0x42c39fe1	97.81226
74	0x42ff2fe4	127.59354
75	0x4193a29f	18.454405
76	0xc12aa477	-10.665153
77	0xc2d0419c	-104.12814
78	0xc20d056d	-35.2553
79	0xc2830cf2	-65.52528
80	0xc2d0e1da	-104.44112
81	0xc22e7655	-43.61556
82	0xc21e522c	-39.580246
83	0xc2a5cd28	-82.900696
84	0x42fcbca8	126.36847
85	0xc288f8ee	-68.48619
86	0xc27781cb	-61.87675
87	0x430b9898	139.59607
88	0xc18c2bf6	-17.521465
89	0x41f961b0	31.172699
90	0xc1085ee0	-8.523163
91	0xc2cd221e	-102.566635
92	0xc28f68ac	-71.70444
93	0x42905afb	72.1777
94	0x418c84aa	17.564777
95	0x428ecbd3	71.398094
96	0xc37a4d87	-250.30284
97	0x437bd5a8	251.8346
98	0xc2f34d66	-121.65117
99	0x4284a9a5	66.33134
100	0x41b6bf03	22.843267
101	0xc2a92f2e	-84.59215
102	0x4223539b	40.831646
103	0x42c4a658	98.32489
104	0xc24761be	-49.84545
105	0xc2015781	-32.335453
106	0xc11cbc83	-9.796023
107	0x4286b523	67.35378
108	0xc07a0998	-3.9068356
109	0xc2f51987	-122.54986
110	0xc32fa82e	-175.65695
111	0xc1b49aa8	-22.575516
112	0xc0bd6538	-5.918606
113	0xc3603f82	-224.24808
114	0x42755eaf	61.342464
115	0x42391a21	46.275517
116	0xc21adde9	-38.71671
117	0x427fb7f9	63.92966
118	0x4085c726	4.18056
119	0x41cd1f51	25.640291
120	0x436c6268	236.3844
121	0xc19cdc41	-19.607546
122	0xc165da47	-14.36579
123	0xc2867f7a	-67.24898
124	0xc0609b6f	-3.509487
125	0xc29d7a7a	-78.73921
126	0xc2a9e8b9	-84.95454
127	0xc2b7d21e	-91.910385
128	0xc0e13c4a	-7.0386095
129	0xc2503c65	-52.05898
130	0x41b2d411	22.353548
131	0x4238e206	46.220726
132	0xc1d8c2ad	-27.095057
133	0xc0eeca42	-7.4621897
134	0xc28e27db	-71.07784
135	0xc3735394	-243.32648
136	0x4297d929	75.92414
137	0xc2dadafb	-109.4277
138	0xc1255e1d	-10.335477
139	0xc2b81439	-92.0395
140	0xc3583fa7	-216.24864
141	0xc2ba9f33	-93.310936
142	0x3fbec421	1.4903604
143	0xc232a894	-44.664627
144	0x411b3643	9.7007475
145	0x41364882	11.392702
146	0xc2b507e3	-90.5154
147	0xc22e4d76	-43.575645
148	0xbe1d9756	-0.15389761
149	0x421130c8	36.297638
150	0x41e73987	28.90309
151	0x428e585a	71.17256
152	0x42cd710d	102.7208
153	0x40b5060c	5.656988
154	0xc20dbeff	-35.43652
155	0xc2f2ed08	-121.46295
156	0x431fafc3	159.68657
157	0x42396e47	46.357693
158	0x428aca0f	69.394646
159	0x4162216b	14.133159
160	0xc18f9abd	-17.950556
161	0x41e69290	28.821564
162	0x430139d1	129.22585
163	0x42137614	36.86531
164	0x424846c3	50.069103
165	0x42b03714	88.107574
166	0xc18c5422	-17.54108
167	0x4282637e	65.19432
168	0x42318cc1	44.387455
169	0xc0bd0efa	-5.908078
170	0x421415da	37.02134
171	0x41feb3a6	31.837719
172	0xc1a49261	-20.571474
173	0xc2652a95	-57.291584
174	0x429a4936	77.14299
175	0x42cc6d84	102.2139
176	0x41593555	13.5755205
177	0x429817a9	76.04621
178	0x429d27ed	78.57798
179	0xc209217c	-34.2827
180	0xc24dd161	-51.45447
181	0xc22ac8ef	-42.696224
182	0xc2a59e19	-82.808784
183	0x425b8857	54.883144
184	0xc295591a	-74.67403
185	0xc2952abd	-74.58347
186	0xc192d9d7	-18.356367
187	0x42b0a56e	88.323105
188	0x443714f2	732.3273
189	0x42405960	48.08728
190	0x41294cb4	10.581226
191	0x4227d2da	41.95591
192	0x43070f77	135.06041
193	0x42589dad	54.15398
194	0x40e87e74	7.265436
195	0xc13e8fd9	-11.910119
196	0x430cb039	140.68837
197	0xc1a09449	-20.072405
198	0xc1ec3492	-29.52567
199	0x40a225ea	5.067128
200	0xc3001a63	-128.10307
201	0xc285f871	-66.98524
202	0x425a1153	54.51692
203	0x42422207	48.53323
204	0xc16f33c9	-14.950143
205	0x42217cdb	40.37193
206	0xc280e938	-64.455505
207	0x425b506f	54.82855
208	0x429f27c1	79.577644
209	0x427094ad	60.14519
210	0x41e61be7	28.763624
211	0xc1f80c47	-31.005995
212	0x4232f8fb	44.743145
213	0x427c6bb2	63.10517
214	0xc2667b6a	-57.62052
215	0x439bb8ea	311.44464
216	0x43602953	224.16142
217	0xc256425a	-53.564796
218	0xc19e47d0	-19.785065
219	0xc374bc96	-244.73666
220	0x4286e673	67.450096
221	0xc2db7bfd	-109.742165
222	0xc2bfabfd	-95.835915
223	0xc28ccb40	-70.39697
224	0xc2a1f596	-80.97966
225	0xbfe4b318	-1.7867155
226	0xc22c4cc8	-43.07498
227	0x43c57d18	394.9773
228	0x42c270d3	97.22036
229	0xc2806695	-64.200356
230	0xc1a1d3fb	-20.228506
231	0xc2901f29	-72.06086
232	0xc2832c94	-65.58707
233	0xc27fbb02	-63.932625
234	0xc1b8dba3	-23.107244
235	0xc2e3cf3d	-113.90476
236	0xc32e5342	-174.32523
237	0x437a62d6	250.38608
238	0xc1288631	-10.532762
239	0x433389bf	179.53807
240	0xc2596b5f	-54.354855
241	0x41926cf7	18.303205
242	0x44092087	548.50824
243	0x4309f941	137.97365
244	0x425da815	55.414143
245	0x42888278	68.25482
246	0x41b375cf	22.432524
247	0xc1d4b66f	-26.589079
248	0xc28b4bef	-69.64831
249	0xc17c3722	-15.76346
250	0x419c91d4	19.571205
251	0x42b95af8	92.67767
252	0x41e0f16f	28.117887
253	0x4216e318	37.72177
254	0xc28bdaba	-69.9272
255	0x4349b238	201.69617

tree_conv.3.weights.bias f4 [128]
0	0x419224b5	18.267923
1	0xc3847520	-264.91504
2	0xc30c10c8	-140.06555
3	0xc31a1056	-154.06381
4	0x41c0135d	24.009455
5	0xc2c4afe7	-98.34356
6	0x41a693c9	20.82216
7	0x41906a12	18.051792
8	0xc2d58d10	-106.77551
9	0xc316a2fc	-150.63666
10	0xc07d4fd0	-3.9579964
11	0xc101efb4	-8.121021
12	0x4355267c	213.15033
13	0x42a189e9	80.769356
14	0xc072b1c2	-3.7920995
15	0x41a56900	20.67627
16	0x43842755	264.30728
17	0x429190ac	72.78256
18	0x43ad2605	346.29703
19	0xc2078df0	-33.88861
20	0x41ac962a	21.573322
21	0xc20ca24b	-35.15849
22	0xc2db5a1a	-109.67598
23	0x418fab49	17.958635
24	0xc2e21f0d	-113.060646
25	0xc13be1b9	-11.742608
26	0x431d7f55	157.49739
27	0x4342d2f2	194.824
28	0xc1d76b8e	-26.927517
29	0x40e47520	7.1392975
30	0xc0da1ebb	-6.8162513
31	0x4363e06c	227.87665
32	0x4296387d	75.11033
33	0xc2882127	-68.06475
34	0xc330e6a3	-176.90092
35	0xc276c0cb	-61.688274
36	0xc112e3fc	-9.18066
37	0x43ec5416	472.65692
38	0xc1e542b0	-28.657562
39	0xc26aed0d	-58.731495
40	0xc22c218e	-43.03277
41	0xbf6977b4	-0.9119828
42	0xc295caac	-74.89584
43	0xc29df70d	-78.98252
44	0x42968301	75.25587
45	0xc13d7f2d	-11.843549
46	0x435a3181	218.19337
47	0xc2ceb67f	-103.35644
48	0xc23877b6	-46.116905
49	0xc3280e0c	-168.05487
50	0x429acd60	77.40112
51	0xc24f2997	-51.790615
52	0xc2178508	-37.879913
53	0xc2d4d85d	-106.422585
54	0xc2c94731	-100.639046
55	0xc2aabeac	-85.372406
56	0x42005f1c	32.09288
57	0xc2800f3e	-64.02977
58	0xc14beb14	-12.744892
59	0xc3217ee3	-161.49565
60	0xc272344e	-60.55108
61	0x40e5e7c0	7.18454
62	0xc2c92d71	-100.58875
63	0x425a15a8	54.52115
64	0xc289aecd	-68.84141
65	0x435874b8	216.45593
66	0xc27bdd42	-62.966072
67	0x41830ff0	16.382782
68	0xc2f38cc0	-121.7749
69	0xc387660f	-270.79733
70	0xc38e2969	-284.32352
71	0xc348b34a	-200.70035
72	0xc26f7a3d	-59.869373
73	0x43199afe	153.60544
74	0xc26e0c5b	-59.512066
75	0x439d0b6f	314.08932
76	0xc27c447f	-63.06689
77	0xc386370e	-268.4301
78	0xc13e13f8	-11.879875
79	0x42f314bb	121.54049
80	0x430db069	141.6891
81	0xc2ccf8e4	-102.486115
82	0xc285f002	-66.968765
83	0xc2136ad1	-36.854313
84	0xc2eda21c	-118.81662
85	0x420162e1	32.34656
86	0x42e3acf8	113.83783
87	0xc2859da6	-66.80791
88	0xc20ceda7	-35.232082
89	0x4397c1b7	303.5134
90	0x42bc6781	94.202156
91	0xc2ae6d3a	-87.21333
92	0x43d2ed6f	421.85495
93	0xc29427d1	-74.07777
94	0xc16a4869	-14.642678
95	0xc24b1a36	-50.775597
96	0xc2cb480f	-101.64074
97	0x4309d6ec	137.83954
98	0xc2f17de2	-120.745865
99	0xc2c5e061	-98.93824
100	0xc2219056	-40.390953
101	0xc29fd3d8	-79.91376
102	0xc25b883e	-54.88305
103	0xc266a824	-57.6642
104	0xc320a526	-160.64511
105	0xc33e0161	-190.00539
106	0x4277c7a5	61.944965
107	0x42b2d827	89.42217
108	0xc2e3258d	-113.57334
109	0xc13c002f	-11.750045
110	0x41f085db	30.06536
111	0x42952d8f	74.58898
112	0xc2c8e126	-100.43974
113	0x423d5f98	47.343353
114	0xc24f9050	-51.89093
115	0xc23b8c2e	-46.886894
116	0x4087b505	4.240847
117	0x439acd35	309.60318
118	0xc290c49e	-72.38402
119	0xc2e1738e	-112.72569
120	0xbf9b11fe	-1.2114866
121	0x41fbbd5e	31.467464
122	0x433a599c	186.35004
123	0xc14b7751	-12.71663
124	0x4311e714	145.90265
125	0xc2724059	-60.56284
126	0x41ac6531	21.54941
127	0x42b32e2f	89.5902

tree_conv.6.weights.weight f4 [64, 128, 3]
0	0xc1a8c7d2	-21.097569
1	0x42bee13f	95.43993
2	0xc2bf7264	-95.72342
3	0xc3101e58	-144.11853
4	0xc318af42	-152.6846
5	0x4373b657	243.71227
6	0xc1cd2c13	-25.64652
7	0x4153f063	13.246188
8	0x3ee7cb97	0.45272514
9	0x426a76c9	58.616
10	0x42a82e16	84.09001
11	0x42420fdb	48.515484
12	0xc22ecb36	-43.69845
13	0x423e37ce	47.554497
14	0xc27ed125	-63.704243
15	0x42a6bd5e	83.36986
16	0x42173375	37.80025
17	0xc2d9da01	-108.92579
18	0xc2b0a881	-88.32911
19	0xc35f2218	-223.13318
20	0xc28c4126	-70.12724
21	0x436cb01f	236.68797
22	0x4207d38e	33.956596
23	0x429c9253	78.28579
24	0xc1dd96ff	-27.698729
25	0x402c17b0	2.6889458
26	0x42854480	66.63379
27	0xc10ac209	-8.672372
28	0xc10a12c7	-8.629584
29	0xc0ad984d	-5.4248414
30	0xc21893e3	-38.14442
31	0x430e9f4e	142.62228
32	0x40a6a7e5	5.207995
33	0xc0914513	-4.539682
34	0xc280fdf1	-64.49598
35	0x42247906	41.118187
36	0x41f456a0	30.542297
37	0x422af3a6	42.737938
38	0xc2098d89	-34.388218
39	0xc222bd27	-40.68472
40	0xc3308537	-176.52037
41	0xc2199af7	-38.401333
42	0xc2dc6ce7	-110.2127
43	0x42fc1fb6	126.061935
44	0xc3022044	-130.12604
45	0xc2d8c144	-108.37747
46	0xc34742aa	-199.2604
47	0x431ce222	156.88333
48	0x432a9278	170.57214
49	0x42bb3319	93.5998
50	0x4062ca13	3.5435836
51	0xc1898bcb	-17.193258
52	0x42dae559	109.447945
53	0xc2a22cc0	-81.0874
54	0x4270e4de	60.223503
55	0xc18e0085	-17.750254
56	0xc179468d	-15.579724
57	0x418c8977	17.567122
58	0x428e2715	71.07633
59	0x43083875	136.22054
60	0x4142e487	12.180793
61	0xc18d6539	-17.674425
62	0xc1981414	-19.009804
63	0x42053855	33.30501
64	0xc257be1a	-53.935646
65	0x42c40502	98.00978
66	0xc2682342	-58.03443
67	0xc343940f	-195.57835
68	0x427335b8	60.80246
69	0x41867f29	16.81209
70	0x3fde7059	1.7378036
71	0xc1a1d260	-20.227722
72	0x40f7cbe1	7.7436376
73	0xc2889998	-68.29999
74	0x423a4166	46.563866
75	0x41b0e2da	22.110767
76	0x42bd5537	94.666435
77	0x42014511	32.317448
78	0x425726db	53.787945
79	0x42a80bf1	84.02332
80	0xc24ac383	-50.69093
81	0x42aa521a	85.160355
82	0xc1d76448	-26.923965
83	0xc1aaebf2	-21.365208
84	0xc26eed2f	-59.731625
85	0x41a9d733	21.230078
86	0x425ebfe0	55.687378
87	0xc28714b8	-67.54047
88	0xc32efef6	-174.99594
89	0x42fb6b0b	125.70907
90	0xc11e0f02	-9.878664
91	0xc1838331	-16.439058
92	0x41a47a97	20.559858
93	0x4260b0bb	56.17259
94	0xc0b8773d	-5.7645555
95	0x3e7e639a	0.24842682
96	0x42a8a98d	84.331154
97	0xc1dd4d48	-27.662735
98	0xc2894c61	-68.64918
99	0x41012b72	8.073107
100	0x4323371b	163.21526
101	0x42692b3c	58.29222
102	0xc2c76fbd	-99.71824
103	0x423a907e	46.641106
104	0x4311faa1	145.97902
105	0x41f76164	30.922554
106	0xc183cef3	-16.47605
107	0x42c67520	99.22876
108	0xc22cc723	-43.19447
109	0xc31b2ee3	-155.18315
110	0x41400d74	12.003284
111	0x422a4459	42.566746
112	0x42905e5e	72.18431
113	0xc2ae1dd7	-87.05828
114	0xc176dc2f	-15.428756
115	0x418e6820	17.800842
116	0xc25495c4	-53.146255
117	0x42732935	60.79024
118	0x4301b3ce	129.70236
119	0x426bae0d	58.91997
120	0xc1fbe794	-31.488075
121	0x42865c09	67.179756
122	0x4308766a	136.46255
123	0x42e8336b	116.100426
124	0x418d46ae	17.659512
125	0x4024ab1e	2.5729442
126	0x438651f3	268.64023
127	0x42ee8559	119.260445
128	0xc28b2b72	-69.584854
129	0x42231568	40.770905
130	0xc28adf29	-69.43586
131	0x42bb1244	93.535675
132	0xc361bf3d	-225.74702
133	0xc334813a	-180.50479
134	0x42d23941	105.111824
135	0xc2840c2b	-66.023766
136	0x428fb9be	71.86278
137	0xc28e45c9	-71.1363
138	0x426cb06d	59.17229
139	0x430c8a91	140.54128
140	0xc110b28b	-9.04359
141	0xc1a9fffd	-21.249994
142	0x426e665d	59.599964
143	0x4240c70a	48.194374
144	0xc103e889	-8.244271
145	0x4001d1c6	2.0284286
146	0x427e96da	63.647316
147	0x41284618	10.517113
148	0x417ad0d2	15.6759815
149	0x42570717	53.756924
150	0xc243eeb9	-48.983128
151	0x41fdaf97	31.710737
152	0xc2957c0a	-74.74226
153	0xc242f79e	-48.741814
154	0xc3102746	-144.15341
155	0x420333d4	32.800613
156	0xc21db716	-39.428795
157	0xc30137b7	-129.21764
158	0xc1eded62	-29.74091
159	0xc350d179	-208.81825
160	0xc2b48cb5	-90.27482
161	0x4374da61	244.85304
162	0xc1119d58	-9.100914
163	0x41813626	16.15144
164	0xc1cec1bc	-25.844597
165	0x41f3bea7	30.468092
166	0xc2904a56	-72.14519
167	0x4256f260	53.736694
168	0x412fbd31	10.983689
169	0xc2a12a4a	-80.582596
170	0x420e56ae	35.58465
171	0xc221d14d	-40.454395
172	0xc2bbe765	-93.95194
173	0x4335e123	181.87944
174	0xc216298f	-37.540585
175	0xc3531c8d	-211.11153
176	0x42a9b9f6	84.863205
177	0xc33f3274	-191.19708
178	0xc310a84f	-144.65746
179	0xc1d2be46	-26.342907
180	0x429f8f15	79.77946
181	0x4091f114	4.5606785
182	0x428411f3	66.03506
183	0x426098ba	56.149147
184	0xc2ce76fc	-103.23239
185	0xc288fec4	-68.49759
186	0xc2124d10	-36.575256
187	0x42282b3c	42.04222
188	0xc00126b8	-2.0179882
189	0xc12173cc	-10.090771
190	0x41f17949	30.184221
191	0x42399470	46.39496
192	0xc1a10558	-20.12761
193	0x4337a143	183.62993
194	0xc255179a	-53.27305
195	0xc307c014	-135.7503
196	0x41ca5599	25.291796
197	0x42a5821d	82.75413
198	0x42100dca	36.013466
199	0xc292569f	-73.16918
200	0x427ca73b	63.16331
201	0x41cdca1b	25.723684
202	0xc0b61b23	-5.6908126
203	0xc232343e	-44.551018
204	0xc2fceace	-126.4586
205	0xc3124368	-146.2633
206	0x427c9053	63.14094
207	0xc2f30a7f	-121.5205
208	0xc31d59fc	-157.3515
209	0x43671059	231.06386
210	0xc34b6bdf	-203.42137
211	0xc2a2f183	-81.4717
212	0x432e67c2	174.4053
213	0x41848dbe	16.56921
214	0x42d3ba48	105.86383
215	0x4217147f	37.770016
216	0x4231d688	44.459503
217	0x42f920d6	124.56413
218	0x42e2786c	113.2352
219	0x42c28f42	97.2798
220	0x42b8d6fc	92.41989
221	0x424dacae	51.418633
222	0x42456d58	49.35678
223	0x43125de2	146.36673
224	0x41e5c307	28.720228
225	0x4299f17b	76.97164
226	0x4182b791	16.339632
227	0xc2958828	-74.76593
228	0xc23c637f	-47.097164
229	0xc2f1e163	-120.94021
230	0x42f3251e	121.572495
231	0xc33269da	-178.41348
232	0xc32562b3	-165.38554
233	0x436d1dc6	237.1163
234	0x421a7637	38.615444
235	0xc29b1337	-77.53753
236	0x42eb3116	117.59587
237	0x4333a056	179.62631
238	0x425da0c8	55.407013
239	0x425eaf45	55.67116
240	0x426677c3	57.616955
241	0xc337749f	-183.45555
242	0x41191e45	9.56989
243	0xbf21beb2	-0.631816
244	0x41f91ac4	31.13807
245	0x41d0968d	26.073511
246	0x42898b64	68.77225
247	0xc19239d8	-18.278244
248	0xc031c25d	-2.777488
249	0xc1b555c8	-22.666885
250	0xc2988db2	-76.27675
251	0xc22566c1	-41.350346
252	0xc2bbf749	-93.98298
253	0x431bbe2c	155.74286
254	0x412566c3	10.337588
255	0xc26e15a3	-59.52113

tree_conv.6.weights.bias f4 [64]
0	0x4028a336	2.6349616
1	0x4284809f	66.25121
2	0x42c9891c	100.76779
3	0x430ecfc2	142.81155
4	0x40e2ad9b	7.083692
5	0xc25e1791	-55.523014
6	0xc249db1a	-50.463966
7	0xc1d3ca50	-26.473785
8	0x4056cbe3	3.3561943
9	0x3e0ba918	0.13638723
10	0x424ea18f	51.657772
11	0xbf0d39fa	-0.5516659
12	0x41c5cbc0	24.724487
13	0x4095c229	4.679951
14	0x42f115e7	120.54278
15	0xc2552a83	-53.291515
16	0x42bf02b7	95.5053
17	0x431bf2a2	155.94778
18	0xc0871d3c	-4.2223186
19	0x420441c6	33.06423
20	0x439d0384	314.02747
21	0x42383b05	46.057636
22	0x425a3aa0	54.55725
23	0x4202a8bc	32.66478
24	0x40f18f14	7.5487156
25	0x41920732	18.253513
26	0x4217ffc1	37.99976
27	0xbf07d904	-0.53065515
28	0x3fb6a913	1.4270347
29	0xc04b59b6	-3.1773505
30	0xc0d028a7	-6.5049624
31	0x433793c7	183.57726
32	0x41f091b9	30.071154
33	0x42813fb6	64.624435
34	0x40cf415a	6.4767275
35	0x422b3d09	42.809605
36	0x41f65152	30.789707
37	0x42d58e54	106.777985
38	0xc056b3cf	-3.3547246
39	0x41f6be77	30.843
40	0x40a6f6d6	5.2176313
41	0x435b9663	219.58745
42	0xc0cd723d	-6.420195
43	0x433abc04	186.73444
44	0xbe1dcebd	-0.15410896
45	0xc296f01a	-75.46895
46	0x4228db40	42.21411
47	0x4245b523	49.42689
48	0x411404ca	9.251169
49	0x40816ee6	4.0447874
50	0xc14e5225	-12.895055
51	0xc04c6182	-3.1934514
52	0x422ea5db	43.66197
53	0x40b17396	5.5453596
54	0x42ca55f6	101.16789
55	0x43304054	176.25128
56	0xc187e8b5	-16.988626
57	0x42c8230a	100.068436
58	0x426e4195	59.564045
59	0x417d652e	15.837202
60	0x4110347f	9.012816
61	0x42b62880	91.0791
62	0x41dfc4fc	27.971184
63	0x42bc4221	94.12916

tree_conv.9.weight f4 [32, 64]
0	0xc179db05	-15.615972
1	0x422207cb	40.50761
2	0xc12579b6	-10.342215
3	0x40f55635	7.6667733
4	0xc0aa5b3e	-5.323638
5	0xc1b52543	-22.643194
6	0xc0bfe459	-5.9966245
7	0xc2386692	-46.100166
8	0xc25fa11c	-55.907333
9	0xc1291502	-10.567629
10	0xc1653f38	-14.327934
11	0x40e80fc3	7.251924
12	0xc237d61d	-45.959095
13	0xc1d7b6ed	-26.96432
14	0x412fac19	10.979516
15	0xc195c678	-18.721909
16	0x418f77cf	17.9335
17	0x41e33237	28.399519
18	0x41d0a2bc	26.07946
19	0x407d3cf1	3.9568446
20	0x40cdcf1e	6.431533
21	0xc0da441b	-6.8208137
22	0xc23604e7	-45.504787
23	0xc1a91d03	-21.139166
24	0xc14296cc	-12.161816
25	0xc26b6448	-58.84793
26	0xc0a45e8d	-5.136542
27	0x41da109c	27.25811
28	0xc10fdc6c	-8.991314
29	0xc1c97084	-25.17994
30	0xc1b20c93	-22.25614
31	0x402bd4c9	2.6848624
32	0xc18b94b9	-17.447618
33	0x4196e116	18.859905
34	0x4105da35	8.365773
35	0x42152f26	37.296043
36	0xc2172ed2	-37.795723
37	0x40172af8	2.3619976
38	0xc1afeeda	-21.991627
39	0xc1d657aa	-26.792805
40	0xc1a8033f	-21.001585
41	0xc1dc1c0f	-27.5137
42	0x4124e0dd	10.304898
43	0x413f1434	11.942432
44	0xc0fa974c	-7.830969
45	0xbf20d160	-0.6281948
46	0xc173a35f	-15.2273855
47	0xc0f77b60	-7.7338104
48	0xc1e3b176	-28.46165
49	0xc1900e90	-18.00711
50	0xc162bb7d	-14.1707735
51	0x404acc34	3.1687136
52	0xc1f47f6d	-30.56222
53	0xc0f8778e	-7.764594
54	0x4128eb97	10.557517
55	0xc1937d15	-18.436075
56	0xc1eb41ef	-29.407194
57	0x419b29be	19.395382
58	0xc0c0bb2b	-6.0228477
59	0xc1bb75ac	-23.432457
60	0xc1ea94f1	-29.322725
61	0xc16e70f3	-14.9025755
62	0xc1e8425a	-29.032398
63	0xc18e4ff0	-17.789032
64	0xc0e86eb0	-7.2635117
65	0xc229107c	-42.266098
66	0xc097cc67	-4.7437015
67	0x422cf80a	43.242226
68	0x419d7003	19.679693
69	0xbf5e0d17	-0.86738724
70	0x409f2613	4.9733977
71	0x41ba070b	23.253439
72	0x41ba4119	23.281786
73	0xc1349c1f	-11.2881155
74	0xc112a38d	-9.164929
75	0xbfa8d637	-1.3190373
76	0x413ed918	11.928001
77	0xc0d1d55b	-6.5572944
78	0x4118df6a	9.554544
79	0x41749eb0	15.288742
80	0xc0b8d506	-5.776004
81	0xc1802cc7	-16.021864
82	0xc10cfe4c	-8.812084
83	0x40695340	3.6457062
84	0x412491ec	10.285625
85	0x4126dd60	10.429047
86	0x41a7fae8	20.997513
87	0xbf4094b2	-0.7522689
88	0xc1419015	-12.097676
89	0x426a425c	58.564804
90	0xbfa86c32	-1.3158019
91	0xc1b7cd69	-22.975298
92	0xc197e2c7	-18.985731
93	0xc0d362c0	-6.6058044
94	0x3f052888	0.5201497
95	0x41faae48	31.335098
96	0xc30cd34d	-140.8254
97	0x41c9efe6	25.242138
98	0x4214fedd	37.24889
99	0x4222d609	40.70902
100	0xc169ae9a	-14.605127
101	0xc1a705c1	-20.87781
102	0xc147edc1	-12.495545
103	0xc2bbca89	-93.89558
104	0xc164e551	-14.305985
105	0xc2347164	-45.110733
106	0x417cab89	15.791879
107	0x40d7977f	6.737243
108	0xc1245804	-10.271488
109	0xc2506610	-52.09967
110	0xc20f5ff9	-35.843723
111	0xc1c9c8b8	-25.223007
112	0xc16477ed	-14.279279
113	0xc11c15b3	-9.755298
114	0xc22fd80b	-43.96098
115	0x411a4b7b	9.643428
116	0xc16ec6fc	-14.92358
117	0xc175971f	-15.349395
118	0xc1ffe515	-31.986856
119	0xc16e390b	-14.8889265
120	0xc09afb8a	-4.8432055
121	0x419ec168	19.844437
122	0xc0e656df	-7.1981044
123	0xc2226485	-40.598164
124	0xbfa37c9f	-1.2772406
125	0x40cd862e	6.4226294
126	0xc1835ebc	-16.421257
127	0xc1a997fa	-21.199207
128	0xc23b35ae	-46.80242
129	0x3f9e9928	1.239049
130	0xc1b378ec	-22.434044
131	0x41165ecb	9.398143
132	0x3fee39cc	1.8611388
133	0xc22be1d5	-42.97054
134	0x428724e9	67.57209
135	0xc2538cbf	-52.887447
136	0x4174c74e	15.298658
137	0xc22cc2e7	-43.190334
138	0xc1bd5f13	-23.671423
139	0xc11ae469	-9.680764
140	0xc1c33a5d	-24.403498
141	0xc256f7b4	-53.741898
142	0xc20a68a9	-34.602207
143	0xc215dc5b	-37.46519
144	0xc133518c	-11.207409
145	0xc1c9ab59	-25.208666
146	0x422810f4	42.016556
147	0x409cf06c	4.9043484
148	0xc20ef9d9	-35.74399
149	0x41e29a91	28.325472
150	0xc0704703	-3.7543342
151	0xc23fe561	-47.974003
152	0xc265b2f5	-57.424763
153	0x4272a16a	60.65763
154	0xc211a107	-36.407253
155	0xc2020d4a	-32.512978
156	0xc275e0b7	-61.469448
157	0xc25fdfe8	-55.96866
158	0xc166024d	-14.375562
159	0x414e2394	12.883686
160	0xbdd1e157	-0.10248058
161	0x418a043d	17.25207
162	0xc23b3611	-46.8028
163	0x40dab4d9	6.834576
164	0xc2084ff7	-34.07809
165	0x41c70551	24.877596
166	0xc1a4da39	-20.606554
167	0x3f95cad7	1.1702527
168	0xc22884ea	-42.1298
169	0xc0ea4b14	-7.321665
170	0xc18b167c	-17.385979
171	0xc108c777	-8.548697
172	0xc20b68f9	-34.852512
173	0x40c9d11b	6.3067756
174	0xc20d4e82	-35.326668
175	0xc23e6bf8	-47.60544
176	0xc212f66c	-36.740646
177	0xc21fe1b5	-39.970417
178	0x413f55da	11.95846
179	0xc181f2c1	-16.243532
180	0xc2220e23	-40.513805
181	0xc2536816	-52.851646
182	0xc1f4592e	-30.543545
183	0xc2357d22	-45.3722
184	0xc1ebc47b	-29.470938
185	0x3fbc5427	1.4713181
186	0xc200e60c	-32.224655
187	0xc29f7f2a	-79.74837
188	0xc164027d	-14.2506075
189	0x41fe8869	31.816607
190	0xc2315be2	-44.33973
191	0xc1c14af7	-24.161604
192	0xc1ba0b39	-23.25548
193	0xc11f0982	-9.939821
194	0xbfd9b35e	-1.7007864
195	0x422e3d58	43.559906
196	0x407b795b	3.929282
197	0xc140f502	-12.059816
198	0x41ffa8de	31.957455
199	0x4198d457	19.103682
200	0xc232ac6e	-44.66839
201	0xc11c5176	-9.769888
202	0x3fb3ec98	1.4056578
203	0x41e1456e	28.158901
204	0xc14c8c81	-12.784303
205	0xc03d303d	-2.9560692
206	0xc159b905	-13.607671
207	0xc17f19b4	-15.943775
208	0xc1833ae4	-16.403755
209	0xc18ea52a	-17.830647
210	0xc21bc4e4	-38.942276
211	0xc15c39eb	-13.76414
212	0xbfc3ef38	-1.5307379
213	0x41a7a06e	20.953335
214	0x40e5461c	7.1648083
215	0x409237fb	4.5693336
216	0xc10b9d2c	-8.725872
217	0xc118a4e9	-9.540261
218	0xc0f25796	-7.5731916
219	0x40ed453c	7.4147015
220	0xc2083264	-34.04921
221	0xc080691d	-4.012831
222	0x42041a64	33.025772
223	0x41eed09f	29.851866
224	0xc2ddd25e	-110.91087
225	0x420b32fd	34.799793
226	0x41416d1b	12.089137
227	0x41b4d8ba	22.605824
228	0xc0ef4ca6	-7.4781065
229	0x41f1f729	30.245684
230	0xc24690e3	-49.64149
231	0xc2dd696d	-110.70591
232	0xc19685b4	-18.815285
233	0x41c5d6e7	24.729933
234	0x41a2b465	20.338083
235	0xc1f4e484	-30.61158
236	0xc19e0601	-19.752932
237	0xbfbc7f05	-1.4726263
238	0xc02b85fa	-2.6800523
239	0xc1dd23ec	-27.64254
240	0xc167c6a4	-14.485996
241	0x408ac1ad	4.336142
242	0xc278c514	-62.19246
243	0x422c5a11	43.087955
244	0xc1d208a5	-26.254221
245	0x4055afaf	3.3388479
246	0xc24080a9	-48.125645
247	0x40b9ccb8	5.80624
248	0xc11bf395	-9.746968
249	0x401356a4	2.3021631
250	0xc1a0d266	-20.102734
251	0xc131a9b9	-11.103936
252	0x4208ec01	34.230473
253	0x4213b958	36.931
254	0x401d6388	2.4592
255	0xc1f55c67	-30.670118

tree_conv.9.bias f4 [32]
0	0x3e086727	0.133206
1	0x417157bf	15.083922
2	0xc23d870b	-47.381878
3	0xc15d4abc	-13.830746
4	0xc21279a4	-36.61879
5	0xc2651874	-57.27388
6	0xc380b0e7	-257.38205
7	0xc2831563	-65.54177
8	0xc2f50a3a	-122.51997
9	0xc145c1ae	-12.359785
10	0x3ddb8859	0.107193656
11	0xc20b0184	-34.75148
12	0xc30418ad	-132.09639
13	0x415974a7	13.59098
14	0xc211f129	-36.485508
15	0xc20d640b	-35.3477
16	0xc2825a40	-65.17627
17	0x428c72a9	70.223946
18	0xc284a65e	-66.324936
19	0x4099bafc	4.8040752
20	0xc1768457	-15.40731
21	0xc207d985	-33.96242
22	0x43809dbd	257.23233
23	0xc2f37e95	-121.74723
24	0xc170b840	-15.044983
25	0xc0b4a54a	-5.645177
26	0xc30e970f	-142.59007
27	0xc318409e	-152.25241
28	0x41be91f0	23.821259
29	0xc13f8587	-11.970099
30	0xc21c0491	-39.00446
31	0xc200d444	-32.20729

tree_conv.11.weight f4 [1, 32]
0	0xbf88c03a	-1.0683663
1	0xc061bf5e	-3.5273051
2	0x411f4d1a	9.956324
3	0xc064d588	-3.575533
4	0x40495e95	3.1463978
5	0xbe8f39b7	-0.2797372
6	0xc21f2b93	-39.792553
7	0x411b20bf	9.695495
8	0x427d6a34	63.353714
9	0xbed698eb	-0.41913542
10	0x40936bb4	4.6068974
11	0xc1de382c	-27.777428
12	0xbf1f2dea	-0.62179434
13	0xc0af4973	-5.477716
14	0xc11716ed	-9.443097
15	0xbe048b8e	-0.12943861
16	0xc10edef0	-8.929428
17	0xc12b4db0	-10.706467
18	0xbe9bbe19	-0.3041847
19	0x41e6ce2e	28.850674
20	0xc09dc930	-4.930809
21	0x4036cc10	2.856205
22	0x421978b9	38.367893
23	0xc03bed53	-2.9363601
24	0xc0012257	-2.017721
25	0xc00cafc8	-2.1982288
26	0xc0087c69	-2.1325934
27	0xc21043e2	-36.06629
28	0x3e125544	0.14290339
29	0xbe00c17a	-0.12573805
30	0x3ff118fd	1.8835751
31	0x3f046cab	0.51728314
