src/Models/costmodelfirst.onnx (onnx, 681599 bytes, 15 tensors)

tree_conv.0.weights.weight f4 [256, 50, 3]
00000000: 8597 523d 63fa ba3c cf5d be3c 094a 3ebd
00000010: 2a45 1a3c d194 a2bd 2bac b1bc c530 073d
00000020: 9924 933d b7be a63d 0eec 8ebd 09ba 3d3c
00000030: d35d 0d3d 6459 c43c dd89 28bd 0c88 15bd
00000040: aedd 363d e912 a0bd 11dd debc f0af 883d
00000050: 9520 2e3d 9110 3a3d bd82 19bd 0ae6 1bbc
00000060: 2a0c c73b daf1 aa3c 5cf4 b7bc 50ae a23d
00000070: fbce fbbc 1440 493c 5eee 67bd 83f3 453c
00000080: 3baa d2bc e34f 1cbc 0aaa 863c db56 9cbd
00000090: 1189 913d 6983 993c 0e0f 36bc 6554 3dbd
000000a0: dc99 953d bd19 303d 59b7 07bd bdf0 063d
000000b0: a793 12bc a377 893c be6a 64bd 8e42 7dbd
000000c0: 9683 403b de67 043d 374e 4e3d e0d4 a6bc
000000d0: 51ee e3bc 00ab 3cbd 9fc3 0d3d 721b 29bd
000000e0: 93b0 073d d644 4c3d 308d 85bb c7ff 55bd
000000f0: efd0 13bd 2bf6 0bbd 73f6 123d 51a0 7b3c
00000100: b011 4bbd a946 ec3c 39e4 20bd 65d0 f0bc
00000110: cd30 abbc 4fe6 89bd 75a9 b33c 7815 90bd
00000120: 0475 1c3d 3017 003d 52ad a5bd 0846 a53d
00000130: 719e 093d bc99 313d f5aa fabc e1b5 103c
00000140: 2dfc a63d 5c80 083d a4bf 27bb dd14 62bd
00000150: 81f5 9cbd 73fa 47bd f4d7 983d 9a64 023d
00000160: 126c 423d 7e18 95bd 85ea 513d d935 6b3b
00000170: 21d2 4dbd 0ccf d6ba 76aa c23b 754e 75bd
00000180: 1ff7 93bd 5e9b 86bd 62cc 3cbd ecf3 5b3d
00000190: 19f1 23bd 0448 513d 3862 333d 4853 9d3d
000001a0: edf1 303d 1873 653d e714 84bc 7daa 93bd
000001b0: aeed b03c af52 c0bc 8353 bc3c 8434 5fbc
000001c0: a885 65bd 4d06 2abd 45f8 0c3d a79f 983d
000001d0: 6743 b53c a21c 953d 85fd 65bd 54ea 613d
000001e0: b516 9d3d cc14 e53b 971e 483c 6111 8f3d
000001f0: ec22 7f3d b384 a3bd 2151 623d 14db d2bc
00000200: a658 e53c 833a 8dbd e4f3 fd3c b16e a1bc
00000210: 6e5f 05bd 5336 873d 9131 db3a 74b0 47bd
00000220: 8d18 b33c 73bf 093d a62a 95bb 929c 19bd
00000230: 52b3 b8bb 666d 223d 484e 0c3d 5c2e 30bd
00000240: a4d6 9d3d a487 6ebd df9f 22bd deb3 353d
00000250: b4b3 a23d 8d21 983d 1972 34bc 39cf 833d
00000260: 2ce4 2abb 3d80 973d 7934 f9ba af5e 8cbd
00000270: 145b 663d 5831 393c b69e 263d 84ef 04bd
00000280: d3b1 593d 3a7f 073d b380 3abd e075 9e3d
00000290: d75e 13bd 6c18 9bbd 11fd a33d e100 93bd
000002a0: dc1d 1a3d e34c 7dbd 2ab0 49bd 6caf 2cbc
000002b0: e122 11bd 54c2 ca3c 7cb3 e93b 6a84 24bd
000002c0: 6d0d ae3c e5be 573d 831c 3d3d 01e0 5d3d
000002d0: 52a6 873c a23e 0b3c e109 e63c 2d98 43bd
000002e0: 9af8 1bbc ad11 fbbc 380a 79bc 95c9 efbc
000002f0: 9ae6 803d 62ac cebc 9768 e93b 469e 6d3d
00000300: dad4 9bbd 753e 7fbd da90 bcbc 965e 07bd
00000310: 441e dfbc 3d63 7a3d 7a13 01bd 5ea3 083d
00000320: 77c0 113d f7b1 dd3c 1167 893d 6216 803d
00000330: 2b96 86bd 1a2d 163d 41b8 543d 6301 cfbb
00000340: b609 4cbd fcbb 60bb 2575 a83b d56d 7d3d
00000350: 4ae6 58bd 8b9d ba3a 3c05 283d 9760 4f3d
00000360: f5d1 c0bc d8dc 563d c255 a2bd f542 8bbd
00000370: 8e9b 823d 7efd a4bd 31d7 b7bb 281f af3c
00000380: 3d50 e13c 28f2 a63d 7012 273d 18c3 24bd
00000390: a8a1 8e3d a63a 7d3c 12a4 7b3d 711f ce3c
000003a0: 260b d13a d2c5 7a3c 6265 df3b e9bc 493d
000003b0: 1f2a a43c 08cf 983d f241 1c3d 77dc 67bd
000003c0: 7e61 243d 4caa b8bc 607e 253d 5165 313d
000003d0: 5bdf 4cbd 3688 6a3d 1c22 52bd 3507 4fbb
000003e0: 0bd0 16bd 5d95 b4bc a5cc 3f3d 885c 4c3a
000003f0: ea41 0bbc 1461 9e3c dce1 153d a2ea 563d
0.05141403 0.022824472 0.02323809 -0.046457324 0.009415904 -0.07938541 -0.021688541 0.033005495
0.07184715 0.08141845 -0.069786176 0.011579999 0.034513306 0.023968406 -0.0411471 -0.036506698
0.044645004 -0.07816107 -0.027205022 0.066741824 0.04251154 0.045425955 -0.037478197 -0.009515295
0.006074448 0.020867277 -0.022455387 0.07943404 -0.030738344 0.012283344 -0.05662381 0.0120819835
-0.025715938 -0.009540531 0.016438503 -0.07633754 0.071062215 0.018739419 -0.011111988 -0.046223063
0.07304737 0.042993296 -0.03313384 0.03294443 -0.008946336 0.01678068 -0.05576586 -0.06183105
0.0029375306 0.032325618 0.05036756 -0.020365179 -0.027823599 -0.046061516 0.034610387 -0.04128594
0.03312738 0.049870335 -0.0040756688 -0.05224588 -0.036087926 -0.03417031 0.035879564 0.015358047
-0.049577415 0.028842287 -0.03928015 -0.029396245 -0.020897293 -0.06733381 0.02193139 -0.07035345
0.038197532 0.031272113 -0.08089699 0.08069998 0.033598367 0.043359503 -0.030599097 0.008832426
0.081535675 0.033325538 -0.0025596404 -0.055195678 -0.07664014 -0.04882283 0.07463065 0.031834222
0.047466345 -0.07280062 0.051249046 0.003589025 -0.050249223 -0.0016388609 0.0059407307 -0.059889276
-0.07224869 -0.06572603 -0.046093352 0.05369942 -0.04002485 0.05109407 0.04379484 0.076819
0.04319947 0.056017965 -0.016123248 -0.072102524 0.02159771 -0.023476927 0.02298904 -0.013623361
-0.056035668 -0.041509915 0.034416456 0.07452326 0.022126867 0.07280852 -0.05614998 0.055155113
0.07670347 0.0069910046 0.012214324 0.06985737 0.062289163 -0.07984295 0.05525315 -0.02573923
0.027996372 -0.06895926 0.031000085 -0.019706102 -0.032561712 0.066021584 0.0016723146 -0.048752263
0.021862293 0.033629846 -0.004552203 -0.037502833 -0.005636611 0.03965511 0.034254342 -0.04301296
0.07706955 -0.058234826 -0.039703246 0.044360988 0.07944432 0.07428274 -0.011013531 0.06436009
-0.0026075942 0.073975064 -0.001901283 -0.06853997 0.056239203 0.011303268 0.040678702 -0.032454982
0.053148102 0.033080317 -0.045532893 0.077373266 -0.03597912 -0.075730175 0.08007253 -0.07177902
0.037626132 -0.061840903 -0.04924027 -0.010539871 -0.035433654 0.024750866 0.007131992 -0.040165342
0.021246636 0.052672286 0.04616977 0.054168705 0.0165588 0.00849882 0.028080883 -0.047752548
-0.00951972 -0.030648077 -0.01520019 -0.029270926 0.06293984 -0.025228683 0.007123064 0.05801227
-0.076089576 -0.062315423 -0.02301829 -0.03304919 -0.027236111 0.061129797 -0.031512715 0.033358924
0.03558394 0.0270624 0.067091115 0.06254269 -0.06571611 0.036664106 0.05193353 -0.006317304
-0.04981395 -0.0034291735 0.005140918 0.061872322 -0.052953996 0.0014237625 0.041020617 0.050629225
-0.023537615 0.052456707 -0.07926513 -0.067998804 0.06377326 -0.08056162 -0.0056103696 0.021377161
0.02750408 0.081516564 0.040789068 -0.04022512 0.06964427 0.015455877 0.061435767 0.025161477
0.0015948757 0.015305953 0.0068175057 0.049252424 0.020039616 0.07461363 0.038148828 -0.056606736
0.04013204 -0.022542141 0.040403724 0.043309513 -0.050017696 0.057258807 -0.05130206 -0.003158999
-0.0368195 -0.022043878 0.046826024 0.00077957707 -0.008499602 0.0193334 0.03659235 0.052469857

tree_conv.0.weights.bias f4 [256]
00000000: 0ef8 48bd 91cd a13d 44ea a63d dd00 313c
00000010: e47b 92bd 0c91 8c39 3017 803d 22e3 df3b
00000020: b15e 8dbc 7aa5 8ebd 72c9 a53a 6f40 cebc
00000030: 4ef2 34bd f87a 6bbd 5d48 273d d9d7 143d
00000040: 6158 37bc b548 14bd 4e58 a6bd 47d9 6cbd
00000050: d757 3c3c 06b5 d73b b88a 0abd 6f3f 133d
00000060: c986 0a3d f87e ce3c ceb4 3ebd c1cf 93bd
00000070: 75e9 56bd a54c 9f3d 6077 38bd a7d8 5e3d
00000080: 0b5b 3bbd d125 ed3c e86c f53c 3137 41bd
00000090: 697e 7bbd 9b96 71bd f432 babb 401d a5bd
000000a0: 8daa 6f3d 8052 64bc 3e7f 9a3d b427 6eba
000000b0: b46e b2bb 2fbc 0b3d 9f01 163d bada 883c
000000c0: 5e89 2b3d a0f6 3c3d 29f0 373d 0e61 1c3c
000000d0: cbb0 973d 4374 09bd fa9f 013c 950f b7bc
000000e0: 73b2 4a3c 2f05 91bd 1146 3dbc bd2c 55bd
000000f0: 2b80 c5bc 6479 853d 57cb 27bd fae3 59bd
00000100: a2fb 1c3d ae87 6abd aee5 99bd 80ee 3abc
00000110: f375 443d df12 843d d2b8 9dbd 4183 043d
00000120: f12e a5bd 9aa0 0bbd adf0 eebc 8a40 33bd
00000130: 236c cabc 7261 1cbd a6f5 87bd 1172 8fbc
00000140: f594 b5bc bba7 c63b c650 45bd 2106 853d
00000150: 5190 813d be4f 7c3d b809 9dbc 4557 59bd
00000160: c350 cfbb b61d 7d3d 03cb 613d f82e 393d
00000170: ff1b 7fbb dab4 9a3d 4e91 a83c ace6 dabc
00000180: 1169 fc3b 0351 403a 5a06 823d c3e2 9b3d
00000190: 7ee4 3abd 72b8 ef3c b00e 84bd 1f59 d1bb
000001a0: f354 02bd ff66 ecbc bfe2 1abd 9aa4 f63c
000001b0: dce0 80bd 1d2f aab8 a65e 04bd 6488 883d
000001c0: 76ff 873c 1c0a 4f3d c631 42bc 2a81 a33c
000001d0: 86c8 bebc eea4 15bd d9bf 55bd d023 83bd
000001e0: f0a6 5fbd 4618 9bbd 821c 773d b097 543c
000001f0: dd24 583d cc76 533d d469 83bd 1034 493d
00000200: 6c1f b83c 9135 973d e634 93bd 8a28 acbc
00000210: da4b c8bc 97d9 8d3d 2b9f 673d 2126 b03c
00000220: 0edf 46bd 7e07 da3c dee9 243d 7d77 3bbd
00000230: 195f 983d fb4f 7fbd b5d8 8ebc 2713 99bb
00000240: b73e 0cbd b18e 40bd 50ee 8dbd d944 be3b
00000250: f227 fbbc c98b 50bd 53f5 39bc f659 a2bd
00000260: e9e8 a73c d008 9dbc a5cb a3bd 8c5f a53d
00000270: 0aeb 9cbd 0cec a03d 4831 8d3c 7102 813d
00000280: 9b32 6bbd 6729 f33c 4757 923d e781 453d
00000290: fb96 1dbd 0567 113c 0927 973d 80cc 513d
000002a0: f545 593d f87f 94bd 047d 353c 982a 193d
000002b0: 2f44 e53c d810 9fbd fe95 6a3d 2e44 c6bc
000002c0: f61b 173a 33e8 20bd 114b 333d a775 913c
000002d0: d5be 8c3d 5ad8 1b3d 00be 4cbc a2d6 85bd
000002e0: 5100 333d c0fd 8cbd 1bc1 993d 37af 5e3d
000002f0: 2d88 693d 57af 98bc e64f 233d 6b02 933d
00000300: 8351 31bc 6ae6 613d 4942 f7bc 741b 173d
00000310: d29f 583d 9953 93bb cb4b 303c e0a2 f63c
00000320: fdf1 3e3d df97 2abd 2cde 183d cd23 0bbd
00000330: 3f00 3b3d f2db 93bd 74dd b23c cfcd fd3c
00000340: 16f4 953d 8293 00bd 715d 67bd 2637 a93c
00000350: 903d 8fbd 1631 18bd 14e8 69bd af99 8c3b
00000360: 32ab 11bd 5d5c 3ebd 2118 903d c8d3 66bd
00000370: d835 4abc b98f 693d 4001 983d a7b0 9bbd
00000380: 17e5 babc e8bd 403d 739c 3c3c 2037 a23d
00000390: 1b3c ba3c 821b d03c 116c cebc ea7d 53bd
000003a0: ff71 2abd cb79 a9bb 211f 2d3d f8bd a2bc
000003b0: 40da 8bbd 1ba1 a13d ec5a 8b3c c9c5 5abd
000003c0: dafa 91bd 0675 773a a7f9 18bd 386f 833d
000003d0: 6402 80bc 5c96 a5bd 89ea 7bbd 582a 8439
000003e0: a3db 92bd b913 9e3c c2f3 933d deec ebbb
000003f0: 4f5f f03b 393d b43c 1cd1 a03c 46b8 b1bc
-0.04906469 0.07900537 0.08150151 0.0108034285 -0.071525365 0.0002681095 0.06254423 0.0068324963
-0.017257066 -0.06965156 0.0012648536 -0.025177209 -0.044176392 -0.05749032 0.040840495 0.03633866
-0.011190505 -0.03620215 -0.081223115 -0.0578244 0.011495552 0.006582859 -0.0338237 0.035949167
0.033819947 0.025207028 -0.046559148 -0.0721736 -0.052468736 0.07778291 -0.04503572 0.054405835
-0.045741122 0.028948696 0.029959157 -0.047171775 -0.06139985 -0.05898152 -0.0056823436 -0.080622196
0.05851226 -0.013935685 0.07543801 -0.0009084896 -0.0054453257 0.034115013 0.03662264 0.01670586
0.04187905 0.046133637 0.04490677 0.009544624 0.074067675 -0.03355814 0.007911677 -0.022346297
0.012371647 -0.07081067 -0.01155235 -0.05204462 -0.024108967 0.06517294 -0.040965404 -0.05319593
0.038325913 -0.0572583 -0.07514511 -0.011409402 0.047964048 0.06448912 -0.07701267 0.032351736
-0.08065594 -0.03408871 -0.029167498 -0.04376272 -0.024709767 -0.03817887 -0.066386506 -0.017510446
-0.022165755 0.0060624755 -0.048172735 0.064953096 0.06326354 0.061599486 -0.019169673 -0.053061742
-0.006326766 0.061795913 0.055125248 0.04521081 -0.00389266 0.07554026 0.0205771 -0.026721321
0.0077029546 0.00073362904 0.06348868 0.07611611 -0.045628063 0.029262755 -0.06448114 -0.006388798
-0.031819295 -0.028857706 -0.0378139 0.030107785 -0.062928885 -8.115007e-05 -0.032316826 0.066666394
0.016601305 0.05054675 -0.011852687 0.019959051 -0.023288976 -0.036534242 -0.052184913 -0.06403315
-0.054602563 -0.07572989 0.06032992 0.012975618 0.05276953 0.051626965 -0.064166695 0.049121916
0.02247592 0.07383264 -0.07187824 -0.021015424 -0.024450231 0.069262676 0.05654828 0.021502556
-0.048552565 0.0266149 0.040262096 -0.04576825 0.074400134 -0.062332135 -0.017437318 -0.0046714726
-0.034239497 -0.04701108 -0.0693022 0.005806547 -0.030658696 -0.05091456 -0.011349994 -0.07927315
0.020496802 -0.019169241 -0.079978265 0.08074865 -0.07662018 0.07857522 0.017235413 0.06299294
-0.057421308 0.029682828 0.07145553 0.048219588 -0.038474064 0.008874659 0.07380492 0.051220417
0.05304523 -0.072509706 0.011077169 0.037394136 0.027986614 -0.077668846 0.05727195 -0.024202432
0.00057643594 -0.039283942 0.04377276 0.017756296 0.06872336 0.038048126 -0.012496471 -0.065350786
0.043701474 -0.068843365 0.07507535 0.054366317 0.057014633 -0.018638296 0.03987112 0.071781956
-0.010822657 0.05515138 -0.030182974 0.036891416 0.05288679 -0.0044960496 0.010760258 0.030106962
0.046617497 -0.04164874 0.037321255 -0.03396969 0.04565453 -0.072196856 0.021834113 0.030981926
0.07321946 -0.031390674 -0.056485597 0.02065618 -0.06994164 -0.037156187 -0.057106093 0.0042907814
-0.035563655 -0.046474803 0.07035852 -0.056354314 -0.012341939 0.05702183 0.074221134 -0.07602053
-0.022814317 0.04705611 0.01151191 0.079206705 0.022733739 0.025403742 -0.025198014 -0.051633753
-0.04161262 -0.0051719896 0.042266015 -0.019865975 -0.06828737 0.078920566 0.017011128 -0.05341128
-0.07127924 0.000943974 -0.037347462 0.06417698 -0.01562614 -0.080853194 -0.061502967 0.0002520855
-0.07170799 0.019296514 0.072242275 -0.0071998676 0.0073355804 0.02200185 0.019630961 -0.021694314

tree_conv.3.weights.weight f4 [128, 256, 3]
00000000: a58e 08bd 77df 92bb 724a fbbc 403a 873c
00000010: 6b57 c5b9 74b3 af3c 8531 edbc 5281 be3c
00000020: 0a80 a6bc 7803 0a3d 694a 053d 0f97 e439
00000030: 3ed8 093a 47bc ce3c 33a6 b63c 49bf 21bc
00000040: e095 67bb 3c19 42bb da52 603c 2add 843c
00000050: a76a 873c b1a9 bdbb 02fe abbc 13fb bcbc
00000060: 93a8 c33c cc09 c03c 79e0 23bc 1952 e83c
00000070: 13d8 92bc ce4c e2bb 7f9e 0ebc 5bd1 a13c
00000080: 2172 9ebb 747a 183d 1f8c 92bc 3e6d 0c3d
00000090: 41a2 053d 75c9 d93c b819 133d 678f e7bc
000000a0: 1ef8 1ebb f2c9 e2bc 8297 ff3c 380c f43c
000000b0: 52a2 91bb 2d72 a63b 46d3 eabb 54e1 c5bc
000000c0: 2d98 943c 8809 87bc 3646 9ebc 689c 1b3c
000000d0: 6490 933b 63dc 80bc 4b81 8fbc eeef 7d3b
000000e0: db89 af3c d122 223c d3c5 4abc ad2b d53c
000000f0: bad4 8c3c ee08 a83c b6c7 15bc 9860 c43c
00000100: a992 903a 3c37 ecbc 494a a3bc 773f 0f3c
00000110: 9eaa a2ba ac97 1abc 0181 e0bb fdb1 c9bc
00000120: 54e4 e73c 51a0 673c a0ae 9b3c 7b49 93bc
00000130: 86dd 813c 7c36 7d3c 75c6 0f3d 3810 a63c
00000140: 2c61 c7bc 7cc2 af3c a176 d7bb 0774 1abc
00000150: db2b de3b 7f45 b23c 65ae 4bbc b2bc adba
00000160: 6fe6 813c 92b1 1d3d 1007 003d 5b8c 88bc
00000170: 38d7 b5bc db31 9dbc 4734 50bc 0f0c 363d
00000180: 5e1f 193d 6d82 f9bc ed7b 1d3d ea36 bb3b
00000190: c189 993c fd00 8c3c d6ba 05bd dde4 d63b
000001a0: 44d4 dc3b 5e76 d5bc 2a0e 80bc a0a2 333d
000001b0: 7f90 afbb 1c23 edbc 1549 7cbc 3230 183d
000001c0: 8fa4 1c3d 890b 063d 5d52 363c bf6a 313c
000001d0: 2a8f e33a efb4 c6bc 2224 8ebc b84f 333d
000001e0: 34a9 42bc f46a 053d dcc6 cb3c 5576 043c
000001f0: 5237 ab3c f115 403c 48e6 debc 4eff 273b
00000200: c717 073d a29c 97bc 5630 02bd 2c8f 15bb
00000210: d18a cbbc 1d41 06bd e8d1 3b3d 2391 f4bb
00000220: f6c3 cbbb 0f5f bcbc 5d85 9fbb 9dc8 f13a
00000230: 63ec 0abd 451d 843c 19d1 78bb bcbd a2bb
00000240: 8ddf 02bd 71fa b2bc 655c 353d f181 89bc
00000250: 37f8 76bb 5569 0c3c 2349 403a 9df7 c5bc
00000260: b2f8 03bd 1a76 96bc 7607 ee3c 3b6b df3c
00000270: 87e4 b1bc 37e4 c9bc 7e21 033c 1e86 25bb
00000280: 7e11 023d 87aa 2abc 3c49 cfbc 5e89 a3bb
00000290: c1a7 793c f779 f7bc 9d6f aa3c d07d 62bc
000002a0: 8839 ba3c 63fd fe3c 11d4 13bd e525 e93c
000002b0: e973 643c a349 80bc 631e e63c 994d 02bd
000002c0: 2106 10bd 6be9 48bc d590 0cbd 997a ec3c
000002d0: 7098 2f3c 8896 003d 7382 afbc 065e 3f3c
000002e0: 11c2 a93c 744d 8c39 93cf d0bb 5869 8a3c
000002f0: d4bb 10bc 2c57 01bd 5768 3f3c d4ca a73c
00000300: 8d82 c93b 75d4 aebc 73c8 823c c9fe f0bb
00000310: f53f 04bd 404e c83c 20f4 ddbc c51f 033d
00000320: 0063 47bc a323 f7bc 1fff c93c 9643 7d3c
00000330: 64d1 bbbc 1ef3 a2bc 8e21 8e3c 1938 3abc
00000340: add6 54bc 5557 5ebc 1512 fbbc 69e2 8bba
00000350: 8e1f 19bc 1336 f53c 037c 59ba 1acc 8b3c
00000360: cde5 e43c 6479 07bd 222e e13c f60a 5d3c
00000370: 10f4 153c 806f ac3c 8df8 6abb ec51 e93b
00000380: 04cf db3c 21fc 983c 999a 883a f1e8 04bd
00000390: f2a8 563c 3cdd a4bb 120b 153c 40f3 47bb
000003a0: 9b12 943c 8c53 0dbb 3586 a2bc ddfd 243b
000003b0: 03bf b3bc cfd2 0a3d 84fb e8bc 61cc 3b3c
000003c0: a6bd edbb b34a 743b 3add 83bc 3e97 a73c
000003d0: 55fb 6a3b 0072 463c 6e4e 1a3d 13a1 043d
000003e0: 03e7 9e3b 30fe bd3c c616 4ebb a4b8 bf3c
000003f0: 3a81 ae3c 0dbc 7bbc 5113 4d3c 291e 02bc
-0.03333916 -0.0044822055 -0.030675147 0.016507268 -0.000376399 0.021447875 -0.028954277 0.023255024
-0.020324726 0.033694714 0.032541666 0.00043600096 0.0005258358 0.025236262 0.022296047 -0.009872266
-0.0035337135 -0.0029617092 0.013691628 0.01621874 0.016530348 -0.005788051 -0.020995144 -0.02306894
0.023884093 0.023442172 -0.010002249 0.02835946 -0.017925298 -0.0069061285 -0.008704781 0.019753149
-0.0048353826 0.037226155 -0.01788908 0.03428387 0.03262544 0.02658532 0.0359132 -0.028266622
-0.0024256776 -0.027684186 0.031200174 0.029790983 -0.004444399 0.005079529 -0.007166299 -0.024155296
0.01813897 -0.016484037 -0.019320589 0.009497739 0.0045032967 -0.015730089 -0.017517706 0.0038747746
0.02142804 0.009895996 -0.0123762665 0.026021803 0.01719128 0.02051207 -0.009141853 0.02397184
0.0011030036 -0.028834932 -0.019932883 0.008743159 -0.0012410467 -0.009435575 -0.006851316 -0.024621004
0.028307118 0.0141373435 0.019004166 -0.017979374 0.0158527 0.015454885 0.035101373 0.020271406
-0.024338327 0.021455042 -0.006575421 -0.009427077 0.0067801303 0.021761654 -0.012431716 -0.0013255088
0.01585695 0.038499422 0.031256735 -0.01666849 -0.02219735 -0.019188812 -0.012707776 0.044445094
0.03738343 -0.0304577 0.038448263 0.0057133334 0.018742444 0.017090315 -0.032648884 0.0065580443
0.006739171 -0.026057418 -0.015631754 0.043856263 -0.0053578014 -0.028947406 -0.0153982835 0.037155338
0.038242873 0.032725845 0.011128035 0.010828673 0.0017361392 -0.024256198 -0.017351214 0.043777198
-0.0118811615 0.0325727 0.024875097 0.008084853 0.020900402 0.011723981 -0.027209416 0.0025634351
0.03298166 -0.018507306 -0.031784378 -0.0022820933 -0.024846466 -0.03277694 0.04585448 -0.0074635907
-0.0062184287 -0.022994546 -0.004868193 0.0018446628 -0.033916842 0.016127238 -0.0037966429 -0.0049664658
-0.031951476 -0.021847935 0.044277567 -0.016785594 -0.0037684569 0.008570035 0.0007335117 -0.024165923
-0.032219596 -0.018366862 0.029056292 0.027272811 -0.021715416 -0.024644954 0.008003591 -0.0025256942
0.031754963 -0.010416633 -0.025303476 -0.0049907407 0.01523775 -0.030209525 0.020805174 -0.013823941
0.022732511 0.031126684 -0.036090914 0.028460452 0.013943651 -0.015660113 0.028090661 -0.031812284
-0.035162095 -0.012262682 -0.03431781 0.028867053 0.010717496 0.031393558 -0.021424508 0.011680132
0.02072242 0.00026760588 -0.006372401 0.016895935 -0.008833844 -0.031577274 0.011682591 0.020482458
0.006149596 -0.021341542 0.015964722 -0.0073545915 -0.032287557 0.024451375 -0.027093947 0.03201272
-0.0121695995 -0.03016836 0.024657784 0.015458008 -0.022926994 -0.019891318 0.017349984 -0.011365914
-0.012990636 -0.013570626 -0.03064827 -0.0010672334 -0.009345902 0.029933011 -0.0008296372 0.017065097
0.027941609 -0.03307475 0.027487818 0.013491383 0.009152427 0.021049261 -0.0035853714 0.0071203616
0.026832111 0.018674912 0.001042205 -0.032448713 0.013101803 -0.005031256 0.009096878 -0.0030509979
0.018075278 -0.002156469 -0.019839386 0.0025175728 -0.021941667 0.03389245 -0.028440244 0.011462302
-0.007255274 0.003727597 -0.0160967 0.02045786 0.0035855372 0.012112141 0.037672453 0.032380175
0.004849316 0.023192495 -0.003144668 0.023403473 0.021301854 -0.015364659 0.012516812 -0.007941761

tree_conv.3.weights.bias f4 [128]
00000000: 5bab fb3c cffe f93a 122d a0bc 6dce a23c
00000010: 7706 003d 7e40 59bb 9446 173d 109f 68bc
00000020: d6d5 05bc ca96 443c b89d e43c 8402 22bc
00000030: 1fa0 22bc 0aa7 6d3c d4b9 d13c ff38 d4bc
00000040: aed7 b33c 35c6 823b cb0c c73c 2e91 29bc
00000050: 30b1 3c3c 9ba8 6fbc 6098 8d3c 7006 29ba
00000060: 1fa6 163d 2d86 92bc 5c29 02bd ccda 41bc
00000070: cafc 733b ad5f a63c 672f 87bc b981 813c
00000080: 7184 f43c 643d d73c 4b38 093b faf7 fbbc
00000090: 4e0d 983c 0c0d 073d f4d2 aabc 0ed5 e33c
000000a0: 2535 e93a dceb 043d 73d7 f53c 3a8b eebc
000000b0: 17fb b6bc 9d07 ec3c 3bd9 953c b6ab bdbc
000000c0: cef2 933c 58e6 8d3c 3bdb 3eba a6c6 43bb
000000d0: 1790 863c c048 55bc 843f 8d3c f1a4 803c
000000e0: 680a cc3c e556 7e3c 1732 083d 5743 c9bc
000000f0: e8e4 8e3c ba5d ab3c 24f5 973b c43c d6bc
00000100: b747 b73c 9513 05bd 3886 c4bc c9e3 353c
00000110: 65c2 b8bc ab7f cdbc d3f6 fd3a 21d7 e53c
00000120: 0494 1b39 9d35 08bd fe07 e83c b42a 733c
00000130: affa ca3c b7af 8c3b adff 8bba 370b 0e3c
00000140: 0047 ba3c 5d58 db3c 8ea6 91bc 5cd2 12bd
00000150: cad3 72bc 1a52 d73c b28e f9bc 2c61 3a3b
00000160: e2ae 9c3b 70ea 7a3c 6a62 9e3c a9d7 babc
00000170: 35c1 cabc 9743 463c c9ed 693c ae87 15bd
00000180: 0cf8 d43c 78c2 e03c 8fca fabc 15a4 f33b
00000190: 83dd 95bc 26d0 dc3a ea61 a7bc 2b50 3c3c
000001a0: 3f9f d03c 4842 f8bc 89fe 1fbd d6d3 103d
000001b0: 393f 98ba 8c19 0dbc 35a5 7039 b183 103c
000001c0: d4f3 e5bc 1cbf 403d 98e6 37bd 25d8 183d
000001d0: 45e6 0f3d c9a8 c5bb 0b89 ea3c f34b 203d
000001e0: 10b2 eabc 8918 cfbc 32ca 903a 02e5 043d
000001f0: 4341 d2ba c5fc dbbc b597 bbba 0c53 16bd
0.030721357 0.0019073131 -0.019552741 0.019873822 0.031256165 -0.0033150013 0.036932543 -0.01419808
-0.008168658 0.011998842 0.027907237 -0.009888295 -0.009925871 0.014505157 0.025601305 -0.025906084
0.02195343 0.0039909133 0.024298092 -0.010349555 0.011516854 -0.014627601 0.017284572 -0.00064477976
0.03677952 -0.017886246 -0.031777725 -0.01183195 0.0037229531 0.020309294 -0.016502095 0.015808927
0.02984831 0.02627439 0.0020938094 -0.030757893 0.018561032 0.032971427 -0.020852543 0.027811553
0.0017792328 0.032451496 0.03000996 -0.029119123 -0.022336526 0.028812224 0.01829206 -0.023153167
0.018060114 0.01732175 -0.00072805927 -0.0029873042 0.01642613 -0.013017833 0.0172422 0.01570365
0.024907306 0.015523647 0.033250894 -0.024568243 0.017443135 0.020918716 0.0046373773 -0.026152022
0.022373063 -0.032489378 -0.023989782 0.0111016715 -0.022553632 -0.02508529 0.0019375928 0.028056683
0.00014837092 -0.033254255 0.028324123 0.014841724 0.024777738 0.004293408 -0.0010681056 0.008669666
0.022738934 0.026775533 -0.017779615 -0.035845146 -0.014821002 0.026284266 -0.03046355 0.0028439267
0.00478159 0.015314683 0.019334037 -0.022807913 -0.024750331 0.012101076 0.014277884 -0.036506347
0.025997184 0.02743648 -0.030614166 0.0074353316 -0.018294102 0.0016846701 -0.020432431 0.011493723
0.02546656 -0.030305043 -0.039061103 0.035358272 -0.0011615522 -0.008612048 0.00022949728 0.00882046
-0.028070368 0.047057256 -0.044897646 0.037315506 0.03513171 -0.0060320836 0.0286298 0.03913493
-0.02864936 -0.025280254 0.0011046587 0.03244496 -0.0016041178 -0.026853928 -0.001431218 -0.036700293

tree_conv.6.weights.weight f4 [64, 128, 3]
00000000: 97bd fabb c694 a93c 3946 38bd 1e84 f23c
00000010: 234e 863c 0204 1c3d 8ecc 38bd 810a a13c
00000020: 9cb6 483b ecbb 353c 9cd6 8cbc c5e7 18bd
00000030: 6bd6 2d3d f636 373d 109d 223d 2cc3 323d
00000040: 588c 2f3d afab 323d cb46 07bd ab2e df3c
00000050: 2b96 5abb 8c1b b5bc 82c7 383c 003b 433d
00000060: e741 c3bc e5f4 4f3d f1ae 21bd 01a9 053d
00000070: 4cfc 02bd a45e fcbc 4015 05bd b147 a4bc
00000080: c7f1 e53a e536 ff3c f0a7 3abc 161e d9bc
00000090: 3d99 a7bc aafe 06bc 5b19 18bd c45c 36bc
000000a0: a022 6e3c 5109 763c 0142 0cbd f0e0 a9bc
000000b0: a938 12bc bd12 373d 239a 583b 44bc d23c
000000c0: 18c4 c13c 29ab 083d 734f dbbc e3ab 2f3d
000000d0: bb8f 95bc b230 c8bc a964 52bb 915d 0b3d
000000e0: 5da1 7fbc 3878 b7bc 41c7 11bd 387d 39bd
000000f0: d36a 023d ab03 9ebc f65a 8bbc 6604 903c
00000100: a672 3abd bb39 f33c 6cb3 4dbc 68e8 f33b
00000110: 5af6 50bd e502 943c d6dd ff3c 1751 d83a
00000120: bef6 9fbc cff6 413d 09ee 9f3c a0a2 07bd
00000130: da24 533c 0ccd 143c f1bc ec3c b75e 44bd
00000140: c1b0 d43c 5cc1 393d 12a1 28bc 67f1 f9ba
00000150: 748c eb3c 421a 18bd 2c7f 563d 5a34 38bd
00000160: 8801 183d a420 173d ec4b dd3b 03d0 0b3d
00000170: 731e 43bd 83f8 483d 9e86 f2bc 7f61 33bd
00000180: ab90 44bd c7d6 313c 0c31 74bc c28a a53b
00000190: 23c4 a93b 5281 193d e799 0ebd 5885 b73c
000001a0: 9213 7a3c 0946 c43b e381 89bc 8864 4cbd
000001b0: e55c 6a3c adbd 2b3d cc37 343c e1bd bdbb
000001c0: bc8c 56bc 0e2b b93c ca0e 923c 9858 bc3c
000001d0: 0942 4fbc 9c58 213d 7786 b23c 77b2 e4ba
000001e0: 22c7 0cbd 28ec 5fbc 6b31 40bd d24c 443b
000001f0: f20d 29bd c452 f43c bd09 2abd 172e 3d3a
00000200: 413d b7bc b62a 033d dc9b 373d 4149 96bc
00000210: 27b5 dabc 375d e2bc 0447 a8bc 0424 863c
00000220: de6d 3fbd 7bed 313c 9455 5bbc b7ba 3abb
00000230: 1f91 69bc 0bb1 923b becb a03c 89c4 70bc
00000240: 2295 92bc 9f33 0ebd 3d58 b43a d2b7 803c
00000250: 6e36 103d 42cb b13c 7c3c cf3c fee5 fb3c
00000260: 72bc ddba 63d6 b33c 5de6 23bd 3c0f eebc
00000270: 9d67 59bb 973f 2f3d 2c27 143d cbd9 9b3c
00000280: b275 003d a8b1 0cbb cffd 12bd f5d0 883c
00000290: 61d8 313d 619c 70bb 2683 9abb f48f bf3b
000002a0: 59d3 503d fae6 67bc 7075 023c 4173 3cbd
000002b0: fb7f 0abc 259e 09bd a7d1 623c 0002 a1bc
000002c0: 3161 bd3c 1798 093b 3e83 283d 7d4f b63b
000002d0: 3a45 c3bc 39e8 daba 383c 313d f0c1 183d
000002e0: cfad 923b 969d 603c be0b a8ba 60a5 54bd
000002f0: 5bea 10bb 331e 503c d857 dbbc 61af 94bc
00000300: 520b 35bd a417 93ba 234a 0bbb d14b ee3c
00000310: 320c 0d3d b6da 953b 08c7 40bd 7ddd c4bc
00000320: 092e 2d3d e70e f7bc 4471 663c 85ce 233d
00000330: 791b f7bc 8e89 2ebd 72b9 93bc 03fb 9f3c
00000340: 7e96 443d b2bf 82bc 07dc dbbc 9f21 a03c
00000350: 3382 ae3c 339a 39bc 5335 0abd dbc7 3f3c
00000360: d748 383d e358 893b c4c3 29bc 39e0 4a3c
00000370: 9781 313d e890 fd3c ee4c ed3b 4bea bdbc
00000380: e5d2 d6ba b44d 2c3d 4a96 923c e0f0 13bc
00000390: bbe5 00bd 6c12 33bd 9dff 443d 9e2c 50bc
000003a0: 7868 363d fb1c ce3c e2c6 543d 4083 55bc
000003b0: 1370 393d 65a9 c83b f825 36bd 1d42 b53c
000003c0: 197d 5ebc bc97 38bd b4f8 333d 3fa2 0dbc
000003d0: a919 fb3c bb13 85bc c985 3e3c 1009 8f3c
000003e0: bfb9 2f3d 0011 033d cc6c 27bd 25ff 16bd
000003f0: 61c1 873c 87cc d73b 9b42 2b3d 2c9e ab3c
-0.0076519954 0.020700824 -0.044988845 0.029604014 0.01639468 0.03808976 -0.045116954 0.019658329
0.0030626422 0.011092167 -0.017192177 -0.037330408 0.042440813 0.04473015 0.039700568 0.04364316
0.04285845 0.04362076 -0.033026498 0.027243933 -0.0033353667 -0.022107862 0.011278035 0.04766369
-0.023835136 0.05077066 -0.039473478 0.032631878 -0.03197889 -0.030806847 -0.03249097 -0.020053716
0.0017543369 0.031154105 -0.0113925785 -0.026503604 -0.020458812 -0.008239428 -0.037133556 -0.0111305155
0.014534622 0.01501687 -0.034242634 -0.020737141 -0.008924642 0.044695605 0.0033050857 0.025724538
0.023653075 0.033366356 -0.026771283 0.042888533 -0.018257013 -0.024437282 -0.0032103455 0.03402478
-0.015602437 -0.022396192 -0.035590414 -0.045285434 0.031840157 -0.019288858 -0.017011147 0.017580222
-0.045519494 0.029690614 -0.012554985 0.0074434765 -0.05101619 0.018067786 0.03123371 0.0016503659
-0.019526836 0.047354516 0.019522684 -0.033114076 0.012887204 0.00908209 0.028898688 -0.04794189
0.02596319 0.045350417 -0.010292308 -0.0019069136 0.028753497 -0.037134416 0.052367374 -0.0449718
0.037110835 0.036896363 0.0067534354 0.034133922 -0.04763646 0.049065124 -0.029605206 -0.04379415
-0.04798953 0.01085443 -0.014904272 0.0050519416 0.005180852 0.037476845 -0.03481474 0.02240245
0.015263455 0.005989794 -0.016785568 -0.04990056 0.014304374 0.041928936 0.010999631 -0.0057904576
-0.013095077 0.022603538 0.017829318 0.022991464 -0.012650021 0.039391145 0.021792633 -0.0017448206
-0.034369595 -0.013667144 -0.04692213 0.0029953015 -0.041273065 0.029824622 -0.041513193 0.0007216646
-0.022368075 0.032023154 0.044826373 -0.018345477 -0.026697708 -0.027632339 -0.020541675 0.016374595
-0.046735637 0.010859842 -0.013387103 -0.0028492638 -0.014255791 0.0044766716 0.019628402 -0.014695295
-0.017893378 -0.0347172 0.0013759207 0.015712652 0.03520816 0.021703366 0.025297396 0.030749317
-0.0016917123 0.021952813 -0.040014613 -0.029059999 -0.003317333 0.042785253 0.03617017 0.01902475
0.031362243 -0.0021468196 -0.035886582 0.016701201 0.043419246 -0.0036714303 -0.004715341 0.005846018
0.050982807 -0.01415419 0.00796257 -0.046008352 -0.0084533645 -0.033598084 0.01384393 -0.019654274
0.023117634 0.0020995194 0.041140787 0.005563675 -0.02383672 -0.0016701288 0.04327032 0.03729433
0.004476286 0.013709446 -0.0012820882 -0.051915526 -0.0022112343 0.012702513 -0.026775286 -0.018150033
-0.04420025 -0.0011222255 -0.0021253906 0.029088886 0.03443546 0.0045731915 -0.04706481 -0.024031395
0.04228023 -0.030158473 0.014065091 0.039991874 -0.030164467 -0.04261165 -0.018032763 0.019528871
0.047995083 -0.015960548 -0.026838316 0.019547282 0.021302318 -0.011328268 -0.03374226 0.011705364
0.04499134 0.0041915043 -0.010361616 0.01238256 0.043336477 0.030952886 0.0072418367 -0.023183009
-0.0016389756 0.04206629 0.017893929 -0.009029597 -0.031469088 -0.04371874 0.048095334 -0.01270595
0.044533223 0.025160303 0.051947482 -0.013031781 0.045272898 0.006123709 -0.044469804 0.022126252
-0.01357963 -0.04506658 0.043938354 -0.0086446395 0.030651884 -0.01624476 0.011628577 0.017460376
0.04290175 0.031998634 -0.04087524 -0.03686442 0.016571702 0.006585661 0.041811567 0.020949446

tree_conv.6.weights.bias f4 [64]
00000000: be95 143d 346f f03c d28b d8bb 0107 8f3b
00000010: 2a37 d43c ae48 4dbd 47d1 0a3d ed9d 463c
00000020: e6eb acbb ea1a 083d c708 363c c5b5 6ebd
00000030: b7db 0c3d dc16 95bc 33c9 193c 2557 3b3d
00000040: 4a77 883c 119d 21bd 2d28 473c 40d0 60bc
00000050: 46cf ab3b 1bc8 19bd 3a85 383c 15f6 483c
00000060: bb3d 0f3d 71d8 89bc d255 ec3c c366 763a
00000070: 4c02 fdbc a8d7 46bd 9268 da3c 1871 593c
00000080: 842a 0aba af47 46bc d92a 8cbb 5e19 013d
00000090: 9765 a13c 5d89 2bbd 6887 2abd e4a3 1bbd
000000a0: 0f66 74bd d5e5 243d 3349 4d3c b999 763a
000000b0: bd48 0b3c a18e e7bc cd16 f5ba 1321 b0bc
000000c0: b7e0 15bd 1ebc d83c 4c9b 113d 241e e3bc
000000d0: 10d7 3fbc ec30 ae3b 725e aebc 6d1c 37bc
000000e0: f3c5 103b 2618 dcbc 6042 3fbc 2749 6a3c
000000f0: ac96 69bd 8cc2 103d b383 a63c 1559 ac3c
0.036275618 0.0293499 -0.0066084648 0.0043648486 0.02590521 -0.05011814 0.03389099 0.012122613
-0.0052771447 0.033228792 0.011110491 -0.058278818 0.034389224 -0.018199377 0.009386349 0.045737404
0.016658444 -0.03945643 0.012155575 -0.013721526 0.005243215 -0.03754435 0.011262232 0.012265702
0.03497098 -0.01682684 0.028849516 0.0009399468 -0.030884884 -0.04854551 0.026661191 0.013271593
-0.00052706175 -0.012102052 -0.004277569 0.031518333 0.019701762 -0.041879047 -0.04163304 -0.037998095
-0.059667643 0.040258247 0.012529659 0.0009407062 0.008501229 -0.028266253 -0.0018698812 -0.021500146
-0.036591258 0.026456889 0.035548493 -0.027724333 -0.01170899 0.0053158905 -0.02128527 -0.011176211
0.0022090643 -0.026866984 -0.01167354 0.014299667 -0.057028458 0.035341784 0.020326471 0.021038571

tree_conv.9.weight f4 [64]
00000000: e68a 853f ffa5 853f 2397 853f 467d 843f
00000010: dee7 853f ac6e 853f 01b6 853f 6182 853f
00000020: e0de 853f a1a2 853f 1bb3 853f 2cb2 833f
00000030: 6d0f 853f f1a4 853f 65a1 853f 8cb5 853f
00000040: 4490 853f 43d0 843f 5646 853f 42e5 843f
00000050: 82fe 843f 412f 853f 427d 853f d07c 853f
00000060: fd9b 853f b82c 853f 3596 853f 6c43 843f
00000070: 1582 853f 20bb 843f 16e6 7f3f bcad 853f
00000080: 0089 853f 2e47 853f fb9d 853f 698f 853f
00000090: 283f 853f 1596 853f c581 853f 061f 853f
000000a0: fc14 853f 68c7 843f 4f94 853f 8a07 853f
000000b0: ce68 853f 8e4e 853f d999 843f d23e 853f
000000c0: 09b1 843f ed7a 853f b90b 853f db8e 853f
000000d0: 6d56 853f 5a2d 833f 6341 853f 3154 853f
000000e0: c7cd 853f 079c 853f 2c92 853f 257b 853f
000000f0: 8566 843f ab47 853f 9a85 853f 43fe 833f
1.0433013 1.0441283 1.0436748 1.035073 1.0461385 1.0424399 1.0446168 1.0430413
1.0458641 1.0440255 1.0445284 1.0288749 1.0395333 1.0440961 1.0439879 1.0446029
1.0434651 1.0376056 1.041209 1.0382464 1.039017 1.0405046 1.0428851 1.0428715
1.0438229 1.0404272 1.0436465 1.0333076 1.0430323 1.0369606 0.9996046 1.0443645
1.0432434 1.0412347 1.0438837 1.043439 1.0409899 1.0436426 1.0430228 1.0400093
1.0397029 1.0373354 1.0435885 1.0392926 1.0422609 1.0414598 1.035945 1.0409796
1.0366527 1.0428139 1.0394202 1.0434221 1.0417 1.0248215 1.041058 1.0416318
1.0453423 1.0438241 1.0435233 1.0428206 1.0343786 1.0412496 1.0431397 1.031197

tree_conv.9.bias f4 [64]
00000000: f109 1fbd 18d3 2dbd 4e42 37bc 9b62 8e3c
00000010: b196 1a3d f193 2bbd 0a3f 32bd 8544 dabc
00000020: 039c 153d 0b15 1abd 3148 1cbd 481e 733c
00000030: ae73 04bd f878 133d e684 23bd e3d9 283d
00000040: 0295 06bd 6646 2a3d 95f1 183d 3ba9 79bc
00000050: ad21 9b3c 17dd 22bd 041e 9d3b 4085 5cbc
00000060: 6114 173d 07fe 04bd a22b 163d 4e02 0ebc
00000070: 0129 f3bc 3017 7c3c 86ca 15bd 7e84 1d3d
00000080: d3fc 2abd 62e1 2cbd f2fa 093d 99cf 293d
00000090: 32b3 bcbc 1e71 12bd 8b71 00bd b5cd 19bd
000000a0: fe60 20bd 1f78 20bd 13af 0dbd dd4a 54bc
000000b0: a87a 12bd ee86 cc3c 8ff0 343b 1389 15bd
000000c0: 0648 debc 90db 0dbd 3b28 d93c 4c82 1cbd
000000d0: beca 20bd e45a 1b3d 9d04 2dbd 7122 00bd
000000e0: 7f61 0f3d 9e84 0b3b dee8 13bd b7f4 0d3d
000000f0: 4c6a da3c 4399 fa3c 5b26 22bd 540a 17bd
-0.03882784 -0.042437643 -0.011185242 0.017381003 0.037741367 -0.041889135 -0.04351715 -0.026644
0.036525737 -0.037617724 -0.038154785 0.014838763 -0.032336883 0.036004037 -0.039921664 0.041223418
-0.03285695 0.041571043 0.037339766 -0.015238102 0.018936956 -0.03976163 0.004794838 -0.013459504
0.03688467 -0.03246882 0.036662705 -0.008667542 -0.029682638 0.015386388 -0.036570095 0.038456433
-0.04174502 -0.04220713 0.033686586 0.041457746 -0.023034666 -0.03575241 -0.031358283 -0.037549693
-0.039155 -0.039177056 -0.034590792 -0.012957302 -0.035761505 0.024966683 0.0027609204 -0.036507677
-0.027133953 -0.03463322 0.026508441 -0.0382102 -0.03925585 0.037928477 -0.042240728 -0.031282846
0.03500509 0.0021288763 -0.03611075 0.034657206 0.026662014 0.030590659 -0.03958736 -0.036875084

tree_conv.9.running_mean f4 [64]
00000000: a9e4 e83f cd57 f43f 3add 1340 b968 da3f
00000010: 83c4 2f40 37ed 4d40 9a5a 0540 ce09 8740
00000020: efc8 5440 f246 af40 a833 1140 521a 6d40
00000030: b9e0 3740 37c6 2c40 481f 1c40 50cf 3840
00000040: 8f1c b13f 898b 6840 a0cb 4940 2fcf ea3f
00000050: cd5a e33f 39e7 2b40 5bbc 1940 bb4f cd3f
00000060: 9a7a d640 d636 1740 fdc3 9340 14a2 1240
00000070: c681 4b40 46a4 1740 9e40 0740 d099 7d40
00000080: 54ac 0a40 c68f ab40 e272 b940 3c3a 4840
00000090: b418 c440 e6ff c83f fbfa 7540 6c61 b43f
000000a0: 4330 9940 66d3 593e 7913 f23f a48b 2c40
000000b0: 91c8 ca3f dcd5 9840 c896 b840 8e4f 913d
000000c0: 1e04 2d40 8095 3540 eac0 b740 c16a f13f
000000d0: e99f 3a40 47ac 8040 e006 4640 6d83 0d40
000000e0: 8c83 cc40 9ac6 d93f 6f09 e03f 4906 ab40
000000f0: eae7 8640 a2ca b540 e1e0 ee3f 4271 2840
1.8194782 1.9089295 2.3103776 1.7063209 2.7463691 3.2176034 2.0836549 4.219947
3.324764 5.4774103 2.2687778 3.7047315 2.873091 2.699598 2.4394093 2.8876534
1.383684 3.6335166 3.1530533 1.8344477 1.7762085 2.6859877 2.4021213 1.6039957
6.702466 2.362722 4.6176744 2.2911425 3.1797957 2.3694015 2.113319 3.962513
2.166768 5.3613005 5.795274 3.1285543 6.1280155 1.5703094 3.8434436 1.4092231
4.7871413 0.21272048 1.8912193 2.696023 1.5842458 4.776106 5.768406 0.07095252
2.7033763 2.8372498 5.742299 1.8860704 2.9160101 4.02103 3.0941696 2.2111466
6.391058 1.7013733 1.7502879 5.344517 4.21581 5.6809855 1.8662378 2.6319127

tree_conv.9.running_var f4 [64]
00000000: a2ec 5c3f 4cf7 8b3f de12 8e3f 25f0 2b40
00000010: 1195 c240 aacc 3640 08bf a63f 4f24 6a40
00000020: c4c3 e040 92ef db40 618c b83f 94cd 7d40
00000030: c358 2440 2a59 d740 25de bc3f b5d7 e140
00000040: baa1 073f 1a55 4841 7590 e540 6c3e 843f
00000050: 2675 703f 7bda ee3f fdbb ae40 9f17 423f
00000060: d5de 1542 ad8a c73f 162b 8d41 9b70 d53f
00000070: e587 1040 aa51 b240 a9c0 b63f 5158 6241
00000080: f886 b53f b1c2 b840 3a0a 5b41 493d ef40
00000090: 614e 1741 1ec2 413f 0fc3 4d40 cf5e 1e3f
000000a0: 9959 b140 0976 5c3c 7506 4f3f ff95 fc3f
000000b0: 9e37 3c3f 7bcd 1a41 87ae d941 613f 543b
000000c0: 62f1 0a40 6d6e 2140 f30f 2541 5734 8d3f
000000d0: 0f23 2440 6ad2 4d41 9e8a 4340 40f7 c43f
000000e0: 28c3 9b41 d47f 3c3f 3e58 693f 7b45 d041
000000f0: 14aa 2241 29a8 7241 11a7 863f c8c3 ce3f
0.86298573 1.0934844 1.1099508 2.6865323 6.0806966 2.8562417 1.3027048 3.658466
7.023897 6.8729944 1.441784 3.9656725 2.5679176 6.7296343 1.4755293 7.0575814
0.5298115 12.520777 7.173884 1.033155 0.93928754 1.8660425 5.460448 0.7581729
37.46761 1.5589195 17.646038 1.667499 2.2582943 5.5724688 1.4277545 14.146562
1.4181814 5.773766 13.689997 7.476231 9.456635 0.75686824 3.2150304 0.61863416
5.542187 0.013455876 0.8086923 1.9733275 0.73522365 9.675166 27.210218 0.003238641
2.1709828 2.5223649 10.316394 1.1031598 2.5646398 12.863871 3.0553355 1.5387955
19.470291 0.7363255 0.9115027 26.033926 10.166523 15.166055 1.0519735 1.6153498

tree_conv.10.weight f4 [32, 64]
00000000: 9192 19bd fdb2 0cbd 2a05 51bd fde6 9dbd
00000010: 33a7 d7bb 7f94 43bd 72d8 c8bd fbab fabd
00000020: 289d 063e 447b c2bd 31e9 e3bc 6aea 253c
00000030: 74cf 10be b083 9f3d e9c5 19be 64b0 873d
00000040: 0db8 04be 563c 883d eae5 173e 68de 3fbd
00000050: f327 38bc 6664 44bd 56b1 b5bc e316 973d
00000060: 4444 fd3d c5bf acbd c20f 153e de9d 773d
00000070: d30f 203d 65ea bb3d 24f1 c0bd 0cf8 81bd
00000080: a40c 133d fa85 853c 3522 60bd fe86 113e
00000090: a8c3 1e3e fff3 0bbe e5b7 1bbe 3901 88bb
000000a0: d51b a7bd f98b 11be 677a 15be 7d51 7fbd
000000b0: fca2 24be 6042 d13d 9dd1 013e e9b4 a8bd
000000c0: 5257 03be 5894 eebd ee78 413d 186f 0ebe
000000d0: b3f8 b3bd 021b fb3d 991e 8d3d 8d9c 00be
000000e0: fe05 0e3e d149 163d af98 f5bd cc3a 853d
000000f0: 4bc3 c8bd a672 983d ead2 16be d42e e03b
00000100: 25fa a73d 4e1f 9e3d de47 c63d 1be8 00be
00000110: 4717 80bd 431a 013c 3049 8c3d 4aa5 163e
00000120: bb18 193d 3523 ea3d a324 0b3e c2e0 f7bc
00000130: 7d14 993c b3c9 0bbe 143b 29bd f122 94bc
00000140: 6f4c c43d 6686 c73c 47f5 dfbc 7296 d33c
00000150: d40f e13d 7911 603d 84f9 85bb f6ff c13d
00000160: e277 dcbd d55d ddbc 1661 ccbb 2e8f 083e
00000170: ac7e ee3d 4860 a33d 4822 093e c8a1 18be
00000180: 0fac 88bd c090 b7bc b39b 1bbe b6bf 823d
00000190: 36d2 04be ba5b 933b 6091 6a3d a56a d93d
000001a0: e44b 0dbc 9d52 21bd dc75 843d bab7 353d
000001b0: af64 b6bd 4967 a93d 7ed3 03be 5241 023e
000001c0: 8d13 16bd 2947 723d 3533 10be 62b3 cf3d
000001d0: 4294 cb3d ed6f d8bd bec5 173d ba0b 7d3c
000001e0: 4b03 a0bd f2c5 f63d b014 bb3c 6f40 963c
000001f0: 2ebc 24bd acb8 db3c 4c12 f6bc 91b0 4cbd
00000200: 3b0a 5cbc edaa ebbd 1961 ac3c b0ca e13d
00000210: a1ca 1b3b 68cd aa3d 8748 b8bd cf9d 0bbc
00000220: 3a91 ff3d 6676 e6bd 81ea 8c3d c131 9c3d
00000230: ef10 fcbd 02d0 c63d 64fc 703d 36ed 83bd
00000240: 1838 87bd 6a40 5dbd 9e1c a7bc 12f0 e8bd
00000250: caf9 5ebd 81c8 19bd 2887 3ebc d480 f0bc
00000260: f9a0 9dbd 4e75 e83d 725f 553d dea2 cbbd
00000270: 77e8 e73d 7d3e 23bd 19de 84bd 9708 fd3d
00000280: e698 b33d ad91 bb3d da16 9e3d ecd8 993d
00000290: b36a 143d bc09 2f3d 8d63 133b f08f a43d
000002a0: dedc 283d a81d 903d 83c4 8e3d b3dd 803c
000002b0: dc6c 8d3d 8294 98bd 2616 c73d 8ec3 bf3c
000002c0: 42f7 2f3d 09e6 a4bd ecc0 b93d b49f 99bd
000002d0: a4be 55bc f41d dbbb 70ee fdbb f921 d83d
000002e0: f2ed 80bd a28d 17bc d540 e3bd b904 fe3c
000002f0: f027 35bd deb8 b03c 9560 423d 6f69 8f3d
00000300: 054b a1bd f664 0ebe 980b ab3d 314e b13d
00000310: ba34 843d 7821 cfbc b6ba 803d 9801 16be
00000320: f51b 0d3e 5823 533d f307 1ebe 0562 a3bc
00000330: 5dbb 21be ee6e a8bd 91e1 f9bc a5e8 033e
00000340: 2044 56bd 58ef 623b 7d48 e13d 7a9a f0bd
00000350: aed6 fdbc b1da a8bd 65d5 423d 0e9b f1bd
00000360: dc19 f23d dd60 12be 34d4 ff3d ae8a a93d
00000370: 43c3 22be abbf 833d b442 bdbd 5ac9 393c
00000380: 725f 343d 167b 57bd e5c1 bb3d d9fa 2c3d
00000390: 0895 223e b69c 22be a8f0 a13d a9c5 00be
000003a0: b134 aabd 3940 833d d909 11be 7cef 3fbc
000003b0: 8a23 03be f35e e23b edfb c63c 0170 9b3d
000003c0: cdb4 06bd c646 13be 635c 33bb 618a 32bd
000003d0: d40c c1bd 332c 0ebd f124 cbbd cb99 fcbd
000003e0: ec42 ee3c c22b 793d a91f a8bd 63fa 2c3b
000003f0: 22d8 d03c b645 d23c 8b6a e0ba 8fbb 1fbd
-0.037493292 -0.034350384 -0.051030315 -0.07710073 -0.006581211 -0.04774904 -0.09806909 -0.12239834
0.13145888 -0.09496167 -0.027821155 0.010126689 -0.14141637 0.07788789 -0.15016903 0.06625441
-0.12960835 0.06652133 0.14833799 -0.046842963 -0.011239993 -0.04794731 -0.022179287 0.07377412
0.12366536 -0.08435015 0.14556792 0.06045329 0.03907759 0.091755666 -0.09420994 -0.06346139
0.035900727 0.016299237 -0.054720122 0.14211652 0.15504324 -0.13667296 -0.15206869 -0.0041505364
-0.081596054 -0.14213552 -0.14597474 -0.062333573 -0.16077799 0.10217738 0.12677617 -0.08237631
-0.12826279 -0.11649388 0.04723447 -0.13909566 -0.0878767 0.12261011 0.06890602 -0.1255972
0.13869473 0.03669149 -0.11992013 0.06505355 -0.09802874 0.074437425 -0.14728895 0.00684152
0.08202008 0.07720815 0.09681676 -0.12588541 -0.0625444 0.007879796 0.06849897 0.1471149
0.0373771 0.114324965 0.13588195 -0.03025854 0.018686527 -0.13651161 -0.041316107 -0.018083068
0.09584891 0.024356078 -0.027338637 0.025828574 0.10989347 0.054704163 -0.0040885825 0.09472649
-0.10765053 -0.027022282 -0.0062371595 0.13335869 0.116452545 0.079773486 0.13391984 -0.14905465
-0.066734426 -0.02240789 -0.15196113 0.06384222 -0.12970814 0.0044970186 0.057267547 0.10616044
-0.008624051 -0.039385427 0.064677924 0.04436467 -0.089059226 0.08271653 -0.12873647 0.1272023
-0.03663974 0.059149895 -0.14082034 0.101416364 0.09940387 -0.10568223 0.037053816 0.01544469
-0.07813128 0.12049474 0.022837013 0.018341271 -0.040218525 0.026821457 -0.030038022 -0.049973074
-0.0134301735 -0.11507211 0.021042394 0.11024988 0.00237719 0.083399594 -0.089982085 -0.008521511
0.12478872 -0.112530515 0.068806656 0.07626677 -0.12307917 0.09707643 0.05883445 -0.06441729
-0.06602496 -0.05401651 -0.020399388 -0.11373915 -0.054437436 -0.03754473 -0.011628903 -0.029358305
-0.07696719 0.11350499 0.052092977 -0.09943174 0.11323636 -0.039854515 -0.06487674 0.12355154
0.087693974 0.09158645 0.07719202 0.07512078 0.03623457 0.042733893 0.0022489757 0.080352664
0.04122626 0.070369065 0.069710754 0.015730714 0.06905529 -0.074502006 0.09721021 0.023408677
0.042960413 -0.08051688 0.0907 -0.07501164 -0.013045941 -0.0066869203 -0.007749371 0.10553355
-0.062953845 -0.0092500765 -0.1109635 0.031008111 -0.04422754 0.021572527 0.04745539 0.07002532
-0.07875637 -0.13905701 0.08351821 0.08657492 0.06455369 -0.025284514 0.06285612 -0.14649045
0.13780196 0.05154738 -0.1543272 -0.0199442 -0.1579413 -0.08224283 -0.030503066 0.12881716
-0.052311063 0.0034627523 0.11000154 -0.11748214 -0.030986156 -0.08244837 0.04756679 -0.117971525
0.118213385 -0.14294763 0.124916464 0.08278404 -0.15894799 0.06433042 -0.09241238 0.01133951
0.044036336 -0.05260762 0.09167842 0.042231414 0.15877163 -0.15880093 0.0790723 -0.12575401
-0.08310831 0.06408734 -0.14163913 -0.011714812 -0.12806526 0.0069082915 0.02429005 0.075897224
-0.03288727 -0.14382467 -0.00273683 -0.043589 -0.09426275 -0.03471012 -0.099191554 -0.12334021
0.029084645 0.060832746 -0.08209164 0.002639436 0.025493685 0.025668006 -0.0017121596 -0.03899723

tree_conv.10.bias f4 [32]
00000000: 01bc a8bd 554b ca3c b3a0 ca3c 3a16 cc3c
00000010: e35c efbd ff6c f8bb 8705 cfbc 7a65 08be
00000020: 6101 0bbe c316 e63d 5f2a e7bd f9cf 4bbd
00000030: 7dd8 133e f352 033e d029 5d3d 28f8 b1bb
00000040: 7ad4 38bb 698e 6d3d a425 983d cda0 6e3d
00000050: 2381 b4bc c1d5 4ebc f756 2abd 1517 163e
00000060: a99e 0dbd e750 883c 5e3d 563d 0ae0 bebc
00000070: 2caf 1d3d 9e3a d8bc 3a9a c8bc 2cca 933d
-0.08238984 0.024694124 0.02473483 0.024912942 -0.116876386 -0.0075813527 -0.02527119 -0.1331996
-0.13574745 0.1123481 -0.112873785 -0.049758885 0.14438052 0.12824611 0.053994954 -0.005431194
-0.0028202818 0.05799714 0.074290544 0.05825882 -0.022034233 -0.012624205 -0.041586842 0.14657243
-0.03457514 0.01664014 0.052304618 -0.02330019 0.038497135 -0.026395138 -0.024487603 0.072162956

tree_conv.12.weight f4 [16, 32]
00000000: 091e 3abd 24a9 bc3d 5ead 35bd 2977 02bd
00000010: ea20 01be 8f7a e1bd b5e2 27bd 75df 873d
00000020: b683 043c 124e 17be 0057 5b3e d4f9 f9bd
00000030: 945d 62bd ab69 a3bd 735a eabd eb73 10bd
00000040: 6aa1 123e bb23 8f3d 6074 1e3e 9713 983d
00000050: cabd 493e 3787 343d 2ac4 03bd 9a1e 2e3e
00000060: 4ead 903b 7e16 c0bb 089c d23d 7751 e63d
00000070: e05c fa3d 302d 5f3e e2a3 093e 40d5 0fbd
00000080: 19a8 d33d e4c4 df3c 7baa 553d 1288 0e3e
00000090: 11e3 c83d d518 b2bc a1aa debd a3e3 70bd
000000a0: 4f33 be3d f3cb b83d 362e f13d 9029 04bd
000000b0: 3ac3 093d a6c5 b73d 4b1e 193e 2227 c53a
000000c0: 1d0c 4a3d f9b0 84bd 0ae8 86bd a74e 03be
000000d0: 7da8 b6bc 3ae8 f53c d686 4b3e c285 0ebc
000000e0: b9f1 7f3d 25f6 d4b9 8e24 1b3c 03d3 2c3e
000000f0: 8340 02be 800a 213e d5b8 5c3e 270e 9dbc
00000100: c97c c9bd 84d3 73bd e9f2 013e 337a fa3c
00000110: 9c22 7fbc 315c cbbd 50b7 a9bd 40a9 3cbb
00000120: 62bb 663d bfcc 5cbc efcf de3d d498 04be
00000130: 7903 cdbd d114 cd3d 1125 ff3b 860e 183e
00000140: 391d e9bd 7d59 40be d7ff babd 6999 b13d
00000150: 0ff9 473d 43df 103c 0dce b8bc 334e aabd
00000160: 59d9 173d 76ab ac3d 8682 fe3d 07cd 003d
00000170: dc21 573d a3b7 da3d 48f4 2bbe 08c5 84bd
00000180: 7a3c 403d 048b 8b3d e133 ecbc 704a 003d
00000190: 79aa dbbd 7fec c7bd 2f3c 0dbd 6265 f4bd
000001a0: 8eed 1bbe 27f3 2bbd bfc8 fbbd 30b8 bfbd
000001b0: 776a 263e c5a6 f63d 5384 ebbd 667e 1fbd
000001c0: bd3d 263c 27c9 48bc 2b94 963d 2a78 223e
000001d0: 258e 973d 2699 e03d e0e0 263e d82b 583e
000001e0: a4d8 bf3d b995 513d d85b de3b 131a 3e3e
000001f0: b921 233d 4f97 853d 3f2b 093e 40e6 fb3d
00000200: 47af a03c 9e6a 43be ea03 1dbd 089c 2a3c
00000210: 5a96 153e 0dd1 c4bd 47b1 0e3e 4c17 dbbd
00000220: efe1 a63b a43a 023e 42e3 203d b1e7 c5bb
00000230: e253 8cbd a1b4 05be 6c51 003e 2130 82bd
00000240: 29fb ab3d 7c2b 8a3d 27d3 22bd e76d 22be
00000250: 7c27 30bd 79b0 923b cbda 1c3e d7c3 d03b
00000260: 4c34 dbbd 1b4e 02be 2ac4 10be ce3f 6c3c
00000270: 8f87 aebd c7a7 0f3e 1696 763d d508 203b
00000280: fd23 203e 1ab5 d8bc 5d60 6dbd d529 503e
00000290: 4445 c8bd 682a ddbb 5a04 14bd ee29 2dbe
000002a0: f61f 91bd af18 f83d 526c 5d3d 1c61 f43b
000002b0: f124 0fbd 9c94 8dbd 2127 0d3e 79b4 4a3d
000002c0: c2a5 29be 5004 523e 53c1 21be 625f 3c3e
000002d0: 0c1e 8e3d c865 533d 48c7 0e3e 5a63 bcbd
000002e0: e529 dcbd be75 e83d 716e 683d 9c3a 0e3e
000002f0: 1476 1f3e 60d0 54bb 4648 11be 1602 553e
00000300: c721 863d e60a aabd 1e22 1a3d 2c15 503e
00000310: b4e9 babd 9853 d5bd 7089 c93d 7e4a db3d
00000320: ea20 ee3d b0b9 85bd 65d9 a73d 0251 1cbe
00000330: 3e58 d73c cbf7 ae3d 6e73 ed3d d08f 1bbc
00000340: b8ce d0bd cd16 13bd b696 eabd 407c 093e
00000350: d375 3d3e ea15 0b3e 6160 9e3c 1449 8abc
00000360: d713 26be 0b69 a5bd 3856 16bd b0b0 21bb
00000370: 50cf 1cbe 69fa 703d 11b0 10be f563 9a3c
00000380: f9be a1bd 5450 0f3e 9f23 35be 914f a5bd
00000390: 00c5 07be e4a8 053e e82c 08be e805 a23d
000003a0: 3158 6cbd ec05 ea3d 2936 823d 8f27 5c3c
000003b0: 827a af3d d550 323b 4a45 20be 4871 b43d
000003c0: 5cd8 9abd 7763 45be e3bb e13d a074 973d
000003d0: 73a4 743d f5f5 823d 66af 94bd c93c 643d
000003e0: 36b9 4ebd df30 10bd b6d6 fb3d 703b b13b
000003f0: ecda e33d 06aa 3bbe 34ca 40be b7d5 1c3e
-0.0454388 0.092119485 -0.04435479 -0.03185192 -0.12610212 -0.11009704 -0.04098769 0.06634418
0.008088043 -0.14775875 0.21419907 -0.12205854 -0.055265024 -0.07979139 -0.11443033 -0.035266798
0.14319387 0.06989237 0.15474081 0.074256115 0.19701305 0.044074263 -0.0321695 0.17003861
0.004415191 -0.0058620563 0.10283667 0.11246007 0.12224746 0.21794581 0.13441423 -0.03511548
0.103347965 0.027315564 0.052164536 0.13919094 0.098089345 -0.021740356 -0.10872389 -0.05881084
0.0928713 0.09023275 0.11776392 -0.0322662 0.03363345 0.08973245 0.14952962 0.001504157
0.04932796 -0.06479067 -0.06587227 -0.12822972 -0.022297138 0.03001796 0.19875655 -0.008698883
0.062486384 -0.00040619183 0.009469165 0.1687737 -0.12719922 0.15726662 0.21554883 -0.019171787
-0.09838254 -0.05952789 0.12690319 0.030575847 -0.015572216 -0.099296935 -0.08286917 -0.0028787404
0.056331046 -0.01347655 0.10879504 -0.12948924 -0.10010428 0.10013736 0.007786401 0.1484929
-0.11382527 -0.18784137 -0.09130829 0.08671839 0.048821505 0.008842292 -0.02255919 -0.083156966
0.037072513 0.08431141 0.12427239 0.03144553 0.052522525 0.10679557 -0.16792405 -0.06482893
0.046932675 0.068136245 -0.028833332 0.03132099 -0.107258745 -0.09761905 -0.034481224 -0.119334
-0.15227339 -0.041979935 -0.12294149 -0.09361303 0.1625155 0.120435275 -0.11499848 -0.038938902
0.0101465555 -0.01225499 0.073524795 0.15866151 0.07400159 0.10966711 0.1629672 0.21110475
0.09367493 0.051168177 0.006785851 0.18564634 0.039827082 0.065230004 0.13395403 0.12299776
0.019614829 -0.1908364 -0.03833381 0.010413177 0.14608136 -0.09610186 0.13934813 -0.10697803
0.0050928514 0.12717682 0.03927923 -0.0060395827 -0.06851937 -0.13057186 0.1253106 -0.06356836
0.083975144 0.06746575 -0.03975215 -0.15862237 -0.043006405 0.0044766036 0.15317838 0.006371002
-0.10703334 -0.12725107 -0.1413733 0.014419509 -0.085219495 0.14028846 0.060201727 0.0024419327
0.15638728 -0.026453543 -0.057953227 0.20328458 -0.09778836 -0.00674944 -0.036136962 -0.16910526
-0.07086174 0.12114083 0.05405838 0.0074578654 -0.03494734 -0.069131106 0.13784458 0.04948852
-0.16567138 0.20509458 -0.15796404 0.1839576 0.06939325 0.051610738 0.13943207 -0.09198637
-0.10750178 0.113505825 0.05674595 0.13889545 0.15572387 -0.0032472834 -0.14187726 0.20801577
0.06549411 -0.0830286 0.037630193 0.20320576 -0.091266066 -0.10416335 0.09840667 0.10707568
0.116273716 -0.06529558 0.081957616 -0.15265277 0.026287194 0.085433565 0.11594282 -0.009494737
-0.101956785 -0.035910416 -0.11454527 0.13426304 0.18501978 0.13582578 0.019333066 -0.01688055
-0.16218506 -0.08076676 -0.03670332 -0.0024671964 -0.15313458 0.05883256 -0.14129664 0.018846491
-0.07897753 0.13995486 -0.1768937 -0.08071817 -0.13258743 0.13052708 -0.1329838 0.07911283
-0.057701293 0.11426911 0.063579865 0.013437166 0.085682884 0.0027208824 -0.15651432 0.08810669
-0.075607985 -0.19276224 0.11022165 0.07395291 0.059727143 0.06394569 -0.07260017 0.05572203
-0.0504696 -0.035202857 0.12296812 0.005408697 0.111257404 -0.18326578 -0.18827134 0.153159

tree_conv.12.bias f4 [16]
00000000: 513e f1bd 059d 293e f51d 7a3d 1145 1f3e
00000010: debb 863d edf2 80bd 5eb8 a2bb 4048 e13d
00000020: 5e72 a33d c592 0d3d d1c6 bfbd dbf9 25bd
00000030: 151d 163e a514 713d 1111 96bd 7a13 653d
-0.11779464 0.16563804 0.061063726 0.1555369 0.065788016 -0.062963344 -0.004965826 0.11000109
0.07980798 0.0345638 -0.09364093 -0.040521484 0.14659531 0.05885758 -0.07327474 0.055926777
