src/Models/cost.onnx (onnx, 677676 bytes, 9 tensors)

tree_conv.0.weights.weight f4 [256, 50, 3]
0	0xbd554cee	-0.05207532
1	0x3b826c0c	0.0039801653
2	0x3d6edf5f	0.058318492
3	0x3d4d36bb	0.050101023
4	0x3d1cf8a0	0.038323045
5	0xbd09fa98	-0.03368625
6	0x3c948769	0.018130975
7	0x3d7002ad	0.0585963
8	0x3d0bead4	0.034159496
9	0xbd72c7ce	-0.05927258
10	0xbd90c88c	-0.07069501
11	0x3da23cdf	0.079217665
12	0x3c4ba0e6	0.012428498
13	0xbd1eb499	-0.03874645
14	0xbd9a5938	-0.075365484
15	0x3d176e71	0.03697056
16	0x3d210e1c	0.039320096
17	0xbd36d323	-0.04463495
18	0xbd949a9e	-0.072560534
19	0x3d8a0f70	0.06741226
20	0x3c8bbb3a	0.01705705
21	0x3d22e398	0.03976783
22	0x3d5f69e7	0.054544356
23	0x3ce93055	0.02846543
24	0xbc9de2f8	-0.019273266
25	0x3d05744a	0.032581605
26	0x3c69a1e3	0.014259788
27	0x3d866c5d	0.065636374
28	0x3d85bb79	0.06529898
29	0x3cae7e63	0.0213005
30	0x3b8ff3c2	0.004393072
31	0x3c1e3bbe	0.009657798
32	0xbace3aac	-0.0015734038
33	0x3d48ba85	0.049006004
34	0xbd3a7f43	-0.045531522
35	0xbd915726	-0.070967
36	0x3c91fae3	0.017819827
37	0xbd048450	-0.032352746
38	0xbc50dbdf	-0.012747734
39	0xbd07864c	-0.03308706
40	0x3d8982f3	0.0671443
41	0xbd120fb0	-0.035659492
42	0x3d4bc99a	0.04975281
43	0x3d2c5f75	0.042083222
44	0x3c4b355e	0.01240286
45	0x3d21489a	0.03937588
46	0x3d8c81be	0.06860684
47	0xbc2f1acf	-0.010687544
48	0xbd8e0c69	-0.06935961
49	0xbc9e2069	-0.019302564
50	0xbbc570bc	-0.006025402
51	0xbd998785	-0.074965514
52	0x3d84be14	0.06481567
53	0x3d8a54c1	0.06754447
54	0xbbfcc235	-0.007713581
55	0x3d6f2427	0.058384087
56	0x3d359903	0.044335376
57	0xbd3a07e4	-0.04541768
58	0x3d09e8b6	0.033669196
59	0x3d8e254d	0.06940708
60	0xbc78f7c4	-0.015195791
61	0xba77274d	-0.00094281585
62	0x3d4c2d37	0.049847808
63	0xbd9ec670	-0.07752693
64	0xbd706e30	-0.058698833
65	0xbd61797e	-0.055047505
66	0xbb56729f	-0.0032722128
67	0x3d525e81	0.051359657
68	0x3bdf34e2	0.006811724
69	0xbd97bf1e	-0.074094996
70	0xbd54f94e	-0.051995568
71	0x3d8854bd	0.066567875
72	0x3d704b6d	0.05866568
73	0x3da51102	0.080598846
74	0xbc780a7e	-0.01513922
75	0x3cba2e27	0.022727085
76	0x3da15617	0.078777485
77	0x3bbe3a10	0.0058052614
78	0xbbcd37d7	-0.00626276
79	0xbd7973f7	-0.06090161
80	0xbd5e2ade	-0.0542401
81	0xbb9202ce	-0.0044559008
82	0xbc50513b	-0.012714679
83	0x3d7e4f6b	0.062087458
84	0xbcbd2779	-0.023090111
85	0xbd8bcb45	-0.0682588
86	0x3d565eee	0.052336626
87	0xbafe2edc	-0.0019392627
88	0x3da5d775	0.08097736
89	0xbb34c3ed	-0.0027582601
90	0xbd64c104	-0.055848137
91	0xbd9ebf58	-0.0775134
92	0x3cb66a6c	0.022267543
93	0x3d81b757	0.063337974
94	0x3d9b5509	0.075845785
95	0xbd7ee1ac	-0.062226936
96	0xbd70cf6c	-0.058791563
97	0x3d8f9ed9	0.0701272
98	0xbd9f6a80	-0.07783985
99	0x3d635439	0.055500243
100	0xbd907615	-0.07053772
101	0xbcbaff1d	-0.022826726
102	0xbd89bd91	-0.0672561
103	0x3d9b62af	0.07587182
104	0x3c2e9ca9	0.010657468
105	0xbd12b9be	-0.03582167
106	0x3d6eef07	0.058333423
107	0xbd9e166a	-0.07719119
108	0x3d978678	0.07398695
109	0x3d3ad716	0.04561528
110	0xbc35e975	-0.011103024
111	0x3d8c8622	0.06861521
112	0xbcfc82fa	-0.030824173
113	0x3d8f986f	0.07011496
114	0xbd9d98bf	-0.0769515
115	0xbda2d591	-0.07950891
116	0x3d262d9e	0.040570848
117	0x3d6806c0	0.056647062
118	0xbb96fb3c	-0.004607586
119	0xbc7665c0	-0.0150389075
120	0x3d9b8488	0.07593638
121	0x3ba0f68c	0.004912203
122	0x3c0582c1	0.00814885
123	0x3ce7aa26	0.028279375
124	0x3d5b62a3	0.053560864
125	0xbcf18cd7	-0.029486103
126	0x3d73d3e1	0.059528235
127	0xbda51c7d	-0.08062074
128	0x3d044709	0.032294307
129	0x3d07a58d	0.033116866
130	0xbcacd4d4	-0.021097578
131	0x3d7633d3	0.060108017
132	0xbd40a065	-0.047027964
133	0x3da3551a	0.07975216
134	0x3d2fcf8c	0.04292254
135	0xbd81755e	-0.06321214
136	0xbcccb6a7	-0.02498944
137	0xbc3d9627	-0.011571444
138	0x3d60336d	0.054736543
139	0xbd09fbbc	-0.03368734
140	0x3d8b2bb2	0.067954436
141	0x3c2c927a	0.01053297
142	0x3cae5018	0.021278426
143	0xbcc97866	-0.024593543
144	0xbd89524e	-0.067051515
145	0x3d8be9ee	0.06831728
146	0x3d3ae5bd	0.04562925
147	0x3da13cb0	0.07872903
148	0xbb9715d6	-0.0046107573
149	0xbc9d7a58	-0.019223377
150	0xbd89e6b5	-0.06733457
151	0x3cfa1058	0.030525371
152	0x3c20742f	0.009793325
153	0x3ccd8998	0.025090024
154	0xbc20fba5	-0.009825622
155	0x3c8f008b	0.017456314
156	0xbd1d96ea	-0.038474
157	0x3d8d773c	0.06907508
158	0xbda031b5	-0.07821981
159	0xbc3b14d5	-0.011418541
160	0x3d3c6057	0.045990314
161	0xbc9d7d18	-0.019224688
162	0x3c08cf22	0.008350166
163	0x3cc75bac	0.024335705
164	0xbc57f926	-0.01318196
165	0x3c609cd6	0.013709268
166	0xbd8f70a1	-0.07003904
167	0xbd8d2a35	-0.06892816
168	0xbd9df9cf	-0.07713663
169	0xbd434345	-0.047671575
170	0xbd6a8a48	-0.05726078
171	0xbd36a71c	-0.04459296
172	0x3d6584ef	0.05603498
173	0x3d2ab1bf	0.041673418
174	0x3c19ad42	0.009379687
175	0xbb99b8b0	-0.004691206
176	0xbd8e2d15	-0.069421925
177	0x3c8642ab	0.016389212
178	0x3d96babe	0.07359837
179	0x3cf41da6	0.029799294
180	0xbcd178c8	-0.025570288
181	0xbd890db9	-0.066920705
182	0xbda3311e	-0.07968353
183	0xbb411b1d	-0.0029465624
184	0x3d985918	0.07438868
185	0xbd8efd08	-0.06981856
186	0xbca31725	-0.019908497
187	0x3d196258	0.037447304
188	0xbd259037	-0.040420737
189	0xbda11e41	-0.078670986
190	0xbcf8ba1a	-0.030362178
191	0xbda51598	-0.08060759
192	0xbd9a9507	-0.07547956
193	0x3c997168	0.018730834
194	0xbd8959fa	-0.06706615
195	0x3bf1d07d	0.00737959
196	0x3d98c860	0.074600935
197	0xbd86dc16	-0.06584947
198	0xbd0f4265	-0.034975428
199	0x3d6df093	0.058090758
200	0xbb6dbda8	-0.0036276374
201	0xbd92ae19	-0.07162113
202	0x3d84348f	0.06455337
203	0xbcd099c7	-0.025463952
204	0x3d97c21a	0.07410069
205	0xbd83e353	-0.06439843
206	0xbd658609	-0.05603603
207	0xbd540b49	-0.051768575
208	0xbd4c45b6	-0.04987117
209	0x3cad776a	0.021175105
210	0xbd8546eb	-0.06507667
211	0xbd80aaea	-0.06282599
212	0xbd86bab2	-0.06578578
213	0xbd2d869c	-0.0423647
214	0xbd5e3c67	-0.054256823
215	0x3d83334b	0.06406268
216	0x3d15da42	0.0365851
217	0xbd06323d	-0.032762755
218	0xbd8060af	-0.06268441
219	0xbc7becdd	-0.015376297
220	0xbd03de7e	-0.032194607
221	0x3caf8d77	0.02142976
222	0xbbf0bbb2	-0.007346594
223	0x3c883f6e	0.016631808
224	0xbd6c3981	-0.057672027
225	0x3d9a6a0c	0.07539758
226	0x3cf00069	0.02929707
227	0xbc4a83fc	-0.012360569
228	0xbce98ac3	-0.02850855
229	0x3da277e3	0.07933023
230	0xbd46b85d	-0.048515666
231	0xbd61bec8	-0.055113584
232	0x3d8db98a	0.069201544
233	0xbbfb2f07	-0.007665518
234	0x3d9aa797	0.075514965
235	0xbd554e5d	-0.052076686
236	0xbd1bfbb2	-0.038081832
237	0x3c569313	0.013096589
238	0x3d49f911	0.049309794
239	0x3c873d70	0.016508788
240	0xbd7746fe	-0.060370438
241	0xbbb94a89	-0.0056546372
242	0x3d225796	0.03963431
243	0xbda000e5	-0.078126706
244	0x39877cc7	0.00025842173
245	0x3d89a4ad	0.067208625
246	0xbd8a9479	-0.067666
247	0xbd820e98	-0.0635044
248	0x3c9aa52f	0.018877594
249	0xb986433e	-0.0002560857
250	0x3cddcb66	0.027074527
251	0x3d59d6b5	0.053183276
252	0xbbd79fd3	-0.006580332
253	0x3d3f4bd0	0.04670316
254	0xbd5c05eb	-0.05371658
255	0xbc90e4b0	-0.017687172

tree_conv.0.weights.bias f4 [256]
0	0xbda0b723	-0.078474306
1	0x3d03f1cd	0.03221302
2	0xbc33fb8f	-0.010985269
3	0x3d9bbcf4	0.07604399
4	0xbbcc46be	-0.006234019
5	0x3c91480e	0.017734554
6	0x3d53caf2	0.051707216
7	0xbcc4c088	-0.024017587
8	0xbd933042	-0.07186939
9	0x3d9ab8c5	0.07554773
10	0x3ab7f02e	0.0014033371
11	0x3c479eec	0.012183886
12	0xbd1523da	-0.036411144
13	0xbd5441cc	-0.05182056
14	0x3d912736	0.07087557
15	0xbd8ee1ee	-0.069766864
16	0x3cc014e0	0.023447454
17	0x3cb7edd9	0.022452282
18	0xbc2f7513	-0.010709065
19	0x3d00dc86	0.031460308
20	0x3d94d40a	0.07267006
21	0xbc02ad41	-0.007975877
22	0xbd9ec1d7	-0.07751816
23	0x3c577839	0.013151222
24	0x3d95e086	0.07318215
25	0x3d9262a8	0.071477234
26	0x3d4aaf93	0.049483847
27	0xbd2e1e51	-0.04250938
28	0xbd12c8fb	-0.0358362
29	0x3c21a655	0.009866317
30	0x3b9d6bef	0.0048041265
31	0x3a862da9	0.0010236996
32	0xbd22ce9c	-0.03974782
33	0x3c54415c	0.012955036
34	0xbd9fa59e	-0.07795261
35	0x3ab21233	0.0013585746
36	0xbbca760e	-0.006178624
37	0x3d8c945e	0.06864236
38	0xbd8fb7c9	-0.07017476
39	0x3d6ad98b	0.05733637
40	0xbd5c3fa7	-0.05377164
41	0xbc8979bd	-0.016781682
42	0x3d30e34d	0.04318552
43	0x3d8bda73	0.06828775
44	0xbd273372	-0.040820546
45	0xbd327126	-0.043564938
46	0x3d9c0e89	0.0761996
47	0xbd115a7c	-0.035486683
48	0xbda019ff	-0.07817458
49	0xbcdeeee3	-0.02721352
50	0x3c28dddd	0.010306803
51	0xbadbc3e4	-0.0016766754
52	0xbcf09f0d	-0.029372716
53	0xbb482029	-0.0030536747
54	0x3bc235f8	0.0059268437
55	0x3d1192fd	0.03554057
56	0xbd90a3ba	-0.07062478
57	0xbd89e33b	-0.06732794
58	0x3d986f99	0.074431606
59	0xbc74498e	-0.014910115
60	0x3c435dda	0.011924231
61	0xbd7160e4	-0.058930293
62	0xbceceee7	-0.028922511
63	0xbd9e6dde	-0.07735799
64	0xbc67f525	-0.014157568
65	0xbc1de0bf	-0.009636103
66	0xbc76fe7e	-0.015075324
67	0xbd42ce76	-0.047560178
68	0x3da5226f	0.08063208
69	0xbd3e77b5	-0.04650088
70	0xbd0ac8c4	-0.03388287
71	0x3d769e58	0.060209602
72	0xbc02ce9d	-0.007983831
73	0xbce00374	-0.027345397
74	0x3d0d884e	0.03455382
75	0xbd29f9b0	-0.041497886
76	0xbd848ef6	-0.0647258
77	0x3c82469a	0.015902806
78	0xbd3c5fa0	-0.045989633
79	0xbd97dc5d	-0.07415078
80	0x3d1532ea	0.03642551
81	0xbd8b6499	-0.06806297
82	0x3d3408af	0.043953594
83	0xbd93815f	-0.0720241
84	0x3d086f32	0.03330917
85	0x3d833c46	0.064079806
86	0xbd7cba21	-0.061700944
87	0x3c83b764	0.016078658
88	0xbce7e64e	-0.02830806
89	0xbd819cd2	-0.06328739
90	0xbcc9a982	-0.02461696
91	0xbd42004b	-0.04736356
92	0x3d28c7e6	0.041206263
93	0x3cbe0bf9	0.023199068
94	0x3d240d83	0.04005195
95	0x3bb5bca5	0.00554617
96	0x3cc80a62	0.024419013
97	0x3c827a2f	0.015927402
98	0xba3d581c	-0.0007222907
99	0x3d27e081	0.040985588
100	0xbd340226	-0.04394736
101	0xbd07f904	-0.033196464
102	0xbd850742	-0.06495525
103	0x3cca0ed7	0.02466528
104	0xbc48f24f	-0.012264802
105	0xbd750817	-0.05982217
106	0xbca52a6b	-0.020161828
107	0x3b6e6142	0.0036373888
108	0xbd52d92f	-0.051476654
109	0x3b3bd044	0.0028658072
110	0xbd8a3b11	-0.06749547
111	0xbd969001	-0.07351685
112	0x3d45d6f8	0.048300713
113	0xbd85a0c6	-0.06524806
114	0x3c29b976	0.010359159
115	0x3cf57746	0.0299641
116	0xbd4994f9	-0.049214337
117	0xbd780e67	-0.06056061
118	0xbd0a86a7	-0.03381982
119	0x3d204674	0.03912969
120	0xbcda6d7d	-0.026663536
121	0x3d30cc4c	0.043163583
122	0x3c90c7c8	0.017673388
123	0x3d905f83	0.070494674
124	0xbda72e84	-0.08163169
125	0x3d069338	0.032855242
126	0xbd5e92f6	-0.05433937
127	0x3cc8ee0f	0.024527578
128	0x3d004e19	0.03132448
129	0xbc83d3ef	-0.016092269
130	0x3bb0ec5f	0.0053992714
131	0x3d672c69	0.056438837
132	0x3cd3e1f4	0.025864579
133	0x3beb519a	0.0071813585
134	0xbd7d774f	-0.06188136
135	0xbc82a302	-0.015946869
136	0x3ca48568	0.020083144
137	0xbd4b3744	-0.049613252
138	0x3beeee6b	0.007291605
139	0x3d24057e	0.0400443
140	0xba9afb23	-0.0011824112
141	0xbd89bc64	-0.06725386
142	0x3d99c976	0.07509129
143	0x3d8de414	0.06928268
144	0xbd8bd58b	-0.068278395
145	0xbb2af76b	-0.0026087414
146	0xbd9034de	-0.070413336
147	0x3c15c6c3	0.009141627
148	0x3c2f4362	0.010697218
149	0xbda6d185	-0.081454314
150	0xbcd8efbb	-0.0264815
151	0xbd834985	-0.06410507
152	0xba9b3acc	-0.0011843084
153	0xbd87b2c2	-0.06625892
154	0xbb5484d5	-0.0032427807
155	0xbd906493	-0.07050433
156	0xbd15e6fe	-0.036597244
157	0x3c85ebd1	0.016347798
158	0xbd8ff82b	-0.07029756
159	0x3d4e2b6a	0.05033437
160	0x3d754c75	0.05988737
161	0xbd44e4ce	-0.048069768
162	0xbcce3582	-0.025171999
163	0x3c30c2e3	0.010788652
164	0x3c943565	0.018091867
165	0xbd2e8ada	-0.042612888
166	0x3d5a7009	0.0533295
167	0xbd82f123	-0.063936494
168	0xbd0cea91	-0.034403387
169	0xbd9aae0b	-0.07552727
170	0x3ae7900e	0.0017666833
171	0x3d5e2e22	0.054243214
172	0xbd9a5f76	-0.07537739
173	0x3d181956	0.037133537
174	0x3d572081	0.052521233
175	0x3cdde214	0.027085342
176	0xbc8120ab	-0.015762648
177	0x3c70e149	0.01470215
178	0x3d81c8b1	0.06337107
179	0xbc8cf9d8	-0.017208979
180	0xbd684194	-0.056703165
181	0x3ce9c262	0.028535072
182	0xbd8e8be7	-0.06960278
183	0xbd85c227	-0.06531172
184	0xbce99ace	-0.0285162
185	0xbc006a09	-0.007837781
186	0xbb996a8d	-0.0046818913
187	0x3b25c33b	0.0025293368
188	0x3c5ebc9d	0.013594774
189	0x3d1f0398	0.038821787
190	0xbd90c504	-0.07068828
191	0x3d50566d	0.050863672
192	0xbd6f99d7	-0.058496322
193	0xbd08e7f9	-0.03342435
194	0xbd5a2344	-0.05325629
195	0xbd4a0f34	-0.049330905
196	0xbcb45b2b	-0.022016129
197	0xbd30983e	-0.04311394
198	0x3c761e84	0.015021924
199	0xbd903b79	-0.070425935
200	0xbda527d1	-0.08064235
201	0xbcefd2d4	-0.029275335
202	0xbd3d0434	-0.046146587
203	0xbd107b0b	-0.035273593
204	0xbd7fd0bc	-0.062454924
205	0xbda2b0e6	-0.07943897
206	0xbbe32aea	-0.006932606
207	0x3d640d5b	0.0556768
208	0x3da11043	0.0786443
209	0xbd30d7de	-0.043174617
210	0x3d051504	0.032490745
211	0x3d94d720	0.07267594
212	0xbd8404a2	-0.06446196
213	0x3d7b27a9	0.06131712
214	0x3da068b2	0.07832469
215	0xbd58b3d2	-0.052905865
216	0xbd853bb2	-0.065055266
217	0x3cc9542a	0.024576265
218	0x3c6d02c4	0.014465991
219	0xbd1c9371	-0.03822655
220	0xbd9fa24c	-0.077946275
221	0xbd14e832	-0.03635425
222	0x3d3a9810	0.045555174
223	0xbc8c13c7	-0.017099274
224	0xbc3323d5	-0.010933836
225	0xbc5da039	-0.01352697
226	0xbd9dd882	-0.07707311
227	0xbd135da0	-0.03597796
228	0xbb48316f	-0.0030547043
229	0xbc5c08a4	-0.013429794
230	0x395c39ac	0.0002100232
231	0x3d976d98	0.0739395
232	0x3cbfadac	0.023398243
233	0x3d6468cd	0.05576401
234	0xbd5b06c0	-0.053473234
235	0xbd046e90	-0.032332003
236	0x3d36e372	0.044650503
237	0x3d57edc0	0.05271697
238	0xbd4357d3	-0.047691178
239	0x3d0033bf	0.03129935
240	0xbd445d28	-0.047940403
241	0xbda72246	-0.08160834
242	0x3d1bcffe	0.038040154
243	0xbd9da9f9	-0.07698435
244	0x3d6013eb	0.054706495
245	0xbcc470f7	-0.023979647
246	0x3d92e218	0.0717203
247	0xbcadb3cb	-0.021203896
248	0xbd1aef31	-0.037825767
249	0xbd963e2d	-0.07336078
250	0xbc83e88b	-0.016102096
251	0xbd7b0758	-0.0612863
252	0x3d339edb	0.04385267
253	0x3caf6d9f	0.021414576
254	0x3d73e17f	0.05954122
255	0x3d292e35	0.041303832

tree_conv.3.weights.weight f4 [128, 256, 3]
0	0x3bd9a2d8	0.006641727
1	0xbccfcc15	-0.025365869
2	0x3b72e2c8	0.0037061442
3	0xbc2ae5be	-0.010430751
4	0x3cfd3ac5	0.030911813
5	0xbba376a9	-0.0049885106
6	0xbc1c8b81	-0.009554745
7	0xbd0c1d3b	-0.034207564
8	0xbc7de78c	-0.0154971
9	0x3cdebf96	0.027190965
10	0xbcb04b5e	-0.021520313
11	0xbd130db4	-0.03590174
12	0x3c6b70c9	0.014370152
13	0xbc1859e6	-0.009298777
14	0x3cab692a	0.02092417
15	0xbc949b88	-0.01814057
16	0x3c160888	0.009157307
17	0xbce43a94	-0.027859963
18	0xbcf1daee	-0.02952334
19	0xbc1fa3ec	-0.009743672
20	0x3c5075b6	0.012723377
21	0x3ca464d8	0.020067617
22	0xbb889595	-0.004168222
23	0xbc77d039	-0.015125328
24	0xbd11380d	-0.035453845
25	0xbd05aefe	-0.03263759
26	0xbbd0f929	-0.0063773585
27	0xbd027245	-0.031847257
28	0xbc9701a7	-0.018433405
29	0x3c0ad9c5	0.008474772
30	0xbd0cecbf	-0.034405466
31	0x3c3f720c	0.011684906
32	0x3cc0b186	0.02352215
33	0x3b8d454b	0.004311239
34	0x3cbb9500	0.022898197
35	0xbacda0be	-0.0015688164
36	0x3c4fa745	0.0126741575
37	0x3d0676af	0.03282803
38	0xbcdb8351	-0.026796015
39	0x3c85049a	0.016237546
40	0xbca4013d	-0.020020122
41	0xbb7b6349	-0.003835874
42	0xbce2c892	-0.02768353
43	0xbcb10ade	-0.021611627
44	0xbd0641a8	-0.03277746
45	0xbcac9733	-0.021068191
46	0x3bd0cd61	0.0063721393
47	0xbc3723d1	-0.011177973
48	0x3d0d28aa	0.03446261
49	0xbc97efea	-0.018547017
50	0xbad5b9fe	-0.001630604
51	0x3c899bdc	0.016797952
52	0xbc5e303b	-0.013561304
53	0xbc961a13	-0.01832298
54	0x3b415d64	0.0029505128
55	0x3c8fc594	0.017550267
56	0x3c832941	0.016010882
57	0xbca04809	-0.019565599
58	0xbc9c6e49	-0.019095557
59	0x3c9b7d24	0.01898057
60	0x3c725ad4	0.014792163
61	0x3bb95ee4	0.005657064
62	0xbcf83311	-0.030297788
63	0x3cb268cf	0.021778492
64	0x3b0fc984	0.002194018
65	0x3a9a3069	0.0011763695
66	0x3c8055c3	0.015665894
67	0x3c641925	0.013922011
68	0xbd04b11d	-0.03239547
69	0xbd110e11	-0.035413805
70	0xbcd59c79	-0.026075589
71	0x3acb6322	0.0015517215
72	0xbcbed6b0	-0.02329573
73	0x38826c77	6.219086e-05
74	0x3cf855da	0.030314375
75	0x3bea4ade	0.007150038
76	0x3cd96574	0.026537634
77	0xbd03002f	-0.031982597
78	0xbc0add25	-0.0084755765
79	0xbac8f36c	-0.0015331334
80	0x3b120080	0.002227813
81	0x3caf89eb	0.02142807
82	0xbca49239	-0.020089256
83	0xbd0dda89	-0.03463224
84	0xbc98e659	-0.018664526
85	0x3ceef94f	0.029171614
86	0xbca447aa	-0.020053703
87	0xbd0f89eb	-0.03504364
88	0x3ad888d4	0.001652027
89	0xbc9964cf	-0.018724827
90	0xbd0e1154	-0.034684494
91	0xbcdaa64e	-0.026690628
92	0x3c525abf	0.012839018
93	0xbcb76cb4	-0.0223907
94	0xbcdc5d57	-0.026899977
95	0x3be998a6	0.007128793
96	0xbade4619	-0.0016958147
97	0x3bb44737	0.0055016535
98	0x3c819431	0.015817733
99	0xbcc34799	-0.023837851
100	0xbd021e40	-0.03176713
101	0xbce836c5	-0.028346429
102	0x3c5ba01c	0.013404872
103	0xbca4d15b	-0.02011936
104	0xbc8d3b58	-0.017240211
105	0x3cb35356	0.021890324
106	0xbc76ebae	-0.015070839
107	0xbc98c604	-0.018649109
108	0x3cd26370	0.025682181
109	0x3cf74bd1	0.03018752
110	0x3c9eddd1	0.01939288
111	0x3c8902b6	0.016724925
112	0xbbffe4e9	-0.0078092706
113	0xbc944770	-0.01810047
114	0x3cc09187	0.023506893
115	0x3d0823ef	0.033237394
116	0x3cbe0f44	0.023200639
117	0xbce7fbee	-0.028318372
118	0xbc0d6c69	-0.008631804
119	0xbcbd93d5	-0.02314178
120	0xbccde0b7	-0.025131566
121	0x3c858dbf	0.016302941
122	0x3c5711d7	0.013126812
123	0x3ccda673	0.025103783
124	0xbc50c752	-0.012742834
125	0xbc7fe5f0	-0.015618786
126	0x3bd635b8	0.0065371655
127	0x3ce728ec	0.028217755
128	0x3c3cd891	0.011526243
129	0xbce621ba	-0.028092254
130	0x3cec2b71	0.028829308
131	0xbcd5207d	-0.026016468
132	0x3cb1e8d8	0.021717474
133	0x3ca9f9f4	0.02074907
134	0xbc853b7c	-0.016263716
135	0x3cc9f48b	0.02465274
136	0x3c94052b	0.01806887
137	0x3c852a1d	0.016255433
138	0xbc833dc7	-0.016020669
139	0x3c57e761	0.013177724
140	0x3c605048	0.013691016
141	0x3cf804f6	0.030275803
142	0x3a409951	0.00073470647
143	0xbc3b83b1	-0.011444972
144	0xbc7ba63b	-0.015359457
145	0x3cd8bd8b	0.026457569
146	0xbcdb19dc	-0.02674573
147	0x3cc3034d	0.023805285
148	0xbcbe2733	-0.023212051
149	0xbcffad89	-0.031210678
150	0xbc9885a3	-0.01861841
151	0xbcb9c31a	-0.02267604
152	0xbca37b97	-0.019956393
153	0xbcb72230	-0.022355169
154	0xbc02de8a	-0.007987628
155	0x3b5380d8	0.0032272842
156	0x3c8c3ffe	0.017120358
157	0xbc4495e3	-0.011998626
158	0x3b4e4abc	0.003147765
159	0x3c039cac	0.008032959
160	0x3bf55978	0.007487472
161	0xbc97b95d	-0.018521005
162	0x3c1d1014	0.009586353
163	0x3cac457f	0.021029232
164	0x3cc537db	0.024074486
165	0xbbcc35b2	-0.006231987
166	0xbb4fd117	-0.003171032
167	0xbc075228	-0.008259334
168	0x3c31ce34	0.010852385
169	0x3c8b479e	0.017001923
170	0xbca239a3	-0.019802874
171	0xbcaf41d9	-0.021393703
172	0xbd12dcaa	-0.035854973
173	0xbc8659b0	-0.016400188
174	0x3cb439c1	0.022000195
175	0x3c27e7d6	0.010248145
176	0x3cdec646	0.027194154
177	0x3a21d904	0.00061740004
178	0xbd0be315	-0.03415211
179	0x3c135c16	0.008994123
180	0x3c7c66a0	0.015405327
181	0xbcad4430	-0.021150678
182	0x3cc5f39f	0.02416402
183	0xbd0e847c	-0.034794316
184	0x3cf6db37	0.030133827
185	0xbb05e95a	-0.0020433278
186	0xbc0ffb0f	-0.008787884
187	0xbcadb691	-0.021205219
188	0xbca40f2b	-0.020026764
189	0xbcecd74d	-0.028911257
190	0x3bfcf8ad	0.007720074
191	0x3c255b73	0.010092604
192	0x3bd77fc3	0.0065765097
193	0xbc95da0b	-0.018292448
194	0xbb23fd32	-0.0025022742
195	0xbbfec59e	-0.0077750226
196	0xbc80ca0c	-0.015721343
197	0x3c620872	0.013795959
198	0x3cbbc2dd	0.022920066
199	0x3ca87689	0.020564334
200	0xbbd55d7f	-0.0065113897
201	0x3c16c3a8	0.0092019215
202	0x3c640c4d	0.013918948
203	0xbc383f87	-0.011245615
204	0x3b05b6f2	0.0020403233
205	0x3cb70a14	0.022343673
206	0x3c962c63	0.018331712
207	0xbcf7d221	-0.030251564
208	0xbcadbd0f	-0.021208314
209	0xbcd6a09c	-0.026199631
210	0x3c813352	0.015771542
211	0x3b1b72c4	0.0023719529
212	0x3bd9b714	0.006644139
213	0xbc3ee31b	-0.011650826
214	0x3b890ecd	0.0041826726
215	0xbc03fc5c	-0.008055773
216	0xbc992b95	-0.01869754
217	0xbce0c8cb	-0.027439496
218	0x3cdcf7dd	0.02697366
219	0xbcbf25fc	-0.023333542
220	0x3d029ed2	0.031889744
221	0x3bc3a32d	0.00597038
222	0xbcef98fc	-0.029247753
223	0x3ca401e9	0.020020442
224	0xbd06c1d3	-0.03289969
225	0x3ba25961	0.0049545025
226	0xbc54f3a8	-0.012997545
227	0xbb5c5988	-0.00336227
228	0x3c7be352	0.015374022
229	0x3ca6a391	0.020341666
230	0x3c979ecf	0.018508343
231	0x3c78d502	0.015187504
232	0x3b4bdc4e	0.0031106654
233	0xbb902814	-0.004399309
234	0xbaf13722	-0.0018403272
235	0xbc6bea81	-0.014399172
236	0xb9307079	-0.00016826567
237	0xbcce1f95	-0.025161544
238	0x3d048938	0.032357424
239	0xbcc69f4d	-0.024245882
240	0x3c42b3f9	0.011883729
241	0x3c384ed6	0.011249265
242	0x3cbb9927	0.022900177
243	0xbd05714b	-0.032578748
244	0xbb848773	-0.004044467
245	0x3cf7c9da	0.030247618
246	0x3cad61d8	0.02116482
247	0x3c34979a	0.011022473
248	0xbce9d275	-0.028542737
249	0x3bd90966	0.006623435
250	0x3c17459e	0.009232907
251	0x3c8f467e	0.017489668
252	0x3c226cf6	0.009913674
253	0x3c2a3cdf	0.010390489
254	0x3cb5fb79	0.022214638
255	0x3c19842e	0.009369893

tree_conv.3.weights.bias f4 [128]
0	0x3c2564c8	0.010094829
1	0x3ca9f79e	0.020747956
2	0x3c844c13	0.016149556
3	0x3adf70d8	0.001704718
4	0xbc0d3a95	-0.008619924
5	0x3d0978a0	0.033562303
6	0xbd03bf77	-0.032165017
7	0x3ca6420a	0.020295162
8	0xbcd6f146	-0.026238095
9	0x3b23f98f	0.0025020575
10	0x3c8d3c35	0.017240623
11	0xb990ae56	-0.0002759571
12	0xbc7b1a4a	-0.015326092
13	0xbd0d25ed	-0.034459997
14	0xbcddc71e	-0.027072486
15	0xbd07125d	-0.032976497
16	0xbcde07ee	-0.02710339
17	0xbce1dd71	-0.027571412
18	0x3ab20f8d	0.0013584957
19	0x3c1ef1ae	0.009701176
20	0xbd0a8bcf	-0.033824738
21	0x3d06ff0b	0.03295807
22	0xbbbaf6a6	-0.0057056723
23	0x3c4c823c	0.012482222
24	0xbbb424d9	-0.0054975566
25	0x3d0340d9	0.032044265
26	0x3d10938f	0.035296973
27	0xbca7f4cf	-0.020502476
28	0x3d019b42	0.031642206
29	0x3caca8da	0.021076608
30	0x3ccbcc51	0.0248777
31	0x3cf4a70e	0.029864814
32	0x3cae9fbd	0.021316404
33	0xbd0b4306	-0.033999465
34	0x3ccd4cce	0.025061037
35	0x3d129bf6	0.035793267
36	0xbc468923	-0.012117657
37	0xbc8ed0ec	-0.017433606
38	0xbca3f9c5	-0.02001656
39	0x3bfb2a8b	0.0076649836
40	0x3cb218b7	0.0217403
41	0xbc796576	-0.015221944
42	0x3b5e8728	0.003395507
43	0x3ca03f6e	0.019561496
44	0xbcad543d	-0.021158332
45	0x3c5cf184	0.013485316
46	0x3ae44f31	0.001741862
47	0x3c3ef6c9	0.011655518
48	0x3d00e030	0.0314638
49	0xbbc68d31	-0.006059312
50	0x3cdca0e4	0.026932187
51	0xbc61edf6	-0.013789644
52	0x3cae648c	0.021288179
53	0x3bdb0745	0.006684216
54	0xba20e558	-0.00061376905
55	0x3cf65cee	0.03007361
56	0x3cb23418	0.021753356
57	0xbc0b05f3	-0.008485305
58	0xbd0a1a6c	-0.033716604
59	0x3b66b7e9	0.0035204834
60	0xbc60dd45	-0.01372463
61	0xbcc73232	-0.024315927
62	0x3b440a90	0.0029913522
63	0xbc9ee95a	-0.01939838
64	0xbd0e82c2	-0.03479267
65	0xbc4031b8	-0.011730604
66	0xbcfb1fa7	-0.030654741
67	0x3cf83d6e	0.03030273
68	0x3b9b2de6	0.004735696
69	0x3d05b770	0.032645643
70	0x3d0642ac	0.032778427
71	0x3c7bd767	0.01537118
72	0xbce43f7c	-0.027862303
73	0x3ca5150e	0.020151641
74	0xbcd737e1	-0.026271762
75	0xbc54ccae	-0.012988253
76	0xbca75e32	-0.020430658
77	0xbcbc90d3	-0.023018276
78	0x3c0e945c	0.008702364
79	0xbd0fed58	-0.035138458
80	0x3c78f55e	0.015195219
81	0xbab938cd	-0.0014131308
82	0x3c27dab4	0.010245014
83	0xbc3f3ced	-0.011672241
84	0x3c8bd348	0.01706852
85	0xbca94dff	-0.020667074
86	0xbccc17ae	-0.024913635
87	0x3ce45a55	0.027875105
88	0xbc938647	-0.018008364
89	0x3cce1d58	0.025160477
90	0xbb77c870	-0.003780868
91	0x3b5566fc	0.0032562604
92	0xbcf2df23	-0.029647416
93	0xbb74b6cf	-0.0037340408
94	0xbcbadee7	-0.022811366
95	0xbc9a4311	-0.018830808
96	0xbc9518c9	-0.018200295
97	0x3cb0a6a9	0.021563845
98	0x3c65bd36	0.014022162
99	0xbc049b7b	-0.00809371
100	0x3d04fa1e	0.032465093
101	0xbcb213b1	-0.021737905
102	0xbc9598d1	-0.018261345
103	0x3cfd97c2	0.030956153
104	0x3cbfb49d	0.023401553
105	0xbceb8e2c	-0.028754316
106	0xbcecb728	-0.02889593
107	0x3caa1310	0.020761043
108	0xb900afb1	-0.00012272481
109	0x3c0abafe	0.008467434
110	0x3b046e63	0.0020207397
111	0xb9064c5a	-0.00012807679
112	0xbc914a6c	-0.017735682
113	0x3cd3b3c6	0.025842559
114	0xbbb0afa4	-0.0053920317
115	0x3cacd457	0.021097345
116	0x3c7953f1	0.015217767
117	0xbd0cd9b9	-0.034387324
118	0xbc456655	-0.012048324
119	0xbc005281	-0.00783217
120	0x3ce02f78	0.027366385
121	0xbac04148	-0.0014667893
122	0xbbf20b25	-0.0073865824
123	0xbc876211	-0.016526254
124	0x3c82a8b8	0.015949592
125	0xbce9eebf	-0.028556226
126	0x3c8c97d8	0.017162248
127	0x3cb8e37b	0.022569409

tree_conv.6.weights.weight f4 [64, 128, 3]
0	0xbcce44f2	-0.02517936
1	0x3ce67452	0.028131638
2	0xbc5a7937	-0.013334564
3	0x3b4f3bde	0.0031621377
4	0x3cf4b4fd	0.029871458
5	0xbd3d393b	-0.046197157
6	0x3c75a877	0.014993778
7	0x3b9d8f8a	0.004808371
8	0x3cc47911	0.02398351
9	0x3c846fff	0.016166685
10	0x3d503c28	0.05083862
11	0xbd467c46	-0.04845836
12	0xbd39c8bc	-0.04535745
13	0xbbdac7ca	-0.0066766487
14	0x3c848f45	0.016181597
15	0x3a4d17fd	0.0007823704
16	0xbbb39931	-0.0054809083
17	0xbd45cd2c	-0.04829137
18	0x3c842912	0.016132865
19	0xbb2c3ecf	-0.0026282554
20	0x3cd69059	0.026191877
21	0x3d2fe2e3	0.042940985
22	0x3b5253c3	0.0032093383
23	0xbc83abee	-0.016073193
24	0x3cc6126e	0.02417871
25	0x3b0be9d0	0.002134908
26	0xbd0ad87b	-0.033897858
27	0xbd0f2db3	-0.03495569
28	0x3a844c97	0.0010093626
29	0x3aa5bd99	0.0012645005
30	0x3c6d4c35	0.014483501
31	0x3cbbd4f7	0.022928698
32	0xbd108e15	-0.03529175
33	0xbd1dc4e1	-0.038517836
34	0xbcf94511	-0.030428441
35	0xbc94a51c	-0.018145137
36	0xbc0ee92c	-0.008722585
37	0x3c445188	0.011982329
38	0x3c7bb9aa	0.01536409
39	0xbc409dc2	-0.011756362
40	0xbd0930e9	-0.03349391
41	0xbd2c1173	-0.04200883
42	0x3af20b5c	0.001846652
43	0xbc654064	-0.013992403
44	0xbc2ea674	-0.010659803
45	0x3c930262	0.017945472
46	0xbd1378a4	-0.036003724
47	0xbcacaed7	-0.021079464
48	0x3ca929d3	0.020649826
49	0x3d2fd115	0.042924006
50	0x3d02a7cd	0.03189831
51	0x3cd01ce8	0.025404409
52	0xbd45750a	-0.04820732
53	0xbd39895f	-0.045297023
54	0x3d2acc8e	0.041698985
55	0xbbc1da96	-0.00591595
56	0x3c6f82d5	0.014618595
57	0xbcfdc02f	-0.03097543
58	0x3d30df80	0.043181896
59	0xbd0d55c9	-0.03450564
60	0xbd0ce604	-0.034399047
61	0xbcec8edc	-0.028876714
62	0xbc166e50	-0.009181574
63	0x3a5c2efe	0.00083993364
64	0x3c61ee5f	0.013789742
65	0x3d454210	0.048158705
66	0x3cb0dfbd	0.021591062
67	0xb9970b3e	-0.0002880934
68	0xbca1af46	-0.019736897
69	0x3d028cb7	0.031872477
70	0x3d1f8da0	0.038953424
71	0x3c87e39e	0.016588029
72	0xbcb8f854	-0.02257935
73	0x3d1edd3d	0.038785208
74	0xbd01b2f4	-0.031664804
75	0xbc9e689c	-0.019336991
76	0x3bf8c1ac	0.007591447
77	0xbcf35d62	-0.029707614
78	0x3bdf5ef0	0.0068167374
79	0x3cbdc708	0.023166195
80	0xbd04814d	-0.032349873
81	0xbce2dbe4	-0.027692743
82	0x3cf86ce1	0.030325355
83	0x3ae01629	0.0017096448
84	0xbcadd3d9	-0.02121918
85	0x3bf1e349	0.007381831
86	0xbafc3084	-0.0019240533
87	0xbb8e48ae	-0.00434216
88	0xbc4e1bb1	-0.012579844
89	0x3c034c72	0.008013831
90	0x3d28e15c	0.041230544
91	0x3d05217a	0.03250263
92	0x3b318755	0.002708872
93	0xbd14c6d3	-0.036322426
94	0x3d47d6e3	0.048788916
95	0xbd3a16da	-0.04543195
96	0xbd1a33ba	-0.037646987
97	0x3c726598	0.01479473
98	0x3d369032	0.04457111
99	0xbd199f8c	-0.03750567
100	0xbcc22c75	-0.02370284
101	0x3c998ab2	0.018742893
102	0x3d17e766	0.037085913
103	0x3d395f11	0.045256678
104	0xbbf4e356	-0.0074733896
105	0x3d1a28bf	0.037636515
106	0xbd3b8081	-0.045776848
107	0xbd434019	-0.04766855
108	0x3cf252dc	0.029580526
109	0xbd3c9c42	-0.046047457
110	0x3cfb29bd	0.03065955
111	0xbd496f7e	-0.049178593
112	0x38adaed7	8.281849e-05
113	0x3d0683cf	0.032840546
114	0x3d41296e	0.04715865
115	0xbd3ba569	-0.045812044
116	0xbc943890	-0.018093377
117	0x3d0ae9e5	0.033914465
118	0xbd414426	-0.047184132
119	0x3d4bf2f4	0.049792245
120	0x3c8217d4	0.015880503
121	0xbd087515	-0.033314783
122	0x3ce148d3	0.027500546
123	0xbd36fafe	-0.04467296
124	0x3cded56b	0.027201375
125	0x3c3b8253	0.011444646
126	0x3cd37c1d	0.025816018
127	0xbcfcdcde	-0.030867036
128	0xbd458018	-0.048217863
129	0x3ca4e3e9	0.020128207
130	0x3b1ea252	0.0024205637
131	0x3c97ea86	0.018544447
132	0x3bc914e5	0.006136524
133	0xbcbb0a1f	-0.022831975
134	0x3d163d00	0.036679268
135	0xbc5aff11	-0.013366477
136	0xbd089bf4	-0.033351853
137	0x3d263888	0.040581256
138	0xbcdfec98	-0.027334496
139	0x3d15adb7	0.03654262
140	0xbca9fef0	-0.020751446
141	0xbd05a356	-0.032626472
142	0x3cde1cba	0.027113307
143	0x3c7ae30d	0.015312922
144	0xbce1010d	-0.027466321
145	0x3ce15f16	0.02751116
146	0xbd246ca0	-0.040142655
147	0x3ca10a0e	0.019658115
148	0x3cda20a1	0.026626887
149	0x3d04f5d3	0.032461
150	0x3d14f57d	0.03636693
151	0x3cfca731	0.030841442
152	0xbd1871fb	-0.037218075
153	0x3cb63342	0.022241239
154	0x3d3a3ce2	0.04546822
155	0xbd0b35a4	-0.033986703
156	0x3d1edeb7	0.038786616
157	0xbd21f07d	-0.039535988
158	0xbd34ee71	-0.044172708
159	0x3cdba940	0.026814103
160	0x3d496e6d	0.049177576
161	0x3d11a973	0.03556199
162	0x3c28fd65	0.01031432
163	0x3d0328b0	0.032021224
164	0x3c302d64	0.0107530095
165	0x3d47f187	0.048814323
166	0x3d0a2081	0.033722404
167	0x3bc6aa98	0.006062817
168	0xbd1d8b59	-0.03846297
169	0xbcd188b7	-0.025577886
170	0x3c9fb52e	0.019495573
171	0x3acb1062	0.0015492553
172	0xbd2581b0	-0.040406883
173	0x3cce5fbf	0.02519214
174	0xbbda3090	-0.006658621
175	0xbd018bd9	-0.03162751
176	0x3cbfc52d	0.02340945
177	0xbbfb1f94	-0.0076636765
178	0x3cbf7e93	0.023375785
179	0xbd4c3eb9	-0.049864504
180	0x3d3e928d	0.04652648
181	0x3ccc0f4c	0.024909638
182	0x3c494cd7	0.012286386
183	0x3d36f8ad	0.04467075
184	0x3d0233db	0.031787734
185	0x3cf90809	0.03039934
186	0xbc930cba	-0.017950404
187	0xbc0d13ed	-0.008610708
188	0x3b1743cd	0.0023081184
189	0xbd1db7e3	-0.038505446
190	0xbd4f5906	-0.05062201
191	0xbd4c107b	-0.049820404
192	0x3cbc228a	0.022965688
193	0xbd081577	-0.033223595
194	0xbb924646	-0.0044639437
195	0xbd1e6852	-0.038673706
196	0x3bf02f0a	0.0073298262
197	0xbcf604a4	-0.03003151
198	0x3d0ef6e3	0.03490342
199	0x3bb6211c	0.005558146
200	0xbb19ab67	-0.002344811
201	0x3cf73951	0.030178698
202	0x3c93fffd	0.0180664
203	0x3c97bc46	0.018522393
204	0x3cad002d	0.021118248
205	0x3d21277f	0.039344307
206	0x3b8104d9	0.0039373455
207	0xbd35fc0a	-0.044429816
208	0xbce1f2d0	-0.027581602
209	0xbd2e0477	-0.042484727
210	0xbc3abe01	-0.0113978395
211	0xbc9b854d	-0.018984461
212	0xbd4dea09	-0.05027202
213	0x3cde22c2	0.027116183
214	0xbbca9d2f	-0.0061832885
215	0x3d366c71	0.04453701
216	0xbc2ec411	-0.010666863
217	0xbcd58faf	-0.02606949
218	0xbc901530	-0.017588228
219	0xbd44c9a2	-0.048043855
220	0x3c7d1cf2	0.015448796
221	0xbd1d2c50	-0.038372338
222	0x3ca08d33	0.019598579
223	0x3d0e8810	0.034797728
224	0xbcc825b0	-0.024432033
225	0x3c8b4e9d	0.01700526
226	0x3c6ea342	0.014565291
227	0xbc9fcb7b	-0.019506207
228	0xbce10690	-0.02746895
229	0x3c663e90	0.014053002
230	0xbd3b5098	-0.045731157
231	0xbcc1ec6b	-0.023672303
232	0xbbfcc55a	-0.007713956
233	0x3c3933c3	0.011303845
234	0x3d39cabe	0.045359366
235	0x3c80e8e4	0.01573605
236	0x3cf47ccc	0.029844664
237	0xbd44afa6	-0.048019074
238	0x3d0a6819	0.03379068
239	0x3c47142d	0.012150806
240	0x3d4da87a	0.0502095
241	0x3cec1b64	0.028821655
242	0x3c8522f6	0.016252022
243	0x3c0c7411	0.008572594
244	0xbc42e921	-0.011896403
245	0xbc26aad8	-0.010172568
246	0xbbe87bc1	-0.0070948307
247	0x3b271078	0.0025491994
248	0x3ce60dbd	0.028082723
249	0x3b445799	0.0029959439
250	0xbcb98507	-0.02264644
251	0xbb849fa3	-0.0040473505
252	0xbd11541c	-0.035480604
253	0x3cdeeb25	0.027211735
254	0xbd2757f2	-0.040855356
255	0xbc04c038	-0.008102469

tree_conv.6.weights.bias f4 [64]
0	0x3d0bf28b	0.034166854
1	0x3c675a3c	0.014120635
2	0x3c816924	0.015797205
3	0xbd22277c	-0.039588436
4	0xbd21aff8	-0.039474458
5	0x3d261fd0	0.040557683
6	0xbce8abb1	-0.028402181
7	0xbd02eca3	-0.031963956
8	0xbb786c88	-0.0037906487
9	0x3d36e781	0.044654373
10	0x3d2217dc	0.039573535
11	0xbd271989	-0.040795837
12	0xbc293d8b	-0.010329614
13	0x3d471f26	0.04861369
14	0x3cc14f69	0.023597436
15	0xbcf31fe0	-0.029678285
16	0xbd321194	-0.043473795
17	0xbc668f1e	-0.014072208
18	0xbcd55330	-0.026040643
19	0x3be5f69b	0.007017923
20	0xbcfda2a6	-0.030961346
21	0x3c001b63	0.0078190295
22	0x3cc0dc24	0.023542471
23	0x3c5676ac	0.013089817
24	0xbd112c2a	-0.03544251
25	0xbd06f5f5	-0.032949407
26	0x3d060947	0.03272369
27	0xbb45429b	-0.0030099514
28	0xbcc5b07c	-0.024132006
29	0xbd15aec8	-0.036543638
30	0x3ce0c86c	0.027439319
31	0xbd4b45a7	-0.049626973
32	0xbcb9a00c	-0.022659324
33	0x3d279754	0.040915802
34	0x3c935107	0.017982973
35	0x3d0c1c02	0.034206398
36	0x3c8a41cf	0.016877083
37	0x3cb29e95	0.021804133
38	0x3d0c5ee5	0.034270186
39	0xbc691b99	-0.014227771
40	0xbbbd230a	-0.0057719992
41	0xbbfec5ac	-0.007775029
42	0x3d3485e4	0.044073
43	0x3c1f4f7b	0.009723539
44	0x3cee2cc5	0.029074082
45	0xbc21198f	-0.009832754
46	0xbd0e2a71	-0.034708444
47	0xbce17a44	-0.027524121
48	0x3cc9e433	0.024644947
49	0xbd1547ea	-0.036445536
50	0x3c1d3e02	0.009597303
51	0x3d38eec7	0.04514959
52	0xbd48f01f	-0.049057122
53	0x3bf69433	0.007524991
54	0x3ce38884	0.027775057
55	0xbc65de7e	-0.014030097
56	0xbbef3d73	-0.0073010265
57	0xbd420b55	-0.04737409
58	0xbd2dcc61	-0.04243124
59	0xbd187f18	-0.03723058
60	0x3d3d72a4	0.046251908
61	0xbd424031	-0.0474245
62	0xbd1a0ef5	-0.03761192
63	0xb928bbbb	-0.00016091664

tree_conv.9.weight f4 [32, 64]
0	0xbdc3358c	-0.09531698
1	0x3d7d35a8	0.06181875
2	0x3de2d902	0.11076547
3	0x3dedd5d8	0.11613053
4	0xbcdea623	-0.02717883
5	0x3d1dedf4	0.038557008
6	0x3daf3e55	0.08556811
7	0x3da03e09	0.07824332
8	0x3db749f9	0.08949656
9	0xbd1d0927	-0.038338806
10	0xbde28faf	-0.11062562
11	0xbdd50488	-0.10401255
12	0xba70e488	-0.0009189327
13	0x3d70e433	0.058811378
14	0x3dad7534	0.0846962
15	0xbdcaff54	-0.09911981
16	0xbcb49757	-0.02204482
17	0x3df2c985	0.11854843
18	0x3ca814bb	0.020517698
19	0x3dc88adb	0.097921096
20	0xbd98eca5	-0.07467011
21	0x3d66e636	0.05637189
22	0xbc8e57f0	-0.017375916
23	0xbd44a25f	-0.04800641
24	0xbdc941a1	-0.09826971
25	0x3c4a04da	0.012330258
26	0x3d45a50f	0.048253115
27	0x3d5c91d1	0.05385
28	0x3ddf2c40	0.10897112
29	0x3d7ec01a	0.06219492
30	0xbd2afb72	-0.041743703
31	0x3da828eb	0.082109295
32	0x3dd1dbd8	0.1024701
33	0x3c0b5eac	0.008506458
34	0x3dafc205	0.08581928
35	0x3d20066f	0.039068636
36	0xbddda4d1	-0.10822452
37	0x3d23b295	0.03996523
38	0xbdad5b01	-0.08464623
39	0xbdeda1ae	-0.116031036
40	0xbd5f80d0	-0.054566205
41	0xbd3afe50	-0.045652688
42	0x3d9d6bc8	0.07686573
43	0x3db7e51f	0.08979248
44	0xbdf4460e	-0.11927424
45	0x3da078a0	0.078355074
46	0x3ddced41	0.1078744
47	0x3d838624	0.0642207
48	0x3d0ebd93	0.03484876
49	0xbbc5ecd9	-0.0060401973
50	0xbd7d215e	-0.0617994
51	0x3d86a145	0.065737285
52	0xbd3fa340	-0.046786547
53	0x3ccdb711	0.025111707
54	0xbd02691a	-0.031838514
55	0xbdd3099e	-0.10304569
56	0xbde7af3e	-0.11312722
57	0xbb0dcf2b	-0.0021638374
58	0x3d9814b4	0.07425824
59	0x391f1e22	0.00015174647
60	0x3d6ed2a0	0.058306336
61	0xbd94da11	-0.07268155
62	0x3c8bb83a	0.01705562
63	0x3cc0b68e	0.023524549
64	0x3d945fd0	0.07244837
65	0x3cbeaf26	0.023276877
66	0x3d74ba7d	0.05974816
67	0xbdd19fa7	-0.102355294
68	0xbdfc5f4c	-0.12322864
69	0x3c3ddfa4	0.011588965
70	0x3d92c23c	0.071659535
71	0xbdaf4a6b	-0.08559116
72	0xbc04204a	-0.008064339
73	0x3cbf003a	0.023315538
74	0x3dc768bf	0.097367756
75	0xbd869b27	-0.06572562
76	0xbda6ad85	-0.08138565
77	0xbd7c6363	-0.06161822
78	0x3c08026e	0.0083013605
79	0x3df6dd82	0.12053968
80	0x3d9f8198	0.0778839
81	0x3c412891	0.011789457
82	0x3da4dcd8	0.08049935
83	0x3b5e9d2f	0.00339682
84	0x3dedb8df	0.11607527
85	0xbdb49522	-0.08817507
86	0xbd64ddab	-0.05587546
87	0xbcccce61	-0.025000753
88	0xbd63f65d	-0.055654872
89	0xbd25e2a1	-0.040499333
90	0xbdb89216	-0.09012239
91	0x3d81ed52	0.063440934
92	0xbc58527b	-0.013203259
93	0xbdf17308	-0.117895186
94	0xbda5f26b	-0.08102878
95	0xbdc5da9c	-0.09660837
96	0xbdec2366	-0.11530189
97	0x3da31fd0	0.07965052
98	0x3d8d49c5	0.06898836
99	0xbd213c4f	-0.039364155
100	0xbd8217f6	-0.063522264
101	0xbc5b88b6	-0.013399294
102	0xbd84488b	-0.06459149
103	0xbcee0683	-0.02905584
104	0x3db17bc4	0.086661845
105	0x3d144bd7	0.03620514
106	0x3d53ff48	0.051757127
107	0x3d8bdae7	0.06828862
108	0xbd832b13	-0.064047
109	0xbdc0539e	-0.09390949
110	0x3dc6baab	0.09703573
111	0xbdb43d85	-0.088007964
112	0xbdc4bc51	-0.09606231
113	0x3d7e6be1	0.0621146
114	0xbdd3a549	-0.1033426
115	0x3de318a4	0.11088684
116	0xbd60134c	-0.054705903
117	0xbd888d0e	-0.06667529
118	0xbd8ce35c	-0.06879303
119	0x3da70baa	0.081565216
120	0x3dc5c43d	0.0965657
121	0xbc5e4a19	-0.013567471
122	0x3dc10cd0	0.09426272
123	0xbde26a75	-0.11055461
124	0xbdc989a0	-0.09840703
125	0x3dc36bf8	0.09542078
126	0xbc86b8fb	-0.016445627
127	0xbde14753	-0.10999932
128	0xbd021ccf	-0.031765755
129	0x3d371675	0.04469915
130	0xbcb2947a	-0.021799315
131	0xbd376df0	-0.04478258
132	0xbcdcf014	-0.026969947
133	0xbd4741d0	-0.048646748
134	0x3d1a3c9b	0.037655454
135	0x3dfa9f25	0.12237386
136	0x3d8b6171	0.06805695
137	0x3d5d461a	0.054021932
138	0xbd4ead5c	-0.050458297
139	0x3c7c9cf3	0.015418279
140	0x3cdb7451	0.026788862
141	0xbb733d4b	-0.003711539
142	0xbb922dbd	-0.004461019
143	0x3d5298ed	0.051415373
144	0xbdc3ab58	-0.095541656
145	0xbd96deca	-0.073667124
146	0x3dc94729	0.09828026
147	0xbd9652a0	-0.07339978
148	0xba11b17b	-0.00055577577
149	0x3c4bdaf4	0.012442339
150	0xbdbdd1e5	-0.0926855
151	0xbd100a87	-0.03516629
152	0x3c774d9f	0.01509419
153	0xbda1ca2d	-0.0789989
154	0xbaa5c008	-0.0012645731
155	0x3d94ce8d	0.07265959
156	0x3d859519	0.06522579
157	0xbdf97d67	-0.12182122
158	0x3db92739	0.09040684
159	0xbc953bf1	-0.018217059
160	0xbdf9035e	-0.12158845
161	0x3c038bdb	0.00802895
162	0xbcaa573c	-0.02079355
163	0x3d9d527f	0.076817505
164	0xbd053187	-0.032517936
165	0x3d72d320	0.059283376
166	0xbdd31196	-0.103060886
167	0xbc3c5865	-0.011495684
168	0x3de43b85	0.11144165
169	0xbdaa7995	-0.08323971
170	0x3de8deac	0.11370596
171	0xbdbe7a5d	-0.09300683
172	0xbd526954	-0.05136998
173	0x3d19ffaf	0.037597355
174	0xbcfb463a	-0.030673135
175	0x3d9abe81	0.07555867
176	0x3d81dcd7	0.0634095
177	0xbc764bb8	-0.015032701
178	0xbdabc772	-0.083876505
179	0x3d6bde3f	0.057584997
180	0xbdbb84d1	-0.09156192
181	0xbdb5438e	-0.08850776
182	0x3d8532db	0.065038405
183	0x3d4b18f7	0.049584355
184	0x3d1731d4	0.036912754
185	0x3dc693a7	0.09696131
186	0xbd9257e9	-0.07145674
187	0x3c8e04e6	0.01733632
188	0xbcbb63b8	-0.022874698
189	0xbde2d74c	-0.11076221
190	0xbdac0088	-0.08398539
191	0xbdcf637c	-0.10126397
192	0xbc410b85	-0.011782532
193	0xbcac9e13	-0.02107147
194	0xbd72e671	-0.059301797
195	0xbdc5192d	-0.096239425
196	0xbd13b544	-0.03606154
197	0x3cfcf587	0.030878795
198	0x3c9ed3ae	0.019388046
199	0xbba0a96b	-0.0049030087
200	0x3d9ccf49	0.07656724
201	0x3db9cf24	0.09072712
202	0x3d9ab27b	0.07553574
203	0xbdce128a	-0.1006213
204	0xbdee2646	-0.11628394
205	0x3d1218a5	0.035668034
206	0xbd50fed4	-0.051024273
207	0x3df67491	0.12033952
208	0x3cf260b3	0.029587125
209	0x3d279670	0.040914953
210	0x3da575be	0.08079098
211	0xbdaed9fd	-0.08537672
212	0xbd47799a	-0.048699953
213	0xbdae0b18	-0.0849821
214	0x3dbcd397	0.09220045
215	0xbdba7634	-0.09104577
216	0x3da673fc	0.08127591
217	0xbd942cba	-0.072350934
218	0x3d45aa90	0.048258364
219	0xbce169cb	-0.027516266
220	0x3ca2d57d	0.01987719
221	0x3db6866c	0.08912358
222	0xbde8b6b9	-0.113629766
223	0x3da37c6f	0.07982718
224	0x3d430dea	0.04762069
225	0x3d8cb386	0.06870179
226	0x3d755106	0.059891723
227	0xbda88891	-0.08229173
228	0x3d5c6ce3	0.05381478
229	0x3dd876d3	0.10569539
230	0x3dbdea92	0.09273256
231	0x3deb9b32	0.115042105
232	0xbdc37f63	-0.095457815
233	0xba558912	-0.000814573
234	0xbdd1aac8	-0.10237652
235	0x3d199eb3	0.037504863
236	0xbdcef003	-0.10104372
237	0xbbe88c94	-0.0070968363
238	0x3d6f9ecc	0.05850105
239	0x3c91774e	0.017757084
240	0x3cc1046e	0.023561683
241	0x3d2e1fd5	0.042510826
242	0x3d130ea1	0.035902623
243	0x3dc7a273	0.097477816
244	0xbd9535a4	-0.07285622
245	0x3dd62c84	0.104577094
246	0x3dca3fa5	0.098754205
247	0x3d50c154	0.050965622
248	0xbd89e8c1	-0.067338474
249	0xbc7f9871	-0.01560031
250	0xbd7d2ec9	-0.061812196
251	0xbd493363	-0.04912127
252	0xbd685265	-0.056719203
253	0xbde65378	-0.11246389
254	0xbd7e4f78	-0.062087506
255	0x3df88cca	0.121362284

tree_conv.9.bias f4 [32]
0	0x3db3d3e5	0.0878065
1	0x3d2fe04c	0.042938516
2	0x3dc91c8a	0.098198965
3	0xbdb5fcd9	-0.088861175
4	0x3b5e0d49	0.003388243
5	0x3dd7df54	0.10540643
6	0x3c94a0d3	0.018143093
7	0xbd9f7222	-0.07785441
8	0x3d8b0b31	0.06789244
9	0xbc4c27e9	-0.012460687
10	0x3c460ed9	0.012088501
11	0x3dd85b30	0.10564268
12	0xbd37d9e5	-0.044885535
13	0xbdcdaadc	-0.100423545
14	0x3d810937	0.06300586
15	0x3d8fa9f4	0.07014838
16	0xbd93143f	-0.07181596
17	0xbc095b17	-0.008383534
18	0x3dce8b5b	0.10085174
19	0x3ca1e147	0.01976074
20	0x3dabadb5	0.08382741
21	0xbbbd943b	-0.0057854927
22	0xbd3cf282	-0.04612971
23	0x3d41fce8	0.04736033
24	0x3b9de838	0.0048189424
25	0xbdd44616	-0.1036493
26	0xbd4b0711	-0.049567286
27	0x3dbaf95b	0.09129592
28	0xbdfc6e4b	-0.12325724
29	0x3d64dd59	0.055875156
30	0x3d0667b2	0.032813735
31	0xbd8026eb	-0.06257423

tree_conv.11.weight f4 [1, 32]
0	0x3e1ebc67	0.15501557
1	0xbd25db5f	-0.04049241
2	0x3c0dc4fc	0.008652922
3	0xbda2ac9f	-0.07943081
4	0xbc882ef6	-0.016623955
5	0xbd460d9b	-0.04835282
6	0x3d7fc8a5	0.06244721
7	0xbdf80988	-0.12111193
8	0xbe0138a9	-0.1261927
9	0x3d2dc2ba	0.042422034
10	0x3d8997ab	0.067183815
11	0x3dcb441e	0.09925102
12	0xbe2b20bb	-0.16711704
13	0xbd8dd722	-0.06925799
14	0xbcdc8d98	-0.026922986
15	0xbdbd6987	-0.09248643
16	0x3ceaf1af	0.028679697
17	0x3df5c8f2	0.12001218
18	0xbe139e45	-0.14415844
19	0x3dba0d11	0.090845235
20	0xbdfb5f00	-0.12273979
21	0xbe2e07cb	-0.1699516
22	0x3df787c9	0.12086446
23	0x3dd90e73	0.10598459
24	0x3db6cb89	0.0892554
25	0xbde4137f	-0.11136531
26	0x3c3f367e	0.011670707
27	0xbe07d645	-0.13265331
28	0xbda1cd24	-0.079004556
29	0xbcaf1b36	-0.02137528
30	0x3df24aee	0.11830698
31	0x3d86554b	0.06559237
