src/Models/cost-L1-0_1.onnx (onnx, 677677 bytes, 9 tensors)

tree_conv.0.weights.weight f4 [256, 50, 3]
00000000: 98c4 f03b dc51 873d ec6e 893d 7b59 29bc
00000010: ef75 8a3d d521 08bc 906b 923d cfa3 b53a
00000020: 2dd8 98bd ce44 143c 80e4 75bd 94d2 a53c
00000030: 38fc 5a3d 1f0d 333d b620 81bd e254 42bd
00000040: 7f49 783d 8fb6 9bbd a42a 16bd 0be9 07bc
00000050: f75d 5bbd 5dd6 2f43 c6c9 1242 5e2b 9cc3
00000060: 0d0a 463d 14bb a5bd 5101 843d 7f7a 7cbd
00000070: 57be 91bd d5e2 0d3d 7fb3 0fc3 a22f e1c1
00000080: 64b2 0143 18cf 4b3d dc78 c2bc 61ff 4c3c
00000090: a6f6 1d3d cbaa b2bc f41c 273d 7b0e 97c2
000000a0: 5056 64bf 6a7c 70bd e0fa ce3c ae48 a43d
000000b0: dbd2 98bd 5f1f 46bd 7e3b e2bc d7de 95bd
000000c0: deca 4fc2 ea2e 773d df65 25bd 3312 8f3c
000000d0: df93 8bbd 366b a4bd c538 c942 653f 5040
000000e0: 20bc 47c2 c4ca 8042 9a1e 7fc1 dc42 913d
000000f0: f8e6 40bd bcff a33d 0034 87bd a10e 9b3d
00000100: 1296 87bd e35a 94bd a78e e23c 7e1c 9abd
00000110: c245 50bc 9d99 5dbd ab40 70bd bae7 94bd
00000120: 4011 20bd 0774 6c3d 48c3 dcbc 9a0f 07c3
00000130: 5f83 f1c1 c8af 4243 c789 883d a937 8ebd
00000140: 4669 b9bc 990c 1c3d ea59 96bd d2ab 23bd
00000150: ac4f 9a3d 203a d0b9 cace 09bd e4f0 2ec2
00000160: 0feb aec2 81f7 fabc 0afb 423d f12b 983d
00000170: 8d7f a6bc f215 f53c eb02 a3bd 37e2 9dbb
00000180: 866b bd42 c552 8042 79ca 4cbc 3b64 383d
00000190: f5af 88bd bda6 3abd 85e2 93bc 043d 6cbd
000001a0: 65da 783d 3ca1 423d 3f00 3f3d 3c7a 22bd
000001b0: 1a80 29bc a6b9 7b3d f077 403c c2b1 ed3c
000001c0: d923 5b3d 0993 413d 89c4 1f41 22c1 3141
000001d0: 783a 2cbd f6d7 abc2 cf2a a63d 0078 2b42
000001e0: 8537 6a42 a412 9f41 01e6 773d 203d fc3a
000001f0: bb88 9ebd 7f3f ae3b 58c6 1141 31b6 f9c1
00000200: a9e8 96c2 a015 9ebd 9b4f 993b 9d38 89bd
00000210: be06 6dbd 5718 2bbd 79ff 203d dbbd 99bd
00000220: 99d1 fd3c d8c2 8e3d e050 93bc e598 903c
00000230: f895 b0bc e82a 0b43 1c53 bf41 f5c4 67c2
00000240: e0e4 f6bf 6c48 933f dfa5 0dc1 2b62 a43f
00000250: 5251 213f 1b22 27c3 1606 8b3d 0a9f d33b
00000260: 5e9c 4a3d 771d 3e3d c7e3 33bd b144 68bd
00000270: a9e9 303d 5ee1 87b9 64e6 7a3d 1b04 86bc
00000280: da67 523d 411a 06bd 17ea 8bbd 4e78 3cbd
00000290: d74b 6ebd 10e5 9d3d 62da 733d 6852 2ebd
000002a0: 66a9 803d 0da6 8c3d 0a1a a1bd d96d 9541
000002b0: 320c 4fc1 4d31 86c0 e6a3 653d 8335 923c
000002c0: 637e 253d 6e3f a7bc 7dff 7f3c 8aed 77bd
000002d0: f97a abc1 6455 38c1 c7c9 8a41 6276 a93c
000002e0: 1ee8 77bc 84bb 1abc 13ae e1bc 4cac 2bbd
000002f0: 28db 9abd 9ba8 0541 b905 04c2 b508 79bd
00000300: 5783 103c 2cfe 343d 7ec6 82bd 588e 8fbd
00000310: 2adb 22bd 21c3 ed3b fd6d 4b3f 7a6b 9bbd
00000320: 43f7 953b 0c1e 3f3d 2485 05bd c345 973d
00000330: f651 5141 e0f3 c541 c961 c440 08a3 6dc0
00000340: 2b18 3742 6672 543d 3cd0 963d 038c 443d
00000350: 743a 85bc c559 4e3d 17d7 9abd e7fd 843d
00000360: 77a6 98bd 1ff1 8f3d 11ae 4cbd fcc6 f03c
00000370: c15f 05bd c8ec ca3a 599b 30bd e5f9 af3c
00000380: a419 8cbd d2c8 26c2 40b3 9f3f 1499 28c1
00000390: 4a4c 2bbd 3558 15bc f95d 573d 4c33 e6bc
000003a0: 9b31 63bd 46ac 943c 948e 38bd 825d 843b
000003b0: 2944 563d 18a9 2a42 76d8 f6c1 6883 173d
000003c0: a6f3 343c 325a 84bd 9da9 e0bb f228 653d
000003d0: cc2d a53d 03c2 43bd 52c4 a641 fef7 4741
000003e0: 3cf5 503d b9be 0ebd a640 2a3d 3f45 8d3d
000003f0: a5f2 513d f0e7 cd3c e39c a5bd d2b7 a7bc
0.0073476546 0.0660741 0.0671061 -0.010336275 0.06760775 -0.008308847 0.07149422 0.0013858023
-0.07463107 0.009049607 -0.060032368 0.020242013 0.05346319 0.043713685 -0.06305067 -0.04744423
0.060616966 -0.0760318 -0.03666176 -0.008295308 -0.05355641 175.83736 36.697044 -312.3388
0.04834943 -0.08092323 0.064455636 -0.06164026 -0.071163826 0.034640152 -143.70116 -28.148258
129.69684 0.049758047 -0.02373927 0.012512059 0.0385653 -0.021809956 0.040799096 -75.52828
-0.891942 -0.0587124 0.02526611 0.08021675 -0.074620925 -0.04836976 -0.027616259 -0.07317894
-51.948112 0.060347475 -0.040380355 0.017464733 -0.068153135 -0.08028261 100.61088 3.2538693
-49.933716 64.39603 -15.944971 0.070928305 -0.04709527 0.08007762 -0.06601715 0.075711496
-0.066204205 -0.07243898 0.027655913 -0.07524966 -0.012711944 -0.054101575 -0.058655422 -0.07270761
-0.03907895 0.05772784 -0.026948586 -135.06094 -30.189146 194.68665 0.06666904 -0.0694421
-0.022633206 0.03809795 -0.073413685 -0.039958782 0.075347275 -0.00039716158 -0.033644475 -43.735245
-87.4591 -0.030635597 0.04760269 0.07430256 -0.020324493 0.02991769 -0.07959541 -0.0048182267
94.71001 64.16166 -0.012499445 0.045017462 -0.06674186 -0.04556917 -0.018052349 -0.057675377
0.060755152 0.047517046 0.046631094 -0.039667353 -0.010345483 0.061456345 0.011747345 0.029015426
0.053500984 0.047259364 9.985482 11.109652 -0.042047948 -85.9218 0.08113634 42.867188
58.55422 19.884102 0.060522083 0.0019244291 -0.07740923 0.005317628 9.110924 -31.21396
-75.454414 -0.077189684 0.004678679 -0.06700251 -0.057867758 -0.04177126 0.039306138 -0.07506915
0.030983733 0.06970757 -0.0179829 0.01765103 -0.021555886 139.1676 23.91558 -57.94234
-1.9288597 1.1506476 -8.852996 1.2842458 0.6301471 -167.13322 0.0678827 0.006458168
0.04946553 0.04641482 -0.043918397 -0.056706134 0.043191586 -0.00025917118 0.061254874 -0.01635938
0.05136857 -0.03273988 -0.068317585 -0.04601317 -0.058177795 0.07709706 0.059534438 -0.042559057
0.0628231 0.06867609 -0.07866295 18.678637 -12.940477 -4.193518 0.05606451 0.017847782
0.040403735 -0.020415988 0.015624878 -0.06052927 -21.435045 -11.520847 17.348524 0.020686332
-0.015131025 -0.009444121 -0.027548825 -0.041912362 -0.07561332 8.353663 -33.00559 -0.06079932
0.008820376 0.04418771 -0.06385516 -0.07009572 -0.039759792 0.007255927 0.79464704 -0.07588859
0.004576595 0.046659514 -0.032597676 0.07386353 13.08251 24.74408 6.1369367 -3.7130756
45.7736 0.05186691 0.07363936 0.047985088 -0.016263224 0.05037858 -0.075605564 0.064937405
-0.07453626 0.07028412 -0.04997069 0.029391758 -0.03256202 0.0015481943 -0.0431169 0.021481464
-0.06840828 -41.696114 1.2476578 -10.537373 -0.0418208 -0.0091152685 0.052579854 -0.028100632
-0.05546723 0.018148553 -0.045057848 0.0040394673 0.052311096 42.66513 -30.855694 0.036990553
0.011044418 -0.06462516 -0.006856157 0.05594725 0.08065376 -0.047792446 20.84586 12.498045
0.051015124 -0.034849856 0.04156556 0.06897973 0.051256794 0.02513501 -0.080865644 -0.020473395

tree_conv.0.weights.bias f4 [256]
00000000: 5457 033e 3183 a0c2 9a89 9bbe 0c81 8242
00000010: 0a1b 9e3f 9082 04c2 eaa4 9441 b4f5 4842
00000020: 0dd8 c6c1 029a 09c1 a23f a3c1 d5a9 1941
00000030: e969 5e42 f9c9 82c2 5786 71c2 d37c 9142
00000040: e87b 4cc3 58e4 6642 ddaa b5c2 d751 9d42
00000050: 155e 34c2 c4e8 c241 422a a1c2 c6d9 41c3
00000060: 067d acc2 d731 edc2 79df 4342 b36b a1c2
00000070: 4a77 2141 ee60 66c2 4bb3 5f42 e789 ec41
00000080: 0bcc ecc2 2bdb 0943 310c f0c2 d207 4bc3
00000090: de27 9fc2 546b 35c1 ea9f 91c0 2abb 8941
000000a0: 9a77 0742 74bd d042 2ec4 c8c1 a393 0442
000000b0: 7a52 08c2 23b9 abc2 64f8 21c2 c824 aa41
000000c0: 92be 9241 77e9 fac1 5820 24c2 ea24 2242
000000d0: 0cbc fac1 0525 01c3 268d 9abf 4936 0941
000000e0: c09f 7a41 41df 1942 9da3 bc41 1641 6cc2
000000f0: 3919 85c2 a0f2 e0c1 037c 45c1 a0b5 8342
00000100: a293 91c1 4559 8b41 c902 1fc3 0489 4d42
00000110: 5074 94c2 83cc dec2 6e05 6642 30b3 46c2
00000120: f677 0f43 26b7 cdc1 6ef2 9040 0a49 8a42
00000130: 218d 7342 8a89 91c2 a11a 8040 f8d8 9ac2
00000140: fb26 d141 2469 8bc2 ec04 0a43 ede0 3941
00000150: f39e cb42 37e6 2042 e95a 86c2 9bdd 54c3
00000160: c2ae 2642 e327 e142 3131 8142 4f8b 3442
00000170: 891e 7dc1 d490 0441 8091 2cc2 852f 4e41
00000180: 1081 80c1 5dc8 70c2 b9cd 3041 02f7 02c2
00000190: 7b22 dac2 3fd3 7542 b306 9dc2 c739 86c2
000001a0: dd0a a6c2 dd40 b441 c44e 0142 4222 b5c1
000001b0: f1f0 4441 f5eb 0cc2 fb3c 1ec1 3893 9842
000001c0: 4a94 abc0 6130 7842 8406 f041 f78a a9c2
000001d0: 8360 0d43 1528 3ec0 0f86 93c2 6077 4fc3
000001e0: 6349 3243 bcc6 c342 c7d5 9242 2b5c aabf
000001f0: 1d35 1043 272a a741 d3cc 9542 836a 5d41
00000200: 41e3 3842 ae2d c741 d9c2 7c42 04b4 7e42
00000210: af29 2fc2 8d85 a740 6dca a0c2 d9f3 a2c2
00000220: f15d 94c2 6d87 00c2 567b a7c1 2a00 bd41
00000230: 40ba 7d42 ecd3 1d41 c75c 3342 59e1 54c2
00000240: f99a 2a43 d147 0d43 6594 0043 06a0 4c42
00000250: c4d1 16c1 751a 8ac2 258f a3c1 1edd 29c2
00000260: b84b 98bf 9a07 9242 71e7 1743 3654 9c42
00000270: 0fff ffc2 6eb4 b0c2 a9ab eec1 0112 ef41
00000280: 7fc3 7f41 8319 70c3 371c 8ac2 c680 0b42
00000290: cc13 6ec1 d0d4 a7c2 3fc0 3243 200f 8c42
000002a0: 891a 93be f82c ec42 e223 25c2 bd62 66c2
000002b0: c21a 4042 9cfa dec1 c725 83c2 5252 7a42
000002c0: 548e 3dc1 f833 d8c1 4675 65c2 7817 d5c1
000002d0: 95f2 37c2 87c9 1f43 4341 3241 11a0 1f41
000002e0: 6514 a1c1 5a8b b942 4f39 19c2 5d03 9942
000002f0: 0813 cfc2 15a7 a742 31f5 3641 af18 0143
00000300: be29 6542 09f2 80c1 5055 1c42 f0e8 ffc2
00000310: 9f66 1142 c31c 50c2 3dac 36c2 724d 2c40
00000320: 2c71 2ac2 2847 b2c0 82ed 1542 dcd4 8442
00000330: f69d 0cc2 8181 85c2 584a c941 530b 42c2
00000340: c25a a0c2 6651 fb42 2fb5 4dc2 9040 3642
00000350: 9167 04c2 0cb5 1042 5c90 2242 9c96 8ac2
00000360: bc44 4e41 37be 1ec2 0fdf 2043 60eb a842
00000370: 0fa0 69c1 1d1f 1642 ceac 8d42 9e69 3ec0
00000380: afc6 22c3 69e5 1243 50b6 4b42 bafb 30c2
00000390: ec93 95c2 f9e3 ec42 22a6 7e42 bcf5 f2c2
000003a0: 37f0 6cc2 50b3 8bc2 57ec b5c2 e597 1d42
000003b0: 7ff9 dfc1 a5a7 e241 4104 ca41 a05b f2c2
000003c0: 044a 5cc2 3cf0 2ec2 f1c4 12c2 d810 f8c2
000003d0: d379 0c42 d83b 1943 6d0b 96c2 1ddb a6c2
000003e0: e418 c341 aa5c 0e42 ec5c 82c2 c54f 85c2
000003f0: 5778 adc2 712c 9842 a834 91c2 3409 a6bf
0.12826282 -80.25623 -0.3037842 65.252045 1.2352002 -33.127502 18.580524 50.239944
-24.855494 -8.6001 -20.40607 9.603963 55.603428 -65.39448 -60.38119 72.7438
-204.48401 57.722992 -90.83372 78.65984 -45.091877 24.363655 -80.582535 -193.85068
-86.24419 -118.59734 48.968235 -80.71035 10.091623 -57.594658 55.92509 29.567335
-118.39852 137.85612 -120.02381 -203.03055 -79.577866 -11.338703 -4.5507708 17.216389
33.8668 104.370026 -25.09579 33.144176 -34.080544 -85.861595 -40.49257 21.26796
18.343052 -31.363997 -41.031586 40.53605 -31.34182 -129.1446 -1.2074325 8.575753
15.664001 38.46802 23.57989 -59.06356 -66.54926 -28.11847 -12.342776 65.85474
-18.197086 17.418589 -159.01088 51.383804 -74.22717 -111.39944 57.505302 -49.674988
143.4686 -25.714428 4.5295935 69.142654 60.88782 -72.76863 4.0032506 -77.42377
26.144033 -69.70535 138.01923 11.6174135 101.81045 40.22482 -67.17756 -212.86565
41.670662 112.5779 64.59608 45.136044 -15.819955 8.285358 -43.14209 12.886601
-16.063019 -60.195667 11.050225 -32.74122 -109.067345 61.456295 -78.513084 -67.11285
-83.02122 22.531672 32.32692 -22.641727 12.308824 -35.230427 -9.889888 76.28754
-5.3618517 62.047245 30.003181 -84.771416 141.377 -2.9711964 -73.76183 -207.46631
178.28667 97.88815 73.417534 -1.3309377 144.20747 20.895582 74.90005 13.838504
46.221928 24.897305 63.19028 63.675797 -43.790707 5.2350526 -80.39536 -81.476265
-74.18348 -32.13225 -20.935223 23.62508 63.431885 9.864239 44.840603 -53.220066
170.60536 141.28053 128.57967 51.156273 -9.426212 -69.051674 -20.444895 -42.465935
-1.1898108 73.01485 151.90407 78.164474 -127.99816 -88.3524 -29.833818 29.883791
15.985229 -240.09966 -69.05511 34.875755 -14.879833 -83.91565 178.75096 70.02954
-0.28731182 118.08783 -41.28504 -57.596424 48.02613 -27.872368 -65.573784 62.58039
-11.847248 -27.025375 -57.364525 -26.63646 -45.986897 159.78722 11.140933 9.976579
-20.134958 92.77217 -38.305965 76.50657 -103.53717 83.82633 11.434861 129.09642
57.290764 -16.118181 39.083313 -127.954956 36.350216 -52.028088 -45.6682 2.692227
-42.61052 -5.571186 37.48194 66.41574 -35.15426 -66.75294 25.1613 -48.51106
-80.17726 125.65898 -51.426937 45.56305 -33.10114 36.176804 40.640976 -69.29416
12.891781 -39.685757 160.87132 84.45972 -14.601577 37.530384 70.83751 -2.9751964
-162.77611 146.89613 50.92804 -44.245827 -74.78891 118.44526 63.66224 -121.47995
-59.234585 -69.85022 -90.9616 39.398335 -27.996824 28.331858 25.252077 -121.178955
-55.07228 -43.734604 -36.692326 -124.0329 35.11897 153.23376 -75.022316 -83.427956
24.387154 35.590492 -65.18149 -66.6558 -86.73504 76.0868 -72.602844 -1.2971559

tree_conv.3.weights.weight f4 [128, 256, 3]
00000000: 0146 a3c0 ca54 2141 2bf7 0cc1 6ea8 c5c0
00000010: 4422 3c41 cc7a 3cc0 1d9b 59c0 cc5b 3e41
00000020: ee5d 40c1 b177 0741 f4c9 f9be dd97 3a41
00000030: e505 2dc1 a8c9 2d41 a163 87c0 be19 e5c0
00000040: 223b 3941 622e 2cc0 d644 9ec0 fda0 c240
00000050: ea8a d13f 4cf7 4940 8bf5 26c0 39d6 5c41
00000060: 267c 05c1 cf57 8941 9b09 d0c0 3673 dbc0
00000070: f538 f9bf fa12 77bf 9331 74c0 c7db dfc0
00000080: b08f 9cbf e4d6 0fc1 5967 6640 4ca8 1640
00000090: e6d1 c340 de72 1dc0 78e5 8d41 9fb9 19c1
000000a0: 137d 4a3f ccd1 50c1 2f24 34c1 8be5 1041
000000b0: bd42 0cc0 2746 debf f2b4 013f 8ccc 7141
000000c0: e76a b8c0 9b19 9c41 b312 83c1 5aac 6940
000000d0: ca80 7241 6f76 0ec1 41d5 53c1 92aa 6340
000000e0: 74c0 5ac1 3ceb 893f c8a3 ed3f 93d6 8b41
000000f0: aa74 1ec1 77d4 3041 ddf1 28c0 a651 de3f
00000100: fdab fbbf 2530 1441 2553 2dc0 822b 0941
00000110: fd6c 5cc1 89a5 0c3f a1c6 a940 3366 66c1
00000120: 3502 36c1 0639 0941 ac02 0bc1 98e8 5540
00000130: c299 97bf f09f 34c1 227c b7c0 8ff3 5340
00000140: cc59 af40 c2bf 8241 a7c5 d5c0 af36 8ec0
00000150: a3de 56c0 05e1 b340 5021 993f 25fb 4241
00000160: 86b6 1440 3718 49c1 373e b43f 2b0a dfbe
00000170: 118b 8541 84cd 07c1 24a7 703f 1e59 d13f
00000180: e8c8 aa3d e3e0 bcc0 e43a 30c1 7c9b 46c0
00000190: 7b93 98c0 f57d e340 f629 0041 9cba c2bf
000001a0: ff30 2dc1 e7a2 8f3f 1ecb ce41 2d66 82c1
000001b0: 7a36 05c1 f229 6541 09a5 10c1 ee58 d2c0
000001c0: 6779 2741 4125 06c0 1be3 07c1 319b 2441
000001d0: 9ad1 a3c0 14f7 9fc0 933f 0941 d07d 3d3f
000001e0: 1948 9f40 8748 3e40 af47 6941 0991 c2be
000001f0: 4444 3fc0 3a4e ce41 cdca 49c1 015c 0041
00000200: eafc 1fc1 930a 3041 76a2 98c0 6669 3641
00000210: d410 96c0 9bdf 0041 65d2 42c1 40eb 0fc1
00000220: 1684 4241 2fa1 fcc0 6478 33be 925c e13f
00000230: ef64 cfbf a0e7 f5c0 b250 5441 d9c7 36c0
00000240: 53ed 29c0 adb5 82c0 1c9f c63f 4807 c8c0
00000250: 4b29 2341 5365 adc0 3e17 78c1 bbf3 4941
00000260: 1741 ecbf defd 00c0 d995 ec40 4aff 01c1
00000270: a6f1 1ec1 a1a5 c740 38e3 cdbe dbcb 4941
00000280: 31ac bbbd ed0d 54c1 672a dac0 cdd0 5b41
00000290: a1f6 d8c0 232c 103f 9e53 0b40 f78b 683f
000002a0: c586 a73f df8e 3d3f d3db 3741 9d98 42c1
000002b0: 5091 8440 3982 3c40 6481 1b41 8617 6cc0
000002c0: 91e2 1741 0500 21c1 e876 a140 be13 19c1
000002d0: 171e 01c1 a123 ad40 327c 27c0 c3a5 47c1
000002e0: d8c3 3141 f511 86c0 e59a 8640 8d28 8840
000002f0: feb1 35be 807d df40 ce68 8b40 ba2d c5c0
00000300: 71d5 00c1 8d78 3441 a87e 36c0 2335 0c41
00000310: 71cc 28c0 5401 8e3f ee1e f7be 238f 5441
00000320: de47 7ec1 c84f d13e f61c 3cc0 9c79 3241
00000330: e4e7 2641 ab1f a93f 5ec3 44c1 788d afc1
00000340: e513 e641 9af1 17c1 d766 9f40 049b 5abf
00000350: 7b52 8241 2cdb 97c0 ecf2 9240 e548 53c0
00000360: f1c5 86bf a0c4 e2c0 0fd9 c340 c028 07c1
00000370: 16ba 0d41 187f 8abf 3b67 12c1 c772 4841
00000380: 32b1 7040 e359 5bbf 67b8 503f 53b4 7141
00000390: dbb9 84c0 76ae 22bf 3f71 4641 f40f cdc0
000003a0: b991 2341 8475 52c1 5533 1cc1 b5f9 8d41
000003b0: db8d 1e3f e565 b2c1 a185 5241 e555 b0c0
000003c0: 4289 04c1 d4cf e740 aac6 3940 289a f5c0
000003d0: 5a88 c940 456b 31c1 20df 74be 1920 07c1
000003e0: dab9 b940 75a9 31c1 bbf5 4041 6a51 a9c0
000003f0: 399a bebf bdff d240 15ff 9cc1 1de9 fc3f
-5.1022954 10.0832 -8.810344 -6.1768103 11.758366 -2.944995 -3.4000924 11.897411
-12.022932 8.466722 -0.4878689 11.662076 -10.813939 10.8617325 -4.2309117 -7.1593924
11.576937 -2.690331 -4.945903 6.082152 1.6370518 3.1557188 -2.6087368 13.8023
-8.34281 17.167875 -6.5011725 -6.857814 -1.9470507 -0.9651333 -3.8155258 -6.9955783
-1.223135 -8.989964 3.6000578 2.354022 6.1193724 -2.460136 17.737045 -9.607818
0.790971 -13.05122 -11.258834 9.056041 -2.1915734 -1.7365159 0.50666726 15.112438
-5.7630496 19.512503 -16.38413 3.6511445 15.156443 -8.903914 -13.239564 3.5572858
-13.671986 1.0774913 1.8565607 17.479773 -9.903482 11.051871 -2.6397622 1.7368667
-1.9661862 9.261754 -2.7081997 8.573122 -13.776608 0.54940087 5.3054967 -14.399951
-11.375539 8.576422 -8.688152 3.3423214 -1.1843798 -11.289047 -5.733903 3.3117406
5.4797115 16.343632 -6.6803775 -4.4441752 -3.3573387 5.621218 1.1963291 12.186315
2.3236403 -12.568412 1.4081486 -0.43562445 16.692904 -8.487675 0.94005036 1.6355321
0.08339101 -5.902452 -11.014378 -3.10324 -4.768003 7.1091256 8.010244 -1.5213199
-10.824462 1.1221589 25.849178 -16.29989 -8.3258 14.322741 -9.040292 -6.5733557
10.467139 -2.0960238 -8.492946 10.287889 -5.119336 -4.998911 8.578021 0.740201
4.977551 2.9731767 14.580001 -0.38001278 -2.9885416 25.788197 -12.612012 8.022462
-9.999247 11.002582 -4.7698317 11.400732 -4.689554 8.054591 -12.176366 -8.994934
12.157248 -7.8946757 -0.17526394 1.7606375 -1.6202677 -7.6845245 13.269701 -2.8559477
-2.6551101 -4.084677 1.5517306 -6.250889 10.197581 -5.4186187 -15.505674 12.6220045
-1.8457364 -2.0154948 7.393292 -8.124826 -9.933996 6.2389684 -0.40212417 12.612269
-0.09163702 -13.2534 -6.817676 13.738477 -6.780106 0.5631735 2.1769786 0.9083857
1.3088003 0.7404613 11.491168 -12.162259 4.1427383 2.9454482 9.7190895 -3.6889358
9.492814 -10.062505 5.045765 -9.56732 -8.069846 5.410599 -2.6169553 -12.477969
11.110313 -4.189692 4.206408 4.25495 -0.1774368 6.98407 4.3565435 -6.161832
-8.05211 11.279431 -2.8514805 8.762973 -2.637478 1.1094155 -0.48265785 13.2849455
-15.892546 0.4088118 -2.9392676 11.15469 10.431614 1.3212789 -12.297697 -21.944077
28.759714 -9.496485 4.9813037 -0.85392785 16.290274 -4.7455044 4.5921535 -3.3013241
-1.0529157 -7.086502 6.1202464 -8.447449 8.857931 -1.0820036 -9.150203 12.528022
3.7608151 -0.8568403 0.81531376 15.106524 -4.1476874 -0.63547456 12.402648 -6.4081974
10.223077 -13.15369 -9.762532 17.746927 0.61935204 -22.299753 13.157624 -5.510485
-8.28351 7.2441196 2.9027505 -7.675068 6.2978945 -11.088689 -0.2391324 -8.445336
5.803937 -11.103871 12.059993 -5.2911882 -1.4890815 6.593718 -19.624552 1.975864

tree_conv.3.weights.bias f4 [128]
00000000: fb16 88c0 faf4 32c2 80aa 9341 0bad 36c1
00000010: 6c62 4740 9e9a a841 7c51 f341 969e 6fc1
00000020: 896a 0940 fce5 f9c1 a451 8e41 be2f cd40
00000030: 0d0a c541 6dc4 d3c1 4ad4 bbc1 cb09 0942
00000040: 8747 f741 b0b8 9dc1 660e 68c1 cf10 7ec1
00000050: a837 cac1 ad34 24c1 2e8c 89c1 6366 d1c1
00000060: f944 b241 df53 fbc1 1f70 dd41 aa7e 53c1
00000070: 9c8e cd3f e1a2 3ac1 3569 a0c1 3c09 9f40
00000080: 2a92 61bf a715 9040 2a40 1a42 3aaf 07c0
00000090: c303 abc1 5cf5 4642 76b2 0341 df9d ae41
000000a0: f88b ab40 4c79 5741 dd1f 3541 f6c7 34c2
000000b0: d105 a0bf 9bd3 d840 1197 1cc2 da59 3742
000000c0: 84da 1641 911d 5541 dbbe e241 82b9 abc1
000000d0: c244 9641 598d c3bf fd9b 1a42 f68b 2a40
000000e0: d1d6 5ec1 cd86 9bc1 e4fc 9fc1 313e 94c1
000000f0: ffe4 7bc1 3fa9 9241 2674 cdc1 1766 09c2
00000100: 3561 7a40 260c bb41 6e72 d341 fe40 ecc0
00000110: fd43 d841 b3c1 c8c0 68a8 9bbf eade b6c0
00000120: a497 dbc1 6c31 23c2 0675 2041 abfc 9a40
00000130: 2123 70bf df84 d241 bba8 adc1 8caf c33f
00000140: 4e8a 89c1 c0db 85c1 8ab0 5241 1c15 4740
00000150: d0bb e5c1 e605 c5c1 1a2a 2341 91bb 01c2
00000160: a896 f9bf b35e aa40 a1ce b2c0 d94b 6f41
00000170: 6f29 d8c0 98ab e1c1 21e6 b2c0 5efc 3441
00000180: f9b5 61c1 fe8e 18c1 3073 a3c0 d5c0 b241
00000190: deb2 cbc0 6a69 8ec1 2ef8 a3c1 45e0 c340
000001a0: 1a26 c440 1266 1b41 6a2d 99c1 599e 3541
000001b0: 30ab 05c2 8a66 3241 053c 07c2 435f 2c42
000001c0: 5575 0d41 6881 bc41 1d4a 0c41 ade7 b7c1
000001d0: bb88 1540 19d5 c441 3121 e240 b3c1 06c0
000001e0: 4282 5341 8a8f 42c1 2a08 0342 259b 21c1
000001f0: 4e71 a040 56c4 5241 d85a c741 0a84 06c0
-4.252805 -44.739235 18.458252 -11.417247 3.1153822 21.075497 30.414787 -14.976217
2.1471274 -31.237297 17.789864 6.412078 24.629908 -26.470911 -23.478657 34.259563
30.909925 -19.71518 -14.503515 -15.879104 -25.277176 -10.26286 -17.193447 -26.174994
22.283678 -31.415953 27.679747 -13.218424 1.6059146 -11.664765 -20.05137 4.9698772
-0.88113654 4.502643 38.56266 -2.12007 -21.376837 49.73961 8.23107 21.827085
5.360836 13.4671135 11.320279 -45.195274 -1.2501775 6.7758307 -39.147526 45.837746
9.428349 13.319718 28.343191 -21.46558 18.783573 -1.5277511 38.652332 2.6647925
-13.927445 -19.44082 -19.998482 -18.530367 -15.743407 18.33264 -25.681713 -34.349697
3.912183 23.380932 26.430874 -7.3829336 27.033197 -6.273645 -1.2160769 -5.714711
-27.449043 -40.798264 10.02857 4.8433433 -0.938036 26.314878 -21.707388 1.5287948
-17.192532 -16.7323 13.1681 3.1106634 -28.716705 -24.62788 10.197779 -32.43317
-1.9499102 5.32406 -5.5877233 14.9560175 -6.755058 -28.208786 -5.590592 11.311613
-14.106927 -9.53491 -5.107811 22.344156 -6.3655844 -17.801472 -20.496181 6.1211267
6.129651 9.7124195 -19.147175 11.351159 -33.417175 11.150034 -33.808613 43.09303
8.8411455 23.563187 8.768094 -22.988123 2.3364704 24.604052 7.0665517 -2.1055725
13.219301 -12.160044 32.757973 -10.100377 5.013831 13.172934 24.919357 -2.101809

tree_conv.6.weights.weight f4 [64, 128, 3]
00000000: e182 2140 8d1e ec40 a405 5fc1 0ce1 57c0
00000010: 598e d4c0 7c36 13c1 5d92 9d3f 2742 3241
00000020: 7bc1 ffc0 cac7 6d40 53ca f140 22e9 89c1
00000030: db5a 0141 f523 ba41 d145 11c1 7b9f aa40
00000040: e582 9f41 44a6 85c0 8844 37c0 b99f 4541
00000050: bf0e 5dc0 f1b2 bd40 c744 c4bf a036 5840
00000060: ad39 c640 e9fe ec40 b7a6 1fc1 ddf7 2540
00000070: d51e ca40 9d21 76c1 d1fd 3741 3610 e541
00000080: b60b 00c0 464c 9d41 4da9 3b41 ea14 0641
00000090: b51b 1a41 8f6f 8841 1a4b 0ac1 9e13 52c0
000000a0: 8bd1 91c0 dc8f adbf 830d 8041 af80 c440
000000b0: 8dc4 cec1 026a b540 d8bb ce40 c9d8 e4c0
000000c0: 1586 3841 2ef1 9a41 5bf0 4cc1 a60b 4340
000000d0: a41a 0241 f575 a6c1 67fa 1241 cf73 4d40
000000e0: f81b cdc1 ba4b 0a41 25f3 2f40 2dba c1c1
000000f0: 55cb 8041 9a15 e540 8f5d d0c1 64af aa40
00000100: 7858 8d40 7c99 86c1 d45c 3240 c21d a940
00000110: a88f 70c1 2992 c3be b8a3 9040 4b62 c1c1
00000120: 3249 1141 65a7 f7c0 5db2 39c1 0986 0cc1
00000130: cfff bbbf 5045 12c1 66dc 9141 4dfc c241
00000140: b968 6840 3b28 7a41 28fd 3741 d085 c8c0
00000150: e93c 6b41 6b73 0741 751a fd40 c9f5 e640
00000160: f1b9 9441 138a aac1 5507 303f fe89 bc40
00000170: f03e 93c1 be8a 8241 f439 f540 bd68 39c1
00000180: a17b e6c0 e0c9 94c0 1f25 5040 e245 c840
00000190: 9920 f540 5bdf 97c1 05b6 8dc0 78a6 4e40
000001a0: 20db 9cc0 cf61 f840 0af6 3941 5fc8 c7c1
000001b0: 5525 1cbf 8372 2041 bd62 88c1 c32a 21c1
000001c0: 564a 3c41 3e03 c1bf 5558 9a40 64ce b941
000001d0: b08e aec1 5f54 2840 d4b5 b541 ea25 a2c0
000001e0: 95be f940 80c4 8541 d009 8340 bfe5 4842
000001f0: 62ea 2042 7d5f 17c0 60d3 c63f f3aa 4d3f
00000200: 6395 9dc1 afda afc0 350f 54c0 546f 1ac1
00000210: ffdf c241 8dca 8f41 d929 a340 f8c7 5a3f
00000220: ecc2 f6bf 1046 8bc1 8aea d1c0 bec5 89c0
00000230: 2c71 d2c0 f522 cb40 98c8 7741 73fe 4ec1
00000240: 1136 0840 02b7 5a40 78bc 2ec1 a65e 7641
00000250: cbf5 4bbe 1a03 b3c1 bf93 8440 bd01 5f40
00000260: f3e6 78c1 de9a 1241 53ee bc40 dc3f c8c1
00000270: 0d69 03c1 bcb0 06c1 58e6 84c1 11ce 26c1
00000280: 85cf 3ac1 75f5 e4bf 8945 9140 0bcf d0bf
00000290: 8391 09c1 e24c db40 a019 f13f b4a9 8ec0
000002a0: f965 10c0 1f92 e040 333b 6bc1 e363 a040
000002b0: 3799 6340 95f1 8dc1 adc2 1ec0 7e47 bc40
000002c0: 5eb1 76c1 7f6e 1d40 d74b 0a41 04b9 76c1
000002d0: 706b 0c40 256e 8c41 673e 94c1 e8fe afc0
000002e0: b298 44c1 7d5f 4a40 3a45 c5c0 66f0 91c0
000002f0: 027b c9bf 7fbb 5e41 93cf 8a41 911d c5c1
00000300: 1b01 9441 6337 1d41 3eeb a040 5fb2 4cbc
00000310: d7e2 97c0 a1a2 98c1 4365 e9c0 3ffe 84c0
00000320: bf58 d23d 7bec a340 fe42 4e41 07be 88c1
00000330: 051c 483f 14bc b1c0 0546 66c1 a157 eb40
00000340: ad11 4141 ced1 75c1 fbd9 9a41 aca5 e441
00000350: dab8 89c1 e4e2 f940 0b16 1241 f375 9fc1
00000360: d8b1 e640 38c0 8abf ed75 a6c1 ebf5 c7bf
00000370: 9c3a 5dc0 c030 e5c0 943d 5641 f89b 6540
00000380: f195 0dc1 9ee1 b341 0447 c3bf c926 74c1
00000390: 883a 8441 b736 c43f 3eae 88c1 3697 d640
000003a0: a49f ae40 30ac 26c1 7e0a 1341 5d51 8840
000003b0: 350d e340 7a3d 08c0 36d9 bebf eabf e43f
000003c0: 903a 443f 6f62 4dc0 e562 33c1 b6d1 6ec1
000003d0: 4e85 5ac0 c57e 0ac1 c1b7 f740 4c1f 3e40
000003e0: 9737 99c1 847c c340 cebf 5541 ba7c 7fc1
000003f0: 276f 9cc0 fd9f 95c0 092c 27c1 2522 87c0
2.5236132 7.3787293 -13.938877 -3.3731108 -6.6423764 -9.200802 1.2310292 11.14115
-7.992368 3.7153192 7.555948 -17.238834 8.0846815 23.267557 -9.079545 5.331968
19.938913 -4.176546 -2.8635578 12.351495 -3.454025 5.9280934 -1.5333489 3.378334
6.1945405 7.406117 -9.978202 2.5932534 6.3162637 -15.383206 11.499467 28.632915
-2.0007148 19.662243 11.728833 8.380106 9.631764 17.054472 -8.643335 -3.2824473
-4.556829 -1.3559527 16.006598 6.1407084 -25.845972 5.6691904 6.46043 -7.151463
11.532735 19.367764 -12.808681 3.047586 8.131504 -20.807596 9.186133 3.2101934
-25.638657 8.643488 2.7492154 -24.215906 16.099283 7.158887 -26.045683 5.33391
4.4170494 -16.824944 2.7869158 5.2848825 -15.035072 -0.3819745 4.519985 -24.172995
9.08037 -7.739184 -11.606046 -8.782723 -1.4687442 -9.141922 18.232616 24.373194
3.6313918 15.634822 11.499306 -6.2663345 14.702371 8.465678 7.9094796 7.217503
18.590792 -21.31742 0.6876119 5.8918447 -18.405731 16.317745 7.6633244 -11.588071
-7.2025914 -4.649643 3.2522657 6.2585306 7.660229 -18.98406 -4.428469 3.2289104
-4.9017487 7.7619395 11.622568 -24.972837 -0.60994464 10.027957 -17.048212 -10.07294
11.768148 -1.5079114 4.8232827 23.225777 -21.819672 2.6301496 22.713783 -5.067128
7.8045144 16.720947 4.094948 50.22436 40.22889 -2.3652031 1.5533257 0.8033897
-19.697943 -5.495445 -3.3134282 -9.65218 24.359373 17.973902 5.0988584 0.8546138
-1.9278235 -17.40921 -6.5598803 -4.3053885 -6.576315 6.348017 15.486473 -12.937121
2.1283 3.41742 -10.921013 15.398108 -0.19917981 -22.376514 4.1430354 3.484481
-15.556384 9.162809 5.9040923 -25.031181 -8.213147 -8.418148 -16.612473 -10.425309
-11.675664 -1.7887408 4.539738 -1.6313184 -8.598025 6.853135 1.8835945 -4.4582157
-2.256224 7.017837 -14.701953 5.012193 3.5562265 -17.74296 -2.480632 5.883727
-15.418303 2.4598691 8.643516 -15.42017 2.1940575 17.553782 -18.53047 -5.4998665
-12.287279 3.1620781 -6.1647005 -4.5605955 -1.5740664 13.920775 17.351355 -24.639437
18.50054 9.826022 5.028716 -0.012493699 -4.7464404 -19.079409 -7.293611 -4.156036
0.10270833 5.1226172 12.8913555 -17.092787 0.78167754 -5.5542088 -14.392095 7.354447
12.066815 -15.363722 19.356436 28.580894 -17.21526 7.8089466 9.130382 -19.932592
7.2092094 -1.083991 -20.80758 -1.5621923 -3.4567022 -7.162201 13.390034 3.5876446
-8.849107 22.485165 -1.5256047 -15.259469 16.52858 1.5329198 -17.08508 6.7059584
5.4569874 -10.417038 9.190062 4.259932 7.095362 -2.1287522 -1.4910038 1.7871068
0.7665186 -3.209133 -11.211644 -14.926199 -3.4143863 -8.65595 7.741181 2.9706602
-19.152143 6.1089497 13.359327 -15.967951 -4.8885684 -4.67578 -10.448251 -4.222918

tree_conv.6.weights.bias f4 [64]
00000000: e218 a7c1 1fff ebbe 53ed d4c0 c875 2dc1
00000010: 9534 a241 5895 6e41 054e 8b3f b25a f440
00000020: 8af0 4340 b8eb cd40 8c8a e8c0 5361 0241
00000030: 1080 89c1 95c0 01c1 a2c4 0941 c591 ae41
00000040: 08ba 3141 e123 12c1 43be 83c0 2912 5441
00000050: 2202 9241 60a6 d841 3ec8 81c0 83aa 2c41
00000060: 23e4 b7c0 0af4 2741 1ff2 9e40 5f2a c941
00000070: a991 be41 4628 4641 f7d4 3640 da72 bf41
00000080: 12d2 1441 19bc 6941 228b 49c1 857e 14c1
00000090: ce87 1c40 e1f1 0940 d556 1dc0 4617 ff40
000000a0: 90f9 8dbf 5b8d 0d3f c5e1 e640 a477 8cc0
000000b0: 9805 a0c1 9f0d c040 e5e7 a241 2d95 6041
000000c0: 1ac2 b740 4c6d 30c0 a709 6241 732e 43c1
000000d0: 2ae3 c541 3fbd 6941 7cda 4d41 3540 3041
000000e0: 8acf 1cc1 15ea b440 0234 f4c0 36eb 95c1
000000f0: e5b4 9141 285b ea41 2b0b 7a41 ad68 cb40
-20.88715 -0.4609308 -6.6539702 -10.841255 20.275675 14.911461 1.0883185 7.636071
3.0615563 6.4350243 -7.2669125 8.148761 -17.18753 -8.109517 8.610506 21.821177
11.107918 -9.1337595 -4.1169753 13.254434 18.251041 27.081238 -4.0556936 10.791629
-5.7465987 10.49708 4.967056 25.145689 23.821123 12.384832 2.8567483 23.93108
9.301287 14.608422 -12.596468 -9.280889 2.4457889 2.155388 -2.4584248 7.971591
-1.1091785 0.55293816 7.2150598 -4.3896046 -20.002731 6.0016627 20.36323 14.03642
5.742444 -2.756671 14.127357 -12.19884 24.73592 14.608703 12.865841 11.015676
-9.800669 5.6535745 -7.6313486 -18.73985 18.213327 29.29451 15.627727 6.356528

tree_conv.9.weight f4 [32, 64]
00000000: edf8 9c40 2c5c 0841 ff84 dd40 06ea b73e
00000010: 6cfc 6c40 7728 0141 c7f1 87c1 e8c6 5d40
00000020: 44b9 21bf 371d 0a41 f495 7641 8e4c b3c1
00000030: 32e5 5b3f 1c35 a240 a2f5 1941 3b52 bd40
00000040: ae62 b741 e2b2 dc40 efb4 1f40 8fb1 6c41
00000050: 0ba0 4341 ff4c 3541 1ac3 5340 80e7 0d41
00000060: bdfb 8040 1e04 9140 ab3a 8541 c2ea ca40
00000070: 07a4 3f41 5d79 f040 d80f fc40 371a 9540
00000080: 75eb 4e41 396f 2441 f42d b840 26c4 f940
00000090: 0847 4ec1 2831 6c3f aeb6 983f c969 c340
000000a0: d4c9 33c1 fa1d 65c1 c440 3941 17ca 8a40
000000b0: 93d8 7c3f b027 2140 cab8 0041 bc73 f340
000000c0: c766 bd40 cbdd 9d40 2e1c 2541 9689 e83d
000000d0: 5293 a341 896b d640 71e7 d340 1239 b040
000000e0: 6b90 4ebd ab63 6841 85b0 0541 c9bc 9340
000000f0: d91f 1141 8c16 0b41 e104 c240 86d6 0f41
00000100: c336 a040 ad71 0a41 9968 f740 a4b7 fd3e
00000110: 273d 8f40 fed1 0e41 f86a 84c1 8828 8840
00000120: 8378 e8be d200 1041 0e9f 8041 4d34 a9c1
00000130: c04f b73f ae75 be40 8187 2341 6821 d340
00000140: 3bcc bf41 f707 ff40 a2f2 3c40 34eb 8141
00000150: ab20 5041 0ddc 4441 2e7e 6840 986b 1741
00000160: 3fa6 8740 2a51 ad40 b4db 8b41 b8e4 e840
00000170: df18 4f41 4f7d 0241 6f48 0b41 0401 ad40
00000180: a8ea 5741 1ad5 3241 ce5b c840 3606 0941
00000190: a7a0 48c1 fcec b13f ecaf e13f f02c dd40
000001a0: d5d2 2bc1 021a 63c1 23a4 4541 5d51 8f40
000001b0: 9743 0240 d813 3c40 8361 0f41 d4f5 0941
000001c0: a70d cb40 9ebc a940 dfcd 2941 bab3 e63e
000001d0: a121 a941 e526 e940 7d5c f540 723b cc40
000001e0: cd27 6f3f ec71 7241 ef2e 1841 ae2a a040
000001f0: 3922 2241 baab 1d41 6e59 dd40 40d7 1441
00000200: 7153 a440 7c89 0d41 4b64 f540 e340 c73e
00000210: 1a44 9240 c2c2 0c41 bfce 83c1 743a 8c40
00000220: 400e 00bf a18f 1041 5585 7f41 36fb a9c1
00000230: c231 b43f d170 bb40 327b 2141 e5fe d740
00000240: 2af9 be41 65cf ff40 d9f8 3d40 3f4f 8141
00000250: 7859 5341 a0cc 4541 8741 7040 04c7 1941
00000260: 5d97 8540 bc43 b040 627d 8c41 a514 e940
00000270: f00c 4f41 864e 0441 f7e5 0841 10cc ab40
00000280: 407c 5741 7df7 3241 9ba0 cb40 84d2 0841
00000290: 2fd2 46c1 06f0 b73f f7f5 d63f ac48 de40
000002a0: a6d2 2cc1 e409 5fc1 6609 4841 9154 9540
000002b0: d2bf e03f 4158 4340 bde6 0d41 62a3 0941
000002c0: 7490 cc40 f008 ad40 112a 2a41 1805 f73e
000002d0: da56 a941 4d98 e840 0041 f840 bee7 ca40
000002e0: 97f9 3e3f ffcf 6f41 86d5 1641 1272 a040
000002f0: 4851 2341 3ffa 1c41 fde9 dd40 ebd1 1741
00000300: 9a63 e5be bc27 c4bf 6769 d0c0 54fe 853f
00000310: 6020 aa3f ef63 22c0 0d0b d83f e1a6 9bbf
00000320: 570f 84c0 dae0 a53f c81e bbc0 6224 8dbe
00000330: 0207 213f 2bcc 1e3e c5b8 093f 0308 cf3f
00000340: bfc5 88bf 77e7 87bf 6223 a1c0 fd40 8cbf
00000350: 0ce6 2d40 23e7 f93f 90f4 97c0 1cad 983c
00000360: 16ee 303c 7f62 eb3f bec6 23c0 6eb6 9e3f
00000370: a113 043e 9867 c83f 3fee 3cc0 d537 a63e
00000380: 7f31 acbf 22f3 d5bd b9f6 e53f 98bb 81c0
00000390: 4c1d 9fbf a433 a5c0 944a 52c0 ebbb d3bf
000003a0: 8c8c 953e 5102 49bf 1e71 85bf 8bb7 aebf
000003b0: cee2 3fbf c4e2 52c0 0621 eebf 6c89 a4bf
000003c0: 2dae 3ac0 bc30 6ebf b32d 2dc0 bba5 8840
000003d0: 12d0 e7bf 6b4c 35c0 fbfa 153f 459b ab3e
000003e0: 11f0 403d c88f b1be 9fb9 df3f 1182 18c0
000003f0: 5f45 a1bf 8c95 1040 dd36 e53f 1769 fbbf
4.9053864 8.522503 6.922485 0.35920733 3.7029066 8.072379 -16.993055 3.4652653
-0.6317332 8.632133 15.41161 -22.41238 0.858966 5.068983 9.622469 5.916288
22.923183 6.8968363 2.4954183 14.793349 12.226573 11.331298 3.308783 8.869019
4.03073 4.5317526 16.653646 6.341157 11.977546 7.514815 7.876934 4.65945
12.932485 10.277154 5.7556095 7.805194 -12.892342 0.92262506 1.193075 6.106663
-11.236774 -14.3198185 11.578312 4.337169 0.98767966 2.5180473 8.0451145 7.6078777
5.918796 4.9333243 10.31938 0.113543674 20.446934 6.700627 6.622002 5.5069666
-0.050430696 14.524333 8.355596 4.616795 9.070275 8.693005 6.0630956 8.989874
5.006685 8.652753 7.7315183 0.4955417 4.476215 8.926268 -16.55223 4.2549477
-0.45404443 9.0002 16.077663 -21.150537 1.4321213 5.951865 10.220582 6.597828
23.974722 7.9697223 2.9523091 16.239845 13.007976 12.303723 3.6327014 9.463768
4.2390437 5.4161577 17.482277 7.27792 12.943572 8.155593 8.705184 5.406374
13.494789 11.177027 6.2612066 8.564016 -12.539222 1.3900447 1.7631812 6.9117355
-10.738973 -14.19385 12.352572 4.478682 2.0353754 2.9387112 8.961307 8.622517
6.3454165 5.3042746 10.6127615 0.45058995 21.14142 7.285998 7.66754 6.3822565
0.93420106 15.152813 9.511458 5.00521 10.133355 9.854425 6.9171667 9.302551
5.1351857 8.8460655 7.668493 0.38916692 4.570813 8.797548 -16.47595 4.3821354
-0.50021744 9.035066 15.970052 -21.247662 1.4077685 5.8575215 10.092577 6.749865
23.871662 7.9940667 2.9683135 16.163694 13.209343 12.362457 3.7539995 9.611088
4.174727 5.5082684 17.561222 7.28377 12.940659 8.269171 8.556144 5.36866
13.467834 11.185422 6.363355 8.551395 -12.426314 1.4370124 1.6793813 6.946371
-10.801428 -13.939915 12.502295 4.666573 1.7558539 3.0522616 8.868833 8.602388
6.3926334 5.407341 10.63527 0.48246074 21.167408 7.2685914 7.7579346 6.340789
0.74599594 14.98828 9.42713 5.0139246 10.207344 9.811095 6.934813 9.4887495
-0.44802552 -1.5324626 -6.5128665 1.046824 1.329113 -2.5373495 1.6878372 -1.2160302
-4.1268725 1.2959244 -5.8475075 -0.2756682 0.6290132 0.15507571 0.5379756 1.617432
-1.0685347 -1.0617512 -5.035569 -1.0957333 2.717166 1.9523662 -4.748604 0.018637232
0.010798952 1.8389434 -2.5590053 1.2399423 0.12898113 1.5656614 -2.9520414 0.3246447
-1.3452605 -0.104467645 1.7965919 -4.0541496 -1.2430816 -5.162554 -3.285802 -1.6541723
0.2920879 -0.7851916 -1.0425146 -1.3649763 -0.7495545 -3.2950907 -1.8603828 -1.2854438
-2.9168808 -0.9304311 -2.7059143 4.270231 -1.8110373 -2.8327892 0.5858609 0.335169
0.047103945 -0.3468001 1.7478522 -2.3829386 -1.2599295 2.2591276 1.7907368 -1.9641446

tree_conv.9.bias f4 [32]
00000000: 7969 bb3f bb04 0b40 5f8b 0640 22c3 70bf
00000010: e428 2540 5321 a43f 15a8 8bc0 e24a b93f
00000020: e685 3840 4117 f63f 1e8b 1dbf 6949 f5bf
00000030: 7b23 c3bf 0207 9f3f e188 a1bf d78b 3740
00000040: 01d6 c2bf 3d39 f13f 6261 1540 f130 de3f
00000050: 7983 bfbf 2f2e f8be e92f 1040 bb91 2b40
00000060: 4975 1340 44e9 0d40 bde4 753f 9937 b13f
00000070: b108 4b40 e8c5 2840 0281 cabf 30ee 4a40
1.4641563 2.1721637 2.1022565 -0.9404775 2.5806208 1.282267 -4.364268 1.4475977
2.8831725 1.9225847 -0.615404 -1.9163028 -1.5245203 1.2424014 -1.2619897 2.8679101
-1.5221559 1.8845593 2.3340688 1.7358686 -1.4961997 -0.48472735 2.2529242 2.6807697
2.3040335 2.2173624 0.9605215 1.3845092 3.1724055 2.6370792 -1.582062 3.1707878

tree_conv.11.weight f4 [1, 32]
00000000: b2b9 1541 2e8f 1541 4471 1641 0f06 8c3e
00000010: dea4 1741 bfd5 1541 2058 91c2 ac56 2241
00000020: 42d3 1841 ae83 1441 ad72 813d 3ef5 14c1
00000030: 4a69 15c1 31d6 1341 a173 17c1 649c 1941
00000040: 7f2e 5dbd 01c9 1741 105a 1841 d3db 1641
00000050: 87a0 16c1 99c0 15c1 a4f8 1641 c8cc 1641
00000060: bdd3 1941 7b10 1541 bbc5 3841 8488 1541
00000070: 11cc 1941 6c33 1541 7e29 18c1 3a73 1941
9.357836 9.347456 9.402653 0.27348372 9.477751 9.364684 -72.67212 10.14616
9.551577 9.282148 0.06320701 -9.309874 -9.338205 9.239793 -9.46573 9.600681
-0.05399942 9.486573 9.521988 9.428668 -9.414191 -9.359521 9.435703 9.424995
9.614194 9.316524 11.548274 9.345829 9.612321 9.325054 -9.51013 9.5906315
