src/Models/cost.onnx (onnx, 685089 bytes, 15 tensors)

tree_conv.0.weights.weight f4 [256, 50, 3]
00000000: 9f5d 203c 4063 5c3d 1319 83bd 1fee 05bc
00000010: af06 95bd d411 b43c 66c3 03bd e06c 683d
00000020: 8f6f 9c3c aaca 0d3c 8197 13bc fe46 8abd
00000030: afb9 8a3c f4ec c93c 1116 88bd d52d a43d
00000040: 7bbb 523d 7048 903d 7202 cabb 265d 153d
00000050: 8aa8 e4bc 4463 78bd d224 93bb f359 043c
00000060: b460 6e3d 56b1 213d 3b23 a5bd 05df f9bc
00000070: 9fcf 463c d8c2 c6bb c1c1 563d 97a3 c43c
00000080: 55b1 82bd 4245 cf3b f347 c53c 1893 3f3d
00000090: 4715 72bc b232 4cbd a311 703d 73db 2e3c
000000a0: e059 8abd 2dda 7c3d 8c69 213d 4300 8c3c
000000b0: 5592 52bc ed26 8ebd 794f 223c a805 62bd
000000c0: 394d 8d3d 5b74 143d 96b6 08bd 2d1a e53b
000000d0: 2635 833d 7faf efbc 1f41 22bd 83ad 833d
000000e0: 2744 423d 3c29 31bd 19c8 9ebc 5be1 3bbd
000000f0: 18ef 1cbd eae5 28bd 368c a53d 85dc 523d
00000100: 460c 903d b0f9 323d 5ad4 3f3d 343c 46bd
00000110: 793c 67bd 6c8e 6dbc 20b9 af3c 56c7 ddbb
00000120: 0ece 25bd e050 673d b433 08bd a491 d63c
00000130: e606 a1bc 7222 98bd d5b5 cfbc 139f 20bd
00000140: ae3c c53c cd7b 12bd e7d1 3fbc 0c93 853d
00000150: aa24 aa3c 4d73 623c a88e 793c 30fa 98bc
00000160: 16da 983c 4d92 ed3b 0751 d0bc fb03 a33c
00000170: 0b34 a33d 93c9 3abd e691 9f3d 4734 c7bc
00000180: 8fdb 21bd 82f0 67bd 60e8 363d f195 c8bc
00000190: 2fac a0bd 0266 9a3c 32d2 1fbc 32e2 973d
000001a0: bfe3 7ebd 7a3c ab3c 9154 5cbc 3ebf 353d
000001b0: 5db1 fdbc 80d0 a53d 9588 203d 0f03 e43c
000001c0: 8f65 533d 490e 91bd 04a4 253d e2b6 5d3d
000001d0: 0092 803d 31da 6cbd 5de8 61bd 8da3 8c3d
000001e0: 1aad 32bd 2a75 6e3d eaa6 df3c 7a48 5f3c
000001f0: a265 473d 12df 5b3d 1350 1b3d ce19 e6bc
00000200: b8a0 113d ad50 53bd e514 863d 0fe8 a3bd
00000210: e942 093c 8bf7 993d 9d9d 243d ff66 173c
00000220: 52a8 263c 804e 67bd 2bf7 79bc c762 923d
00000230: fb33 6f3d 3813 4bbc 8a51 c53c c14e 92bd
00000240: daf3 9abd e2cc f23a fa89 0ebd 0572 ba3a
00000250: afac 133d e93c 6dbd 46b2 e93c 70a9 883d
00000260: 16fc 4abd 8df2 803b 1fae 92bd fcf7 9f3d
00000270: 7aa8 6c3d 2394 a8bc 63a6 893d 4da1 5a3d
00000280: 7984 f1bb 77a7 2dbc 9e90 603d 8a99 eebb
00000290: baa6 7c3d 1394 5a3d b554 87bd 2fac 92bd
000002a0: 38d7 05bd 1afb 1fbd a758 8cbd a8ef 863a
000002b0: fd85 c4bc 629f 75bd 7021 443d 0cc3 6e3d
000002c0: 4633 27bd 9469 7e3d 8085 debc fd2f c23c
000002d0: c672 223d 5e44 313c 0472 493d e175 853d
000002e0: 8fab 7d3d fcc3 e33b 809a eebc c3a7 3bbc
000002f0: 7b17 b4bb b4db d93c 070f beba 8ac0 6f3b
00000300: d8e2 a13d 2e26 6fbd 38c7 21bd 89a0 74bd
00000310: 7a83 89bc acf9 223c 7086 0e3d 1931 493b
00000320: e5e4 59bd 61d5 083c 6355 743d 4c97 ad3c
00000330: 8bc4 483d bc12 22bd 4958 4e3d bac7 81bd
00000340: a586 a5bd 5aab a4bd bb91 343d 163a 8fbb
00000350: 4fcd 783c 40c9 333d d36c e03c 4206 933d
00000360: 2d58 a5bd d323 f8bc 1973 5fba 498a 473d
00000370: e09d 683c 39d8 213c 9453 96bd 1861 8a3d
00000380: 28ee a43d 5b36 1a3d b56f 1c3b aba2 843d
00000390: 1fce 923d 904c a13c d344 2f3d 08ec a43d
000003a0: 380c 373d d2f9 82bc 17dc 333d a830 5ebd
000003b0: efd3 8f3d 62c0 4fbd 5c58 cebc 89f5 96bd
000003c0: 7507 77bb 8e0f 96bd ff07 a1bc 6559 d8bc
000003d0: 7016 963d 0812 883b 8386 f73b 2bee a43d
000003e0: 590e 09bd 60b7 24bd 70df a0ba a7eb dd3c
000003f0: 89e0 42bd 349b 9fbd 0517 2fbd 9033 283d
0.009787946 0.05380559 -0.06401267 -0.008174448 -0.072766654 0.021981157 -0.03216877 0.056744456
0.019096164 0.008654276 -0.009008289 -0.06751822 0.016934244 0.02464912 -0.06644834 0.08016554
0.051448327 0.07045066 -0.0061648423 0.036465786 -0.027912397 -0.060641542 -0.0044904733 0.008078086
0.058197692 0.03947576 -0.0806336 -0.030501852 0.012134462 -0.0060657077 0.052430872 0.024003787
-0.0638148 0.006325395 0.02408216 0.04677114 -0.014775581 -0.049853034 0.05861057 0.010672438
-0.067554235 0.061731506 0.039407298 0.017089969 -0.012852271 -0.06941018 0.009906643 -0.055181175
0.06899495 0.036243778 -0.033377253 0.006991646 0.06406622 -0.029258488 -0.039612886 0.06429579
0.047428276 -0.043252215 -0.019382523 -0.045869213 -0.038313955 -0.041234888 0.08083384 0.051479835
0.07033591 0.04369515 0.046833374 -0.048397258 -0.056454156 -0.014499288 0.02145058 -0.0067681475
-0.040479712 0.056473613 -0.033252433 0.026192494 -0.01965661 -0.07428445 -0.025355259 -0.039214205
0.024076786 -0.035762597 -0.011707759 0.065221876 0.020769436 0.013821435 0.015231766 -0.018673986
0.018658679 0.0072501064 -0.025429262 0.019899359 0.07968911 -0.045602392 0.077915 -0.02431692
-0.039516028 -0.05662585 0.044655204 -0.02448556 -0.078453414 0.01884747 -0.009754704 0.0741619
-0.062228914 0.02090286 -0.013447897 0.044371836 -0.030968362 0.08096409 0.039192755 0.02783349
0.051610526 -0.07082803 0.04043962 0.05412949 0.06277847 -0.05782527 -0.05515324 0.06867132
-0.043622114 0.058217205 0.02730127 0.01362812 0.04868091 0.053679533 0.03791816 -0.028088477
0.035553664 -0.05159061 0.06546954 -0.08003246 0.008377769 0.07517918 0.040189374 0.009240865
0.010171967 -0.056471348 -0.015256683 0.071477465 0.05839918 -0.012394719 0.024086732 -0.07143927
-0.07566042 0.0018524195 -0.034799553 0.0014224654 0.036053356 -0.057919417 0.02852739 0.06672943
-0.049556814 0.0039351643 -0.07162117 0.07810971 0.05777786 -0.02057845 0.06721189 0.053376485
-0.0073705283 -0.010599009 0.054825418 -0.007281487 0.06168244 0.05336387 -0.066079535 -0.07161748
-0.03267595 -0.03905783 -0.068528466 0.0010294812 -0.023989672 -0.059966452 0.04788345 0.05829148
-0.040820383 0.062112406 -0.027163267 0.023704523 0.039660238 0.010819523 0.049181 0.06516624
0.06193119 0.0069508534 -0.029126406 -0.011453572 -0.005495963 0.02659402 -0.0014500328 0.0036583268
0.07904595 -0.05838602 -0.03949663 -0.05972341 -0.016786326 0.009947222 0.03479618 0.003069943
-0.053196806 0.008351655 0.059651744 0.021190308 0.049015563 -0.039568648 0.050377164 -0.06336923
-0.08082322 -0.08040495 0.044084292 -0.004370938 0.015185668 0.0438931 0.027395641 0.07178928
-0.08073459 -0.03029052 -0.0008523926 0.048715863 0.014197797 0.009878212 -0.0734016 0.067568004
0.08053237 0.037649494 0.0023870294 0.06476339 0.07168221 0.019689828 0.042790245 0.08052832
0.044689387 -0.015988264 0.043911066 -0.05424562 0.07022845 -0.05072058 -0.025188617 -0.07371051
-0.0037693654 -0.073271856 -0.019657133 -0.026409814 0.07328498 0.00415254 0.007553877 0.080532394
-0.03346095 -0.040213943 -0.0012273621 0.027089907 -0.047577415 -0.077932745 -0.042746563 0.0410648

tree_conv.0.weights.bias f4 [256]
00000000: b8fd 08bd 4502 9e3d 55b1 593c 8fe5 843d
00000010: 802e ea3a 8906 a73b a5fa a23d 522b 503d
00000020: f7ec be3c 504a 853d c918 41bd 9694 913d
00000030: 309d 8d3c 24c1 42bd 8800 acbc e1d1 233d
00000040: 871c 903d 6e4c cebc 32ee 85bd bef4 e0bc
00000050: 852d 38ba aee3 38bd 78ca 27bc 11f6 eb3c
00000060: 274b 04bc d32a c33c ab5f 843d efe1 033c
00000070: 79ed 933c 6055 e8bc 6508 95bd 7bbe 2b3d
00000080: d1f2 1cbd 16de debc eba4 2a3c 0499 1dbd
00000090: a701 5e3d 2ae3 483d cd9d a03d 5c14 533c
000000a0: cab5 703b 4e9d 613d d690 163d cb86 e23c
000000b0: 1cc2 033d 87d3 25bc 658d dbbc da75 df3a
000000c0: 5460 4d3d de2f cb3c 2f22 59bd c564 8abd
000000d0: 06c5 d4ba abe1 a43c 9351 a63d 8c65 8bbd
000000e0: 1e19 98bd 8bd7 d9bc c857 a43d 2f17 79bd
000000f0: 9677 16bc 0f70 73bc cc33 0dbd 41cc 133d
00000100: 9dad 97bd 4add 8f3d 96d5 4c3d 2d00 ac3c
00000110: 0319 9abd fd60 283d 0e4f 2dbd 80db bebc
00000120: 1063 273b 74cb 7b3d 8072 183d 2908 473a
00000130: 9453 a93c 9cc7 c1bc fcf5 623d 2d5b 1e3d
00000140: ae15 9a3d c699 04bd f6f1 8fbd 2580 90bd
00000150: fe2c e8bb 00bb b73b 9f2d f63b 9d59 333d
00000160: 2168 03bd eaf1 5bbc 1197 94bd 0243 a6bd
00000170: dcbf abbb 020a 3cbb 89c8 3cbd 47ac a93c
00000180: 7a39 df3c b246 543d 2dc8 6fbd 8017 a4bc
00000190: c0af 053d 6176 b43b e022 04bd 3e24 863d
000001a0: da83 883d fd1c 243d de7d 823d 28f3 68bd
000001b0: d056 cdbb 1ea2 2f3d 84a9 f1bc 9b99 28bd
000001c0: 1473 cabc 3fa2 80bd d702 19bd 52d1 94bd
000001d0: dd8d 0bbd 7616 4c3d 8b45 c63c 1c12 94bd
000001e0: c911 10bb ccfd 523d 6475 89bd c641 94bd
000001f0: 2787 513d 1533 993a f29f 973d 036c 493d
00000200: f3dd 8d3d e10a 80ba 3244 883d cc91 84bd
00000210: a802 a7bd ac27 71bc 0996 4e3d 1504 9bbd
00000220: 5d37 633c 205e 89bd 8c45 883d 2569 e1bc
00000230: 6a80 7a3d 4f83 733d 3fa4 2d3d 9e5c 873c
00000240: e0eb 55bd 1455 0a3c d532 f53c 92e9 95bd
00000250: dcab b4bc be8e 8dbd f9bb 503c d217 7cbd
00000260: c398 6a3c 3141 813d 0820 133d e0e7 283c
00000270: 3921 373b 67ab 10bd be9c a5bc 819d 4f3d
00000280: 69c4 f23c e263 a93c f2c3 8bbd 10bf 42bd
00000290: ea3d 40bd 304c 40bd cd94 863d 7ed7 283d
000002a0: 463e 0c3d 83aa 2dbd aa41 4c3d c5ba 873d
000002b0: 771b aa3c a51e f13c 7871 0cbd 2da9 013c
000002c0: d424 21bd fd40 9e3c 9ddc 9abd b0d6 81bd
000002d0: d1ae 2ebd 4a26 653d 84eb 2b3d cb6b 703d
000002e0: ef28 f23c 9742 6a3d a440 a33a 1eca 913d
000002f0: 5c92 273d b22a 103d e8ae 653b db7d 333d
00000300: 260b 8d3c 468c ac3a 264a 3bbd 8cfa 843c
00000310: 22bf 43bb 7cba 533c bdea 603d 4ef7 863c
00000320: 1163 213d 4527 693d 7956 03bd 7bae e13c
00000330: e326 573d 83ec f8bc 9757 303c 7c36 0fbd
00000340: 2daa 78bd d47f 933d 3ceb 973d 7ce9 9c3d
00000350: 05be 51bd 1c79 953d 77ad 1bbd e856 a53d
00000360: 3ec2 023d add5 8fbd d9cb 953c 1cbb 4dbd
00000370: 3157 83bc f113 84bd 786c a2bd 95af 8e3c
00000380: 87b1 89bd 4744 a13d 05b6 cf3c 7fe4 623d
00000390: c6e9 a23d 2883 613d dad5 863a 5573 033d
000003a0: 7e70 803d 29c8 ed3c 8c68 a13d e442 91bc
000003b0: 44cd 673d 959e 9ebd 96aa 953d 1355 62bd
000003c0: 2982 6a3d eda6 28bd d4df 8fbd cdad 633d
000003d0: 4cd2 a2bd d133 053d 55b4 15bc 7aef 163d
000003e0: fb9e 27bc 83a7 713d 7e36 84bd 89ea 3abd
000003f0: 5b8d 9dbd 0256 ff3c 9577 66bd 72c6 8d3d
-0.03344509 0.07715277 0.013286908 0.06489097 0.0017866641 0.0050972146 0.07957963 0.050822563
0.023306353 0.065083146 -0.047142778 0.07108419 0.017286867 -0.047547475 -0.020996347 0.039995078
0.07036691 -0.025182929 -0.06539573 -0.027460452 -0.0007025826 -0.045139007 -0.010241143 0.028803857
-0.008074558 0.023824131 0.0646356 0.008049472 0.018057572 -0.028361022 -0.07276992 0.041929703
-0.038317505 -0.027205508 0.010415296 -0.038476005 0.054200795 0.049044766 0.07842598 0.012883272
0.0036729448 0.055081658 0.03675922 0.027652165 0.03216754 -0.010121233 -0.02680082 0.0017048672
0.050140694 0.024803098 -0.053011116 -0.067575015 -0.0016233034 0.020127138 0.08121028 -0.06806478
-0.07426666 -0.026592037 0.080245554 -0.060813125 -0.009183785 -0.01485826 -0.034473225 0.036083464
-0.07406161 0.070246294 0.05000838 0.020996178 -0.07524302 0.04110812 -0.04231172 -0.023298025
0.0025541224 0.061473325 0.03721857 0.00075924635 0.020669736 -0.023654751 0.05541037 0.03866117
0.07523666 -0.032373212 -0.07028572 -0.07055692 -0.0070854416 0.005607009 0.0075127627 0.043786634
-0.032081727 -0.013424376 -0.07255376 -0.081182495 -0.0052413773 -0.0028692489 -0.046089683 0.020712031
0.027249087 0.051825233 -0.058540512 -0.020030737 0.03263831 0.005507276 -0.032259822 0.065498814
0.06665774 0.040066708 0.063716635 -0.056872517 -0.0062664524 0.042879216 -0.029499777 -0.041162115
-0.024713077 -0.06280946 -0.037356224 -0.07266487 -0.03407084 0.049826108 0.024203083 -0.072300166
-0.0021983257 0.05151157 -0.067118436 -0.07239108 0.051154282 0.0011688197 0.07403554 0.049175274
0.06927099 -0.0009768867 0.06653632 -0.06473121 -0.081548035 -0.014718931 0.050436053 -0.07569138
0.01386818 -0.06707406 0.0665389 -0.027515957 0.06115762 0.059451398 0.042392965 0.016523656
-0.0522269 0.008443136 0.029931465 -0.073199406 -0.022054605 -0.069119915 0.012740129 -0.061546154
0.014318648 0.063112624 0.03591922 0.01030919 0.0027943386 -0.035319712 -0.020216342 0.050687317
0.029634671 0.02067751 -0.06824483 -0.047545493 -0.046934046 -0.046947658 0.0657135 0.041221134
0.034239076 -0.04239894 0.04986731 0.0662742 0.02076505 0.029433558 -0.0342879 0.00791387
-0.039341763 0.019318098 -0.0756161 -0.063397765 -0.042647187 0.05594472 0.041972652 0.05869655
0.029560534 0.05719241 0.0012455177 0.07118629 0.040911064 0.035196967 0.003504688 0.043821197
0.01721723 0.0013164363 -0.04572501 0.016232751 -0.0029868563 0.012922879 0.054911364 0.016475346
0.039401118 0.056922216 -0.03206489 0.02754902 0.05252732 -0.030386215 0.010763071 -0.03496407
-0.060709167 0.07202116 0.07417914 0.07661721 -0.051206607 0.072984904 -0.038007226 0.08073217
0.031923525 -0.07023177 0.018285679 -0.05022727 -0.016032787 -0.06449116 -0.07930845 0.017417708
-0.06723314 0.07874351 0.025355348 0.055393692 0.07954745 0.05505672 0.0010287121 0.03209241
0.06271456 0.029026108 0.07881269 -0.017732091 0.05659224 -0.07745091 0.07307927 -0.055256914
0.057253037 -0.041174818 -0.07025114 0.05558567 -0.07950267 0.03252012 -0.009137233 0.036849476
-0.010230775 0.058997642 -0.06455706 -0.045633826 -0.07692977 0.031168941 -0.056266386 0.06922616

tree_conv.3.weights.weight f4 [128, 256, 3]
00000000: b7d3 85bc e1b1 bf3c 0645 d1bb eabc 5cbc
00000010: d348 c63a 6d87 02bd bbe8 dabc ec4e a7bc
00000020: 256b 97bc 07db f9bb 094b 82bb cee8 b13c
00000030: 65aa 0e3d f57d d5bc 64c6 f5bc c183 f93b
00000040: 5ef2 a5bc 6288 d13c 2af5 1d3c 4ca9 0fbd
00000050: 3706 65bc 5690 c5bc 4ae1 45bb 62e1 3bbc
00000060: ad28 04bd ee3c 38bb 7bfe bc3a 29e2 8fbb
00000070: 23b6 073d 7e0a a53c 2aad 0a3d c3ac 73bc
00000080: c7d2 123d 23d8 ac3c 6da9 883c 8283 e3bc
00000090: 3c09 8abc d546 2aba 1e42 aebc 726d 10bd
000000a0: 6c0f 0bbd 51c8 2f3c 564b 423c d857 e1bb
000000b0: 120f 0b3c 12b3 a73c 5ef1 923c 6a7f 643c
000000c0: 1dd5 d03c 0a77 9abb c8b8 043d 543a e53c
000000d0: c953 073d 0bf9 cbbc c29b 093d c3ea a7bc
000000e0: c06a b83a a56a ba3b 657d 06bd 79a2 02bc
000000f0: 34ee 043d 4fcf 0e3d e85b bfbc f719 9c3b
00000100: a5b3 9ebc 47a5 31bc 3676 073d 87b6 773c
00000110: df8e ce3c 8348 35bc a115 cdbb 9e1a 0ebc
00000120: 2eb4 38bc a433 0abb 9799 9dbc 8aba e8bc
00000130: cd75 f8bc fa27 c83b 7266 f1bc 3405 96bc
00000140: aa38 713b 3ee3 80bc 1644 ddbc 9792 3f3c
00000150: bc86 063d cde4 88ba 8708 513c e44a a33c
00000160: 69cf 01bc 7893 b5bc 0866 923c 27b2 1fbc
00000170: 5489 3e3c d151 d33c 5223 393c e2f2 f8bb
00000180: 68a8 b3bc f280 b2bc 9c3a a1bb cd34 cbbb
00000190: e204 d6bc b156 e83a 6476 9cba dc77 313b
000001a0: 8a31 733c f4e2 b5bc 273b 38bc 56a6 f23c
000001b0: 297d 013c 5496 cebc 0d37 ab3c f0eb e43c
000001c0: c4d0 0a3d 67a3 6cbc f33b b5bc aceb 0fbc
000001d0: b69b 3dba 5bfa 10bd 069d 863b 129f 2abc
000001e0: 054c 5ebc 1ddf 08bd d2f6 b53c eeb5 9d3c
000001f0: 380b 1b3c de19 613c c8db 33bc 1ed1 ffbc
00000200: a829 08bd 4ef4 e8bc edda ff3c ce7b 31bc
00000210: 596e 763b fd1c dabc 2f1d 08bd da42 4f3c
00000220: 47a9 a53c 090c 1ebb 487a 00bd aaf6 dbbc
00000230: 284f 9a3b df5d 7c3c af93 f2bc df88 93bc
00000240: bf43 d83c 8f07 203c d345 41bc e644 b53c
00000250: cc2e 083d 66bd ccbc fbb6 eb3c 88f8 ab3b
00000260: bbfc 273c 6b8e e43b 6c5d dabb f2cf c3bc
00000270: 548b a63c 3739 47bc 045b 84bc 3034 e0bc
00000280: 8b3b 323c f5fe 063d a9cc e0bc fb74 b93c
00000290: 3a32 273c 3c73 1fbc 14ac 13bd be04 5a3b
000002a0: c2a4 0b3d 7e42 c53c e53e 043c 372a 053d
000002b0: 3609 e8bc c6c0 dfbc 8f88 9fbc 4c62 5a3a
000002c0: bf1d 0dbd a958 4a3c d657 113d 4f9d 5d3c
000002d0: 1a5b 8b3c 0fa4 e0bc 0283 76bc 6e00 f43c
000002e0: 32db bbbc 6b82 bfba a443 e23c f3e0 223c
000002f0: f5c7 9f3c 90db e5bc 3765 5abb c71f 103d
00000300: f7f4 c53c bdd3 923c 0222 3b3a a292 3a3c
00000310: b2aa ba3c 9c3b ca3c e375 15bd 4aab 09bc
00000320: 0d55 56bc 394e 0ebd 0f54 4abc 630f f5bc
00000330: f654 fa3c b5e2 f03c f894 0fbd 491a 91bc
00000340: e0a6 b8bc df85 3fbc 108b 3b3c 7ebb d0bc
00000350: 1224 643c a586 c2bc b759 af39 af49 ecbc
00000360: b60f f03c 7d7c 01bc 967e d9bc d35b 0dbd
00000370: 84c1 153b 848d 133c 0c24 c83c 27c8 bb3c
00000380: 4ad2 05bd d47f a5bc c17a 7abc 5469 e03b
00000390: 94ef ae3c 814d 6ebc 50d5 b3ba 201b 76bc
000003a0: d03c 3c3b b023 eebc 1d16 6cbc 19e0 e43c
000003b0: e914 5aba 0c48 763c 3efa cb3a 2f9b a3bc
000003c0: 3bac ad3c e572 cdbc fc4f 8c3c 3a40 073d
000003d0: 2cbc 773b 4695 e23c 488c dabc 5943 713c
000003e0: a190 60bc d969 39bc cb8d f0bc c0bb 073d
000003f0: 0715 033c e5f3 633b 6481 ecbc 9fd9 ef3c
-0.016336305 0.023400249 -0.006386402 -0.013472775 0.0015127904 -0.031867433 -0.026722303 -0.020423375
-0.018483708 -0.007624987 -0.00397623 0.021717455 0.03483047 -0.026061038 -0.030001827 0.0076145832
-0.020257171 0.025577728 0.009640971 -0.035073563 -0.0139785325 -0.024116676 -0.0030194097 -0.01146731
-0.032265354 -0.0028112489 0.0014419103 -0.004390974 0.033132683 0.020146605 0.03385655 -0.014872733
0.035845544 0.021099156 0.016682351 -0.027772669 -0.016850106 -0.000649554 -0.021271762 -0.035260625
-0.033950254 0.0107289115 0.011858782 -0.006876927 0.00848748 0.02047113 0.017937358 0.0139463935
0.025492245 -0.0047138976 0.032402784 0.027981915 0.033038888 -0.024899026 0.033595808 -0.020497685
0.00140699 0.0056889826 -0.03283443 -0.007973307 0.03245373 0.034865674 -0.023359254 0.0047638374
-0.01937277 -0.010842628 0.03307172 0.0151192015 0.02521461 -0.011064651 -0.006258682 -0.008673338
-0.011273427 -0.002108791 -0.019238276 -0.028409261 -0.03032961 0.006108281 -0.029467795 -0.018313028
0.0036807456 -0.015733358 -0.027010005 0.011692665 0.032843336 -0.0010444165 0.012758381 0.019933172
-0.007922986 -0.022165045 0.017870918 -0.009747065 0.011629421 0.025795849 0.011299925 -0.0075973133
-0.021930888 -0.021790002 -0.004920317 -0.0062013627 -0.026125375 0.0017726031 -0.0011937139 0.0027079498
0.014843354 -0.022202946 -0.011244572 0.02962033 0.007903376 -0.025218166 0.020900274 0.027944535
0.0338905 -0.014443255 -0.022123313 -0.008784216 -0.00072329806 -0.035395008 0.004108074 -0.010413902
-0.013567929 -0.033415902 0.02221242 0.01925179 0.009463124 0.013739077 -0.010977693 -0.031227645
-0.03324285 -0.028436806 0.031232322 -0.01083274 0.0037602393 -0.02662515 -0.033230957 0.012650216
0.02022232 -0.002411606 -0.031366616 -0.026851017 0.004709143 0.01540324 -0.029611437 -0.018009601
0.026399491 0.009767427 -0.011796433 0.02212758 0.033247754 -0.024992656 0.028773775 0.005248133
0.010253127 0.0069749854 -0.006663969 -0.023902867 0.020330109 -0.012159637 -0.01615668 -0.027368635
0.010878454 0.03295799 -0.02744134 0.022638788 0.010204846 -0.009732064 -0.03605278 0.0033266987
0.034092672 0.024079558 0.008071636 0.032510962 -0.028324705 -0.027313601 -0.019474296 0.00083306874
-0.034452196 0.01235024 0.035484158 0.013526275 0.017011214 -0.02742198 -0.015045883 0.029785361
-0.022931669 -0.0014611011 0.027620144 0.009941327 0.019504527 -0.028058797 -0.003332449 0.035186555
0.02416466 0.01792323 0.00071385514 0.011387499 0.022786472 0.024686627 -0.03648938 -0.008402655
-0.013081801 -0.034742568 -0.012349143 -0.029914564 0.03055809 0.029404977 -0.035054177 -0.017712729
-0.02254051 -0.011689632 0.011446729 -0.025480028 0.013924615 -0.023745844 0.00033445444 -0.028843729
0.029304367 -0.0079032155 -0.026549619 -0.0345114 0.002285094 0.009005908 0.024431251 0.022922589
-0.03267125 -0.020202555 -0.015288056 0.0068484936 0.021354474 -0.014544846 -0.0013720188 -0.015021116
0.002872277 -0.029069752 -0.014409569 0.02793889 -0.0008319156 0.015031826 0.0015562249 -0.019971458
0.02120029 -0.0250792 0.017127983 0.033020236 0.0037801368 0.02765907 -0.02667822 0.01472553
-0.013706357 -0.01131674 -0.029364487 0.033138037 0.008000619 0.0034782824 -0.028870292 0.029278575

tree_conv.3.weights.bias f4 [128]
00000000: f807 aa3c 5155 91bc 00b4 f2bc 75b6 c5bc
00000010: d6bb b5bc 8b61 a5bc 8a1d a13c 321a fdbc
00000020: 40d6 083d f1d1 753c d0fe 5bbc 322d 8b3c
00000030: 7c0c aa3c 1818 23bc b7d6 e93c b3e5 43bc
00000040: afc7 f1bc 78f7 9b3c 043b 63bc 3e9b 413c
00000050: fda7 da3b b57d 9539 2bd4 9d3c ee15 9bbc
00000060: 1bcd c0bc c8e8 163d ee3b 463c f1d3 e5bb
00000070: dcd6 e03b b297 04bd 565c 683c 9532 7e3c
00000080: 1d11 b93c 6df3 0abc 5d14 8abb 1a38 9a3c
00000090: 842b be3c 9cf3 b0ba 2e8c c13c 659c 0a3c
000000a0: b0b4 47bc 7784 fdbc e846 fabc 14d2 79bb
000000b0: 730a 15bc 840a 80bc 5b81 a1bc a7c9 c4bc
000000c0: efc0 113d f9a9 0d3d 5b66 ec3c 1863 02ba
000000d0: 5275 9ebc 47ec 083d 7580 22bb 93e2 0d3d
000000e0: f19e 1f3c 93ef 053d 5453 ac3c 5b65 8bbb
000000f0: 8f1e 09bd 80f6 48bc 4de3 59bc 987c 59bc
00000100: 158b 6bbc 47ba ccbc c012 feb9 8db0 b93c
00000110: a28d 0e3d b91f e2bb 88a7 abb9 7572 d03c
00000120: 8b01 8abc 0b1f c53c 6f8f 40bc c942 aebc
00000130: d962 c93b d7bc d1bc 590a d4bb 0989 f93a
00000140: 6e8d 9fbc 3f31 89bc 99cd ce3c 9aa6 b03c
00000150: 26e0 05bd 162a a43c 35ce 83bc 74cb d8bb
00000160: 7bc1 b13c 2283 f239 e5b2 4bba f48c acbc
00000170: acf0 63bc e9bc 40bc 0f2e b13c 4d12 44bc
00000180: 629f d53c fcbe 59bb 970d ee3c 75ac 72bc
00000190: f509 053d 7f38 fc3c 1b33 10bc dce8 b93c
000001a0: 3b60 f3bc cbff c1bc b936 99bc ddbf 01bd
000001b0: 3f77 6ebb 9e68 97bc dfda c9bc 6fb0 80bc
000001c0: 47b8 973c 0fd3 da3c 024c 893b d837 0f3d
000001d0: 814b 1cbb a862 853c 6d8d d2bb 842c e03a
000001e0: fa6d 9a3c 3e7e afbc 1321 8ebc 652b 99bb
000001f0: 75db 9b3c 257b 043d 138b f4bc dfc6 dbbc
0.020755753 -0.017740877 -0.029626846 -0.024134854 -0.022184294 -0.020188114 0.019667406 -0.03089628
0.03340745 0.015003667 -0.013427451 0.016989324 0.020757906 -0.009954475 0.028544767 -0.01195662
-0.029514162 0.0190389 -0.013869051 0.011816798 0.006672858 0.00028513154 0.019266209 -0.018931355
-0.023535302 0.03684309 0.012099249 -0.007013791 0.0068615507 -0.03237123 0.014182171 0.015514989
0.022591168 -0.008480889 -0.0042138533 0.01882558 0.02321411 -0.0013500336 0.023626413 0.008460139
-0.012189075 -0.030946953 -0.030551389 -0.00381196 -0.00909673 -0.015630014 -0.019715002 -0.024021937
0.035584386 0.034585927 0.0288574 -0.00049738726 -0.019343052 0.033428457 -0.0024795805 0.034639906
0.009742484 0.03269918 0.021035828 -0.004254026 -0.03347641 -0.012265801 -0.013298822 -0.013274334
-0.014376421 -0.024991168 -0.00048460625 0.022667194 0.03480304 -0.0069007543 -0.00032740482 0.025445202
-0.016846439 0.024062654 -0.011752947 -0.02127208 0.0061458168 -0.025602741 -0.00647096 0.0019038032
-0.019476619 -0.016747115 0.025244521 0.021563817 -0.032684468 0.0200396 -0.016089538 -0.0066160504
0.021698704 0.00046255538 -0.0007770493 -0.021063305 -0.013912361 -0.01176379 0.021628408 -0.011967254
0.026076976 -0.0033225408 0.029059215 -0.014811625 0.0324802 0.030788658 -0.008801247 0.022694044
-0.029708972 -0.023681542 -0.018702852 -0.031677116 -0.0036386994 -0.018482503 -0.024640499 -0.01570913
0.018520487 0.026711969 0.004189969 0.034965366 -0.0023848715 0.016282395 -0.0064255507 0.001710311
0.018851269 -0.021422502 -0.017349755 -0.0046743625 0.019025544 0.032344002 -0.029851472 -0.026828228

tree_conv.6.weights.weight f4 [64, 128, 3]
00000000: a6eb 59b9 838a a6bc c878 83bc 6c66 33bd
00000010: fced b73b e09d 2cbd 70f5 bcbc 17b6 b53c
00000020: e741 1abd 892e 7f3c 3bed 40bc afea 3abc
00000030: e715 7f3a ba03 e73c f666 5b3a 5af9 4dbd
00000040: c588 9f3c 7b0d cdbc 5c1d 373d a641 32bc
00000050: daa7 343d 4a2e 66bc 4beb ed3c 6a61 ae3c
00000060: e0a5 0e3d 6db8 0fbd 4248 1bbd e908 883a
00000070: 9927 25bd 5b21 003d 7e45 193d d424 40bd
00000080: d01d d93c 0be0 e03c eb68 ffbb c180 d53c
00000090: 163d fd3c bf11 a13c a3ea 01bd 349e aabc
000000a0: 2230 3cbd 1ed9 c538 6a0d a5bc 747b 16bc
000000b0: 9c81 7ebc e8a8 3e3d 6842 22bd 2603 4f3d
000000c0: 7acb ed3c 655a 433d 51a8 e53c a82f c6bb
000000d0: c01a 41bd e66f 3b3c eabd 44bd 78e9 d339
000000e0: 60ad dfbc ba2e 4abc 6277 babc 07dd b23c
000000f0: 858c a13c cbfc aa3c 7375 2d3b 925d a1bb
00000100: aa5b 9c3c f749 c9bb 2379 1b3d 6653 df3c
00000110: d0b1 143c f8fd 02bd d8b8 fbbc a01f 253d
00000120: ef82 f5bc 0ab9 dbbb 5c26 0cbc 6050 2f3d
00000130: e91f 143d e3e1 273c 39af 363d c3ba 5fbc
00000140: ef72 fa3b 3ad1 243a 0ae9 d23c b4cd 443d
00000150: bc94 303d fa7b a2bc 0a37 fbbc 9fc2 143d
00000160: b73e 01bb 39b0 23bd 94cf 8b3a 2088 30bc
00000170: e621 073d 0a04 b4bc 9f2d f03a 092c 273c
00000180: f2be 3a3c 46db 27bd ac39 0ebc 16b4 25bd
00000190: 0290 21bd 77ce d73c 9d61 d43c 1387 eabc
000001a0: 620a 503c 209d 4bbd fd7e 9b39 4bc1 0bbd
000001b0: 4611 96bb d1dd fcbc 0eff ac3c 5d11 313d
000001c0: 8f5c 033d 92c8 0f3d 98d8 b83b 826a cf3b
000001d0: 89ca a23c a19f 3e3d 17d2 debc 3d2d 423d
000001e0: d571 4d3d 8d94 8cbc 7f37 12bd 1cbb 463d
000001f0: 87b1 b43c 5536 21bd 1c06 4ab9 fd05 623c
00000200: 5e43 22bc a74e 373c 99e8 0dbb 4e05 c3bc
00000210: 8865 dfbc a1b4 d2ba c1cc e3ba 8e1c 3cbd
00000220: 8870 113d df59 fd3c 3369 f73c cb97 44bd
00000230: 0cf2 8dbc 6bd8 c1ba 6d92 6a3b 74a1 74bb
00000240: 00af 7fbb 87a4 d0bc 174b a73c 49bd c3bc
00000250: a867 fd3c b665 033d e53f 023b 9fda 763b
00000260: 43a7 023d 5346 803c 8bb9 173c 7fae 2f3d
00000270: 88f1 01bd 8f02 57bc 9833 373d 9d5d 09bc
00000280: 2dce 39bd 1a52 4ebc eefe a63c 5719 d0bc
00000290: 95fc 4f3d 1b68 2abd b0c4 47bd f0d1 363c
000002a0: 2732 b63c 6078 3a3c aaa0 6abc ad1d 743c
000002b0: 8ba6 093d 5b04 d83c bca5 123c d1c5 41bd
000002c0: 4a6a db3b 1f8d 023b 4580 b13c 3440 4abd
000002d0: 5b66 13bd 1af3 1fbc 7df8 233d 1d8d f2bb
000002e0: 3271 703b b906 3abd fbbd a23c 7ea0 bf3c
000002f0: 759d 053d 0d0c 3ebc 81d5 4abd b920 2f3c
00000300: 4dac 50bd 6c03 d73c 77a5 f4bc ea41 f93c
00000310: 0727 22bb ff76 d23c 0414 173b b54c 193c
00000320: e360 5abc 0ba4 28bd 2462 b3bc c5d2 76bb
00000330: aaa6 97bc 3947 173b 60fc 28bc 474d f73c
00000340: ad3d a1bb c23a 38bd e1ce 263c 079b 16bc
00000350: 5bf7 f0bc f2bf dabb dbc9 673c 0bbb f13c
00000360: 45ef dfbc b70c 8fbc 8a88 4abc 85f6 a73c
00000370: bb31 b53c 17c8 0a3c 2bd7 b13c 93f4 e83c
00000380: eeb9 48bc 1b72 243c fb3b 973b 2b65 91bc
00000390: c801 ca3c 5aaa 2a3b 7c36 3abd 2ce5 16bd
000003a0: 2ecd 133c 813d 273d 0210 2dbd b38c 27bd
000003b0: 3cfc dbbc ff2d 1dbd 65cb 7e3c 776f 50bc
000003c0: 1a16 2e3d 7fef 21bd f06b 5cbc 50f1 3f3d
000003d0: 430d 7bbc 0138 103d 2abd 2abd 9290 4abd
000003e0: 6959 68bc f0a2 e9bc 653f 2d3d 3d48 21bc
000003f0: 9370 3f3d d4d4 09bd 42d0 36bb 6912 413b
-0.00020782519 -0.02032972 -0.016048804 -0.04379885 0.0056130867 -0.04214275 -0.023066252 0.022181554
-0.037660506 0.01557506 -0.01177531 -0.011408492 0.0009730742 0.02820002 0.00083695294 -0.05028663
0.019474396 -0.025030842 0.044705734 -0.01087991 0.04410539 -0.014049122 0.02904286 0.021286685
0.03482616 -0.03508799 -0.037910707 0.0010378632 -0.040320966 0.03128181 0.03741979 -0.046910122
0.026503474 0.027450582 -0.0077944896 0.026062371 0.030912917 0.019661782 -0.031717908 -0.02082739
-0.04594434 9.434133e-05 -0.020147998 -0.009184707 -0.015533831 0.0465478 -0.03961411 0.050540112
0.02902769 0.04769363 0.028034361 -0.0060481615 -0.04714465 0.011440253 -0.04803268 0.00040419004
-0.027304351 -0.012340242 -0.022762004 0.02183391 0.019720325 0.020872494 0.002646771 -0.0049244845
0.019086678 -0.0061428505 0.03795732 0.027261447 0.009075597 -0.031980485 -0.030727789 0.040313363
-0.02996966 -0.006705408 -0.008554067 0.04280126 0.036163244 0.010246727 0.0446007 -0.013655367
0.0076430957 0.00062872807 0.025745887 0.048047736 0.043110594 -0.019834507 -0.030665893 0.036318418
-0.001972122 -0.03996298 0.0010666722 -0.010774642 0.032991312 -0.021974582 0.0018324143 0.01020337
0.011398064 -0.0409806 -0.008680742 -0.040454946 -0.039443977 0.026343567 0.025925452 -0.028628862
0.012697788 -0.049710393 0.00029658517 -0.034119885 -0.004579696 -0.030867489 0.021117713 0.04322945
0.032070693 0.035103388 0.0056410544 0.0063298354 0.019871967 0.046538953 -0.027199788 0.047406424
0.050157387 -0.017160678 -0.035697456 0.048518285 0.022057308 -0.039358456 -0.00019266497 0.013795373
-0.009903757 0.011188186 -0.0021653532 -0.02380624 -0.027270094 -0.001607556 -0.0017379747 -0.04592567
0.03550771 0.030926643 0.03020153 -0.047996324 -0.017327331 -0.0014789229 0.0035792843 -0.003732768
-0.003901422 -0.025469078 0.020421548 -0.02389397 0.030933216 0.03207942 0.001987451 0.003766693
0.031897794 0.015658533 0.0092605455 0.04289102 -0.031724483 -0.013123169 0.044726938 -0.008384136
-0.04536264 -0.012592817 0.020385232 -0.025402708 0.05077799 -0.04160319 -0.04877156 0.011158451
0.022240711 0.011381239 -0.014320532 0.014899653 0.033606093 0.026369264 0.008950647 -0.047307793
0.0066960203 0.001992054 0.021667609 -0.049377635 -0.035986286 -0.00976255 0.0400319 -0.007402076
0.0036688563 -0.045416567 0.01986598 0.023391958 0.032620866 -0.011599553 -0.04952002 0.010688954
-0.05094557 0.026246749 -0.029864056 0.030426938 -0.00247425 0.025691507 0.0023052702 0.009356667
-0.013328764 -0.04117207 -0.021897383 -0.003766225 -0.018512089 0.0023083223 -0.010314077 0.030188216
-0.0049206824 -0.04497791 0.01018116 -0.009192235 -0.029414823 -0.0066757137 0.014147247 0.029508134
-0.027335772 -0.017462118 -0.012361655 0.020503292 0.02211844 0.008470557 0.021709045 0.028436935
-0.01225136 0.0100369705 0.0046153045 -0.017748436 0.024659052 0.002604148 -0.045462117 -0.03683965
0.009021087 0.04083014 -0.042251594 -0.040905666 -0.026853673 -0.038373943 0.015551423 -0.012721888
0.042501546 -0.039535042 -0.013453469 0.046860993 -0.015322986 0.03520966 -0.041684307 -0.04945428
-0.014181473 -0.028520077 0.042296786 -0.009843883 0.04673822 -0.033650234 -0.0027895127 0.0029460436

tree_conv.6.weights.bias f4 [64]
00000000: 311b 6a3c 8a48 6cbc d6ce 123d b167 3e3c
00000010: 5ffc 343c 69d2 343c 87c3 37bd 828f 41bd
00000020: 3b14 08bc 95b7 f23c b082 3cba 89ec 383c
00000030: 6998 093d f4ff e0bc c40c c3bc e3b1 7fbc
00000040: e693 3a3d 99c9 20bd 6c06 fdbc 0258 87b9
00000050: fd8f 09bd aa05 bfbc e106 ce3c 09c7 0e3d
00000060: b43a cfbb 8da8 253c 64d0 4b3d 86cd d5bc
00000070: ecf1 e8bc a12c 36bd a6ac 983b 3d2b 253d
00000080: e3e6 233d c074 49bd c0fe 91bc 9029 183d
00000090: 5b79 183d a498 0bbd 7515 433d 69ce 8cbc
000000a0: cc64 263c 4490 32bd 1d29 37bd f1b5 74bc
000000b0: 6f9a 493d 3b6c 4c3d 7d10 243c 4d44 483d
000000c0: f86d f0bc c64d 773a c0e5 fe3c 6458 d43c
000000d0: 5d34 47bd 0622 253c b481 b83b ddcf f3bc
000000e0: 46a4 553d 6c6e 4dbc b4a3 d83c 6724 afb8
000000f0: 4eb3 6d3c f371 dc3c 8dd7 203c aea4 d03c
0.0142887095 -0.014421592 0.035841785 0.011621402 0.011046498 0.011036494 -0.044864204 -0.047256
-0.008305605 0.029628554 -0.0007191105 0.011286863 0.033592615 -0.027465798 -0.023809798 -0.015606376
0.045551203 -0.03925476 -0.030886851 -0.00025814777 -0.033584584 -0.02331813 0.025149764 0.034857783
-0.0063241366 0.010110986 0.049759284 -0.026098978 -0.02843567 -0.044476155 0.004659253 0.04032444
0.040015113 -0.049183607 -0.01782167 0.037149012 0.03722511 -0.034081116 0.047627885 -0.017188268
0.010155868 -0.043594614 -0.044716943 -0.014935956 0.049219545 0.049907904 0.010013697 0.04889326
-0.029349312 0.00094338914 0.031115413 0.025921054 -0.048633922 0.010078913 0.005630696 -0.029762203
0.052158616 -0.012538534 0.026445247 -8.351431e-05 0.014508082 0.026909804 0.009817016 0.02546915

tree_conv.9.weight f4 [64]
00000000: 6926 803f 8909 803f 2528 803f 6cbb 7f3f
00000010: ecfd 7f3f 2204 803f f7ca 7f3f 9021 803f
00000020: 06c8 7f3f 0f21 803f 1219 803f 6307 803f
00000030: 372b 803f bc0c 803f 9f19 803f dae6 7f3f
00000040: 99ed 7f3f c911 803f 4f04 803f ba0e 803f
00000050: e91a 803f 2802 803f bfd3 7f3f cc14 803f
00000060: 8bf2 7f3f f423 803f 9806 803f 5323 803f
00000070: c210 803f 8c05 803f 90e0 7f3f c202 803f
00000080: f927 803f 99c7 7f3f fa07 803f d027 803f
00000090: e1f2 7f3f fa0a 803f e016 803f c704 803f
000000a0: 722a 803f c708 803f 2e17 803f 12fb 7f3f
000000b0: 5713 803f a5ec 7f3f 88d8 7f3f da2c 803f
000000c0: fcf9 7f3f ae00 803f 03f0 7f3f 6cbb 7f3f
000000d0: ae25 803f c621 803f 14df 7f3f d3f5 7f3f
000000e0: 8af6 7f3f b41e 803f 2e07 803f 0417 803f
000000f0: 93cf 7f3f 9919 803f c5e5 7f3f 11e3 7f3f
1.0011722 1.000291 1.0012251 0.9989536 0.9999683 1.0001261 0.99919075 1.0010242
0.99914587 1.0010089 1.0007651 1.0002254 1.0013188 1.0003886 1.0007819 0.99961627
0.9997192 1.0005428 1.0001315 1.0004494 1.0008212 1.0000658 0.99932474 1.0006347
0.99979466 1.0010972 1.0002012 1.001078 1.0005114 1.0001693 0.9995203 1.0000842
1.0012199 0.99913937 1.0002434 1.001215 0.9997998 1.000335 1.0006981 1.0001458
1.0012953 1.0002679 1.0007074 0.9999248 1.0005902 0.99970466 0.99939775 1.0013688
0.9999082 1.0000207 0.99975604 0.9989536 1.0011499 1.0010307 0.99949765 0.99984473
0.99985564 1.000937 1.0002191 1.0007024 0.9992611 1.0007812 0.99959975 0.9995585

tree_conv.9.bias f4 [64]
00000000: 19a7 b33a 468e 973a b712 9aba 2328 923a
00000010: ad47 8c3a 6201 a9ba ba25 743a 1019 9b3a
00000020: 84b3 783a 0368 92ba 8d13 a3ba 6d81 793a
00000030: 558c a8ba ebbe 87ba 8eaa 723a 76b0 a1ba
00000040: 1e5d a53a 1c68 ec39 79b4 773a d47f 9f3a
00000050: 1f1b 9bba 1852 9eba 28e2 9cba 9437 8e3a
00000060: 492e 083a 1b9b 95ba 419a 9eba 724c 9b3a
00000070: ddd0 9b3a 869d acba cafd 8eba b19c a8ba
00000080: 023f b0ba 33fb 9f3a cf03 aeba 26de 99ba
00000090: 637c 93ba a819 45b7 9ddb 9f3a 0202 90ba
000000a0: 5023 9eba 9eaf a13a 3c8d 29ba 8563 a6ba
000000b0: 4122 8b3a 7ae5 833a 1420 99ba 2c6b a5ba
000000c0: 38c7 8e3a 12b9 933a 568c aa3a 68a5 a23a
000000d0: da57 b4ba cd36 9dba 912d 9a3a 9b0c 8c3a
000000e0: c233 1f3a b9e7 81ba c6b5 a4ba 95b3 a6ba
000000f0: 81e5 7f3a 3bab 9e3a 6308 8d3a dc8b 1139
0.0013706415 0.0011562787 -0.0011754845 0.0011150878 0.0010702513 -0.0012894089 0.0009313483 0.0011833031
0.0009487199 -0.0011169914 -0.001244174 0.0009517882 -0.0012859205 -0.0010356581 0.0009256982 -0.0012335915
0.0012616252 0.00045090995 0.0009449195 0.0012168833 -0.0011833644 -0.0012078909 -0.0011969255 0.0010850304
0.00051948853 -0.0011414023 -0.0012100415 0.0011848344 0.0011887808 -0.0013169504 -0.0010909375 -0.001286408
-0.0013446512 0.00122056 -0.0013276282 -0.0011739179 -0.001125228 -1.1748089e-05 0.0012196187 -0.0010986926
-0.0012064967 0.0012335663 -0.0006467884 -0.0012694454 0.0010615067 0.0010062896 -0.0011682534 -0.0012620441
0.0010893112 0.0011270365 0.0013011794 0.0012408914 -0.0013759092 -0.0011994481 0.0011762847 0.0010684909
0.0006073081 -0.0009910978 -0.001256638 -0.0012718315 0.0009761677 0.0012105474 0.0010759946 0.00013880379

tree_conv.9.running_mean f4 [64]
00000000: 2b72 343f b6da 8e3e b82d b540 9408 f93f
00000010: 6d0a 9a3f 95fc 9940 d3bf 843f 430d 5d3f
00000020: 3a79 8240 8da9 cf40 c650 ea3f 09ef 923f
00000030: c357 d940 d62c ae40 abf8 923f 3296 1c40
00000040: 1ee9 5d40 c28d 6040 9664 0d3f 45bc 1e3f
00000050: 37f4 1640 d268 9f40 d4d9 0940 dc7e 2640
00000060: bde6 0640 4bd5 7b40 6c45 7f40 1255 e83f
00000070: f434 d03e f913 2f40 5612 243f a9f6 c13f
00000080: 7106 9440 ac4c e03f 1c36 1a40 ff45 d740
00000090: d6ff 8840 c92b 8d40 60b5 de3f 6630 3940
000000a0: 3806 a140 d1b1 7540 43b7 593f c0d5 403e
000000b0: fff2 8e40 28b6 b440 b896 8040 5f90 6a40
000000c0: e777 5d40 7b7f 303f 1d38 1040 a793 e03f
000000d0: bae3 9e40 d93c 8440 a79d 163f 7f2d cc3e
000000e0: 0e0b ac40 b0b0 b540 3bdd 5d40 e4c8 3e40
000000f0: dcf1 e040 9acd b83e 1b4f 1b40 86b1 c73d
0.70486706 0.27901238 5.661831 1.9455743 1.2034432 4.812083 1.037104 0.8634836
4.077298 6.489447 1.83059 1.1479198 6.791963 5.442973 1.1482137 2.4466672
3.4673533 3.5086522 0.55231607 0.62006027 2.3586557 4.9815454 2.1539202 2.601493
2.1078331 3.9348934 3.9886122 1.8150961 0.406654 2.735594 0.6409048 1.51534
4.6257863 1.7523398 2.4095526 6.7272944 4.28123 4.411595 1.7399101 2.893579
5.032009 3.838978 0.8504526 0.18831539 4.4671626 5.647236 4.0183983 3.6650617
3.4604433 0.6894452 2.253425 1.754506 4.9652987 4.1324277 0.5883431 0.3987846
5.3763494 5.6778183 3.4666278 2.9810114 7.029524 0.36094362 2.4267032 0.09750657

tree_conv.9.running_var f4 [64]
00000000: 741a 953f 2c56 213e 5070 d83f 055c 453f
00000010: b3c6 c23f 4ad2 d73f a3f2 b93e 84ec 203f
00000020: 19fe 773f 2079 2640 406f e43f 6e1a 143f
00000030: 8754 1640 bfa4 e43f 1811 683f d2dd 963f
00000040: 2a17 a53f 7080 5b3f b3c1 a93e 351b 543f
00000050: 2e5e f13e 5fb9 0840 f805 ea3e 0deb 0940
00000060: 0b5a 0e3f 18b5 c83f ba95 6f3f bf53 2e3f
00000070: 3120 f03e a679 953f 95b3 903f 8674 d53e
00000080: bf42 c23f 150d 433f 1308 713f 9434 0240
00000090: 9c13 d53f f339 a03f 9341 ac3f b4d5 a13f
000000a0: c0fb 0b40 9395 f73f b29b e63e c5dd 073e
000000b0: 2880 a83f 8e99 9d3f 032a 2040 4fbf 573f
000000c0: 7aac 923f 13ec 073f 2dcb 823f c464 243f
000000d0: b269 0a40 39b0 7f3f 1d66 183f 0545 c33e
000000e0: 03f3 c03f d430 c83f 2e94 8d3f 8a2a 293f
000000f0: 278d 3f40 02ed 5b3e 274d 033f edbd a33c
1.1648698 0.15755528 1.6909275 0.77093536 1.5216888 1.686105 0.3631793 0.62860894
0.968721 2.601143 1.7846451 0.5785283 2.3489091 1.7862777 0.90651083 1.1786444
1.2897694 0.85742855 0.33155593 0.82854015 0.47142166 2.1363142 0.4570768 2.1549714
0.55606145 1.5680265 0.9358784 0.68096536 0.4689956 1.1677749 1.1304804 0.41690463
1.5176619 0.76191837 0.94152945 2.034459 1.6646609 1.2517685 1.3457512 1.2643342
2.1872406 1.9342521 0.4504066 0.13268192 1.316411 1.2312486 2.5025642 0.8427629
1.1458886 0.53094596 1.0218254 0.64216256 2.1627011 0.9987827 0.5953081 0.38138595
1.5074161 1.5639901 1.1060846 0.66080534 2.9929903 0.2147713 0.512896 0.019988025

tree_conv.10.weight f4 [32, 64]
00000000: 837b 04bd e49b a5bb 8d79 d6bd 2c3c ff3c
00000010: 56dc 8bbd 8890 cdbc 32fd c93d 815c 1fbd
00000020: d2f1 e3bd 9db3 2a3d 8067 c33d 38a1 093d
00000030: 5494 083d e660 5e3c 0594 4f3d 85e0 f6bc
00000040: ddf0 bdbc c3b4 b8bc ef1e 433d 4ed7 083d
00000050: 9ed6 9c3d 3048 993b f05b 313d c0d0 dfbd
00000060: 4d02 7bbc c52e 683d 29ba 5abd 9634 393c
00000070: 4cfc a8bd c132 debd 8418 9c3c dbb9 993d
00000080: aba0 2aba 46f9 0fbc 475c c1bb 6007 9e3d
00000090: 9df4 c6bd 12f9 ddbb 2cb5 c73d f75e b6bd
000000a0: 29e0 903b 91e4 79bd deec 4c3d 92c9 6fbd
000000b0: b62a f43d 1ccc 6fbd 108c e6bd aaef e13d
000000c0: 9778 39bd 474d 2f3d 15be bfbd 96db 823d
000000d0: 3da5 eb3d 913d 34bd 521b cb3d dccb 4a3d
000000e0: 09d4 c03d bfa6 8cbd 8c15 96bd 8368 dbbd
000000f0: e4cd e23d 644e a0bd 6d2d 8bbd f2ce a1bd
00000100: 4138 e1bc f31f e5bc da9b a0bd c486 fe3d
00000110: feff edbd f7f0 f23d 26cf c9bb ed35 82bd
00000120: 29f0 c23a 2fe0 2e3d 2349 b43d df04 463d
00000130: f372 aebd 54cd f0bd de77 7c3d 7c48 dc3b
00000140: 0029 4dbd 357f 2fbd 0be0 8bbd 5da2 d2bd
00000150: 8a36 c9bd 8954 f63c bed9 f1bd 9849 e83d
00000160: f6c0 8bbd 5a4c 7abd d5ec 12bd 486e ccbc
00000170: ed03 fbbd e8df d6bd 09fb 66bc e345 ecbd
00000180: 51fe f73d a2b6 2fbd cf63 f9bd 3776 513c
00000190: 7669 813d a140 5f3d a4ec f2bd fa61 ed3c
000001a0: 7e9f c33c 9f0f df3d d269 423d caf7 743d
000001b0: 228f 533d 4963 7e3d 103a cb3d 8c05 8cbb
000001c0: 383c b63d 606d 4dbd 09f5 b7bd adc7 d7bd
000001d0: aa2c b53b b4e8 be3c 4d23 6bbd 09e1 f3bd
000001e0: b9e5 e4bc 73cc e73d f7f3 ed3c a795 86bd
000001f0: 7466 c4bd b19d 493c 6b29 643d 3936 6cbd
00000200: 19b9 c6bd c1e1 24bd a767 eebd 6dc0 f23d
00000210: e853 c6bd 6c3c d23d 5955 9ebd 9240 77bc
00000220: cab2 a53d ddad 21bd 25ce dfbd 01e5 d93c
00000230: d54d afbd 491d 0a3d 771d b13d ce7f 7ebd
00000240: 317f c4bd aaf9 b2bd d813 06bc 31f8 81bc
00000250: 8168 c8bd 90a6 acbd 382b c33d ab2b ad3d
00000260: 8b25 a3bd 6939 42bd 7f30 e93d c0cf fb3d
00000270: c438 9d3d d0a5 bf39 6953 0cbd 4e97 e03d
00000280: 6255 173c e96d a3bd 1285 abbd 292a afbd
00000290: 17db 29bd 549c b23d 81ce da3d 51f6 b0bd
000002a0: e216 dfbd a11f 9bbd bb70 b53c de2d 133b
000002b0: 6d47 cdbd 2460 b43c 1632 0ebd fd18 9ebd
000002c0: 384e 0e3d 6a77 fc3d f39c 33bd 405d d63c
000002d0: 39c6 4f3d adbe aa3d b27c d1bd 451a 5f3d
000002e0: 8d7c 67bd 83ed f3bd e433 58bd 9912 94b9
000002f0: e26c 993d 6e56 0f3d c09e d0bd 437e 74bd
00000300: 8b67 d43d 2d53 fe3b a66c 8ebd 0acd f63d
00000310: 635a 143d 343f 91bd fdf9 a13d 1bca 9a3b
00000320: 8f67 31bd 66be 78bd 72ab 813b ca06 8cbd
00000330: de04 01be 4803 203d 734c ee3d 23f9 053c
00000340: 90a2 a53d f049 39bd 4fcd 3c3d 5049 4c3d
00000350: f2a6 563d c662 cc3d ab97 d53c e7cf a33d
00000360: 7a55 34bd b324 fd3d a039 5fbd 9514 8dbd
00000370: 4b0d f8bc 407b 45bd 7870 853d 5dc2 f5bd
00000380: 0ca5 e8bd 56fc 78bd 776e bebd 65e0 c7bc
00000390: 15eb 2f3d f5cf b43d c822 a9bc fc13 393d
000003a0: b23a d9bd 811a c63d 7e1e efbd 03d2 3abd
000003b0: 6cdb d33d cc4e 323c a8c6 763c d7f4 efbd
000003c0: 2c9b 55bd bf3e b53d 6558 983d 3d10 be3c
000003d0: 4531 cdbd a792 a1ba 882a 5fbd d190 65bd
000003e0: 8b01 8e3d d18c 193d c472 77bd 22e5 f7bd
000003f0: 3016 c83d 94f3 fcbc f03b babd fe7a cb3d
-0.032344352 -0.005053984 -0.10472403 0.031156622 -0.06829135 -0.025093332 0.09862746 -0.038906578
-0.11130108 0.0416752 0.095412254 0.033601016 0.03334458 0.013572907 0.05067827 -0.030136356
-0.023186142 -0.022547131 0.047636922 0.033408456 0.076581225 0.004677795 0.04330057 -0.10928488
-0.015320373 0.056685228 -0.053400192 0.011304041 -0.08251247 -0.10849524 0.019054659 0.07506152
-0.0006508927 -0.008787459 -0.005900893 0.077162504 -0.09714625 -0.0067740763 0.09751353 -0.08904832
0.004421253 -0.061008994 0.05003058 -0.05854184 0.11922209 -0.058544263 -0.112571836 0.110320404
-0.04528102 0.042798307 -0.09362427 0.06389539 0.11506126 -0.044004027 0.0991732 0.04951082
0.094154425 -0.06867742 -0.073283285 -0.107132934 0.11074427 -0.07827452 -0.06795774 -0.079008
-0.027492644 -0.027969336 -0.07842226 0.12428048 -0.11621092 0.11862367 -0.006158727 -0.06357942
0.0014872599 0.042694267 0.08803012 0.04834449 -0.085180186 -0.11757913 0.06163775 0.006722508
-0.05008793 -0.042845923 -0.06829842 -0.102848746 -0.098248556 0.030069606 -0.11809109 0.11342162
-0.06823914 -0.06110797 -0.035870392 -0.02495493 -0.12256608 -0.104919255 -0.014097937 -0.11536767
0.12109054 -0.04289878 -0.1217724 0.012784532 0.06318943 0.054504994 -0.11861542 0.028977383
0.023879763 0.10891651 0.0474642 0.059806623 0.051650174 0.062106404 0.09923184 -0.004273122
0.088982046 -0.050153136 -0.089822836 -0.10536132 0.005529006 0.02330432 -0.057406712 -0.119081564
-0.027941572 0.113182925 0.029046996 -0.06571513 -0.09589854 0.012305663 0.05570356 -0.0576689
-0.09703273 -0.04025436 -0.11640864 0.118531086 -0.096839726 0.10265431 -0.077311225 -0.015091078
0.08090742 -0.03947245 -0.10927991 0.026598455 -0.08559767 0.033719335 0.08648198 -0.062133603
-0.09594572 -0.08739026 -0.008183442 -0.015865417 -0.097855575 -0.08430207 0.09529728 0.08455595
-0.07966145 -0.04741803 0.11386203 0.122954845 0.07676843 0.000365539 -0.034259234 0.10966359
0.009236665 -0.07979948 -0.083749905 -0.08552963 -0.041468706 0.087212235 0.10683919 -0.08640731
-0.108930364 -0.07574392 0.02214848 0.002245776 -0.10023389 0.0220185 -0.034715734 -0.0771961
0.034742564 0.12327464 -0.04385085 0.026167512 0.05072615 0.0833715 -0.10228862 0.054468412
-0.056515265 -0.11910536 -0.05278386 -0.00028242616 0.07491471 0.034994535 -0.10186529 -0.059690725
0.10371312 0.00776138 -0.06954317 0.12050827 0.036219012 -0.07092133 0.079090096 0.0047238
-0.04331165 -0.060728453 0.0039572055 -0.068372324 -0.12599513 0.03906563 0.11635675 0.008177075
0.08087647 -0.045236528 0.046094235 0.049874604 0.052405305 0.09979777 0.026073297 0.079986386
-0.04402683 0.123605154 -0.054498315 -0.06888691 -0.030279776 -0.048213243 0.06515592 -0.119999625
-0.11359605 -0.06078752 -0.09298413 -0.024398992 0.0429488 0.08828727 -0.020646468 0.045185074
-0.10606898 0.09673024 -0.11675738 -0.04561044 0.10344586 0.010883044 0.015062012 -0.11716621
-0.052149937 0.088498585 0.07438735 0.023201102 -0.10019163 -0.0012327031 -0.05448392 -0.05604631
0.06933888 0.03748781 -0.060412183 -0.121042505 0.09769857 -0.030877866 -0.090934634 0.09935568

tree_conv.10.bias f4 [32]
00000000: 6912 253d cee4 a6bd bdfe 893d 6b11 383d
00000010: 2cb8 acbd a56c 323c 56c7 11bd e6a5 efbd
00000020: dc38 ea3d e843 223c bb33 87bd 0800 47bd
00000030: 6c5d 4ebd e8be f4bd 8b3b 4d3d 004d 7a3d
00000040: f846 c73c b577 b53d 2387 183d c187 7dbd
00000050: 3c82 80bd b8bb 333c 9969 47bd 9395 743d
00000060: 392b e8bd 75cc a0bd a184 883d 5a62 683c
00000070: 885b c7bd 7f1b 51bc 9483 a53d 1ee7 a7bc
0.04030076 -0.0814911 0.067380406 0.044938486 -0.084335655 0.010890161 -0.035590492 -0.117015645
0.11436626 0.009903885 -0.06601664 -0.048584014 -0.050382063 -0.11950475 0.050105613 0.06110859
0.024325833 0.08860723 0.03723825 -0.061897043 -0.0627484 0.010970049 -0.04868469 0.059712958
-0.11336369 -0.07851497 0.06665922 0.014183605 -0.09734255 -0.012762903 0.08081737 -0.020495947

tree_conv.12.weight f4 [16, 32]
00000000: d34c 02be 3d9c 95bb e87d e5bc 9213 ca39
00000010: f22f a43c 8036 2fbe ed70 0bbe eb22 b23d
00000020: 455d 77bc 6807 ce3c fc2b 2ebe 3588 c13c
00000030: 492a 28be 08be c9bd 3dec edbd c853 053e
00000040: e9db 153e c441 193c 993b 25be 7296 38bc
00000050: 762c 2e3e 1fd7 febd b9d3 02be a767 ddbd
00000060: 7734 a03b f780 d63c 57d4 27be 03d3 30be
00000070: d93b 48bd 30f9 173e dfb4 7b3d fd95 febd
00000080: 26f3 06be 87fb 07be 5f13 4abc 50d9 483c
00000090: 3bde 16be d897 4c3d 16a0 713c 7242 303e
000000a0: babb 9cbd 4217 9d3c b140 89bb 885e 31bb
000000b0: 0f96 8a3d 0e72 0ebe 5a12 ef3d d543 f3bd
000000c0: 5a09 a3bd 73a6 81bc 1ce2 003d 781b 343e
000000d0: 8a7c 2d3e e5ff 273e a4f1 5fbd f3d3 8dbd
000000e0: 4745 003e 3b1b 1ebe a1ae 333e 7f21 8ebd
000000f0: 4e74 8abd 2f59 9abd 9d02 7f3c f18a 243d
00000100: a0e2 59bc 5fd6 d2bd 27c8 033e 3bdc 1d3d
00000110: baec b6bc 4696 00be bc43 cd3d ff6d a1bc
00000120: 052d 1cbe b6cc 933c 8a34 11be 9af5 083e
00000130: 8adf ea3d e158 8a3d f2ab f63d 7120 55bd
00000140: 8c2c f13b 79c3 f5bd e067 b1bd e5fb 87bb
00000150: e74c 25be d448 f7bd 9e3d d83c 2238 153e
00000160: f24b dc3c 97a0 2ebd e7df 323e 1ea0 0c3e
00000170: 4977 8d3c 427f a2bd 5ead 723c 7187 6f3d
00000180: 4342 abbd 559a 023e 940a 33be fc4b 14be
00000190: 3382 dfbc d3c0 18bd 376f e8bd 7493 763d
000001a0: 8b66 74bc 8bf5 02be eb31 1abe b534 98bd
000001b0: 7e10 e03d db8d 83bd fb83 82bd 8eb6 003d
000001c0: e76d 1b3e bb42 b63d b506 a73d 187a 0a3d
000001d0: f94d 923d 5749 15be 5928 2c3e 3559 64bd
000001e0: 3c83 dfbd d836 493c 4ba7 f13d 2a2d eabc
000001f0: 771e f33d c044 57bd d38f a3bd fb52 fe3d
00000200: 2cc0 44bd fd38 eebd 11ea 21be 071c c33d
00000210: 628a a23c 160f 643d b674 c83b 22cc 8cbd
00000220: 17b7 6a3d 8170 0ebe d727 2c3d ec6d f83d
00000230: fd82 2f3d 6534 15be f86f de3d 87f8 eb3d
00000240: 022c db3c 0f5f ac3d 0f45 a63d cb02 ad3d
00000250: 6bcb 0abe 5eb2 783d a981 b63c 50e2 fe3d
00000260: e76d 54bd ff9c 863d e60c 343e 2903 89bd
00000270: d8c7 d33d cfdc 203e 4f5f 183e 7528 b8bd
00000280: bb92 0f3d 2a23 4bbd b1db ddbc 0dd0 a8bc
00000290: 184a 70bd ddd2 15be 3ee6 c63d 2694 e53d
000002a0: 246c 3ebd d117 2ebd b085 ec3d 6711 103e
000002b0: 39cd 47bc 7179 723d 21fd d4bc d666 073e
000002c0: 10ec adbb 525c 73bd 25f1 213e 4e54 0d3e
000002d0: cc94 bc3d 38f6 d93c 31c3 83bc 5c1d 21bd
000002e0: 7477 10be ea41 6e3d d6fc eebd 788f 98bc
000002f0: 06a5 243e 4d26 97bd 5a77 0d3e c1fc 443d
00000300: 7584 093d c40a 303e b27d 95bd 7599 933d
00000310: e481 fd3d 284a 2e3d 0241 7bbc f797 48bd
00000320: ac95 10be 9130 93bd 2ad3 5fbc 9db3 18be
00000330: e968 0b3e cde0 18be f785 8dbb f597 56bc
00000340: 59b7 efbc c78d a6ba d454 063e b02b 083e
00000350: d12e 31bd 2ecd 26be 7283 e53d 73d3 1e3e
00000360: b643 8bbc add8 323e ac63 993d 5800 b1bd
00000370: 9964 b33d a923 99bd 810d 033e a474 8d3d
00000380: bd48 e7bd b5a9 d83d c182 61bb c26c b6bb
00000390: 79c6 d1bb 1800 de3c 2552 96bd 6095 213e
000003a0: b624 07be 92b7 273e 48c6 563c 9783 fbbc
000003b0: f8c8 f93d 1c31 e33b 68fe d8bd ba37 64bd
000003c0: b53f 07be 7ec9 3dbc d220 b33d 6696 debd
000003d0: dc57 afbd a080 033e 702b c2bc 352b 583d
000003e0: 5871 70bc 65fb 9f3d c67f 71bd 3fb9 e93d
000003f0: 8752 a53d 8fe8 403d b116 e53c 75e5 003e
-0.12724619 -0.004565744 -0.028014138 0.00038543023 0.020042393 -0.17110634 -0.13617297 0.08698066
-0.015097921 0.025150016 -0.17008966 0.023624519 -0.1642238 -0.09850699 -0.116173245 0.13020241
0.1463467 0.009354059 -0.16136016 -0.011266338 0.17009148 -0.12443375 -0.12776078 -0.10810786
0.004889067 0.026184542 -0.16389595 -0.17267995 -0.0488852 0.14841151 0.06145179 -0.12430952
-0.13178691 -0.13279544 -0.01233372 0.012258843 -0.14733212 0.049949497 0.01474764 0.17212847
-0.076529935 0.01917613 -0.00418862 -0.0027064402 0.06766903 -0.13910696 0.11673422 -0.11878172
-0.07960768 -0.01582644 0.031465635 0.17588603 0.16942039 0.1640621 -0.054673806 -0.06925192
0.12526427 -0.15440075 0.17547084 -0.069399826 -0.067604646 -0.07536542 0.015564588 0.040171567
-0.0132986605 -0.10294794 0.12869321 0.038540106 -0.022329677 -0.12557325 0.10022685 -0.01970577
-0.15251549 0.01804195 -0.14180198 0.1337494 0.11468418 0.067552336 0.12044515 -0.05203289
0.0073600467 -0.12000174 -0.08662391 -0.004149901 -0.16142617 -0.12074438 0.026396569 0.14572194
0.026891682 -0.04263362 0.17468224 0.13732955 0.017268794 -0.07934429 0.014811842 0.058478776
-0.08362248 0.12754185 -0.17484504 -0.1448211 -0.027283764 -0.037293267 -0.113493375 0.060199216
-0.014917026 -0.1278898 -0.15058105 -0.07431928 0.10940646 -0.06423541 -0.063728295 0.031424098
0.15178643 0.088994466 0.08155576 0.033807844 0.07143778 -0.14578758 0.16812266 -0.055749137
-0.10913703 0.012281142 0.11799487 -0.028585989 0.11871045 -0.0525558 -0.07986417 0.12418171
-0.048034832 -0.116319634 -0.15811945 0.0952683 0.019841377 0.05567845 0.0061174287 -0.06874873
0.057303514 -0.13910104 0.04203018 0.12130341 0.04284953 -0.14570768 0.108612 0.11522012
0.026754383 0.084165685 0.08118641 0.08447798 -0.1355416 0.06071698 0.022278624 0.124455094
-0.051862624 0.065729134 0.17583045 -0.06690056 0.103408515 0.15709232 0.14880107 -0.089920916
0.035052042 -0.049594082 -0.027082296 -0.020607019 -0.05866441 -0.14631219 0.09711884 0.11209898
-0.04648985 -0.04250318 0.11548936 0.14069138 -0.012194925 0.059197847 -0.025999608 0.13222823
-0.005307682 -0.059414215 0.15814646 0.13801691 0.09208068 0.026606664 -0.016084285 -0.03933464
-0.14108068 0.05816833 -0.116693184 -0.018623099 0.16078576 -0.07380352 0.1381506 0.048092607
0.033573586 0.17191607 -0.07299365 0.07207004 0.1237829 0.04255119 -0.015335323 -0.04897305
-0.14119595 -0.07186998 -0.013661185 -0.14912267 0.13614239 -0.14929505 -0.0043189484 -0.013097753
-0.029262232 -0.0012707048 0.13118297 0.13297915 -0.04325754 -0.16289207 0.11206712 0.15510349
-0.01700006 0.17465468 0.07489714 -0.08642644 0.08759422 -0.07477505 0.1279812 0.06907013
-0.112931706 0.10579244 -0.003441021 -0.005567164 -0.0064018336 0.027099654 -0.073398866 0.15779638
-0.13197598 0.1637862 0.013108797 -0.030702395 0.12196535 0.0069333445 -0.10595399 -0.055717207
-0.13207896 -0.011583684 0.08746494 -0.1086853 -0.0856168 0.12842035 -0.023702353 0.05277558
-0.014675461 0.078116216 -0.058959745 0.11412286 0.080723815 0.047096785 0.027964922 0.12587531

tree_conv.12.bias f4 [16]
00000000: 1b32 0b3e cecc d13d 1a82 143e 6cc3 19be
00000010: c054 1cbe c821 17bd ce10 123d 1caa 4fbd
00000020: b57f f43d 553e 6c3d ebe3 0c3e c653 b83d
00000030: 3466 283e 33b1 093e 720f 553d 5743 01be
0.13593332 0.102441415 0.14502755 -0.15015954 -0.15266705 -0.03689745 0.035660557 -0.05069934
0.11938421 0.057676632 0.13758819 0.090003535 0.16445237 0.13446502 0.052016683 -0.12623344
