src/Models/cost.onnx (onnx, 677677 bytes, 9 tensors)

tree_conv.0.weights.weight f4 [256, 50, 3]
00000000: 3569 a43d 4005 703c 30c8 983c de1e 923d
00000010: 0961 40bd 3c97 623d 8498 5a3d 8048 603d
00000020: 2263 983d 682e 5d3d 17de 0b3d c8ab 363c
00000030: 7597 853d c36c 4d3d 92e8 0ebd a30a 7dbd
00000040: 2be7 423d 7488 8e3d f676 0dbd 5b1e 253d
00000050: 2a2c f9bc e999 7bc0 bda5 1cc0 8c3d 00c0
00000060: 883d 1e3d 2ea7 62bd efcd 173d d597 06bb
00000070: a120 843d 4b0e a23d ee58 823e 08ad ba40
00000080: 9d03 ce3f 0e56 34bd 8e23 a6bd 8081 073d
00000090: a3f2 87bc de72 4ebd 8e55 db3c d540 c3c0
000000a0: 2a1e 743f 12fc 8b3d ef3c 9fbd 91de 1fbc
000000b0: b42f d43c 62be f6bc 07cb 9e3d 83ff 123b
000000c0: 19fa a13f 57bf 403b d7c2 933d 1cf7 603d
000000d0: c59e a63d 6326 7cbd 6e44 6641 12c9 8dc0
000000e0: 09e8 bbc0 c27c e1bf 9f65 a8be d86a 723d
000000f0: 7b1f 8fbd 1ac8 6e3d a504 89bd 6478 46bd
00000100: 0e7c 843d 9ce8 74bd e4a8 7bbd 3171 4d3d
00000110: 40b7 99bd 6c26 e83c ca54 8a3d 468f a53d
00000120: dd09 4d3d 12e0 92bd 3859 94bc d2d8 2241
00000130: 07b0 e03f 8040 2a3e 30f0 8cbd 071e 663d
00000140: 44ac e83c e5b3 c73c 0802 8ebd 3128 86bd
00000150: 0cb5 2cbd 8f6a 7fbd f52e a6bd 1674 32bf
00000160: 13df 2841 6ff9 023c 3292 933c e004 383d
00000170: 6fe3 3aba a868 a53c 59d6 b0bc 394b 5e3d
00000180: 2c47 f33f 45f3 af40 b619 c33c 5a4d 053c
00000190: 1d07 1bbd db94 413d aba3 13bc d96e be3c
000001a0: 332f 72bd 5256 8f3d 71a1 393d 0c52 c63c
000001b0: dce1 b83b 40ac 993d 86e0 08bc cd19 ad3b
000001c0: f287 91bc a929 35bd 98f0 3040 c158 0d40
000001d0: b76d 423c 6714 58c2 eb42 f23c e899 a541
000001e0: 7a32 e33f 4759 9340 8d4d 94bd 44df a6bc
000001f0: 9eed a4bd 845e bc3c 0617 7a41 e958 3c41
00000200: 0e7d c1c0 8d7a 97bd d543 05bd fc04 9b3d
00000210: 1c2b 9e3c 6fb0 113d aa17 15bc 9279 573d
00000220: 3831 ed3c cbb5 a33d 42fc 783c 483e 9cbd
00000230: 300d eb3c 565f 9641 d479 3041 c433 53c1
00000240: 805a 95bf d8d1 c9bd 3c18 0bc2 0dec 80bf
00000250: b397 19bf 9227 24c2 1b96 913d b3a1 7e3c
00000260: 44ed 3fbd 252c cd3c 0a39 d83c 1fbc 90bd
00000270: f2e7 d43c 864a 153d b93e 713d ff4b 1c3d
00000280: 2118 783d 55be 033d 18a0 913c 206a 81bd
00000290: b2c3 70bc 5657 0abc e069 4abd 48cd 253d
000002a0: bfcf 773d d6b3 32bd e393 5cbc 125e 33bf
000002b0: 5486 ad40 4e38 e140 c8ff f9bb a9fc 26bd
000002c0: 709b 23bd 2b21 b03c 8689 f2bc fad8 f93c
000002d0: 7e81 8e3c 5e4e a740 2ff3 cfc0 8cef d8bc
000002e0: 1a0f 99bd 3c9e 003d 0106 d13c 1ebe 763d
000002f0: d910 ac3c 3124 cbc1 88bf f240 1570 76bd
00000300: f7d7 a0bd 8fac 8dbd bf55 06bd a7b7 bfbc
00000310: bca4 88bd 2c4f d5bc 3540 3c40 8ab5 7dbd
00000320: c40b 9ebd c7b2 8bbd 917d f43c e1bc 703c
00000330: 37bc e941 28ee 93c1 197f c2c1 5247 70bd
00000340: 6559 24c1 9171 823d 32ba 063d 85c7 6e3d
00000350: 4bc7 ed3c c0b1 233c 64de 99bc 58a7 7d3d
00000360: 1f85 9c3d b814 a8bb fa3f 0b3d 0c33 143c
00000370: 5169 6a3d 3d0d 7d3d cd0e 243d e974 953c
00000380: 6bc2 313d 7cc7 4b40 da52 9e40 222a 2ec0
00000390: 6185 91bd 82ef 9f3c 3164 af3c dbee 4f3d
000003a0: bab0 9e3d 955b 5ebd 6e0b 733d f67f 383c
000003b0: 8be0 453d 1c8f 07c1 5fa9 1041 d189 703d
000003c0: c495 1abd 2a87 87bd 537f 8cbd 9113 a7bd
000003d0: 7b40 22bd 194b ad3c d590 0dc1 dfe4 82bf
000003e0: 74ba a5bd fc90 373d 8fa4 a4bd d33f f63b
000003f0: 9a27 88bd 879e 03b9 f749 9f3d 2167 c9bc
0.08027879 0.014649689 0.018650144 0.07134794 -0.04696754 0.05532001 0.053368106 0.05475664
0.07440783 0.053999335 0.03414735 0.011149354 0.06523029 0.05015255 -0.034889765 -0.061777722
0.04758374 0.0695962 -0.034537278 0.040312152 -0.030416567 -3.931269 -2.4476159 -2.0037565
0.0386329 -0.055335216 0.037061628 -0.0020537276 0.06451536 0.079128824 0.25458473 5.833622
1.6094853 -0.04402738 -0.0811225 0.033082485 -0.01659519 -0.050402515 0.026774194 -6.101664
0.95358527 0.06835188 -0.07775294 -0.009757654 0.025901653 -0.030120078 0.07753568 0.002243013
1.2654449 0.0029410922 0.07214897 0.054923162 0.08135752 -0.061560046 14.391706 -4.4307947
-5.8720746 -1.7616198 -0.3289003 0.059183925 -0.06988426 0.0582963 -0.06690339 -0.048454657
0.06468974 -0.059792146 -0.061440364 0.050156776 -0.07505655 0.028338633 0.067544535 0.08083968
0.050058234 -0.07171644 -0.018108949 10.177935 1.7553719 0.16626167 -0.0688175 0.05618098
0.028402455 0.024377773 -0.06933981 -0.06550635 -0.042164847 -0.06235748 -0.08114425 -0.69708383
10.5544615 0.00799404 0.018014047 0.044926524 -0.0007129227 0.020191506 -0.021586584 0.054270957
1.9006095 5.498446 0.02381597 0.008136118 -0.03784858 0.0472611 -0.009011189 0.023246216
-0.059127044 0.06998886 0.04531998 0.024209045 0.005642159 0.07503557 -0.008354312 0.0052826167
-0.01776502 -0.044229183 2.7646847 2.208542 0.011866978 -54.019924 0.029572925 20.70015
1.7749779 4.604648 -0.07241354 -0.020370133 -0.080531344 0.022994287 15.630621 11.771707
-6.0465155 -0.073964216 -0.032535393 0.0756931 0.019307666 0.03556865 -0.00909988 0.052606173
0.028954133 0.07993659 0.015196862 -0.07629067 0.028692812 18.79655 11.029743 -13.200138
-1.1668243 -0.09854478 -34.773666 -1.0072037 -0.599971 -41.038643 0.071087085 0.015541482
-0.046857134 0.025045464 0.026394386 -0.07067131 0.025989506 0.036448024 0.058897708 0.038158413
0.060569886 0.032163937 0.017776534 -0.0631907 -0.014695095 -0.008443674 -0.049417377 0.040478975
0.060500856 -0.043628536 -0.013462993 -0.70065415 5.4226475 7.038123 -0.0076293685 -0.0407683
-0.03994316 0.02150019 -0.029606592 0.03049897 0.017395731 5.2283163 -6.4984355 -0.026481412
-0.074735835 0.031400904 0.025515558 0.060239904 0.021004127 -25.392672 7.5858803 -0.060165484
-0.07853692 -0.069176786 -0.032796618 -0.023403002 -0.066720456 -0.026038729 2.941419 -0.061940707
-0.07717088 -0.068212084 0.029845031 0.01469347 29.216902 -18.491287 -24.31206 -0.058661766
-10.271825 0.06369317 0.032892413 0.058295745 0.029025694 0.009991109 -0.018782802 0.06192717
0.07642578 -0.005129423 0.03399656 0.009045374 0.057229344 0.061780203 0.040053178 0.018244224
0.043398302 3.1840506 4.9476137 -2.7213216 -0.07105518 0.019523386 0.02141008 0.0507649
0.07748552 -0.05428656 0.059337072 0.011260977 0.048309844 -8.472439 9.04135 0.058725182
-0.037740484 -0.066175774 -0.06860223 -0.08158029 -0.039612275 0.021153973 -8.847859 -1.0226096
-0.08092204 0.044816002 -0.080391996 0.0075149327 -0.066481784 -0.0001255219 0.077777795 -0.024585309

tree_conv.0.weights.bias f4 [256]
00000000: 22b8 4ac0 1a8a 88c1 7646 b4c1 d8ac fb40
00000010: 33da 9ec1 44fa 2542 b70c 9142 f3b2 8cc0
00000020: e82d 89c0 2299 7641 26ed e240 3d9c 2dc1
00000030: 14c8 94c0 19fd 5a42 ecee 8bc1 76be a441
00000040: cb19 95c0 7f43 9fc0 d526 67c1 527f a1c1
00000050: 6e2c 0541 2b0d 7442 9021 2cc0 eeb8 0941
00000060: af84 a4c0 51f2 fa40 45ec 5e41 a4bb 0041
00000070: 7c47 07c1 29ec 0e42 71a5 80c1 e012 c7c1
00000080: e540 0fc1 5e7c b040 6352 ad41 0996 a9c1
00000090: 2717 f840 4ca4 23c0 0773 88c0 9b40 5042
000000a0: 575a 96c1 fef4 a6bf 1fbe 00c1 f2c5 f6c0
000000b0: b982 9ec0 3314 4e42 61b1 4640 8659 9741
000000c0: 996f 99c1 aed7 29c1 1e0c 5bc0 c908 a4c1
000000d0: ffd3 4542 bdd3 6642 b188 8341 aa25 6141
000000e0: 498d 65c1 6ae9 0440 27f5 4840 7c91 68c1
000000f0: 605c 60c1 6bd0 80c1 d5d0 9ec1 977a 7c40
00000100: 8943 e240 5cb6 b541 23a9 c941 4469 5741
00000110: 5187 c941 0aed a1c1 eb2c 9540 7d8c 4541
00000120: 97cd f0c0 686b ef40 40d4 76c0 de2c df40
00000130: dc65 cd41 21a3 0442 2cf3 f941 066c 8ec1
00000140: 556b f741 1be3 2d3e dfcf 0842 11de e941
00000150: 5685 1042 6082 b4bf 0266 4b42 eb5f 7dc1
00000160: 9dc3 f741 149f 0442 571b d241 ead5 7f42
00000170: 1b2c 8842 9859 c6c1 0638 8b41 41e7 1d40
00000180: fdb9 bc41 c65e 56c1 78f8 8e41 4765 3142
00000190: 73df f141 904d 8c40 9197 0042 3d88 4f42
000001a0: a691 4e3f a62b f3c0 6e27 0c42 33f5 0f42
000001b0: d374 82c1 08e0 2f42 ffb4 f041 8d1b ea41
000001c0: d843 afbf c763 f540 6d6a b43f c293 a4c1
000001d0: c560 9e41 34c0 8141 6ddb 2642 5f2a 9fc0
000001e0: 8ce8 a73e 6fe9 72c1 0d29 63c1 fb1d 86c1
000001f0: 6b8c 4342 42b8 b441 0ce2 1041 dd11 ce41
00000200: 481a 20c1 7393 a541 cf1e 34c1 2fe7 d5c0
00000210: 7187 813e b666 96c0 94a6 0f42 2843 d5c0
00000220: 92da 0bc1 6bb4 12c1 c6fb 05bf 7b40 f840
00000230: 2f73 ddc0 7c23 cb41 07e8 9e41 6c26 f6c0
00000240: 7d73 a340 8738 cf41 fd0a c541 2aba 66c1
00000250: 9e39 2542 848b b840 e6b6 5242 65a0 d9c0
00000260: 0154 2f42 5e9a 8442 f5ae 22c1 2e27 1242
00000270: af17 8142 4652 ab41 4d40 a2c1 68f6 4442
00000280: 2b49 9d41 c0ce e2c0 15fc 62c0 a976 8e41
00000290: 6576 b2be 482c 2e41 8cb8 9dbe c2fe 2842
000002a0: 9aa5 da41 ddf6 fd41 209a 2ec2 fb73 5ac1
000002b0: 3ed7 8bc1 b859 3a41 b31d 40c1 3e66 8e42
000002c0: b33e 89c1 445c 5b41 850c 0b42 af56 3fc1
000002d0: a2de ed41 7330 08c1 ca63 acc1 89cb 9f41
000002e0: b8c5 48c1 65a3 29c1 9736 23c1 c73b 6bc1
000002f0: bd07 4e42 4afd 9ec1 b5ee bb41 45eb a33f
00000300: edf5 4cc1 b8fd 8dc1 e3c9 9241 fd43 1041
00000310: af29 9f41 99c2 9542 ae84 523f 92cb 75c1
00000320: 87f9 7e3f 9956 ccc0 98cc 6941 45a1 06c0
00000330: 511c bd41 d13e 06c1 ed4e 0242 d0c9 04c2
00000340: efbc 09c2 bea6 0142 1c01 e7c0 b904 28c1
00000350: 90e5 c1c0 0265 dd41 4fc9 60c1 2276 e1bf
00000360: 5e18 c141 08b4 cc41 e59c 6341 30cf b041
00000370: 69a7 d7c1 0d48 1242 27a4 c9c1 310d 3bc1
00000380: 300a 3042 e46a ffc1 5011 5fc1 9b24 8541
00000390: f929 2f42 a84e 3ac1 bf23 2ec1 cf35 12c1
000003a0: 0438 b4c0 4c42 c0c0 aa3f b341 5fbe 0941
000003b0: a898 6042 6abb a9c0 2153 0c42 6c59 4d42
000003c0: 6dca a1c0 29d5 a3c1 d7fa 0b42 ebc1 c041
000003d0: 26aa 1741 2705 84c1 0a00 fdc1 c2eb 9a40
000003e0: 8b56 2842 00ed 64c0 d076 03c1 dbd6 9d42
000003f0: 8651 4141 5a74 edc0 63e6 59c1 0965 623f
-3.1674886 -17.067432 -22.534405 7.864849 -19.856543 41.4944 72.52483 -4.3968444
-4.286854 15.412386 7.091449 -10.850644 -4.6494236 54.747166 -17.491661 20.592999
-4.6593986 -4.9769893 -14.44698 -20.187168 8.323347 61.01286 -2.6895485 8.607649
-5.1411967 7.8420796 13.932683 8.045811 -8.454952 35.730625 -16.080782 -24.884216
-8.953343 5.5151815 21.665228 -21.19826 7.752826 -2.556903 -4.2640414 52.06309
-18.794111 -1.3043516 -8.046416 -7.7116632 -4.9534574 51.519726 3.1045763 18.918713
-19.179491 -10.615156 -3.4226146 -20.50429 49.457027 57.706776 16.441744 14.071695
-14.346993 2.0767465 3.139963 -14.535519 -14.0225525 -16.101767 -19.851969 3.9449823
7.070744 22.714043 25.207586 13.4632 25.191072 -20.240742 4.661733 12.346799
-7.5250964 7.481861 -3.8567047 6.974227 25.674736 33.159306 31.243736 -17.802746
30.927408 0.16981165 34.203 29.23343 36.13021 -1.4102287 50.849617 -15.835917
30.970514 33.15535 26.26335 63.9589 68.08614 -24.793747 17.402355 2.4672396
23.590815 -13.398138 17.871323 44.348904 30.234106 4.384468 32.148014 51.883045
0.8069099 -7.599078 35.038506 35.989452 -16.307043 43.96878 30.088377 29.263453
-1.3692579 7.66843 1.4094979 -20.572147 19.79725 16.21885 41.714283 -4.9739223
0.32794607 -15.181991 -14.197522 -16.764639 48.887127 22.58997 9.055187 25.758722
-10.006416 20.696997 -11.257522 -6.6844707 0.25298646 -4.700038 35.912674 -6.664448
-8.740862 -9.169047 -0.523373 7.757871 -6.9203105 25.392326 19.863295 -7.69219
5.1078477 25.902601 24.630365 -14.42045 41.306267 5.7670307 52.67861 -6.8008294
43.832035 66.3015 -10.167714 36.53826 64.54626 21.415173 -20.281397 49.24063
19.660727 -7.087738 -3.5466359 17.80794 -0.34855953 10.885811 -0.3080486 42.248787
27.33086 31.745539 -43.650513 -13.653316 -17.480099 11.646904 -12.007251 71.19969
-17.155615 13.710026 34.762226 -11.958663 29.733707 -8.511828 -21.548725 19.974382
-12.548271 -10.602391 -10.200828 -14.702094 51.507557 -19.873676 23.491556 1.2806174
-12.81004 -17.748886 18.348577 9.016599 19.895353 74.88007 0.82233703 -15.3622
0.995995 -6.385571 14.61245 -2.103593 23.638826 -8.390336 32.577076 -33.197083
-34.434505 32.412834 -7.2188854 -10.501153 -6.059273 27.67432 -14.049148 -1.7614176
24.136898 25.587906 14.225804 22.101166 -26.956743 36.570362 -25.205153 -11.690721
44.00995 -31.927193 -13.941727 16.642874 43.79099 -11.644203 -10.883727 -9.138137
-5.631838 -6.008093 22.406086 8.608977 56.14908 -5.3041277 35.08118 51.337326
-5.05596 -20.479082 34.99496 24.094687 9.47904 -16.502516 -31.62502 4.841279
42.084515 -3.5769653 -8.216507 78.91964 12.082403 -7.420453 -13.618747 0.8843542

tree_conv.3.weights.weight f4 [128, 256, 3]
00000000: bbc7 79c0 5b4f d4bf d4c8 b33f cfa1 3bc0
00000010: cb53 c9c0 6c0d c43f 78cb 1cbf acfe 3dc1
00000020: fa28 633f 900f 66c0 37c3 e0c0 3a18 45c0
00000030: 36ce c3c0 6a4c d140 250a 4840 5dd0 07c0
00000040: 71db b841 2a3b 0fc0 53f9 89c0 a595 d7bf
00000050: 1919 823f 3a7f d83f d80d cc3f b55a 4340
00000060: 9b7d 92c0 3671 3740 70a1 7240 2b21 b6bf
00000070: baa9 2bbf 3a0b be40 c49f 87bf 7eb2 8940
00000080: 46cf b540 2cf6 6ec0 a05f 8740 38b4 4d40
00000090: e59c aac0 d08f 8640 8749 933f ee2c b1bf
000000a0: 48d2 0741 e7fe 0a41 7662 d5bf 6339 8a3f
000000b0: edc1 ad3f 3707 00c1 29f2 bbbe a18c ae3e
000000c0: b28a a7c0 1a27 0b3f 84e9 253f 8ea8 c9c0
000000d0: 65c3 0040 f48e 4240 ce37 1ec0 7e59 a640
000000e0: c097 5340 a3be 86bf 99bd 45c1 8156 22c0
000000f0: e2ca 80c0 ccc3 ff3d 84b8 6f40 7f80 f3bf
00000100: e8ae f640 b3ab 0b41 2aa8 9cc0 7af3 d2c0
00000110: 883c 1f3f 10ef ebbd 3877 573c 54a7 4340
00000120: 7470 d0c0 96a9 b840 72fa 233f 494d 95c0
00000130: 012a 10c1 255f fe3f 0dc5 4dc1 d6ac 5f41
00000140: be75 6a40 fe93 e1c0 635a d540 56de 0540
00000150: 9b77 4dbf e102 d73f e6e7 8040 942e 82c1
00000160: 9ad4 2441 ef24 0640 85b3 8ec0 85f8 2dc1
00000170: de4f 5fbf 6dd6 06c1 0636 2b41 eb1a a340
00000180: 4c51 35c0 abc8 683e df47 4540 f0a1 04c0
00000190: 5dd0 d13f 58df cd40 7685 f4c0 9cee 2541
000001a0: 4a50 f8be 2ed4 d6bf 1595 8940 ce9c 7a3e
000001b0: 8243 62c0 6e27 32c1 84b0 c63e 5821 89c0
000001c0: 4eda a040 b79f 743f 7473 e3bf 325e 29c0
000001d0: 01cf ad3f 0de3 12c0 7a05 ef40 fa2b 4441
000001e0: 322b 55c0 376f a540 a145 3440 d6e8 a7be
000001f0: eb4a ac3f 7e92 95be 90c9 6440 fd50 06c0
00000200: eca1 2c40 2195 40c0 a7ad bcbf d82f a93e
00000210: c084 78c0 c8b4 9cbf bc9a b640 ed55 d6c0
00000220: 4874 1640 5c73 ac40 915d 9fc0 3d04 7940
00000230: e63a 7940 0f8a 67bf aa0a 0dc0 acbd 3640
00000240: 062e 0ec0 abcd 6440 8aaf 2040 ebac 76c0
00000250: 3f3d 89c0 d3f4 1f3e bda9 62c0 6ea5 903f
00000260: 3009 f640 337f 023e bdb6 3f40 4205 9340
00000270: 83d7 8dbf 6e81 1541 51bb ed40 268a 36c0
00000280: 790a d840 46bc 4141 0fc9 4cc0 abf1 0c41
00000290: fcb1 8d3d 31ee 4fc0 2f2c 62c0 e835 5fc0
000002a0: 9da0 2cbf 17c0 8740 b556 5d40 2375 f0c0
000002b0: 664d b33f 3cb0 ac3f f63d 84c0 26c8 2640
000002c0: ead0 373f a2aa e4bf bdb0 4040 e5a3 90be
000002d0: 155d 46c0 6b94 8ebf aaa4 22be 17dc 6440
000002e0: 243a 8840 beb9 5a3f 5cc6 1cc1 4bf4 3841
000002f0: e1ec ad40 e621 09c1 037e d5bf 0c42 993f
00000300: b948 27c1 217d 7041 49d6 5c3f b006 eac0
00000310: c88e 1dc1 1566 5340 18a2 0fc0 8c4b af40
00000320: b9c0 b640 9bb1 f5c0 b124 2b41 914f 97bf
00000330: 6da0 8cc0 7bc2 2340 cd98 203f eba1 5abf
00000340: ca3e c83e 9935 8abd 75ba 2ec0 1536 de3e
00000350: 9730 133f 48ab bec0 e5d0 fb3e 23c2 3b40
00000360: efa4 07c1 953e 8e40 b39d 6640 6d0c c2c0
00000370: 8ad1 bcbf abd6 4e40 c004 50bf 7fd2 90be
00000380: 4ecf 2640 b9c2 86c0 8002 a140 1dca 3f40
00000390: 32c5 8ec0 cf52 ff40 df49 0940 acf9 3fbf
000003a0: 985b 8a40 86e5 9e40 53ee e93e 973d 5abf
000003b0: e13c 1540 e53b 52bf c8c2 0841 8a6e 51bf
000003c0: 924d bac0 7b97 6f3e 4079 d93e 1ee5 dfc0
000003d0: 85e6 9d40 a54d c83f aabb 28c1 18c0 d83f
000003e0: 7320 8e40 14dd 78c1 4cd8 6bc0 8b85 1f3f
000003f0: a971 68c0 2e6c 6ebf f27e 4a40 f995 f2bf
-3.9028156 -1.6586717 1.4045663 -2.931751 -6.2914786 1.5316596 -0.6124797 -11.874676
0.887344 -3.5946999 -7.02383 -3.0796037 -6.118922 6.540578 3.1256192 -2.1220925
23.10715 -2.237986 -4.311685 -1.6842543 1.0163909 1.6913826 1.5941725 3.0524113
-4.5778327 2.8662848 3.7911034 -1.4228872 -0.6705586 5.9388704 -1.0595632 4.3030386
5.681552 -3.7337751 4.230423 3.2141247 -5.331652 4.205055 1.1506814 -1.3841836
8.488838 8.687232 -1.6670673 1.0798763 1.3574806 -8.001761 -0.3670819 0.34091666
-5.2356806 0.5435654 0.6480944 -6.3018255 2.011926 3.0399752 -2.472156 5.1984243
3.306137 -1.0526928 -12.3587885 -2.5365298 -4.024766 0.12488517 3.745637 -1.9023589
7.708851 8.729419 -4.895528 -6.5922213 0.6220174 -0.11520207 0.013150983 3.057088
-6.513727 5.7707014 0.64054024 -4.665684 -9.010255 1.9872786 -12.860608 13.979696
3.6634364 -7.0493155 6.6672835 2.0916953 -0.8026063 1.6797754 4.028308 -16.272743
10.301905 2.0960042 -4.459414 -10.873174 -0.8723124 -8.42735 10.700689 5.097036
-2.833087 0.22732799 3.0825117 -2.0723839 1.6391712 6.4335136 -7.6412916 10.370754
-0.48498756 -1.6783502 4.2994485 0.24473879 -3.5353703 -11.134626 0.38806546 -4.2853203
5.0266485 0.95556206 -1.7769608 -2.6463742 1.3578798 -2.295108 7.4694185 12.260736
-3.3307614 5.169826 2.8167498 -0.32794827 1.3460363 -0.29213327 3.5748024 -2.0986931
2.697383 -3.009102 -1.4740494 0.33044314 -3.8831024 -1.224267 5.7063885 -6.697989
2.3508472 5.389082 -4.9801717 3.8908837 3.8942199 -0.90445036 -2.203776 2.8553267
-2.221559 3.575053 2.510714 -3.854304 -4.2887263 0.15620737 -3.54161 1.1300485
7.6886215 0.12743835 2.9955285 4.594392 -1.1081394 9.344099 7.429116 -2.852182
6.7512784 12.108465 -3.1997716 8.809001 0.069187135 -3.248913 -3.5339468 -3.4876652
-0.67432576 4.2421985 3.4584172 -7.514299 1.4007995 1.3491282 -4.1325636 2.605966
0.7180315 -1.7864573 3.0107872 -0.28250042 -3.0994313 -1.1139044 -0.15883127 3.5759332
4.2570972 0.8543967 -9.798428 11.559642 5.435166 -8.570776 -1.6679081 1.1973281
-10.455255 15.030549 0.86264473 -7.3133163 -9.847359 3.3031056 -2.2442684 5.477972
5.7110257 -7.6779304 10.696458 -1.1821157 -4.394583 2.5587451 0.62733155 -0.8540332
0.39110404 -0.06748504 -2.7301304 0.43400636 0.5749602 -5.9584084 0.4918281 2.9337242
-8.477767 4.4451394 3.6033752 -6.064017 -1.4751446 3.2318523 -0.8125725 -0.28285596
2.6064029 -4.21127 5.031555 2.996711 -4.4615717 7.9788585 2.1451337 -0.74990344
4.323681 4.965518 0.4568964 -0.8525023 2.3318408 -0.8212264 8.547554 -0.81809294
-5.821969 0.23397629 0.4247532 -6.9967184 4.9343896 1.5648695 -10.545816 1.6933622
4.441461 -15.553974 -3.6850767 0.62313145 -3.6319373 -0.9313382 3.1639981 -1.8952018

tree_conv.3.weights.bias f4 [128]
00000000: 2b59 05c1 6247 1040 d9b9 6041 1ff8 a040
00000010: 8a75 0641 39e3 f740 cd66 19c1 4e99 0442
00000020: 70a0 01c0 e0ad 92c1 77bd 3d41 0547 0941
00000030: d9e9 ce41 6b75 a440 90eb 19c1 1e2e 7cc1
00000040: 55a3 e640 a895 f140 c3f8 cec0 6e50 f640
00000050: b090 7841 b289 bb40 875f 1e40 08da 8141
00000060: d34e 1e40 6957 4ec0 c23a 42c1 95b9 96bf
00000070: eb11 22c1 a567 26c1 06b3 c341 4bf4 5bc0
00000080: 3762 22c1 aedf 8ac1 68c9 ddc0 be7c bf41
00000090: cccb b040 95fb d440 719d 8041 dcd3 0f40
000000a0: 2d07 39c1 e9af 1ac1 a610 dc41 f9a2 a841
000000b0: 498e 0341 1b12 9cc0 f9ed 1ec0 507f 9f41
000000c0: 356e 5541 09e3 3bc1 db38 4741 7618 d9c1
000000d0: b5d4 60bf 22f6 6f40 5b8c 97be 9d89 0a41
000000e0: 919a 27c1 3be2 5c40 83da c9c0 7348 f041
000000f0: 2d7c 68c0 0d6b 4d3f 0a8f 8dc1 7715 c441
00000100: 1ff6 1ec1 0897 f341 e7e7 4c40 1f0a 0742
00000110: 73fb c140 b61b 86c0 ee2f cbc0 67b8 e041
00000120: ed28 22c1 486d 8840 7d93 9241 4026 7b40
00000130: 2f6a ca3f c14a 3bc0 a6a1 20c1 0517 1141
00000140: 2838 6a40 3b9b 8640 c85e b340 179b 6e41
00000150: 6a30 65c0 60b6 0ac1 7d93 9f40 453f f0c0
00000160: 9e5e c940 170f 4040 f390 29c0 c5af 0dc1
00000170: 6235 c940 a792 b4bf 38c4 82c0 065c 37c1
00000180: 16cb d8c0 0f1b dec0 5f7e 30c1 4c4f 7dc0
00000190: df6a 6941 a12c 6941 39bb 8840 e000 2941
000001a0: db68 babf 22de 3dc1 3f14 1541 904d 9440
000001b0: 23cf 7f41 9d54 803f 6736 9841 a682 8440
000001c0: 602a 433f 9651 f441 2e20 c241 161c 6141
000001d0: 6b23 e4c0 a725 f541 a691 14c1 b2cc 09c0
000001e0: 0902 d8c0 c609 a9be 5683 b240 4496 1ac0
000001f0: 3533 46c0 b767 bfc0 4134 2b41 7467 8ac0
-8.33427 2.2543569 14.045373 5.030288 8.403696 7.746487 -9.587598 33.14971
-2.0254173 -18.3349 11.858756 8.579839 25.864183 5.1393332 -9.62001 -15.761259
7.207438 7.5495186 -6.4678664 7.697318 15.535324 5.8605585 2.4745805 16.23146
2.473561 -3.224085 -12.139345 -1.1775385 -10.1293745 -10.400304 24.462414 -3.4367855
-10.148978 -17.359219 -6.9308357 23.93591 5.5248775 6.6557107 16.076876 2.2473059
-11.564252 -9.667947 27.50813 21.079576 8.222238 -4.87721 -2.4832747 19.937164
13.339406 -11.7429285 12.451381 -27.136944 -0.87824565 3.7493978 -0.2959927 8.658597
-10.475236 3.451308 -6.307924 30.035376 -3.632579 0.8024147 -17.694843 24.51048
-9.935088 30.448746 3.2016542 33.759884 6.0619445 -4.1908827 -6.349601 28.09004
-10.134992 4.26334 18.322016 3.9242096 1.5813655 -2.9264376 -10.039465 9.06812
3.6596775 4.206449 5.60532 14.912864 -3.58108 -8.669525 4.986754 -7.5077233
6.2928 3.000921 -2.649472 -8.8554125 6.2877665 -1.4107255 -4.0864525 -11.459967
-6.774791 -6.940803 -11.030852 -3.957965 14.588592 14.573396 4.2728543 10.562714
-1.4563249 -11.866732 9.317443 4.634468 15.9880705 1.0025822 19.026564 4.1409483
0.76236534 30.539837 24.265713 14.069357 -7.1293235 30.643385 -9.285559 -2.1531186
-6.7502484 -0.3301527 5.578532 -2.4154215 -3.0968754 -5.9814105 10.700257 -4.3251286

tree_conv.6.weights.weight f4 [64, 128, 3]
00000000: 5c8c 90bf ef3d 48bf 4544 813f 4ad5 3b40
00000010: 6a03 35c0 1a53 9abf 2da5 01c0 3c8e 4341
00000020: e80b 1140 3e12 5fc0 0ef8 2041 9dcf f63d
00000030: 18dd a23f 4c71 b7bf 8687 aa3f e2ed 66c0
00000040: c03c 80c1 1d31 ea3f 45e9 a240 0c05 93c0
00000050: eeef bd3f 1976 44c0 c823 e541 49bc 1cc0
00000060: ab9f 34c1 f58c 78c0 d8b6 5740 13da 79c0
00000070: edc5 0d3f c97b 6640 ee41 9f40 831d 823f
00000080: ddf8 f43f 151e 1041 1d3f 26c1 b6d1 7c3e
00000090: 0da6 0640 8797 3b41 e7eb 8fbf 7355 ff3e
000000a0: ce83 963f b027 1f40 d169 ce40 f977 a83e
000000b0: 3ed0 5abf cb2a afbf 29da 1c40 eea5 c23e
000000c0: 1358 06c0 1bde 9f40 bd2d 51bf b97f 77c0
000000d0: c13f 6e40 8213 893f 417c 903f 70f4 cac0
000000e0: a62e 613f 27e9 b53f f324 bbc0 1ab1 8040
000000f0: 19ba e440 e664 efc0 86a7 3440 c1e2 6c3f
00000100: 3c3e 21c1 404c aa40 3f83 9840 4934 83c0
00000110: 530d 0040 1297 7f40 e693 74c1 bc47 5f40
00000120: 8447 44c0 ea1f 4340 8d61 8e40 e81f 503f
00000130: 3f78 34be 98cb cdbf 5a99 55c0 3772 61bf
00000140: 1c11 ba3e 1dcc 03c1 1d91 2840 0667 a840
00000150: 1088 8f40 0ed8 a5c0 db49 2a40 ca60 4141
00000160: 8df6 fbc1 c991 3f3f 21ac 3a3e fc9d 3e40
00000170: 2399 743d 1892 b4bf 2095 3f41 54b7 97bd
00000180: 8033 733d 8854 8c3e 0410 f4bf 3c6b 4f41
00000190: 50aa c1c1 c2c4 b33f 6955 f0bf 1b30 f340
000001a0: 9628 12c0 7153 33bf 3c72 a540 0e91 bd3f
000001b0: d0f9 0f40 4235 12c0 0c9f 3940 f950 053f
000001c0: 625c de3d b932 ed3f c0b9 a6be 27c3 f13f
000001d0: eb5c 0440 2e23 24c0 b472 0d41 3978 e73d
000001e0: b79b 0ec0 1a85 eebf 50f2 f6bf 5d04 1cc0
000001f0: fad9 da40 f398 24bf 206e 5cbf dac0 c240
00000200: 5944 1c40 cf89 803f c2ec 7840 6158 abbf
00000210: 6170 60c0 9df6 6140 adba d53f f9b2 3bbf
00000220: aed0 d140 7d8e 493f 48d0 8040 0a91 8ac0
00000230: 1110 74bf e9f2 9140 97f7 0ac1 9ed1 2b40
00000240: 7dc0 04c1 ba2d e9c1 40d5 cdbf 66e8 d4bd
00000250: 17eb 75bf fcc2 f4bf 5b64 1241 bec8 f1c0
00000260: d004 5040 7474 81bf 05db 83c1 9c1d b03f
00000270: f9a6 16c1 6b8e 82c0 323a 2f40 4e65 11c1
00000280: ec10 a93f 4d48 4d40 5dc4 053f 297a 84c0
00000290: 9b20 1a40 2fb6 c940 6c89 6bbf bb63 be3f
000002a0: b884 19c0 d37e a83e cdb3 403f 4696 9dbf
000002b0: 65b0 893f dbe0 0940 00b0 53c0 ab06 7440
000002c0: e005 6140 63cd bfc0 2cdd 5441 27bd 28c0
000002d0: 3a68 983f 7ce9 293f 7656 753f 3ace 02c1
000002e0: 88f0 8c40 4461 bd3f ecec 4841 f40d 9ec1
000002f0: e1e5 8240 5f30 a3bf 6f38 ed40 5251 91bd
00000300: 5b59 1ec0 240c 30bf d056 cc3f 4ec3 e5c0
00000310: 4caa 3d41 37a3 0f40 adb1 7ac0 9528 e140
00000320: dfc1 79bf f2d2 483f a5a3 db41 bc55 95bf
00000330: a38b e0c0 7ddd e73f bdfe 06c0 cdc9 3f40
00000340: 3100 b1c0 3c07 86c0 610e 1240 d808 5140
00000350: 934b e93f bcf9 30c0 a1db bd41 6e2c 1fc0
00000360: 3485 da3f 0911 0fc0 492a 74c0 1620 2a40
00000370: 544a edc0 74a0 82c0 4035 7cc0 3897 3d41
00000380: 9cc2 2dc0 3b8e 0541 1329 25c1 3a42 90bf
00000390: ee25 8c40 8532 afc0 b947 bd40 1b5e 9ac0
000003a0: 06cf a140 37d2 97bf 8046 5f3b 4be7 c13e
000003b0: 7233 83bf f28a 9a40 ba48 1fc1 edbb 9940
000003c0: a264 b4c0 0d40 ca40 8b3f 0540 c311 d2c0
000003d0: 0d83 80c0 9e20 7940 1697 d9bf 9823 ff3f
000003e0: 1e35 983f 79d5 95c0 f946 4140 1acb debc
000003f0: 2191 9340 1be7 cfc0 3c7f 953f e888 9a40
-1.1292834 -0.78219503 1.0098959 2.9348931 -2.8283334 -1.205661 -2.0257065 12.222225
2.2663517 -3.4854884 10.06056 0.12051318 1.2723722 -1.433145 1.3322608 -3.6082692
-16.029663 1.8296238 5.0909753 -4.594366 1.4838846 -3.069708 28.642471 -2.448992
-11.288981 -3.8836033 3.370535 -3.9039352 0.55380136 3.6013052 4.976798 1.0165256
1.9138447 9.007344 -10.3904085 0.24689373 2.103885 11.724494 -1.1243867 0.4986988
1.1758974 2.4867973 6.450417 0.32904032 -0.85474 -1.3684934 2.4508154 0.3801722
-2.0991256 4.9958625 -0.81710416 -3.8671706 3.7226412 1.0709078 1.1287919 -6.3423386
0.87961805 1.4211777 -5.8482604 4.021619 7.147717 -7.4810667 2.8227248 0.925335
-10.077694 5.321808 4.7660213 -4.1001325 2.0008132 3.9935956 -15.286108 3.4887533
-3.066865 3.0488229 4.449408 0.81298685 -0.17623995 -1.6077757 -3.3374848 -0.88064903
0.36341178 -8.237332 2.633857 5.262576 4.485359 -5.182624 2.6607578 12.08613
-31.495386 0.74831825 0.18229724 2.9783926 0.059716355 -1.4107084 11.973907 -0.07408014
0.059375286 0.27408242 -1.9067388 12.96368 -24.20816 1.4044421 -1.8776065 7.5996222
-2.2837272 -0.70049196 5.1701946 1.4809892 2.2496223 -2.2845006 2.9003325 0.5207668
0.108574644 1.8531104 -0.3256359 1.8887681 2.0681713 -2.5646472 8.840504 0.113022275
-2.228254 -1.8634369 -1.9292698 -2.4377663 6.8391085 -0.6429588 -0.8610554 6.0860415
2.4416716 1.0042056 3.8894506 -1.3386346 -3.506859 3.530677 1.6697594 -0.73319966
6.5567236 0.78733045 4.025425 -4.330205 -0.95337015 4.560902 -8.685447 2.684669
-8.296994 -29.147327 -1.6080704 -0.10395889 -0.96061844 -1.9122005 9.149501 -7.5557547
3.2502937 -1.0113664 -16.481943 1.3759036 -9.415765 -4.079885 2.737927 -9.087233
1.3208289 3.207538 0.5225275 -4.139912 2.40824 6.303489 -0.92006564 1.4874185
-2.3987255 0.3290926 0.75274354 -1.2311485 1.0756956 2.154349 -3.3076172 3.812907
3.5159836 -5.9938216 13.303997 -2.636545 1.1906807 0.66371894 0.95835054 -8.175348
4.4043617 1.4795308 12.557842 -19.756813 4.0905614 -1.2749137 7.413139 -0.07095589
-2.4742038 -0.68768525 1.5963993 -7.180091 11.854076 2.2443368 -3.9170945 7.036204
-0.9756145 0.78446877 27.454905 -1.1666789 -7.0170455 1.8114468 -2.109298 2.996692
-5.5312734 -4.188383 2.2821276 3.2661648 1.8226188 -2.7652426 23.73224 -2.4870868
1.70719 -2.2354147 -3.815081 2.6582084 -7.4153233 -4.0820866 -3.9407501 11.849419
-2.715003 8.347224 -10.322528 -1.1270211 4.37963 -5.474917 5.915005 -4.8239875
5.0565214 -1.1861027 0.003406912 0.37871775 -1.0250075 4.829461 -9.9552555 4.80419
-5.6372843 6.3203187 2.0820034 -6.564668 -4.0159974 3.8926158 -1.6999233 1.9932737
1.189121 -4.6823087 3.0199568 -0.027196456 4.611466 -6.496961 1.1679454 4.829212

tree_conv.6.weights.bias f4 [64]
00000000: 522d ad3f 9532 3f41 28dd 0941 eb38 fbbf
00000010: 8024 c13f 422e be40 be9f 1c41 008e b83f
00000020: 515f 93bf 190a 2b40 258e 0041 a4bc 1741
00000030: 2edc bdbf d82f c53f 2705 d540 be6c 7540
00000040: cbaa 0d41 5a4a 0b41 3b00 03c0 e115 2641
00000050: 5578 773f 9f6b 46c0 48b9 1841 53df b340
00000060: 9eb0 0541 c758 0e41 732a dd40 a1a4 9140
00000070: 635d e840 76f4 1141 6475 933c d252 fe40
00000080: 2822 a8bf 535e 2a41 7490 3141 52d5 6ebf
00000090: 821e 0341 46b5 a740 5be6 0241 09be 4141
000000a0: 4373 cb40 19f5 0841 c7b4 0141 339a 1041
000000b0: 5d20 ad40 8e1a 2341 b7e3 8040 aadc 6bc0
000000c0: 966e 153f 757e 8440 e420 f940 5102 5241
000000d0: 36c7 0041 c8d1 3b41 3286 d240 7c25 e340
000000e0: 20f0 9d40 c561 f140 e649 bc40 afc3 b640
000000f0: e128 c640 fb4a 0a41 64a9 0841 70ba 1ec0
1.3529456 11.949849 8.616493 -1.9626745 1.5089264 5.9431467 9.789 1.4418335
-1.1513463 2.6724913 8.034703 9.483555 -1.4832819 1.5405226 6.656879 3.834762
8.8541975 8.705652 -2.046889 10.380342 0.9666799 -3.1003187 9.545235 5.6210113
8.355619 8.896674 6.911432 4.5513463 7.2613997 9.122183 0.018000312 7.94761
-1.3135424 10.648028 11.097767 -0.9329425 8.194948 5.240878 8.181239 12.108895
6.35782 8.559838 8.106635 9.037646 5.4102006 10.193983 4.027797 -3.6853433
0.58371866 4.1404366 7.785265 13.125566 8.0486355 11.738716 6.5788813 7.0983257
4.935562 7.5431848 5.884021 5.711387 6.19249 8.643306 8.541355 -2.4801292

tree_conv.9.weight f4 [32, 64]
00000000: e87c 48bf 64de 01bf 62f9 40bf 1e4f 57bf
00000010: 93c5 61be 3d75 31bf dd8f 08bf 083b 38be
00000020: 81d2 02bf 3922 b3be 7433 84bf e859 143f
00000030: 6318 bebe ec99 aebe 88dc 39bf 4aae e9be
00000040: 0d21 0ebf 52f5 24bf 25cb 0ebf 2358 2e3f
00000050: 0c85 adbe b217 99bf 7f84 07bf 982d e5be
00000060: 837f 13bf cf1c 61bf d026 02bf 58ea 3abe
00000070: 80d7 dfbe 7c41 b5bd e432 1cbf fcd6 76bf
00000080: b266 8bbf d6bb 23bf beaf 12bf ef0d 36bf
00000090: 8a6a d93d 5f3c b9be bb87 f4be 6edf ecbe
000000a0: 8645 9cbf 0be5 a2bf 8fb5 fbbe db4b 56bf
000000b0: 717f 4ebf 022b 0fbf 5b20 1abf 00df 79bf
000000c0: f50d 98be 609d a33f 78fe 25bf 97c1 09bf
000000d0: b44f 96be 7c93 3bbf ed89 84bf e538 40bf
000000e0: 865d 243e 2a02 a5bf 9ff9 1cbf 3377 ccbe
000000f0: ce96 1fbe 3782 58bf ec5a 4cbf 0d89 2abf
00000100: ebc0 20c1 43ca 2141 a229 7540 bde1 6941
00000110: 33ee c541 9d97 5f41 f2c9 0a41 3793 be41
00000120: 1424 2c40 afa6 3e41 2375 4441 d9f5 d0c1
00000130: 1b81 cf41 0ae1 9241 ef0b 4c41 0df7 9141
00000140: 20c2 1e41 130a 1141 779a 4641 9f08 a9c1
00000150: 9776 c441 e756 d340 6225 1c41 12dd 8340
00000160: 410c c441 06d3 4041 46aa 5b41 adda a2c1
00000170: 9efa 8440 2885 4d41 99ad eabf 1cc8 e240
00000180: 19c9 8a41 b890 0741 f562 b540 691f 3cbf
00000190: b937 e0c1 a499 3740 6b16 8840 2e13 3441
000001a0: 0991 0e41 f32c f740 5c47 9740 a18a 3f41
000001b0: a340 e2c1 b34c 5a40 99e7 1040 8a16 f840
000001c0: d3f0 5741 c326 8dc1 51df dd40 9b81 2d41
000001d0: 5247 bf40 3997 2041 b140 f140 b8a0 4c41
000001e0: ea7d 0c40 a75a ed40 8e91 6d40 ffee c140
000001f0: fb0f 6f41 e4cd 4d41 9ee4 5041 db14 4841
00000200: 4772 ff40 0834 a540 a3e5 df40 6744 4941
00000210: e260 8f41 7823 1f41 a0d1 1441 650c 2841
00000220: 8fa6 ca40 1c67 1e41 61bd 3241 adba ebc0
00000230: dbbb 4341 384b f940 b36a 3841 bd3f 1e41
00000240: 9249 cf40 9a19 f040 7344 4241 5881 b6c0
00000250: 588b 4041 9c39 1941 7862 6840 1fc8 8340
00000260: f572 6541 4591 8640 7862 3741 fcac b140
00000270: 63ee 9640 217d f740 599d e640 9f30 2c41
00000280: 756c 6b41 1f80 1241 4e52 fb40 66f2 d340
00000290: aa5f dec0 4123 3f40 b049 5c41 8361 2141
000002a0: ba83 3041 3e52 4a41 677a cc40 1d21 9440
000002b0: cd8e 1bc0 7f4a b840 dc69 4c40 345b 2041
000002c0: e483 4b41 342c bd40 8ef1 5941 57e1 a840
000002d0: 1caf 6b40 c1c7 a740 a39a 2941 3aaf 3d41
000002e0: 3238 0341 2c90 2d41 7bbb f540 9249 1340
000002f0: 0c78 2c41 e2de 1e41 d8a1 3a41 c834 4c41
00000300: d4ab ee40 e1af 9940 ac00 de40 8bc6 3d41
00000310: 6715 7f41 6a4f 1a41 6e9c 0e41 ebf0 2541
00000320: ae54 bb40 fddd 0e41 3eed 3041 df78 efc0
00000330: 017c 4041 1337 e540 600e 3541 3cf5 1341
00000340: 2a46 c040 dd0c ed40 51b5 2941 8997 b7c0
00000350: 638b 3941 b243 1241 7f46 5140 6e66 5540
00000360: 21e2 5b41 3881 7b40 dce7 3541 27d3 a040
00000370: 4fd2 9340 1d87 f240 61b8 da40 1abe 2641
00000380: ad1e 6741 28a9 0e41 bfed e140 00f3 c440
00000390: 3d59 e3c0 2df8 2f40 3a6d 4e41 0f5b 1b41
000003a0: bf85 2641 ae26 3f41 3a43 c440 1e65 8b40
000003b0: fab2 3ec0 9590 a140 f673 2e40 cd3e 1541
000003c0: ab85 4941 8466 b740 cbd3 4f41 9623 a640
000003d0: c901 4f40 dbf6 9e40 a119 2741 8730 3f41
000003e0: 4aa6 fe40 5a9f 2b41 1842 df40 fa22 0340
000003f0: 8962 2b41 8465 1c41 30fb 3841 e266 3041
-0.7831559 -0.50729966 -0.7538053 -0.841051 -0.22048025 -0.69319516 -0.5334452 -0.17991269
-0.51102453 -0.34987047 -1.0328202 0.57949686 -0.3712798 -0.34101808 -0.7260213 -0.45640785
-0.5551918 -0.6443683 -0.55778724 0.68103236 -0.3389057 -1.1960356 -0.5293655 -0.44761348
-0.5761644 -0.87934583 -0.50840473 -0.18253458 -0.437191 -0.08850381 -0.6101515 -0.9642179
-1.0890715 -0.6395849 -0.5729941 -0.7111501 0.10616024 -0.36178872 -0.47759804 -0.46264213
-1.2208717 -1.2726148 -0.49161956 -0.83709496 -0.8066321 -0.55925 -0.6020562 -0.97605896
-0.29698148 1.2782402 -0.64841413 -0.5381102 -0.29357684 -0.7327192 -1.0354592 -0.75086814
0.16051301 -1.2891285 -0.6131839 -0.39934692 -0.15584871 -0.8457369 -0.79826236 -0.6661537
-10.047099 10.11188 3.830666 14.617612 24.741308 13.974515 8.674303 23.821882
2.689702 11.915694 12.278598 -26.120043 25.93804 18.359882 12.752913 18.24563
9.922394 9.06496 12.412711 -21.12921 24.557905 6.604358 9.759127 4.120736
24.505983 12.051519 13.729071 -20.356775 4.155593 12.845009 -1.8334228 7.0869274
17.348192 8.472832 5.6683297 -0.7348543 -28.027208 2.8687525 4.2527366 11.254683
8.910409 7.724237 4.727461 11.971345 -28.28156 3.4109313 2.2641356 7.7527514
13.496295 -17.643927 6.9335103 10.844142 5.977456 10.03692 7.539147 12.789238
2.1951852 7.417316 3.712009 6.0604243 14.9414015 12.862766 13.055815 12.505092
7.9827 5.1626015 6.996782 12.5792 17.922306 9.946159 9.301178 10.503026
6.332832 9.900173 11.171235 -7.3665376 12.233363 7.790432 11.52605 9.890561
6.4777308 7.503125 12.141711 -5.703289 12.034019 9.576565 3.63101 4.118179
14.340566 4.205233 11.46154 5.5523663 4.7166 7.7340245 7.2067075 10.76187
14.713979 9.15628 7.853797 6.6233397 -6.9491777 2.9865267 13.76799 10.086307
11.03216 12.645079 6.3899417 4.629042 -2.4305909 5.7590938 3.1939611 10.022266
12.7197 5.911646 13.621473 5.2775073 3.6825628 5.243134 10.600253 11.85528
8.20122 10.847698 7.679136 2.3013654 10.779308 9.929415 11.664513 12.762886
7.458475 4.8027196 6.937582 11.860972 15.942725 9.644388 8.913191 10.371318
5.854087 8.929196 11.05792 -7.483505 12.030274 7.162973 11.3160095 9.247372
6.008565 7.40782 10.606767 -5.737248 11.59653 9.141527 3.2699277 3.3343768
13.742707 3.929762 11.369106 5.0257754 4.6194224 7.5789933 6.835007 10.4214115
14.444989 8.916298 7.0602717 6.154663 -7.1046433 2.7495224 12.901667 9.709731
10.407653 11.946943 6.1332064 4.3560934 -2.9796739 5.048899 2.7258277 9.327832
12.595134 5.731264 12.989207 5.191844 3.234484 4.9676337 10.443757 11.9493475
7.957799 10.726404 6.976818 2.0490098 10.711556 9.774784 11.561325 11.025118

tree_conv.9.bias f4 [32]
00000000: a52e 20bf 99cb 05c2 3921 36c1 9484 3fc1
00000010: 774e 2bc1 1997 3dc1 6485 20c1 f89c 3fc1
00000020: 1d9e 4cc1 c7d3 1ac1 3051 19bf 683d f7bd
00000030: 0f6b 1cc1 b478 4541 0b0f 3dc1 4425 1ec1
00000040: 1c54 43c1 a5fc 5240 7d18 35c1 73c1 5641
00000050: 73eb 3041 bf96 4341 2dc5 4641 b520 3f41
00000060: eeda 3bc1 f401 cfbf 32b7 803e 0817 7fbf
00000070: 537c 38c1 f501 4841 2bde 69bf 98d2 35c1
-0.62571174 -33.448826 -11.383111 -11.969868 -10.706656 -11.849389 -10.032566 -11.975822
-12.788602 -9.676703 -0.5988951 -0.12072259 -9.776137 12.341969 -11.816173 -9.884098
-12.2080345 3.2966702 -11.318479 13.422229 11.057483 12.224303 12.423139 11.945485
-11.74095 -1.6172471 0.25139767 -0.9964452 -11.530353 12.500478 -0.91354626 -11.3639145

tree_conv.11.weight f4 [1, 32]
00000000: 14ff 56bf 6bca 1442 0cea 2141 7dc3 1e41
00000010: dc1e 2241 5613 1f41 f02f 2241 f814 1e41
00000020: 6dac 2241 ef10 2f41 f2eb 1bbd b798 3c3f
00000030: 4825 2b41 8d70 1dc1 3390 1d41 8686 2341
00000040: affa 2241 7c0c 7fc0 f765 2141 5b39 1cc1
00000050: eaa2 dbc0 f49f 1cc1 000c 1bc1 f8da 20c1
00000060: 6254 2241 48fa cd3e 2124 a3be ff19 26bf
00000070: 1ece 2041 4fd6 1bc1 b9d9 37bf 02db 2141
-0.8398297 37.197674 10.11964 9.922727 10.132534 9.942221 10.1367035 9.880119
10.167096 10.941634 -0.03806681 0.73670524 10.696602 -9.839978 9.847705 10.220343
10.186202 -3.985137 10.087394 -9.764003 -6.863637 -9.789051 -9.69043 -10.053459
10.145601 0.40230012 -0.31863502 -0.64883417 10.050322 -9.739821 -0.71816593 10.115969
