src/Models/pairwise.onnx (onnx, 560211 bytes, 9 tensors)

tree_conv.0.weights.weight f4 [256, 2, 3]
000000 f6 d6 d2 3d a8 2f ed bd 1e 73 95 be 67 05 53 be
       0.10294907 -0.11581355 -0.2918939 -0.2060753
000010 25 8c ca bc 3b 97 ac be db b1 53 3e 37 c0 80 be
       -0.02472503 -0.3370913 0.20673315 -0.25146648
000020 43 f3 cc 3e 88 7e cb bd 40 7f 8b 3e ce 74 a1 bd
       0.40029344 -0.09936243 0.27245522 -0.07883607
000030 9f 5b 50 3e 83 de fb bd 36 48 61 3c 60 56 b8 be
       0.2034745 -0.122983 0.013750127 -0.360034
000040 66 21 0a 3e a5 54 03 bc 9a 1a 88 3e 52 ac bd 3e
       0.13489303 -0.008015786 0.26582795 0.37045532
000050 e6 e8 4e 3e 4d 86 54 be fb 94 9d 3e 70 3c 39 3e
       0.20206031 -0.20754357 0.30777726 0.18089461
000060 03 78 66 be ca 95 d6 bd 84 bb 2c be ab 00 40 3e
       -0.22506718 -0.10477789 -0.16868407 0.18750255
000070 b4 eb 8f be a1 db d5 3d 6f 56 bb be 10 50 13 3e
       -0.28109515 0.104422815 -0.3658938 0.1438601
000080 fc ac 71 3e b9 c7 ab bd 08 6d 8d bd 60 d9 5c 3e
       0.23601145 -0.083877034 -0.06905562 0.21567297
000090 9d d4 97 be da 0f b1 3e 3a b8 cd 3d 92 79 b2 be
       -0.296544 0.34582406 0.10044904 -0.34858376
0000a0 df fc 0f 3e fd 3f 82 3e 02 60 3a 3e d5 4e 8a bb
       0.14061306 0.25439444 0.18200687 -0.0042208233
0000b0 d4 52 1b be e4 79 bb 3e ea e2 98 3e e6 34 64 3e
       -0.15168315 0.36616433 0.29860622 0.22285804
0000c0 a2 c0 6d 3e 26 51 c3 3e d2 68 1c bd 5c 8d 8b 3e
       0.23218015 0.3814785 -0.038185902 0.27256286
0000d0 ea 00 4c be b7 07 39 bd fb 1c bb 3e 86 e0 6b 3c
       -0.19922224 -0.045173373 0.36545548 0.014396792
0000e0 78 0a ac 3e 31 a2 9e 3e e8 8d 63 3e 08 b8 23 bc
       0.33601737 0.30983117 0.22222102 -0.009992607
0000f0 2e e1 ce 3e 5d 12 a8 3e c3 73 ca bd f7 9c 83 be
       0.40406173 0.3282651 -0.09885361 -0.25705692
000100 1f 4c aa 3e dc 4b 33 be 81 95 08 3e 1b 55 ff 3d
       0.332612 -0.17509407 0.13338281 0.124674045
000110 af b8 b9 3e 6e b4 9c b9 3c a3 95 3d 5e e2 3c be
       0.36273715 -0.0002988907 0.07306525 -0.18445727
000120 49 29 38 be 8f 89 3a 3e 45 4e 9c 3d ce 42 ce 3e
       -0.17984499 0.18216537 0.07632116 0.40285343
000130 0f a8 23 be f0 27 90 be b0 cb cb 3e 6f a3 2f 3e
       -0.15982078 -0.2815547 0.3980384 0.17152189
000140 ab 3f 4c 3e 47 f6 bb 3d de a6 8b bb 7a 71 50 3e
       0.19946162 0.09177833 -0.0042618355 0.20355788
000150 da 16 e8 bd e5 11 3a be bf 4f 33 3e a7 5b cb 3e
       -0.113324836 -0.18170889 0.1751089 0.39718363
000160 c5 6e ba be 2a cb 92 be d6 37 97 bd 1f a6 32 3e
       -0.36412635 -0.28670627 -0.07383697 0.17446183
000170 72 ee 61 3e 60 cd fb 3d 41 68 b6 bd 6e 7b 82 3d
       0.22063616 0.122950315 -0.089066036 0.063711986
000180 01 1a 5f 3e 4d 2a 27 3e cb 6c be be 32 b0 4e bd
       0.21787263 0.1632473 -0.37192377 -0.050461
000190 75 e2 62 3e 90 35 35 be ed db 82 be e8 32 99 bd
       0.22156699 -0.17696214 -0.25558415 -0.07480413
0001a0 bf a4 02 3e 84 39 60 3c d5 ac 7c 3d f9 5a b7 be
       0.12758158 0.013685588 0.061688263 -0.35811594
0001b0 67 22 8f 3d 50 d4 a6 be 43 8e 21 3e 69 8b a6 3e
       0.069889836 -0.32583857 0.15776925 0.32528237
0001c0 5a 13 52 3e 42 64 22 3d de 60 f3 3d 72 be af 3e
       0.20515195 0.039646395 0.1188371 0.34324986
0001d0 53 f5 a2 be 3c c1 0f 3e 70 ee b7 be 40 11 8c bd
       -0.31827793 0.14038557 -0.359241 -0.06839228
0001e0 05 bf 79 3e 42 85 8e be 36 ce 42 3e 79 36 3e be
       0.24389274 -0.27836043 0.19023976 -0.18575467
0001f0 d8 d6 35 be 4f 1a 27 be 7a 4e 8a 3e 31 d5 64 bd
       -0.17757738 -0.1631863 0.27012998 -0.055867378
000200 b2 97 40 be f7 dd bd bd a7 48 b9 3e 70 99 b4 be
       -0.18807867 -0.09270852 0.36188242 -0.35273314
000210 c9 ba 88 be f2 dc 82 be 39 8b ec 3d c0 17 c3 3e
       -0.26705006 -0.25559193 0.11549992 0.38104057
000220 9d 9f 54 bd cc ee b4 bd 29 8f 99 3e de 78 2f bd
       -0.05191003 -0.088346094 0.29992035 -0.042839877
000230 f7 e5 23 be 76 3f e2 bc 09 17 88 3e 6d a6 94 bc
       -0.16005693 -0.027618151 0.26580074 -0.018145764
000240 3b 85 a2 be 9c 96 ac 3d 9a 92 5f 3d 84 2f 89 be
       -0.31742272 0.08427164 0.05458317 -0.26794064
000250 0c d7 c5 bd 98 2d c8 3e ce 70 9c 3e e2 32 04 3e
       -0.096601576 0.39097285 0.30554813 0.12910035
000260 81 85 58 3e 7c bf e7 3d a7 dd 81 be e5 36 a2 3d
       0.21144678 0.113158196 -0.2536442 0.079206266
000270 bd 02 ee bd 83 4e 95 3e f6 25 22 3c 09 19 96 3e
       -0.11621616 0.29161462 0.009896746 0.29315975
000280 cd 14 92 3e 06 67 cf 3d 74 0f 86 be fa 04 a3 3d
       0.28531495 0.10127072 -0.26183665 0.079599336
000290 d7 1a 44 3e 84 21 01 be 26 b2 a2 3e 94 a5 a0 bd
       0.19150864 -0.12610441 0.3177654 -0.078440815
0002a0 db 1e d0 3e 02 37 a0 3e 8c 83 c5 3e 3a 0f b7 bd
       0.4064854 0.31291968 0.38576925 -0.08938451
0002b0 a9 78 92 be 55 af 11 bd 0b 1b 0f be 30 f3 cf be
       -0.2860768 -0.0355676 -0.1397516 -0.40615225
0002c0 17 bc 5f bc 26 8a ac be 50 9d ac be db dc cf 3e
       -0.013655684 -0.3369915 -0.3371377 0.40598187
0002d0 62 ce 61 be f4 d5 66 3e 37 56 ee 3c 1f 64 69 3e
       -0.22051385 0.22542554 0.029093845 0.227921
0002e0 42 af b9 be b6 78 35 3d 18 c5 6b be f4 47 86 bd
       -0.36266524 0.044304572 -0.23024404 -0.06556693
0002f0 44 72 a6 3d 5c b1 06 be 8d 57 92 be 9f a0 8b 3e
       0.08127263 -0.13153595 -0.2858242 0.27270982
000300 0e cd a3 3e 15 77 aa 3e 86 27 b1 bc 6d a9 c7 be
       0.31992382 0.33293977 -0.021625292 -0.3899645
000310 e3 f3 be be 8e 7f 4d be 99 e4 9f bd 35 71 3f 3d
       -0.37295446 -0.2006819 -0.078072734 0.046738822
000320 02 98 3a bb e8 52 9a bc ce 56 ee 3c cd 56 a7 be
       -0.0028471951 -0.01883836 0.029094126 -0.3268341
000330 a0 dd bd be b4 50 80 be e1 53 80 3d 21 27 26 be
       -0.3708315 -0.25061572 0.06265999 -0.16225864
000340 1d 4b a3 3d 55 84 77 3e 15 b0 cb bd 1b 77 ba be
       0.07973311 0.24171574 -0.09945694 -0.36418995
000350 7c 37 a9 3e 38 bc 9a be fa 12 02 be f6 91 36 3e
       0.33050144 -0.30221725 -0.12702551 0.17829117
000360 0d a2 cc 3e 10 5c a9 3e c1 14 51 3e 1d a6 a1 be
       0.39967385 0.3307805 0.20418073 -0.31572047
000370 05 94 9d bd b6 c8 dd bd ad e2 cb bd 96 4c 61 3e
       -0.07694248 -0.10829298 -0.09955344 0.22001871
000380 60 e5 5f be c7 1d 4d 3e db cb f7 3d 20 0d 8d 3e
       -0.21864843 0.2003089 0.12099429 0.27549076
000390 1f 2d 92 3e 5b 6a 81 3c 28 19 da 3d 64 a6 c3 bd
       0.2855005 0.015797785 0.106493294 -0.09553221
0003a0 b8 ed ab be 4a 59 8d be 77 5d 2e bd 4d 44 a6 3d
       -0.33579803 -0.27607185 -0.042569604 0.08118496
0003b0 d3 43 af be 2e 1a bf be 5f f5 a0 be 84 31 c7 3e
       -0.34231433 -0.3732466 -0.31437203 0.38904965
0003c0 37 a5 a6 be a2 57 00 3e 76 b4 ba be e9 ee 75 3e
       -0.32547924 0.1253343 -0.36465806 0.24016918
0003d0 31 b5 07 3e d4 92 cf bd 98 e5 4b bd 87 13 19 3e
       0.13252713 -0.10135427 -0.049779505 0.14948855
0003e0 6f d9 af 3d 53 32 1a bd d4 2b b5 3e 6f ab c2 be
       0.08586394 -0.03764565 0.35385 -0.38021418
0003f0 72 b7 fd bc 8a a4 b6 3e 04 96 6e 3e c1 2f 32 be
       -0.030971263 0.35672408 0.23299414 -0.17401029

tree_conv.0.weights.bias f4 [256]
000000 2a 23 8c be 2a ab 8f be 7c b4 32 be aa 87 91 be
       -0.27370578 -0.28060275 -0.17451662 -0.28423816
000010 b8 83 a8 be 87 5b 8e 3d ff ad da 3d f0 56 0c 3e
       -0.32912993 0.06951051 0.10677718 0.13705039
000020 c6 eb 35 bd 80 9a be be c2 58 c3 3d 38 99 70 3d
       -0.044414304 -0.3722725 0.095384136 0.05873987
000030 71 f3 ba bd 3e 7a c6 3e a6 06 b6 3e 80 8b 10 be
       -0.09128464 0.38765138 0.35551947 -0.14115715
000040 f8 a7 fc bd 5f e5 ba 3e 2a 10 44 3e d2 14 51 be
       -0.12336725 0.3650312 0.19146791 -0.20418099
000050 b4 48 5f 3e 93 99 c1 3e 6d ef 4f be 31 fb ac 3e
       0.21805078 0.3781248 -0.20306177 0.33785394
000060 da 54 89 be 8f c7 ea bd 27 06 a4 3e 73 57 b5 3e
       -0.2682255 -0.11463844 0.32035944 0.3541828
000070 07 d7 07 3d 22 a9 6b 3e 02 fb 42 bd f8 2d 37 be
       0.03316405 0.23013738 -0.04760266 -0.1788863
000080 c4 6f b7 3e 5f bd 4b bd e2 2b b3 be 57 a6 cb be
       0.35827458 -0.049741145 -0.34994417 -0.39775345
000090 06 05 70 3e 5c 83 25 3e 84 54 94 3e fc 9f ae 3e
       0.23439416 0.16163391 0.2897073 0.34106433
0000a0 5a 5c e7 3b dc 8e 9d be 15 a4 29 bd c4 0e 55 3e
       0.0070605697 -0.30773056 -0.041416246 0.20806414
0000b0 67 44 a4 3e 25 9c 15 be 15 e1 c3 3e 3d c5 05 3e
       0.32083437 -0.14610346 0.3825766 0.13063522
0000c0 b0 25 94 bd 70 4f be 3e e0 92 68 be dc 61 1d 3d
       -0.07233751 0.3716998 -0.22712278 0.038423404
0000d0 c8 1b 5e be ea c9 75 be fa 1f f4 bd ed d6 0c 3d
       -0.21690285 -0.24002805 -0.119201615 0.034384657
0000e0 8a eb 98 be a2 68 ab bd ad 2c 42 be 23 30 00 3e
       -0.29867202 -0.083695665 -0.18962355 0.12518363
0000f0 ba b3 5a 3e 39 27 2e be a5 d4 85 3e 00 b5 bd be
       0.21357623 -0.1700715 0.26138797 -0.37052155
000100 15 44 a9 bd 28 9a 8d 3b 82 75 16 3e 71 5c 36 3e
       -0.08264939 0.0043213554 0.14693263 0.17808701
000110 88 35 90 be 41 b6 7e be 37 af ba be 07 b4 f2 3d
       -0.2816584 -0.24874212 -0.36461803 0.11850744
000120 52 58 17 be 48 79 5f be 84 2e c8 3e 19 3f dd 3c
       -0.14779785 -0.21823609 0.3909799 0.027007626
000130 62 26 03 3e fe a9 74 3c e7 8f 25 be f7 3f 71 3d
       0.1280761 0.014933107 -0.16168176 0.058898892
000140 18 38 22 be 09 a8 45 3e dd 39 78 3e 0b 3f 48 be
       -0.1584171 0.19302382 0.24240823 -0.19555299
000150 3e 50 ba 3e 47 eb 75 be 48 f2 3e 3e b5 91 a2 3e
       0.36389345 -0.24015532 0.1864711 0.3175179
000160 79 9c 4f bd 00 f9 e4 bb 83 a7 b3 be 37 e7 cd 3e
       -0.050686333 -0.006987691 -0.3508874 0.40215465
000170 f9 38 b4 3e c5 56 35 be 8b e0 68 be 70 6f ae 3e
       0.35199717 -0.17708881 -0.22741906 0.34069395
000180 94 04 9a bc 39 60 8a be 50 97 04 3e 8f cc c5 3e
       -0.018801011 -0.27026537 0.12948346 0.38632628
000190 a8 eb 5a be 4f 0e 32 3d 4f ac 5d 3d 63 c0 1e 3e
       -0.21378958 0.043470677 0.054119404 0.15503077
0001a0 91 75 29 be c9 dc 94 bd 44 c4 88 bd 65 61 28 be
       -0.16548754 -0.07268674 -0.0667806 -0.16443403
0001b0 eb 68 a4 3e d6 c3 81 bd e0 ea be 3e 6b 45 80 bb
       0.32111296 -0.06336181 0.3728857 -0.0039145253
0001c0 a3 c3 21 be 24 4b 17 be 7e 9b a2 3e f1 75 c9 be
       -0.15797286 -0.14774758 0.31759256 -0.39347795
0001d0 2f a3 51 3d 8f d5 9a be fd 19 04 3d f3 39 95 3e
       0.051181015 -0.30241057 0.032251347 0.29145774
0001e0 80 b8 a1 3e 20 10 4e be 74 ec 15 3e e6 0f a7 be
       0.31586075 -0.20123339 0.14640981 -0.32629317
0001f0 50 31 b0 be 1d 9a ca 3e e6 9c 4d 3e d4 a9 41 be
       -0.34412622 0.39570704 0.20079383 -0.1891244
000200 13 5c b9 3e 39 21 64 3c af b6 70 be 09 1c a7 3e
       0.3620306 0.0139239365 -0.23507188 0.32638577
000210 8a 67 7d 3e 84 05 a9 3e 01 71 c7 3e 9f 4b c7 3e
       0.24746528 0.3301202 0.38953403 0.38924882
000220 cf b6 8a 3e f6 37 ce 3e 74 f3 ae be cf f8 b5 3d
       0.27092597 0.4027707 -0.34170115 0.08885347
000230 71 c9 37 3d 65 58 08 be 6b e7 80 be b9 73 9e be
       0.044869844 -0.1331497 -0.25176558 -0.30947664
000240 96 6b c7 3d 85 9b db bc 83 a2 8c bd 18 c0 ce 3e
       0.09737317 -0.026807556 -0.06866934 0.4038093
000250 54 8e bc 3e f9 c5 8e be ff b8 43 3e c5 01 05 be
       0.36827338 -0.27885416 0.19113539 -0.12988956
000260 89 d6 64 3e 60 fe 0c be 20 14 a8 be 28 95 9e 3e
       0.22347464 -0.13768911 -0.32827854 0.30973172
000270 40 99 b0 3d 4f e9 1e be 00 81 13 be 1b 49 2d 3e
       0.0862298 -0.15518688 -0.14404678 0.16922419
000280 6d 62 2b be 04 63 8a be 48 64 72 3e a2 04 ca 3e
       -0.16736765 -0.27028668 0.23671067 0.3945666
000290 59 c9 06 3e 6f 86 8b be ab 7b b1 bc da a5 be bd
       0.13162746 -0.27251002 -0.021665415 -0.093089774
0002a0 f0 a0 5d 3e a2 5c a5 ba 69 a4 19 be 80 bc 85 3d
       0.21643424 -0.0012616108 -0.15004124 0.06530094
0002b0 f3 1c 41 bd b6 ea 7b 3c 42 c0 66 3e 7a 45 a8 3e
       -0.04714675 0.015375784 0.22534278 0.32865506
0002c0 0a b7 76 be 0a f3 1b be 52 b9 86 be 10 32 02 be
       -0.24093261 -0.15229431 -0.26313263 -0.1271441
0002d0 3e c6 cf 3e 7d 12 b8 be 06 9d 7b 3d 0f 8e 28 bd
       0.40580934 -0.35951605 0.061429046 -0.041151103
0002e0 11 27 08 be 19 fd 91 3e f5 49 bf 3e 43 82 3c 3d
       -0.13296153 0.2851341 0.37361112 0.046022665
0002f0 61 48 c2 be 73 20 ac 3e 46 67 3c 3e d2 4e 88 be
       -0.37945846 0.33618507 0.1839877 -0.26622635
000300 d6 7e 29 be 4e 98 53 3e 46 9c 83 be 71 40 f3 3c
       -0.1655229 0.20663568 -0.25705165 0.029693814
000310 fb 00 05 3e df d7 ca be 47 92 60 3e 68 85 80 bd
       0.12988655 -0.39617822 0.219308 -0.06275445
000320 a8 12 1d 3e f1 1d 51 bd 93 1e 83 3e 76 9b be be
       0.15339148 -0.051053945 0.25609264 -0.37227982
000330 09 32 ea bc 30 89 a2 be a5 69 98 bd 26 dc a7 be
       -0.028588312 -0.3174529 -0.07442025 -0.32785147
000340 45 64 50 be f7 73 bb 3c 5b 0b 43 be c9 c9 7f 3e
       -0.2035075 0.022882445 -0.190473 0.24979319
000350 91 91 aa be 26 13 73 be 1b 1c 81 3e 4b 46 80 3c
       -0.33314183 -0.23737773 0.25216755 0.015658518
000360 e5 79 3b 3d a7 5b b3 3e 87 bf 7b 3e d9 02 0a bd
       0.045770545 0.35030863 0.2458478 -0.033694122
000370 21 9a cf be 83 19 a3 be 59 1c 1a 3e 64 db 20 3e
       -0.4054728 -0.318554 0.15049876 0.15708691
000380 cf 0c 6c be 56 f1 b7 3e 7f 42 e8 3d 19 4b 19 be
       -0.23051761 0.35926312 0.11340808 -0.14970054
000390 6d 03 81 3e 4d a2 5e bd 76 fa 5c 3d a9 ec 80 be
       0.25197926 -0.054354 0.053949796 -0.25180557
0003a0 16 cf 64 bc 85 63 d4 bd a3 b7 c5 be 35 99 c6 bd
       -0.013965389 -0.10370544 -0.38616666 -0.09697191
0003b0 95 32 9f bd b3 b8 99 be ff b5 77 3e 5b 0e b4 3e
       -0.0777332 -0.30023727 0.2419052 0.35167202
0003c0 4b 88 b8 3d 52 f7 bd be ca 37 82 3d 43 f8 c5 3e
       0.09010371 -0.37102753 0.06358297 0.3866597
0003d0 e3 ed 1b 3e 32 42 63 be b1 2e 45 be 46 a7 c0 be
       0.15227465 -0.2219322 -0.19256093 -0.3762762
0003e0 64 42 c1 be f4 03 9e be 97 15 c0 3e e9 e3 ef 3c
       -0.37745965 -0.3086239 0.37516472 0.02928348
0003f0 26 9a aa be b2 99 55 be 85 b3 b2 bd 96 43 ab bd
       -0.3332073 -0.20859411 -0.08725647 -0.083625

tree_conv.3.weights.weight f4 [128, 256, 3]
000000 cf 15 e5 bb b6 c5 a0 bc cf f0 e0 3c 1f 5d ef 3c
       -0.006991125 -0.019625526 0.027458576 0.029219208
000010 c8 a6 ce bc 4b 93 cd 3c 09 42 5c bb 72 f3 6f 3c
       -0.025226012 0.025094649 -0.0033608696 0.014645444
000020 33 44 ab 3c d7 6b e6 bc fb f0 00 bd 03 19 ea 3c
       0.020906543 -0.028127594 -0.031479817 0.02857638
000030 a2 88 f7 3b 39 04 58 3c ba fb d5 3c ff ec 91 3c
       0.0075541297 0.0131846005 0.02612101 0.017813204
000040 14 02 82 bc 62 ce 0f 3d f1 dc 25 3c 26 02 42 bb
       -0.015870132 0.03510893 0.010123477 -0.0029603331
000050 40 8c 8e 3b 3c 44 0b 3d 43 ad cf bc 53 49 0b bc
       0.004350215 0.03400062 -0.025351172 -0.008501369
000060 5d 05 56 3c 7f 17 0e 3d a8 34 b6 bc 69 e3 b5 3c
       0.013062802 0.034690376 -0.022241905 0.022203164
000070 5d 28 b3 bc a6 2d 67 bc 00 8e f6 3c 80 82 e1 3c
       -0.021869833 -0.0141100045 0.030097008 0.027528048
000080 79 f1 92 3b 90 37 d6 3c 86 e0 cf 3c aa 4a 35 bc
       0.004484352 0.026149541 0.025375616 -0.011065165
000090 13 85 df bc 22 68 e1 3c c4 30 12 bd f9 4d 07 3d
       -0.027285134 0.027515475 -0.035691038 0.033033345
0000a0 4f 14 09 3d ac f7 c6 3c eb 0c 0b 3d cf 65 06 3a
       0.033466633 0.024288021 0.033947866 0.0005126865
0000b0 b2 71 14 bd 87 f6 e9 39 99 d7 08 3a 41 99 0d 3d
       -0.03624124 0.000446249 0.0005220115 0.034569982
0000c0 6e 33 aa 3b 50 dd b5 3b ac a3 a7 3b a4 9f d0 bc
       0.005194119 0.005550064 0.0051159468 -0.025466748
0000d0 ee 2e 6a 3b 39 e1 13 3d 14 01 58 b9 ae 96 9a bc
       0.0035733539 0.03610346 -0.00020599767 -0.018870678
0000e0 1b 80 e7 bc d0 72 d4 3c 72 83 75 3c 07 15 c8 3c
       -0.028259328 0.025933653 0.014984952 0.02442409
0000f0 1e 72 ec 3c 46 91 bb b9 45 63 a5 bc 85 8f a9 bc
       0.028863009 -0.00035775657 -0.020188937 -0.020698318
000100 c9 27 ff 3c 40 db e6 bc 9c 57 08 3d 8b 2b 08 bd
       0.0311469 -0.028180718 0.033286676 -0.03324465
000110 d0 42 0e 3d a5 ad 0f 3d 11 c0 79 3c 4f 3e 6b 3c
       0.034731686 0.03507771 0.015243546 0.014358117
000120 e7 6e 46 bc ee a5 03 bd 05 c0 7b 3c e9 8b d9 bb
       -0.012111402 -0.032140665 0.015365605 -0.006638993
000130 6d d7 0f bd 98 75 ee 3c ff cb 89 3c 4c ba 93 ba
       -0.035117555 0.029108807 0.016820906 -0.0011270731
000140 d2 17 00 bd 4a 29 f3 3c 9a ab 0b bd 20 85 43 3c
       -0.031272717 0.029682774 -0.0340992 0.011933595
000150 12 13 cc 3c 3f 7d 03 bd fe 25 4d bc b9 27 0b bd
       0.024911437 -0.032101866 -0.012521265 -0.03397343
000160 68 23 d1 bc c0 0e eb 3c dc 40 06 3b 70 e5 d3 3c
       -0.025529578 0.028693557 0.0020485437 0.02586624
000170 a7 b6 0b 3d 72 d0 8b bb 54 19 10 3d 27 8a 0e bd
       0.034109738 -0.004266792 0.035180405 -0.03479972
000180 cb e6 07 bd 01 bf 12 3d 72 f1 a7 3c 1a 5c ef 3b
       -0.033179086 0.035826687 0.020500872 0.0073046805
000190 f7 87 0d 3c 14 40 9a bb 8c 2c 99 3c ef ef 1c 3c
       0.008638374 -0.0047073457 0.018698 0.009578689
0001a0 2b 2a 7f 3c 44 10 f4 bb 9d 63 13 3c 03 0b 12 3d
       0.0155740185 -0.007448228 0.008995918 0.035655033
0001b0 18 61 05 bd 17 af 7d 3c 85 3b ea 3c f8 62 40 3b
       -0.0325633 0.015483639 0.028592834 0.0029355865
0001c0 3b 3b c3 bc 45 ac 33 3c 25 bc d7 3c a8 49 10 3c
       -0.023831954 0.010966365 0.026334831 0.0088066235
0001d0 44 31 f9 3c a8 eb 73 3c 9b b3 9d bc 83 53 8f 3b
       0.030419 0.014887728 -0.019250682 0.004373969
0001e0 17 02 87 3b f7 7a 29 3b 9c e5 b8 3c 13 d7 1b bb
       0.004120122 0.0025860646 0.022570424 -0.0023779317
0001f0 05 8c 92 3c e7 bf ee 3c 77 55 c1 bc 0a eb c2 3c
       0.017889032 0.02914424 -0.023600323 0.023793716
000200 2c 3b be 3c b1 5f 35 3b d2 8d d3 3c 61 96 c9 bc
       0.023221575 0.0027675445 0.025824461 -0.024607839
000210 1f dc c5 bc 7b 98 8b 3c 6b 52 86 bc 6b c0 f5 bc
       -0.024152813 0.017040482 -0.016396722 -0.029998979
000220 ba 02 cb 3c f1 5b c6 bc 13 ce bc 3c 4d 70 6d bc
       0.024781574 -0.024213763 0.023047483 -0.014492107
000230 7e a7 cc bc 23 03 0d 3d a7 10 12 bd 2f 8c ce 3c
       -0.02498221 0.03442682 -0.035660412 0.02521333
000240 cc 2a 97 bc e4 4f 61 bc f5 69 91 bc 7c 7b a2 3b
       -0.018453024 -0.013751958 -0.01775072 0.004958568
000250 e1 6a a3 bb 97 51 5a 3b 9d 57 9c 3c 01 3c 15 3c
       -0.004987106 0.0033312791 0.019084746 0.009108544
000260 5b b8 cd bc 0f c1 f4 3c 5c e7 40 3c 27 b0 47 3b
       -0.025112322 0.029877214 0.01177391 0.0030469985
000270 4b 0f 05 bd e8 e4 e8 bc f1 b5 52 3c 5b f6 35 3b
       -0.032485288 -0.028429464 0.012860761 0.0027765248
000280 93 46 34 3c 11 0b ea 3c 26 f5 29 bc f4 9b f0 bc
       0.011003154 0.02856973 -0.010373389 -0.02937124
000290 a6 1f 7d bb 22 ab fe bc 43 58 ba 3c d3 57 f3 3c
       -0.00386236 -0.031087462 0.022747165 0.029704964
0002a0 3e 66 67 3c 7a 25 0d 3d c5 78 a3 3c e4 da c8 bc
       0.0141234975 0.03445957 0.019955048 -0.024518438
0002b0 0a b9 8b bb a4 76 d8 3c b3 1a 63 3c fc b5 0c bd
       -0.0042640017 0.02642376 0.013861346 -0.03435324
0002c0 56 b4 23 bc 2d d1 af 3c 23 75 85 bc 07 eb dd 3b
       -0.009991726 0.021462047 -0.016291207 0.006772402
0002d0 d5 b5 f7 3c ad cb 49 3c 15 27 c2 bc 25 29 8b bc
       0.030238071 0.0123166265 -0.023700276 -0.016987393
0002e0 f9 48 4a bc c9 96 6e 3b 88 e5 f9 3c 82 9e 8d bb
       -0.0123465 0.0036405793 0.030504957 -0.004321874
0002f0 02 3c a0 bb 85 a2 a3 3c 00 df b3 3b c7 59 05 bd
       -0.004889966 0.019974956 0.00548923 -0.03255632
000300 67 52 11 3d 8c 90 0c bd 28 c9 fc ba d7 7d 32 3c
       0.035478976 -0.03431754 -0.0019286023 0.01089426
000310 2b de d2 bc c7 27 c6 bc 58 a8 f5 bb e6 3f f4 3c
       -0.025740704 -0.02418889 -0.007496875 0.029815625
000320 54 ba cb bb 20 79 06 3c 24 66 94 3c 69 da 86 bc
       -0.0062172804 0.008207589 0.01811511 -0.016461568
000330 56 24 05 bd c0 8f 93 bc 61 75 96 3b c4 50 7c bc
       -0.032505356 -0.018012881 0.0045916294 -0.015400115
000340 7f 35 d3 bc 9b 21 d2 3c 83 76 77 3a 02 c5 bf 3c
       -0.025782345 0.02565079 0.0009439962 0.02340937
000350 b5 25 e9 3c c5 0c a2 3b 89 b6 ac 3a 52 6e 85 3b
       0.028460363 0.00494537 0.0013176958 0.004071989
000360 b4 88 99 bc ed c1 87 3b 46 56 06 3d c0 e9 bf 3a
       -0.018741943 0.004142991 0.03279712 0.0014641806
000370 5b 16 0c bd f1 24 a4 ba cc b0 f6 3c e3 f4 75 3b
       -0.034201007 -0.0012523216 0.0301136 0.0037529997
000380 98 7f f9 ba d2 a5 fd 3b ee 9f e0 bc 58 d0 74 bb
       -0.0019035218 0.0077407146 -0.02742001 -0.0037355628
000390 13 f6 08 bd ab ce f6 3b d9 3c 3c bb 4b 41 21 3c
       -0.0334378 0.007531961 -0.0028722791 0.009842227
0003a0 3d 70 e0 3b a7 ce a1 3c 89 5b 96 3b 8c bd 43 bc
       0.0068493173 0.01975186 0.0045885486 -0.011947047
0003b0 53 60 07 bd b3 97 90 bc a6 bf 06 bd 8a 3c bc bc
       -0.033050846 -0.01765046 -0.032897614 -0.022978086
0003c0 69 02 45 bc ab 2c d0 bc 48 0b cf 3a f8 58 0d 3d
       -0.0120245 -0.025411924 0.0015796209 0.034508675
0003d0 eb 5e e9 bc 1d 15 6a bc 9d bd 0a bd 87 d8 36 ba
       -0.028487643 -0.01428726 -0.033872236 -0.0006975014
0003e0 ec 5d b8 bc 45 d6 0c 3c 67 8b a2 bb e0 fa a3 3b
       -0.022505723 0.008596008 -0.0049604657 0.005004272
0003f0 c5 89 54 bc b1 ec 01 bd be 64 c7 bc b7 a7 e8 3c
       -0.0129723 -0.031719867 -0.02434003 0.028400285

tree_conv.3.weights.bias f4 [128]
000000 de e9 51 3c 8f ba f7 bc 94 30 db 3b 51 9d d0 3c
       0.012812106 -0.030240325 0.0066891406 0.02546564
000010 b8 24 ef bc b1 f3 d4 3c 8e 9c 83 ba 1f ad d8 ba
       -0.029192314 0.025995107 -0.0010041164 -0.0016531086
000020 49 a5 c7 3c ca a6 03 bd 52 23 d1 3b 91 12 71 bc
       0.024370806 -0.032141484 0.0063823843 -0.014713899
000030 6d d6 a7 3b 91 77 a9 3c bb 02 27 3c c1 a1 79 3c
       0.005121997 0.020686897 0.010193522 0.015236319
000040 ec 78 00 3d dd 87 53 bc bd 16 49 3c cd cf 96 3c
       0.03136532 -0.01291081 0.012273488 0.018409634
000050 47 e1 fd bc 94 1e 89 bc d2 c2 06 3d c9 c2 ac 3c
       -0.03099121 -0.016738214 0.03290064 0.021088975
000060 45 d3 92 3b ec 06 c4 3c 19 d5 d8 3c 14 dd 25 bb
       0.0044807517 0.023929082 0.0264688 -0.0025308775
000070 6c ec f0 ba 7a a7 fa bc 7c 1a f3 3c 86 0f cf 3c
       -0.0018381006 -0.030597437 0.029675715 0.025275957
000080 b0 12 76 bc c4 7e 0f bd 27 e8 a5 bc 6d 2d ed bc
       -0.015019104 -0.035033002 -0.0202523 -0.028952325
000090 0f 05 05 bd 29 72 13 3c 7b 91 fb 3b 3c 5a c9 bc
       -0.032475527 0.008999386 0.0076772547 -0.02457916
0000a0 8b 6b 0f 3d 49 d5 b1 3c f4 9a f6 bb 43 b4 8c bc
       0.03501467 0.021708148 -0.007525796 -0.0171758
0000b0 3f 27 78 3c 2d e1 07 3c f8 1e 09 bd 48 0c 90 bc
       0.015146076 0.008293432 -0.0334768 -0.017583981
0000c0 cd 4e 82 bb 2f b8 02 3c 82 1a 9e 3c 99 93 b5 3c
       -0.003976679 0.007978483 0.01929975 0.022165107
0000d0 1f 64 11 bc ee e4 2d 3c 43 21 27 bc 97 2f eb 3c
       -0.008873968 0.010613663 -0.010200801 0.028709216
0000e0 f6 57 c4 bc 72 c8 89 3c a0 21 a8 3b e1 e1 49 bc
       -0.023967724 0.016819213 0.0051309615 -0.01232192
0000f0 35 60 0a bc 54 0c 74 3c 1f b4 80 bc 4c b3 d7 bc
       -0.008445789 0.014895517 -0.015710888 -0.026330613
000100 8f a1 b1 ba da 79 de bc 38 04 f4 bb 4f 68 ae 3b
       -0.0013552177 -0.027157713 -0.007446792 0.005322493
000110 9f 14 a6 3c d7 40 09 3d d3 20 12 3c 4d b7 d9 bc
       0.020273505 0.0335091 0.008918959 -0.026576662
000120 a9 73 82 3c fa 62 01 bd 38 ff 98 bc a8 56 9b bc
       0.015924292 -0.031588532 -0.018676385 -0.01896222
000130 13 d3 b2 3c 26 9a 0b bb ce 1c b6 3c e0 3c 99 bc
       0.021829164 -0.0021301596 0.022230532 -0.018705785
000140 cf 55 81 bc 0c 5b 87 3c cf f3 f4 bc c5 52 dc 3c
       -0.015787987 0.016522907 -0.029901413 0.026894936
000150 6e 56 8a 3c 60 08 11 bd f4 98 08 3d 41 16 ed 3c
       0.016886916 -0.035408378 0.033348992 0.028941276
000160 53 47 cb bc 77 f6 b0 3c c8 3e f2 bc ad 35 a4 bb
       -0.024814283 0.021601899 -0.029570952 -0.0050112815
000170 52 95 b9 bc 48 7c c2 bc 19 6d f4 3c 10 83 0c bd
       -0.02265421 -0.023740903 0.029837178 -0.03430468
000180 4d 04 02 3d 57 e1 aa bc 52 2b 24 3c d3 50 b7 ba
       0.031742383 -0.020859404 0.010020094 -0.001398588
000190 f7 93 5b bc 95 2c c0 3b 76 23 f6 bc 74 67 a1 3b
       -0.013401977 0.0058646896 -0.030046206 0.0049256627
0001a0 a2 b4 0a bd 20 04 51 bc 7a 23 70 3c 7d 38 84 3c
       -0.03386367 -0.012757331 0.014656896 0.016140217
0001b0 f3 3c 11 3c 4f ef f6 3b 13 d4 98 bc 29 2e 10 3d
       0.008864629 0.007535852 -0.018655812 0.03520027
0001c0 1c 7f c1 3c c5 68 e1 bc 81 1a e0 bc c8 5e 03 bd
       0.02362018 -0.027515778 -0.027356388 -0.032072812
0001d0 a2 91 12 bd 2b 7f af 3c 3d 57 da 3c 00 01 33 3c
       -0.035783418 0.021422943 0.026652927 0.010925531
0001e0 17 b0 93 3c 62 d3 52 bb 7c b6 b5 bc 14 b5 82 3c
       0.018028302 -0.003216945 -0.022181742 0.015955485
0001f0 f4 33 65 bb 92 92 d8 3c f5 01 1b 3c f5 a8 8e 3a
       -0.0034973593 0.026437078 0.009460916 0.0010884093

tree_conv.6.weights.weight f4 [64, 128, 3]
000000 6b df c7 3b 35 37 36 bd fa c1 0d 3d eb 72 2e ba
       0.0060996315 -0.044486243 0.03460882 -0.00066546974
000010 cb f7 32 bd 64 53 a0 3c 42 a9 1f bd 1d 28 22 3d
       -0.043693345 0.019571014 -0.038979776 0.039589036
000020 22 f8 1a 3d e5 19 62 bc 88 eb de bc 3d c6 4f bd
       0.037834294 -0.013800119 -0.02721192 -0.050726164
000030 51 26 37 3d 87 f0 3b bd 07 fb 3f bd f2 62 42 bd
       0.044714276 -0.04588368 -0.046870258 -0.047457643
000040 3c 99 a1 3a 0b 51 16 3d f9 07 d2 3c 28 35 01 3d
       0.0012328993 0.036698382 0.025638567 0.031544834
000050 5e 5b 98 bc e5 2b 1e 3d 75 db 05 3c a9 6f 00 3d
       -0.018598255 0.03861608 0.008169998 0.031356487
000060 9a e8 e5 3b 84 19 33 3c 85 3b 73 bc d2 f3 3e bd
       0.0070162537 0.010931376 -0.0148457335 -0.046619244
000070 01 62 15 3d cd 02 93 bc c5 4e ba bb 7f a2 2c bd
       0.036470417 -0.017945671 -0.0056856596 -0.042147156
000080 ce 1a cc 3c 05 90 40 bd b4 28 d6 bb e5 3d 8c 3c
       0.024915125 -0.047012348 -0.006535614 0.017119357
000090 94 33 2c 3c a0 56 a5 3c ad 14 dc 3c 28 62 14 bd
       0.010510344 0.020182908 0.026865328 -0.03622642
0000a0 b6 6c 06 3d f5 95 ee bc 70 f4 f4 3c db e8 2c 3c
       0.03281852 -0.02912424 0.029901713 0.010553564
0000b0 b8 3d 45 3d 8c b0 c1 3c 79 f9 02 bd e2 8c 87 bc
       0.048154563 0.023643754 -0.031976197 -0.01654667
0000c0 87 08 e9 bc f0 7a 0b 3c 01 9a f3 3c 23 43 2a 39
       -0.028446449 0.008513197 0.02973652 0.00016237474
0000d0 15 3a 7f 3c dc 62 8b 3a 7e ae c2 bb d6 ed b4 3b
       0.015577813 0.0010634321 -0.0059412112 0.0055215163
0000e0 22 7c 5d 3b fd e7 1b bd 38 19 ac 3c ab fd 3e 3c
       0.0033795913 -0.03806304 0.021008119 0.011657159
0000f0 5f 57 da bc 49 9b 14 3d 1d dc 03 bb e0 c4 9c 3b
       -0.02665299 0.036280904 -0.0020120211 0.0047842115
000100 92 1f 88 3c bd 9e 19 3c 4a 33 20 3c 2c 27 6d bc
       0.016616616 0.009376225 0.009777853 -0.014474671
000110 d9 6e f9 bc d8 a8 d2 3b 81 fe f3 bc 63 98 4e bd
       -0.030448364 0.006428819 -0.029784443 -0.050438296
000120 ed ee 85 3c 73 19 83 bc b8 6f 15 bb 5d fa 09 3d
       0.01634928 -0.016003346 -0.0022802185 0.03368603
000130 f9 11 9a bb 8f 9a 43 3d 4a 91 29 bd c0 b3 f1 bc
       -0.0047018495 0.04775482 -0.041398324 -0.029504657
000140 a3 d4 d9 3c 08 45 46 bd c0 f0 4f bc 37 4b 03 bd
       0.02659065 -0.048405677 -0.012691677 -0.032054152
000150 60 ec b5 3b 0a 73 ab ba 4a 23 32 3d ee 0f 4c bd
       0.0055518597 -0.0013080549 0.043490686 -0.04981988
000160 c7 9d 2e bd ac 5e 39 bd 30 37 57 b8 14 06 87 3c
       -0.042630937 -0.0452563 -5.1311392e-05 0.01648239
000170 3d 6e a2 3b 02 8f 40 bd 24 d6 a2 bc e1 9e 0a 3d
       0.004956989 -0.047011383 -0.0198775 0.033842925
000180 1a 13 14 bc 8f 7d 01 bd 6c c9 2b 3d 76 8c 74 3b
       -0.009037757 -0.031613883 0.041940138 0.0037315167
000190 f9 ae d5 bc 2b bc 76 3c 7d 32 9c 3b e7 9c 8f bc
       -0.02608441 0.015059511 0.004766761 -0.017530872
0001a0 de 70 aa bc 40 0e 8b bb 54 35 18 3c 51 3d 28 3d
       -0.020805772 -0.004243642 0.009290058 0.0410741
0001b0 eb d7 21 bd 37 5c 4c ba 86 0a 95 bb 09 1b 35 bd
       -0.039512556 -0.00077957235 -0.0045483736 -0.044215236
0001c0 27 62 1d 3d a4 2a be bc a2 26 62 bc d5 68 9e 3b
       0.038423683 -0.023213692 -0.013803156 0.0048342743
0001d0 ce 49 47 bd 8c 32 44 bd d8 fe 4d 3d 88 a3 ca bc
       -0.04865437 -0.047899768 0.050291866 -0.02473618
0001e0 63 d2 4c 3c 77 32 35 3d bf 66 f1 3c cd 1b 56 bc
       0.012501332 0.04423758 0.029467938 -0.013068152
0001f0 8a cb 24 3d a4 25 cc 3c b7 29 0d 3c 60 7a 43 3b
       0.040233172 0.024920292 0.008615903 0.002982758
000200 36 26 fe 3c 3c 4a 2b bd 15 6c 2f 3c 74 c0 3a 3d
       0.03102408 -0.041818842 0.010706921 0.045593694
000210 bf 03 c9 bc f2 7a 20 bd e2 81 d3 bc d8 c7 08 3d
       -0.02453792 -0.03917975 -0.025818769 0.03339371
000220 ff a6 b6 bb 3c 4f 4b 3d 38 01 21 bd d6 19 48 bd
       -0.0055741067 0.04963611 -0.039307803 -0.048852764
000230 f2 e2 9d bc 8a 4e 34 3d 25 b0 ca bc a4 a4 22 3d
       -0.019273255 0.044020213 -0.024742195 0.039707795
000240 cb 13 d9 3c 33 7e 57 3c ac 04 ac bb fa 04 f1 bc
       0.026498696 0.013152647 -0.0052495804 -0.029421318
000250 a5 23 a9 bb bb ff 3e 3d ee 55 d7 3c 86 6c d2 bc
       -0.00516172 0.046630602 0.026286092 -0.025686514
000260 0a 30 d2 bc 63 d2 f2 3c 82 7a b8 3c 78 42 97 3c
       -0.025657672 0.029641336 0.022519354 0.018464312
000270 c7 86 b5 3a ef 6b 2d 3c dd d0 9e bc 2a 30 da 3c
       0.0013849371 0.010584815 -0.019386703 0.026634295
000280 ce c5 0a bd b3 aa f7 bc 70 6b b7 3b 8e ba b9 3c
       -0.033880048 -0.030232763 0.0055975243 0.022671964
000290 3c 82 c5 3c 7a 08 4f 3d f7 ef 0c bd 04 01 11 bc
       0.024109952 0.050545193 -0.034408536 -0.00885034
0002a0 6f 57 b9 3a 67 11 dc 3c 6e 51 c6 3c bb 9a 1c bc
       0.0014140437 0.026863767 0.02420875 -0.009558375
0002b0 e1 4c 33 bc 3d 62 a9 3b dd 38 9d bc a4 10 f8 bc
       -0.010943622 0.0051691816 -0.019192154 -0.030281372
0002c0 19 49 5b 3c ba 9d 2d 3d d0 e5 cd bc b0 9f 4f bc
       0.013384127 0.042386748 -0.025133997 -0.01267235
0002d0 41 37 4d 3d 5d 06 bf bc a8 67 91 b9 24 f2 0d 3d
       0.050101522 -0.023318464 -0.00027733785 0.03465475
0002e0 b1 5c 95 bc 74 87 a4 bc 06 26 8c 3a 88 e2 09 3d
       -0.018232675 -0.02008412 0.0010692484 0.033663303
0002f0 8b 80 a1 3c 84 9f 2a 3d c7 a7 a4 bc cd d2 2e bd
       0.019714614 0.041656032 -0.020099534 -0.042681504
000300 44 20 08 bd c5 f5 89 bc 60 1c 34 3d 57 2b 89 bc
       -0.033233896 -0.016840825 0.043972373 -0.016744299
000310 7c cb f1 3c f3 82 db ba 04 59 ec 3c 39 52 39 bd
       0.029515974 -0.00167474 0.02885104 -0.04524443
000320 7c 68 ce bc 2b 79 53 bc ad 45 9a bc f3 17 8b 3c
       -0.025196306 -0.012907307 -0.018832052 0.016979193
000330 a0 1a 79 3a 04 51 36 bd 70 48 19 3c bc af c5 3c
       0.00095025636 -0.044510856 0.009355649 0.024131648
000340 0c 65 3b 3d f9 a8 87 3b 70 27 01 3c 4e e2 5f 3c
       0.045750663 0.004140016 0.007882938 0.013664795
000350 b4 d6 cf 3c 88 3d c1 3a 50 de 2c 3d b7 26 f8 3c
       0.025370933 0.0014743069 0.0422042 0.030291898
000360 02 f5 2a 3d 03 77 4b 3d 7f 18 82 3c 74 1e 01 3d
       0.041737564 0.049674045 0.015880821 0.031523183
000370 41 89 42 bd 4f c5 c4 bc eb c4 19 3d be 10 00 3d
       -0.047494177 -0.024019865 0.03754131 0.031265967
000380 fd bd 01 3c 7f f8 17 3d de a8 29 bd 1f 9f 37 3a
       0.007918832 0.03710222 -0.04142081 0.0007004607
000390 e0 0d d0 3c 59 8f 85 bc 84 f6 f8 3c cb 38 f3 3c
       0.025397241 -0.016303705 0.030390985 0.029690167
0003a0 08 8d 3b 3d 67 b4 23 3d d4 53 30 3c 5b 86 6a 3c
       0.045788795 0.039966967 0.010762174 0.014314259
0003b0 d4 bc 18 bd bc 8a ec bc 88 9c d9 3c f1 53 4f 3d
       -0.037289456 -0.028874747 0.026563898 0.050617162
0003c0 99 2d 74 3c c9 0c fa 3c 37 e9 c2 bc 2b 00 43 bd
       0.014903449 0.030523675 -0.023792846 -0.047607582
0003d0 dd 28 56 3c f5 2b f4 bc 48 4a 32 3d f5 ab d0 b9
       0.013071266 -0.029806117 0.04352787 -0.0003980097
0003e0 2e ba 4d bd 55 57 85 3c fd 77 e2 bc 3c b7 46 bd
       -0.050226383 0.016276995 -0.027645105 -0.04851459
0003f0 60 29 d3 3c 31 76 25 3d 7b 6e d7 3c a4 9b f9 3c
       0.025776565 0.04039592 0.026297798 0.030469723

tree_conv.6.weights.bias f4 [64]
000000 49 62 d2 3c f7 8b 88 3b 06 c3 32 bd b0 16 30 3d
       0.025681632 0.0041670757 -0.04364302 0.042990386
000010 6b 00 a3 bc f9 37 8b bb ff a3 5b bc 6d 65 fe bc
       -0.01989766 -0.004248616 -0.013405799 -0.031054223
000020 6c 9c 1d bd 3a 3f 01 3d 7d f4 15 bd f7 c2 1c 3c
       -0.038479254 0.03155444 -0.036610115 0.009567968
000030 ab 2c 11 3d b3 c0 f8 3c 54 f3 23 bd 9b 11 2b bd
       0.03544299 0.030365324 -0.040026978 -0.041764837
000040 b9 84 48 bd d0 6b 99 bc 62 93 98 bc 15 0d 56 bc
       -0.0489547 -0.018728167 -0.018624965 -0.013064642
000050 62 ee 25 3d 94 08 b4 bc 4b 24 13 bd 5b f5 09 bd
       0.040510543 -0.021976747 -0.035923284 -0.033681255
000060 47 8f 4c bd 4f 77 29 3d 19 2b 11 bd d0 c1 2f bd
       -0.049941327 0.041373547 -0.03544149 -0.042909443
000070 89 51 73 3c b8 53 ab 3c b6 60 2d bd 56 dc c0 3c
       0.014850982 0.020913944 -0.04232856 0.023542564
000080 67 4c 02 3d 31 b7 b7 bc bf 11 87 39 60 f4 86 bc
       0.031811144 -0.02242622 0.00025762428 -0.016473949
000090 b4 a9 23 bd 3b fe 9b bc 33 a3 97 bc 8c c2 91 bc
       -0.039956763 -0.019042125 -0.018510437 -0.017792962
0000a0 25 2a 15 bd de 00 e6 bc fc b2 2d bd 6d 11 8b bb
       -0.036417145 -0.028076585 -0.04240702 -0.0042440207
0000b0 2f 3f 15 bd 53 9f c2 bc 0a f7 40 bd 40 ff de 3c
       -0.03643721 -0.023757612 -0.047110595 0.027221322
0000c0 42 71 bd 3c d7 f3 22 bd ec e1 ff bc 2d 99 5f bb
       0.023125295 -0.039783325 -0.031235658 -0.00341184
0000d0 9f ad 19 3d da 67 4b bc ad 3b bb bc cc 43 be 3c
       0.037519094 -0.012414897 -0.022855604 0.023225687
0000e0 33 86 89 bb 58 4a 50 3d 64 d5 92 bc 88 31 b2 3c
       -0.004196906 0.05085215 -0.017924018 0.021752134
0000f0 db 0b 19 3c e9 db dc bb 0a ee 8a bc b2 ca ed bc
       0.0093412055 -0.0067400825 -0.016959209 -0.029027317

tree_conv.9.weight f4 [32, 64]
000000 a1 8f 06 bc bc aa 91 3d e3 d5 c7 bd 92 36 f4 3d
       -0.008212955 0.07112643 -0.097575925 0.11924471
000010 fa f7 41 3d 0b 9b e1 3d 49 70 f4 3d 93 07 e3 bd
       0.04735563 0.110159 0.11935479 -0.11085429
000020 3f 9c 90 bd be b9 00 3d 7a 09 c9 bc 94 66 c7 bc
       -0.070610516 0.031427138 -0.024540652 -0.024340905
000030 f5 69 8c bc be 4c da bd 06 52 e0 3d 90 ab 85 bd
       -0.017140368 -0.10659169 0.10953145 -0.065268636
000040 8a 02 e9 bb 08 ae ad bd 46 f4 2a bd 9a 6c 6d 3d
       -0.0071108984 -0.084804595 -0.041736864 0.0579649
000050 22 c2 83 3d b2 62 f0 bd 77 93 e9 ba e5 40 3c 3c
       0.06433512 -0.11737575 -0.0017820437 0.011490081
000060 d5 b9 8f bd 55 9c ac bd ce 51 21 bd 8b 26 f7 bd
       -0.070178665 -0.084282555 -0.039384656 -0.12067898
000070 27 49 b3 bc 47 8d e6 bc 06 78 22 bd 77 4a b6 bd
       -0.021885468 -0.028143538 -0.039665245 -0.08900922
000080 14 e1 cf bd 39 78 e7 3d b9 66 c3 bd 33 58 18 3c
       -0.10150352 0.113022275 -0.09541077 0.009298372
000090 37 16 ac bd 44 7d 87 3d 02 bc 47 3d 22 f5 e9 3d
       -0.08402675 0.066156894 0.048763283 0.114237085
0000a0 d3 46 57 bd 12 37 2e bd 97 ea e3 3d f4 01 8d 3d
       -0.052557778 -0.042532988 0.11128729 0.06885138
0000b0 10 61 93 3c 5f 7d ab 3d c5 37 3c bd 8e 66 33 3d
       0.017990619 0.08373522 -0.045951623 0.043798976
0000c0 2a 42 9c 3d 1e 1b bb 3d 08 4f 43 3d 35 46 f0 bd
       0.07629807 0.091360316 0.047682792 -0.11732141
0000d0 3b aa ef bd e3 1c 7c 3d 35 61 1d 3d 96 30 0f bd
       -0.11702391 0.061550986 0.038422782 -0.034958445
0000e0 fe 9a 65 3d a0 ef f3 3d b0 17 bb bd 0c 57 84 bc
       0.056056015 0.11910939 -0.091353774 -0.016154788
0000f0 03 11 f0 bd 86 74 62 3d 28 cc 60 bd 38 74 6b bd
       -0.11721995 0.055286907 -0.0548822 -0.05748388
000100 77 10 ef bc d8 b0 fc bd fe d3 bd 3d 21 a7 c1 bd
       -0.029182656 -0.12338418 0.0926895 -0.094557054
000110 80 2e d3 3d c8 84 52 bc c5 2f 8f 3d ed 1a c7 3d
       0.103116035 -0.01284904 0.06991533 0.097219326
000120 0d 18 78 3d 48 7f 0a bc 7f f9 91 bd e9 ae fc bd
       0.06056981 -0.008453198 -0.07127666 -0.12338049
000130 65 2c d3 3d 5c 8d 2b bd 56 a1 8c 3d 38 01 6a 3d
       0.10311202 -0.041882858 0.0686671 0.05713007
000140 47 59 b0 3d cb 53 92 3d d8 55 38 bc 41 cc 91 bd
       0.08610778 0.071448885 -0.0112509355 -0.071190365
000150 d5 b9 cd 3c d8 cd c0 bd 0f d8 b6 3d 17 0c 73 bc
       0.025113026 -0.094142616 0.08927929 -0.014834425
000160 03 76 aa bd 78 a0 5b 3b 24 5c 3d bd 5c a1 1f 3d
       -0.0832329 0.0033512395 -0.04623045 0.038972244
000170 d6 74 ab 3d 32 77 c9 3b b5 36 c4 3d 56 63 02 3d
       0.08371894 0.0061482424 0.09580747 0.031833015
000180 3a 75 99 bc 6f ed 94 3c bf f6 7a 3d e1 8f cf 3d
       -0.018732656 0.018179623 0.06127047 0.101348646
000190 88 88 46 3d dc a6 e3 bd 19 9b a1 bd a9 d4 cb 3d
       0.04847005 -0.1111581 -0.07890911 0.09952671
0001a0 2c d5 70 bd 13 a0 c2 3d ad 64 86 3d 29 b3 82 bd
       -0.058797047 0.09503188 0.06562171 -0.06381828
0001b0 ed ba ec bd ea 65 11 bd 3a 6f 46 3d 2f 5c a6 bd
       -0.11559091 -0.035497583 0.048445918 -0.081230514
0001c0 fb e6 56 bd ba e5 ef 3d 60 0c ef bc c5 85 fb bd
       -0.052466374 0.11713739 -0.029180706 -0.12281374
0001d0 28 bd 1a bd be b4 6a 3d 95 c5 b7 3d 08 fb 6e 3c
       -0.03777805 0.057301275 0.08973233 0.014586218
0001e0 a1 04 de 3c 4f 09 25 3d 03 37 df 3d 53 54 fa 3b
       0.027101817 0.04029208 0.108991645 0.0076394468
0001f0 25 12 e5 3d 67 04 4f 3c c3 40 9e 3d 7d bd fd 3d
       0.111851014 0.012635327 0.07727196 0.12389658
000200 8e df d9 bd b9 1d 90 3d 64 9f c9 3b d0 da d5 bc
       -0.10638343 0.07036919 0.006153034 -0.026105314
000210 16 12 49 bd 18 7d 52 bd ba 78 9f bb 67 18 77 3c
       -0.049089514 -0.05138883 -0.0048666866 0.015081502
000220 02 59 91 3c a7 85 69 3c e9 44 04 bd 48 86 f2 3d
       0.017742638 0.014253057 -0.03229228 0.11842018
000230 0c a8 42 3d 6c 29 77 3b 8b 5c f6 bd fb ff e7 bd
       0.047523543 0.0037713898 -0.1202937 -0.11328121
000240 a5 13 e9 bd bc 6f 1e bd 01 d0 89 3d e9 7e bc 3d
       -0.113807 -0.038680777 0.06729127 0.09203894
000250 ac e6 b1 3a e3 c8 db bd 46 02 b0 bd e6 ed ea bc
       0.0013572774 -0.107316755 -0.085941836 -0.028677892
000260 07 5b c7 bd 34 0f 27 bd 6b 92 97 3d f7 f8 fc 3d
       -0.09734159 -0.040785983 0.07400974 0.12352174
000270 55 1c 07 bc 7c 56 37 3d 26 65 c1 3b 5f a9 db bd
       -0.008246501 0.044760212 0.0059019504 -0.10725664
000280 b3 5e e9 bd af f6 dd bc c1 fd 59 3d 63 45 a9 bd
       -0.113950156 -0.027095167 0.053220514 -0.082651876
000290 3f 69 5c 3b aa 23 c6 3d 40 72 55 bd 3e a2 ce bb
       0.0033632067 0.09674771 -0.05211091 -0.006305962
0002a0 64 72 c0 bd 6f e1 d0 bc fe f2 c9 bb e8 88 f6 3d
       -0.09396818 -0.02549812 -0.006163 0.120378315
0002b0 88 82 b4 bd 7a 45 bc 3d aa 63 f2 bd ac a9 0b 3d
       -0.08813959 0.09192939 -0.11835416 0.03409736
0002c0 e7 09 4f bc 59 12 c3 bd 80 e3 bb bd a6 02 a9 3b
       -0.012636638 -0.09524984 -0.091742516 0.0051577864
0002d0 b7 66 b6 bc 43 0e 6b 3d f5 7b 96 bd ac f7 12 3d
       -0.022265775 0.057386648 -0.07347862 0.03588073
0002e0 d7 97 49 3c d7 2a c7 3d 2f 9c c8 3c 29 57 a0 3d
       0.012304268 0.09724968 0.024488537 0.078291245
0002f0 85 0d 9c 3d 1b 66 4c bd 49 9a af 3d 2d 38 ba bd
       0.07619766 -0.049902063 0.085743494 -0.09092746
000300 d2 cd 65 bc 09 ad fb bb ab f2 cf 3d fc a3 62 3d
       -0.014026122 -0.0076805395 0.10153707 0.05533217
000310 ae 1b b9 bd 35 3c 40 3d d9 57 37 3d 49 1e c1 bb
       -0.090384826 0.046932418 0.044761512 -0.005893503
000320 22 7a ce 3d 96 19 c1 3d 87 47 f4 3d e5 ca e2 3d
       0.10081889 0.09428708 0.11927705 0.11073855
000330 fb e3 cf bc c7 08 b0 3d fa 2d c6 bd a2 df 74 bd
       -0.025377264 0.08595424 -0.09676738 -0.059783585
000340 66 04 d8 3d 14 7e ee bd 03 ca 2b bd 2d 6e a1 bb
       0.10547714 -0.11645141 -0.0419407 -0.004926464
000350 15 04 1c bd b8 ac 2f bd 53 e3 dd bd bc ae fc 3c
       -0.03808983 -0.042889327 -0.10834374 0.030845039
000360 24 75 5a bc c6 11 ed 3d 1c 50 cc bd 65 9d 19 3d
       -0.013333593 0.11575656 -0.09976217 0.03750362
000370 49 2a e0 3d 9e e6 3b 3c 26 53 8c bd f9 38 a4 bd
       0.10945565 0.011468558 -0.06851797 -0.08018679
000380 94 17 11 bd bc 39 bb 3d c7 e0 bb bd c5 0e bd 3d
       -0.035422876 0.09141871 -0.09173732 0.09231333
000390 4c 97 eb bd 58 36 ce bd 77 d1 56 bd 20 fe 61 3c
       -0.11503467 -0.10068959 -0.052445855 0.013793498
0003a0 15 87 7c 3d cc 37 84 bd 8b a2 aa bd d6 46 f1 3d
       0.06165226 -0.06455955 -0.08331784 0.11781089
0003b0 4b 6e 0d 3d 5e 17 d3 bd f9 03 bb bd 00 91 d0 bd
       0.03452901 -0.10307191 -0.09131617 -0.101839066
0003c0 95 d9 a0 bd b7 70 07 3d 0e 5d c2 3d ab 65 cd bc
       -0.078540005 0.033066478 0.09490405 -0.025072893
0003d0 1b fa d1 bc a7 8c 17 3d 27 7e 1e 3d ea c2 96 3d
       -0.025631955 0.03699937 0.038694527 0.07361396
0003e0 8c 87 ba 3d 03 f4 b4 3b fe 9d b2 bc d7 46 b8 3d
       0.09107885 0.0055222525 -0.021803852 0.08997887
0003f0 6b e1 d1 bd 08 ba 54 3c fe 04 a1 bd 68 fe 89 3d
       -0.10248073 0.012983806 -0.0786228 0.06737977

tree_conv.9.bias f4 [32]
000000 0c 52 f7 bd a6 1e e8 bc 0c 18 be bc 32 85 b0 bd
       -0.12076196 -0.028334927 -0.023204826 -0.08619155
000010 79 3b 98 bc 01 dd 04 3d 1b d2 db bd a1 36 ca bd
       -0.018583046 0.03243733 -0.10733434 -0.09873701
000020 62 e6 b0 bc db ad cf bd 51 78 b4 3d c3 c7 d6 3d
       -0.02159423 -0.10140582 0.08812011 0.1048732
000030 fd 99 90 3d a2 ac 2f bd 80 1b b8 3d b3 6b af bd
       0.07060621 -0.042889245 0.0898962 -0.08565464
000040 e1 24 a6 3d 34 74 fa 3d 8b e9 e1 3d b2 e9 8b 3d
       0.08112503 0.12229195 0.11030873 0.06831683
000050 07 9f de bd 85 79 2d 3d 8c 0c 60 bd 7f cd 74 3d
       -0.10870176 0.04235222 -0.054699466 0.05976629
000060 18 d0 f6 bd e2 89 d4 bc 50 5c 95 bd 23 6f bd 3c
       -0.120514095 -0.025944654 -0.07292998 0.023124283
000070 5f 76 2e 3c 8d 51 d0 bd e2 44 91 3d 74 7a 51 bd
       0.010648339 -0.101718046 0.070932165 -0.05114217

tree_conv.12.weight f4 [1, 32]
000000 48 84 25 be 7e b1 15 3e f8 75 ab 3d 72 01 04 be
       -0.16163743 0.14618489 0.0837211 -0.12891176
000010 81 f5 d9 3d 38 9f b6 3a 64 73 0d 3e 28 a5 19 be
       0.10642529 0.0013932949 0.1381355 -0.15004408
000020 eb db 16 be ec 31 5b 3d c7 87 27 3e 70 9f 9d 3c
       -0.1473233 0.053514406 0.16360389 0.019241065
000030 2d c6 33 3e 19 2a 96 bd fd 7f bc bd 2e 95 b9 3d
       0.17556067 -0.07332248 -0.09204099 0.09061657
000040 bd d1 01 be 2f 65 0c be df b4 ea 3d 1d 63 18 3e
       -0.12677665 -0.13710473 0.1146028 0.14881559
000050 96 f5 09 be 7c 44 c3 3d a3 53 b4 bd 6d d7 f4 3d
       -0.1347259 0.09534547 -0.08805015 0.11955152
000060 85 11 8f bd a8 21 45 3d e2 ac b6 3d 8d 04 9f 3d
       -0.069857635 0.0481278 0.089196935 0.0776454
000070 35 a8 17 be 6a 85 5b bd eb 03 39 3d 32 15 2b be
       -0.1481026 -0.05359403 0.045169752 -0.16707304
