src/Models/pairwise.onnx (onnx, 702290 bytes, 13 tensors)

tree_conv.0.weights.weight f4 [256, 50, 3]
00000000: 6eef 103f a7d8 8ebe 0d2e a33e c5b7 6ebd
00000010: f7a1 823d aeb2 c33c e23d a0bd 25c8 a93c
00000020: 9ae2 8fbd 68bd 54bd 379a e1bc f2f9 f13c
00000030: 11d4 6f3d 0c0e 293d a3f3 c5bc 9f71 e0bc
00000040: b1f3 93bd b60e cdbc 895a a2bc 7f40 c83c
00000050: ee84 70bd 3a01 13bd ce1e 27bd 907e 0f3d
00000060: 483f c43c b854 103d 52f8 32bc dae0 eabc
00000070: 557b 81bd b160 22bd 4194 893d 61d1 5b3c
00000080: 0b9a 443d 5f4d 033b 012d 33bd ae9e 793d
00000090: 9ad6 15bd 60ab 75bd a98d 3dbc 3615 a73d
000000a0: c563 703d 60fc 893d a7c3 ccbc b40d 083c
000000b0: 941d ccbc ace1 4d3c b84a 3e3c 74d4 16bb
000000c0: 5174 5ebd 604c 1c3d 24be 96bc a54b 27bd
000000d0: 12dc 403d 2b16 8a3d 7b1c 793d 6449 12bc
000000e0: 1be5 dd3c 2a6a 9dbd d3cb 33bd ee80 633d
000000f0: e52e 8dbc 922e 773c 8e92 dfbc d623 85bc
00000100: 0caf 89bd 9cba 47bc e1ba e83c a521 a13d
00000110: 5fd4 bfbc 0d5b a93c 64a2 86bd 0315 2c3c
00000120: 8b89 e8bb d130 8a3c bc23 44bd 7484 b9bb
00000130: cff1 623d 5131 06bc 64c8 e33c 7a40 6c3c
00000140: 059b b43b a838 a4bd c8a1 93bd 6223 c63b
00000150: 3b91 94bd 7e8a 38ba fd30 303c cb2a cc3b
00000160: 72a3 753d 2d75 803c f55a 8dbd d0d5 633d
00000170: 7288 1fbd c952 2dbd fdb0 373d cd23 8f3d
00000180: 5c1e 54bd ac41 abbc d924 95bd 0c96 023d
00000190: a32d a5bd 8696 6b3d c863 753b 9680 043d
000001a0: f40e 6bbd fc5b 72bd ef4e 313d 7a6d 99bd
000001b0: 80da 4e3d 3f17 57bd 1cbf 50bd dcde 1e3d
000001c0: 6a80 313d bc04 f8bb 827e e3bc 7fa7 93bd
000001d0: 3be7 87bd fef6 70bd e806 6ebd 6a1e 7f3d
000001e0: 5c70 0dbc 90c6 82bd 8de5 f6b9 df94 2a3d
000001f0: 921b 0abc 8609 803c 64bd 7c3d 1770 f2bc
00000200: 2478 36bd fb01 66bb ced9 4e3d 68e7 79bc
00000210: 84c8 a2bb e21c 84bd df3e a23d 4f14 3abd
00000220: 32f1 34bd 418e 15bd c0e0 62bc 0f51 a2bd
00000230: c85c 8fbd 195d 7e3d c49c 76bd cfbc 1c3b
00000240: d898 8a3e c1af 2e3e f1ad e13e 45d7 973e
00000250: 6de6 d93e 916f 0e3f 474b b0be 6dfe da3d
00000260: e429 433e 0e83 d8ba 7d0a cf3c 62cf 8fbd
00000270: 7d88 c6bb 53b1 913d 5d15 8dbd 1702 0cbd
00000280: 2f12 833d 7ee5 21bc 7d0d 8cbd 6561 2cbd
00000290: e426 53bc ad84 b33b ac2b 0d3d dddd 80bd
000002a0: 0788 91bd 3e7d 8d3d 712a 13bd 9726 ff3c
000002b0: f0a1 653d f10f 9c3c 3d25 34bd 5094 a5bd
000002c0: 1608 02bd 99c0 89bd b5be 32bd b6a6 d1bc
000002d0: 65a6 3bbd 0010 763d 0d91 a33d d2ea 53bd
000002e0: 232e 2abd f6f8 9dbd 0dd8 103c e274 a03d
000002f0: 3b64 2a3c d146 9f3c 42e6 dc3b c79f 083c
00000300: be6b e83b e103 5ebc f87d 25bc 3393 9d3c
00000310: 0d80 9a3d 4dc0 94bc bfc3 253d 62bc 8fbd
00000320: 871f 66bd b45c b1bc 5a0e 81bd a8cc 363d
00000330: 90c6 2e3d d754 55bd 48e7 81bd 00c6 193d
00000340: db53 943d 9d51 4dbd cb16 25bd b461 24bc
00000350: b6cc 8e3d e908 48bd ee88 443c d9f0 6cbd
00000360: c287 1dbd 4907 9abd 523b b73c 23e7 a5bd
00000370: e2bb 42bd a0a9 b5bc 8bb4 18bd 0be1 903d
00000380: db7f 493d 051b 98bd c1c8 5c3c 20c5 8b3d
00000390: 6ac5 53bc 8b87 83bd 582d 463d a728 8abd
000003a0: 5127 823d 94e4 6fbd eec3 8c3d 339c 5e3c
000003b0: 18fd 4cbc d171 913d ce79 0e3c 5166 27bc
000003c0: 831a 903d e7f4 5a3d cd72 013d 26da a53c
000003d0: bfe4 5bbd b5c1 bb3c 8419 39bd b552 9abd
000003e0: bd65 8ebc 5519 813c 8b7b 8c3d 7645 993c
000003f0: 8c62 4f3d 2e8b 833b 5ad3 51bd c2f6 7dbd
0.5661534 -0.27899668 0.3187107 -0.058280725 0.063785486 0.023888912 -0.07824303 0.02072532
-0.07025643 -0.051938444 -0.027539356 0.029538129 0.05855185 0.04127316 -0.024164027 -0.027397929
-0.07224215 -0.025031429 -0.019818561 0.024444817 -0.05872052 -0.03588984 -0.040800862 0.03503281
0.023955956 0.035237044 -0.010923462 -0.02867167 -0.06322352 -0.039642993 0.0671773 0.013416619
0.04799847 0.002003513 -0.04374409 0.060942344 -0.036581613 -0.05997789 -0.011569419 0.081583425
0.058688898 0.0673759 -0.024995638 0.008304048 -0.024916448 0.012566011 0.011614494 -0.0023014816
-0.054310147 0.038158774 -0.018401213 -0.040843625 0.047084875 0.067425095 0.060818177 -0.0089286305
0.027086785 -0.07686265 -0.043895554 0.05554288 -0.017234275 0.015086787 -0.027291562 -0.01625244
-0.06722841 -0.012190487 0.028409423 0.07867745 -0.023416696 0.0206733 -0.06573942 0.010503056
-0.0070964745 0.01686898 -0.04788564 -0.0056615416 0.055406388 -0.008190469 0.027805515 0.014419669
0.005511644 -0.08018619 -0.07208592 0.0060466984 -0.07254263 -0.000703968 0.010753867 0.0062306873
0.059970327 0.015680874 -0.06902114 0.05562383 -0.038948484 -0.04231528 0.044846524 0.0698925
-0.051786765 -0.020905338 -0.07282419 0.031881377 -0.08065345 0.057516597 0.0037443507 0.03234919
-0.057387307 -0.059169754 0.043288168 -0.07491584 0.050501347 -0.052512404 -0.050963506 0.038786754
0.043335356 -0.0075689238 -0.027770285 -0.07209682 -0.066359006 -0.0588293 -0.058112055 0.062284864
-0.008632746 -0.06385529 -0.00047091805 0.04164588 -0.008429425 0.015629541 0.061704054 -0.029594464
-0.04454817 -0.0035096395 0.050500683 -0.015252925 -0.004967751 -0.064508215 0.07922148 -0.045429524
-0.044175334 -0.036512617 -0.01384753 -0.07925617 -0.070001185 0.062100504 -0.060208097 0.002391625
0.27069736 0.17059232 0.4407802 0.29656425 0.42558613 0.55638987 -0.34432432 0.10693059
0.19058949 -0.001651855 0.025273556 -0.07021977 -0.006058751 0.071139 -0.0688884 -0.03418168
0.063999526 -0.009881375 -0.0683851 -0.04208507 -0.01288769 0.0054784627 0.034465477 -0.06292317
-0.07106023 0.06908654 -0.035929147 0.03114633 0.05606264 0.01905057 -0.043980826 -0.08084929
-0.031745993 -0.06726188 -0.043638904 -0.02559219 -0.045812983 0.060073853 0.079866506 -0.051737614
-0.041547906 -0.07713501 0.008840573 0.078347936 0.010399873 0.019442948 0.006741316 0.008338875
0.007092922 -0.0135507295 -0.010100834 0.01923523 0.07543955 -0.018158102 0.04046988 -0.07018353
-0.05618241 -0.02165065 -0.063015655 0.04462877 0.042669833 -0.052082863 -0.063429415 0.037542343
0.07242557 -0.05012666 -0.04030494 -0.01003306 0.06972639 -0.048836622 0.011995537 -0.057846878
-0.038459547 -0.07520921 0.022367153 -0.081007265 -0.04754246 -0.02217561 -0.037281554 0.070741735
0.049194198 -0.074270286 0.013475598 0.06824708 -0.012925485 -0.06422337 0.048383087 -0.06746035
0.06355155 -0.0585676 0.06873308 0.0135870455 -0.012511514 0.07101787 0.008696033 -0.010217265
0.07036307 0.053456213 0.031603623 0.020245623 -0.053684946 0.022919515 -0.04519035 -0.07535306
-0.017382497 0.01575915 0.068595015 0.01870988 0.05063109 0.0040143942 -0.05122695 -0.062002905

tree_conv.0.weights.bias f4 [256]
00000000: 28a2 503d e2b0 983d aaeb d5b9 39bf 783d
00000010: 19e0 693d 2edd 7c3d e17e 4d3d c50f 82bd
00000020: e8a7 0dbc 4b67 91bd 459c 92bd c671 76bd
00000030: 0598 ab3c ff3d 713d ed35 a4bd 0b72 e8bc
00000040: 017c 61bd 9143 9b3c a38b a13d 7256 3fbc
00000050: 243a ca3b a7c8 b2bc 7969 9abd 0e79 833d
00000060: 584c b6bb 27a9 bebc 7bc4 d93c 62c1 8b3c
00000070: 6f71 cebc 9abf 1bbd 9160 5e3d 6735 37bd
00000080: 0ee4 41bc c534 3abc 1ed8 25bd 6c8f 1a3d
00000090: b5b6 5ebd 3500 d6bc 622a 43bd 636d 343d
000000a0: d12b efbb aec0 5a3d b9c9 8ebd 3ca9 0e3d
000000b0: ed73 5abd 1f92 f3bb 5f01 b43c 808c ee3c
000000c0: 10f4 493b 69c1 a53d 8106 c8bc b748 923d
000000d0: fcf9 a6bd 96d4 963d c854 473b 6b11 603d
000000e0: 5256 a23d ab1c 49bd 00b2 cd3c aee1 273c
000000f0: 4367 fe3c aad1 8c3a cff1 6b3b 8535 6dbd
00000100: a145 cc3c 3f8d f93b a92f dbbb 4b22 ec3c
00000110: 5ce0 81bd 900e 253d 8761 1fbd bcdf 01bd
00000120: 628d 9d3b 9a1a 02bd f19c 12bc 6f42 0a3d
00000130: f8a5 003d b10e 9d3d abb6 16bd abbf e6bc
00000140: aa28 893c 6554 87bd 5cbb 343d 10fe 2e3d
00000150: 82e3 263d f5a1 0ebd efd5 623d 9459 653c
00000160: 1a04 f1bb 4473 8a3d 6a17 2b3d 0110 d3ba
00000170: 9bf9 453d 9012 47bd f4eb 5a3d 3364 88bd
00000180: 3b33 0bbd 0808 e1bc 3570 763d b6bd 653d
00000190: 1f47 8d3d 7212 973d 907b 9cbd c040 43bd
000001a0: 5a41 acbc 5196 a43d bed3 98bd 9aa3 653d
000001b0: 1cb0 9e3d 6145 4d3d 2ee7 db3c 0082 d2bc
000001c0: f85b a23d dc54 df3c 7972 98bd d46c 4d3d
000001d0: c161 7ebd dddf 8bbd fb20 26bd 6bbd 4ebd
000001e0: 74ed a13d 982f bc3c 823f 953d 2af2 8ebd
000001f0: 938f 6ebd 5dbb 283d b8e4 8dbd 5e28 9b3d
00000200: 834c 12bd 2de7 aebc 4f94 823c dce7 893d
00000210: f559 8cbd a7eb 5a3d a63d e2bc 15e4 a0bd
00000220: de47 a53d 2c7b d6bc 7c6f 8e3d 82cb 7abd
00000230: 9cbc 89bd 45f3 27bd c332 f9bc 049e f4bc
00000240: c4de 0fbd c0b4 333d 1b5e 7fbd 2548 68bd
00000250: 6320 e43c 69bf 61bd 877d 723d 428d 913d
00000260: d8e2 b1bc b601 943d b8a2 adba 9c4c 1c3c
00000270: 450e 85bb eb65 27bd 52c4 37bc 10a8 663d
00000280: 52d3 a43c 4fe1 333c c87f ae3c 8e5b 7bbd
00000290: 32f2 f33c b4f3 893c f4ba 7c3d 67e0 5fbd
000002a0: 8349 863d 2b9c f7bb f8a9 673d c544 90bd
000002b0: adf5 4d3d 528e 5c3d 54f6 b03c a54d 3d3d
000002c0: 14d0 613d 93c4 a3bd 904e 563d e48b 813d
000002d0: 7eff 1d3c fb28 b63c e118 dfbc 4b1b 8c3c
000002e0: 99f4 91bb e3d3 733d e724 1b3d 9ef7 243d
000002f0: eaba 9ebd e0f9 ce3c 1f3d a4bd 161b 4dbd
00000300: 3194 00bc df6f 9abd 88f7 3dbd 76a7 863d
00000310: 0501 1abc d222 0f3d 8176 d83c 8021 90bc
00000320: 2211 5b3c b81c ba3b d401 783d 0399 833d
00000330: 3534 9fbd e93e 51bd 637b 413b 12d7 5f3d
00000340: 5df4 db3c f65c 873d db48 a0bd ca8d dfbc
00000350: 86a1 ac3b 9759 ca3c a6e0 dcbc 62b5 91bd
00000360: 4038 163d 16c0 61bd 2c42 4fbd ea1f 85bb
00000370: abad 9f3d 49f1 093d 26bc 7d3d 1a50 f9bc
00000380: cb78 29bb 24d2 e9bc f7cc 943d bba6 e9bc
00000390: 30e7 91bd fcee 59bc a912 88bd 5291 8dbc
000003a0: 4c00 95bd 2041 30bb 80f7 3b3c f757 32bc
000003b0: bc96 763d 50a7 97bd dd3f 2d3b cdf5 a1bd
000003c0: ef08 9abd fade d8bc d9a4 74bd 1248 acbc
000003d0: 39f5 2cbd b26f ab3c 77aa 76bd 3668 a6bd
000003e0: 4ec8 a5bd 1946 21bd 6008 4bbd 36ff 493d
000003f0: 76b8 5f3d c3fb 43bd 8561 043c 67bd 9fbd
0.050935894 0.07455613 -0.0004080211 0.06072924 0.05709848 0.06173437 0.05016983 -0.06350664
-0.008645989 -0.0709978 -0.07158712 -0.060167097 0.020946512 0.058897015 -0.08018098 -0.028374692
-0.0550499 0.018953117 0.07887962 -0.011678325 0.0061714817 -0.021824194 -0.075396486 0.06419574
-0.0055633 -0.023274017 0.026582947 0.017059986 -0.025200574 -0.038024522 0.05429131 -0.044728663
-0.011834158 -0.01136512 -0.04048931 0.037734434 -0.05437346 -0.026123146 -0.04764784 0.04404963
-0.0072989245 0.05340641 -0.06972069 0.034829363 -0.05333321 -0.0074331905 0.02197331 0.02911973
0.0030815639 0.08093531 -0.024417164 0.071427755 -0.081531495 0.07364766 0.0030415524 0.05470411
0.079266205 -0.049099606 0.025109291 0.010246677 0.031055098 0.0010743637 0.0036002283 -0.05791237
0.024935545 0.007615715 -0.006689031 0.028824946 -0.06341621 0.04029709 -0.03891137 -0.03170751
0.004808114 -0.03176365 -0.008948551 0.033754762 0.03140828 0.07668818 -0.0367953 -0.028167566
0.016743023 -0.06607894 0.044123992 0.04272276 0.040744312 -0.034822423 0.055379804 0.013998408
-0.0073552253 0.067602664 0.041770376 -0.0016102792 0.048333745 -0.048601687 0.05344768 -0.066597365
-0.033984404 -0.02746965 0.060165603 0.056089126 0.06898331 0.07376565 -0.07640755 -0.047669172
-0.021027256 0.08036483 -0.074622616 0.056064226 0.07748434 0.050114993 0.026843634 -0.025696754
0.07927698 0.027262144 -0.07443709 0.050152615 -0.062104944 -0.06829808 -0.040558796 -0.05047361
0.07906619 0.022971913 0.07287504 -0.06979783 -0.05824239 0.04119431 -0.0692839 0.07576059
-0.0357175 -0.021350468 0.01593986 0.06733677 -0.068530954 0.05344739 -0.027617287 -0.07856003
0.08070348 -0.02618178 0.06954858 -0.061229236 -0.067254275 -0.041003484 -0.030419713 -0.029860504
-0.035124555 0.04387355 -0.062345605 -0.056709427 0.027847474 -0.055114184 0.059201743 0.07107021
-0.021714613 0.07226889 -0.0013247347 0.0095397495 -0.004060539 -0.04086868 -0.01121624 0.05631262
0.020120297 0.010979011 0.021301165 -0.06136661 0.029778574 0.01683984 0.06170173 -0.054657366
0.0655699 -0.0075564585 0.05655858 -0.07044367 0.050283123 0.053846665 0.021601833 0.046216626
0.05513008 -0.07996478 0.052321017 0.0632551 0.009643434 0.022236338 -0.027233543 0.017102858
-0.004454207 0.059528243 0.03787699 0.04027521 -0.07750495 0.025265634 -0.080194704 -0.05007466
-0.007847832 -0.07540869 -0.046378642 0.065749094 -0.009399657 0.034945317 0.026423695 -0.017594099
0.013370784 0.005679693 0.06054862 0.06425669 -0.077736296 -0.051085386 0.0029523007 0.054648466
0.02684992 0.06609528 -0.07826396 -0.02728929 0.0052682785 0.024700923 -0.02696259 -0.07114674
0.036674738 -0.055114828 -0.050600216 -0.0040626423 0.077967964 0.033677373 0.06194701 -0.030433703
-0.0025859352 -0.028542586 0.072656564 -0.028521886 -0.07124174 -0.013301607 -0.06644184 -0.017281208
-0.07275447 -0.0026894286 0.011472583 -0.01088523 0.060202345 -0.07404959 0.002643577 -0.07908211
-0.07521235 -0.026473511 -0.059727523 -0.02103046 -0.04222605 0.020927284 -0.06022116 -0.081253454
-0.08094846 -0.03937349 -0.049568534 0.049315654 0.054619275 -0.04784752 0.008079891 -0.077997975

tree_conv.3.weights.weight f4 [128, 256, 3]
00000000: 252d 91be e99a 92be 1078 8cbe 6870 7cbe
00000010: ceee 8abe 03d0 49be 4b46 8fbe e256 7dbe
00000020: 30fb 5fbe 4ae0 8ebe d24e c1bd 84d6 71be
00000030: c76a 67be 8e74 25be 0347 91be 0f5e 8bbe
00000040: 093e 92be a20f 81be 3bd1 c7be aa93 cd3e
00000050: 3e45 efbe 3108 88be 5554 873e 2393 04be
00000060: 28f8 a4be 30a8 75be fa9e 70be 6809 61be
00000070: 3c8d 87be f3f1 67be 76ce 95be 4f98 07bf
00000080: b17a 8ebe 1df8 61be 139c eb3e 5ec8 48be
00000090: 519b 84be ceab 83be 0c39 82be e2cf 66be
000000a0: 3b3c 2d3d 5361 1f3d 7c5e b8be 21a1 0ebe
000000b0: 0234 9cbe a756 5ebe ae91 6fbe 804a 5fbe
000000c0: 1d8d aabe 97ec a5be edd7 85be 84ba 52be
000000d0: cfb7 88be b833 78be 5d2a 00bf 4efe d9bc
000000e0: f775 cdbd e34e 62be 5d36 88be 4f8b 6abe
000000f0: b577 7dbe 667f 86be c770 6ebe 246a 18bd
00000100: 4012 c3bd 7f35 f2bd f36d 74be 94f6 7bbe
00000110: 692c 7cbe dd76 82be d68f e0bd 1d56 fabe
00000120: 75d9 87be 2b67 86be a0d2 7cbe 0854 55be
00000130: a301 55be 630f 6abe 7e5a 59be fe25 123e
00000140: 1a2f 4ebe 0dab 93be 6cb0 cabe 43d0 b9bd
00000150: 6117 75be 236c eabe e5ef d0be 3dd7 a7be
00000160: 0899 1cba cbf7 8cbe 615e 81be 59d9 72be
00000170: 68f8 59be 6b84 89be b63d a3be 95c3 8abe
00000180: 18e0 87be 1507 7dbe c989 84be 429d 82be
00000190: e754 93be 5a51 993c a0a9 59be d002 63be
000001a0: 943d 9fbe 78b8 97be ec94 4cbe fc5f 28be
000001b0: fbb3 85be 82b2 81be b7f0 9dbe 2b63 53be
000001c0: 8779 57be 8282 55be 24eb a5be 6441 e6be
000001d0: 4a60 89be 524d 89be 5d45 64be 5058 8bbe
000001e0: 2df0 7f3e 9b9c a83e 0cb4 e2be 9f36 9abe
000001f0: cc23 79be 0004 56be 2bb7 83be 00d7 5dbe
00000200: 3df3 69be fc7a 55be c5d8 8abe 7541 60be
00000210: a20e 70be 20fd 5dbe 187c bdbd 4521 c0be
00000220: 8e33 87bd 2da5 cfbd 2ed6 8abe 0d81 02be
00000230: 40cc 85be 35f5 89be 39a5 82be e742 6abe
00000240: 20e7 c5be 1edc 50be e965 b3be e148 afbe
00000250: 4a59 c7be fdad 82be 00b6 87be 9cf1 86be
00000260: 173a 5dbe c8b7 7dbe 88f6 7cbe c220 76be
00000270: c45c 8dbe b675 81be 07d7 2dbf d649 bbbe
00000280: fa20 57be a46d 86be ccc3 283e 5432 5c3e
00000290: a7a8 b8be 7f33 a0be 12fd 38be 55f2 bbbe
000002a0: 98a0 dabe 2361 933d dd89 9bbd 0278 95be
000002b0: d167 49be a467 32bd 0548 f7bd 35c0 8c3e
000002c0: 46c1 7abe 3ed1 0bbd b190 3ebe ea5d 113d
000002d0: 0b9b a3be b6ec ad3e 4e5b 06be 50a2 75be
000002e0: 12b7 63be 842b d8be c56b 88be 47d6 1bbf
000002f0: 6475 7dbe 1fde 9bbe 5006 80be 86e5 76be
00000300: 4b3b 83be 3fb7 59be 9583 80be 634f 94be
00000310: b70c 01bf f0ff 87be 5a2b 7cbe 377c 80be
00000320: 4080 7fbe 93d0 4cbe 4637 5bbe 6bd5 6bbe
00000330: 86e7 77be 1db0 6cbe 9d41 55be 3a66 7cbe
00000340: 5d32 92be 4ba1 52bd eac6 bbbe 4786 5c3e
00000350: f22f e3bd befc 99be 3247 14bb ae04 903d
00000360: c826 91be f47d 8ebe fde8 b2be af7b 88be
00000370: ae3f 8abd 48da 9dbe 6207 aabe adfa cfbe
00000380: 753d 223c 6f83 85be bd2a 81be d0bf 5fbe
00000390: c83a 9bbe 7842 f8be 10b7 5bbe 0949 64be
000003a0: 4844 b3be 3e30 4b3d 852c 6abe 0e74 a3be
000003b0: 892f 4bbd 5767 9dbe 3e14 bd3b cb6c 78be
000003c0: 0a86 8d3e 071e d53e 2639 92be ae21 84be
000003d0: 7394 51be dfeb 22bf 7843 93be 188e 6abe
000003e0: 110c 87be 88d5 91be 96bc 65be acfb 6cbe
000003f0: 6db8 76be 87ec 9cbe 4c8f 5abe 0927 84be
-0.28354755 -0.28633812 -0.2743535 -0.24652255 -0.2713532 -0.19708256 -0.27983317 -0.24740174
-0.21873164 -0.27905494 -0.09438862 -0.23616987 -0.22599326 -0.16157743 -0.2837449 -0.272202
-0.28562954 -0.2520724 -0.39026818 0.4015172 -0.46732515 -0.2656875 0.26431528 -0.12946753
-0.32220578 -0.2398994 -0.23498145 -0.21976244 -0.2647494 -0.2265089 -0.2925908 -0.5296678
-0.2782798 -0.22067304 0.46017513 -0.19607684 -0.25899747 -0.25717014 -0.25434148 -0.22540238
0.04229377 0.038911175 -0.36009586 -0.13928653 -0.3050843 -0.21712743 -0.23395416 -0.21805763
-0.33310786 -0.32407066 -0.261413 -0.20578963 -0.26702735 -0.24238479 -0.5006464 -0.02661052
-0.10032266 -0.22100405 -0.26603976 -0.22904705 -0.24752696 -0.26269072 -0.23285209 -0.0372106
-0.09524965 -0.1182661 -0.23870067 -0.24605781 -0.24626316 -0.2548131 -0.109649345 -0.48893824
-0.26533094 -0.26250586 -0.24689722 -0.20832837 -0.20801406 -0.22857432 -0.21225926 0.14272305
-0.20135155 -0.2884144 -0.39587724 -0.09072926 -0.239347 -0.45785627 -0.40808025 -0.327814
-0.0005973731 -0.275328 -0.25267318 -0.23715724 -0.21286166 -0.2685884 -0.3188302 -0.27102342
-0.26538157 -0.24709733 -0.25886372 -0.25510603 -0.28775713 0.01871555 -0.21256113 -0.22169042
-0.31101668 -0.29632926 -0.19978684 -0.16442865 -0.26113877 -0.25331503 -0.30847713 -0.20643298
-0.21042453 -0.20850566 -0.3240596 -0.44971764 -0.26831275 -0.26816803 -0.22292085 -0.27215815
0.24993964 0.3293198 -0.4427799 -0.30119798 -0.24330062 -0.20899963 -0.25725684 -0.21664047
-0.22846694 -0.20847696 -0.27118507 -0.2189997 -0.23443082 -0.21678591 -0.09252185 -0.37525383
-0.0660163 -0.10138927 -0.2711653 -0.12744541 -0.26132393 -0.2694489 -0.2551668 -0.22877084
-0.38652897 -0.20396468 -0.3503869 -0.3423529 -0.3893531 -0.25523368 -0.26506042 -0.26356208
-0.21604191 -0.24777138 -0.24703419 -0.24035934 -0.27609837 -0.2528512 -0.6790623 -0.3657977
-0.21008673 -0.26255524 0.1648094 0.21503574 -0.36066172 -0.31289288 -0.18065289 -0.36708322
-0.42700648 0.07196262 -0.07594655 -0.2919312 -0.19668509 -0.04355587 -0.120742835 0.27490392
-0.2448779 -0.034135096 -0.18609883 0.035489954 -0.31954226 0.3396966 -0.13120767 -0.23987699
-0.22237805 -0.422207 -0.26644722 -0.60873836 -0.24751812 -0.30442902 -0.25004816 -0.24110994
-0.25631174 -0.21261309 -0.2510039 -0.28966817 -0.50410026 -0.26562452 -0.24625912 -0.25094768
-0.24951267 -0.2000144 -0.21407804 -0.23030631 -0.24209413 -0.23114057 -0.2082581 -0.24648371
-0.2855405 -0.051423352 -0.36675197 0.21535598 -0.11093129 -0.3007564 -0.0022625444 0.070321426
-0.283499 -0.2783047 -0.3494338 -0.26656863 -0.06750427 -0.30830598 -0.33208758 -0.40620938
0.009902348 -0.26076838 -0.2522792 -0.21850514 -0.30318284 -0.48488212 -0.21456552 -0.22293486
-0.35013032 0.049606554 -0.22868545 -0.3192448 -0.04960588 -0.30742905 0.0057702353 -0.24260251
0.27641326 0.41624472 -0.28559226 -0.25806946 -0.20466785 -0.6364116 -0.28762412 -0.22905767
-0.26376393 -0.28483224 -0.22435221 -0.2314288 -0.2409379 -0.30649206 -0.21343726 -0.2581103

tree_conv.3.weights.bias f4 [128]
00000000: c1d6 7cbe 3b8a 26bf 0991 703e eace d1bb
00000010: d35a cabe 34b3 d5bd a08a 57be f66c 17be
00000020: 662c 9b3c 975f fbbe 05fc 6abe f9b6 cbbe
00000030: 1f99 89be 77b6 96be 0365 3a3e de94 d33d
00000040: ef53 2d3e 5ed4 a4bc 104d 9a3d b482 0dbf
00000050: b20d 99be d2ce acbe 276a e5be 1187 8f3d
00000060: 50e4 593d a730 f6be e328 163d e5c4 6bbe
00000070: 3141 6d3d 27f6 743e a157 b4be 1d08 dabe
00000080: 1523 c1be 7c5f c7bc 26f7 8cbe d08a f9bd
00000090: 1902 ae3e 728d 71be 5216 d7bd 60ce 8bbe
000000a0: 246f fdbe 01de 9fbe 1f8e f63d b3ab aabe
000000b0: 52ef 16bf a8d7 5bbd 8953 dd3d 54e7 64be
000000c0: 9ecb 74bd a276 b83d feac 90be af72 92be
000000d0: a7e1 c8be 8a49 74be 9b75 203e e21c dcbe
000000e0: 34d0 f03a fa6e 41be 083c 61be 22a9 e6ba
000000f0: e0a0 e03d 2e6f a4be c74c 843e eb50 de3d
00000100: f15f a53d d616 813d 5123 d23c fa7c 2b3e
00000110: e7cd 403e 7031 713e 84ff efbd 4275 c8bd
00000120: e0c4 283e 9c26 b2be 6f16 b7be 2548 ed3c
00000130: 2229 6f3c 8f1e 81be f5e3 9fbe 63d3 9abe
00000140: 78c2 283d bc91 81be 6bb3 0dbe 604c d5bd
00000150: 160c 933d 469e 0abf 88e4 743d d3e5 5cbe
00000160: 2f49 6a3e 6d8c 923d c5bb 233e 02b4 c7be
00000170: 21ab 13bd f02c f0be 7f68 03bf 9876 0bbf
00000180: 266b e1bc 0647 40be 3475 87be b69c 953d
00000190: db4d 8ebe 1bc7 e93d 70a7 0abf a82c a5be
000001a0: e475 acbe 69c0 42be d03c b3be f8fd 6dbc
000001b0: 2c18 f9bc 29a5 72be 8eaa 85be 45d1 3e3e
000001c0: 854e 67be 9119 8cbe f2ae 28bf 5626 1dbe
000001d0: f180 c0bc 8cb8 2e3e 654e a6be 4be1 fb3d
000001e0: 832e 4fbe ee82 093e deab fd3d f53a 4fbe
000001f0: b53c ccbe 0a61 5bbc 4557 d93c 265b 36be
-0.24691297 -0.6505467 0.23492827 -0.00640284 -0.39522418 -0.10434571 -0.21048975 -0.14787659
0.01894207 -0.49096367 -0.229477 -0.39788035 -0.26874635 -0.29436085 0.18202595 0.103311285
0.1692655 -0.020120796 0.0753423 -0.5527756 -0.2989326 -0.3375154 -0.4480755 0.07008184
0.05319625 -0.48083994 0.036660086 -0.23024328 0.0579235 0.23922025 -0.35223106 -0.42584315
-0.37722078 -0.024337523 -0.2753231 -0.121846795 0.33985975 -0.23589113 -0.10502304 -0.2730589
-0.49498856 -0.31224063 0.12038826 -0.3333412 -0.58958924 -0.053672463 0.10806949 -0.2235387
-0.059764497 0.090070024 -0.28256983 -0.28603122 -0.3923466 -0.23856178 0.15669863 -0.42990786
0.0018372596 -0.1888999 -0.21995556 -0.0017598013 0.109681845 -0.32116073 0.25839826 0.10855278
0.0807494 0.06303184 0.025651606 0.16746894 0.18828546 0.23554015 -0.117186576 -0.0978799
0.16481352 -0.34795082 -0.35759303 0.028965065 0.014597209 -0.25218627 -0.31228605 -0.302394
0.041201085 -0.253065 -0.13837974 -0.10414958 0.071800396 -0.54147756 0.059788257 -0.21572046
0.2287948 0.0715569 0.15989597 -0.39004523 -0.036051873 -0.46909285 -0.51331323 -0.54477835
-0.027516913 -0.18777093 -0.26456606 0.07305281 -0.27793774 0.114149295 -0.5416174 -0.32260633
-0.33683693 -0.19018711 -0.35007334 -0.014525883 -0.030407034 -0.23695816 -0.26106685 0.18634517
-0.22588547 -0.27363256 -0.65891945 -0.15346655 -0.023498984 0.17062587 -0.32481685 0.122988306
-0.20232587 0.13428852 0.12386297 -0.20237334 -0.39890066 -0.013389835 0.026530871 -0.17808208

tree_conv.6.weights.weight f4 [64, 128, 3]
00000000: 5347 cdbe 5551 7e3b 7e4c b1be 4fbf eebe
00000010: 4c85 c8bd 3f5f 2a3e 564e aabd 4e46 223e
00000020: b7e5 8c3e 117c 8abe a919 3dbe 3fce 783c
00000030: b1f3 3a3e a271 663e 6d27 7d3e 1ef1 df3d
00000040: 63fe 043e 54d2 e33d 7385 ed3d c7dc 1a3d
00000050: 5a6e 93be e4b2 a1be 50c2 66be ffd8 f3bd
00000060: 5a44 393e a59e 1a3f 8411 12be a06e bc3e
00000070: 4fd4 d13d 1614 bcbd 0fdd 723e 1d62 9dbe
00000080: 31ec 433e 1e78 9dbe 5762 293e cf66 803e
00000090: 4404 4a3e 8eaf 8fbe 3570 2f3e a2b3 77be
000000a0: fa73 9dbe 14ee 8b3e 7e41 10bf 81eb a1be
000000b0: 7061 c0be 9dca a63e c5ca c53e 5fbc 7e3e
000000c0: c237 6ebe 6fd5 703e fbf0 c7bd a113 133e
000000d0: f508 963e ea84 733d 7925 06bf c495 c83d
000000e0: 056d 9f3e 59f0 8a3e e876 853e 6f00 15be
000000f0: 3e67 463e 69eb 4d3e b430 513e 377f b3be
00000100: 164a 5a3e 7273 1fbe 0249 433e 98c5 473e
00000110: 2a2e 883e a164 203e 583f b43d 3847 0ebf
00000120: 1bd3 3fbf b485 fbbe 7a38 88be ef9a 90be
00000130: 0e0a 513e 33f4 813e 9662 56be 4359 c43c
00000140: 6e92 99be 208e 97be cd31 303e fccf 343e
00000150: ecc0 08bf d0a5 89be 11e6 efbe 7cbe 9dbd
00000160: c07b b3be b2d4 b63d 1383 b03d acf1 113e
00000170: c04e 103e 9c4a 9d3d 7904 adbd 772b 15bf
00000180: bfc9 343e b592 34be e009 663d 75a4 953d
00000190: 4ad3 92bd dd3c 07bf 4ba8 8b3e 96f3 453e
000001a0: f6f6 90be 8664 363e b84d 433d 499a df3d
000001b0: 76d2 a63e 5987 76be affd dcbd 46b3 2b3e
000001c0: 6243 c0be 36e2 a9be 0ce3 5a3e a506 ad3e
000001d0: 0592 1bbd ee53 053e c3a8 613e 88d9 0ebf
000001e0: 9d3b 8d3e b97d 573e f506 5fbe 0ff5 62be
000001f0: 4dd8 803e 9c05 743e b606 e6be 15c2 f6bb
00000200: 746e d4be c376 813e 764f b0be 2551 8fbe
00000210: 215c 15be a209 9b3e 331b a2be 702d 213e
00000220: 2868 41be 310f 86be e2a8 883e 05f9 8d3e
00000230: 7a3b 7dbd 76c0 df3e 9687 e9bd 12b6 01bd
00000240: 305e d3be 373d fcbe 0eff 1ebe a6f4 0cbf
00000250: 041e b03e 6dcd bd3d ff44 4b3e 72c5 adbe
00000260: f176 8a3e 87b5 67be 1bc4 a6be 1956 803e
00000270: 4d81 2e3e 6dda f8be 13de 643e 9183 6d3e
00000280: 97b5 9abe 7b5d 413e 1ed0 183e 618a dc3e
00000290: 159c 50be d6c0 69bd e2d0 ddbe d74a 8abe
000002a0: 854a 09bf a06a 8a3d 00b6 a9be 6500 dbbe
000002b0: 3479 4ebf 52c6 f3bd 59d8 9fbe 9765 913e
000002c0: 837d a0be 97c7 293e f3a2 e43e 8655 b5be
000002d0: a583 f33d 9a21 e73d f24f afbe 327a 1e3e
000002e0: 1879 8c3e 1840 813e 8d14 f7be 0d75 863e
000002f0: 8b1b 5c3e be43 cc3d d1f0 edbe 0eb9 b7bc
00000300: 662c 32bf 12af bbbe 7c2e ebbe 5a0a 903e
00000310: 383e 803e fba0 4cbe e002 a7be 410c 9a3e
00000320: 7072 46bf 596a af3d eed2 473e 45aa e7be
00000330: 7a55 4cbf 60f5 273e 6ef3 44be 5376 62be
00000340: 41ef bbbe 4b92 a4be 9da6 3f3e ca14 64be
00000350: 81af 89bd 46ef 653e 45c6 08be 5f7a f3be
00000360: 2125 d2be 94b3 62bd 0c4f d8be c633 b23d
00000370: c52d ff3d 2444 62be f015 3d3e b50c a7be
00000380: 90f8 8dbe d824 b5be 1d57 34bd 0b44 4f3e
00000390: 88f6 703e 4ef1 8e3e f776 81be 1f9d 113e
000003a0: 5610 97be a7b0 383e ac0b 83be 3539 723e
000003b0: 7d5d 553e ca96 75be 5fd1 7b3e 392b 72be
000003c0: 2d76 d3bc 708b 58be fdee bc3e 2fe3 12bf
000003d0: 1655 c73e ef09 733c 2565 b7be 95a6 1e3e
000003e0: 7f00 7abe 0a64 973c 31cf 213e e8ca 963e
000003f0: 020f a4be 09c6 7c3e 479c a7be 8b48 8abe
-0.4009348 0.0038805802 -0.3462867 -0.46630332 -0.09791049 0.16637896 -0.08315723 0.15847132
0.2751901 -0.2704778 -0.1846682 0.015185892 0.18257023 0.22504285 0.24722071 0.10934661
0.12987666 0.11124101 0.11597719 0.037808206 -0.2879513 -0.31581795 -0.22535062 -0.11906623
0.1809248 0.6039832 -0.14264494 0.3680315 0.10245573 -0.091835186 0.2371714 -0.30738917
0.19133069 -0.30755705 0.1654142 0.25078437 0.1972819 -0.28063625 0.17132647 -0.24189618
-0.30752546 0.27330077 -0.56349933 -0.31624988 -0.3757434 0.32576457 0.38631263 0.24876545
-0.23263457 0.23518918 -0.0976276 0.14362957 0.2930371 0.05945293 -0.5240093 0.097941905
0.31137863 0.27136496 0.2606728 -0.14550947 0.19375321 0.20109333 0.20428735 -0.35057995
0.21317324 -0.15571383 0.19070819 0.1950897 0.2659772 0.15663387 0.08801144 -0.5557742
-0.74931496 -0.49125445 -0.26605588 -0.28243205 0.20413992 0.25381622 -0.20936045 0.023968345
-0.2999453 -0.2960062 0.17206497 0.17657465 -0.53419375 -0.26884317 -0.46855214 -0.07702348
-0.3505535 0.08927287 0.086187504 0.14252347 0.1409254 0.07680246 -0.08448119 -0.5826945
0.17655085 -0.1763409 0.05616176 0.07306758 -0.071692064 -0.52827245 0.27276835 0.19331202
-0.28313416 0.17811784 0.04768154 0.109180994 0.32582444 -0.24075069 -0.10790574 0.16767606
-0.3755141 -0.33180398 0.21375674 0.33794132 -0.037981052 0.13020298 0.22037034 -0.55800676
0.27584544 0.21044053 -0.21779998 -0.22163795 0.25165024 0.23830265 -0.44926995 -0.0075304606
-0.4149052 0.2528592 -0.34435624 -0.27991596 -0.14585926 0.30280787 -0.31661376 0.1573999
-0.18887389 -0.26183465 0.26691347 0.2772905 -0.0618243 0.43701524 -0.11402814 -0.031667776
-0.41282797 -0.49265453 -0.15526983 -0.55060804 0.343979 0.092676975 0.19850539 -0.339397
0.2704387 -0.22627841 -0.32571492 0.25065687 0.17041512 -0.48604146 0.2235034 0.2319472
-0.30216667 0.18883316 0.1492314 0.43074325 -0.2037204 -0.05706867 -0.43323427 -0.27010223
-0.5362933 0.06758618 -0.33146667 -0.42773739 -0.8065369 -0.11903061 -0.31219748 0.2839782
-0.31345758 0.16580044 0.4465557 -0.35416812 0.118903436 0.11285706 -0.3424068 0.15476301
0.27436137 0.25244212 -0.48257867 0.26261178 0.21494882 0.09973858 -0.4647279 -0.022427108
-0.69598997 -0.36657006 -0.45933902 0.28132898 0.2504747 -0.19983284 -0.3261938 0.30087474
-0.7751837 0.08565206 0.19514057 -0.45247093 -0.79817927 0.16402197 -0.19233486 -0.2211545
-0.36705974 -0.32142863 0.18715902 -0.22273555 -0.06722928 0.22454557 -0.13356884 -0.475543
-0.41043952 -0.05534704 -0.42247808 0.08701281 0.12459902 -0.22096306 0.184654 -0.32626882
-0.277287 -0.35379672 -0.04402839 0.202408 0.23531544 0.27918476 -0.25286075 0.14220093
-0.2950465 0.18036138 -0.25594842 0.23654635 0.20836444 -0.23983303 0.24591587 -0.236493
-0.025813187 -0.21146941 0.36901084 -0.57377905 0.38932103 0.014833911 -0.35819355 0.15493234
-0.24414252 0.01848032 0.15801693 0.2945168 -0.320427 0.2468492 -0.32736418 -0.2700847

tree_conv.6.weights.bias f4 [64]
00000000: 2c0b 2bbe 2ed9 ac3e 89f2 94be 0a33 ccbc
00000010: 9ed5 6abd 2f62 f9bd 2e17 e33d 08f1 f7bd
00000020: f77c e33d d66a 533e 315f 983d 5784 2d3e
00000030: e99d bbbe 91d3 253e 220d 73be 248c 773e
00000040: a09a 9d3c a602 993d 0fc1 bf3e c718 0dbe
00000050: 7276 a8bd 88d2 263e c004 2b3e dbc2 d53e
00000060: b958 eebd 974b 263e fd34 733e 6f0a fb3d
00000070: 3182 7f3d ccd8 8abe c6dd 0f3e cc2b 313e
00000080: 1f3d a83e 61de ff3d 3154 cdbe 3f90 6a3e
00000090: edf8 c43d 2d38 2b3d 94ac f73d bcbb 903e
000000a0: f085 373e 1b4a 0a3d f51c 873e adf2 283e
000000b0: f56f 7b3e dea6 a53e aa1c 313e 8ecd 11be
000000c0: 0282 153f 3e89 043e 817f 813e c9ea 32be
000000d0: 1b6b 043e 4313 853e 648a 5bbe ed38 c23e
000000e0: cf31 a8bd 8491 8b3e 99cf 0abe e35d e93e
000000f0: 78c9 c83e f9d6 21bf 88a8 da3d 74d8 b33d
-0.1670348 0.33759445 -0.2909129 -0.024926681 -0.057332627 -0.1217693 0.110884055 -0.1210652
0.111078195 0.20646223 0.07440031 0.16945015 -0.36643913 0.16193987 -0.23735479 0.24174553
0.01923877 0.07471208 0.3745198 -0.13778983 -0.08225717 0.16291249 0.1670103 0.41750225
-0.11638016 0.16239773 0.23750682 0.122578494 0.06238002 -0.27118528 0.14049444 0.17301863
0.32859132 0.12493587 -0.40103295 0.22906588 0.09617791 0.04180162 0.120934635 0.2826823
0.17922187 0.03376208 0.2638928 0.16498823 0.24554427 0.32353872 0.1729609 -0.14238569
0.584015 0.12942979 0.2529259 -0.17472376 0.12931482 0.25991258 -0.2143951 0.37934056
-0.08212625 0.27259457 -0.13555755 0.45579442 0.39216208 -0.6321865 0.10676676 0.087815195

tree_conv.9.weight f4 [64]
00000000: cb64 a43d b639 1a3f 3547 cabd 853c 45bd
00000010: 409f 59be 3e87 1bbd c495 fa3c a03b d73e
00000020: 9d4e 533e d431 3c3e c501 6e3c 7380 87be
00000030: c7b0 c03e b9ce 5d3f f5c8 9a3d 87b1 9d3e
00000040: 64fb 723a 2319 323d c2a1 5e3e 9075 64be
00000050: 3c84 d73e af51 70be abf5 fd3e 27be 12be
00000060: 0d76 5fbd 18dd 9d3e fdd2 e63e 926e 173e
00000070: 4a55 fb3e 791c 923f 5b1f cc3e f3a9 79be
00000080: 6bf6 c13e 3704 6ebd 1cd0 0d3e a8be 0e3f
00000090: e67b a93e 8a80 6dbd 0332 433d 5294 933f
000000a0: 92ff 243f 4d5d a4be fcbe c23e 6f83 90bd
000000b0: 13ac a83e a2da 9d3e c14a e53d d7eb 6b3f
000000c0: ba34 5fbe e27b 2c3e 3a5c 8d3f bcde b13d
000000d0: 9ff3 123f a4ef 6fbd 931d cd3d ebe0 b23c
000000e0: b62d 123f 7ceb f1bd 6fbe 973d e076 863e
000000f0: fee5 8c3e daf8 6a3e 5e88 b83e 793b ffbc
0.08027037 0.6024431 -0.09876863 -0.04815342 -0.21252155 -0.037970774 0.030588992 0.42037678
0.20635457 0.18378383 0.014526789 -0.26465186 0.3763487 0.8664356 0.07557861 0.30799505
0.00092690275 0.043481003 0.21741393 -0.22310472 0.42093074 -0.2346866 0.49601492 -0.1433035
-0.05455594 0.30832744 0.45082846 0.14788273 0.49088508 1.1414939 0.39867672 -0.24381237
0.37883314 -0.05810949 0.13848919 0.5575967 0.3310234 -0.057983913 0.047655117 1.1529639
0.6445247 -0.32102433 0.38036335 -0.07056319 0.32943782 0.30830866 0.11195899 0.9215674
-0.21797457 0.16844133 1.104377 0.08685061 0.57402986 -0.05857815 0.100154065 0.021835765
0.57101 -0.11812493 0.07409369 0.2626257 0.2751922 0.22946492 0.3604154 -0.031156288

tree_conv.9.bias f4 [64]
00000000: 70b2 a33f a370 2ebf bd14 1bbf b09d 3d3f
00000010: ce23 e93e 60da 773e 39f4 47bf 1446 3e3f
00000020: b63e 89bf ddc6 243e 274b 9a3d 8155 23be
00000030: dfbf 043f 521d 523f b010 66be 8fbb 6c3f
00000040: 7037 debe 8f8a 6ebf 703b acbf ffb9 f03e
00000050: 87f0 2fbf 1f84 ec3e 93e4 84bf 389c c33d
00000060: 1f64 553d 3913 acbf f966 7fbf 72bd 90be
00000070: 3733 de3e 5ccb 98be 4105 aa3c ca72 903f
00000080: a7d1 b7bf 784b 4c3f d02e f3be b241 343c
00000090: d80a 0abe 81eb 98be 127b 1dbf 58c8 a23d
000000a0: e401 023f 0280 8ebe 6a09 a53b 0a5a e23e
000000b0: 5deb 143f 717c b2bf cc00 473e 22db 793f
000000c0: 59b0 153f d073 0a3f 8453 473b 0328 cf3e
000000d0: 341a 6c3f eb12 9c3b 139f 3fbf f337 29bf
000000e0: 6d3b 0b3f ac5e ac3e 3c66 3fbf 1a7c 09bf
000000f0: 6323 6cbe b44c 64be 6bc8 a53e 1c71 aabf
1.278883 -0.6814062 -0.6057852 0.7406874 0.4553513 0.24204397 -0.7810703 0.7432568
-1.0722263 0.16091485 0.075338654 -0.15950586 0.5185527 0.8207599 -0.22467303 0.9247369
-0.4340167 -0.93180174 -1.3455639 0.47016904 -0.6872639 0.4619455 -1.0382255 0.09551281
0.052097436 -1.3443366 -0.997665 -0.28269535 0.4339845 -0.2984265 0.020754458 1.1285031
-1.4360856 0.79802656 -0.47496653 0.011001991 -0.13480699 -0.29867175 -0.61515915 0.07948369
0.50784135 -0.27832037 0.0050365226 0.4420932 0.58171636 -1.3944227 0.19433898 0.97599995
0.5847221 0.54082966 0.003041477 0.40460214 0.9222748 0.0047629974 -0.74852103 -0.66100997
0.5438755 0.3366598 -0.7476537 -0.5370499 -0.23060374 -0.22294885 0.3237947 -1.3315768

tree_conv.9.running_mean f4 [64]
00000000: 5c73 083f 3883 8040 9809 5e3e 0f44 2b40
00000010: 9809 5e3e 9809 5e3e 4cc0 6640 9809 5e3e
00000020: 7939 9640 ad5c 5040 bcda ae3f 6a5b e940
00000030: 9809 5e3e fdfb 8940 b40e 5e3e c287 5c40
00000040: 952a 3840 12be a940 86c4 9f40 9809 5e3e
00000050: 915c 6a40 a61c 5c40 3bf2 b040 6264 e23e
00000060: 9809 5e3e bc55 bd3f f16d 7840 b634 0b40
00000070: 9fc4 6840 64af 4740 e993 7b40 447e 6b40
00000080: f495 c340 7fda 1540 9809 5e3e 8a4c 9640
00000090: 9809 5e3e 9809 5e3e 5ae4 9040 b3a3 4b40
000000a0: e195 6b40 0252 a140 bdc0 ae3f 7e51 973f
000000b0: 19e5 7b40 0c99 a640 9038 7e40 3a59 2e40
000000c0: 9809 5e3e 84be 7f3f 8435 0141 9809 5e3e
000000d0: bad4 303f 93f6 9340 9809 5e3e e89b be40
000000e0: 9809 5e3e 1964 733e d021 9e40 715c a940
000000f0: 3533 1b3f 8b13 dd3e afb2 6e40 9809 5e3e
0.53301024 4.016018 0.21683347 2.676029 0.21683347 0.21683347 3.6054869 0.21683347
4.6945157 3.2556565 1.3660502 7.292409 0.21683347 4.3120103 0.21685296 3.445786
2.877599 5.304452 4.9927397 0.21683347 3.6618998 3.4392486 5.529569 0.4421721
0.21683347 1.4791789 3.8817103 2.1750922 3.6370008 3.12008 3.9309027 3.6795816
6.112055 2.341461 0.21683347 4.696843 0.21683347 0.21683347 4.527875 3.1818664
3.681023 5.0412607 1.3652569 1.1821744 3.935858 5.2061825 3.9722023 2.724196
0.21683347 0.9990008 8.075565 0.21683347 0.69074595 4.6238494 0.21683347 5.9565315
0.21683347 0.23768653 4.9416275 5.2925344 0.6062501 0.43178973 3.729656 0.21683347

tree_conv.9.running_var f4 [64]
00000000: 3896 ba3e 224a 0740 61d9 603b d761 373f
00000010: 61d9 603b 61d9 603b e16c 2c3f 61d9 603b
00000020: 2515 3340 9313 6f3f 4df6 ca3f d2e6 4d40
00000030: 61d9 603b 41e8 b440 7a0b 613b 2962 3640
00000040: 8919 1d3f 2926 4440 c22e 1040 61d9 603b
00000050: bedd ed3f e372 873f 813b 0840 de46 263c
00000060: 61d9 603b 3f65 9b3e 40e2 dd3f 8e3e 2040
00000070: 4c4b 4340 1f70 2c40 a4d2 7b3f adac 8f3f
00000080: 13cb 4e40 f1cc 8b3f 61d9 603b f869 c43f
00000090: 62d9 603b 61d9 603b fec4 be3f d47b 0840
000000a0: 08a6 7b40 e1ee 9f3f 6686 463f 7a95 e03e
000000b0: e190 893f 76d3 0c40 1fbb 8f3f bc5c ac3f
000000c0: 61d9 603b 0b42 963e 0b4e 7940 61d9 603b
000000d0: 3dd4 543f 9cc5 c03f 61d9 603b e128 1740
000000e0: 61d9 603b 8c1d 4d3c 25f0 1940 30b2 f33f
000000f0: 99e3 9a3c 41f7 c23e fd26 5140 61d9 603b
0.36442733 2.1138997 0.0034309255 0.71633667 0.0034309255 0.0034309255 0.67353636 0.0034309255
2.7981656 0.9338924 1.5856415 3.2172132 0.0034309255 5.6533513 0.0034339116 2.8497412
0.6136709 3.064829 2.2528539 0.0034309255 1.8583295 1.0581936 2.1286318 0.010148732
0.0034309255 0.30350682 1.7334671 2.503818 3.0514708 2.6943433 0.9836829 1.1224571
3.2311447 1.0921918 0.0034309255 1.5344839 0.0034309258 0.0034309255 1.4903867 2.1325579
3.9320087 1.2494775 0.77548826 0.43864042 1.0747339 2.2004066 1.122898 1.34658
0.0034309255 0.29347262 3.8953884 0.0034309255 0.8313635 1.5060306 0.0034309255 2.36187
0.0034309255 0.012519252 2.4052823 1.9038754 0.018907355 0.38079265 3.2680047 0.0034309255

tree_conv.10.weight f4 [32, 64]
00000000: 8365 dfbe c40c 15bf e200 ed3e a2d3 0b3e
00000010: a6b3 7dbd a02e 5ebd 898e 8c3e e0fd 1cbe
00000020: e2b8 d43e acad a0be bec1 543e c62c 0b3e
00000030: e6a4 ad3d 78ab babe 0661 b6be 608f eabd
00000040: 7f7f 7c3e 2550 9e3e 24de e13e 7063 9bbc
00000050: 2f2f d43e eb2b 41be 6ee8 24bf 84fc c13d
00000060: 310e 4e3e 3112 dd3d b606 be3e 1178 4ebd
00000070: 6106 c23e 06c4 aa3e a0c2 883e 216e f6be
00000080: b720 903e 723e 7dbe 3c50 153e 841d 49be
00000090: d4a0 25be cd2a 9c3e 7d60 4cbe 9b15 6a3e
000000a0: 76ab 063f cb32 7dbe b338 be3d 498b 49bd
000000b0: 91c2 8bbe 5665 cf3e 7cc5 c3bd 9f79 c6be
000000c0: dc64 c73d ea41 223e 7964 91be fbd3 613d
000000d0: 79d4 ab3e bca3 bcbe 462f 323e ad45 213e
000000e0: c481 a3be fa2c 68bb 8902 83be fa64 f83e
000000f0: 5d03 3f3e b350 a03e c037 25be 00dc eb3e
00000100: 9931 dfbd e5f8 90bd c354 7bbd d5c0 27bd
00000110: 6b0f f53d 8f6d b4be f143 d13e 14e2 be3e
00000120: 43cf 0e3e 240d 35bd 0849 0a3f 4fef 393d
00000130: e422 1d3e d624 6b3e 64be 333e d34a e53d
00000140: 585a 073e 455e 923d b909 2b3d 1e14 e4be
00000150: 5794 2f3e 80c0 873d eb87 c63e e19d 2c3d
00000160: 0d67 54be 7fc0 e03e 5083 e03e 000b c73e
00000170: abc9 41be 3bd4 013e c2df a13e 9184 fbbe
00000180: 98a0 06be 16ab f5bd 7d10 aabe b7da 80be
00000190: 5f88 fb3d 69ff b7be dff7 df3d 6666 aa3e
000001a0: 6b20 b1be 4422 143e 3fb9 20be 84b0 d3bd
000001b0: 6503 1fbe 0958 5cbc cae1 73bd 137a 0bbb
000001c0: 0e78 c2be dce3 1ebe 96b0 a13d 1f90 86be
000001d0: d5d7 8fbd a2c2 abbd 3fe0 4cbe 2165 ba3e
000001e0: e245 0ebf 6649 283b 3ea5 5d3e d259 92be
000001f0: 0217 c3be 1c00 00be d713 7fbd f062 9cbd
00000200: 5f44 c3be 5224 cfbd f2aa 52be bc40 5abe
00000210: 1614 97be bcf2 10bf 3347 ac3d 09d4 94bd
00000220: 1634 d2bd 0b2e 8ebe 38a9 113e c39d 65bd
00000230: 2634 f2bd dd35 683d 309c 0e3e 1318 bb3d
00000240: 3c83 99bd 937f 6c3e 5ea0 3f3e cadb d5be
00000250: e278 c7bd cf04 8dbe f159 3d3e 0134 cabe
00000260: 3a41 e2be 6d24 a83e f200 f93d d36b 02be
00000270: 85b2 15be d797 d23e 2b8e 82bd 51eb fc3d
00000280: 0a3c b63d 30fe 1dbe ffbc f8be cafa 5bbe
00000290: 0d98 613e 8734 86bd 919c 5d3e ba8a a4be
000002a0: 77cc 2f3b ef09 603e a872 9abb db35 0bbc
000002b0: 14a3 adbe f705 bd3e 40a0 a6bd 7525 31be
000002c0: f240 acbe ea2a 8cbe 3a7d a53c b4bb dabe
000002d0: f9eb 92be 15b9 333e 0fd9 53be 43a5 c2bd
000002e0: 1515 11bf e6eb 243c 2af7 a3bd d589 e1bd
000002f0: 283b 05bf aee9 d2be 1233 86bc 5829 ab3d
00000300: 30be 2a3e a003 103f 4bad 523e afeb 6bbe
00000310: 3ce1 8f3e 5b92 8b3d 5c37 afbd a50f 02bf
00000320: c5da 0b3f 6dc0 fcbe 9514 163f 1ce8 18bf
00000330: 7de1 83be c74d 85bd 9919 bc3d ea80 a7be
00000340: fc8c 573e d0b3 593e 4519 943d 9ca3 333c
00000350: 4772 7cbe fc27 e93d 106a 0c3f 23a0 1b3d
00000360: 48aa 333d 5072 c53e 4532 11be 1fed c43d
00000370: a5ad 6c3e 7da0 603d 2ac7 92be 34ff cabe
00000380: 7c97 873e 5cec 60bd 0339 423f 380d 97be
00000390: 8156 d4be 1e46 2e3e 051e 13be 43bb 9f3e
000003a0: 3de7 aa3d b483 8abe ca32 0bbf d49b 9f3d
000003b0: 684d 5dbe f862 9c3e 37c9 e8bc 8ef7 21be
000003c0: da8b babd f54d b4be 0496 623e bc9a 9ebe
000003d0: 6db6 14be d3d6 24bf f4ab 023f a63b 2ebc
000003e0: 9533 4e3e 5840 a93e 5b63 833c eaf4 c0bd
000003f0: 44de d03e eb74 1d3f d014 753d a907 213f
-0.43632135 -0.58222604 0.46289736 0.1365495 -0.061938904 -0.054243684 0.27452496 -0.1533122
0.41547304 -0.313825 0.20777032 0.13591298 0.084787175 -0.36458945 -0.35620898 -0.11453128
0.24658011 0.3092052 0.44114792 -0.018968314 0.41442248 -0.1886441 -0.6441716 0.09471992
0.20122601 0.10794485 0.37114495 -0.050407473 0.37895492 0.3335268 0.26710987 -0.48130897
0.2814996 -0.24730852 0.14581388 -0.19640166 -0.16174632 0.30501404 -0.19958682 0.22859804
0.5260538 -0.24726407 0.09288158 -0.0492051 -0.2729688 0.40507 -0.095591515 -0.38764665
0.09736034 0.15845457 -0.28396967 0.0551338 0.3356054 -0.3684367 0.17400846 0.15749235
-0.3193494 -0.0035427199 -0.25587872 0.4851454 0.18653627 0.3131157 -0.16134548 0.46066284
-0.10898132 -0.07078723 -0.061360132 -0.040955383 0.11965831 -0.35239837 0.40872148 0.3728186
0.13946252 -0.044201985 0.54017687 0.045394238 0.15345341 0.2296327 0.17553097 0.11195912
0.13218057 0.07146887 0.04175732 -0.44546598 0.17146431 0.06628513 0.38775572 0.042142753
-0.20742436 0.43896863 0.43850183 0.3887558 -0.18924586 0.12678616 0.31616026 -0.49124578
-0.13147199 -0.11995523 -0.33215705 -0.25166866 0.1228187 -0.3593705 0.109359495 0.3328125
-0.34595045 0.14466196 -0.15695666 -0.10336402 -0.15528639 -0.013448724 -0.0595415 -0.0021282479
-0.3798222 -0.15516609 0.07895009 -0.2628183 -0.070235886 -0.08386733 -0.20007418 0.3640528
-0.5557538 0.0025678515 0.21645066 -0.28584152 -0.3810349 -0.12500042 -0.06227478 -0.07636058
-0.381381 -0.101143494 -0.20573023 -0.21313757 -0.29507512 -0.56620383 0.08412018 -0.07267005
-0.10263841 -0.27769503 0.14224708 -0.056058656 -0.11826353 0.056691993 0.13926768 0.09135451
-0.07495734 0.2309554 0.18713519 -0.41769248 -0.097398534 -0.2754273 0.18491341 -0.394928
-0.4419039 0.3284029 0.121583834 -0.12736444 -0.14618881 0.4113147 -0.06374773 0.123495705
0.0889817 -0.15428996 -0.48581693 -0.21482387 0.22030659 -0.065529875 0.21641757 -0.3213709
0.0026824751 0.2187879 -0.004713375 -0.008496727 -0.3391348 0.36918613 -0.08136034 -0.17299445
-0.336433 -0.2737649 0.020201314 -0.4272133 -0.28695658 0.17551072 -0.2068827 -0.095041774
-0.56672794 0.010066008 -0.08006127 -0.110126175 -0.5204339 -0.41193908 -0.016381774 0.08357495
0.16674113 0.5625553 0.20573919 -0.23039125 0.28101528 0.068150245 -0.08555481 -0.5080512
0.5463069 -0.4936556 0.58625156 -0.5972917 -0.2575797 -0.065089755 0.0918457 -0.3271554
0.21049875 0.2126 0.07231382 0.0109643005 -0.24652968 0.113845795 0.5484934 0.037994515
0.043863565 0.38563776 -0.14179333 0.0961554 0.23113115 0.054840554 -0.28667575 -0.3964783
0.2648276 -0.05491291 0.7586824 -0.29502273 -0.41472247 0.17018935 -0.1436692 0.31197557
0.083448865 -0.27053607 -0.5437437 0.07793394 -0.2161156 0.30544257 -0.02841626 -0.15817091
-0.09108706 -0.35215726 0.22127539 -0.30977428 -0.14522715 -0.64390296 0.5104363 -0.0106343385
0.20136864 0.33056903 0.016038587 -0.09421714 0.40794575 0.6150653 0.0598343 0.62902313

tree_conv.10.bias f4 [32]
00000000: 01b4 fabe 4044 98be 024b dbbe 2cc8 22bf
00000010: 2692 3bbf c343 c1be 5308 3dbf bb8a 69be
00000020: 50eb 37bf ac0b 15bf 7521 22bf 8f3f 58bf
00000030: ea35 04bf 5505 c73d 32d5 21bf a5ed c43b
00000040: cb50 46bf 5d13 49bf 403d 4f3e 6d3b 8cbf
00000050: 8f83 98be 0c24 8fbe b860 18bf c22d b63c
00000060: 4a44 31be b692 11bf fb85 07bf c608 cabe
00000070: 99d4 c1be 141a aebe 8cca 8ebe 8bed 9b3c
-0.48965457 -0.2973957 -0.42830664 -0.6358669 -0.7326988 -0.3774701 -0.73840827 -0.22806828
-0.71843433 -0.58220935 -0.633323 -0.8447198 -0.51644766 0.09717814 -0.63215935 0.0060097747
-0.7746703 -0.7854517 0.20238209 -1.0955635 -0.2978787 -0.2795719 -0.5952258 0.022238616
-0.17311206 -0.5686449 -0.5293881 -0.3945982 -0.37857512 -0.3400427 -0.27888906 0.019034168

tree_conv.13.weight f4 [1, 32]
00000000: 60e6 f9bc c9ee 043c 38fd 393c 84d4 5cbd
00000010: 0221 30be 39fe a23d 8e67 3a3e 1c93 853d
00000020: d120 983d cd13 11be 6fdd 8f3e c913 c3bd
00000030: bb5e 8dbd 91fc 75bd 5f47 c33e 86f2 743d
00000040: c3c5 e73d 4e4e e43d a45c 28bd 50e0 863e
00000050: 00c4 60be b1cd 70be 20ab e63c 8149 d03d
00000060: 237c 213d 0038 6bbe 4df6 c13c 432f 8abd
00000070: 1413 94be db90 aabd 939d 8dbc 831a 92bc
-0.03050536 0.008113571 0.011351876 -0.05391361 -0.17200091 0.079586454 0.18203565 0.065221995
0.07428134 -0.1416771 0.28098628 -0.09525258 -0.06902834 -0.06005532 0.3814039 0.0598016
0.11317017 0.11147748 -0.041103974 0.26343012 -0.21949768 -0.23515965 0.02815777 0.1017027
0.039425027 -0.22970581 0.023677016 -0.06747296 -0.28920805 -0.0832841 -0.017287051 -0.017834907
