src/Models/pairwise2.onnx (onnx, 702291 bytes, 13 tensors)

tree_conv.0.weights.weight f4 [256, 50, 3]
0	0x3d452583	0.048131477
1	0xbd367b72	-0.04455132
2	0xbcd2b4f9	-0.02572106
3	0xbafa4c5e	-0.0019096246
4	0x3d943219	0.07236118
5	0x3d67dcea	0.056607164
6	0x42a7ee1b	83.96505
7	0xc2025688	-32.584503
8	0xc07b1ec1	-3.923752
9	0x3c9f0751	0.019412668
10	0x3d577ea8	0.052611023
11	0x3d41129f	0.0471369
12	0xbbfb71a7	-0.0076734605
13	0x3cd88dea	0.026434857
14	0xbcb90185	-0.022583732
15	0x3d9701a5	0.073733605
16	0x3d1c435a	0.03815017
17	0x3c125d7b	0.00893342
18	0x3da31342	0.079626575
19	0x3d22dd64	0.039761916
20	0x3bd52acc	0.006505346
21	0xc13e81eb	-11.906718
22	0x40f924c4	7.785738
23	0xbfc139db	-1.5095781
24	0xbd52050f	-0.051274356
25	0x3cac87e5	0.021060893
26	0x3d8b62f1	0.06805981
27	0x3ca05cc1	0.019575479
28	0x3b401f4e	0.0029315534
29	0xbd2f157b	-0.042745095
30	0xc1e200ac	-28.250328
31	0xc0f30bf1	-7.5952077
32	0xc01f8d76	-2.493009
33	0xbc2a546e	-0.010396106
34	0x3d956f35	0.07296602
35	0xbda253be	-0.07926129
36	0xbb9e22cd	-0.004825926
37	0x3d80361a	0.06260319
38	0xbd4bb6ab	-0.049734753
39	0xc13b3451	-11.700273
40	0x3fd7dfe1	1.6865197
41	0xbc7df27b	-0.015499706
42	0xbcb0a9f4	-0.021565415
43	0xbd2f2535	-0.042760093
44	0x3c519208	0.012791164
45	0xbd657b32	-0.05602569
46	0x3d1012e6	0.035174273
47	0x3cb53b8b	0.022123119
48	0x411dd020	9.863312
49	0x3d530241	0.05151582
50	0x3d41e6c7	0.047339227
51	0xbd803a91	-0.06261171
52	0xbcdac77c	-0.02670645
53	0x3d822c76	0.063561365
54	0xc20de854	-35.476883
55	0x4140662c	12.024944
56	0xc1088c28	-8.534218
57	0xbff8a410	-1.9425068
58	0x40a50e89	5.1580243
59	0xbd916552	-0.070994034
60	0xbd2609d0	-0.0405367
61	0x3d542e3e	0.051801912
62	0x3d8657de	0.06559728
63	0xbb9240c7	-0.0044632885
64	0x3d8f13fb	0.06986233
65	0x3cfa30d5	0.030540863
66	0x3c566e75	0.013087858
67	0xbd802825	-0.06257657
68	0x3d5af01b	0.05345164
69	0xbd816508	-0.06318098
70	0xbd271c4d	-0.040798474
71	0x3c9a221e	0.018815096
72	0x3cb61291	0.02222565
73	0xbd0d8f39	-0.034560416
74	0xbd93f0bc	-0.07223651
75	0xc191a381	-18.204836
76	0x418cc4c0	17.59607
77	0xbe680315	-0.22657426
78	0xbd8d7bb9	-0.06908364
79	0x3c9a2491	0.018816264
80	0x3cdbeb57	0.026845617
81	0x3d291d21	0.041287545
82	0xbda27b04	-0.079336196
83	0x3da0f7c4	0.078597575
84	0xbd652e19	-0.055952165
85	0xbd604e3d	-0.054762114
86	0xbc331473	-0.010930168
87	0xc1e4081e	-28.503963
88	0xc17515da	-15.317835
89	0xbd979821	-0.07402063
90	0xbd2aafaf	-0.04167145
91	0xbd8e8299	-0.06958503
92	0x3d89868f	0.06715118
93	0x3d11c8b1	0.035591785
94	0xbce99cbe	-0.028517123
95	0x3c861e17	0.01637177
96	0x405b97a5	3.4311306
97	0x40673378	3.6125164
98	0xbd61a998	-0.055093378
99	0x3d681500	0.056660652
100	0x3d68d385	0.056842346
101	0x3cc71e99	0.024306582
102	0xbd0cf9d3	-0.03441794
103	0xbd334ae8	-0.043772608
104	0x3d0a8cf0	0.033825815
105	0x3cc92b09	0.024556654
106	0x3d8b8dcb	0.06814154
107	0x3cb20a5f	0.021733461
108	0x3cd97b94	0.026548184
109	0x3c83530b	0.016030809
110	0xbda0516b	-0.07828029
111	0x3d946509	0.072458334
112	0xbd553b38	-0.05205843
113	0xbae0a90b	-0.0017140222
114	0x42576c15	53.85555
115	0x41faa893	31.332312
116	0x40236bbd	2.5534508
117	0x40697dd0	3.648304
118	0xbd42fb2a	-0.04760281
119	0xc046a52b	-3.103831
120	0x42014245	32.314716
121	0x411cc7e5	9.798802
122	0xc05dbe41	-3.4647372
123	0xbcecaf12	-0.028892074
124	0x3c66b772	0.014081823
125	0xbd96252f	-0.07331311
126	0x42bff625	95.98075
127	0x42bc2ff9	94.0937
128	0x40f84847	7.758823
129	0x3d4847f5	0.04889675
130	0x3c965af0	0.01835391
131	0xbd20f615	-0.039297182
132	0x3cf2ea77	0.029652817
133	0x3d0df2fd	0.03465556
134	0x3da23cd4	0.07921758
135	0xc2cbcb36	-101.8969
136	0xc2a51ed4	-82.56021
137	0xc16e6811	-14.900407
138	0x3d6c86d6	0.057745777
139	0x3c52d953	0.012869197
140	0xbcd1407c	-0.025543444
141	0xc1b14afe	-22.161617
142	0x405eb0e5	3.4795468
143	0xc13f1a18	-11.943871
144	0x3cdf03a8	0.027223423
145	0xbcb03007	-0.021507276
146	0xbd91472b	-0.07093652
147	0xbd4d13dc	-0.050067768
148	0x3d0f546a	0.034992613
149	0x3d977d3d	0.07396934
150	0xbd603775	-0.054740388
151	0x3d51d3e2	0.051227458
152	0xbd953c55	-0.07286898
153	0x3ba86a35	0.005139614
154	0xbc86bf7e	-0.016448732
155	0x3ca3c29c	0.019990258
156	0x429b62bd	77.69285
157	0xc24d4519	-51.31748
158	0xc05160c9	-3.2715323
159	0x3d975de1	0.07390953
160	0x3b740e28	0.0037239883
161	0x3cbabaeb	0.022794208
162	0xbcef05ba	-0.029177535
163	0x3d9cc4f1	0.07654751
164	0xbd98f2b6	-0.074681684
165	0x3d8bcfaa	0.06826718
166	0xbd91875b	-0.07105895
167	0x3d82c78a	0.06385715
168	0xbc96e021	-0.01841742
169	0x3ca8200c	0.020523094
170	0xbd311313	-0.04323108
171	0xc122921e	-10.160673
172	0x4121f60c	10.12257
173	0xbf24ea09	-0.6441961
174	0x3d735a87	0.059412505
175	0x3d3a89f5	0.045541722
176	0xbd9116c6	-0.07084422
177	0x39b87105	0.0003517942
178	0x3c2302f0	0.009949431
179	0xbc93e990	-0.018055707
180	0xc1f35ce3	-30.420355
181	0xc0e28987	-7.079288
182	0xbff651dd	-1.9243733
183	0xbd2916db	-0.041281562
184	0x3d50ac4d	0.05094557
185	0x3c65bfb9	0.014022761
186	0x3c654044	0.013992373
187	0x3d4b3b12	0.04961688
188	0xbc048784	-0.00808895
189	0xc10956ff	-8.583739
190	0x40a79c6d	5.237845
191	0x3ce09682	0.027415518
192	0xbd8f9235	-0.07010309
193	0xbd43fde4	-0.04784955
194	0xbd873f27	-0.06603842
195	0xbd213d02	-0.039364822
196	0x3d8d1e0d	0.06890497
197	0x3d83849a	0.06421776
198	0x4173d5a1	15.2396555
199	0xbd8e4f53	-0.06948724
200	0xbd9dac9b	-0.076989375
201	0xbd5201c8	-0.05127123
202	0x3ca3fcb4	0.02001796
203	0x3d007345	0.03135993
204	0xc1d969c5	-27.176645
205	0x418b1add	17.388117
206	0xc0c039f3	-6.007074
207	0x3f18f65a	0.597509
208	0x40e62f24	7.1932545
209	0x3c86bb25	0.01644666
210	0xbd879baf	-0.06621491
211	0x3d979422	0.07401301
212	0x3c99b390	0.01876238
213	0xbcba94f8	-0.022776112
214	0x3cd58839	0.026065933
215	0x3d4ec5c8	0.050481588
216	0xbd57b761	-0.052665118
217	0xbcb416aa	-0.021983463
218	0x3ca3d30b	0.019998094
219	0x3cefae99	0.02925806
220	0xbd89ebd6	-0.06734435
221	0xbd364526	-0.04449954
222	0x3ba5e96b	0.005063226
223	0xbd83c589	-0.06434161
224	0xbd9b3c2a	-0.07579835
225	0xc1483769	-12.513528
226	0x41ba3e62	23.28046
227	0x3e94a926	0.290353
228	0x3d56cd2e	0.05244177
229	0xbd032fc3	-0.03202797
230	0x3b935515	0.0044962266
231	0x3d721c03	0.059108745
232	0x3d20633d	0.03915714
233	0x3cee7bdc	0.029111795
234	0xbd8e962a	-0.06962235
235	0x3d8a0a92	0.067402974
236	0x3cf0b815	0.029384652
237	0xc1d2470d	-26.284693
238	0xc1089ea2	-8.538729
239	0xbd8c8e95	-0.06863133
240	0x3d7049cb	0.058664124
241	0x3d8b421f	0.06799721
242	0x3da3397d	0.079699494
243	0x3cb472bf	0.022027371
244	0xbcb34808	-0.021884933
245	0x3d81aa2d	0.063312866
246	0x40e7861b	7.2351203
247	0x414c183d	12.755918
248	0xbd67d023	-0.05659498
249	0xbd025b28	-0.031825215
250	0x3c02da1f	0.007986574
251	0x3d3d5ce0	0.04623115
252	0xbd5146ef	-0.05109304
253	0x3d5d7923	0.054070603
254	0x3d91182e	0.0708469
255	0xbd337048	-0.04380825

tree_conv.0.weights.bias f4 [256]
0	0x400cc1d3	2.19933
1	0x4019e8f2	2.4048429
2	0x40840b38	4.1263695
3	0x3faeb1ca	1.3648007
4	0x4097d7d5	4.7450967
5	0x41029884	8.162235
6	0x4097a3d6	4.7387495
7	0x40a219a5	5.0656304
8	0xc0a56b4e	-5.1693487
9	0xbfff62ef	-1.9952067
10	0xc04e1ad0	-3.2203865
11	0x3edc9185	0.43079773
12	0x407190c3	3.7744606
13	0x40d0d57e	6.526061
14	0x3fad8f42	1.3559344
15	0xbf2da1a6	-0.6782478
16	0xc0453e54	-3.0819292
17	0xc05aecb8	-3.4206982
18	0x40cd0ec7	6.408054
19	0x40133288	2.2999592
20	0x3ef380be	0.4755916
21	0xc097274c	-4.723547
22	0x4092512c	4.5724087
23	0xbe8c8c7c	-0.2745093
24	0x40002efc	2.0028677
25	0x3faacbed	1.3343483
26	0xbf83c9d6	-1.029597
27	0xc05f152d	-3.4856675
28	0xbf0a4798	-0.54015493
29	0x405a0b73	3.4069488
30	0x40c42d27	6.1305118
31	0x3f4e51cb	0.80593556
32	0xbf276663	-0.65390605
33	0x40c5945f	6.1743617
34	0x40f48b81	7.6420293
35	0x4093a558	4.6139336
36	0x40839981	4.1124883
37	0x40cc1d14	6.3785496
38	0x40365347	2.8488328
39	0x4091de43	4.5583816
40	0x40bce4ff	5.9029536
41	0x4055c076	3.339872
42	0x4003ea05	2.0611584
43	0x4028e6ee	2.6390948
44	0x3e304b33	0.17216186
45	0x403f70a5	2.9912503
46	0x3fafc4d7	1.3731946
47	0x411035c8	9.01313
48	0xc0aee079	-5.4649014
49	0x411990b1	9.597825
50	0x40a76120	5.230606
51	0xbfcbb28d	-1.5913864
52	0x4098d24f	4.7756724
53	0x40c14f32	6.0409174
54	0x3fd0a6fc	1.630096
55	0x412fc56b	10.985698
56	0x409aa4c6	4.832614
57	0x41334164	11.2034645
58	0x3faa6a88	1.3313761
59	0xc058859f	-3.3831556
60	0x40cd6ef0	6.419792
61	0x40592d9a	3.3934083
62	0x40535e51	3.3026316
63	0x408b9015	4.361338
64	0x40e60b9e	7.188918
65	0x3eb6ffb6	0.35741967
66	0xc03b963e	-2.931045
67	0x41031d55	8.194661
68	0x410eb499	8.919091
69	0x40b04a77	5.50909
70	0x40944863	4.6338363
71	0xbf96fc95	-1.1795832
72	0x3fa27a8e	1.2693651
73	0xc05fcacf	-3.4967535
74	0x405c1c63	3.4392326
75	0x40fc39cf	7.8820567
76	0xc027a9ee	-2.6197467
77	0x3ec6b339	0.3880861
78	0x40ae5d43	5.4488845
79	0x40e549f7	7.165279
80	0x411777a7	9.466712
81	0x40d6c7b8	6.7118797
82	0x40bf6388	5.9809
83	0x4071f8a9	3.780802
84	0x3f119af9	0.56877095
85	0xbeae00ae	-0.33984894
86	0x3fd9a6a6	1.7003982
87	0xc0988fb6	-4.767543
88	0x40205e11	2.5057414
89	0x409c983a	4.8935823
90	0x4027734d	2.6164124
91	0xbffe7deb	-1.9882177
92	0x40e7eebf	7.247894
93	0xbea3ddb9	-0.32005098
94	0x3fd2cd7e	1.6468961
95	0x4082a8e0	4.0831146
96	0x40af3119	5.4747434
97	0x4023c6f9	2.5590193
98	0x4003bad6	2.0582786
99	0x4102f673	8.185168
100	0x40928ff7	4.580074
101	0xbf8a0580	-1.0782928
102	0x40f25837	7.5732684
103	0x40f7bc40	7.7417297
104	0x40e54eb0	7.1658554
105	0x3f36beb8	0.71384764
106	0x3efb885a	0.49127465
107	0x408da772	4.42669
108	0x409f06d2	4.9695826
109	0xc08952b5	-4.291346
110	0x40c9e222	6.308854
111	0xc08b8a09	-4.3606
112	0x40a32fc9	5.099583
113	0x3f764870	0.9620428
114	0x412c645d	10.774503
115	0xc00a628e	-2.1622653
116	0x411c5c89	9.772592
117	0x3f0fe0a2	0.5620214
118	0x402b997a	2.6812425
119	0xc0454770	-3.0824852
120	0x407b787d	3.929229
121	0xbfaa7254	-1.331614
122	0x4086e3a0	4.2152863
123	0x3fe1c8bb	1.7639383
124	0x3e608cdd	0.21928735
125	0x40845129	4.1349072
126	0xc01bd0b1	-2.4346125
127	0xbf80a7bb	-1.0051187
128	0x40a4c6f9	5.1492887
129	0xc0d88f7b	-6.7675147
130	0xc09616ec	-4.690298
131	0x3f8a1d30	1.0790157
132	0x4108d829	8.552773
133	0x3e9f1866	0.31073302
134	0x40b7d796	5.7450666
135	0x3fe7f46d	1.8121468
136	0xc0266f6c	-2.6005507
137	0x3f4c2b28	0.7975335
138	0xbf57a843	-0.8424112
139	0xc057456e	-3.3636127
140	0x40944276	4.633113
141	0x3fe5e47b	1.7960352
142	0x40505b38	3.2555676
143	0x40e6d508	7.213505
144	0x407a0370	3.9064598
145	0x40bdb5a1	5.9284215
146	0xc001e24c	-2.029437
147	0x4094a3ac	4.6449795
148	0xbe1fb2a8	-0.15595496
149	0x4085594c	4.1671505
150	0x3f92abfa	1.1458733
151	0x406b64cf	3.6780279
152	0x41232c9a	10.198389
153	0xc024f86f	-2.5776632
154	0x4100295f	8.0101
155	0x3f121920	0.5706959
156	0x3fb21508	1.3912668
157	0x3ff4c3d8	1.9122267
158	0x40edaa92	7.4270716
159	0x4069a1e6	3.6505065
160	0x408e28a7	4.4424624
161	0xbe49e3f0	-0.19715858
162	0xbfdb42c1	-1.7129747
163	0x3f8abc1c	1.0838656
164	0x408e60e3	4.449327
165	0x40d6251a	6.692029
166	0xbfb0ec68	-1.3822145
167	0x407e6e99	3.9755003
168	0x4015fca6	2.3435454
169	0xbfce0f30	-1.6098385
170	0x409a8fc2	4.8300486
171	0x40b50d58	5.657879
172	0x40a9c60b	5.305425
173	0x40f89cdf	7.7691493
174	0x40a0ba2e	5.022727
175	0x41336f4a	11.21467
176	0x40eaac68	7.3335457
177	0x40129a4b	2.2906673
178	0xbf484164	-0.7822478
179	0x40918567	4.5475345
180	0x4092744d	4.576697
181	0x411eab49	9.916818
182	0x4025b831	2.5893672
183	0x400011d1	2.0010874
184	0x4109859f	8.595122
185	0x40877ec5	4.234225
186	0x40cdd844	6.4326496
187	0x409c2ec0	4.880707
188	0x40876ebb	4.232267
189	0x4087f992	4.249215
190	0x3e7f12c8	0.24909508
191	0x403bc533	2.933911
192	0x409c30eb	4.8809714
193	0x40017fed	2.023433
194	0x40dda423	6.926286
195	0x4040ec18	3.01441
196	0x405b0b57	3.4225671
197	0x406b55a2	3.6771016
198	0xbfa2836e	-1.2696359
199	0xc0581261	-3.3761218
200	0x40e64d6a	7.19695
201	0x40b92313	5.7855315
202	0xbe055ea5	-0.13024385
203	0x40f35ff9	7.6054654
204	0x411061d6	9.023886
205	0x3f8ecab7	1.1155614
206	0x40f81165	7.7521234
207	0x40a1f132	5.060693
208	0x405e49cc	3.4732542
209	0x3ea98465	0.33108822
210	0xc010dda6	-2.2635283
211	0x411f3419	9.950219
212	0x40d4374c	6.63175
213	0xc0910873	-4.5322814
214	0x4022f9eb	2.5465038
215	0xc054e0cf	-3.3262212
216	0xc04f3ae6	-3.2379699
217	0x3ffbb7df	1.9665488
218	0x40a08b60	5.0170135
219	0x40738780	3.8051453
220	0x40fb79fd	7.858641
221	0xc035c0c2	-2.83989
222	0x409e4426	4.945819
223	0x3f956c3a	1.1673653
224	0x4075781d	3.8354561
225	0x40dae182	6.840028
226	0x40f66777	7.70013
227	0x408ea111	4.4571614
228	0x40a64cd7	5.19688
229	0x4105d134	8.363575
230	0x3f528ce9	0.8224626
231	0x41133b93	9.2020445
232	0x40861a5d	4.190718
233	0x3f509637	0.8147921
234	0xc0144748	-2.3168507
235	0x3e90ae6b	0.2825807
236	0x409fbfa5	4.992144
237	0x3f681341	0.9065438
238	0x406847fa	3.629393
239	0x4090c203	4.523683
240	0xc088ec96	-4.27888
241	0xbfd046ba	-1.6271584
242	0x3ff3c535	1.9044558
243	0x4062d940	3.54451
244	0xbfc01e7e	-1.5009305
245	0x4075c217	3.8399713
246	0x407f3f29	3.98823
247	0x3e1028ad	0.14078017
248	0x409d3f76	4.9139967
249	0x40cfbe43	6.4919753
250	0xbecb41ac	-0.3969854
251	0xc09500a0	-4.6563263
252	0xc02df0c1	-2.7178195
253	0xbf68673b	-0.9078252
254	0x40afd32b	5.4945273
255	0x40a7c7d6	5.243144

tree_conv.3.weights.weight f4 [128, 256, 3]
0	0x3f4be7b9	0.79650456
1	0x3e669a52	0.22519806
2	0x3e7f3993	0.24924307
3	0x3dac12af	0.08402001
4	0x3e91d314	0.28481352
5	0x3e54d35b	0.2078375
6	0xbf9ce629	-1.2257739
7	0xbf117948	-0.56825686
8	0x3f17f206	0.59353673
9	0x3f1beee5	0.609114
10	0xbdca3889	-0.098740645
11	0xbe7e5366	-0.24836501
12	0xbf99fb26	-1.202977
13	0xbf2fd35d	-0.6868189
14	0x3f030a48	0.5118756
15	0x3fdf6dfb	1.7455438
16	0x3f9cd5cb	1.2252744
17	0x3f04e1f5	0.51907283
18	0x3f7fbe28	0.9989953
19	0x3ec16998	0.37775874
20	0x3eadb033	0.33923492
21	0xbeac6c77	-0.33676502
22	0x3e905d58	0.28196216
23	0x3f8229b3	1.0168976
24	0xbf471a85	-0.7777484
25	0xbf1a7018	-0.6032729
26	0xbdc301c4	-0.09521821
27	0xbfaca8d2	-1.348902
28	0xbf6ef20f	-0.933381
29	0x3e0c6b68	0.13712847
30	0xc08489cb	-4.1418204
31	0xbf75a455	-0.95953876
32	0x3eafa58a	0.34305984
33	0xc0020a5e	-2.0318828
34	0xbf201635	-0.62533885
35	0x3ef3c9f9	0.4761503
36	0x3f1e0760	0.61730003
37	0x3f63714f	0.8884477
38	0x3f6a464e	0.91513526
39	0xbdbcac8f	-0.092126004
40	0x3ec8b43c	0.39200008
41	0x3f13cd02	0.5773469
42	0xbfed8804	-1.8557134
43	0xbf5cd037	-0.8625521
44	0x3eef601f	0.46753022
45	0xbecd0960	-0.40046215
46	0x3d8282fe	0.06372641
47	0x3e27af81	0.16375543
48	0xbfbd2bd3	-1.4778999
49	0xbf2cd715	-0.6751569
50	0x3cb59107	0.022163881
51	0xbe8300d4	-0.2558657
52	0xbf3019e8	-0.6878953
53	0xbfbe51d9	-1.4868728
54	0x3f19f161	0.6013394
55	0x3e982e31	0.2972274
56	0x3efe803c	0.4970721
57	0xbeee5e5b	-0.46556363
58	0xbf83de9c	-1.030231
59	0x3e7a49e4	0.2444225
60	0x3b61266d	0.003435518
61	0xbf9e2e8b	-1.2357954
62	0x3e29e047	0.16589461
63	0xbf04a345	-0.5181163
64	0xbe91e9d0	-0.28498697
65	0xbecebadd	-0.4037694
66	0xbfb332a7	-1.3999833
67	0xbf2cd31e	-0.6750964
68	0x3ef7aca4	0.48373902
69	0xbea3841f	-0.31936738
70	0xbf026730	-0.509387
71	0x3e9717dd	0.29510394
72	0xbf9b6097	-1.2138852
73	0xbf07ac25	-0.52997047
74	0x3ecd94fc	0.4015273
75	0xbf9b461c	-1.2130771
76	0xbe53182f	-0.20614694
77	0x3eedb25b	0.46425137
78	0xbf9da610	-1.2316303
79	0xbf779682	-0.9671403
80	0x3e2ff22b	0.17182223
81	0xc0415e82	-3.0213933
82	0xc01d3128	-2.4561253
83	0x3ed79875	0.42108503
84	0xbf91e5b3	-1.1398224
85	0xbf6ed2f2	-0.93290627
86	0x3e9c8883	0.305729
87	0x3f218379	0.63091236
88	0x3f12fb7b	0.5741498
89	0x3ec4df78	0.38451743
90	0x3f916a4a	1.1360562
91	0x3f337e04	0.7011416
92	0x3ee82fc8	0.45348954
93	0xc0160004	-2.343751
94	0xbf28ed9c	-0.65987563
95	0x3ef28dd8	0.47373843
96	0xbf723039	-0.9460483
97	0xbeea8418	-0.45803905
98	0x3e3c7f41	0.18407919
99	0xbed8aaba	-0.42317754
100	0xbe6803b4	-0.22657663
101	0x3f044082	0.5166093
102	0x3e45718b	0.19281594
103	0x3e1b9e8b	0.15197198
104	0x3f1fc302	0.62406933
105	0x3ddc1a15	0.10747162
106	0x3f18b4ec	0.59651065
107	0x3f33042a	0.6992823
108	0xbf298ff9	-0.6623531
109	0xbea87694	-0.32902968
110	0x3f4b2b7c	0.79363227
111	0xbec0de72	-0.37669712
112	0x3e865621	0.26237586
113	0x3f900e56	1.1254375
114	0xbfa3226b	-1.2744879
115	0xbf1b051a	-0.6055466
116	0x3f0694d9	0.52570873
117	0x3f0801ae	0.53127563
118	0xbd3fb64c	-0.04680471
119	0x3ea27dd7	0.31736633
120	0x3f6d501f	0.9270038
121	0x3ec709c2	0.38874632
122	0x3efcaefa	0.49352247
123	0xbf5a08fa	-0.8516995
124	0xbdfa1a1c	-0.12212011
125	0x3f077ff4	0.52929616
126	0xbfe913e4	-1.8209195
127	0xbf3c6cca	-0.736035
128	0x3eee1922	0.4650355
129	0xbf317282	-0.6931535
130	0xbf5302d6	-0.824262
131	0x3e7766ec	0.24160355
132	0xc0086b2a	-2.1315408
133	0xbf3af76c	-0.73033786
134	0x3ee4c712	0.4468313
135	0xbf917be2	-1.1365931
136	0xbd1b0f17	-0.037856188
137	0x3fa6ac2b	1.3021291
138	0xbfe516ad	-1.7897545
139	0xbf5e0662	-0.8672849
140	0x3ed81f88	0.42211556
141	0x3fbd867f	1.480667
142	0x3f71f1f0	0.9450979
143	0x3f237fa1	0.6386662
144	0xc0114f88	-2.2704792
145	0xc014a4d8	-2.3225613
146	0x3edcbe98	0.43114161
147	0x3efe30f8	0.49646735
148	0x3e6b00b4	0.22949487
149	0x3f108049	0.5644575
150	0x3fdd8ba8	1.7308245
151	0x3ffec698	1.9904356
152	0x3f07e1ac	0.5307872
153	0xbfbd50b0	-1.4790249
154	0xbf02980e	-0.5101327
155	0x3dceae74	0.10091868
156	0xbf173eb5	-0.5908006
157	0xbee89863	-0.45428762
158	0x3ee0a647	0.4387686
159	0x400a0d41	2.157059
160	0x3fbed695	1.4909235
161	0x3f0b0cc9	0.54316384
162	0xbe9c8c53	-0.3057581
163	0x3e13faf9	0.14451207
164	0x3e5af2cd	0.21381684
165	0x3f97fcdd	1.1874043
166	0x3f04aa43	0.518223
167	0x3f27d235	0.65555125
168	0xbeecf2f8	-0.4627912
169	0x3e9d93e2	0.30776888
170	0x3f92e0b7	1.1474828
171	0x3f2ad73b	0.66734666
172	0x3e1e4e29	0.15459503
173	0x3f1809b1	0.5938979
174	0xbf46b405	-0.7761844
175	0x3fe752f3	1.8072189
176	0x3f731935	0.9496034
177	0xbf256787	-0.64611095
178	0xbebfbdbf	-0.37449452
179	0xbe84a9fb	-0.25910935
180	0xbf2873ca	-0.6580168
181	0xbe035ef1	-0.12829186
182	0x3f1db35a	0.61601794
183	0xbf2f9136	-0.6858095
184	0xbeeba1b5	-0.4602181
185	0x3f0c6f5f	0.5485744
186	0x3f220a8f	0.6329736
187	0xbd8b5f8f	-0.06805336
188	0x3e10f98c	0.14157695
189	0xbca3cfad	-0.019996488
190	0x3f0d964a	0.5530745
191	0x3f156daa	0.5837046
192	0x3fc49aad	1.5359703
193	0x3fa0f7a5	1.2575575
194	0x3f17c70e	0.5928811
195	0xc001359f	-2.0188978
196	0xbf4a111a	-0.78932345
197	0x3ed1901c	0.4093026
198	0x3f7a7676	0.9783701
199	0xc02fc7c7	-2.7465684
200	0x3f09b76c	0.53795505
201	0x3eaaa05c	0.3332547
202	0x3e5c6064	0.21521145
203	0x3f07ab6c	0.52995944
204	0x3f9fd6cc	1.2487426
205	0x3f8b3757	1.0876263
206	0x3f0f470a	0.5596777
207	0x3df1352e	0.11777721
208	0xbd1f867b	-0.03894661
209	0x3f210894	0.62903714
210	0x3f2a40b8	0.66505
211	0x3e93a4ed	0.28836766
212	0x3f149925	0.5804618
213	0xbff19790	-1.8874378
214	0xbf4fcf94	-0.81176114
215	0x3e60106f	0.21881269
216	0xbf813949	-1.0095607
217	0x3f93cac6	1.1546257
218	0x3f287490	0.6580286
219	0xbff74533	-1.9317993
220	0xbf37632d	-0.71635705
221	0x3ef1eed2	0.47252518
222	0x3f6fd1f8	0.9367976
223	0xbe0b0f0d	-0.1357996
224	0x3ea21283	0.31654748
225	0x3fa50d72	1.2894728
226	0x3f76ee50	0.96457386
227	0x3f1e2002	0.6176759
228	0xbef724de	-0.48270315
229	0xbe2f3d27	-0.17113172
230	0xbefd5827	-0.49481317
231	0xbfa9716c	-1.3237739
232	0xbf3179fb	-0.6932675
233	0x3f050a4a	0.51968825
234	0x3f6bcc18	0.921083
235	0x3fff0757	1.9924115
236	0x3f189503	0.59602374
237	0x3fd9a3ac	1.7003074
238	0x3f0c207e	0.5473708
239	0x3f18fa3e	0.5975684
240	0x3e472282	0.19446757
241	0x3e7b1de7	0.24523126
242	0x3f2be2ab	0.6714274
243	0xbf4a6a6e	-0.7906865
244	0xbeade43b	-0.3396319
245	0x3f1ece34	0.6203339
246	0xbe9a58ca	-0.30145866
247	0xbde2d65c	-0.11076042
248	0x3f330a08	0.6993718
249	0x3f0a7e9a	0.5409943
250	0x3f537b5c	0.82610106
251	0x3f6529dc	0.89517
252	0xbfce6d96	-1.6127193
253	0xbf45f682	-0.77329266
254	0x3e6de801	0.23233034
255	0xbf34bab2	-0.70597374

tree_conv.3.weights.bias f4 [128]
0	0x3ee2642c	0.4421705
1	0x3e327e62	0.17431024
2	0x3fa125ca	1.2589657
3	0x3ebb2fe7	0.36559984
4	0x3f2201e4	0.63284135
5	0xbd1cf6d9	-0.03832135
6	0x3eddaa8d	0.43294182
7	0x3f5b985c	0.85779357
8	0x3e82d40b	0.255524
9	0x3e47ec3d	0.19523712
10	0x3ecbf5ad	0.39835873
11	0x3f141043	0.57837313
12	0xbc5d838f	-0.013520136
13	0xbf0ac877	-0.54212135
14	0x3e8574fb	0.26065812
15	0x3efbfe21	0.49217322
16	0x3f13ad20	0.5768604
17	0x3f0d5097	0.55201095
18	0x4003a25e	2.056785
19	0xbe53f4f0	-0.20698905
20	0x3f2dd3de	0.6790141
21	0x3e327cd3	0.17430429
22	0x3e80955b	0.2511395
23	0xbdf9f1bf	-0.122043125
24	0x3e1e0886	0.15432939
25	0xbdf2d787	-0.11857515
26	0xc052a366	-3.291223
27	0x3f08a8f0	0.5338278
28	0x3f0fc838	0.56164885
29	0x3f554ef6	0.8332361
30	0x3eaa63a2	0.3327914
31	0xbba57cd7	-0.0050502825
32	0x3e49a78a	0.19692817
33	0x3ff54356	1.9161174
34	0xbe448b68	-0.19193804
35	0x3ef6ef78	0.48229575
36	0x3f8b212b	1.0869497
37	0x3f1a04ce	0.6016358
38	0x3f4af3e2	0.79278386
39	0xbe22dcd4	-0.15904552
40	0xbd11856e	-0.03552764
41	0x3f0e59fd	0.5560606
42	0x3ee91a02	0.45527655
43	0x3f738846	0.9512981
44	0x3e0a6f71	0.13519074
45	0xbe24300a	-0.1603395
46	0x3eb2ae85	0.34898773
47	0x3eb4d51a	0.35318834
48	0xc07616d6	-3.8451438
49	0x3eadaf97	0.33923027
50	0xc0a05fdb	-5.011701
51	0xbd0d2815	-0.034462053
52	0xbd238418	-0.039920896
53	0x3edfab1e	0.4368524
54	0x3ea0ed40	0.31431007
55	0xbdb7e35b	-0.089789115
56	0x3ecf7745	0.40520683
57	0x3f4d06ab	0.800883
58	0x3f010da2	0.5041143
59	0x3e926930	0.28595877
60	0x3fd5691c	1.6672702
61	0x3de0997b	0.10966774
62	0x3e2392fd	0.1597404
63	0x3dca01ab	0.098635994
64	0xbe8f07c9	-0.27935627
65	0x3eeb70d1	0.4598451
66	0x3f4f00ee	0.80860794
67	0xbd545f05	-0.05184843
68	0x3f55532d	0.8333004
69	0x3f0406d2	0.51572907
70	0x3ed0b473	0.40762672
71	0x4007c772	2.1215482
72	0xbe9d68b3	-0.30743942
73	0x3efbcb78	0.49178672
74	0x3d37c5f5	0.04486652
75	0x3ef05778	0.46941733
76	0x3f7010c3	0.93775576
77	0x3f25e3f3	0.6480095
78	0x3f8203c3	1.0157398
79	0x3d9a655b	0.07538863
80	0x3ec8248d	0.39090386
81	0x3f6d3835	0.9266389
82	0x3f3bc68b	0.7334983
83	0x3f5075fe	0.8143004
84	0xb9e6e1b8	-0.00044037192
85	0x3f17bb6c	0.5927036
86	0x3e06e476	0.13173088
87	0x3eac12c8	0.3360808
88	0xbe58c52d	-0.21168967
89	0x3df3d418	0.11905688
90	0xbc6e49b0	-0.014543936
91	0x3eb4782a	0.35247928
92	0xbd5c7c0d	-0.05382924
93	0x3e23239a	0.1593155
94	0x3d2c4edc	0.042067394
95	0x3fc6b800	1.5524902
96	0x3f66926c	0.9006717
97	0x3f2eb69e	0.682474
98	0x3e486663	0.19570307
99	0x3d92d42a	0.07169373
100	0x3eac6d3e	0.33677095
101	0x3efc26fa	0.49248487
102	0x3ef217fe	0.4728393
103	0x3f13d3a4	0.5774481
104	0x3f056154	0.52101636
105	0x3eb6dbd7	0.357146
106	0x3f269e1e	0.6508502
107	0xbe87dd9b	-0.2653626
108	0xbdb5d86c	-0.0887917
109	0x3e4f21a2	0.20227674
110	0x3e559fbe	0.20861718
111	0x3fdf0c85	1.7425696
112	0x3fe17c83	1.7616123
113	0x3f24522c	0.64187884
114	0x3f2e1103	0.6799471
115	0x3ec6d510	0.3883443
116	0x3edd3460	0.4320402
117	0xbe142856	-0.14468512
118	0x3e919f32	0.2844177
119	0x3f31aaf7	0.69401497
120	0xbefb28fc	-0.49054706
121	0x3dfbc05a	0.122925475
122	0x3ed25e29	0.41087463
123	0x3fa83aad	1.3142906
124	0x3d7bcd87	0.061475303
125	0x3e5acbeb	0.21366851
126	0xbcdba76e	-0.026813235
127	0x3f00c15f	0.5029506

tree_conv.6.weights.weight f4 [64, 128, 3]
0	0x3ea3ac8d	0.31967583
1	0x3f6c3961	0.92275053
2	0x3e81e99e	0.25373548
3	0x3de73de4	0.112911016
4	0xbded47d9	-0.115859695
5	0x3e8fc20d	0.28077736
6	0xbef5bc05	-0.4799501
7	0x3d649021	0.055801515
8	0x3e85a807	0.26104757
9	0xbe17eaa8	-0.14835608
10	0x3f9af07a	1.2104638
11	0x3e15f963	0.14645915
12	0x3e983d65	0.2973434
13	0x3f75cd0f	0.9601602
14	0x3e8078f5	0.25092283
15	0xbf68fe9f	-0.9101352
16	0x3f49ae3a	0.78781474
17	0xbd521c40	-0.051296473
18	0x3fcb5931	1.5886594
19	0xbfaf7279	-1.3706809
20	0xbf97286a	-1.1809208
21	0xbe43bf48	-0.19115937
22	0x3f1bec7a	0.6090771
23	0x3ef7e425	0.48416248
24	0x3f0d1c00	0.5512085
25	0x3daaf047	0.083466105
26	0xbe838df2	-0.25694233
27	0xbe8a9094	-0.2706343
28	0xbf03976e	-0.5140294
29	0xbdd3fff0	-0.103515506
30	0x3ecaf1c8	0.3963759
31	0x3ed677c7	0.41888258
32	0xbeafb663	-0.34318838
33	0x3e063518	0.13106191
34	0x3d5567a2	0.052100785
35	0x3d83576c	0.06413159
36	0xbe657ebd	-0.22411628
37	0xbf6b739b	-0.91973275
38	0xbf4745ee	-0.7784108
39	0xbef928c0	-0.48663902
40	0x3f067905	0.5252841
41	0x3f44298b	0.7662589
42	0x3fc60118	1.5469084
43	0x3fc44a0d	1.5335099
44	0xbf4d72a1	-0.80253035
45	0x3dc4ebcf	0.096152894
46	0x3cd919a8	0.026501492
47	0xbcb27341	-0.021783473
48	0x3e6f6c51	0.23381163
49	0x3f0dd383	0.55400866
50	0xbe0d879d	-0.13821264
51	0xbe8b917c	-0.27259433
52	0x3ef45737	0.4772279
53	0xbe850da5	-0.25986972
54	0x3b851e24	0.004062431
55	0x3ed85faa	0.42260486
56	0xbed22cd0	-0.41049814
57	0x3eed6a6f	0.46370265
58	0x3f56c7d0	0.8389864
59	0x3de574d6	0.11203925
60	0x40078286	2.1173415
61	0xbf92a5d7	-1.145686
62	0xbff99422	-1.9498332
63	0x3da6c20e	0.08142482
64	0xbf4ee8cc	-0.8082397
65	0x3f6661a8	0.8999276
66	0x3f803b19	1.0018035
67	0x3f0e8df9	0.55685383
68	0xbf532f3a	-0.82493937
69	0xbeac54a5	-0.3365833
70	0x3f564fa3	0.83715266
71	0x3e7df1fb	0.2479934
72	0x3f8768e1	1.0578882
73	0x3f303809	0.688355
74	0xbdbd211b	-0.0923483
75	0x3dd20661	0.10255123
76	0xbe678560	-0.22609472
77	0x3ebedf1a	0.37279588
78	0xbec37eea	-0.38182765
79	0x3f4f1df1	0.8090506
80	0x3e47e618	0.19521368
81	0x3ea892a3	0.32924375
82	0x3f7972b9	0.9744068
83	0x3d15ef2e	0.036605053
84	0x3f480d04	0.7814486
85	0x3e7cf92a	0.24704424
86	0x3ee815e3	0.45329198
87	0x3fa47e15	1.2850977
88	0x3eec062f	0.46098468
89	0x3c0cb400	0.008587837
90	0x3eafcae8	0.34334493
91	0x3fdeb990	1.7400379
92	0xbe8260b1	-0.25464395
93	0xbd86978c	-0.06571874
94	0x3f76cbd7	0.96404785
95	0xbd7bdd56	-0.06149038
96	0x3de32d80	0.11092663
97	0xbe53f182	-0.20697597
98	0x3f3fb0a5	0.74878913
99	0x3e021abd	0.12705512
100	0x3d093942	0.03350187
101	0xbfa081c1	-1.2539598
102	0x3fa86aec	1.315763
103	0xbdd566c2	-0.1041999
104	0x3f08729d	0.53299886
105	0xbf12a43e	-0.57281864
106	0x3f87ad6d	1.05998
107	0x3eb7ff36	0.35936898
108	0xbe8ea30e	-0.27858776
109	0xbf1386bf	-0.5762748
110	0xbde8200a	-0.11334236
111	0xbe3fa654	-0.18715793
112	0x3e1529cb	0.14566724
113	0xbe7049ff	-0.23465727
114	0xbdb637f4	-0.08897391
115	0xbd9ea83a	-0.077469304
116	0x3eb68eee	0.35655922
117	0x3f8953ab	1.0728658
118	0xbee97a12	-0.45600945
119	0x3e566059	0.20935191
120	0x3f8d160e	1.1022356
121	0xbf99d2cc	-1.2017455
122	0xbf5bc4b2	-0.8584701
123	0x3eaede26	0.3415386
124	0xbe3db4df	-0.18526028
125	0x3d805c7d	0.06267641
126	0x3e992252	0.29908997
127	0x3e87c39b	0.26516423
128	0x3eb383de	0.35061544
129	0x3e143316	0.14472613
130	0xbea4c16e	-0.32178825
131	0xbf44ebb7	-0.7692217
132	0xbe8bb142	-0.27283674
133	0xbf880c17	-1.062869
134	0xbf701c1a	-0.9379288
135	0xbd85b3b3	-0.065284155
136	0xbe79f618	-0.24410284
137	0x3e306794	0.17227012
138	0x3d90b443	0.07065632
139	0xbf28e421	-0.659731
140	0xbebf132c	-0.37319314
141	0x3f03206a	0.51221335
142	0x3e123b04	0.14280325
143	0x3e93573a	0.28777486
144	0xbfb22992	-1.3918936
145	0x3ec0448b	0.37552294
146	0x3e2bac7d	0.16765018
147	0x3f1bb67a	0.6082531
148	0xbe8751ad	-0.264295
149	0x3e27a33e	0.16370866
150	0xbf7912e1	-0.9729443
151	0x3d4e83c5	0.050418634
152	0xbe230490	-0.15919709
153	0xbe21bef7	-0.15795504
154	0xbd35d7cb	-0.04439525
155	0x3f00197b	0.5003888
156	0x3eb5e585	0.35526672
157	0xbe201cfe	-0.1563606
158	0x3eb470b4	0.35242236
159	0x3d42f4f4	0.047596887
160	0xbf9a22ab	-1.204183
161	0xbe31d117	-0.17364918
162	0xbee1b7d3	-0.4408556
163	0x3d396f54	0.045272186
164	0xbd60e46f	-0.05490535
165	0xbe232ff4	-0.15936261
166	0xbf2f360b	-0.6844184
167	0x3e18f0e7	0.14935647
168	0x3f459356	0.7717794
169	0x3f01fafc	0.50773597
170	0x3f2cdfde	0.67529094
171	0xbe5fd3b1	-0.21858098
172	0xbdfa7f5a	-0.12231322
173	0x3e50164b	0.20321004
174	0x3f20bf4f	0.62791914
175	0x3f802cc4	1.0013661
176	0x3e65cc63	0.22441249
177	0x3ee7fca0	0.45309925
178	0xbf3c173b	-0.73472947
179	0xbf5c70a5	-0.8610938
180	0x3dfbb159	0.12289686
181	0xbf6b3ccd	-0.9188965
182	0xbedc0296	-0.42970723
183	0x3f6acb93	0.9171688
184	0x3e477034	0.19476396
185	0x3e996a5e	0.29963964
186	0x3c06c745	0.0082262205
187	0x3f9a05e5	1.2033049
188	0x3e4f0ad5	0.20218976
189	0xbed0804a	-0.40722877
190	0x3eddd3f4	0.4332577
191	0x3f1acd16	0.60469186
192	0x3eeced1a	0.46274644
193	0x3d6fc546	0.058537744
194	0x3dbdf484	0.09275153
195	0x3c978f2e	0.01850089
196	0x3f039631	0.5140105
197	0xbd9b4dc9	-0.07583196
198	0xbea89ad5	-0.32930627
199	0xbe246dfa	-0.16057578
200	0xbea50d26	-0.32236594
201	0xbf09a4b5	-0.5376695
202	0x3f8fabbb	1.1224283
203	0x3f55bd4a	0.8349196
204	0xbde3b22f	-0.1111797
205	0xbe4415b2	-0.19148901
206	0xbe1291a8	-0.14313376
207	0x3eab80bf	0.33496663
208	0x3eb15538	0.3463533
209	0xbed22876	-0.41046494
210	0xbf128a30	-0.5724211
211	0x3f01de1f	0.50729555
212	0xbf158c67	-0.5841736
213	0xbf00c9e2	-0.5030805
214	0x3f70f2e6	0.94120634
215	0x3e6b1249	0.22956194
216	0x3f4c81fb	0.79885834
217	0x3f3a3f3b	0.7275273
218	0x3e1f9fbd	0.15588279
219	0x3f15e74e	0.5855607
220	0x3e3e3651	0.18575408
221	0xbf52b5d9	-0.8230873
222	0x3e9adc65	0.30246273
223	0xbee18cbf	-0.44052693
224	0x3dba5a97	0.0909931
225	0x3fa2f64c	1.2731414
226	0x3f359090	0.7092371
227	0xbf218ea1	-0.6310826
228	0x3f009eec	0.50242496
229	0x3dc45254	0.09586015
230	0x3f215503	0.6302034
231	0x3f1b7f7c	0.607414
232	0x3f2b76c0	0.66978073
233	0xbeb2c88f	-0.3491864
234	0x3f426752	0.75938904
235	0x3e106be6	0.1410366
236	0xbf894dac	-1.0726829
237	0x3f345e16	0.70456064
238	0x3f9086b0	1.1291103
239	0xbef79964	-0.48359215
240	0x3fc6d0cd	1.5532471
241	0x3f102672	0.5630866
242	0xbf14cff5	-0.5812982
243	0x3f24ee48	0.6442609
244	0x3d55d92f	0.052209076
245	0xbe603e13	-0.2189868
246	0xbc40cf17	-0.011768124
247	0xbf8355d9	-1.0260574
248	0xbed56333	-0.41677245
249	0x3ed16e83	0.40904626
250	0x3e1c81ee	0.15283939
251	0xbf401323	-0.750292
252	0xbe1d360f	-0.15352653
253	0x3fa46409	1.2843028
254	0x3ee737c2	0.45159727
255	0x3f747f0f	0.95506376

tree_conv.6.weights.bias f4 [64]
0	0x3eb97ffa	0.3623045
1	0x3f16ed81	0.5895615
2	0xbf114f5a	-0.56761706
3	0xbe1c47a5	-0.15261705
4	0xbe85c239	-0.26124743
5	0xbdebed0c	-0.115198225
6	0xbf6d24cb	-0.92634267
7	0xbd104d07	-0.03522971
8	0xbf2d85f3	-0.67782515
9	0x4091f556	4.561198
10	0x3d43d769	0.047812853
11	0xbe8b6a80	-0.2722969
12	0xbe5a0c19	-0.21293677
13	0x3ee5854f	0.4482827
14	0x3d87010b	0.06591996
15	0x3f0f2c59	0.55927044
16	0x3f30b43c	0.69025016
17	0xbf57b065	-0.8425353
18	0xbf3a3ec1	-0.72752005
19	0xbec069c5	-0.37580696
20	0x3f5079ef	0.81436056
21	0xbed987d5	-0.42486444
22	0xbefbd511	-0.49185994
23	0xbf39b57e	-0.7254256
24	0x3f99fec2	1.2030871
25	0x3f196fe8	0.5993638
26	0x3f89b1be	1.0757368
27	0x3f3dbbe7	0.7411484
28	0x3f4a0b0d	0.7892311
29	0x3ea4876e	0.32134575
30	0x3ef523bf	0.47878835
31	0xbf43b3a1	-0.76445967
32	0xbf17d501	-0.59309393
33	0x3f405792	0.7513362
34	0xbf97efee	-1.1870096
35	0xbf237587	-0.6385121
36	0xbe90b83d	-0.28265563
37	0x3de42009	0.11138923
38	0xbdff1db6	-0.12456839
39	0xbec46fde	-0.38366598
40	0xbf28911a	-0.6584641
41	0xbfbdf1f9	-1.4839469
42	0xbf23cd1d	-0.63984853
43	0xbd8c29c2	-0.06843902
44	0x3f32f6f2	0.6990806
45	0xbf45596e	-0.77089584
46	0x3e8a0f5e	0.2696485
47	0x3f434165	0.7627166
48	0xbeade015	-0.33960024
49	0xbc3d5b99	-0.011557483
50	0xbe3cf52b	-0.18452899
51	0x3f2e96eb	0.6819903
52	0x3fbc5a7b	1.4715112
53	0xbda1e184	-0.07904342
54	0xbd20a895	-0.039223272
55	0x3d1c3e40	0.038145304
56	0x3f20850d	0.6270302
57	0x3e601b0d	0.21885319
58	0xbef261c8	-0.47340226
59	0x3ee50153	0.44727573
60	0xbf106fe1	-0.56420714
61	0x3f1cf2c6	0.6130794
62	0xbe58ed2f	-0.21184228
63	0xbe6526e8	-0.22378123

tree_conv.9.weight f4 [64]
0	0x3f3f35a4	0.74691224
1	0x3fa0d190	1.2563953
2	0x3f951fb6	1.1650302
3	0x3f846487	1.0343179
4	0x3ffd02d0	1.9766483
5	0x3fb53099	1.4155456
6	0x3f10ccd9	0.5656257
7	0x3fb8dd36	1.4442508
8	0x3f59df4c	0.8510635
9	0x3fbe57c3	1.4870533
10	0xbeff392a	-0.498483
11	0x3f3d32f1	0.73905855
12	0x3ff11fe3	1.8837856
13	0x3fc19674	1.512404
14	0x3f43a646	0.7642559
15	0x3faec10f	1.3652667
16	0x3cd27f60	0.025695503
17	0x3f89ce9c	1.0766177
18	0x3f501a41	0.8129006
19	0x3f875b85	1.0574805
20	0x3f43c332	0.7646972
21	0x3e64928c	0.22321528
22	0xbd8d31aa	-0.06894238
23	0x3f532a04	0.82485986
24	0x3f1e8397	0.6191954
25	0x3f1debb2	0.6168777
26	0x3f8755f1	1.0573102
27	0x3f129779	0.5726238
28	0x3caa5234	0.02079115
29	0xbd695c3a	-0.05697272
30	0x3fa176f9	1.2614433
31	0x3eba9912	0.36444908
32	0x3f6dfd92	0.9296504
33	0x3f78679b	0.9703309
34	0x3f128ab8	0.5724292
35	0x3e89d1bb	0.26917824
36	0x3f20e4ff	0.6284942
37	0x3f5c27ed	0.8599842
38	0x3f8e85c4	1.1134572
39	0x3f2143aa	0.6299387
40	0x3ee52650	0.44755793
41	0x3f8e6176	1.1123493
42	0x3f6eceb7	0.9328417
43	0x3f87e977	1.0618123
44	0x3f96c257	1.1778058
45	0x3e3781e4	0.17920643
46	0x3f0fdf10	0.5619974
47	0x3fc815ea	1.5631688
48	0x3f29c444	0.663151
49	0x3f8ea314	1.1143517
50	0x3f46e3d7	0.77691406
51	0x3ca6d3d9	0.020364689
52	0x3fbfb2f3	1.4976486
53	0x3f9c017f	1.2187957
54	0x3f90985f	1.12965
55	0x3f23ad4f	0.6393632
56	0x3fd9dfa0	1.702137
57	0x3f9c9799	1.2233764
58	0x3e5fe7e2	0.218658
59	0x3fa22bca	1.2669613
60	0x3e91b67d	0.2845954
61	0x3f8b6199	1.088916
62	0x3f71097d	0.941551
63	0x3f3f34cb	0.7468993

tree_conv.9.bias f4 [64]
0	0xbd8eaed5	-0.0696694
1	0xbddb1b70	-0.10698593
2	0xbd09ec3c	-0.033672556
3	0x3ea27dfd	0.31736746
4	0xbc3ebcbd	-0.011641678
5	0xbd972483	-0.07380011
6	0x3cdd07b7	0.026981218
7	0xbf7551eb	-0.9582812
8	0xbdc0ca7e	-0.09413622
9	0x3ec852e5	0.39125744
10	0xbca85ffc	-0.020553581
11	0x3c9431aa	0.018090088
12	0x3c8ba6df	0.017047344
13	0xbbf49f30	-0.0074652657
14	0xbe641992	-0.2227538
15	0xbcb4c7d7	-0.022067947
16	0x3b0cb1b2	0.002146822
17	0x3eb99f20	0.36254215
18	0xbecbaf19	-0.39782026
19	0x3e1e9429	0.15486206
20	0xbcf07e41	-0.029357078
21	0xbd8901e3	-0.06689813
22	0x3cda9655	0.026683012
23	0x3d9e6897	0.07734793
24	0x3bb2400d	0.0054397644
25	0xbe1796e0	-0.14803648
26	0x3e026cf1	0.1273687
27	0xbe00853d	-0.12550826
28	0x3acbfc68	0.0015562894
29	0x3c34c9a0	0.011034399
30	0x3e457395	0.19282372
31	0xbe002f76	-0.12518105
32	0x3e85e3d1	0.26150373
33	0x3e491aa1	0.19639064
34	0x3da2d4e0	0.07950759
35	0xbd60532b	-0.054766815
36	0x3e815978	0.25263572
37	0xbe9c762a	-0.30558902
38	0xbf81c3dc	-1.0137897
39	0x3ea97640	0.3309803
40	0x3c5c8a32	0.013460683
41	0xbd4d2628	-0.050085217
42	0xbc465826	-0.012105977
43	0xbe37934c	-0.17927283
44	0xbc97fb63	-0.018552488
45	0xbdbe3fd0	-0.09289515
46	0x3dd9346f	0.10605704
47	0xbee1b3c2	-0.44082457
48	0x3f269360	0.65068626
49	0xbe77c35b	-0.24195616
50	0x3e859fd2	0.26098496
51	0xbb369f02	-0.0027865772
52	0xbe8fb8c4	-0.28070652
53	0x3e73962c	0.23787755
54	0xbdc3f73e	-0.09568642
55	0xbd1e0894	-0.0385824
56	0x3e36f315	0.17866166
57	0x3e6a04bb	0.22853367
58	0xbd995f6c	-0.074889034
59	0xbd4be480	-0.04977846
60	0xbe84dacf	-0.25948188
61	0x3ef85b59	0.48507193
62	0x3dd5b7a0	0.10435414
63	0xbea7a25a	-0.32741052

tree_conv.9.running_mean f4 [64]
0	0x3f56b83e	0.8387488
1	0x3f34fa76	0.70694673
2	0x3eb925b4	0.36161578
3	0x3f256dce	0.64620674
4	0x3f531b71	0.8246375
5	0x3f5687c2	0.838009
6	0x3f6f03d8	0.9336524
7	0x3f108e83	0.56467456
8	0x3fa1c914	1.2639489
9	0x3f8bd4fd	1.0924374
10	0x3ecb5953	0.39716586
11	0x3f3df7fa	0.7420651
12	0x3f384c78	0.7199168
13	0x3f5d91c2	0.86550534
14	0x3f5c88e7	0.86146396
15	0x3f244f2c	0.64183307
16	0x3eb925b4	0.36161578
17	0x3f93c011	1.1542989
18	0x3eb970e7	0.3621895
19	0x3fc71c14	1.5555444
20	0x3f958a52	1.1682837
21	0x3eba33d7	0.36367676
22	0x3ec68ae0	0.38777828
23	0x3f2e37a2	0.6805364
24	0x3f22d540	0.63606644
25	0x3eb925b4	0.36161578
26	0x3f1a7bd8	0.6034522
27	0x3eb925b4	0.36161578
28	0x3eb925b4	0.36161578
29	0x3eb93a9b	0.36177525
30	0x3f337fd0	0.701169
31	0x3eb925b4	0.36161578
32	0x3f259834	0.6468537
33	0x3f01b4b6	0.5066637
34	0x3f5a8002	0.85351574
35	0x3eb97546	0.36222285
36	0x3ee71eb5	0.45140615
37	0x3efedf39	0.4977968
38	0x3f8db7f3	1.1071762
39	0x3fab6bf3	1.3392318
40	0x3eb93742	0.3617497
41	0x3f2917ed	0.6605213
42	0x3fb89ecc	1.4423461
43	0x3eb925b4	0.36161578
44	0x3f49334b	0.7859389
45	0x3eba020f	0.36329696
46	0x3eb925b4	0.36161578
47	0x3efcb398	0.4935577
48	0x3ef697a0	0.48162556
49	0x3f1fa2e9	0.62357956
50	0x3f9ea447	1.2393883
51	0x3eb94368	0.3618424
52	0x3f176507	0.5913853
53	0x3eb925b4	0.36161578
54	0x3f60cc8a	0.878121
55	0x3f70f722	0.94127095
56	0x3f0933a2	0.5359441
57	0x3f6031a7	0.87575763
58	0x3eb925b4	0.36161578
59	0x3f2ebb98	0.68254995
60	0x3ef8cbfc	0.48593128
61	0x3f4d9d8f	0.8031854
62	0x3f31aa3a	0.6940037
63	0x3eb925b4	0.36161578

tree_conv.9.running_var f4 [64]
0	0x36f5552e	7.311485e-06
1	0x3c1c930e	0.009556545
2	0x35f7696a	1.8433614e-06
3	0x3b54821a	0.003242618
4	0x3c298e75	0.010348906
5	0x3b8c33ec	0.0042786505
6	0x3b09fb24	0.0021054232
7	0x3b9cd6a3	0.004786329
8	0x3c9f1a58	0.019421741
9	0x3b84fbfb	0.0040583587
10	0x3b7f3e64	0.00389471
11	0x3bbb505e	0.0057163676
12	0x3864e4f9	5.4572683e-05
13	0x374da896	1.2258204e-05
14	0x39d0602d	0.00039744508
15	0x3c2aba1b	0.010420348
16	0x35f7696a	1.8433614e-06
17	0x3d2cce6d	0.04218905
18	0x3775cc80	1.4650752e-05
19	0x3bc27139	0.0059339073
20	0x37c76eae	2.3774188e-05
21	0x3945ce5b	0.00018864257
22	0x3b36f108	0.0027914662
23	0x3a849397	0.0010114786
24	0x3a119106	0.0005552921
25	0x35f7696a	1.8433614e-06
26	0x3b7c37dd	0.0038485446
27	0x35f7696a	1.8433614e-06
28	0x35f7696a	1.8433614e-06
29	0x36df88e3	6.6618536e-06
30	0x3a0d5713	0.0005391698
31	0x35f7696a	1.8433614e-06
32	0x3b143eaf	0.002262037
33	0x3c2dd931	0.0106108645
34	0x3bce3e30	0.0062940344
35	0x3816a8d7	3.592003e-05
36	0x3c666ca8	0.014063992
37	0x3c03f765	0.008054589
38	0x3caeb665	0.021327207
39	0x383c76cd	4.4933335e-05
40	0x377c2459	1.5028833e-05
41	0x393d8880	0.00018075295
42	0x3cc85df5	0.024458865
43	0x35f7696a	1.8433614e-06
44	0x38a53153	7.8770005e-05
45	0x39091c7b	0.00013075948
46	0x35f7696a	1.8433614e-06
47	0x3ba624e7	0.005070317
48	0x3d082e4f	0.03324729
49	0x36a27a74	4.8422316e-06
50	0x3b31c4c1	0.002712533
51	0x37529881	1.2552483e-05
52	0x3b8e2e3e	0.0043390086
53	0x35f7696a	1.8433614e-06
54	0x375f80bb	1.3321808e-05
55	0x3c4ac397	0.012375734
56	0x3bb604f4	0.0055547897
57	0x3a7fa4d6	0.00097520405
58	0x35f7696a	1.8433614e-06
59	0x38017ab7	3.0870284e-05
60	0x3ca58ebf	0.020209668
61	0x36a91125	5.0385884e-06
62	0x3c418001	0.011810304
63	0x35f7696a	1.8433614e-06

tree_conv.10.weight f4 [32, 64]
0	0xbe2a7a75	-0.16648276
1	0x3f54f097	0.8317961
2	0xbed30514	-0.41214812
3	0xbf41dd2b	-0.757281
4	0xbf6e9be9	-0.9320665
5	0x3ed712af	0.42006442
6	0x3eb410a7	0.35168955
7	0x3f9267fc	1.1437984
8	0xbfbad871	-1.4597303
9	0xbf75e9d8	-0.9605994
10	0xbcf4bd16	-0.02987532
11	0xbf8a1d83	-1.0790256
12	0x3f7dbff9	0.9912105
13	0xbd849f1b	-0.064756595
14	0x3f2ea2ff	0.6821746
15	0x3f058fdc	0.52172637
16	0xbd53d3d2	-0.05171568
17	0xbfeb930d	-1.8404251
18	0x3eb7bd41	0.35886577
19	0x3f22af15	0.63548404
20	0xbf6d8ca7	-0.92792743
21	0x3efb73a4	0.49111664
22	0x3e133f02	0.14379504
23	0xbfacca36	-1.349921
24	0x3f0c890c	0.54896617
25	0xbe59ed64	-0.21281964
26	0x3f553952	0.8329059
27	0xbe634dbf	-0.22197627
28	0xbd8f50a1	-0.069978006
29	0x3e0b16c0	0.13582897
30	0xbe4fd314	-0.20295364
31	0x3b3dfba5	0.0028989103
32	0x3eb12438	0.34597945
33	0xbf30e6f5	-0.6910241
34	0xbf0153b7	-0.50518364
35	0x3f1ec8aa	0.6202494
36	0xbfa9f83b	-1.3278879
37	0x3f859cc0	1.0438461
38	0x3e04d7bd	0.12972923
39	0xbf52631f	-0.82182497
40	0x3d4e6aae	0.050394706
41	0x3ee389a5	0.44440952
42	0x3e1d54bf	0.1536436
43	0xbed798d8	-0.42108798
44	0xbde02f40	-0.10946512
45	0x3ee63a96	0.44966573
46	0x3ecc1710	0.39861345
47	0x3eae1811	0.34002736
48	0x3ed5a565	0.4172775
49	0xbe1bdebe	-0.15221688
50	0x3dbed45c	0.09317848
51	0xbe01b540	-0.12666798
52	0x3d7b1e30	0.061308086
53	0xbeec77a7	-0.46185037
54	0xbe74b7dd	-0.23898263
55	0x3f97628c	1.1826949
56	0xbf6f3ad8	-0.93449163
57	0x3e778aba	0.24174014
58	0xbd35b06d	-0.044357706
59	0x3fc6b44e	1.5523775
60	0x3ef27e70	0.4736209
61	0xbe923633	-0.28556976
62	0x3f27a2cf	0.654828
63	0x3da8095d	0.08204911
64	0x3e8ba073	0.2727085
65	0x3eca8a36	0.39558572
66	0x3f9a4df6	1.2055042
67	0xbf30baa5	-0.69034797
68	0x3f500225	0.8125327
69	0x3f6593a6	0.8967842
70	0xbe764ed1	-0.24053504
71	0x3de5a819	0.11213703
72	0x3e9b7230	0.30360556
73	0x3f217386	0.630669
74	0xbe1f2133	-0.15540008
75	0x3f6c9e2f	0.9242887
76	0xbee299bc	-0.44257915
77	0xbf091b9d	-0.5355776
78	0xbf363278	-0.7117076
79	0xbf2f137a	-0.68389094
80	0xbcd09609	-0.025462167
81	0x3e764e37	0.24053274
82	0xbf45eeb3	-0.7731735
83	0xbd679ede	-0.056547992
84	0x3f6b8460	0.91998863
85	0x3f01ba43	0.5067484
86	0xbdbe9ba6	-0.09307031
87	0xbe8ea3b5	-0.27859274
88	0xbe2bcc2d	-0.16777106
89	0x3f9c373f	1.220436
90	0xbf28a2d6	-0.6587347
91	0x3fb96771	1.4484693
92	0xbd7c8f73	-0.06166024
93	0x3c6c68ba	0.014429266
94	0xbf6335f1	-0.88754183
95	0x3f7dd064	0.99146104
96	0xbf81c9bd	-1.0139691
97	0xbf5a2cbc	-0.8522451
98	0x3e6b0743	0.22951989
99	0xbe43db54	-0.19126636
100	0xbf369881	-0.7132645
101	0xbf2e6b42	-0.6813241
102	0x3f9794f0	1.1842327
103	0xbe7147df	-0.23562573
104	0x3e1a1ebd	0.15050788
105	0x3f33f43f	0.70294565
106	0x3d522c92	0.051312037
107	0x3fb96310	1.4483356
108	0xbf7fb66f	-0.99887747
109	0x3e83417a	0.25635892
110	0x3e37dbd7	0.17954956
111	0xbe69ae2d	-0.22820349
112	0xbf4e03fd	-0.80474836
113	0xbf8fb143	-1.1225971
114	0xbf21534a	-0.63017714
115	0xbdd39b19	-0.10332317
116	0xbf38d2f7	-0.72196907
117	0x3f269fff	0.65087885
118	0x3f596e99	0.84934384
119	0xbedd98df	-0.43280694
120	0x3d0dcba7	0.034618046
121	0xbf01ba34	-0.5067475
122	0x3f742793	0.95372885
123	0x3f386ddb	0.72042626
124	0x3f19726c	0.5994022
125	0x3ef6224e	0.48073047
126	0xbf358501	-0.7090607
127	0x3faac6dc	1.3341937
128	0x3d66b55f	0.056325313
129	0xbf3dd29e	-0.741495
130	0x3ed29c4f	0.4113488
131	0x3e857db9	0.2607248
132	0x3f73ad6c	0.95186496
133	0x3f41ecb8	0.7575183
134	0xbf28a8a3	-0.6588232
135	0x3b8e4ccb	0.0043426505
136	0x3fa09f14	1.2548547
137	0x3f2261e0	0.63430595
138	0xbf07b550	-0.53011036
139	0xbebc00b2	-0.3671928
140	0x3f1266ed	0.571883
141	0x3fe50386	1.78917
142	0xbf9e17ed	-1.2351052
143	0xbf54433c	-0.8291509
144	0xbbb50422	-0.0055241743
145	0x3e9a082a	0.30084354
146	0x3f4f23f2	0.80914223
147	0xbc5794f3	-0.013158071
148	0xbe34d902	-0.17660907
149	0x3e702146	0.23450193
150	0x3e5bdd36	0.21471104
151	0x3e450a4e	0.19242212
152	0xbe5ad386	-0.21369752
153	0x3eeed7c1	0.46648982
154	0x3dcfc2d0	0.101445794
155	0x3f07c293	0.5303127
156	0x3d59ad99	0.05314407
157	0xbd6acbf3	-0.057323407
158	0xbef10b13	-0.4707876
159	0x3ec7af87	0.39001104
160	0xbeb1f664	-0.34758294
161	0x3e1bbcb5	0.15208705
162	0xbe55f12a	-0.20892778
163	0x3f3af1d6	0.7302526
164	0xbe3b4398	-0.18287504
165	0x3b244d91	0.0025070647
166	0x400b11f5	2.172971
167	0xbe7434cc	-0.23848265
168	0xbe32e8bf	-0.17471598
169	0x3eceecd2	0.40415055
170	0xbeebafc1	-0.46032527
171	0x3f0254e2	0.5091077
172	0xbec42e14	-0.38316405
173	0x3f8fdfb8	1.1240149
174	0xbf0431e8	-0.5163865
175	0xbca0b701	-0.019618513
176	0xc00d840d	-2.2111847
177	0xbf32fc36	-0.69916093
178	0xbe7b0591	-0.24513842
179	0x3ccf5f0a	0.025313873
180	0xbe975358	-0.29555774
181	0xbeebe459	-0.46072653
182	0x3e60793b	0.21921246
183	0x3e1a6a09	0.15079512
184	0xbf0bcf9f	-0.5461368
185	0xbf8bdbdb	-1.092647
186	0x3f148165	0.5800994
187	0xbd5310c6	-0.05152967
188	0xbeaa5ff9	-0.33276346
189	0xbdfe75fa	-0.12424846
190	0x3d8ad007	0.06777959
191	0x3f1c34c6	0.61018026
192	0x3efdc8ef	0.49567363
193	0x3cb54c00	0.022130966
194	0x3f873dc4	1.0565724
195	0x3e426393	0.18983297
196	0x3f501848	0.8128705
197	0x3f9615f1	1.1725446
198	0x3d33f9eb	0.043939512
199	0xbca6ce86	-0.02036215
200	0x3f1d84c4	0.6153071
201	0x3f54de2b	0.831515
202	0xbe608530	-0.21925807
203	0x3f217af5	0.6307824
204	0x3f02dd75	0.51119167
205	0xbf3f8034	-0.74805
206	0xbf2d7041	-0.6774941
207	0xbf1b547e	-0.606758
208	0xbd892adf	-0.0669763
209	0x3ec0d43a	0.37661916
210	0xbe83a047	-0.2570822
211	0x3ddc2759	0.107496925
212	0x3f7ebe14	0.99508786
213	0x3f55a2d5	0.83451587
214	0xbe5e053f	-0.21681689
215	0xbe61c4d7	-0.22047745
216	0x3e1397da	0.14413396
217	0x3f7a4447	0.9776043
218	0xbeab9d79	-0.3351858
219	0x3f828e87	1.0199746
220	0xbdc075ca	-0.093974665
221	0xbd758005	-0.059936542
222	0xbf2fadf7	-0.68624824
223	0x3f45064e	0.76962745
224	0xbf8b45fd	-1.0880734
225	0xbf3b947f	-0.7327346
226	0xbdcdd3fc	-0.100501984
227	0xbd5888cc	-0.052864835
228	0xbf5e3537	-0.8679995
229	0xbefa0b4a	-0.48836738
230	0x3fb1bb1b	1.3885225
231	0x3e12ba15	0.14328797
232	0xbd7e2805	-0.062049884
233	0x3f0ad9fe	0.5423888
234	0x3ea7c663	0.32768545
235	0x3f8d50f4	1.104033
236	0xbf9b95e3	-1.2155117
237	0x3eafdba3	0.34347257
238	0xbef497ac	-0.47771966
239	0xbe6ece32	-0.23320845
240	0xbf6ff6ef	-0.93736166
241	0xbf6617b2	-0.89879906
242	0xbef43341	-0.47695354
243	0x3d039bad	0.032130886
244	0xbf389095	-0.72095615
245	0x3f2e1540	0.68001175
246	0x3fb758eb	1.4324011
247	0xbe733231	-0.23749615
248	0xbe791e59	-0.24327983
249	0xbef7bf31	-0.48388055
250	0x3f2a220b	0.66458195
251	0x3ec17e5d	0.3779172
252	0x3f3a5656	0.7278799
253	0x3eb64188	0.3559687
254	0xbf4ed3c7	-0.80791897
255	0x3f491f4e	0.7856339

tree_conv.10.bias f4 [32]
0	0xbf302d43	-0.68819064
1	0xbe91f14d	-0.2850441
2	0xbf3f656b	-0.74764127
3	0xbe79d52a	-0.24397722
4	0xbf45b00d	-0.7722176
5	0x3ec3b19f	0.38221452
6	0xbefce9c1	-0.4939709
7	0xbe8101b5	-0.25196615
8	0xbe4e99f0	-0.2017591
9	0xbf957896	-1.1677425
10	0xbf0391dc	-0.5139444
11	0x3e9b8942	0.30378157
12	0x3ec457fe	0.38348383
13	0x3d94dcdb	0.07268687
14	0xbf89de53	-1.0770973
15	0xbe66824e	-0.22510645
16	0xbf9dc875	-1.23268
17	0xbc7ce5aa	-0.015435616
18	0x3e89acbb	0.26889595
19	0x3e9593a5	0.29214206
20	0x3e2fcfd7	0.17169128
21	0xbe83b649	-0.2572501
22	0x3e613a13	0.2199481
23	0xbf910c42	-1.1331866
24	0xbd8ca783	-0.06867888
25	0x3ef45806	0.47723407
26	0x3eb97e27	0.3622906
27	0x3ef22f61	0.47301772
28	0xbeec39ae	-0.46137756
29	0xbff4d39c	-1.9127078
30	0xbeb7be43	-0.35887346
31	0xbf42500d	-0.759034

tree_conv.13.weight f4 [1, 32]
0	0x3e97aa5a	0.29622155
1	0xbdda9f47	-0.10674911
2	0xbe2c589a	-0.16830674
3	0xbe04e547	-0.12978087
4	0x3e655c67	0.2239853
5	0xbe12e7b2	-0.14346197
6	0x3edf6db7	0.43638393
7	0x3e9ba65c	0.3040036
8	0x3eccbfba	0.39990026
9	0x3f03c232	0.51468194
10	0x3f0647a5	0.5245307
11	0xbdeed980	-0.116625786
12	0x3e3f08bb	0.18655674
13	0xbdd9e22d	-0.10638843
14	0xbe31cd1e	-0.17363402
15	0x3e1d981b	0.15390055
16	0x3ef18def	0.471786
17	0xbdae3cfc	-0.085077256
18	0x3e940158	0.28907275
19	0x3e465006	0.19366464
20	0xbdb41c87	-0.08794504
21	0x3e998ec6	0.2999174
22	0xbda3dae3	-0.08000734
23	0xbe86c457	-0.2632167
24	0x3e4a4ae9	0.19755138
25	0xbdc134a9	-0.09433872
26	0xbdb57c53	-0.088616036
27	0x3e5caca0	0.21550226
28	0x3ee1ced1	0.441031
29	0xbdf249f8	-0.11830515
30	0xbe1faafe	-0.15592572
31	0xbe581929	-0.21103348
