src/Models/pairwise.onnx (onnx, 709438 bytes, 13 tensors)

tree_conv.0.weights.weight f4 [256, 50, 3]
-0.61927295 -0.025233481 0.0907028 0.079138786 -0.030803313 -0.043115545 0.013062134 -0.04624499
-0.06085726 -0.0031652427 0.07483371 -0.07217903 0.020259261 0.030154817 0.029007979 -0.022236532
0.06666549 -0.061240077 -0.0139651 0.03852099 -0.07685174 -0.059728492 0.07297368 0.04423911
-0.043776084 -0.08071094 0.018180626 -0.05301049 -0.0557867 0.02747713 0.07088851 -0.026073838
-0.03958412 -0.014291704 -0.05726081 -0.04641257 -0.041239228 0.079462044 0.041306507 -0.018893596
-0.01704592 0.049813554 0.05008648 -0.07798595 0.02142171 -0.06997007 -0.013879339 0.038705315
0.037704 -0.014458534 0.032121733 -0.061100405 -0.042439815 0.011512401 -0.038631327 -0.072703406
-0.058069345 -0.039235417 0.030543646 0.06967015 0.079743706 -0.010019735 0.021754378 -0.025400734
-0.029705591 -0.05249932 -0.01635239 -0.020574506 -0.04313082 -0.07345367 -0.05658766 0.08123005
0.03530916 -0.0024178345 0.03579246 0.025243677 -0.019417021 0.029606909 -0.027175745 -0.04448057
0.0061937994 0.05691081 -0.025525467 0.046387944 -0.07612531 -0.07212962 0.01708077 0.036342077
-0.0013869022 0.006235166 0.06765965 0.073091656 -0.03149723 -0.07758768 -0.016971825 -0.0004847427
-0.026980327 -0.013861985 -0.0004048607 0.008402404 -0.05978739 0.039405875 0.00313613 0.04317172
0.040008947 -0.054365993 -0.0025420035 -0.011248012 -0.019854078 0.08096419 -0.047539804 -0.026396567
0.0385179 0.002030455 0.06488236 0.07705339 0.07342806 0.025188029 -0.050287377 -0.015270129
-0.0694268 0.03386244 0.058888413 -0.047428884 -0.029933061 -0.032079294 -0.04281542 0.07478759
-0.0198061 -0.062208064 0.056988403 0.06854185 0.034420237 -0.052272562 0.072536826 -0.039492905
-0.06747762 -0.021838142 0.041836414 -0.0020341633 0.056092076 0.056449696 -0.050293576 -0.031912502
-1.1068486 -0.7939131 -0.01867517 0.39510086 -1.0017474 -0.36646792 0.43013188 0.52329826
0.083790414 -0.045498136 0.063715294 -0.043397017 0.0051924083 -0.07265246 -0.069321245 -0.04459519
-0.05713383 -0.056555998 0.079109274 0.05481706 -0.021465832 0.051121168 -0.02495255 0.078638025
0.020418031 -0.009786309 -0.0042520156 0.07778425 0.06235878 0.039048214 -0.046374034 0.08053616
-0.06470753 -0.072308354 0.037785616 0.06309256 0.004732478 -0.057312474 0.006610102 0.053438615
-0.047359914 -0.008561439 -0.051322915 -0.042316444 0.043068446 0.06645407 0.02969817 -0.075525284
0.03392494 0.009894019 0.022883832 -0.07077647 0.06602661 0.045690276 -0.06309013 0.0066460613
-0.068087205 -0.053506065 0.07615601 -0.04081353 0.008641712 0.0010022089 0.061413027 0.07531359
0.07868223 -7.2543015e-05 0.026107475 -0.02063745 -0.069969945 0.078589156 -0.021148572 0.004437826
-0.04267331 -0.042197708 -0.033878658 0.04856886 -0.04193515 -0.0757438 -0.009721027 0.07274879
-0.012145071 -0.08074025 -0.022685869 0.023754286 -0.070459 0.0656051 -0.05002556 0.011234327
-0.0014020766 -0.059367295 -0.051525146 -0.014494324 0.025893174 -0.066002704 0.049331907 -0.025357137
-0.073078275 -0.070915796 -0.024521807 0.069287784 -0.024282375 0.05946417 0.065715924 -0.02710682
-0.046578195 -0.03858865 0.07292687 0.05915533 0.018981352 0.016223209 -0.012387385 0.021654328
00000000: ac88 1ebf 72b6 cebc 64c2 b93d 8413 a23d
00000010: 3b57 fcbc ed99 30bd 9002 563c 636b 3dbd
00000020: 7645 79bd f66f 4fbb 6b42 993d 99d2 93bd
00000030: c0f6 a53c 3c07 f73c 24a2 ed3c 6329 b6bc
00000040: eb87 883d e0d6 7abd e0cd 64bc 30c8 1d3d
00000050: 7264 9dbd dda5 74bd 3a73 953d 1234 353d
00000060: 8d4e 33bd c74b a5bd 89ef 943c 8721 59bd
00000070: 9880 64bd b817 e13c ff2d 913d cd98 d5bc
00000080: f522 22bd c027 6abc 508a 6abd 1b1b 3ebd
00000090: 77ea 28bd ffbc a23d 0331 293d bec6 9abc
000000a0: e3a3 8bbc 4c09 4c3d 7b27 4d3d 19b7 9fbd
000000b0: 957c af3c 784c 8fbd 2b66 63bc 7789 1e3d
000000c0: 826f 1a3d 7de3 6cbc 1492 033d 6b44 7abd
000000d0: 5fd5 2dbd 829e 3c3c e23b 1ebd 86e5 94bd
000000e0: 1fda 6dbd 51b5 20bd ab36 fa3c 39af 8e3d
000000f0: ab50 a33d d129 24bc 3d36 b23c 3315 d0bc
00000100: 2459 f3bc 8709 57bd 73f5 85bc de8b a8bc
00000110: f1a9 30bd e16e 96bd 76c8 67bd f15b a63d
00000120: 56a0 103d 8874 1ebb 1d9b 123d d4cb ce3c
00000130: 7210 9fbc 308a f23c ab9f debc 4231 36bd
00000140: 5bf5 ca3b 4f1b 693d c91a d1bc 4901 3e3d
00000150: 96e7 9bbd b2b8 93bd f9ec 8b3c 6edb 143d
00000160: b7c8 b5ba 5d50 cc3b 2591 8a3d 14b1 953d
00000170: 3d03 01bd 4ae6 9ebd 7f08 8bbc 1025 feb9
00000180: d905 ddbc 611d 63bc 7c43 d4b9 3daa 093c
00000190: 9fe3 74bd 0e68 213d 8887 4d3b d4d4 303d
000001a0: 6ce0 233d e0ae 5ebd be97 26bb 9549 38bc
000001b0: 05a5 a2bc 8ed0 a53d 19b9 42bd 9d3d d8bc
000001c0: f2c4 1d3d 6211 053b 0be1 843d 2bce 9d3d
000001d0: 7361 963d 2057 ce3c 23fa 4dbd 902f 7abc
000001e0: a32f 8ebd 58b3 0a3d fa34 713d ca44 42bd
000001f0: 2e36 f5bc 9465 03bd 395f 2fbd 3c2a 993d
00000200: 6740 a2bc e2cd 7ebd ac6c 693d ab5f 8c3d
00000210: 3cfc 0c3d c11b 56bd 308e 943d 50c3 21bd
00000220: b531 8abd e7e5 b2bc a95c 2b3d 994f 05bb
00000230: cec0 653d cc37 673d a300 4ebd afb6 02bd
00000240: 37ad 8dbf e43d 4bbf acfc 98bc a94a ca3e
00000250: 4239 80bf afa1 bbbe 3f3a dc3e e0f6 053f
00000260: 4f9a ab3d 415c 3abd 2a7d 823d 12c1 31bd
00000270: 1425 aa3b d0ca 94bd 4cf8 8dbd 72a9 36bd
00000280: 2a05 6abd 43a7 67bd 0b04 a23d da87 603d
00000290: 1dd9 afbc 6e64 513d 4a69 ccbc f90c a13d
000002a0: b743 a73c c156 20bc 7e54 8bbb 594d 9f3d
000002b0: ec6b 7f3d 05f1 1f3d b3f2 3dbd 24f0 a43d
000002c0: 6285 84bd 6716 94bd 17c5 1a3d ac36 813d
000002d0: e712 9b3b 7cc0 6abd 8e99 d83b 73e2 5a3d
000002e0: 78fc 41bd 4745 0cbc fa37 52bd 0254 2dbd
000002f0: 8a68 303d 1219 883d 9449 f33c 00ad 9abd
00000300: e1f4 0a3d 861a 223c e076 bb3c 41f3 90bd
00000310: f638 873d ba25 3b3d 6635 81bd 34c7 d93b
00000320: 4e71 8bbd 2d29 5bbd aff7 9b3d 172c 27bd
00000330: f895 0d3c 8d5c 833a 3a8c 7b3d 033e 9a3d
00000340: 2624 a13d 3c22 98b8 58df d53c df0f a9bc
00000350: 674c 8fbd 5af3 a03d c53f adbc 2f6b 913b
00000360: 35ca 2ebd 81d7 2cbd 59c4 0abd 24f0 463d
00000370: 31c4 2bbd 911f 9bbd f144 1fbc 51fd 943d
00000380: 1ffc 46bc 255b a5bd b7d7 b9bc 5998 c23c
00000390: cf4c 90bd f75b 863d 9ae7 4cbd 2f10 383c
000003a0: e2c5 b7ba 1f2b 73bd 080c 53bd 9a79 6dbc
000003b0: ec1d d43c 6d2c 87bd 4110 4a3d c5b9 cfbc
000003c0: 10aa 95bd 4d3c 91bd f5e1 c8bc c1e6 8d3d
000003d0: d5eb c6bc b490 733d 1296 863d 1f0f debc
000003e0: c7c8 3ebd 220f 1ebd af5a 953d dc4c 723d
000003f0: c87e 9b3c 89e6 843c 75f4 4abc 6b64 b13c

tree_conv.0.weights.bias f4 [256]
-0.05779561 -0.0008859663 -0.056116387 -0.059497934 -0.034982603 -0.07983094 0.069587536 -0.08123544
-0.042514067 -0.064058214 -0.0628158 0.06347472 0.0015908683 0.07371073 0.07785658 -0.04276981
0.026499305 0.06909203 0.06668657 0.022892356 0.054716934 -0.008911996 -0.076044746 -0.050425187
-0.01677263 0.072000206 -0.011330781 0.046518523 0.013816085 -0.033543725 -0.0715148 0.072637536
-0.0069100945 0.016312316 -0.059478812 -0.07842182 -0.0466019 -0.022935407 -0.062028036 0.01946641
-0.012050088 -0.021706197 -0.035500765 0.076006666 0.045652676 0.077685066 -0.009469376 0.06385767
-0.0053371177 0.058749653 -0.0034080762 -0.017238999 0.008356492 -0.0008148683 0.018628336 0.07118986
-0.07680069 -0.07221472 0.05418348 0.024832018 -0.06792638 0.041277073 0.007893313 0.06528368
0.054089084 -0.073321685 0.063421205 0.05781295 -0.07613789 0.07561595 -0.0025262865 -0.03721002
0.02267622 0.07659041 0.045370627 0.07943917 0.01113944 0.023691194 -0.058880255 0.06577982
-0.008823533 -0.037741765 -0.07766029 0.030766055 -0.04461923 0.035204414 0.025728073 -0.07267184
0.054587994 -0.0048295185 -0.048183963 0.05451982 -0.057713848 -0.037057236 -0.054797668 0.007875531
-0.010540327 0.060836244 -0.037903838 0.029940668 0.01871212 -0.013319809 0.04239474 -0.07344002
-0.060270127 0.021403898 0.072537005 0.06793701 0.04861784 0.025455853 -0.04120938 0.059624948
-0.050883282 0.00018025143 -0.07898181 -0.027518854 -0.028845951 0.046182778 0.06939472 -0.05205791
0.05252652 0.013995851 -0.052846037 -0.032127656 -0.04145848 -0.045047775 0.052814092 0.037069913
0.06267203 -0.0007080715 0.0062838714 -0.05583635 -0.07209867 -0.072074614 0.007445072 0.019155456
0.046651226 -0.07166762 -0.059724674 -0.026194565 -0.009456831 0.050539456 0.035057552 -0.044075046
-0.04941336 0.032128096 -0.009453768 0.0671864 0.019741196 -0.04859566 -0.031497095 -0.030227724
-0.0044656843 0.019455124 -0.04019518 0.059821513 -0.074380465 -0.07754124 -0.0025313126 -0.0786468
0.07549126 0.025395729 0.045261316 0.011877923 0.040004496 -0.0289747 -0.04893099 0.052824184
0.047459632 -0.014259756 -0.06480509 0.016403342 -0.073955186 0.05277314 -0.07499261 -0.05151518
0.044125605 0.053829066 0.005375212 -0.029167932 0.043806523 -0.00039360646 -0.045088354 -0.014442485
0.011581218 0.008793523 -0.044317458 -0.008067113 0.005188397 0.008616861 0.055371825 0.021397777
-0.079833284 0.06362221 -0.062073976 -0.057876322 0.07501507 -0.022588868 -0.019180235 -0.01415493
0.041234653 -0.07893153 0.048384357 0.027722165 0.07614805 0.025002806 0.014327887 0.08034109
0.044250403 -0.018124368 -0.028533246 0.07535081 0.0082234675 0.0060185776 0.03042504 0.037007637
0.01348992 -0.03892226 -0.069959894 0.012765188 0.07049655 0.0049656047 -0.03500043 -0.019924974
-0.056034118 0.00014961549 -0.07832699 0.021881424 -0.04084792 0.00024578915 0.0726725 -0.056619465
-0.058400705 -0.014764267 0.036230434 0.0405846 -0.037770756 0.06642154 -0.079550415 0.033955872
-0.011711604 -0.056347392 -0.069907464 0.051958535 -0.06388 -0.04395831 0.040115397 -0.08088867
-0.0030948538 0.06949261 -0.06442323 -0.04417187 0.043820772 -0.0791085 -0.007234608 -0.07511651
00000000: 17bb 6cbd 3140 68ba 4cda 65bd 1bb4 73bd
00000010: eb49 0fbd 677e a3bd e983 8e3d c45e a6bd
00000020: 3b23 2ebd f430 83bd 92a5 80bd 09ff 813d
00000030: af84 d03a a7f5 963d 4573 9f3d 652f 2fbd
00000040: 1215 d93c 1f80 8d3d f892 883d c088 bb3c
00000050: dd1e 603d 9f03 12bc 59bd 9bbd a48a 4ebd
00000060: c166 89bc d874 933d bda4 39bc 358a 3e3d
00000070: dc5c 623c 2565 09bd 5a76 92bd fdc2 943d
00000080: 136e e2bb 68a1 853c 0ea0 73bd 9f9b a0bd
00000090: a2e1 3ebd 09e3 bbbc 1c11 7ebd 0578 9f3c
000000a0: bb6d 45bc 32d1 b1bc 4069 11bd 62a9 9b3d
000000b0: 4dfe 3a3d 5919 9f3d 7125 1bbc cfc7 823d
000000c0: fde2 aebb 7aa3 703d 085a 5fbb cd38 8dbc
000000d0: abe9 083c e39c 55ba 749a 983c fdcb 913d
000000e0: ae49 9dbd 50e5 93bd 7fef 5d3d 846c cb3c
000000f0: fc1c 8bbd 2612 293d f452 013c 73b3 853d
00000100: 848c 5d3d ae29 96bd fae2 813d 46cd 6c3d
00000110: 2fee 9bbd 89dc 9a3d 0e90 25bb 8969 18bd
00000120: 7bc3 b93c 6fdb 9c3d 8dd6 393d 01b1 a23d
00000130: 3382 363c 0914 c23c 6c2c 71bd 92b7 863d
00000140: 9490 10bc 1c97 1abd 5c0c 9fbd 1809 fc3c
00000150: a7c2 36bd 8132 103d aec3 d23c f9d4 94bd
00000160: a997 5f3d f040 9ebb 8c5c 45bd 2d50 5f3d
00000170: 5b65 6cbd 54c9 17bd 8573 60bd 5f08 013c
00000180: 56b1 2cbc 6d2f 793d 0e41 1bbd 2246 f53c
00000190: 294a 993c 543b 5abc 1ba6 2d3d b967 96bd
000001a0: cfdd 76bd 3a57 af3c 488e 943d 8f22 8b3d
000001b0: 8023 473d cb88 d03c 2bcb 28bd 4a39 743d
000001c0: fd6a 50bd e001 3d39 37c1 a1bd 386f e1bc
000001d0: 584e ecbc 272a 3d3d d21e 8e3d ad3a 55bd
000001e0: 0c26 573d db4e 653c 1675 58bd 4a98 03bd
000001f0: 5ed0 29bd 0484 38bd 9753 583d 9fd6 173d
00000200: 315a 803d e09d 39ba efe8 cd3b a8b4 64bd
00000210: 78a8 93bd db9b 93bd caf5 f33b e7eb 9c3c
00000220: 5b15 3f3d 79c6 92bd dca1 74bd fc95 d6bc
00000230: d3f0 1abc 7602 4f3d 8298 0f3d 0988 34bd
00000240: aa65 4abd c098 033d fae3 1abc 0699 893d
00000250: 4ab8 a13c 3e0c 47bd 1903 01bd 22a0 f7bc
00000260: e054 92bb 5a60 9f3c b3a3 24bd 6707 753d
00000270: c954 98bd f1cd 9ebd 61e4 25bb 9311 a1bd
00000280: 299b 9a3d b40a d03c ee63 393d 9f9b 423c
00000290: c1db 233d 5a5c edbc dd6b 48bd 2c5e 583d
000002a0: 0865 423d c0a1 69bc 88b8 84bd 4d60 863c
000002b0: d175 97bd a628 583d ba95 99bd 9501 53bd
000002c0: 0dbd 343d de7b 5c3d 8c22 b03b 96f1 eebc
000002d0: 786e 333d f75c ceb9 91ae 38bd 2ca0 6cbc
000002e0: 26bf 3d3c b512 103c 3986 35bd ed2b 04bc
000002f0: 6e03 aa3b bc2d 0d3c 91cd 623d 644a af3c
00000300: a27f a3bd 5c4c 823d 4841 7ebd b90f 6dbd
00000310: 80a1 993d 4a0c b9bc de1f 9dbc 14ea 67bc
00000320: abe5 283d dba6 a1bd ad2e 463d 9819 e33c
00000330: 82f3 9b3d afd2 cc3c 84bf 6a3c df89 a43d
00000340: e93f 353d 8e79 94bc 8ebe e9bc 8751 9a3d
00000350: b9bb 063c 7d37 c53b ef3d f93c 5295 173d
00000360: d304 5d3c f36c 1fbd 2247 8fbd 1425 513c
00000370: 7f60 903d 83b6 a23b 9c5c 0fbd b339 a3bc
00000380: 0884 65bd 1ae2 1c39 e769 a0bd ac40 b33c
00000390: 2650 27bd 43dd 8039 52d5 943d d0e9 67bd
000003a0: 9435 6fbd d3e5 71bc 5d66 143d 0a3c 263d
000003b0: 82b5 1abd 0408 883d 54eb a2bd 5015 0b3d
000003c0: 07e2 3fbc 86cc 66bd a52b 8fbd 79d2 543d
000003d0: 84d3 82bd a10d 34bd 0b50 243d f6a8 a5bd
000003e0: 08d3 4abb 2452 8e3d 54f0 83bd 90ed 34bd
000003f0: 697d 333d a303 a2bd 4a10 edbb afd6 99bd

tree_conv.3.weights.weight f4 [128, 256, 3]
0.6082536 -0.84306884 0.62626296 0.49173412 0.4725052 0.891083 0.2042288 -0.8673291
0.65951264 0.46176168 -0.5459585 -0.20216914 0.43527126 -0.5417761 0.470153 0.21089414
-0.20528558 -0.42679632 0.21956328 -0.23290555 -0.40996015 0.4025873 -0.6956033 -0.23459883
0.5427712 0.6982255 0.32943314 0.62559557 -1.0470841 0.115259536 0.5595288 0.1435264
0.8602776 -0.44456702 -0.24155733 -0.4964129 0.34567347 0.33574215 0.75176173 0.020798108
0.46010804 0.45010936 0.4939574 -0.46436352 0.4027709 0.23473306 0.18034872 0.68196154
0.552298 -0.15127845 0.8699435 0.42502737 0.35504037 -0.27055338 0.5784045 -0.9561913
0.17905836 -0.3098945 0.54950887 -0.3170667 -0.3439031 -0.6854638 -0.8095288 0.4491101
-0.20590682 -0.15472232 0.09252996 0.28428212 0.76861733 0.6167647 -1.0245434 0.79173166
0.51919794 -0.94691914 0.7113164 0.59497094 -0.04379786 0.9054571 0.14681272 0.3412838
-0.26209462 0.52395827 0.18208884 0.007569347 0.06495367 -0.86065495 0.26575428 0.4499852
0.4379574 -0.026824716 0.65672505 -0.7508413 0.69279313 0.6078163 0.08338559 0.8921988
0.4990893 0.041811515 0.9491575 0.5319753 -0.861031 0.15315758 0.41162205 0.3387447
-0.2476858 0.51512396 -0.51093876 -0.22457673 -0.18530637 -0.18467587 -0.2865948 0.46864668
0.019497849 0.020131323 0.57062054 -0.8529919 0.089187905 0.7000923 -1.0743778 0.3241619
0.11412267 0.45635965 -0.09053937 0.52127355 -0.50700283 -0.12191942 0.3933027 -0.68662226
-0.18133692 0.26718184 0.2591658 0.72188234 0.7030156 -1.114636 0.2856488 0.39481452
0.44775924 -0.28710878 0.42631972 0.14742625 -0.36893433 0.42387903 -1.0879364 -0.19071867
0.21203813 0.1927145 -0.18597925 0.57607186 -0.6449836 -0.19748318 0.7534439 -0.89525133
0.07776699 0.48560357 -0.056684114 0.84855837 0.08782325 0.22576095 0.7373511 0.38016552
-0.24533299 -0.33446822 0.4650403 -0.4264609 0.37135577 0.5018734 -0.14068119 0.70121205
0.27443743 -1.0851309 0.653384 -0.28289092 0.36517164 -0.39190167 -0.55843216 -0.5993169
-0.31551832 0.5356337 0.1432998 0.8176836 0.55879843 0.20139234 0.76598394 0.37793437
0.2735233 -0.29164362 0.3319149 0.12039804 0.74271613 -0.13266289 0.06444326 -0.3693631
0.7355361 -0.8085235 0.57798433 0.56608295 -0.6293299 -0.15923221 0.05097997 -0.26542738
-0.4765186 0.306811 -0.5341296 -0.3550685 0.35212216 0.5596078 0.4398417 0.28229097
0.042800866 -0.33181417 -0.1107222 -0.34004208 -0.1710217 0.27862403 -0.25967875 -0.3029466
0.3278137 0.016242119 0.8993397 -0.28433102 -0.43635413 -0.65702057 0.16472189 0.6184901
0.2595005 0.5961449 -0.46114507 -0.06686248 0.34081167 0.26908693 0.79487056 0.12921472
-0.37417823 -0.37037387 0.21963055 0.513092 -0.25134212 0.06579883 -0.23007101 0.64216197
0.53223526 -0.8950621 0.6577929 0.33487147 0.31016386 0.93012035 0.6379723 -0.9622665
0.05506926 -0.35569555 -0.57849944 -0.41635275 0.5646929 -0.5751267 0.6759079 0.28762138
00000000: 82b6 1b3f 5cd3 57bf c552 203f 93c4 fb3e
00000010: 34ec f13e 041e 643f 5b21 513e 4809 5ebf
00000020: d2d5 283f 076c ec3e f0c3 0bbf 6d05 4fbe
00000030: e0db de3e d7b1 0abf e5b7 f03e a2f4 573e
00000040: 6236 52be 0c85 dabe 32d5 603e cb7e 6ebe
00000050: 4ce6 d1be ec1f ce3e 0f13 32bf ad3a 70be
00000060: 0ef3 0a3f e8be 323f 76ab a83e 0827 203f
00000070: da06 86bf 310d ec3d 483d 0f3f 96f8 123e
00000080: 273b 5c3f 4a9e e3be ce5a 77be d529 febe
00000090: 1dfc b03e 65e6 ab3e 7573 403f cb60 aa3c
000000a0: 4893 eb3e bc74 e63e fce7 fc3e 0ec1 edbe
000000b0: fd37 ce3e dd5d 703e 56ad 383e 0895 2e3f
000000c0: 6763 0d3f bde8 1abe 9eb4 5e3f 309d d93e
000000d0: dac7 b53e f985 8abe 5112 143f f4c8 74bf
000000e0: 135b 373e 7eaa 9ebe 9dac 0c3f 9156 a2be
000000f0: 1114 b0be 8e7a 2fbf 483d 4fbf c2f1 e53e
00000100: 3dd9 52be 876f 1ebe 5980 bd3d 6d8d 913e
00000110: 1bc4 443f 4be4 1d3f 3d24 83bf edae 4a3f
00000120: 28ea 043f 4b69 72bf d518 363f 0450 183f
00000130: 6365 33bd 09cc 673f 1356 163e c0bc ae3e
00000140: 4431 86be 2122 063f 7f75 3a3e 4908 f83b
00000150: 6e06 853d e253 5cbf f210 883e 7664 e63e
00000160: f43b e03e 82bf dbbc 221f 283f 2337 40bf
00000170: e45a 313f d999 1b3f 10c6 aa3d 2467 643f
00000180: a288 ff3e 8d42 2b3d fcfb 723f 892f 083f
00000190: 876c 5cbf 57d5 1c3e 20c0 d23e f26f ad3e
000001a0: 59a1 7dbe 2adf 033f e2cc 02bf 71f7 65be
000001b0: f4c0 3dbe ac1b 3dbe 8ebc 92be 75f2 ef3e
000001c0: f4b9 9f3c 72ea a43c 3014 123f ad5d 5abf
000001d0: 26a8 b63d 4039 333f 3685 89bf 8cf8 a53e
000001e0: 25b9 e93d f9a7 e93e b56c b9bd 2f72 053f
000001f0: f0ca 01bf e4b0 f9bd f95e c93e 7ac6 2fbf
00000200: 63b0 39be 0fcc 883e 61b1 843e 48cd 383f
00000210: d5f8 333f 64ac 8ebf 8f40 923e 2125 ca3e
00000220: b340 e53e ecff 92be 9446 da3e e8f6 163e
00000230: f6e4 bcbe ac06 d93e 8041 8bbf c14b 43be
00000240: 8620 593e f356 453e 5871 3ebe 7279 133f
00000250: a51d 25bf 0839 4abe b3e1 403f 312f 65bf
00000260: 4d44 9f3d 08a1 f83e 9a2d 68bd 1f3b 593f
00000270: addc b33d e12d 673e 0bc3 3c3f 0ea5 c23e
00000280: 9238 7bbe 6b3f abbe c319 ee3e 1559 dabe
00000290: 5822 be3e c67a 003f bb0e 10be a282 333f
000002a0: 1083 8c3e 92e5 8abf 2c44 273f 14d7 90be
000002b0: c7f7 ba3e 56a7 c8be 69f5 0ebf d56c 19bf
000002c0: 9e8b a1be 4a1f 093f 2fbd 123e b653 513f
000002d0: 6a0d 0f3f cb39 4e3e 8617 443f 9d80 c13e
000002e0: 3f0b 8c3e 5052 95be c0f0 a93e 3f93 f63d
000002f0: a522 3e3f c8d8 07be d4fa 833d 291d bdbe
00000300: 184c 3c3f 65fb 4ebf c8f6 133f d0ea 103f
00000310: c41b 21bf c50d 23be 5fd0 503d 19e6 87be
00000320: 3ffa f3be 5516 9d3e b8bc 08bf 8acb b5be
00000330: 5b49 b43e 7542 0f3f ee32 e13e 7188 903e
00000340: f64f 2f3d 8ce3 a9be 52c2 e2bd ff19 aebe
00000350: 5020 2fbe cfa7 8e3e 9df4 84be d11b 9bbe
00000360: 33d7 a73e 310e 853c 203b 663f d693 91be
00000370: cf69 dfbe 8032 28bf dbac 283e 5e55 1e3f
00000380: 40dd 843e f49c 183f 351b ecbe 32ef 88bd
00000390: de7e ae3e c3c5 893e a37c 4b3f dd50 043e
000003a0: 4a94 bfbe a5a1 bdbe d5e6 603e ff59 033f
000003b0: eaaf 80be 89c1 863d bc97 6bbe ba64 243f
000003c0: 9240 083f ca22 65bf 1e65 283f 4674 ab3e
000003d0: cccd 9e3e 5e1c 6e3f 2752 233f 1957 76bf
000003e0: 4e90 613d ba1d b6be 8a18 14bf 302c d5be
000003f0: b78f 103f 813b 13bf 4d08 2d3f 1c43 933e

tree_conv.3.weights.bias f4 [128]
0.39786223 0.9361518 0.39118516 -0.6856816 0.30046263 -0.91836655 1.1501075 0.649047
0.2581345 -0.24371369 0.83526826 0.55285615 0.3791644 0.70356286 0.57380754 -0.9038843
-0.59457093 -1.0872159 0.61687016 -0.5994444 -0.44396225 -0.32872322 -0.6486694 -0.64873785
-0.83037484 -0.77055794 0.93989325 -0.54495096 -0.69907004 -1.2641934 0.5619971 -0.6384966
-0.47593328 -0.63932353 -0.44255728 -0.67006236 -0.5238267 -0.44551247 -0.6952702 0.75806683
0.258896 0.3818858 -0.6821985 0.32023707 0.43730348 -0.499804 -0.7583309 -0.86922604
-0.650797 0.7126217 -0.4540821 0.5371861 -0.27286744 0.447717 0.7403464 -0.10148255
-0.6374879 0.12637267 -0.79716194 0.54472303 -0.60618925 0.62646955 -0.90547895 -0.666834
0.4957098 -1.071348 -1.0292494 0.5714887 -0.86534935 0.7946477 -0.15308124 -0.61770076
-0.624706 0.13986838 0.45197326 0.4725995 -0.46474802 -0.8285876 0.60398966 0.58057797
-0.6317254 -0.6386496 1.1285399 -0.80706453 -1.154403 -0.67521596 -0.67820704 -0.062826835
-0.51082486 -1.2400385 -0.77818996 0.42394775 -0.90632576 0.6329048 0.4212562 -0.95277613
-0.75076056 -0.6678881 0.04469789 0.85339904 -0.6478585 0.61678344 0.81743926 -1.1188579
0.27082855 -0.48307234 0.49016744 0.54374033 1.2666504 0.52113545 -0.7059873 -0.5732293
0.49642745 0.47347906 0.36625874 0.36474407 -0.36741307 0.4922341 -0.6139881 0.5580348
-0.79246235 -0.2191141 1.292736 0.79599655 -0.46382254 0.006270984 -1.0223658 0.4732401
00000000: 99b4 cb3e a5a7 6f3f 6c49 c83e d488 2fbf
00000010: 3dd6 993e 121a 6bbf b936 933f f227 263f
00000020: 352a 843e 1590 79be 24d4 553f fb87 0d3f
00000030: d621 c23e b21c 343f 0de5 123f f664 67bf
00000040: cd35 18bf e429 8bbf 34eb 1d3f 3075 19bf
00000050: 054f e3be 694e a8be 330f 26bf af13 26bf
00000060: 7293 54bf 4943 45bf d89c 703f e881 0bbf
00000070: 41f6 32bf 17d1 a1bf 0bdf 0f3f 8374 23bf
00000080: 87ad f3be b5aa 23bf de96 e2be 3589 2bbf
00000090: 8219 06bf 361a e4be 3afd 31bf ab10 423f
000000a0: 048e 843e 8986 c33e 90a4 2ebf 1df6 a33e
000000b0: 3ee6 df3e 4fe6 ffbe f921 42bf 9985 5ebf
000000c0: a29a 26bf 606e 363f 737d e8be 0785 093f
000000d0: 48b5 8bbe 2a3b e53e 5787 3d3f 15d6 cfbd
000000e0: 6832 23bf d667 013e ce12 4cbf f872 0b3f
000000f0: 382f 1bbf 4f60 203f 78cd 67bf a2b5 2abf
00000100: adcd fd3e ee21 89bf 72be 83bf 154d 123f
00000110: 8987 5dbf 086e 4b3f 54c1 1cbe a321 1ebf
00000120: bbec 1fbf a839 0f3e 0a69 e73e 90f8 f13e
00000130: 74f3 edbe 511e 54bf 119f 1a3f c2a0 143f
00000140: c1b8 21bf 8a7e 23bf ff73 903f c89b 4ebf
00000150: 7ac3 93bf f4da 2cbf fa9e 2dbf 5bab 80bd
00000160: 6bc5 02bf 95b9 9ebf 7537 47bf ae0f d93e
00000170: f704 68bf 0d06 223f e5ae d73e 23e9 73bf
00000180: d831 40bf b7fa 2abf 2215 373d 5c78 5a3f
00000190: 0eda 25bf 85e5 1d3f b343 513f bc36 8fbf
000001a0: 0aaa 8a3e 4255 f7be 3af7 fa3e 9132 0b3f
000001b0: 9a21 a23f 2269 053f 95bb 34bf 28bf 12bf
000001c0: bd2b fe3e d96b f23e 4486 bb3e bcbf ba3e
000001d0: 911d bcbe 1c06 fc3e 532e 1dbf 5edb 0e3f
000001e0: d0de 4abf 725f 60be 6078 a53f 6ec6 4b3f
000001f0: 267a edbe d47c cd3b e2dc 82bf 874c f23e

tree_conv.6.weights.weight f4 [64, 128, 3]
0.4898734 0.6881991 0.8426887 0.7333706 0.37520757 -0.560448 0.43551162 0.19420725
0.38697252 0.59985566 -0.57169944 0.77609193 -0.8168096 0.5206574 -0.49144384 0.06795943
0.7468505 -0.42296797 0.7543215 -0.6807706 0.63586533 0.9624684 -0.5831954 0.49716395
0.24121036 -0.89629954 -0.65675294 0.831797 0.77062464 -0.21449105 0.28990698 0.6036955
-0.393253 0.6308939 0.5795236 0.23574765 -0.5620138 -0.75700325 -0.47719643 1.0642413
0.313749 0.9380675 0.6711014 0.41773614 -0.6245324 -0.066530086 -0.4676583 -0.42543834
0.123078905 0.046408195 0.5098753 -0.043291014 0.80940396 -0.6195328 -0.508754 -0.046681747
0.72038 -0.48570725 -0.22210166 -0.40131578 -0.87828994 0.45595044 -0.461269 0.77270055
-0.5467415 0.669133 -0.64026594 0.615657 0.5548891 -0.46478233 0.2078386 -0.64287007
-0.03777745 0.6233798 -0.79771334 0.4207699 -0.7061096 0.68216294 0.31067872 0.57608086
-0.40529662 0.6438206 0.20940432 0.51406777 -0.27216953 -0.40300372 0.37082046 0.8670727
0.7572069 0.38630506 -0.32392922 -0.2750887 -0.41628924 0.5215313 0.51040727 0.5525984
0.98197633 -0.5223838 0.553647 0.8652667 -0.26421434 -0.57823384 0.64821154 0.18325755
0.3796696 -0.51090443 -0.40694928 -0.43196937 0.6641032 0.6128222 0.722171 -0.51886344
-0.025222389 -0.6253509 0.021800308 0.6828397 -0.6625382 0.5635652 0.18063551 -0.39959028
0.64196545 -0.58690774 -0.36844078 0.8501184 -0.10504949 0.38578835 0.42396605 0.3644458
-0.6349707 -0.39012858 0.585481 -0.37446356 -0.44186732 0.43868575 -0.4465195 0.54223466
0.34908533 -0.43662903 0.47889838 0.7307389 0.93805265 -0.6083489 0.7699329 -0.4830562
0.4639669 -0.5699972 0.75576234 0.6891154 0.65915656 0.67378825 -0.73058534 -0.23601146
-0.6714671 0.43921775 -0.23815836 0.7251846 0.8582983 1.2326877 -0.54811996 0.04189563
-0.14427418 -0.43485168 -0.005893448 0.923909 -0.594038 0.65533555 0.8674206 -0.23073135
0.21444084 -0.5979895 0.7243394 0.72697186 0.9056837 1.0246155 -0.38005802 -0.7456546
-0.3012986 0.27149928 -0.62241316 -0.39748493 0.6494263 -0.65470856 0.30149865 0.5273723
-0.50560224 0.5437487 -0.49312365 0.5673369 0.6675195 0.5378847 0.6294544 0.6642733
-0.5874273 -0.65764326 -0.6883416 0.50561994 0.7139485 0.060826182 -0.62171835 0.67256546
0.021093471 0.2753547 -0.041459788 0.60831213 -0.793344 0.15417442 -0.043469742 0.27176479
-0.76124865 -0.3819998 0.51534617 -0.5158273 0.100421585 0.7698431 -0.8050273 0.69245154
-0.7182739 0.4386364 -0.4201046 0.83888215 0.62998956 -0.5715694 0.7185565 0.21263395
-0.36287314 0.37709174 -0.75726223 0.45353764 -0.16183038 0.03211312 -0.59323794 0.5419768
0.60236925 0.7106448 -0.40357754 -0.12073132 -0.4278745 0.7962981 -0.8454673 0.69338024
0.59435856 -0.6337436 0.754496 -0.17542504 0.05080381 0.17111732 0.77818054 0.31364837
0.7281817 0.4532757 0.5736099 0.71765375 -0.30461836 0.47822997 -0.62798774 -0.5047458
00000000: b0d0 fa3e d12d 303f 72ba 573f 2dbe 3b3f
00000010: 351b c03e 8579 0fbf 61fb de3e 44de 463e
00000020: 4321 c63e 2490 193f e55a 12bf f6ad 463f
00000030: 6f1a 51bf ce49 053f 879e fbbe 502e 8b3d
00000040: 9831 3f3f 428f d8be 371b 413f fb46 2ebf
00000050: 12c8 223f 5464 763f 4b4c 15bf 468c fe3e
00000060: d9ff 763e e373 65bf f620 28bf a6f0 543f
00000070: a847 453f 8ba3 5bbe b06e 943e ca8b 1a3f
00000080: 7558 c9be 4382 213f a95b 143f d567 713e
00000090: 23e0 0fbf f7ca 41bf 1753 f4be 0f39 883f
000000a0: b5a3 a03e 3125 703f 4dcd 2b3f 83e1 d53e
000000b0: 5be1 1fbf ed40 88bd e970 efbe 0ed3 d9be
000000c0: cb10 fc3d 8516 3e3d 3087 023f eb51 31bd
000000d0: 1935 4f3f b499 1ebf b43d 02bf 5c35 3fbd
000000e0: d36a 383f 9fae f8be 9e6e 63be 4379 cdbe
000000f0: 9cd7 60bf 5672 e93e 732b ecbe b4cf 453f
00000100: 40f7 0bbf 4d4c 2b3f 78e8 23bf b29b 1d3f
00000110: 360d 0e3f f3f7 edbe a4d3 543e 2293 24bf
00000120: 87bc 1abd d295 1f3f f136 4cbf 276f d73e
00000130: 99c3 34bf 3ba2 2e3f 4811 9f3e 097a 133f
00000140: 0a83 cfbe 6dd1 243f 166e 563e f299 033f
00000150: ce59 8bbe 8156 cebe 2edc bd3e 7af8 5d3f
00000160: 50d8 413f c7c9 c53e 0dda a5be 6dd8 8cbe
00000170: dd23 d5be 1383 053f 0daa 023f 1777 0d3f
00000180: cd62 7b3f f2ba 05bf cfbb 0d3f 1e82 5d3f
00000190: 1a47 87be 2207 14bf 31f1 253f dea7 3b3e
000001a0: 0e64 c23e a2ca 02bf a85b d0be 172b ddbe
000001b0: ab02 2a3f eae1 1c3f 33e0 383f 3cd4 04bf
000001c0: 2f9f cebc ff16 20bf 8f96 b23c 95ce 2e3f
000001d0: 1a9c 29bf cf45 103f 84f8 383e 1997 ccbe
000001e0: d957 243f 963f 16bf 45a4 bcbe 5ca1 593f
000001f0: 3024 d7bd 0d86 c53e 1412 d93e a498 ba3e
00000200: 718d 22bf efbe c7be 15e2 153f b0b9 bfbe
00000210: 6f3c e2be 6b9b e03e 349e e4be e4cf 0a3f
00000220: 50bb b23e d78d dfbe 2b32 f53e b411 3b3f
00000230: 3824 703f c1bc 1bbf 531a 453f 2453 f7be
00000240: 128d ed3e 56eb 11bf a479 413f de69 303f
00000250: 7cbe 283f 637d 2c3f a407 3bbf fdac 71be
00000260: 45e5 2bbf 26e1 e03e c9df 73be b3a5 393f
00000270: 70b9 5b3f b6c8 9d3f 9751 0cbf c19a 2b3d
00000280: 9cbc 13be e1a4 debe d31d c1bb 4d85 6c3f
00000290: e012 18bf 12c4 273f 470f 5e3f d744 6cbe
000002a0: 6196 5b3e d715 19bf 4f6e 393f d41a 3a3f
000002b0: e3da 673f 9a26 833f f796 c2be 38e3 3ebf
000002c0: cf43 9abe f401 8b3e 7856 1fbf 2583 cbbe
000002d0: cd40 263f fb9a 27bf 085e 9a3e df01 073f
000002e0: 266f 01bf 1d33 0b3f b47a fcbe fe3c 113f
000002f0: 8fe2 2a3f d0b2 093f ec23 213f d10d 2a3f
00000300: a361 16bf 4f5b 28bf 2837 30bf 4f70 013f
00000310: 54c5 363f e024 793d ef28 1fbf 402d 2c3f
00000320: 37cc ac3c 4bfb 8c3e bdd1 29bd 58ba 1b3f
00000330: 9818 4bbf e6df 1d3e 540d 32bd c124 8b3e
00000340: 31e1 42bf 7a95 c3be baed 033f 420d 04bf
00000350: d5a9 cd3d 7014 453f 4516 4ebf 8144 313f
00000360: cce0 37bf f394 e03e f317 d7be fbc0 563f
00000370: ff46 213f 5f52 12bf 52f3 373f b7bc 593e
00000380: 82ca b9be 2b12 c13e f0db 41bf 1636 e83e
00000390: ddb6 25be 0c89 033d 71de 17bf febe 0a3f
000003a0: df34 1a3f d1ec 353f b7a1 cebe fb41 f7bd
000003b0: 5e12 dbbe 31da 4b3f 8c70 58bf 5e81 313f
000003c0: e227 183f 053d 22bf a626 413f 9fa2 33be
000003d0: a817 503d 6139 2f3e d736 473f 8596 a03e
000003e0: 1e6a 3a3f c113 e83e 19d8 123f 28b8 373f
000003f0: f0f6 9bbe 8fda f43e cec3 20bf 0537 01bf

tree_conv.6.weights.bias f4 [64]
0.32105142 -0.60079736 0.29428172 0.73394096 0.7027391 0.29256588 -0.6538132 -0.58321387
0.1521374 0.42299733 0.39149556 -0.7507339 0.39599785 0.46240145 -0.054349568 -0.7358742
0.42801335 0.0712759 0.4002656 0.26588014 -0.08814432 0.63124776 0.74637747 0.32008797
-0.31039068 0.44636792 -0.79545975 0.630027 0.44647318 0.5010507 0.5519265 -0.6535587
0.3384562 0.6032389 0.13506651 -0.56822354 0.51441073 0.6383548 0.32333034 0.46955356
0.35454988 0.45816588 -0.028868534 0.18670042 0.39038843 0.1586707 0.57198197 -0.1374378
0.60891336 0.72827595 0.48803183 -0.6393704 0.8422257 0.61574745 0.6204415 0.66633874
-0.3717846 0.6646676 -0.18398336 -0.591942 -0.85981363 -0.10806345 -0.415685 0.18035662
00000000: da60 a43e dbcd 19bf 18ac 963e 8ee3 3b3f
00000010: b6e6 333f 32cb 953e 4d60 27bf 814d 15bf
00000020: e8c9 1b3e 1b93 d83e 1b72 c83e 1930 40bf
00000030: 3bc0 ca3e e2bf ec3e a79d 5ebd 4062 3cbf
00000040: 9124 db3e 19f9 913d 9def cc3e 7121 883e
00000050: 0285 b4bd 7499 213f 9812 3f3f 92e2 a33e
00000060: 87eb 9ebe 568a e43e 40a3 4bbf 7349 213f
00000070: 2298 e43e dc44 003f 0e4b 0d3f 9f4f 27bf
00000080: 224a ad3e dd6d 1a3f e04e 0a3e 1977 11bf
00000090: 6cb0 033f 386b 233f 8e8b a53e 5369 f03e
000000a0: 9087 b53e b894 ea3e b47d ecbc 652e 3f3e
000000b0: fee0 c73e 927a 223e 696d 123f 7fbc 0cbe
000000c0: bfe1 1b3f 4b70 3a3f 4fdf f93e c7ad 23bf
000000d0: 1a9c 573f a0a1 1d3f 41d5 1e3f 2d95 2a3f
000000e0: 8d5a bebe a827 2a3f 2266 3cbe 8389 17bf
000000f0: bf1c 5cbf 5f50 ddbd aad4 d4be 68af 383e

tree_conv.9.weight f4 [64]
0.1322645 0.7128944 0.554038 0.6465927 -0.27852127 0.5221531 0.5305254 0.4368819
0.23862629 1.2701236 0.2204831 0.819043 0.938522 -0.39759368 0.5611 0.058047354
-0.33783385 0.017042154 0.8760348 0.014701193 0.19281627 -0.16378991 0.37610805 -0.5138342
0.6443488 -0.40984738 -0.14398175 0.84376436 0.49010262 0.720289 0.10412359 0.36270642
-0.18460402 0.39113638 0.58251536 0.82020843 0.09293436 0.28213564 0.2781522 0.3804916
-0.24921474 -0.42122644 -0.25128496 0.28207302 0.5618568 0.8680486 1.151882 0.01574854
0.3561062 0.729303 -0.17771016 0.7530476 0.26848075 1.0807345 0.11162075 0.31574228
0.033705093 0.54174405 0.68945175 0.332868 -0.7073674 -0.4052967 0.23793483 0.48246017
00000000: 5870 073e 3f80 363f 6fd5 0d3f 1987 253f
00000010: 579a 8ebe d3ab 053f 83d0 073f fcae df3e
00000020: 735a 743e 6993 a23f 52c6 613e cdac 513f
00000030: fa42 703f 6691 cbbe 40a4 0f3f 10c3 6d3d
00000040: 8ff8 acbe fd9b 8b3c d143 603f 46dd 703c
00000050: a171 453e 8bb8 27be 3c91 c03e a38a 03bf
00000060: 0bf4 243f 84d7 d1be f46f 13be f100 583f
00000070: bbee fa3e dc64 383f c03e d53d a8b4 b93e
00000080: d608 3dbe 0743 c83e ba1f 153f 2ef9 513f
00000090: 5f54 be3d 1574 903e f769 8e3e cccf c23e
000000a0: 2632 7fbe feaa d7be 6ca8 80be e06b 903e
000000b0: d9d5 0f3f 6f38 5e3f df70 933f 1503 813c
000000c0: 8d53 b63e 9ab3 3a3f a7f9 35be bac7 403f
000000d0: 4f76 893e 8255 8a3f 6b99 e43d f9a8 a13e
000000e0: 5a0e 0a3d bdaf 0a3f e97f 303f ad6d aa3e
000000f0: 0816 35bf 0d83 cfbe 30a5 733e 0505 f73e

tree_conv.9.bias f4 [64]
0.3070607 -0.90091264 -0.16913205 -0.08444693 -0.12305348 0.526448 -0.14094593 -0.28412932
0.14127493 -0.010413399 -0.6608983 -0.44958255 -0.29230514 0.12554981 0.07155493 0.13712318
-0.22027232 -0.07500322 0.2538744 -0.72014487 0.14113706 -0.42468017 0.286266 -0.4289914
0.3404334 0.39033332 -0.6610212 -0.0013772026 0.6534003 -0.30364594 0.13629788 0.123022735
-0.21582721 -0.22494842 -0.30562147 -0.395823 -0.73450077 0.6917397 -0.46174017 -0.19155876
-0.71319515 0.3303213 0.20427546 -0.52461696 -0.06390081 0.118138164 0.22058737 -0.38421333
0.42241699 0.17326331 0.13207608 0.1136846 -0.0070532896 0.3657754 0.08476558 -0.11501978
0.29431087 0.07815085 0.2871192 -0.48462573 -0.004097283 0.1403105 -0.38233152 0.45091307
00000000: 0f37 9d3e 36a2 66bf f430 2dbe 83f2 acbd
00000010: 7703 fcbd 4cc5 063f 2154 10be 6679 91be
00000020: 60aa 103e f69c 2abc a230 29bf af2f e6be
00000030: 05a9 95be 2190 003e 648b 923d 056a 0c3e
00000040: 118f 61be 4a9b 99bd d3fb 813e 6a5b 38bf
00000050: 3c86 103e ae6f d9be 7591 923e c3a4 dbbe
00000060: 494d ae3e c5d9 c73e af38 29bf 4083 b4ba
00000070: 3e45 273f 7b77 9bbe ac91 0b3e 58f3 fb3d
00000080: cf01 5dbe e158 66be 6b7a 9cbe 50a9 cabe
00000090: 3e08 3cbf da15 313f 3569 ecbe fb27 44be
000000a0: f593 36bf e01f a93e 962d 513e 4c4d 06bf
000000b0: 6ede 82bd 6cf2 f13d a8e1 613e 9cb7 c4be
000000c0: 0a47 d83e f06b 313e f43e 073e 79d3 e83d
000000d0: 481f e7bb ea46 bb3e 9499 ad3d 7e8f ebbd
000000e0: eaaf 963e 8e0d a03d 4a01 933e dd20 f8be
000000f0: 8042 86bb 8ead 0f3e f5c0 c3be 14de e63e

tree_conv.9.running_mean f4 [64]
4.1695957 -0.12575012 3.601998 1.9135368 5.7318864 2.704646 1.7282319 1.6222305
2.6450965 3.6035156 4.6949105 -0.12616643 2.2704957 0.811331 5.1862063 -0.12611297
4.159252 4.3726315 2.148052 1.6884978 1.9569944 -0.12155775 3.9664466 1.5613506
3.7656088 2.230688 -0.1264736 0.9761043 3.2927399 2.2449925 1.8952688 -0.12617545
3.4546885 3.9121518 -0.12563242 4.74634 1.8203255 4.0481052 3.8726373 3.7102973
4.8748674 0.98593986 2.0818229 4.108121 2.4799743 0.43539226 0.4587194 3.6471074
1.462027 0.4858063 4.915312 -0.12649535 0.09782565 4.4003525 6.874781 3.3433018
4.575146 4.724135 4.0123286 -0.12603632 2.0994112 3.3681982 3.2599401 4.828907
00000000: 546d 8540 a4c4 00be 2387 6640 c6ee f43f
00000010: 9d6b b740 ec18 2d40 b436 dd3f 40a5 cf3f
00000020: 4349 2940 00a0 6640 b53c 9640 c631 01be
00000030: cd4f 1140 63b3 4f3f 67f5 a540 c223 01be
00000040: 9818 8540 99ec 8b40 af79 0940 b220 d83f
00000050: cb7e fa3f 45f3 f8bd 43da 7d40 56da c73f
00000060: bcff 7040 98c3 0e40 4c82 01be f9e1 793f
00000070: 40bc 5240 f5ad 0f40 2b98 f23f 2334 01be
00000080: 9e19 5d40 b260 7a40 c9a5 00be 04e2 9740
00000090: 6d00 e93f 148a 8140 4ad9 7740 8375 6d40
000000a0: eafe 9b40 8e66 7c3f 963c 0540 ba75 8340
000000b0: e6b7 1e40 bceb de3e 45dd ea3e 356a 6940
000000c0: b323 bb3f 9abb f83e 3c4a 9d40 ff87 01be
000000d0: d058 c83d b0cf 8c40 35fe db40 a8f8 5540
000000e0: 9967 9240 1d2c 9740 ff64 8040 aa0f 01be
000000f0: c15c 0640 8f90 5740 dca2 5040 6886 9a40

tree_conv.9.running_var f4 [64]
0.80573016 0.0013505854 0.54126453 0.28810355 1.0843946 0.40132436 0.32959598 0.38864306
0.7143913 0.87711185 0.78963983 0.0012396881 1.0182784 0.5544802 1.0968755 0.001458921
1.0454018 1.0623211 0.37267178 0.43787453 0.2360539 0.0013550554 0.54782426 0.24294877
0.74739826 1.0890129 0.0011594055 0.41216826 0.9895308 0.29195294 0.13881376 0.0012137461
0.50729495 0.9633843 0.0011568262 1.2317659 0.21500252 0.90802145 0.5893409 0.47822922
0.69846123 0.5469402 2.110629 0.7022486 0.24337266 0.296977 0.29632866 0.49704775
0.83512276 0.16371419 1.085021 0.0011594499 0.161137 0.84160537 1.4967082 0.5401158
1.1911588 0.90758014 1.1848316 0.0012423722 0.52872974 0.38963568 0.49359977 1.3511419
00000000: 5544 4e3f 2006 b13a 5090 0a3f 4f82 933e
00000010: 71cd 8a3f 637a cd3e cec0 a83e 39fc c63e
00000020: 59e2 363f 678a 603f d625 4a3f 087d a23a
00000030: f256 823f 6af2 0d3f 6b66 8c3f 4439 bf3a
00000040: bacf 853f 23fa 873f d6ce be3e 1731 e03e
00000050: 1db8 713e 1d9c b13a 363e 0c3f 90c7 783e
00000060: 7e55 3f3f c664 8b3f 31f7 973a b807 d33e
00000070: e451 7d3f db7a 953e 3225 0e3e 9016 9f3a
00000080: 15de 013f 5aa0 763f a5a0 973a 81aa 9d3f
00000090: 9f29 5c3e 1874 683f 0cdf 163f 76da f43e
000000a0: 5bce 323f 4604 0c3f 8c14 0740 90c6 333f
000000b0: af36 793e 5f0d 983e 64b8 973e 0b7d fe3e
000000c0: 9bca 553f b1a4 273e f8e1 8a3f aff8 973a
000000d0: 1901 253e 7373 573f 2294 bf3f 0745 0a3f
000000e0: e477 983f 2c57 683f 90a8 973f 18d7 a23a
000000f0: d55a 073f 547e c73e 1cb9 fc3e 38f2 ac3f

tree_conv.10.weight f4 [32, 64]
-0.13601351 0.42852795 0.38065743 0.37324142 0.8687095 0.12741157 -0.26230842 0.29657346
-0.22704563 1.152187 -0.3809763 0.6648963 1.0408177 -0.39122933 0.6001405 -0.15915202
-0.88084954 -0.10070101 0.21137775 0.33642435 -0.060894728 0.59079474 -0.442521 0.32355845
0.3091598 -0.38817352 -0.0030861606 0.27924976 -0.57284606 0.41828656 0.5160126 -0.2389861
0.10570746 0.09058268 0.1980627 -0.3112211 -0.14007695 -0.33639967 0.16572651 0.14398491
-0.13146685 -0.7739742 -0.4945938 0.30869356 0.123631194 0.38078535 -1.1809444 -0.0019670068
-0.18237993 0.09106457 -0.1617435 0.38750046 0.40275097 0.5027921 0.2619566 -0.55741405
-0.062111072 0.16159913 0.41939732 -0.12950602 -0.52412516 -0.15112995 0.35908666 -0.81708723
-0.6328399 0.76039374 0.6437526 -0.5897056 0.089411296 -0.75495374 0.33959457 0.34969035
0.69083244 0.21844816 -0.2699831 0.47715244 0.18568511 -0.39072946 0.24609922 -0.5951427
0.27454883 -0.1332155 -0.0066609755 -0.1508423 -0.8241165 -0.09859869 -0.002915624 0.031008368
0.23033118 -0.087527364 0.7110404 0.5924693 0.3379411 0.085982546 -0.120171145 -0.20313974
0.26950473 0.38331804 0.5981725 -0.10222833 0.3453879 -0.31485698 0.15568425 -0.2768434
-0.020161055 -0.6614394 -0.33407402 1.1300428 -0.058191303 -0.47523043 0.16579877 0.34070134
-0.4123599 -0.061405394 0.013700973 0.30702117 0.5648478 -0.28922006 -0.54772645 0.23843955
-0.17810404 -0.07093025 0.18372875 0.4030283 0.58314013 -0.47072542 -0.0790894 -0.6875287
-0.56676614 -0.19968134 -0.12659872 -0.045144375 0.106542714 -0.057226814 0.014522471 -0.6076471
-0.6247604 -0.75297284 0.0021629143 -0.63299686 -0.5881644 -0.27243382 -0.41363665 -0.28755835
0.19367872 -0.106065854 -0.77151054 1.0570865 -0.8979454 0.20332485 -0.28337353 0.3405147
-0.8900203 -0.65584165 0.39163992 0.279392 -0.5337652 -0.39314663 -0.5159465 -0.6173016
0.46349895 -0.16324258 -0.5004464 0.40758774 -0.027487304 -0.5014548 -0.11359753 0.012887332
0.52830774 -0.59174025 -0.16490114 -0.4253979 -1.3535055 -0.78071374 -0.259465 0.23356684
0.13828886 0.64938736 -0.4120012 -0.62537456 0.7008276 0.76202023 0.08119305 -0.58597976
0.015160609 0.5852924 -0.6069145 -0.2927579 -0.05407776 -0.26365083 -0.18089692 -0.5931991
-0.74542534 0.72872895 -0.05206479 0.21130052 0.79958826 -1.3426335 0.008730477 0.024916694
0.35431403 0.0074510667 0.24158855 0.16791585 0.39416164 -0.15031141 -0.13538767 -0.48316726
-0.27318028 0.2509071 0.4771693 0.23282507 -0.46158043 0.28590664 -0.28438056 0.6632102
-0.9368284 -0.14661859 0.66120195 -0.48238534 -0.5391968 0.3704657 0.3460028 -0.33644986
-0.16233559 0.16778737 0.45637822 0.250483 0.9488977 -0.30714557 0.48037782 0.38410798
0.16316429 -0.8000322 -0.8692631 0.29665855 -0.14056186 -0.30225742 -0.29723915 0.3717793
-0.9676976 -0.43791568 -0.23746932 -0.25481123 -0.2849323 -0.8629054 0.05109857 0.4197089
-0.11809012 -0.12647647 -0.7174786 0.3286767 0.240531 -0.18624264 0.1256051 0.25146264
00000000: 2047 0bbe 0468 db3e 88e5 c23e 8019 bf3e
00000010: bf63 5e3f 2e78 023e 4a4d 86be 7ad8 973e
00000020: a67e 68be dd7a 933f 530f c3be a536 2a3f
00000030: 8439 853f 364f c8be cfa2 193f bff8 22be
00000040: 5b7f 61bf 553c cebd 6973 583e d03f ac3e
00000050: c06c 79bd 533e 173f 1d92 e2be 74a9 a53e
00000060: 314a 9e3e aebe c6be 2f41 4abb d3f9 8e3e
00000070: 0aa6 12bf a829 d63e 6719 043f c6b8 74be
00000080: 277d d83d 6a83 b93d f3d0 4a3e 5f58 9fbe
00000090: 5570 0fbe 943c acbe 36b4 293e c870 133e
000000a0: 3f9f 06be 2c23 46bf 663b fdbe 150d 9e3e
000000b0: 5a32 fd3d 4cf6 c23e 3029 97bf e6e8 00bb
000000c0: cec1 3abe 1080 ba3d 17a0 25be 7666 c63e
000000d0: 6035 ce3e fcb6 003f 2d1f 863e b0b2 0ebf
000000e0: 2e68 7ebd 3e7a 253e 3fbb d63e 3a9d 04be
000000f0: 112d 06bf cfc1 1abe 35da b73e a12c 51bf
00000100: cc01 22bf 2aa9 423f f8cc 243f f2f6 16bf
00000110: 451d b73d a644 41bf 57df ad3e 9d0a b33e
00000120: 65da 303f e0b0 5f3e 3a3b 8abe 534d f43e
00000130: 3d24 3e3e b10d c8be 6f01 7c3e 465b 18bf
00000140: aa91 8c3e a569 08be 5044 dabb 6776 1abe
00000150: 4df9 52bf 1cee c9bd 0e14 3fbb 4305 fe3c
00000160: f0db 6b3e 8c41 b3bd be06 363f 11ac 173f
00000170: 9e06 ad3e 9e17 b03d 4a1c f6bd dd03 50be
00000180: 86fc 893e 4342 c43e d521 193f 165d d1bd
00000190: afd6 b03e ef34 a1be b16b 1f3e 6bbe 8dbe
000001a0: cc28 a5bc 1854 29bf c00b abbe 3ea5 903f
000001b0: 015a 6ebd 6751 f3be 27c7 293e 6870 ae3e
000001c0: d620 d3be 3984 7bbd 0c7a 603c e131 9d3e
000001d0: de99 103f a714 94be cd37 0cbf 7f29 743e
000001e0: e860 36be e143 91bd 6423 3c3e ba59 ce3e
000001f0: ac48 153f ec02 f1be a0f9 a1bd e201 30bf
00000200: 9617 11bf 4479 4cbe 18a3 01be 4fe9 38bd
00000210: 1133 da3d aa66 6abd a9ef 6d3c c38e 1bbf
00000220: 4cf0 1fbf d4c2 40bf aebf 0d3b 150c 22bf
00000230: f191 16bf 727c 8bbe 2fc8 d3be d93a 93be
00000240: b753 463e 0e39 d9bd b781 45bf 9c4e 873f
00000250: c0df 65bf 6434 503e 5616 91be f157 ae3e
00000260: 5fd8 63bf 3de5 27bf 0785 c83e 780c 8f3e
00000270: d6a4 08bf 844a c9be 1215 04bf 7a07 1ebf
00000280: bc4f ed3e 1029 27be 411d 00bf 57af d03e
00000290: 0e2d e1bc 575f 00bf d2a5 e8bd 6325 533c
000002a0: 2d3f 073f 4a7c 17bf d8db 28be c1cd d9be
000002b0: ab3f adbf dbdc 47bf 99d8 84be 252c 6f3e
000002c0: 989b 0d3e 403e 263f d2f1 d2be 8c18 20bf
000002d0: 7069 333f c213 433f 8b48 a63d c502 16bf
000002e0: 3464 783c b9d5 153f c05e 1bbf 5de4 95be
000002f0: a480 5dbd 3efd 86be 0b3d 39be e5db 17bf
00000300: 32d4 3ebf fb8d 3a3f e441 55bd 2a5f 583e
00000310: d1b1 4c3f 6adb abbf 460a 0f3c 181e cc3c
00000320: a668 b53e 1428 f43b fd62 773e 22f2 2b3e
00000330: 8ecf c93e 3ceb 19be 11a3 0abe b361 f7be
00000340: 49de 8bbe e576 803e 894f f43e b269 6e3e
00000350: 4554 ecbe 5b62 923e 549a 91be 25c8 293f
00000360: fcd3 6fbf 2f23 16be 8844 293f 36fb f6be
00000370: cd08 0abf aead bd3e 4727 b13e 2843 acbe
00000380: 4d3b 26be 74d0 2b3e 68aa e93e 4f3f 803e
00000390: f6ea 723f 2f42 9dbe 15f4 f53e cda9 c43e
000003a0: 8a14 273e e9ce 4cbf 0788 5ebf a1e3 973e
000003b0: 73ef 0fbe 7cc1 9abe bb2f 98be db59 be3e
000003c0: 08bb 77bf 7c36 e0be 282b 73be 9e76 82be
000003d0: a5e2 91be 5ee7 5cbf bc4c 513d 16e4 d63e
000003e0: 3cd9 f1bd 0c83 01be adac 37bf 5048 a83e
000003f0: c24d 763e 64b6 3ebe a09e 003e b6bf 803e

tree_conv.10.bias f4 [32]
0.06780664 -0.9858243 -0.004259413 -1.2234181 0.1929236 -1.0412238 -0.588746 -1.3561702
0.12841365 -0.1778476 -0.7778445 0.2351273 -0.12744518 -0.43964326 -1.1345654 -1.006648
-0.6656336 -1.1393738 -0.4739798 -0.011892754 -0.8617565 -0.9606558 -0.9196609 0.2569198
-0.76902837 -0.540543 -0.3401937 -0.8404018 -0.20273006 -0.93192154 -0.17579198 -1.0617394
00000000: 35de 8a3d fb5e 7cbf 8c92 8bbb f798 9cbf
00000010: c48d 453e d246 85bf 0fb8 16bf fc96 adbf
00000020: de7e 033e ae1d 36be d120 47bf 36c5 703e
00000030: fd80 02be ec18 e1be 7039 91bf d7d9 80bf
00000040: f766 2abf 00d7 91bf 7bad f2be d3d9 42bc
00000050: 139c 5cbf 8aed 75bf e66e 6bbf fe8a 833e
00000060: 0bdf 44bf 0761 0abf de2d aebe 9324 57bf
00000070: 7898 4fbe 6992 6ebf d002 34be 14e7 87bf

tree_conv.13.weight f4 [1, 32]
-0.12775718 -0.17535563 0.31034452 -0.11281774 0.033992663 0.09118626 0.19365317 0.07219404
0.06656143 0.036103036 -0.16835031 -0.1388057 0.037670847 -0.026629766 -0.20176205 -0.26923946
0.29034764 0.23881665 0.022512076 0.051611066 0.08252654 0.13667542 -0.15877914 -0.18491934
0.09712422 0.18966481 -0.43782964 -0.00035896277 0.08953766 -0.015710821 0.13309386 0.17683385
00000000: c7d2 02be 6d90 33be 7ae5 9e3e fd0c e7bd
00000010: e43b 0b3d ddbf ba3d 044d 463e 78da 933d
00000020: 5c51 883d c7e0 133d 0664 2cbe 1523 0ebe
00000030: bf4c 1a3d ab26 dabc b69a 4ebe c1d9 89be
00000040: 72a8 943e 5a8c 743e 3f6b b83c 2066 533d
00000050: ad03 a93d a4f4 0b3e 0097 22be 7f5b 3dbe
00000060: 10e9 c63d 7e37 423e 352b e0be 2b33 bcb9
00000070: 855f b73d fbb3 80bc c249 083e ef13 353e
