src/Models/pairwise.onnx (onnx, 702291 bytes, 13 tensors)

tree_conv.0.weights.weight f4 [256, 50, 3]
00000000: c0d9 39bf ee5e 913e 0b5e afbb d244 893d
00000010: 6650 cd3c 715a 63bd 0422 a53c cfad 77bd
00000020: 13d7 80bd a56f c3ba 9ff2 5dbd 7a66 b93c
00000030: aff7 24bd 279c 95bd 1039 733d c1b2 0bbd
00000040: bec6 993d ae1c 8ebd 510f a73d fca7 82bd
00000050: ccaa 92bd cff0 733d 5add 90bd 1329 d8bb
00000060: cbd8 f93c 4087 03bd 9a8b 1bbc 0128 e43c
00000070: 115d 89bd a66d 1cbd 9c98 4f3d 3ef7 863d
00000080: 4152 5fbd b77a 9fbd 84d5 8f3d b571 97bc
00000090: 033d 94bd 546b 54bb a158 843c a1fd 88bc
000000a0: 7ff6 1ebd 3c61 97bd e133 9bbd 5dbe 8b3d
000000b0: 7070 833c e38d cc3c 8ba6 dc3b 42e8 b7bb
000000c0: 1267 73bd 4875 1b3d 527a 54bd 23de 9a3c
000000d0: a8d1 1b3d 1847 613d 263c 8d3d 8f0b 92bc
000000e0: a4c3 773d 4f5d 333d 3b1e a2bd d7ab 9ebd
000000f0: 22b8 ec3c 65cf 4dbd 0712 5ebd ef88 c63c
00000100: edb5 fcbc 566b 65bd 84e7 863d aae5 5b3d
00000110: d1e7 d5bb a36c 20bb 6a85 4fbd 5fd6 3abb
00000120: f402 a6bc 1327 333d 1345 893d fc30 913c
00000130: e6b6 873c 63ba 543d 27f6 91bc 3ea6 3b3d
00000140: 351c c2bc 814c a13d b79d 953d 47e8 5f3d
00000150: 43df 8ebd 8b11 b93c 63fb 773d 7c15 f8bc
00000160: cb78 6ebc 4b77 98bd 0dfd 963d c9a7 d7bc
00000170: 9c5a 593b 9516 333d d15b 44bd 5e6c 4f3b
00000180: 0681 e8bc 2714 5abd db83 89bd 30c7 2ebd
00000190: 53d9 023d b308 373c 06ee 6d3d 5e9e 6e3d
000001a0: 4388 85bc 790a 9cbd 02a9 7dbd a59a 29bd
000001b0: 5cfa 053d 57d1 50bb 3d6f 053d 87df da3c
000001c0: d9e3 413d 648b 2fbd 328f 903d eb8c f63c
000001d0: 4700 343d c862 9a3d 3463 99bd 0e39 f03c
000001e0: bcb5 81bd ca9a 5abd 65ab 383d 0127 95bd
000001f0: e6ed 203d bf98 42bc d030 ebbc 6af0 d43a
00000200: 7645 9dbc 0ca4 a1bd 13fe 743d 4ba9 e23c
00000210: 8e35 1cbb b4e7 183c 02e1 1b3d c98a 8a3d
00000220: 77f3 22bd 15df 20bd 9d25 9bbd 8425 b0bc
00000230: c9c1 6abc 9587 87bd 92cf 66bc 888e 273d
00000240: 9f72 1cbe 4e6a 1b3e 57fa 3e3d 5ab6 b5be
00000250: f442 10be 1f9e 8bbd ae08 5abe d3b6 c4be
00000260: 159c 0c3e bd12 a33d c748 e03c 1b0d 0e3d
00000270: b516 12bd b732 8b3d 60c6 6abd 476a c3bc
00000280: 8197 d13c 78c7 93bd 6f34 383b 3617 fdbb
00000290: b55f a3bd 7852 c43b 90ed 333d ff87 34bb
000002a0: dc4e a63d f826 babc 0944 363d c18d 79bd
000002b0: 0294 9e3d 8a61 85bd d6a0 3c3d 7091 80bd
000002c0: 82c8 a6bd 767e 99bd 1225 053d 0492 27bd
000002d0: 5ccc 053d d80e 653d a2de 913d 0fe9 4bbd
000002e0: be44 8f3c 9a1f f0bc 39f6 ac3c 5c88 db3b
000002f0: a6fb 753d 3e76 ea3c d836 8f3c eb76 573c
00000300: 6f3b 56bd 6596 833d 2290 f0bc 39e7 833d
00000310: 9a62 89bd 3fab a53d e7dd 413d 47a9 84bc
00000320: 9c68 9c3d ac48 6cbd f012 9bbd b7f3 50bc
00000330: f969 99bc f7e3 1cbc 9ed4 66bd 9882 963d
00000340: 9015 1c3d 6025 8ebb 066e 6bbb 83b2 953b
00000350: 2fdd 193c 9ef0 45bd c695 8dbc 9215 943d
00000360: 08ed fd3c c0e1 2c3d 33f8 37bd ca43 3a3d
00000370: a81b 8e3d 9e36 c83c 6089 24bd 3ee9 943d
00000380: 557e 473d 7506 27bd e4fa 75bb 4080 a0bd
00000390: 5c5d 0fbd 3942 103d f2b7 4f3d ad5d 74bd
000003a0: a3a8 b1bc c5e5 e53c d030 9a3d 0865 d5bc
000003b0: 15a9 0b3d 6ee0 a23c d649 67bd 2ee9 2cbd
000003c0: 684d 243d 2d00 b63c 581d fcbc 3ebc b5bc
000003d0: 4981 1d3d d991 803d df2d 803c 71c7 9fbd
000003e0: c611 97bd 69ee 82bc fcf7 983d a1c8 9b3d
000003f0: 2db2 e43c 3827 583d de32 8dbd 48f1 fa3c
-0.72597885 0.28392738 -0.005351787 0.067025796 0.025062751 -0.055506174 0.020157821 -0.06046849
-0.06291022 -0.0014910592 -0.05418646 0.022631872 -0.040275272 -0.07305174 0.05938059 -0.03410602
0.0750861 -0.06939064 0.08157218 -0.06379697 -0.07161483 0.059555825 -0.070734695 -0.0065966933
0.030498883 -0.032111406 -0.009493733 0.027851107 -0.06707204 -0.038190506 0.05068265 0.065901265
-0.054521803 -0.07787078 0.07023147 -0.018486837 -0.072381996 -0.0032412605 0.016155543 -0.016722502
-0.038809296 -0.07391593 -0.075782545 0.06823418 0.016044825 0.02497 0.0067337207 -0.005612404
-0.059424467 0.037953645 -0.051874466 0.018904751 0.03804174 0.05499944 0.06896238 -0.017827777
0.06048931 0.043790158 -0.07915922 -0.077476196 0.028896395 -0.050246615 -0.05421641 0.024235217
-0.030848468 -0.056010567 0.06587127 0.05368582 -0.006527879 -0.0024478815 -0.050664343 -0.0028509123
-0.02026508 0.043738436 0.06702628 0.017723553 0.016566705 0.051935565 -0.01781757 0.045812838
-0.02369509 0.0787592 0.07305472 0.054664876 -0.069761775 0.022591373 0.060542475 -0.030283682
-0.0145551665 -0.07444628 0.07372484 -0.026325123 0.003316558 0.043722708 -0.047939125 0.0031650285
-0.028381836 -0.053241875 -0.067146026 -0.04267043 0.031945538 0.011171508 0.058088325 0.0582565
-0.016300326 -0.07619185 -0.061928757 -0.041407246 0.032709464 -0.0031863058 0.03257679 0.026717914
0.047336433 -0.042857543 0.07058562 0.030096492 0.043945577 0.07538372 -0.074896246 0.02932408
-0.06333491 -0.053370275 0.04508533 -0.0728283 0.039289378 -0.011877238 -0.028709799 0.0016245965
-0.01919816 -0.078926176 0.059812617 0.027668616 -0.0023835632 0.009332586 0.03805638 0.067647524
-0.039782967 -0.039275248 -0.075755335 -0.021502264 -0.014328429 -0.06617657 -0.014087575 0.040907413
-0.152781 0.15177271 0.04662546 -0.35490686 -0.1408804 -0.068172686 -0.21292374 -0.38420734
0.13731416 0.079625584 0.027378453 0.034680467 -0.035666186 0.067967825 -0.05731809 -0.023854388
0.025584938 -0.0721578 0.0028107425 -0.007723714 -0.07977239 0.0059912764 0.04392773 -0.002754688
0.0812051 -0.02272366 0.044498477 -0.060926203 0.07743074 -0.06512745 0.046051823 -0.0627774
-0.081437126 -0.07494824 0.032506056 -0.040910736 0.032665595 0.05592236 0.07122542 -0.04978281
0.017488834 -0.029311944 0.021113502 0.006699605 0.060054444 0.028620835 0.017482206 0.013150911
-0.052302774 0.0642517 -0.029365603 0.064405866 -0.0670826 0.08089303 0.047330763 -0.016193999
0.0763714 -0.057686493 -0.075719714 -0.012753419 -0.01872729 -0.009575835 -0.05635511 0.073491275
0.0381065 -0.0043379515 -0.0035923733 0.0045683994 0.009391113 -0.048325174 -0.017283332 0.07230677
0.030996814 0.04220748 -0.044914436 0.045474805 0.06938869 0.024440106 -0.040170074 0.0727105
0.048704464 -0.040777642 -0.0037533576 -0.07836962 -0.035001144 0.035219405 0.050712533 -0.05965965
-0.021686858 0.028063664 0.075288415 -0.026049152 0.034096796 0.019882407 -0.0564669 -0.042214565
0.040112883 0.02221688 -0.030775711 -0.022184487 0.038453374 0.06277818 0.015646873 -0.07801712
-0.07376437 -0.015982823 0.07469174 0.07606626 0.027916992 0.052771777 -0.06894468 0.03063263

tree_conv.0.weights.bias f4 [256]
00000000: 8f6e 8cbb 41b4 95bd 3023 13bd 1a12 f339
00000010: 1ca6 99bd 3aab a63c 76ad 4ebd 2a2f 5abc
00000020: 6b22 cabc 8814 943d 4a2b fa3c 4bec 5d3d
00000030: 0241 a63d c2a3 2bbd 01f6 e33c b245 faba
00000040: b1ba 69bd 4ac3 a53c 2741 81bc 582a 1a3b
00000050: a37f dabb 562b 273d 2e5c 97bd 781b 91bd
00000060: 1253 7b3d fb5c da3c c59c 573d de99 cd3b
00000070: f67f c9bb 15db 8bbd 03ba f639 d5ba 4bbd
00000080: cf3c 9dbd e916 213d 30f6 953c 82bd 58bb
00000090: 386b 3dbd 7719 8e3d 52fd d23c 39b9 01bd
000000a0: 0e62 0a3d 9d86 e4bc 4c38 2b3d 1668 d53c
000000b0: 3dfe 803d 08bc 803d b3ad 213c a8cb ff3c
000000c0: 249f 86bd 50f3 4e3d 31b9 c43c 53b1 f93b
000000d0: 4c4f 42bd 77d0 583d 75da 93bd 595e 863d
000000e0: eae2 7f3d ebe9 813c c894 a13c f062 77bd
000000f0: ba06 90bd 6386 583d 693d 92bd f162 02bd
00000100: 0fc6 943d a0b5 11bc c476 0fbd 330a 973d
00000110: 98b0 80bd d801 81bd addd cc3c cdc0 e5bc
00000120: 6901 963d 3f2e 25bd 198b 853d ffff c23c
00000130: 308c d6bc 93eb e5bc 930f 183b 86b7 b2bb
00000140: f75f 3ebd 3b21 88bd 60be febc dd42 7f3d
00000150: eb57 87bd 5cd9 fa3c 1dbf fbbb da0a b1ba
00000160: 2aff 44bd 68dd 523d 6a86 523d 6612 833d
00000170: b026 9cbd d253 80bd 5e80 2b3d 7920 08bd
00000180: e5de 92bd 8151 8e3d 72e4 11bd 406c 3cbd
00000190: 28a4 4f3d 3db3 dd3c e623 8ebc 7a9d 843d
000001a0: 7801 a4bd 181b 913d f4af f5bc ce2d 32bd
000001b0: eb03 78bc 37eb f43c 519b 463d 81b1 a43d
000001c0: 08ff 153d 81b5 353c 6ce1 4cbd 110e 94bd
000001d0: e09d bdb9 592f 953d 3811 aa3c d671 8abd
000001e0: 7576 173d 87ac 0dbd e73a 28bc df86 2cbc
000001f0: 6235 aa3c 5372 493d 03c7 98b9 9efa 8ebd
00000200: 98ff d5bc 70cc 54bd 659f 00bd ca21 0a3d
00000210: a2b9 4abd bb46 5b3d 29e2 a3bd a68d 84bd
00000220: afb1 43bd dd4f 90bd 9b2d 02bd a9f9 853d
00000230: 63de 093d ba46 49bd a25f 28bd d1ee 1dbc
00000240: d49b 513d 701c 81bc 9dfc 07bd ce3a 9a3d
00000250: 3765 70bc c6c7 66bc 4f63 033d d63e 853d
00000260: 920e 473d 17ce 6bbd 6957 6a3d e7fe 433d
00000270: 5257 603c b48f 59bd 1629 6abd 14eb 703d
00000280: 071a 9ebd 38e7 7c3d c710 afb8 76ee 91bd
00000290: 6cd2 0d3d 0827 913d 1669 583d f160 54bd
000002a0: a37d 6fbd 448f b43c 4d5a 983c 4321 b0bb
000002b0: 964a 973c 43ec 8ebc 910a 533d 3260 8e3d
000002c0: a84c a5bd f295 88bd d43c 5dbd 8f42 3cbd
000002d0: 8a44 6b3d 8db7 3b3d 5e1c 463d 35d6 0fbd
000002e0: 3fcf 80bd fdb8 0c3d d869 5bbc 5059 453c
000002f0: 0c5b a9bc 1c39 773d 0e7e 263d 05a3 6e3d
00000300: d3d0 b33c 8763 66bc 844a 87b9 dc74 80bd
00000310: 95a8 173d 5840 43bd 6171 90ba 67ce 853d
00000320: d8c3 42bd 83ec 4aba 6a9a 193d 0439 9ebd
00000330: 2d6b f7bb 7c67 22bc 814d 3c3d 132d 963c
00000340: f0a1 acbc 98d3 f93c 6053 51bd f9a9 1dbc
00000350: f1ef 15bd 0c01 ffbb adcd 313c 0a49 8ebd
00000360: 6351 5bbd b13b 543d e9e8 873d ba94 973d
00000370: ae1c a0bd 161c 9abd dff0 453c 5e09 303d
00000380: 0b07 7dbd 3ce4 463d a293 c63c f7fc 47bd
00000390: 9342 00bd 4558 9e3d a871 6f3d 5424 29bd
000003a0: 2954 87bd 42b1 9dbc 6363 8bbd d385 0bbc
000003b0: fa68 df3a b8c0 d5bc 214f 35bc 12ba 453d
000003c0: 43c0 a53d 32af 043c 1cef 133d bc43 4ebd
000003d0: fe88 afbc 1e8e 84bd c03b 633d 483c 29bd
000003e0: 5810 3dbb a15c 88bd 8a18 923b 903d 1abd
000003f0: 2c8b 81bd 291f 88bd f3cf 35bd 7cb7 72bd
-0.0042856405 -0.07309771 -0.03592223 0.00046362058 -0.07502386 0.020345319 -0.050458394 -0.013316909
-0.024674615 0.072304785 0.03053822 0.054180425 0.08117868 -0.04190422 0.027827265 -0.0019094257
-0.05706281 0.020234723 -0.015778137 0.0023523774 -0.0066680475 0.040812813 -0.07390629 -0.070853174
0.06135852 0.026655665 0.05263974 0.006274446 -0.0061492873 -0.06828896 0.00047059366 -0.049738724
-0.07677614 0.03932849 0.018305868 -0.003307194 -0.04624483 0.06938451 0.025755558 -0.031670783
0.03378492 -0.02789622 0.041801736 0.026050609 0.06298492 0.06285864 0.009868073 0.03122504
-0.065733224 0.05052501 0.024014087 0.0076200156 -0.047438905 0.052933183 -0.07219402 0.06560964
0.06247226 0.015858611 0.019724265 -0.06039709 -0.07032533 0.052862536 -0.07140619 -0.03183264
0.07264339 -0.0088934 -0.035025373 0.07374992 -0.062836826 -0.0629918 0.025008047 -0.028046036
0.07324488 -0.040327307 0.065206714 0.02380371 -0.026189893 -0.028066432 0.0023202642 -0.0054540066
-0.046478238 -0.06646963 -0.031096637 0.062319625 -0.06608566 0.030621223 -0.0076826946 -0.0013507262
-0.048094906 0.05148068 0.05139772 0.063999936 -0.076245666 -0.062659875 0.041870467 -0.033234093
-0.0717142 0.069491394 -0.035618253 -0.046001673 0.05069366 0.027063007 -0.017351102 0.06475349
-0.08008093 0.07085246 -0.029991128 -0.043500714 -0.015137653 0.029897315 0.048487965 0.08041669
0.03662017 0.011090637 -0.050019667 -0.072292455 -0.00036166515 0.072844215 0.020760164 -0.06759994
0.036978204 -0.034588363 -0.01026795 -0.010530203 0.020777408 0.049181294 -0.00029139975 -0.06981395
-0.026122853 -0.05195278 -0.03140201 0.03372363 -0.04949344 0.05353425 -0.08002121 -0.0647233
-0.047776874 -0.07046483 -0.031781774 0.065417595 0.03365935 -0.049139716 -0.041106828 -0.009639458
0.051174 -0.01576063 -0.033199895 0.07530747 -0.014672569 -0.014085716 0.03207713 0.06506126
0.04859788 -0.05756959 0.057212267 0.047850516 0.013692694 -0.05311556 -0.05716809 0.058817938
-0.07719808 0.061743945 -8.347775e-05 -0.07125561 0.034624502 0.07087523 0.052834593 -0.051850263
-0.058469426 0.02204097 0.018597746 -0.005375059 0.018468183 -0.017446643 0.05152375 0.069519415
-0.08071262 -0.06669225 -0.05401309 -0.045961913 0.05743841 0.045829345 0.048366897 -0.035116393
-0.06289529 0.034356106 -0.013391934 0.01204522 -0.020673297 0.060357198 0.04064756 0.058260936
0.021950161 -0.014061815 -0.00025804725 -0.06272289 0.037026007 -0.047668785 -0.0011020118 0.06533509
-0.047550052 -0.00077409315 0.037500776 -0.077257186 -0.007550618 -0.009912368 0.04597235 0.01833204
-0.021073312 0.030496404 -0.051104903 -0.009623044 -0.03660578 -0.007782107 0.01085226 -0.06947525
-0.053544413 0.05181474 0.06636221 0.07401414 -0.0781797 -0.07524888 0.012081354 0.042977683
-0.061774295 0.048557505 0.024240319 -0.04882523 -0.03131349 0.0773168 0.058458 -0.04129441
-0.06607849 -0.019249562 -0.06806066 -0.008515793 0.0017044835 -0.026092872 -0.011066229 0.048273154
0.08093312 0.00809841 0.036116704 -0.050357565 -0.021427628 -0.06472419 0.055476904 -0.041317254
-0.0028848853 -0.066582926 0.0044584917 -0.037656367 -0.06325373 -0.06646568 -0.04438777 -0.059257016

tree_conv.3.weights.weight f4 [128, 256, 3]
00000000: b527 febb 5398 8c3e 906f cebe 5c3b 823e
00000010: 7ce1 7f3e d31d 733e b846 a2be 577e 02bf
00000020: 8686 793e f4c4 923e a8de bebe df7a ecbe
00000030: 8946 823e 787d bebe d16e a9be 455b a63e
00000040: 567c bdbe b7d6 a33e 7627 563e 21f2 a83c
00000050: e39f 503d eb59 c7bc ae6e 653e 83f2 fcbe
00000060: 6f0d c7be 503a 9d3e da08 b2be 89b0 0e3e
00000070: 82ca 373e 8ff1 383e c70b 883e 36ac 913e
00000080: 0241 9d3e e867 8a3e fd12 b7be 267e 43bf
00000090: e58d 2f3e 9532 0b3d ec23 ff3d 193d d0be
000000a0: 687b 503d 30e1 edbe e2a3 f2be f692 6dbe
000000b0: a7d0 6b3e 418f 5c3e e69c e73d 80a7 4b3e
000000c0: 8e12 a93e e9ac adbe 11fc 1cbf 5933 bbbe
000000d0: 8d11 a13e cea4 b4be b8a0 a03e b151 c6be
000000e0: 2a10 8dbe a00c 2cbe 776c 613e 0b7b ccbe
000000f0: 6037 7f3e 154f 9cbe e842 dcbe 5bdd b3be
00000100: d9a9 b2bc 1425 8b3e 163d b5be 02a5 9c3e
00000110: 2080 b8be f862 9abe b375 b8be f0b1 8d3e
00000120: 83bb c2be 0c74 a0be c981 883e 4c7d 633e
00000130: d29a b4bd 845e b93d 7cda 973e c984 aebe
00000140: 6ea1 c8bd 4541 863e c7dc bbbe aa47 823d
00000150: 6e50 9a3e d4b2 9a3e 91f0 b7be a7e3 80be
00000160: 9e59 dcbe b0df 99be 4c9c 813e ecdb 8c3e
00000170: d824 9ebe 0194 9ebe 2b7c f3be 9e6a a43e
00000180: ffaf 70be 4f5b febe 696a 5b3d ba83 123d
00000190: 954c e4be 86c5 4e3b 8907 6b3e b6b8 e4be
000001a0: 005f e7bd aa6a 983e e333 ccbe 6932 b1bd
000001b0: 3e9d 6a3e 8924 573e b5c0 0d3e ac1a aebe
000001c0: c1fe abbe 27a2 7e3e ab53 a83e d98d b8be
000001d0: 0d43 1ebf 9e0f 9a3e c1c0 c4be aed2 013e
000001e0: deca 993e 3ada a43e a2a5 b0be 771c bd3d
000001f0: f59c f8be c31d 66be 1fa2 523e 62d6 7dbe
00000200: 0826 4dbe 06d8 e73d 29c5 873e 9aae 03bf
00000210: 947d 8f3e 4e0c b6be ff03 3bbf 968b 553e
00000220: fac4 08bf cc97 193e 77e8 833e 15ce aebe
00000230: f831 cebe 3d5a 5d3e 47b6 5f3e 8075 613d
00000240: e5ba a9be 4c5e a0be 5faa 8a3e e927 a83e
00000250: 75f6 a9be 8496 8a3e 4a54 563e 89dc 883e
00000260: 3d65 8cbc 2723 1a3e dace 93be 6497 bf3b
00000270: 7927 193c abde 8d3e c1de 7cbd 5400 893e
00000280: c053 adbe 8153 01bf 7682 8d3e 31e5 803e
00000290: d334 a4be 8941 653e 0f43 483e ee85 c43d
000002a0: d35d 09bf d391 d3be 1702 08be 5ac4 593e
000002b0: 93f0 b5be d44b 123e 4045 883e b3ae 063e
000002c0: ac76 c6bd 5b19 8e3d eae6 773e 4c73 c6be
000002d0: 83c1 9b3e be6a 9fbe 2d03 c0bd 0308 863e
000002e0: 666e b5be cabb babe 497d 7c3e fcfb 843e
000002f0: 22c5 603e 4f11 593e a9c8 eebe da5f 8a3e
00000300: 5953 8b3e b866 c3be fcfe ffbe 4cea f7be
00000310: 9854 9abe 4ab9 c43d c59f 833e 09c2 873d
00000320: da52 7a3e 9c91 273e 19f9 9d3d 785b e93d
00000330: 9909 823e 9bfc d0be 42b4 fabc 29ef debe
00000340: 054f e9be 6bfd 00bd 2550 e8be ab48 3f3e
00000350: 1cdf d6be 7df3 503e bd59 f3be 25de 84be
00000360: 7d5d a43c 6f17 0d3e 7764 673e 1749 0fbe
00000370: e7bc 733e 7149 e7be 734c 913e 9a47 b8be
00000380: 0c18 d8be ed89 973e 6576 b5be 7089 44bf
00000390: 75a9 39bd b708 a03e a5fc c4be 0070 6b3e
000003a0: 61b6 523e bd0b 043d 27ab aabe 86f1 aabe
000003b0: 17b9 903e ff3d 273e fe35 843e f27a c5be
000003c0: d2c6 d1be d479 81be acff 893e 7aee 94be
000003d0: ae68 b4be 7fc1 9c3e 3a6a a1be 4e3c f5be
000003e0: c4a8 933e 92d5 123e e080 dfbe 507c dfbe
000003f0: 0830 823d 9e42 723e 8f1b e0be ef83 8a3e
-0.0077561983 0.27459964 -0.4031949 0.25435913 0.24988359 0.23741846 -0.3169458 -0.5097403
0.24367723 0.28665888 -0.37279248 -0.46187493 0.2544444 -0.372051 -0.3309236 0.32491508
-0.37008923 0.31999752 0.2091349 0.020623269 0.05093373 -0.024334868 0.22405502 -0.49403772
-0.38877437 0.3070855 -0.34772378 0.1393453 0.17948344 0.18060897 0.26571485 0.284517
0.3071366 0.270324 -0.35756674 -0.7636436 0.17143972 0.033983786 0.124580234 -0.40671614
0.05089894 -0.46460867 -0.47390658 -0.23200592 0.23028813 0.21539022 0.11309223 0.19888115
0.3302197 -0.33920982 -0.6132212 -0.36562613 0.31458703 -0.35281986 0.3137262 -0.387342
-0.27551395 -0.16801691 0.22014032 -0.39937624 0.24923468 -0.30529085 -0.43019795 -0.35129818
-0.021809505 0.27176726 -0.35398167 0.3059464 -0.36035252 -0.30153632 -0.36027297 0.27674818
-0.38033685 -0.31338537 0.26661518 0.22215766 -0.08818592 0.090512305 0.29658878 -0.34085682
-0.09796415 0.26221672 -0.36691877 0.06361325 0.30139488 0.3021456 -0.35925725 -0.25173685
-0.43037122 -0.30053473 0.25314558 0.27511537 -0.30887485 -0.30972293 -0.4755567 0.32112592
-0.23504637 -0.49679038 0.053568278 0.035770155 -0.44589677 0.0031550839 0.22952093 -0.44672173
-0.11297417 0.29768878 -0.39883336 -0.08652193 0.22911546 0.21010031 0.13843043 -0.34004724
-0.335928 0.24866544 0.32876334 -0.3604572 -0.6182106 0.3009004 -0.3842831 0.12678024
0.30037588 0.32197744 -0.34501368 0.09233945 -0.4855725 -0.2247229 0.20569657 -0.24788812
-0.20034039 0.113205 0.2651761 -0.51438296 0.28025496 -0.35556263 -0.7305297 0.20854029
-0.5342556 0.14999312 0.25763294 -0.34141603 -0.40272498 0.21616454 0.21846877 0.055043697
-0.33150402 -0.31321943 0.27083108 0.3284295 -0.33195844 0.2706796 0.20930591 0.26730755
-0.017138118 0.15052472 -0.28868753 0.0058469046 0.00934779 0.27708945 -0.061735872 0.26758063
-0.3385296 -0.5051804 0.27638596 0.2517486 -0.32071552 0.22388281 0.19556831 0.095958576
-0.5365879 -0.41322193 -0.13282047 0.21266308 -0.35535106 0.14286739 0.26615334 0.1315258
-0.096906036 0.0693843 0.2420918 -0.3875984 0.30421075 -0.31136125 -0.09375606 0.26177987
-0.3543579 -0.36471397 0.24657167 0.259735 0.219502 0.21198009 -0.46637467 0.27026254
0.27212027 -0.38164306 -0.49999225 -0.48420942 -0.30142665 0.096056536 0.25707832 0.06628806
0.24445668 0.1636414 0.07713527 0.113943994 0.25397947 -0.40817723 -0.030603532 -0.4354184
-0.455681 -0.03149168 -0.45373645 0.18680064 -0.41967094 0.20405383 -0.47529402 -0.25950733
0.02006411 0.1377847 0.22596918 -0.13992725 0.2380253 -0.4517322 0.2837864 -0.35992128
-0.42205846 0.29597417 -0.3544189 -0.76772213 -0.045327622 0.3125665 -0.38474002 0.22991943
0.20577385 0.032237757 -0.33333704 -0.33387393 0.28266212 0.16332243 0.25822443 -0.38570362
-0.40972 -0.2528826 0.26952875 -0.29088193 -0.35236114 0.30616376 -0.31526357 -0.4789757
0.28839695 0.14339283 -0.4365301 -0.4364953 0.063568175 0.23658225 -0.43771026 0.27053782

tree_conv.3.weights.bias f4 [128]
00000000: 1047 d1bc f012 acbe 2163 bcbe 181d ddbe
00000010: 69fe d1be 3bfd 04bf 1cf4 2e3f 5107 14bf
00000020: af91 8c3e 741a a93c 7c59 aa3e fe41 9cbe
00000030: aa0a 9cbe 125d 13bf a3f5 e7be fc4f 253f
00000040: c094 4abe 0c97 f0be fa45 c83e dbfc 5e3d
00000050: 19c6 06bf 9202 263f e5af 19bf b802 c8be
00000060: 48ae 9dbe 096e 263f 3f22 123f 70a3 b53e
00000070: 88e9 39bf aa65 8b3e 6253 143f ca5e 86be
00000080: 5a26 033d 9143 e8be 656c 2bbf f26c dc3e
00000090: 4d41 43be 66ab f2bd 9130 acbe 6bf1 303f
000000a0: cdee 3a3e ce04 9e3e d801 0c3d 26b1 c03e
000000b0: 7d67 423e 8d4a 24bf c83a 44bf 9805 adbe
000000c0: 3002 0fbe 2f54 34bf 1dbc 1dbf 8761 84be
000000d0: 0ae1 51bf fc4a 05bf 8c4c 2ebf 2b9d 873d
000000e0: 61e2 bb3d 628a b4be 4990 4abe e295 13bf
000000f0: 8a68 b2be 86a2 bebe 82f1 f2be fff8 943d
00000100: 11fd 09bf f44c 4cbe 3719 f03e 57d2 b5be
00000110: 4dd8 ae3e 657a 32be dd74 d7be a7eb 00bf
00000120: 5547 94be 5b28 583d 4f1e 063f 1147 ac3e
00000130: 16ca de3e d01f e1be 2e47 133f 206c b8be
00000140: ad82 dabe abc7 6b3d 2dfb d2be a912 463f
00000150: 516b 50bd baee e8bd a258 d53c c9b7 d23d
00000160: 204c 46bf 336c ecbe fd9c 26bf 9c11 fcbe
00000170: 702d 2bbf baa4 d5bd 75b2 e7be 3c76 ecbe
00000180: ec47 f13e ea93 8b3e 1782 f1be 613a 26bf
00000190: 9b9a c9be a657 01bf 194e 49bf ec21 853e
000001a0: ee7e 513e 113c f7be 653f 063f a6bd 24bf
000001b0: 4a59 8abb ac5f b93b 9c3c 373f 413a 843e
000001c0: db08 07bf ddea 4b3e f9fe c5bd 683e 3bbe
000001d0: c608 9fbc 9aec 26be 1fdc e73d 01e0 cbbe
000001e0: 41c3 68be 7617 a93e fe7b ef3e 3569 113e
000001f0: 38bd 05bf 5a09 293f d1f8 3e3e 6e36 073e
-0.02554658 -0.33608198 -0.3679438 -0.4318626 -0.41014412 -0.519489 0.6834123 -0.57823664
0.27454898 0.020642497 0.33271396 -0.30519098 -0.30476886 -0.5756389 -0.45304593 0.6457517
-0.19783306 -0.4699024 0.39115888 0.05444036 -0.52646023 0.6484767 -0.6003402 -0.39064574
-0.3079703 0.6501165 0.57083505 0.35476255 -0.72621965 0.27226 0.5793973 -0.26244193
0.032018997 -0.4536405 -0.6696227 0.4305187 -0.19067879 -0.11849098 -0.33630803 0.69118375
0.18255158 0.3086304 0.034181446 0.37635154 0.1898479 -0.64176255 -0.76652193 -0.3379333
-0.13965678 -0.70440954 -0.61615163 -0.25855657 -0.8198401 -0.5206754 -0.6808555 0.06621774
0.09174038 -0.35261828 -0.19781603 -0.5765058 -0.34845382 -0.3723337 -0.4744988 0.07274055
-0.53901774 -0.1995123 0.46894237 -0.3551204 0.341494 -0.17429502 -0.42081347 -0.50359577
-0.28960672 0.05277286 0.5239 0.3364797 0.43513554 -0.43969584 0.57530487 -0.36019993
-0.42677823 0.057563465 -0.41207257 0.77372223 -0.050883595 -0.113736585 0.02604324 0.102889605
-0.7745991 -0.461763 -0.65083295 -0.49232185 -0.6686621 -0.1043181 -0.4525334 -0.46183956
0.47125185 0.27261287 -0.47169563 -0.6493283 -0.39375767 -0.50524366 -0.7863479 0.26002443
0.20458576 -0.48288015 0.5244048 -0.6435188 -0.00422207 0.005657157 0.7157686 0.25825694
-0.5274789 0.19913812 -0.09667773 -0.18285525 -0.019413363 -0.16301194 0.11321282 -0.3981934
-0.22730733 0.33025712 0.46774286 0.1420029 -0.5224185 0.66029894 0.18649603 0.13204357

tree_conv.6.weights.weight f4 [64, 128, 3]
00000000: a012 05bf c9d0 fcbe 10ae cd3e 029a 363e
00000010: 45d1 bfbe 4ff7 443e ce70 b6be 7378 7fbe
00000020: 2cbb 053f 12af 0abf 318a f9bc e537 a63d
00000030: 96b8 833d 6a71 5d3e 6bff 8f3e 5a90 d1be
00000040: 9bc3 843e 748c 86bd bc09 34be ea02 813e
00000050: 7e7c 9b3e 1a8f e9be fa02 6f3e 820a 513e
00000060: 9088 c13e f6f3 8abe 4033 ab3e 7743 82be
00000070: 9b2d a13e 7161 2ebe 4d57 73bd 1bef 2e3e
00000080: f66e ab3e 0809 893e a642 3f3e 9aba a53e
00000090: 900b cebd 24b3 b5be f120 113f 86a3 bdbe
000000a0: 558f 90be 2bf9 da3d b9f9 27be fc59 af3e
000000b0: 51fe cd3e eb7e d1be e316 483e 7782 5b3e
000000c0: d752 623e d458 91bd dcaf 1dbe 7e25 02bf
000000d0: 277b ffbe 2cf6 393f 7757 c4bd 7b58 c63e
000000e0: bf5c 79be 7d66 653e 8851 bb3e 5b2b 883e
000000f0: fea8 723c efbe a1be bf6a a43e 2239 b63e
00000100: 6388 f33e e800 a93e 80b2 28be c4c7 9bbe
00000110: b616 00be a69a 2c3e 69f5 b7be 1a97 ba3e
00000120: ca3d cb3e 9c7e e4bd 14ba 91be 5924 c53e
00000130: b3f6 ef3e f690 f1be 8cf4 7fbe aee6 143e
00000140: 0689 2abd fa0b fbbe 4e68 15be 95d2 d03e
00000150: 86fc 5e3d 6ddb 173d e497 723e 2ac4 72be
00000160: e2b7 04bf 69d6 933e 8c6e e03e 2ed5 34be
00000170: f82a 76be 1a72 ea3e 3498 963e 7844 0f3e
00000180: a0e2 b3be 17c9 e4bd 1a2e 0fbe 581d db3d
00000190: 75b9 c5bc eed5 1b3d 7965 f83e fb91 78be
000001a0: 36f6 d33e 9f10 d43e 33f7 563e e7cf edbe
000001b0: c66b 043e 099d af3e 2802 cf3e e007 913e
000001c0: 7260 ab3e 97b6 6a3e 6a60 013e 3678 453c
000001d0: 718d c53e cf73 a13e ff36 90be 4f90 48be
000001e0: 2962 6c3d 6f67 003e 1f3e 7f3e 581c 1abe
000001f0: d724 eebd e3d6 fa3d 966d d33e 23aa b43e
00000200: db1a 983d 6b27 933e 8806 ca3b 0fc0 3d3e
00000210: 80f5 8cbe bbe4 59bf a32a 103f 540b 783e
00000220: e87a ebbe 78c3 b0bd de9f b23e e046 afbe
00000230: 12e6 df3e 5838 e6be fd8d 98be a169 edbc
00000240: c2f3 9fbe 38fc 863e 3d18 1d3e 27cf 30be
00000250: f30d 923e 403c 823e e2bb 70be 5b3b 0abf
00000260: cc66 1b3f a010 273e 48b3 1b3e 9cda 74be
00000270: 5ef6 3abd b13c c93e 3984 b73e b48f ab3d
00000280: b230 7e3d e018 ee3e cfd7 c9be 7092 a73d
00000290: 9f86 863e 3fc0 ce3e a79b c23e 3dd7 c6bc
000002a0: fe09 063f 1804 5e3e 09e3 2a3e c800 b8be
000002b0: c37c 783e fff8 c93d 84c4 9e3d 6c4b 3d3c
000002c0: eae6 a03e 441f cf3e 8148 a63e bdfa 9dbe
000002d0: 7392 0f3e 6d19 143f 1116 1d3e 0fca 5cbe
000002e0: 5f13 a73e 428e b23e 45b2 4a3e 6854 033f
000002f0: daa4 ddbc 2a97 013f a7a8 81be 91bf 253e
00000300: f6aa 9e3e bb06 b7be b713 583e 41b2 ba3e
00000310: 0da4 9f3e dfdf 90be 00c1 c5bd 8016 12bf
00000320: 573a 1e3f cbbc 33be b073 d5be c5e7 f93e
00000330: e08d 84be 98a0 823e 4c8e 953e 5910 8ebe
00000340: 137a a73e edd6 f4bd 1615 923e 5c6d 92be
00000350: b604 da3e 66df 8c3e ab80 92be 581b 223e
00000360: 886f 713d 8a79 a33e 7ffa ee3c 3846 9bbe
00000370: 2673 cabe ec56 a53e b81e 64be 128d 0ebf
00000380: e1c3 b73e 02c5 9a3e 7796 c7be 4bd6 a53e
00000390: d183 4e3e a4b1 673e b20d ab3e feb9 443e
000003a0: 94ea 8dbe 4cb7 3b3e 4c2c 593e 83c8 ab3d
000003b0: 6d9f 033f 2c7f 10be 6711 503e 020a 283f
000003c0: 4ee4 85be 124c abbe 0591 423e ac39 f2be
000003d0: f095 c3be 81bc 793e cf60 d03e a873 81be
000003e0: b9e6 623e fc09 af3e 53a8 883e 1d92 6f3e
000003f0: 5e6c ba3e 000d 9dbe 052e 36be 28a7 a9be
-0.51981544 -0.4937804 0.40171862 0.17832187 -0.37464347 0.19234966 -0.35632938 -0.24948291
0.52238727 -0.54173386 -0.030461403 0.0811613 0.06431691 0.21625295 0.28124556 -0.40930444
0.25930485 -0.06569758 -0.17581838 0.25197536 0.30368418 -0.4561699 0.23340979 0.20414165
0.377995 -0.27139252 0.33437538 -0.25442097 0.31480107 -0.17029358 -0.05940943 0.17083399
0.33483094 0.26764703 0.18677768 0.32368928 -0.10060799 -0.35488236 0.5669089 -0.3703882
-0.28234354 0.10692056 -0.16403855 0.3424834 0.4023309 -0.40917143 0.1953998 0.21436487
0.22101913 -0.07097021 -0.15399116 -0.5083846 -0.49898645 0.72641253 -0.09586995 0.3873938
-0.24351786 0.22402377 0.3658564 0.26595578 0.014810799 -0.31590983 0.3211269 0.35590464
0.47564992 0.33008504 -0.16474342 -0.30425847 -0.12508664 0.16855869 -0.3592942 0.36443406
0.3969558 -0.11156961 -0.2846228 0.38504294 0.46867904 -0.4718091 -0.24995631 0.14541122
-0.041634582 -0.49032575 -0.1459057 0.4078566 0.054440044 0.037074495 0.23690754 -0.23707643
-0.5184308 0.2887452 0.4383434 -0.17659447 -0.24039829 0.45790178 0.29412997 0.13990963
-0.3513384 -0.11171167 -0.1398243 0.10698956 -0.024136284 0.038045816 0.48514917 -0.24274437
0.41398782 0.4141893 0.20992737 -0.4644768 0.12931737 0.34299496 0.40431333 0.2832632
0.3347202 0.22921215 0.12634435 0.012052586 0.38584474 0.31533667 -0.2816696 -0.195863
0.0577108 0.12539457 0.24926041 -0.15049875 -0.116281204 0.12248018 0.41294545 0.35286054
0.07426997 0.2874101 0.0061653294 0.18530296 -0.27531052 -0.8511464 0.5631506 0.24223071
-0.45992208 -0.08631033 0.34887594 -0.3423376 0.43730217 -0.44964862 -0.29795828 -0.028981032
-0.3124066 0.26364303 0.15341277 -0.17266522 0.28526267 0.25436592 -0.23509172 -0.5399682
0.6070373 0.16314936 0.15205109 -0.23911518 -0.04564511 0.39304116 0.35843065 0.083770186
0.06205816 0.46503353 -0.3942246 0.081822276 0.26274583 0.40381047 0.38009378 -0.024272555
0.52358997 0.21681249 0.1668817 -0.35938096 0.24266343 0.09861945 0.07752326 0.0115536265
0.31426173 0.4045354 0.3247719 -0.3085536 0.1402071 0.57851297 0.15340449 -0.21561454
0.32631966 0.3487416 0.19794567 0.5130067 -0.027056146 0.50621283 -0.25323984 0.16186358
0.30989808 -0.35747322 0.2110127 0.36464122 0.31179848 -0.282958 -0.096559525 -0.5706558
0.6180777 -0.17552488 -0.41689825 0.4880964 -0.25889492 0.25513148 0.29210126 -0.27746847
0.32710323 -0.11955056 0.28531712 -0.2859906 0.4258172 0.2751419 -0.2861379 0.15830743
0.058944255 0.31928664 0.02917218 -0.3032701 -0.39540976 0.3229288 -0.22277343 -0.55684006
0.3589163 0.3022843 -0.38981983 0.32390055 0.20167471 0.22626358 0.33408886 0.19211575
-0.2771803 0.18331641 0.21208304 0.08387854 0.5141514 -0.14111012 0.20319138 0.6564027
-0.26150745 -0.33456475 0.19000633 -0.47309625 -0.3820033 0.24388315 0.4069886 -0.2528355
0.22158326 0.34187305 0.2669092 0.23395582 0.36410803 -0.3067398 -0.17790993 -0.33135343

tree_conv.6.weights.bias f4 [64]
00000000: 9c2b 403e e4bd 80bd 7458 a13e 49fc 293e
00000010: ed7b 70be ce95 613e 6254 843e e5f5 33be
00000020: b44e 683e 97ae 44be 2bde 6d3d b34c 71be
00000030: 2251 f33d ad57 acbd 51b7 de3e 57b5 2e3e
00000040: 2df2 773e f365 773e 0b4d e83e 1ef9 993e
00000050: 44a0 2a3f 2742 d73e 8654 df3c 9b65 46be
00000060: af16 af3d 9a01 ff3d 8304 933e a1e4 39bd
00000070: 1e83 db3e 586e 703f 4e93 d93e d928 983e
00000080: b901 9e3e 4629 30be ec2e 693d 44ea bc3e
00000090: ca1e 7bbe 88a0 d13e e93f 8f3d a7ef c83c
000000a0: cd87 203e d1c0 a93e 7900 b33e 83ae f03e
000000b0: e18b 0b3e 5add 0a3e 40d7 923e 4fce adbd
000000c0: 427c fd3d 93a3 113d b356 44be 44f6 863e
000000d0: 6c13 4e3e bf70 e7be 8f1c 93bd c799 cd3e
000000e0: 651e ca3e 7607 cabd 964f 983e d042 053f
000000f0: 5d1a 933e 6b25 423e 641d 9b3e efca ab3e
0.18766636 -0.06286219 0.31512797 0.16600145 -0.23484774 0.22029802 0.2584563 -0.1757427
0.22686273 -0.19207226 0.058073204 -0.23564415 0.11880709 -0.0841516 0.43499234 0.17061363
0.24213476 0.24159984 0.4537128 0.30072874 0.66650796 0.42042658 0.027261984 -0.19374697
0.085492484 0.12451477 0.2871438 -0.045384053 0.42873472 0.9391837 0.42495197 0.29718664
0.3086069 -0.17203245 0.056929514 0.3689748 -0.24523464 0.40942788 0.06994612 0.024528338
0.15676804 0.3315492 0.34961298 0.47008142 0.13627578 0.13561001 0.28679848 -0.08486616
0.12377216 0.035556387 -0.19173698 0.2635976 0.20124596 -0.45203206 -0.071831815 0.40156385
0.39476314 -0.09864704 0.2974822 0.5205507 0.2873105 0.18959586 0.3029586 0.33553264

tree_conv.9.weight f4 [64]
00000000: 2e8e cc3d e7be 1ebe 9a91 8abc 1c62 b6bc
00000010: 85f0 c6bb 550b 593e 8d20 ea3d c85a f0bd
00000020: 99dd 873d 9031 9e3d 5de3 833e 6e9e 4d3e
00000030: ce23 283f da90 84be 1eb6 1fbe 0bb1 9f3e
00000040: c7fd d93d a125 b03e 59aa 683e 840e d33d
00000050: bad2 c73a a7bb 963d b081 0f3e ae8f c83d
00000060: 21c0 653d b00f 8ebe a72f 29be 55b7 ebbd
00000070: c526 e3bd ebf7 833e 1454 443e ee54 963c
00000080: 4692 98bd ded5 29bd 6f93 1c3f 89fd b2be
00000090: d85d d3bd 9e94 863d 132d 6dbd c1ce f73d
000000a0: 6a3c efbc db85 ff3c 8cef d2bc 96ad ff3b
000000b0: 5a9f d7bd b53f 4dbe 4df9 2d3f bf3f ed3d
000000c0: faf8 653e 38d4 2c3e b12a e13c 6e1f 113f
000000d0: 1b6e 4ebd 40c1 34be 4559 b83e 14ae 913e
000000e0: 0e77 ebbc 8274 b4bc 1650 35be df4e 72be
000000f0: b168 243e 88dd ea3d be9d ad3e e2d3 683e
0.09988056 -0.15502511 -0.016915131 -0.02226358 -0.0060711526 0.21195729 0.1143199 -0.11736065
0.06634063 0.07724297 0.25759402 0.20079967 0.65679634 -0.25891763 -0.15596816 0.3118976
0.10644107 0.3440371 0.22721232 0.10305503 0.0015245297 0.073600106 0.14014316 0.0979303
0.05609143 -0.27746344 -0.16522084 -0.11509577 -0.11091379 0.25775084 0.19172698 0.018351045
-0.074497744 -0.041463725 0.61162466 -0.34959057 -0.10320634 0.06571315 -0.057904314 0.12099982
-0.029203612 0.031191757 -0.02574899 0.0078026755 -0.10528441 -0.20043834 0.6795853 0.11584424
0.22458258 0.1687783 0.027486177 0.5668858 -0.050397974 -0.17651844 0.36005607 0.28453124
-0.028743293 -0.022028212 -0.17706332 -0.236629 0.16055562 0.11468035 0.3390941 0.22737077

tree_conv.9.bias f4 [64]
00000000: 0ee2 99be ba85 183d b3e5 7bbe b236 ad3e
00000010: af66 4bbf c2b7 ed3e 0c3a 26bf c2bd b8be
00000020: 4b51 3a3e 2407 ba3e 7d11 483f 8408 f4be
00000030: d97c eb3e 0f6c 283f b3ea 513d 93b0 a63e
00000040: 3f1d afbe be89 1d3f 2cd2 4abf e922 cfbe
00000050: 52ee 18bf c8a6 fe3e 0051 d93e 812a 8e3e
00000060: c339 1abf b637 24be 8b99 d43e 92c8 2fbe
00000070: e2c5 19be e3c8 d5bb 70a0 2dbf fb2a 443f
00000080: c340 693e c347 81bb a0a1 f43d 1741 c83e
00000090: 232a 803e dfe6 5a3e 322d cf3e 3938 3d3f
000000a0: 2ef3 aebe 08b9 b63e 3f7f 1a3e d9ef 573e
000000b0: d6a2 c63e 032c 4e3e efec 873e a853 00bf
000000c0: 1eff 763d a57c 9a3d 20c3 6f3e a81a 78bf
000000d0: 7d3c 98bc add2 cf3e 2c8e 67be 6cc3 27bb
000000e0: 9a21 0f3e acc2 45bf bc40 463e 9681 093f
000000f0: 5fde b73e f5e9 00bf f0b8 4f3f 48f8 d93c
-0.3005528 0.037236907 -0.24599342 0.33830792 -0.7945356 0.4642926 -0.6493232 -0.36082274
0.18195073 0.36333573 0.78151685 -0.47662747 0.4599369 0.65789884 0.051249217 0.3255659
-0.34202 0.615383 -0.79226947 -0.40456322 -0.5973865 0.4973662 0.4244461 0.27766803
-0.6024439 -0.16036877 0.41523394 -0.17166355 -0.15016893 -0.0065241917 -0.67822933 0.76628083
0.22778611 -0.0039453222 0.1194489 0.3911216 0.25032148 0.21377133 0.4046417 0.73913914
-0.34169906 0.35688043 0.15087603 0.21087588 0.3879611 0.20133977 0.26547953 -0.5012765
0.060301892 0.07543305 0.23414278 -0.96915674 -0.01858353 0.4059042 -0.22612828 -0.0025598658
0.13977662 -0.7725017 0.19360632 0.5371336 0.35911843 -0.5035699 0.8114157 0.026607648

tree_conv.9.running_mean f4 [64]
00000000: dfdb 8d3f 6b00 c8bc a05d b140 a981 853f
00000010: 6b00 c8bc 5bfb f53f dde4 1240 6b00 c8bc
00000020: 4fad 8940 5da2 5640 399d 3b40 ab7f b040
00000030: ab9b d340 b628 4840 98ea 2d40 c7db ba40
00000040: 58e2 3f40 a31f 4e40 5f89 c340 6b00 c8bc
00000050: 20f9 1d3f 1857 9740 d229 6740 9ce3 aa3f
00000060: d192 7b40 efbf 6240 230a 383f 7275 8440
00000070: 8917 7940 b076 0040 a713 4b40 d969 7940
00000080: fbcc 983e 6b00 c8bc 05f2 3e40 4517 8f40
00000090: 6b00 c8bc 9608 dc3f 7d05 2640 6b00 c8bc
000000a0: d863 2840 5504 db3e b253 8d40 0d8a 70bc
000000b0: b79d 3d40 8f51 5340 b38b ee3f 6b00 c8bc
000000c0: a396 b040 4ea1 2d3e 6b00 c8bc 7f1a b13f
000000d0: 6b00 c8bc 6b00 c8bc 6b00 c8bc 8e1b d23f
000000e0: 8ad2 0940 e38e 2b40 aae5 6240 a268 3f40
000000f0: 6fb3 ff3f 374f a13f b1b5 8840 9270 9240
1.1082724 -0.024414262 5.542679 1.0430194 -0.024414262 1.9217333 2.2952187 -0.024414262
4.302406 3.3536599 2.931471 5.5155845 6.6127524 3.1274848 2.7174435 5.8393283
2.99819 3.220681 6.110519 -0.024414262 0.6170826 4.7293816 3.6119275 1.3350711
3.930836 3.5429647 0.7189047 4.1393366 3.8920615 2.007244 3.1730745 3.8970854
0.29843888 -0.024414262 2.9835217 4.4715905 -0.024414262 1.719012 2.594085 -0.024414262
2.631094 0.42776743 4.4164667 -0.014681351 2.9627512 3.301853 1.8636383 -0.024414262
5.5183883 0.16956064 -0.024414262 1.3836211 -0.024414262 -0.024414262 -0.024414262 1.6414659
2.1534753 2.680596 3.5452676 2.9907613 1.9976634 1.26023 4.272179 4.5762415

tree_conv.9.running_var f4 [64]
00000000: e56f 153f d168 8039 1d1b d13f 5dd6 3140
00000010: d168 8039 93c7 aa3f 58bb 433f d168 8039
00000020: 6070 183f 5e87 113f 439d 753f 2d40 b03f
00000030: 4377 f33f a64f 613f 2375 a83e f972 ca3f
00000040: 9aba d03e 024e b33f 974a 9d3f d168 8039
00000050: 5883 643f 4a6a b83f 3982 563f f001 0940
00000060: 810c 2a3f 6211 a43f fd34 573f a33a 2e3f
00000070: cdb7 bc3f e1dc f33e f03a 843f ee11 903f
00000080: 9ee9 293d d168 8039 1503 ac3f 4941 293f
00000090: d168 8039 0916 083f 3be1 e93e d168 8039
000000a0: 75ad 003f c673 193f e092 813f 85d0 123a
000000b0: a92a f83e 7770 df3e 90e1 3840 d168 8039
000000c0: 497d b13f d050 333e d168 8039 3bca ba3e
000000d0: d168 8039 d168 8039 d168 8039 4227 293f
000000e0: fc55 ed3e f7e3 343f 1a64 9d3f bcd5 f33e
000000f0: 117b e23e 4bc1 383e f9d4 123f 1369 913f
0.5837386 0.00024492157 1.6336399 2.7787087 0.00024492157 1.3342155 0.7645774 0.00024492157
0.5954647 0.5684718 0.9594309 1.3769585 1.9020771 0.8801216 0.32901868 1.5816337
0.40767366 1.4008181 1.2288388 0.00024492157 0.89262915 1.4407437 0.83792454 2.1407433
0.6642533 1.2817805 0.8406523 0.6805822 1.4743592 0.47629455 1.0330486 1.1255472
0.04148256 0.00024492157 1.343844 0.6611524 0.00024492157 0.5315862 0.4567965 0.00024492157
0.50264674 0.5994228 1.0122948 0.000560053 0.48470047 0.4364049 2.8887672 0.00024492157
1.3866359 0.17511296 0.00024492157 0.36482415 0.00024492157 0.00024492157 0.00024492157 0.6607553
0.46354663 0.70660347 1.2296174 0.47624004 0.44234517 0.18042485 0.5735622 1.1360191

tree_conv.10.weight f4 [32, 64]
00000000: 99ec 583d a0fd 1c3f 06d6 e73e d561 ecbe
00000010: 9653 3b3e d563 1fbf 3855 a0bb c53f 45be
00000020: 1b00 e9bd 24bd 183d 1bc4 5bbe f5f6 e4bd
00000030: df7c ed3e 31d0 55bf 0de0 c13d 5daa 41be
00000040: 98a1 173e 56a8 17be ceef aa3e a566 843d
00000050: e02e dabd 04f1 c2bc 78cb 613e 5fef 083e
00000060: abf1 b93d 50c1 bf3e a9e8 c0bd dde7 653e
00000070: 5907 64be 679f 06be 1ed9 813e 12b0 3ebf
00000080: 4ad7 143e 5f0b 72be df29 bdbe 1469 23bd
00000090: 60aa b1be a700 2abd 6add bbbe beb4 1abf
000000a0: d366 793e 26fe f8be 2319 28bd bf48 97be
000000b0: d470 afbd bd61 6bbe f834 8cbe 5523 2bbe
000000c0: 395d 79bd 41ce 56bf db16 51be 2262 843e
000000d0: 8064 bfbe 74c3 8bbe 0df3 66bd f56c c1bd
000000e0: 8262 1e3e 1962 103e c708 ab3c 7a8d a0be
000000f0: ff93 cdbc 8b6b d8bd 98e6 0ebe f554 7c3e
00000100: f161 90be 537b 0f3e 11a4 1d3f 0b97 8ebd
00000110: 0f48 8f3d 553d e0be 988f abbc b531 c83d
00000120: f49b 60be 3e52 0fbf 9ed3 a8be 43f9 973e
00000130: 85fb 2b3e a502 5abd 8117 873d 3472 b43e
00000140: 1b05 a4be 1d8d 40bf 7e35 cb3c 62c7 03be
00000150: a7b9 86bd c513 9e3c b6d6 873d 752a 01bf
00000160: 67ef 8b3d 0303 0abd 40a4 d9be d47a e7bc
00000170: b3b6 e53d d818 3a3f f6ed e8bd 8b19 2abf
00000180: fd6e b53e 09fb 5c3e 56ec 22bf 1a44 7abe
00000190: bb63 bcbd 772a 0fbe f603 32be 7c13 263b
000001a0: 2b4c a13d b2c7 783d 1530 ea3d 8184 1dbd
000001b0: d946 b23c 1039 97bd deac 28be 090e b03c
000001c0: bca1 04bf 3ac3 4e3d 4931 0abb 6d52 e53d
000001d0: ecde 99bd 8f41 213e 0eca 8abd 7b22 93bd
000001e0: c2e2 333e c019 c93e cfe0 a43c 6494 3abe
000001f0: acff bfbe c505 7b3e bb32 2cbe b664 f8bd
00000200: b28d 07bd a9f1 183d e604 593c 6657 2f3d
00000210: 75c3 983d 865b 75be 751d 2f3f 58d8 963e
00000220: d097 20be 2f2f 39bc d59b 73be 994b 99be
00000230: 65d1 c2bb 6dc7 33be 5265 213c 2200 85be
00000240: e0f0 023d 6f24 a7bd 2bee 073f 8cb6 1c3d
00000250: 22d2 583e 6b97 043f c144 803e 1380 9cbe
00000260: 8bdd 8cbe 0720 5f3d a499 3e3e 47d4 4bbe
00000270: b2e3 343e e74f 33bd 2a8e 663e 98cb 00be
00000280: 20f5 c0be c625 acbd 30f2 3ebd 1b31 653e
00000290: 32eb 113d 28e2 2d3d 504a 8bbe 2815 0ebe
000002a0: ce53 de3c c7b9 bbbe b5ae 62be 6faf b1bd
000002b0: 112d 96be 5cb0 cabe 7406 3dbe e6ca 133f
000002c0: 9d77 cabe a5f7 b3be 8639 27bc e2b0 033f
000002d0: 8406 ddbd 6b6b a0be cfe0 40be 2ecd bbbe
000002e0: 76c8 5fbe edee 7cbd bb31 19be 61cd 7e3e
000002f0: 1d48 1f3e a46c 033e 5615 eabe 2480 b03e
00000300: b01c 4b3f 17aa d73e 2d93 ff3e b4c6 1dbd
00000310: 2806 ca3e fb41 2dbe 5bb1 653e 8480 113e
00000320: e3f8 adbe 1c57 62be 1754 08bf 1e66 84bd
00000330: 228b d03d 7e91 523b 4661 3bbe 925e 08be
00000340: b4c7 9c3c 695c 66be bbcc c83e aeb6 87bd
00000350: fd2e 053e b4e9 423e 99b4 d4bd df1f b2bd
00000360: 3060 7d3e e6a4 9abb 6ecc cbbe a573 d6bd
00000370: 5474 d4bc af3f e1bd cd73 8ebd 8fc9 bbbd
00000380: e1f6 223f 56e4 9c3d 4243 a7be ac01 63bb
00000390: d34e 70be 73ef 083e 5992 81bd 301c 47be
000003a0: 9ece 5b3e d12e 27bf 6e6a dc3d 6122 a1be
000003b0: 76d0 68be 7c4b 81bd f41e 2e3f 94e7 083f
000003c0: b367 94be 0b4c f6be 539d a53d c9df 7e3e
000003d0: b9f7 323f b60a 48be d8dd c3bd ca20 f9be
000003e0: d595 2b3e b4f9 073e 7ecb 6fbd bdae 51be
000003f0: b758 b53d d92d 153f 6208 83be b165 c83c
0.052960012 0.613245 0.45280474 -0.4616839 0.18293604 -0.62261707 -0.0048929714 -0.19262607
-0.11376973 0.037289754 -0.21461527 -0.11179916 0.46384332 -0.835208 0.094665624 -0.18912645
0.14807737 -0.14810309 0.3338608 0.064648904 -0.10653472 -0.023796566 0.22050273 0.13372563
0.09079298 0.37452173 -0.094193764 0.2245173 -0.22268428 -0.13146745 0.2536096 -0.7448741
0.14535251 -0.2363715 -0.36946008 -0.039895132 -0.34700298 -0.04150453 -0.36692363 -0.6043204
0.2435563 -0.486314 -0.041039597 -0.29547688 -0.08566442 -0.22986503 -0.27384162 -0.16712697
-0.06087992 -0.8390847 -0.20418875 0.2585612 -0.37381363 -0.27297556 -0.056384135 -0.0944461
0.15467265 0.14099921 0.020878209 -0.31357938 -0.025094984 -0.10567387 -0.13955152 0.24641784
-0.28199723 0.14011888 0.6157847 -0.06962403 0.06996166 -0.43796793 -0.020942494 0.09775106
-0.21934491 -0.55984867 -0.3297395 0.2968236 0.16795166 -0.05322518 0.0659628 0.3524338
-0.32035145 -0.7521532 0.02480578 -0.12869027 -0.06578379 0.019296536 0.0663275 -0.5045541
0.06832772 -0.03369428 -0.42508125 -0.028256811 0.11216488 0.7269416 -0.113735124 -0.66445225
0.3543624 0.21580137 -0.6364187 -0.24440041 -0.091987096 -0.13981043 -0.17384323 0.0025341203
0.07875856 0.06073732 0.11434952 -0.038456444 0.021762298 -0.07383931 -0.16472194 0.021491067
-0.5180929 0.05047915 -0.0021086505 0.11197362 -0.07513222 0.15747665 -0.0677682 -0.07184311
0.1756697 0.39277458 0.020126728 -0.18220669 -0.3749975 0.2451392 -0.16816227 -0.12128584
-0.033094116 0.03733984 0.013245797 0.04280796 0.074591555 -0.23960695 0.6840432 0.29461932
-0.15682912 -0.011302753 -0.23789914 -0.2994049 -0.005945372 -0.17556544 0.009850817 -0.25976664
0.031967998 -0.08161246 0.5309779 0.038260028 0.2117391 0.51793545 0.25052455 -0.30566463
-0.27512774 0.054473903 0.18613297 -0.19905196 0.17664984 -0.043777373 0.22515169 -0.12577665
-0.37687016 -0.08405642 -0.046617687 0.22382013 0.03562469 0.042452008 -0.27205133 -0.13875258
0.02713957 -0.36665174 -0.22136958 -0.086760394 -0.29331258 -0.39587677 -0.18459493 0.57731473
-0.39544383 -0.35149875 -0.010206586 0.51441777 -0.107922584 -0.31331953 -0.18835758 -0.36679977
-0.21853814 -0.061751295 -0.14960377 0.24883033 0.15554853 0.12834412 -0.45719403 0.34472764
0.7934065 0.42121956 0.49916974 -0.038519576 0.39457822 -0.16919701 0.22430937 0.14209181
-0.33978948 -0.22103542 -0.5325331 -0.0646479 0.101827875 0.0032130177 -0.18298826 -0.13317326
0.019138195 -0.22496189 0.39218697 -0.0662664 0.13006206 0.19034463 -0.10386009 -0.08697485
0.24743724 -0.0047193645 -0.39804405 -0.10471276 -0.025934376 -0.10998475 -0.06955681 -0.091693036
0.6365796 0.07660739 -0.326685 -0.0034638448 -0.23467569 0.13372593 -0.06326742 -0.19444346
0.21465537 -0.6530581 0.10762487 -0.31471542 -0.22735772 -0.063132256 0.6801598 0.5347836
-0.28985366 -0.4810489 0.08086648 0.24890055 0.69909245 -0.19535336 -0.09563798 -0.4865783
0.16756375 0.13278848 -0.058543675 -0.20476814 0.08854812 0.5827308 -0.25592333 0.024462553

tree_conv.10.bias f4 [32]
00000000: 0502 89be ac3e 26be d97a 1cbf 7fe9 bfbe
00000010: e138 6abe 855d 5dbf d4a7 c6be 1b6f 61be
00000020: 060e 4fbf 3ad2 04bf 166d 55bf edca a0be
00000030: b60b 50be 5365 73bf aa4d 19bf 80b3 c6be
00000040: d607 2fbf 305a 04be abec c9be f8e1 07bf
00000050: fe17 98be cc55 81bf 8a71 95bf 4cf6 e1be
00000060: 0733 1dbf c533 fbbe c377 5dbe e641 7fbf
00000070: a830 17bf 533e 34be 4fe2 97be 7713 e9be
-0.26759353 -0.16234845 -0.6112495 -0.3748283 -0.2287326 -0.86470824 -0.38799918 -0.2201504
-0.80880773 -0.5188328 -0.83369577 -0.3140482 -0.20316967 -0.95076483 -0.5988413 -0.38808823
-0.6837133 -0.12925029 -0.39438376 -0.53079176 -0.29705805 -1.0104308 -1.1675274 -0.44133222
-0.61405987 -0.49062935 -0.21627717 -0.9970993 -0.5905862 -0.176019 -0.29664847 -0.45522663

tree_conv.13.weight f4 [1, 32]
00000000: 87be e83d 882a f5bc 7db0 a1bd 1869 6e3d
00000010: 7aa3 273d 1a28 59be df7a 423e 0e79 1fbd
00000020: 0c07 29be 5a93 4bbe ad0d 4ebd b4f1 853c
00000030: d451 b4bd 4812 9c3d 7e8b 82be 510d 3c3d
00000040: 5150 02be fa44 ff3c 39b2 433c 8a97 503e
00000050: 36c0 8cbc a44f 07be e658 4fbd 107b b1bd
00000060: bc8d fb3c 638a b2bd 3d8f 2dbe a889 df3d
00000070: ef5b 1d3d e770 c7bd 8a6f 27be 8784 3a3e
0.11364465 -0.029927507 -0.078949906 0.058205694 0.040927388 -0.21206704 0.18992184 -0.038933806
-0.16506594 -0.19880429 -0.05030601 0.016350605 -0.0880467 0.07620674 -0.2549705 0.045911137
-0.12725951 0.03116082 0.011944347 0.20370308 -0.017181497 -0.13213974 -0.05062189 -0.086660504
0.030707233 -0.087178014 -0.16949172 0.10914928 0.038417753 -0.09738331 -0.16351143 0.18214618
