src/Models/pairwise.onnx (onnx, 702290 bytes, 13 tensors)

tree_conv.0.weights.weight f4 [256, 50, 3]
00000000: 9bce 0f3d d522 2dbc c2fa 42bc e747 97bc
00000010: d1a9 a6bd 4631 7cbd 83c4 2d3d 50b0 0cbd
00000020: 7408 e83c d11e 85bd 09d6 89bd 32df 53bd
00000030: e00a 143d 6cea 88bd 68eb 81bd 3bb3 9cbd
00000040: 43aa a43d 80a6 5c3c 9c08 53bd 781a 10bd
00000050: 72b2 623d 2d33 80bb f42f a03d e69b c2bc
00000060: b0b1 23bd 1736 bd3b b351 783d 2dda 003d
00000070: 9c1f ef3b 1e8b 303d 9f3b 67bc 9504 943d
00000080: 679d 023d e108 163d 29d0 763d 3e84 31ba
00000090: 389c 51bd efbd 993d 7d8f 733d d28b 81bd
000000a0: 282c 8dbd 542f 2ebd 649b b6bc c028 833c
000000b0: e9f3 babc 5ae0 f83c 6455 d3bc d76a bfbc
000000c0: 50d6 743d bdb7 c9bc a64b 363d 330c a03d
000000d0: 254d 8bbb 6043 13bd c829 0c3d 3b93 4abd
000000e0: 3c84 2b3d 108f 85bd cb45 2ebd df6f 3b3a
000000f0: 8e50 27bc c32c a43d dc6b 613b 8f14 e33c
00000100: f753 583d 0680 e1bb f3c2 2d3d 7f4c ddbc
00000110: 3161 543d 1194 603d 9dd6 8fbd 121b 633d
00000120: 4e64 6e3c ab2c 99bd 197c 173d 966f c13c
00000130: ff42 1ebd 77d9 85bb e9b3 3d3b 9248 9cbd
00000140: 1337 c73c e2bb 343c a6f5 98bc bb4b 933c
00000150: 60f7 863d a86f 48bd 1606 443c 85cf 95bd
00000160: af62 cb3a 545d 0f3d 75b1 8e3d 53d7 7ebd
00000170: ec0f a6bd f8a5 88bd 6f37 9fbd 6c4c c2bc
00000180: 9f27 9c3d dfa1 773d 571f bcbc 048f 72bc
00000190: bdc0 9dbb b12f 41bc 1a00 e63c 52d8 a0bd
000001a0: ed33 87bd 4c32 a03d 4752 453d 300b 843d
000001b0: 8dcf c23c f53c 1dbb a0ce 20bd 28fc babc
000001c0: 5bd7 9dbd e55e 8c3c 1b67 6dbd 60d1 2f3d
000001d0: d12a 43bd 7041 343d 6de9 a43c 259d edbc
000001e0: 37c1 e73c 684c 59bb 906c fc3c 69fd 78bd
000001f0: 2eb8 283c ef09 8dbd 9003 813d 303a 96bd
00000200: 14fb b73c c945 453c eda5 213c 3798 28bd
00000210: e282 f3bc c89e 92bd 35eb 963d 92d9 32bc
00000220: 6315 babb 179c 6e3d d8f4 ab3b 1e69 063d
00000230: 9a54 9abd a3e3 92bd 12c8 ba3c 0756 a1bd
00000240: 5300 083d 1fc8 363d c326 883d 7fd3 51bb
00000250: 7864 163d c63a b03b d861 79bd 0eac a6bd
00000260: 0b47 34bd 43c8 453b ab44 93bd f2b1 fcbc
00000270: 8a99 85bd 430d 44bd 1074 6e3c e5fa 693d
00000280: 0a45 373c 7e17 8bbd eee5 753a 9606 dabc
00000290: 1175 24bd e290 27bd 1f1c a3bd fae9 b1bb
000002a0: 0fd5 f63c 0720 73bd 55df 8cbd c45a 86bd
000002b0: cc63 a63d 6e3e 91bd e791 9f3d ad5f 8cbd
000002c0: 4ef1 973c 1f55 adbc cb01 19bc 7a80 70bd
000002d0: 81c2 843d de54 023d d1c4 6bbc a4c4 03bd
000002e0: 02bf 6a3d b43e b0bb c6fa 973d 34ba 83bd
000002f0: d5be 23bd 94ca 653d 27b1 8abd e36c 23bd
00000300: af22 8fbd 421a 7b3d ec1c fbbc 5063 60bc
00000310: e78d 763d 7830 9f3d b318 613d 3de2 353d
00000320: 9715 a9bb 56b8 f93b ce65 60bc b9f6 7cbd
00000330: 08d6 61bb c82e ac3b e96c 1abd 06e1 7f3d
00000340: 80d5 90bc f3b4 13bd 0e2f 2fbc 54f7 2d3d
00000350: 67de f73c 9b92 263d 2fca 35bb 5fc0 dbbc
00000360: e2fb 18bd b326 9e3c 356b 203c 0b90 55bd
00000370: f59b 90bc cdb5 7c3b 9a62 8e3d 7073 5fbd
00000380: d8cb 9d3d ac45 31bd de33 3fbd f848 2ebd
00000390: 8fbe 393d 7c0c 023c ae7c 29bd 2c76 0bbd
000003a0: 00f3 553d c584 883d 1995 8cbd a6df 28bd
000003b0: 0dc3 9fbc 06ad 7cbc 62e4 8d3b b83d 933d
000003c0: 1199 b33c c524 53bc ced7 9d3d 15dc 9fbd
000003d0: 2543 1fbd 117c 97bd 9b74 9dbd 1043 a6bd
000003e0: 3c46 9f3d c5fd 683d 3039 443d 6196 d9bc
000003f0: 900e 873d 5d54 9d3d bf70 f2bc 0c64 ce3c
0.035109144 -0.010567387 -0.011900606 -0.018466903 -0.08137859 -0.06157043 0.042423736 -0.034347832
0.028324343 -0.065000184 -0.06730277 -0.051726528 0.036143184 -0.066853374 -0.06343728 -0.07651373
0.08040287 0.013467431 -0.051521882 -0.035181493 0.05534596 -0.0039123506 0.07821646 -0.023755979
-0.039964378 0.0057742703 0.06062479 0.03145807 0.0072974693 0.043101422 -0.014113336 0.072274365
0.03188839 0.03662956 0.06025711 -0.000677172 -0.051174372 0.0750693 0.059463013 -0.06325497
-0.06893188 -0.042525604 -0.022290893 0.016010642 -0.022821384 0.030380417 -0.025797553 -0.023366375
0.059774697 -0.024623746 0.044505738 0.07814827 -0.0042511397 -0.035952926 0.034219533 -0.049456816
0.041874155 -0.06521428 -0.04254703 0.0007150154 -0.010212077 0.0801635 0.0034396565 0.027719764
0.05281445 -0.0068817167 0.042422246 -0.027014015 0.0518505 0.054828707 -0.07023356 0.055445738
0.014550282 -0.07479223 0.036983583 0.023612779 -0.03863811 -0.0040847617 0.0028946346 -0.07631029
0.024318254 0.011031123 -0.018671822 0.017980447 0.06590152 -0.04893461 0.011964342 -0.07314972
0.0015517081 0.035001114 0.06967441 -0.062217068 -0.081085056 -0.06672281 -0.07774245 -0.023718081
0.076247446 0.060457107 -0.022964163 -0.014804605 -0.004814236 -0.011791156 0.02807622 -0.0785376
-0.06601701 0.07822093 0.04817417 0.06447446 0.023780609 -0.0023992632 -0.039259553 -0.022825316
-0.077070914 0.017135093 -0.057959657 0.042924285 -0.047648255 0.04400772 0.020130837 -0.029005596
0.028290374 -0.0033157114 0.030813485 -0.060788546 0.010297818 -0.0688666 0.062995076 -0.07335317
0.02245859 0.012040564 0.00986622 -0.04116079 -0.029725496 -0.07159191 0.07369081 -0.010916131
-0.005678819 0.058254328 0.0052476935 0.03281509 -0.07535668 -0.071723245 0.02280048 -0.078777365
0.033203434 0.044624444 0.06648018 -0.003201693 0.03671691 0.0053781 -0.060884327 -0.081382856
-0.044013064 0.003017918 -0.07190832 -0.03084657 -0.06523426 -0.04786421 0.014554039 0.057124037
0.011185894 -0.0679159 0.00093802705 -0.026614469 -0.040150706 -0.040909655 -0.07964348 -0.0054295035
0.030130891 -0.059356716 -0.06878535 -0.06560281 0.081245035 -0.07091986 0.077915005 -0.06854186
0.01854768 -0.021158753 -0.009338806 -0.058716275 0.06482411 0.031819217 -0.014390186 -0.032169953
0.057311065 -0.0053785685 0.07420878 -0.06432 -0.039976913 0.056101397 -0.067720704 -0.039898764
-0.06989037 0.06130434 -0.03065344 -0.013695553 0.060193922 0.077729166 0.054955196 0.04440521
-0.0051600444 0.0076208515 -0.013696147 -0.06175873 -0.0034459848 0.0052546 -0.03770152 0.06247046
-0.01767993 -0.03606124 -0.010692371 0.0424722 0.030257417 0.040667158 -0.002773892 -0.026825128
-0.03734959 0.019305563 0.009791185 -0.052139323 -0.017652491 0.003856051 0.069524005 -0.05455345
0.07704896 -0.043279335 -0.046680324 -0.042550057 0.045347746 0.007937547 -0.04137867 -0.034048244
0.052233696 0.06665949 -0.068643756 -0.041228913 -0.019502187 -0.015422111 0.004330204 0.07189506
0.021923574 -0.0128871845 0.07707177 -0.07805649 -0.038882393 -0.07396711 -0.07688256 -0.0811826
0.07777068 0.05688264 0.0479061 -0.026560964 0.065945745 0.07682107 -0.029594777 0.02519419

tree_conv.0.weights.bias f4 [256]
00000000: ed86 253d 2baf 763d d030 8e3d 4059 5fbc
00000010: 156e 78bd f76d 833d 237f 25bd adf3 8abd
00000020: 0ad3 f5bc 8fa9 47bc ccec 7e3d fd4c b5bc
00000030: 36a9 653d 479a 483d 1890 dabc 1118 09bd
00000040: eb95 24bc 9341 803d eda3 98bc 24b8 8e3c
00000050: 9578 79bd 5e14 a3bd f74f 0bbd 87ed 7d3d
00000060: 678b 95bd 4b96 34bd c00a 85bc c545 c73c
00000070: 0109 90bd 9464 38bd 85b1 3abd bed6 0bbc
00000080: bfb0 5b3c 89bc 80bd ab4a 93bb 5d16 803d
00000090: 4d45 1c3d 0e3c 543d 8d46 8a3d 4dcd 483d
000000a0: 7b30 62bc d7e9 833d 1a06 7bbd 1668 123d
000000b0: 23fe b93c b58b 803d 81c5 7abc 1523 07bd
000000c0: 8d82 90bc ac05 76bd 6072 2fbd 289b 513d
000000d0: b97c 12bd da5c bd3b 936f 403c 48f1 82bd
000000e0: 0ba2 103c 5557 81bd 278b 80bc df28 383d
000000f0: 83f3 0f3d 6a46 0a3d a0bb 8fba ab7f 93bd
00000100: 4b5d 6abd 16dc cabc 926f 7b3d 1b58 c1bc
00000110: fc06 17bd beed 39ba 2c2e 863d cbc8 b8bb
00000120: 9cd1 093d f4f8 09bd 13d5 26bc f14c 723c
00000130: 67ff 9f3d 7911 df3c fc61 8fbd 8a8c c43b
00000140: 6772 16bd b9c6 02bc 8026 133d c6aa 813c
00000150: b279 253c 88b9 313d a82b 1c3d bdc0 983d
00000160: 1b41 c03b 9301 6dbd 7fb6 26bd 53bb 953d
00000170: 3d87 16bb b98f 1fbb 61cb a73c 9428 8d3d
00000180: 2555 183d 4395 383c 4529 8f3d 1fcf 72bd
00000190: eb4c 98bd f3e5 093d bc8d c83a 6d6d 2d3d
000001a0: 8829 96bd b8f9 603d f680 853d 1a5d 683d
000001b0: 8441 3d3d 7a6a 5abd dc95 9a3d 9f0a 95bd
000001c0: 35dd f7bc 0846 8d3d 0137 a43c cf77 093d
000001d0: 2b19 a4bd 6a01 3dbd 8fac 973d 1c22 95bd
000001e0: 9de6 5ebd f0f1 603b 3a70 82bd d005 39bd
000001f0: 84c6 883d 19c5 c0ba 1367 97bc 260c ec3b
00000200: f5f0 c5bc 4049 2c3d 9912 abbc afc6 8e3d
00000210: 6a6c 6cbd 6dd1 88bd 6309 8abd c719 913d
00000220: 5505 01bd b862 f5bb 5bfa 7cbd 9a18 2f3d
00000230: 0e80 bfbc 26b3 433b f6c7 8abd 8738 283d
00000240: a72f 193d e2ad ea3c 913a 13bd 384f 173d
00000250: 2e3f ddbc 4f0e 69bd 5a6d 983d ec9c 773d
00000260: ff8b 0f3d a089 8ebd fc67 f23c ad22 933d
00000270: 1718 073d 5db2 da3c c88e 983c 56ae 83bd
00000280: 2bd8 1cb9 14a6 a73c e6c6 5abc 95d3 853d
00000290: b03b 90bd 9da0 73bd 8b23 5d3d 105d a03d
000002a0: 2e2e 88bc f9be 703d 51e0 de3c 8137 613c
000002b0: b66e 8c3d 2369 40bd 8358 743d 6844 90bd
000002c0: ed53 a3bd cc5f 9bbd 8e5f 8dbd e475 54bd
000002d0: d724 553d 5bac 093c 2903 99bc 473d b5bb
000002e0: 5c8c 50bd b34b 693d b1e6 8d3d e38f 40bd
000002f0: 84b2 d23c 5661 55bd 99c1 183d 6e33 c2bc
00000300: 8b79 35bc f621 f6bc 06f8 563d 6115 173d
00000310: 75cd a03c abc0 66bd 05f3 88bc 19f3 a13d
00000320: 4d06 98bd cbed 033d 59cb 20bc 7a47 8b3d
00000330: aecf 6ebd 9b9a 48bd 8fd0 5cbd 3721 8a39
00000340: 0d07 21bc e722 fa3c 1bdf 1f3d ab92 793c
00000350: c0c2 743d 38e3 90bd b1c9 c03c 4bde a33d
00000360: d5c9 123d 9168 233d 32cb 5a3d cc56 573d
00000370: aaf9 ea3c 35a7 e63c a973 9ebd 53c4 cb3c
00000380: 3eac 41bc 6a0d 8abd 7568 80bd 6554 5cbc
00000390: 3f08 763d 0e16 8ebd 04f5 763b 8c56 ecbb
000003a0: 96c3 54bd 8fe9 213d 9582 f4bc fa84 933d
000003b0: b45e f93b 0bf3 80bb 6b8e 37bc 3373 46bd
000003c0: 220e 3cbd 14bf 81bd 67fc 4cbd 7219 4dbd
000003d0: 30e0 cdbc 5ce0 8e3c 34f1 56bd f4f1 96bd
000003e0: a009 dabc 7957 1c3d b871 a0bb e773 25bb
000003f0: 66e0 a1bc a548 493d f78e 323d bfa6 923d
0.04041188 0.060225647 0.06942904 -0.013632119 -0.060651857 0.064174585 -0.04040445 -0.06784759
-0.030007858 -0.012186422 0.062237546 -0.022131437 0.056069575 0.048975255 -0.026680037 -0.033470217
-0.010045509 0.06262507 -0.018632853 0.01742179 -0.06090601 -0.07962869 -0.034011807 0.0619941
-0.073019795 -0.044088643 -0.016240478 0.02432526 -0.07032967 -0.045017794 -0.045579452 -0.008535085
0.013408839 -0.0628596 -0.004494985 0.062542655 0.038152028 0.051815085 0.06751738 0.049023915
-0.013805504 0.06441086 -0.061285116 0.035743795 0.02270419 0.06276647 -0.015305878 -0.03299244
-0.017640376 -0.060064003 -0.042833686 0.05117336 -0.035763476 0.005778891 0.011745351 -0.06393677
0.008827697 -0.063154854 -0.015691353 0.044960853 0.03514434 0.03375856 -0.0010965951 -0.07202085
-0.057217877 -0.024763148 0.0613857 -0.023601582 -0.036871895 -0.0007092616 0.06551775 -0.0056391708
0.033647165 -0.033684686 -0.010182637 0.014788852 0.07812386 0.027230011 -0.07001111 0.005998199
-0.036730196 -0.0079819495 0.03592539 0.015828501 0.010099815 0.043389827 0.03812757 0.07458637
0.005867136 -0.05786283 -0.040701386 0.0731112 -0.0022968792 -0.002434714 0.02048272 0.06892505
0.037190575 0.0112660555 0.069902934 -0.059279557 -0.07436546 0.033666562 0.0015301029 0.042340685
-0.0733214 0.05492565 0.06518738 0.056729414 0.04620506 -0.0533242 0.07548115 -0.072774164
-0.030256847 0.06898123 0.02004576 0.033561524 -0.08012613 -0.046143927 0.0740596 -0.072818965
-0.05441915 0.0034323893 -0.06369062 -0.04517156 0.06678489 -0.0014707177 -0.018481767 0.0072035966
-0.024162749 0.042062044 -0.020882891 0.0697149 -0.05772058 -0.0668057 -0.067400716 0.07084995
-0.031499226 -0.007488575 -0.061762195 0.04274807 -0.02337649 0.002986142 -0.06776421 0.041069534
0.03739896 0.028647367 -0.035944525 0.036940783 -0.027007665 -0.05689841 0.07442732 0.060452387
0.03504562 -0.06959844 0.0295906 0.07184348 0.03298196 0.026696378 0.01862277 -0.06429736
-0.00014957848 0.020464934 -0.013353085 0.06534497 -0.070426345 -0.059479345 0.053988975 0.0783025
-0.016623583 0.058775876 0.027206572 0.013746143 0.06857054 -0.046975266 0.059654724 -0.070442975
-0.07974992 -0.07586631 -0.06902991 -0.05187024 0.052037086 0.008402909 -0.018678265 -0.0055309865
-0.050915107 0.056956958 0.069287665 -0.04701222 0.025719889 -0.05209478 0.037294004 -0.023706164
-0.011076341 -0.03004549 0.052482627 0.036885623 0.01962922 -0.056336086 -0.016717443 0.07907695
-0.07423077 0.0322092 -0.009814107 0.068007424 -0.058303528 -0.04897557 -0.053909834 0.00026346158
-0.009828341 0.03053422 0.03903113 0.015232722 0.05975604 -0.070745885 0.023533674 0.080013834
0.035837013 0.039894644 0.05341644 0.05257301 0.028683502 0.028155902 -0.07736904 0.024873888
-0.011820851 -0.0674084 -0.062699236 -0.013447856 0.060066458 -0.069378 0.0037682662 -0.0072124656
-0.051944338 0.03952938 -0.029847423 0.07203098 0.0076101664 -0.003935223 -0.011203389 -0.048449706
-0.045911916 -0.063352734 -0.050045397 -0.050073095 -0.025131315 0.017440967 -0.052476123 -0.07370368
-0.026615918 0.038169358 -0.004896369 -0.0025246085 -0.019760322 0.049141545 0.043593373 0.071607105

tree_conv.3.weights.weight f4 [128, 256, 3]
00000000: c1d4 db3c 99b9 bb3b e088 d63c c03e 973a
00000010: 586f 073d 0d45 323c 3973 03bd e652 b0bc
00000020: 751e cbbc 8d29 d7bc 65f2 bd3c 52fa 253c
00000030: 7e4e 82bc 3b4a 1dbc e0f1 8cbc 04c3 0c3d
00000040: 27f2 013d 8ed2 fb3c afe2 e0bb f722 0bbd
00000050: 8a42 87bc 290a 53bc cc23 383c 9080 983a
00000060: 2aec c0bc e020 e8bc 1b4a a33c 1878 973c
00000070: d8e0 b93c 16c9 08bc c625 323c c6db a43c
00000080: 4305 b63b 87c9 8b3c a4be 0a3c 27dd ff3c
00000090: 6b3a b93c 8239 0c3d 5be0 06bc 4c39 ffbc
000000a0: a27e 7abc f676 0dbd c0c6 633c 0b69 b8bc
000000b0: e567 b73c a2f8 a7bc 1f2c 6c3c 53b9 a2bc
000000c0: 0321 98bc ade6 053d 079d 9abc 7927 83bc
000000d0: 2c7c 22bc a6d0 e53b b65a 803c ce41 58bc
000000e0: 32b8 d13b b1aa 91bc c5bf dd3a 5aa5 11bd
000000f0: d94e f3bc 300a f0bb 8053 083d 2c11 c4bc
00000100: 6f37 80bc 55c3 d33b 9327 2f3c 5820 6dbb
00000110: 6ed6 5ebb 3f13 afbc 1050 ba3b c0ae e9bc
00000120: a46d 843c 1fca a0bc 9eae 66bc 8fe5 58ba
00000130: 72f8 7cbc 35d0 97bc 0218 77bc e847 9f3b
00000140: 1fca da3c d287 f5bb 1d09 093d 2a4b 12bd
00000150: 00b6 44bc 5bff 92bc 5399 70bc 4153 f8bc
00000160: 0600 28b9 db22 d63c 6cac 85bb 8012 913c
00000170: 956d ed3c a1e4 6c3c cdb2 3c3c c861 f13c
00000180: eae0 a5bc 76a2 923c 702c 2c3a 3a21 04bd
00000190: 5a4d 073d 7598 babc e8a2 78bb 664a 703c
000001a0: 056c f3bc 183b eabc 6f1d 133d ad19 0abd
000001b0: 12ac eabc 283a fe3c 8008 81bc d7cc 0cbc
000001c0: b780 de3c d525 97bc e249 b5bc 1e90 4c3c
000001d0: 2b50 64bc 16a8 d5bc 49e2 4fbb c90a c6bc
000001e0: 2a0b eabc 673a f6bc 269c 543c 964f f53b
000001f0: 138b b53a b354 16bc 34da 973c 6336 b33c
00000200: 7f00 74bc 5bdd da3c 759b 103d 46e0 59bc
00000210: ec91 023d 41fb 48bc ecb6 51bc 0014 3fbc
00000220: 4ffb dabc a6e1 c33c ca51 073d 1048 42bc
00000230: e9fa a03b 785c fe3c 5b49 a03c 7160 0cbc
00000240: 154d b83c 5041 dd3c 6bb9 f9bb bb27 12bd
00000250: 4255 05bc fc5d 8f3c b5de 79bc 7fd4 83ba
00000260: edd1 533c eac3 123c 728f bcba c0b7 773c
00000270: 6b9f be3b 46a6 bfb9 10c3 203b 118c 5ebc
00000280: da09 1c3c 78c0 a13c c520 1ebc c6d9 e83c
00000290: 5163 e03b 2a84 0fbd 5774 2b3a 1751 dfba
000002a0: d2b3 013d 6e2f 7bbc 1427 333c 55be d3bb
000002b0: 2310 80bb 7465 6f3c a6a4 0abc 44e7 e8bc
000002c0: 33a1 0cbd 99d4 173c 5780 29bb 036e debc
000002d0: 256c 093d 474e aabc 8f80 083d e9d6 f2bb
000002e0: 67a7 f0ba 9048 dabb 0e32 bf3a 8d73 d03c
000002f0: cb7e d23c c8dd 05bd 49e3 aa3c e2ff bf3a
00000300: dc69 ba3c 9ea7 a5bc 17d2 083d 69ba abbc
00000310: 96c4 feb9 f1bf 01bd 62c5 f83c 1fc1 b5bc
00000320: 7850 69bc 5eb9 85bc d186 95bc 3d0a f1bc
00000330: 16c7 92bc d909 c4bb ab3b 0b3d f604 a13c
00000340: 0e34 e93b 947d e7bc b97d 033d fb03 b93b
00000350: 9f26 f43c 440f 0ebc f2c8 18bb 99d6 9fbc
00000360: 3b1d 1cbc 4a38 ac3b 00d2 0d3d a424 dd3c
00000370: 9a71 f43b 0d24 8abc 0f68 5b3c 18eb 33bc
00000380: ce58 073d 036a 5bbc 855a abbc 9f77 913c
00000390: 7174 063c 676d c43c bb8e c7bc 130c 313c
000003a0: aab2 05bc 3999 3cbc f4b3 333b ede1 083b
000003b0: aad8 44bc 8958 a03c d5c7 923c 3b8c e1bc
000003c0: 7af7 07bd fd5d 613c 9269 b43c a796 04bd
000003d0: 88fc 63bc a946 453b 3e06 9ebc 032b 463c
000003e0: 8fd4 f33b 308f f43c 8ec8 adbc d0af dcbc
000003f0: 0c37 9bbc edfc dcbc 8172 5a3c 0632 0cbc
0.026834847 0.005728912 0.026188314 0.0011539087 0.03306517 0.010880721 -0.032092307 -0.021523904
-0.024794796 -0.02626493 0.023186872 0.010130482 -0.015906569 -0.009600217 -0.017205179 0.03436567
0.031725075 0.030740049 -0.0068629603 -0.033968892 -0.01651122 -0.01288084 0.011239003 0.0011634994
-0.023550112 -0.028335989 0.019932797 0.018489882 0.022690222 -0.008348724 0.010873264 0.020124327
0.0055548265 0.01706387 0.008468304 0.031233383 0.022610864 0.03423453 -0.008232201 -0.031155251
-0.015288981 -0.034537278 0.013902366 -0.022511026 0.022388408 -0.0205043 0.014414816 -0.01986376
-0.018570429 0.032690693 -0.018873705 -0.016010033 -0.0099173 0.007013398 0.015668254 -0.013199283
0.0064001316 -0.017781587 0.0016918114 -0.035558082 -0.029700683 -0.007325433 0.033282757 -0.02393397
-0.015651433 0.0064624944 0.010690588 -0.0036182608 -0.0034002322 -0.021371482 0.0056858137 -0.02852571
0.016165562 -0.019627629 -0.014079718 -0.0008273953 -0.015440093 -0.018531898 -0.0150814075 0.004860867
0.026707707 -0.0074929977 0.033455957 -0.035716213 -0.012006283 -0.017944029 -0.014684993 -0.030313136
-0.00016021737 0.026139667 -0.004079392 0.017709017 0.028982917 0.014458806 0.011517239 0.029465571
-0.020248849 0.017899733 0.0006567901 -0.03225825 0.033032753 -0.022777775 -0.0037938897 0.0146661755
-0.029714594 -0.028592631 0.035916742 -0.033715893 -0.028646503 0.03103359 -0.015751123 -0.0085937595
0.027160985 -0.018450657 -0.022129957 0.012485532 -0.013935129 -0.026081126 -0.003172057 -0.024175065
-0.028569777 -0.030057145 0.012976682 0.007486294 0.0013850651 -0.009175467 0.018536665 0.02187652
-0.014892696 0.026716879 0.035304505 -0.0132981 0.031877443 -0.012266935 -0.01279996 -0.011662483
-0.026731161 0.023911308 0.033036985 -0.011858001 0.0049127233 0.031049952 0.019566229 -0.008567915
0.022497693 0.027008682 -0.0076209805 -0.03568242 -0.008138003 0.01750087 -0.015250851 -0.0010057836
0.012928468 0.008957842 -0.0014386012 0.015119493 0.005817344 -0.00036554242 0.0024530329 -0.013583199
0.009523833 0.019745097 -0.009651368 0.028424155 0.006847777 -0.03503815 0.00065404683 -0.0017037716
0.03166563 -0.015331132 0.01093461 -0.0064618983 -0.0039081736 0.014611591 -0.008462107 -0.028430589
-0.03433342 0.009266996 -0.002586385 -0.027152067 0.0335504 -0.020789279 0.033325728 -0.007410873
-0.0018360437 -0.006661482 0.0014587061 0.025445724 0.025695225 -0.03268221 0.020860331 0.0014648403
0.022755556 -0.020221528 0.033403482 -0.02096291 -0.00048593123 -0.03167719 0.030367557 -0.022186814
-0.014240377 -0.016323742 -0.018252762 -0.029423827 -0.017917197 -0.0059826192 0.03399245 0.019655686
0.007116801 -0.028258123 0.03210232 0.0056462265 0.029803572 -0.008670632 -0.0023313132 -0.019511508
-0.009528453 0.0052557336 0.0346241 0.02699501 0.0074598314 -0.016862893 0.013391509 -0.010981344
0.033043675 -0.013391974 -0.020917187 0.017757235 0.008206473 0.023977948 -0.024360051 0.010806101
-0.008160273 -0.0115111405 0.0027420493 0.0020886615 -0.012014547 0.019573467 0.017917553 -0.027532687
-0.033194996 0.013755319 0.022022996 -0.032370236 -0.013915189 0.0030101931 -0.019290086 0.012095216
0.0074411104 0.029853433 -0.021213796 -0.026939303 -0.018947147 -0.026976073 0.013332964 -0.008556848

tree_conv.3.weights.bias f4 [128]
00000000: caf6 683c b732 b0ba ba45 a3bc a74c e23c
00000010: d6a0 f0bb 1b01 00bd 7bb4 53bc 033a 07b9
00000020: 7e4f a0bc 5a8d fcbc 068a 8fbc 9c41 adbb
00000030: 515b f6bc 5fcc d13c 7de5 513b 6673 bdbc
00000040: be87 e4bc cceb 4b3a 1f5a b83b 4651 f33c
00000050: add1 bd3c b284 86bc 436d 213c 3238 2b3b
00000060: 58bd d93c 7851 80bc 3684 03bd 7e7a 183c
00000070: 3ca1 03bd 64b0 ee3c e963 373c c70a f73c
00000080: 5c3a b6bb 8448 0bbd 592e e53c 79af 143d
00000090: f6cc 343c 569b 083d 505f a9bc e139 773c
000000a0: 3a7e ed3c 3a6c 673c 895b 78bb f880 363b
000000b0: 4d7c 233c 6cfb f83b 5d2e 7fbc 5d50 abbb
000000c0: f256 92bc f17b 0dbd 0861 9cbc c9c0 f1bc
000000d0: d8c6 7e3b 08b0 bdbc e69c 0f3d 4ec1 b2bc
000000e0: 455b b03c dbe2 63bb 3cfd bebc 72f1 b6ba
000000f0: 31b2 4bbc 5fbc f73c 7510 293c 77ed f0b9
00000100: a04b 05bd b2c2 753c 95f3 93bb 5232 85bc
00000110: 0f7e a0bc 1251 093d 8664 f13b 7105 ba3c
00000120: db9b 1bbb 8bcf d9bc 0bed d1bc c543 273a
00000130: 4647 9d3c 07e5 0d3d 1ef8 ef3c 2cfe cdbc
00000140: 602f c93c 129b ca3c 6423 273c 1c75 b23c
00000150: 67d7 053c fdaf db3c b992 9bbc 57b5 d9bc
00000160: 4d20 b73c 1ade 3bbc 1a5e 1e3c 603e 263c
00000170: b40a 6c3b 8be7 b1bc ff5f 083d eda7 89bc
00000180: 5bb4 303c d47d 083d fdee c13b d5d8 bbbc
00000190: db4f 09bc 688c 293c bd5e 073c c07e cabc
000001a0: b58f 563c 50b1 843c 50d7 bcbb 09f1 05bd
000001b0: 89cf afbc 0994 b73c 525d ea3c c7d5 a53b
000001c0: ba20 f63b c68d e1bc 555b f63b d2a6 223b
000001d0: 878e d6bc 1568 f93a 74a4 8d3c a157 d33c
000001e0: 0a6f 99bc 784d 0b3c 7fa9 58bc c0f2 b73b
000001f0: 455d 8abb 4524 48bc d035 05bd c2ca 993b
0.014218995 -0.0013442849 -0.01993071 0.027624441 -0.007343392 -0.031251054 -0.012921448 -0.00012896214
-0.019569155 -0.03082912 -0.01752187 -0.0052873623 -0.03007284 0.025610147 0.0032027655 -0.023126315
-0.027896758 0.0007778972 0.0056259776 0.02970184 0.02317127 -0.016420696 0.00985271 0.0026126024
0.026579544 -0.015663847 -0.032108508 0.009306548 -0.032136187 0.029136844 0.011193254 0.030156506
-0.005561156 -0.034004703 0.027976202 0.036300156 0.011035195 0.033351265 -0.020675331 0.015089483
0.028990854 0.014124924 -0.0037896356 0.0027847867 0.009978366 0.007598331 -0.015575019 -0.005228086
-0.017863724 -0.034542028 -0.019089237 -0.029510872 0.0038875844 -0.023155227 0.03506174 -0.02182069
0.021527896 -0.0034772668 -0.023314111 -0.0013957454 -0.012432621 0.03024119 0.010318865 -0.00045953292
-0.032542825 0.015000032 -0.004515121 -0.016259346 -0.01959136 0.03352458 0.0073667197 0.022707673
-0.002374402 -0.026588222 -0.025625726 0.0006380643 0.019199025 0.034642246 0.029293116 -0.025145613
0.024558723 0.024732146 0.010201309 0.021784358 0.008169032 0.026817316 -0.018990861 -0.026575727
0.02235427 -0.011466527 0.00966599 0.010146707 0.0036017122 -0.021716854 0.033294674 -0.016803706
0.010785188 0.033323124 0.005918382 -0.022930542 -0.008380855 0.010348417 0.008262333 -0.024718642
0.013095786 0.01619783 -0.005762972 -0.032700572 -0.021461265 0.022409456 0.028608952 0.0050608846
0.0075112255 -0.027533423 0.007518212 0.002481867 -0.02619101 0.0019028211 0.017290331 0.02579862
-0.018729705 0.008502357 -0.013224005 0.005613655 -0.0042225444 -0.012215679 -0.032522023 0.00469336

tree_conv.6.weights.weight f4 [64, 128, 3]
00000000: 50ed 783c d634 263d db7b 30bc 4cd9 18bd
00000010: b0c6 18bd bada 813c 5239 8abb 0999 d03c
00000020: c7e5 c73b 17ff 2cbd da8f a43b 50cf c03c
00000030: e65c 48bd 4bcf e8b9 fe7b 6dbc 7d29 3c3d
00000040: c9e2 f2bb e637 a3bc 25f0 9ebc 6e9a ad3c
00000050: 9521 233d aa04 263d a6c5 853c cd94 063c
00000060: cb06 0b3b 2956 d4ba 6de6 63bc ee52 853c
00000070: acb1 2f3d 2c34 1ebd 02b1 0e3d d9b4 503c
00000080: a013 deba 5e6c a63c 2f1a 153d f88e 383b
00000090: 8690 243d 8b9e 04bd f944 5f3b 7c25 a5bb
000000a0: f305 01bd a1e3 553c 87da b3bc 0c84 3b3d
000000b0: f07a 11bd 0571 65bc c108 04bd daea e43c
000000c0: a320 dabb bc9a c8bc 2b32 2a3d d752 313d
000000d0: 5ce8 293d f2af e93c 42c9 42bd 9e19 89bc
000000e0: 0450 483d ee80 7fba f65a e6bc 1d08 5f3c
000000f0: a049 4c3c 249a 1ebd 2978 c93c 23e3 213d
00000100: 14c8 b73c a14c 46bd b04d 0a3a 0c39 153d
00000110: 413c 0dbc fe0e a9bc 053f 2d3d 455a 933c
00000120: a354 043c 3596 aa3b 4ebe b5bc e193 3fbd
00000130: daeb e9bc a76d 613c d102 f3bb a9f7 2bbd
00000140: e1ee 20bd c9d7 d4bc e2f1 e53b 9e47 ab3c
00000150: bb6a a9bc c8a9 883b 2eed 103a 2ae4 363d
00000160: 4fd9 733c 3afa 273d fa8a 393d 70b7 d73c
00000170: 995a 08bd 3b2b 1dbd bad6 103d f1be 10bd
00000180: 4076 513d 619a 103c 4ab8 c13a ff7b 2a3d
00000190: 9323 a0bc 7b78 983c 2152 2ebd 7406 123c
000001a0: bf20 86bc b17c 17bd ae0a 373c 3ab9 e2bc
000001b0: 4a2c bbbb 5b18 8c3b a5a3 c8bc 9f25 a13b
000001c0: b5f5 4bbd a466 ac3c 0773 0e3d 5876 953b
000001d0: 60d1 17bd bd6b 5e3c 03f2 f63c dff8 3b3d
000001e0: 7201 a83c 64c6 9a3c d392 a73c bf04 35bd
000001f0: 11e6 36bd b280 f2bc 0ea8 0cbc 5841 503d
00000200: d57e 31bc 01ec b0bb b265 22bd fa3b d33b
00000210: 029f dc3c 12a7 19bd adec 893c ed61 8d3c
00000220: 6ae6 97bc 8bff f1bc 2633 4bbd 398f 9f3c
00000230: dc10 db3c 7cc9 903c f17c 483c 328b 033d
00000240: ea59 cbbc 0f1f d6bc 959d 2f3b ac9a 18bd
00000250: 1259 2f3d a0ea 6a3c 37ff 1cbd a290 1d3d
00000260: cf93 d33c c9e2 613b e425 5c3b d513 b73c
00000270: 47e6 4ebd 2f00 a03c 69e9 d73c 3c6a 8dba
00000280: 61d1 1d3c 4cd7 4f3a 047a 593c afd6 073d
00000290: 2d70 d33c eff8 3abd c056 40bd 98e0 303c
000002a0: 286e 2cbd c9a2 943b 7bbd ac3c 0574 1f3d
000002b0: 0e5a 73bc 2ad8 0bbd 59da febc a324 0f3c
000002c0: 94c9 c33c 2397 f03c d3d9 49bd 70ca 1abc
000002d0: 2e92 193d 01a2 4d3d 16d7 1cbc cb1e 4e3d
000002e0: ca9b b63a 0e5f c0bc 303c 4cbc 9a55 36bd
000002f0: c866 bb3c 92cf 4b3d eb73 f43c cad5 b4bc
00000300: 0da4 af3a 70fd 0abc 3f1f 39bd d39e 76bc
00000310: 2bbb 36bc c3b9 4b3d a455 1dbc 6dc1 e2bc
00000320: 427a 933c 7e4c 16bd 0a60 0c3d 3cb7 bcbb
00000330: 5f94 263d 8fad 123d 0ee3 923c 4912 473d
00000340: 0f30 843c 84f7 cdbb a5c4 163d e84c 6f3c
00000350: fffd c63c ed04 7abc 6287 4bbd 68e4 d4bc
00000360: 879c 3e3d 7f67 003d 179f 1fbd 1c84 8cbc
00000370: 90fa cebb 1a40 1e3d 0e76 c83c 2df6 0cbb
00000380: 7d9a 6abc 1a95 f43b 42cd 94bc 55c0 2dbd
00000390: cc79 d13b 6ead 263d 0144 24bd 69cc 9abc
000003a0: 557c 42bd 6619 41bd b986 dabc c924 10bc
000003b0: 04f9 2f3d bb23 643c 072b 2d3d c080 34bd
000003c0: e614 8339 ed86 023d 300f 30bc 84ce 823c
000003d0: 615f 103d e6d5 033c f678 d3ba 6fae 143d
000003e0: a1e0 07bd 7509 debc 3984 2bbd a41c 9ebc
000003f0: dabd cdbc ac33 033d a223 4abd 88f5 9c3a
0.015193298 0.040577732 -0.010771717 -0.037316605 -0.03729886 0.015851367 -0.004218259 0.025463598
0.0061003896 -0.04223546 0.0050220313 0.023536354 -0.04891672 -0.00044404934 -0.014494894 0.045938004
-0.007412289 -0.019924115 -0.01940162 0.021191802 0.03982695 0.04053179 0.016329598 0.008214188
0.0021213766 -0.0016199994 -0.013909918 0.016274896 0.04289405 -0.038623974 0.034836777 0.01273843
-0.0016943105 0.020315345 0.036401924 0.0028161388 0.04017689 -0.03237776 0.003406821 -0.005039869
-0.031499814 0.013054759 -0.021954788 0.045780227 -0.035517633 -0.014003997 -0.03223491 0.027944017
-0.0066567226 -0.024487846 0.04155175 0.043291893 0.04148136 0.02852628 -0.047555216 -0.016735848
0.048904434 -0.000974669 -0.028119545 0.013612774 0.012468725 -0.03872122 0.02459343 0.039523255
0.022434272 -0.048412923 0.00052758586 0.036431357 -0.008620323 -0.020637032 0.04229643 0.01798738
0.00807682 0.0052058944 -0.02218547 -0.046771888 -0.028554846 0.013759053 -0.007416107 -0.041984234
-0.039290313 -0.0259818 0.00701736 0.020908173 -0.020680776 0.00417063 0.00055285066 0.044651188
0.014883353 0.04101012 0.045298554 0.026332587 -0.033289526 -0.038371306 0.03536103 -0.035338346
0.051138163 0.008825869 0.0014779654 0.04162216 -0.019548213 0.018612137 -0.042558793 0.008912671
-0.016373036 -0.03698415 0.01117198 -0.027676214 -0.005712067 0.0042753643 -0.024492094 0.004917815
-0.04979487 0.021045037 0.034777667 0.004561227 -0.03706491 0.0135754915 0.030144697 0.04589164
0.020508502 0.018893428 0.020455753 -0.04419398 -0.044653002 -0.029602382 -0.008584989 0.050843567
-0.010833462 -0.0053992276 -0.039647765 0.0064463587 0.02693129 -0.037512846 0.016836489 0.017258609
-0.018542487 -0.029540798 -0.049609326 0.019477474 0.026741438 0.0176742 0.01223682 0.03211517
-0.024823148 -0.026137857 0.0026796807 -0.03725688 0.042809553 0.0143381655 -0.03832933 0.03846801
0.025827317 0.003446745 0.003359192 0.022348324 -0.05051258 0.019531338 0.026356416 -0.0010789107
0.009632439 0.0007928505 0.01327372 0.033163723 0.025810326 -0.045647558 -0.04695773 0.010795735
-0.04209724 0.004536007 0.021086445 0.038929004 -0.014853014 -0.034141697 -0.031109976 0.008736762
0.02389983 0.029368943 -0.04928 -0.009447679 0.037492923 0.050203327 -0.009572765 0.050322335
0.0013931927 -0.023482826 -0.012465522 -0.04451523 0.022876158 0.0497585 0.02984043 -0.022074599
0.0013400331 -0.008483276 -0.045195814 -0.015052515 -0.011153023 0.049737703 -0.009602938 -0.027680123
0.018002633 -0.036694042 0.034271277 -0.005759148 0.04066884 0.03581005 0.017930534 0.048601422
0.016136197 -0.0062856097 0.03680863 0.014605738 0.024291037 -0.015259963 -0.049689658 -0.025987819
0.046535995 0.0313487 -0.03897008 -0.017152838 -0.0063164905 0.03863535 0.024470355 -0.0021509037
-0.014319059 0.0074640634 -0.01816428 -0.04241975 0.006392693 0.04069274 -0.040103916 -0.018896298
-0.047481854 -0.047143362 -0.026675569 -0.008797833 0.04296209 0.013924534 0.042277362 -0.044068098
0.00025001838 0.031866957 -0.0107458085 0.015967615 0.03524721 0.008046603 -0.0016134072 0.036299165
-0.033173207 -0.027104119 -0.041874144 -0.019300766 -0.025114942 0.0320317 -0.04935039 0.001197503

tree_conv.6.weights.bias f4 [64]
00000000: 960d c0bb 37b9 e93b 8d1e 233d 4bc1 edbc
00000010: b550 b43c 564c 193d 3457 183d c177 523c
00000020: 95db 2b3d b8ef 3e3d b284 19bd c3e5 1f3d
00000030: ab32 423c adca 453d dac0 2a3c 711b d73c
00000040: eb8d db3c 8b86 05bd 7916 21bd 82f2 863b
00000050: a21a d73c 0a01 ef3c 823b 11bd 5d9c 9c3c
00000060: 933e 99bc 2d74 d23c 7748 bfbc 39f9 8a3c
00000070: 48aa 973b d67f 25bd d1f0 3c3c 6b9a 7cbc
00000080: c736 19bd 8890 80bc 7981 1a3d 7392 02bc
00000090: 15e2 1c3d 0edd 023c 2cdb 41bb 9731 2fbd
000000a0: 115a e43b 853b 723c edb4 49bc bfe4 b13c
000000b0: 5f67 0abd 7f12 cf3c 0765 23bd 3d34 223c
000000c0: 74d5 1dbb 048a 37bc 6033 ea3c 692a d0bc
000000d0: f5d2 2dbd dd36 47bd 5613 6ebc 008f cb3c
000000e0: b16d d73c 4183 c83c 2463 a2bc aa50 afbc
000000f0: 3a4c 2a3d 9e13 57bc 447c 46bc 65a3 c03c
-0.0058609946 0.007132675 0.039824057 -0.029022833 0.02201114 0.037426315 0.03719254 0.012845934
0.041957457 0.046615332 -0.037480064 0.039037477 0.0118529005 0.04828899 0.010421956 0.026258202
0.02680107 -0.032599013 -0.039328072 0.0041182647 0.026257817 0.0291753 -0.03545714 0.019117529
-0.018706596 0.025690163 -0.023349984 0.016964542 0.0046284534 -0.040405117 0.0115320245 -0.0154176755
-0.037405755 -0.015693918 0.03772113 -0.0079694865 0.038301546 0.007987274 -0.00295801 -0.042771902
0.0069687446 0.014784698 -0.0123112025 0.02171552 -0.03378999 0.025277374 -0.03989127 0.00990015
-0.0024083527 -0.011202339 0.02858895 -0.025410848 -0.042437512 -0.048636306 -0.014530977 0.024848461
0.026297422 0.02447665 -0.019822665 -0.021400768 0.0415766 -0.013127236 -0.012114588 0.023515413

tree_conv.9.weight f4 [64]
00000000: 1a0c 803f 8bee 7f3f 22ec 7f3f 8dee 7f3f
00000010: 4df1 7f3f 3700 803f 4500 803f 3f02 803f
00000020: beeb 7f3f 62f6 7f3f 0f0a 803f c906 803f
00000030: 9c0a 803f b2f8 7f3f 1901 803f 18ff 7f3f
00000040: e604 803f aa0b 803f ecee 7f3f 34f0 7f3f
00000050: ff09 803f fc0a 803f 2bed 7f3f b10b 803f
00000060: b509 803f c1f0 7f3f e3f0 7f3f 6ff7 7f3f
00000070: 3605 803f 27fb 7f3f 12ff 7f3f 7ceb 7f3f
00000080: 2009 803f c0f1 7f3f 79ec 7f3f f500 803f
00000090: 0f00 803f 18ee 7f3f acef 7f3f f907 803f
000000a0: b8ea 7f3f 9808 803f 57f1 7f3f aeec 7f3f
000000b0: 1b06 803f fd08 803f a300 803f 4309 803f
000000c0: dcee 7f3f 490a 803f 7a02 803f 96f0 7f3f
000000d0: 65fd 7f3f 88ed 7f3f 7fed 7f3f d3ec 7f3f
000000e0: ba06 803f b10a 803f 3406 803f 9002 803f
000000f0: 4d0c 803f 6df8 7f3f 72f5 7f3f 1b05 803f
1.0003693 0.9997336 0.99969685 0.99973375 0.9997757 1.0000066 1.0000082 1.0000685
0.9996909 0.99985325 1.000307 1.0002071 1.0003238 0.99988854 1.0000335 0.9999862
1.0001495 1.000356 0.9997394 0.99975896 1.000305 1.0003352 0.99971265 1.0003568
1.0002962 0.99976736 0.9997694 0.9998693 1.000159 0.99992603 0.9999858 0.99968696
1.0002785 0.99978256 0.99970204 1.0000292 1.0000018 0.9997268 0.99975085 1.0002433
0.9996753 1.0002623 0.9997763 0.9997052 1.0001863 1.0002743 1.0000194 1.0002826
0.99973845 1.0003139 1.0000756 0.9997648 0.99996024 0.9997182 0.99971765 0.9997074
1.0002053 1.0003263 1.0001893 1.0000782 1.0003754 0.9998844 0.99983895 1.0001558

tree_conv.9.bias f4 [64]
00000000: 50e8 46b9 9291 48b7 9d9b 3e39 302b 9ab9
00000010: bcbd 8fb9 63ee a238 742d 3939 ebb3 92b9
00000020: bce3 a839 cd10 32b9 fb9f 65b9 47d5 a0b9
00000030: 5651 d9b8 0b50 92b9 92fb 7c39 1906 88b9
00000040: d965 6e38 a7cc adb9 11fb 81b9 2cd9 38b6
00000050: 762f 9538 6083 aeb9 b6fa 15b9 a61f 7239
00000060: 87fe b1b7 5998 8239 16b1 8539 fbda ba39
00000070: e074 3a39 6c3e c9b8 7b68 84b9 c5e8 9db9
00000080: c448 a339 d7e6 ae38 7ac1 7ab9 6107 35b9
00000090: ae1d 61b7 8670 80b8 b19c 1d39 72ff f736
000000a0: 1a00 60b9 9f2c 1e39 4ecc 53b9 bff4 6539
000000b0: ed35 9039 7180 3e39 3acb 7638 137e 6638
000000c0: fec7 af39 a32b a6b9 5719 a6b9 c1e8 f2b7
000000d0: 8c6b a9b9 67f4 1f39 05f6 5eb9 5a22 35b9
000000e0: ca5a a238 3610 93b9 9844 62b9 a898 2fb9
000000f0: f62a 4c39 4a9d 7739 f379 a2b8 666c a739
-0.00018969295 -1.1954822e-05 0.00018177782 -0.00029405346 -0.0002741645 7.769165e-05 0.00017659907 -0.0002798134
0.00032213132 -0.00016981662 -0.00021898739 -0.00030676482 -0.00010362516 -0.00027906927 0.0002412631 -0.00025944485
5.6838475e-05 -0.0003314961 -0.00024791856 -2.7544547e-06 7.113714e-05 -0.00033285748 -0.00014303144 0.00023090708
-2.1218568e-05 0.0002490904 0.00025499676 0.00035639838 0.00017781882 -9.596054e-05 -0.00025254846 -0.000301188
0.00031143997 8.339964e-05 -0.00023913934 -0.00017264254 -1.3417955e-05 -6.124475e-05 0.00015031059 7.3909114e-06
-0.00021362343 0.00015084677 -0.00020198638 0.00021930317 0.00027505998 0.0001816766 5.884024e-05 5.495369e-05
0.00033527607 -0.000316945 -0.00031680867 -2.8957033e-05 -0.0003231432 0.00015254469 -0.00021263219 -0.00017274302
7.741673e-05 -0.00028050103 -0.00021578593 -0.0001674617 0.0001947096 0.0002361435 -7.747477e-05 0.00031933485

tree_conv.9.running_mean f4 [64]
00000000: 1752 9a40 e44b f93f fc99 7e40 c7f5 fc3f
00000010: 0f51 5d40 6ddb 693f 323d 6d40 4e86 ab3e
00000020: 474c 0240 2526 0040 66a4 1c3d c942 4040
00000030: 0cef 5140 18e9 9a3f e4e4 e33f 2eba 6040
00000040: b4c1 7740 8699 9b3f 61d4 0440 e773 b93e
00000050: 3fa0 f640 1f79 4640 18df 5340 90db e93f
00000060: 1007 563f ea65 7040 c633 0d40 e731 ad40
00000070: b834 8640 8dc0 aa3f 6cd5 743f a012 7940
00000080: bfd1 0b40 a6bb 7440 e1ba 8c40 1f7f 3240
00000090: 8361 553f c230 a740 9028 9a40 e20a 683e
000000a0: cc08 4e3f 5c85 2a40 f40a 0940 846c f03e
000000b0: abbb 3c40 ae33 2f40 adeb 8740 e087 d43f
000000c0: 4274 a540 cd20 243f d44b e23f 8b82 c93f
000000d0: 3ccc 9640 8c9d 1b40 e20e 1840 b136 1d40
000000e0: 7352 8c3d 0602 7140 b9be 6e3f ee77 ce3e
000000f0: 1825 9b3e 5b40 c93f f32a 853f 7d83 1040
4.8225207 1.9476285 3.9781485 1.9762505 3.4580724 0.9135044 3.70686 0.33500904
2.0359056 2.0023282 0.03824272 3.0040762 3.2802153 1.2102385 1.7804227 3.5113635
3.8711977 1.2156227 2.0754626 0.3622124 7.7070613 3.1011426 3.3104916 1.827013
0.83604527 3.7562203 2.206285 5.4123416 4.1939354 1.3340012 0.95638156 3.8917618
2.184677 3.8239532 4.3978124 2.7890089 0.83351916 5.224702 4.8174515 0.22660401
0.8048217 2.6643896 2.1412935 0.4695779 2.9489543 2.7375293 4.247519 1.6603966
5.1704416 0.6411255 1.7679391 1.5742964 4.712431 2.431491 2.3759084 2.456463
0.068516634 3.7657485 0.9325977 0.40325874 0.30301738 1.5722765 1.0403732 2.2580254

tree_conv.9.running_var f4 [64]
00000000: dbb6 3340 8911 d63e 7e44 803f 0830 623f
00000010: afcd 1a3f a1f8 1c3e 8b7d 123f 4aac 213d
00000020: ac7a 053f f7d1 6d3f dfe6 4a3a 0b25 d83e
00000030: 2b07 0c3f 85d8 5b3f 1943 7e3f 1b1e 0e3f
00000040: 4547 0340 3b3e dd3d 364d 433f 7905 cc3d
00000050: 9de8 853f 6c35 ac3e d667 483f d041 b33e
00000060: 1d01 3d3e 815b 723f 1d0f 2c3f 01e0 dc3f
00000070: 5831 3c3f c7d2 f33e 8613 0c3f eed3 923f
00000080: 3118 463f 44f4 223f b5a8 823f 09dd 2540
00000090: c73d 9c3e e836 623f 1257 f93f 44e6 493d
000000a0: fa27 9e3e f132 2c3f 1cd2 6f3f 4897 f13d
000000b0: 5704 be3e 2001 ea3e 011c 2140 4f09 523f
000000c0: 2783 7d3f c4d9 8a3e 6ead 6d3f 29dd 923f
000000d0: 5e14 a03f a371 1a3f 8aeb 5a3f 3442 a13f
000000e0: 5a33 483a cb32 843f 71b1 493e 1b97 333e
000000f0: aa93 813d 96cd df3e 7161 073e ea41 873e
2.8080356 0.41810253 1.0020902 0.8835454 0.604701 0.1532922 0.57222813 0.03947095
0.5214031 0.92898506 0.0007740091 0.42215762 0.5469844 0.8587726 0.9932113 0.5551469
2.051225 0.10802885 0.7628969 0.09961981 1.0461613 0.33634508 0.7828344 0.35011148
0.18457456 0.94670874 0.6721056 1.725586 0.7351279 0.47621748 0.5471729 1.1470926
0.77380663 0.6365397 1.0207735 2.591616 0.30515882 0.8836503 1.9479697 0.049291864
0.30889875 0.6726523 0.93679976 0.11796433 0.37112686 0.45703983 2.5173342 0.82045454
0.9902825 0.27119267 0.9284276 1.1473743 1.2506216 0.60329646 0.85515654 1.2598329
0.00076370465 1.0328001 0.19696595 0.17538111 0.06326993 0.43711537 0.13220765 0.26417476

tree_conv.10.weight f4 [32, 64]
00000000: 2b20 cf3b f919 f2bd 6e5d e43d 516b 95bc
00000010: 5d1f c9bd bb77 803d 9708 d33d 7d27 af3d
00000020: f5af 953d 91a1 4c3d 4d16 093d 8be9 aebd
00000030: d2a2 5d3d 809b 92bd a623 a63d 58b5 ae3d
00000040: eee2 febd 4fb0 95bd 5761 933d ea92 113d
00000050: 85c4 66bd dc87 debd 5f92 dcbd 8172 4f3c
00000060: 5346 e83d 3c67 d53c 65d0 863d f8d6 86bd
00000070: 6b0d 3ebd 68d0 ad3d ddd8 87bc b1cd 81bc
00000080: 8107 ef3b adf9 fc3d 43a2 18bd d333 e0bd
00000090: 1938 e93c 1c83 943b 8bbb 0b3d 1111 003e
000000a0: e7d6 c7bd b689 643d 4414 1fbd 14fd d6bd
000000b0: d4bd d13c 9539 e4bc 5975 14bb ee76 dd3d
000000c0: 9d93 c53d 7feb bdbc 0bed f4bd 39c3 25bd
000000d0: f2cb b3bd eda1 76bd 9298 e13d c6da b93d
000000e0: 5daf d3bd 7e9b a13d dfb6 4b3d 2923 e13d
000000f0: ee0f dd3d 6bf7 f9bc e9fe 7fbd 9dc4 393d
00000100: dfaa a2bd 6e66 dbbd 736e e33d 845e f3bd
00000110: b22d 2f3d 025a b7bd 04f5 f1bd 5d1d 1b3d
00000120: d9c0 fcbd e869 95bd 3ab3 8a3d fd3a d7bd
00000130: 0119 c3bc d983 1dbc 8a39 f33d cc2e 1b3d
00000140: fa41 e0bd 2079 593c 682a 22bd 017b cbbd
00000150: 9d17 c1bd 81ff fcbd e3a8 5a3b d26a dc3d
00000160: 5b80 9f3d e220 113c 4bba b93b d051 53bd
00000170: 2d5c 163d 0e17 3d3d ee7b 13bc 638a 813d
00000180: 99d4 e33d b9f6 dc3d ed92 3e3b 77ef c0bc
00000190: 8852 783d c404 ebbd 5efc b3bd e462 f2bd
000001a0: 2205 953d fcee ae3d dd17 6ebc 0de2 c33d
000001b0: 3182 95bc 00c6 ee3d 58ce b1ba b83e 923c
000001c0: c5b1 853d f2e9 b63c b2c4 b03d 9fbe 90bd
000001d0: 5fcb debd 42ba c7bd 8640 4abd 1b3d c0bd
000001e0: 6ee6 8fbd 83d2 e5bd 6aae 0b3d 91fa f6bd
000001f0: ee23 753d 2344 89bc 3101 a6bd e604 ae3d
00000200: afcd 94bc 2030 763d f10e b03d 07e6 02bc
00000210: 0d19 29bd f945 ba3b c388 d8b9 9778 87ba
00000220: 8dc5 f2bd 1363 503d 6871 373d f66d f9bc
00000230: a674 9cbd 1671 523d 9e2d acbd 188b fd3d
00000240: 909c b63d 5dde efbd 6c9e c9bd 1675 663d
00000250: f0cb fdbc 4f44 a23d d96f 88bd c66a 23bd
00000260: f5db 593d 00b1 0e3d 19b3 d8bd 97b7 cf3d
00000270: 0dcf 8abc ff31 00be c39a d4bd c1de 9f3c
00000280: a37f 04bb e65e b43d d8dc 8abd 0290 85bd
00000290: 24b2 cbbd 2e27 c23d 1a93 f73d d35e f43d
000002a0: e85a 893d 2480 a63c dbe8 cfbd 6c33 d4bd
000002b0: c6ae b1bd fc15 c33d 2320 94bd c335 edbd
000002c0: ea3e c3bd f8e6 adbd 389f 143c 6c10 a4bb
000002d0: ed73 dc3d a46a 263d 4ba1 433d f665 a5bd
000002e0: 9f84 783d 37bb f6bd 95a0 10bd b4a5 f4bc
000002f0: 14e9 093d 2059 a43d 5a74 adbd 480e bbbc
00000300: 5823 98bd 6e24 d0bd 7e36 9f3c 6730 a2bc
00000310: 86f9 7abc e099 1b3d ee30 423d 3b14 5ebc
00000320: 1c0b 243d 7f19 153c aa75 55bd c97e c43d
00000330: ed59 083d 915a 4ebd 56dd 903c 4c2c a1bd
00000340: 92b8 4f3c e906 f83d 3c76 c23d 35ac a23c
00000350: 735e 14bc c5cc 3bbd ee80 d53d f5ec fc3d
00000360: e6ed afbd 0373 02bd 7686 03bd 0ecd acbd
00000370: 0573 fc3d df0d 5fbd 47cf 2f3c a184 d2bc
00000380: b9f7 67bd 2e4e f9bc 9da8 4cbd 5c4e 8dbb
00000390: 56bd 0d3c 9348 a7bd 6d3a 80bd f0ce c33c
000003a0: 0058 823d 8d5c 463d 26d9 f43d 839b 96bd
000003b0: 0019 8a3d 7b71 323d 571a a0bd 2fdc 47bd
000003c0: 30ae 313d 19a3 d43d 4992 4ebc 3632 c13d
000003d0: 0e83 323c 6284 ee3d 106b 343d d55b 9f3d
000003e0: f14d c53d bbe1 403d 1ab4 833d dca5 e33d
000003f0: ed29 693d cdcd 923d 95e2 c83d 5be9 943d
0.0063209734 -0.1182136 0.11150633 -0.018239649 -0.09820435 0.06272837 0.10304373 0.08552454
0.07308952 0.04995877 0.033468533 -0.085406385 0.054110356 -0.071585655 0.08112268 0.08530682
-0.12445627 -0.07309019 0.071963005 0.0355405 -0.05633976 -0.10865757 -0.107701056 0.012661577
0.11341538 0.026050203 0.06582717 -0.06583971 -0.046399515 0.08487016 -0.0165829 -0.015845152
0.0072945957 0.123523094 -0.03726412 -0.10947385 0.028469132 0.004532231 0.0341144 0.1250651
-0.09757786 0.055795394 -0.038837686 -0.104974896 0.025603212 -0.027859489 -0.0022652952 0.108137
0.096472956 -0.023183582 -0.11959275 -0.040469382 -0.08779134 -0.06021302 0.110154286 0.09074931
-0.10336182 0.07890986 0.049734946 0.109930344 0.10794054 -0.030513486 -0.06249896 0.04535352
-0.07942747 -0.10712896 0.11105051 -0.11883262 0.042768188 -0.089527145 -0.11814311 0.0378698
-0.1234147 -0.07295591 0.06772466 -0.10509298 -0.023815634 -0.009613954 0.11876209 0.037886426
-0.10950084 0.013273507 -0.039591223 -0.099355705 -0.09428332 -0.12353421 0.0033364824 0.10762562
0.07788154 0.0088579375 0.00566796 -0.051591694 0.036709 0.046164565 -0.009001715 0.06325223
0.11124534 0.10789246 0.0029079274 -0.023551686 0.060625583 -0.11475518 -0.087883696 -0.11835268
0.0727637 0.085416764 -0.014532057 0.095646 -0.018250557 0.11658859 -0.0013565524 0.017852172
0.065280475 0.02232835 0.08631267 -0.07067608 -0.10878634 -0.09752323 -0.04937794 -0.09386655
-0.07026373 -0.112217925 0.03410188 -0.120595105 0.05984872 -0.016756123 -0.08105696 0.08497028
-0.018164484 0.06010449 0.085966 -0.007989413 -0.041283656 0.005684611 -0.00041300626 -0.0010335621
-0.11854086 0.050875735 0.044785887 -0.030447941 -0.076394364 0.05137738 -0.08407138 0.12380046
0.08916581 -0.11712334 -0.0984467 0.056264006 -0.030981034 0.07923185 -0.06661958 -0.03989675
0.053188283 0.03483677 -0.10581035 0.10142439 -0.016944433 -0.12519072 -0.10381081 0.019515397
-0.002021768 0.08807163 -0.06780404 -0.06521608 -0.09946087 0.09480129 0.12088604 0.11932149
0.06706792 0.020324774 -0.101518355 -0.103613704 -0.086759135 0.095256776 -0.07232692 -0.1158252
-0.09533484 -0.084913194 0.009071164 -0.0050068405 0.107642986 0.040629044 0.047761243 -0.08076088
0.060673352 -0.12047427 -0.035309393 -0.02986417 0.033669546 0.08024812 -0.08469458 -0.022833958
-0.07428616 -0.101631984 0.019435164 -0.01979847 -0.01531828 0.037988544 0.047409944 -0.013554628
0.040049657 0.009100317 -0.052114166 0.09594495 0.033288885 -0.05037934 0.017683666 -0.07869777
0.012678282 0.12110693 0.09495208 0.019857505 -0.009055722 -0.04584958 0.10424982 0.123498835
-0.085902974 -0.031847965 -0.032110654 -0.084375486 0.12326626 -0.054456588 0.010730571 -0.025698008
-0.05663273 -0.030432787 -0.04996549 -0.0043123197 0.008651098 -0.08168139 -0.06261144 0.023902386
0.06364441 0.048428107 0.1195548 -0.0735388 0.067430496 0.043565255 -0.07817524 -0.048793968
0.04337901 0.10382671 -0.012608119 0.09433405 0.010895504 0.11646344 0.044047415 0.077811874
0.09634007 0.047090273 0.06430836 0.111156195 0.05692475 0.0716816 0.09808842 0.072710715

tree_conv.10.bias f4 [32]
00000000: a11f bc3d 6591 8dbd 7951 7c3d 5cb3 d9bd
00000010: 71ef b8bc ca02 6dbd 7212 db3d d27b 933d
00000020: 7b6a 813d 0ffc b23d d63e 913d e3c3 a13c
00000030: c55c d53d 5f92 743d 18b6 843c f222 b53d
00000040: 937d 35bc 17d8 b8bd 450e 9f3d e998 e8bd
00000050: e23a 003e 6415 b8bd 5114 13bd 0c7f 54bd
00000060: c01c 3a3d 4e14 e53d 688d b93d a729 d8bd
00000070: b52f e33d d099 b33d 5b92 ebbd 5a85 923d
0.0918572 -0.069124974 0.061601136 -0.10629913 -0.022575112 -0.057863988 0.106968775 0.07201351
0.06319138 0.087394826 0.07092063 0.019746726 0.10418085 0.059709903 0.01620011 0.08844556
-0.0110773025 -0.09025591 0.077663936 -0.1135729 0.12522462 -0.08988455 -0.035908047 -0.051878974
0.045437574 0.111855134 0.09060174 -0.105548196 0.11093084 0.08769572 -0.115025245 0.07154341

tree_conv.13.weight f4 [1, 32]
00000000: 1979 c73d 96ce 673d bb17 0ebd 23a9 eb3c
00000010: 8f72 763d 8d36 b63c cc41 19bd adf7 1abe
00000020: 8d52 053e 2895 25be 8f26 203e abf9 5f3d
00000030: ad65 05be 68e2 f73c 9f8c 7fbd e9fa 063e
00000040: 5b35 e2bd ec29 90bd 8c55 043c 603d ab3d
00000050: 23f5 123e 9dbc 20be f090 0dbd 0728 4ebc
00000060: b401 0d3e ffb0 2d3e c358 0e3e daf9 2d3e
00000070: 19ee 1f3e 61c8 48bd 2e04 1cbe 6a09 263d
0.097398944 0.0565935 -0.0346906 0.028767174 0.060167845 0.022242809 -0.037416264 -0.15133543
0.13019772 -0.1617018 0.15639709 0.05468146 -0.13027067 0.030259326 -0.062389966 0.13181652
-0.11045333 -0.07039246 0.008077037 0.08361316 0.14351325 -0.1569695 -0.03456205 -0.012582785
0.13770181 0.1696205 0.13901047 0.16989842 0.15618171 -0.04901922 -0.1523597 0.04053632
