src/Models/pairwise.onnx (onnx, 702290 bytes, 13 tensors)

tree_conv.0.weights.weight f4 [256, 50, 3]
0	0xbd793644	-0.060842767
1	0x3d4eda26	0.05050101
2	0x3d8a7802	0.06761171
3	0xbd9700a2	-0.073731676
4	0xbc0078c5	-0.007841294
5	0x3d508384	0.050906673
6	0xbce16eb8	-0.027518615
7	0xbd713c4b	-0.05889539
8	0x3d4c747c	0.049915776
9	0xbd2e7eaf	-0.042601284
10	0x3a55057b	0.0008126122
11	0xbd98fa9a	-0.074696735
12	0xbd1b3dfe	-0.037900917
13	0x3c5443e4	0.0129556395
14	0x3d7df8d2	0.06200487
15	0xbd227700	-0.03966427
16	0x3cb4b7fc	0.022060387
17	0x3da29310	0.07938206
18	0xbc8398b1	-0.01606402
19	0x3d881daf	0.06646287
20	0x3da4db36	0.08049624
21	0x3d23329b	0.039843183
22	0xbd516901	-0.05112553
23	0xbd9e6a86	-0.077351615
24	0xbc50ac8e	-0.012736453
25	0xbc45ed89	-0.012080559
26	0x3d8d0b90	0.06886971
27	0xbb769799	-0.003762698
28	0xbd81c520	-0.06336427
29	0xbd961e40	-0.073299885
30	0xbda638f7	-0.08116334
31	0xbbb57bc4	-0.0055384357
32	0xbc62671a	-0.013818527
33	0xbd718a2b	-0.058969658
34	0x3d0e324f	0.034715947
35	0xbd7bf6e8	-0.061514765
36	0xbd2f4a78	-0.04279563
37	0x3d8f3285	0.06992058
38	0x3c062d13	0.0081894575
39	0xbd1b1b1b	-0.037867647
40	0x3d6fd5b6	0.05855342
41	0xbd62bdc1	-0.055356745
42	0x3ba6d524	0.0050913263
43	0xbd1c8359	-0.0382112
44	0x3ce85098	0.028358743
45	0xbd1aa4ba	-0.03775475
46	0x3d8139e9	0.063098736
47	0xbc1ed35e	-0.009693949
48	0xbd9b2ab8	-0.07576507
49	0xbd94d4bc	-0.07267138
50	0x3d61368a	0.054983653
51	0xbc625521	-0.013814242
52	0xbd3b34b0	-0.045704544
53	0xbcccef27	-0.02501638
54	0x3d878478	0.06617063
55	0xbb3b3e54	-0.0028571086
56	0xbd588cba	-0.052868582
57	0x3d25dd34	0.04049416
58	0xbd9d80b7	-0.07690566
59	0x3d89df19	0.067320056
60	0xbd90690f	-0.07051288
61	0xbc102ea1	-0.00880018
62	0x3be96bf5	0.007123465
63	0xbbc9ab00	-0.006154418
64	0xbd727d83	-0.05920173
65	0x3d695364	0.056964293
66	0x3d33813f	0.04382443
67	0x3d3eb0d8	0.04655537
68	0xbd1842e8	-0.03717318
69	0xbd70bffe	-0.058776848
70	0x3d748443	0.059696447
71	0xbd9c4658	-0.076306045
72	0xbd3944ec	-0.045231745
73	0x3c1080f9	0.008819812
74	0xbc3e81ab	-0.011627595
75	0x3c978cf0	0.018499821
76	0xbc1081cc	-0.0088200085
77	0x3d7aab85	0.06119873
78	0x3ccef7d0	0.02526465
79	0xbcc1504f	-0.023597864
80	0x3b78cc73	0.0037963658
81	0x3d26b82d	0.040702987
82	0x3d88460a	0.06653984
83	0xbd918e79	-0.07107253
84	0x3bf24f35	0.007394696
85	0xbd50e2cd	-0.050997544
86	0x3d20c2bc	0.039248213
87	0xbce27341	-0.027642848
88	0x3cf451de	0.029824194
89	0x3d6c9a19	0.057764146
90	0x3d0e1bd0	0.034694493
91	0xbcc0b0ee	-0.023521867
92	0x3cf9eafb	0.030507555
93	0xbbdd2a68	-0.00674944
94	0xbd0ac7aa	-0.03388182
95	0x3d0ab102	0.033860214
96	0xbd76c315	-0.06024464
97	0x3d573858	0.052543968
98	0xbc34a40a	-0.011025438
99	0x3d9ec1b6	0.07751791
100	0xb8aba0aa	-8.1838414e-05
101	0x3cf976bb	0.030452123
102	0x3cca352c	0.024683557
103	0x3c30b4b0	0.010785267
104	0x3d821182	0.063509956
105	0xbd51929b	-0.051165204
106	0xbd6676ca	-0.05626563
107	0x3da5c343	0.08093884
108	0x3cdfcb5d	0.02731865
109	0xbca54be5	-0.02017779
110	0xbd199921	-0.03749955
111	0x3d917174	0.071017176
112	0x3d46b8fa	0.04851625
113	0xbcba568d	-0.022746349
114	0xbcbfa758	-0.023395225
115	0xbc8bf94e	-0.017086651
116	0xbd3b801f	-0.045776483
117	0xbd9aad3a	-0.075525716
118	0xbd2a3e68	-0.04156342
119	0xbd5ce1ec	-0.053926393
120	0xbd1375c2	-0.036000974
121	0x3d9c3145	0.07626585
122	0x3b3428be	0.0027490105
123	0xbd090059	-0.033447597
124	0xbd7758b8	-0.060387343
125	0xbd5f0bcb	-0.054454606
126	0xbc82c5c6	-0.015963446
127	0x3c33128e	0.010929717
128	0xbbc35969	-0.0059615863
129	0x3d752f11	0.05985934
130	0x3c3c2103	0.01148248
131	0xbd8ab052	-0.06771912
132	0xbcb4ff4e	-0.022094395
133	0x3d7e091e	0.062020414
134	0x3d1c7d8d	0.038205672
135	0xbda32995	-0.079669155
136	0xbd8c8952	-0.06862129
137	0x3d0e55b3	0.034749698
138	0xbb71f9a3	-0.0036922477
139	0xbd73cc18	-0.05952081
140	0xbc63198a	-0.013861069
141	0x3c97b663	0.018519586
142	0xbd91d36e	-0.07120405
143	0x3b58cedf	0.003308229
144	0xbcbb88a0	-0.022892296
145	0xbd82442d	-0.0636066
146	0x3c2c53b7	0.010518006
147	0x3d0cdab5	0.034388263
148	0x3da1d84e	0.07902585
149	0xbda23ffc	-0.0792236
150	0xbca813a2	-0.020517174
151	0x3b9f9708	0.0048702992
152	0xbcf1cefe	-0.029517647
153	0xbd32bb2f	-0.043635543
154	0xbd871560	-0.06595874
155	0x3d7da899	0.061928365
156	0x3cc24fa7	0.023719622
157	0xbda2cc58	-0.07949132
158	0xbcfea412	-0.031084094
159	0xbc30a503	-0.010781529
160	0xbd8a05ac	-0.06739363
161	0xbd7d8da5	-0.06190266
162	0x3d93668a	0.07197292
163	0x3c780fe2	0.0151405055
164	0xbd010835	-0.031501967
165	0xbcb307e5	-0.02185435
166	0x3d8f68a7	0.07002383
167	0xbd3e3c08	-0.04644397
168	0xbd7210fd	-0.059098233
169	0xbc313354	-0.01081546
170	0x3b617264	0.0034400458
171	0x3d0dcebb	0.03462098
172	0x3d5b3a87	0.053522613
173	0xbbcafc87	-0.0061946544
174	0xbd204c4e	-0.03913527
175	0xbd4a9365	-0.049456973
176	0x3d8aa2ff	0.0676937
177	0xbd97ad2f	-0.07406079
178	0xbcb4160d	-0.02198317
179	0x3d95f339	0.07321782
180	0xbd5f6d89	-0.05454782
181	0xbd9a941f	-0.07547783
182	0x3d97b815	0.07408158
183	0x3d8b2034	0.06793252
184	0xbda2cc05	-0.0794907
185	0xbd8de525	-0.069284715
186	0xbd84568f	-0.06461822
187	0x3d81918f	0.06326591
188	0x3c644585	0.01393259
189	0x3d298283	0.04138423
190	0x3c471933	0.012152004
191	0x3da18683	0.07886984
192	0x3ca383e2	0.019960348
193	0xb9f3671a	-0.00046425388
194	0xbd377653	-0.044790577
195	0xbda27b21	-0.07933641
196	0x3c84c7e0	0.01620859
197	0xbd7d474d	-0.061835576
198	0x3d96738b	0.07346257
199	0xbd2f9b0f	-0.042872485
200	0xbc49c9dd	-0.012316194
201	0x3b74da1e	0.0037361453
202	0x3d59a71b	0.05313788
203	0xbbce4697	-0.006295036
204	0x3d1dc63e	0.038519137
205	0x3cb29c5e	0.021803077
206	0x3d80c885	0.06288246
207	0xbc226ff7	-0.00991439
208	0xbd91ccaf	-0.071191184
209	0xbd3d784c	-0.046257302
210	0xbab63ef1	-0.0013904256
211	0xbab52aa4	-0.0013821912
212	0xbd83578a	-0.06413181
213	0x3d25031e	0.040286176
214	0x3d1b6068	0.037933737
215	0x3c4da299	0.012550973
216	0x3d1e55df	0.03865611
217	0x3c76ea98	0.01507058
218	0x3d65d154	0.056107834
219	0xbc3833c8	-0.011242814
220	0x3ce09bac	0.02741798
221	0xbd3a2497	-0.04544505
222	0xbd87228a	-0.06598385
223	0xbda20458	-0.07910985
224	0xbc797758	-0.015226208
225	0xbd93b608	-0.07212454
226	0xbc64d1c9	-0.013966032
227	0x3d3260c4	0.043549314
228	0x3cc71306	0.024301063
229	0xbd21738f	-0.039416846
230	0x3d706338	0.058688372
231	0x3d742c51	0.059612576
232	0x3d232826	0.03983321
233	0x3cd2ebe1	0.025747241
234	0x3d152ab6	0.036417685
235	0x3d510b79	0.05103633
236	0xbd77dd98	-0.060514063
237	0x3d471c07	0.048610713
238	0xbd732c01	-0.059368137
239	0x3c50b9d3	0.012739616
240	0xbd551dd3	-0.052030396
241	0xbc3eaefc	-0.011638399
242	0xbd9c8ebb	-0.07644411
243	0xbd84b9c6	-0.06480746
244	0x3cd99b7b	0.026563397
245	0xbd9a0959	-0.07521314
246	0xbc0fe36b	-0.008782248
247	0x3d96ef8f	0.07369911
248	0x3d476473	0.04867978
249	0x3d9b47ec	0.075820774
250	0xbc9102eb	-0.017701587
251	0xbd2af413	-0.041736674
252	0xbd513a96	-0.051081263
253	0x3d000585	0.031255264
254	0xbbc8e24e	-0.0061304932
255	0xbd5e8085	-0.054321785

tree_conv.0.weights.bias f4 [256]
0	0x3cef2d10	0.029196292
1	0x3d0b941b	0.03407679
2	0xbd277870	-0.040886343
3	0x3b05205b	0.0020313475
4	0xbc0e65e4	-0.008691285
5	0x3cb133b6	0.021631103
6	0x3d55c61d	0.05219089
7	0xbcefc70c	-0.029269718
8	0xbd893b14	-0.067007214
9	0xbd0039e8	-0.031305224
10	0x3b81e7bd	0.003964393
11	0xbb03427f	-0.0020028648
12	0xbcfaa8a8	-0.030598
13	0x3cd6ffc7	0.026245011
14	0x3cf223ee	0.029558148
15	0x3c0b4c88	0.008502133
16	0x3d0dc358	0.034610122
17	0x3d7e1be7	0.06203833
18	0xbd95486e	-0.072892055
19	0x3d81aa9d	0.0633137
20	0x3d79cabb	0.060984354
21	0xbd8a7c79	-0.067620225
22	0x3d8c84ca	0.06861265
23	0xbd8f1850	-0.06987059
24	0xbd9d5343	-0.076818965
25	0x3d61b89b	0.055107694
26	0xbca52457	-0.02015893
27	0x3b8ac667	0.004235077
28	0x3d50b808	0.050956756
29	0x3c844f6f	0.016151158
30	0xbd244f8e	-0.04011493
31	0xbd548c2f	-0.051891502
32	0x3da3c573	0.07996645
33	0x3d9dc392	0.07703318
34	0xbb9a15ec	-0.0047023203
35	0xbd620725	-0.055182595
36	0x3c83328a	0.01601531
37	0x3d96723d	0.07346008
38	0xbda3bb06	-0.07994656
39	0x3d29e308	0.04147628
40	0x3d0444d9	0.03229222
41	0xbd8046bd	-0.06263492
42	0xbcae87ec	-0.021305047
43	0x3d4e814c	0.050416276
44	0x3d558ae3	0.052134406
45	0x3d9568a9	0.07295353
46	0xbda01b4b	-0.07817706
47	0xbc824825	-0.015903542
48	0xbd3d2626	-0.04617896
49	0xbd8382d5	-0.064214386
50	0xbc0d59f7	-0.008627406
51	0xbc2b8316	-0.010468265
52	0xbd35eda3	-0.04441608
53	0x3c70e01c	0.014701869
54	0xbce057bd	-0.027385587
55	0x3bec6433	0.007214093
56	0x3d634ea7	0.05549493
57	0x3c81630d	0.015794301
58	0xbd96d5b6	-0.07364981
59	0x3d213ea1	0.03936637
60	0x3d3a63c5	0.045505304
61	0xbd1ac9d0	-0.03779012
62	0x3d8f8574	0.07007876
63	0x3d612185	0.054963607
64	0xbd27886a	-0.04090158
65	0x3bf0619f	0.007335856
66	0x3da5b2cd	0.08090744
67	0x3d04abd0	0.032390416
68	0xbced9f06	-0.029006492
69	0xbd13f705	-0.036124248
70	0x3c01bb98	0.007918261
71	0xbd60c38d	-0.05487399
72	0xbd053c0a	-0.03252796
73	0xbd35d161	-0.044389132
74	0x3d0e76e4	0.03478135
75	0xbd88b23f	-0.06674623
76	0x3cda22a8	0.026627854
77	0x3d4c57db	0.049888473
78	0x3d9fdaeb	0.07805427
79	0x3c8e1bfe	0.017347332
80	0xbd565da8	-0.05233541
81	0x3d002e9a	0.031294443
82	0xbd90c1fc	-0.070682496
83	0xbc10b62c	-0.008832496
84	0xbd5c80ca	-0.05383376
85	0xbc8ec6dc	-0.017428808
86	0x3d69dfd9	0.057098243
87	0xbd454465	-0.04816093
88	0x3d9fdedb	0.07806178
89	0x3d94b2f8	0.07260698
90	0x3d8173ce	0.06320916
91	0xbd6415eb	-0.055684965
92	0xbd078adc	-0.03309141
93	0xbd8f8645	-0.07008032
94	0x3d97de0c	0.07415399
95	0xbd133e4f	-0.035948094
96	0x3d1c8a3c	0.038217768
97	0x3da560a5	0.08075074
98	0x3bf5494a	0.0074855434
99	0xbc0b7c7e	-0.008513568
100	0xbcf23178	-0.029564604
101	0xbb5afd05	-0.0033414972
102	0xbbbd13fd	-0.005770205
103	0x3d8c6a76	0.06856243
104	0xbc6f1762	-0.014592977
105	0xbd311d5c	-0.04324089
106	0xbd8fbf19	-0.07018871
107	0xbb9cb7f8	-0.004782673
108	0x3d5d53f1	0.05403513
109	0x3d54870e	0.05188661
110	0xbda36aa7	-0.07979327
111	0x3d675825	0.056480546
112	0x3d466001	0.0484314
113	0xbd123821	-0.03569806
114	0x3d872e6e	0.06600653
115	0xbd917484	-0.07102302
116	0x3d93c336	0.07214968
117	0x3cad2d0f	0.02113965
118	0xbbd45216	-0.006479512
119	0x3ce7a504	0.028276928
120	0xbd56646d	-0.052341867
121	0xbd6e54fa	-0.05818651
122	0xbb678cc7	-0.0035331713
123	0xbcdb3c13	-0.026762044
124	0xbd96b794	-0.073592335
125	0xbd287cda	-0.041134693
126	0xbd9e4888	-0.07728678
127	0xbd6b4b57	-0.057444897
128	0x3b89c617	0.0042045224
129	0x3d8f24bd	0.06989429
130	0x3b0b88e7	0.0021291317
131	0xbd88e448	-0.06684166
132	0xbcb01226	-0.021493029
133	0xbd2af355	-0.041735966
134	0x3d12b6f3	0.035819005
135	0xbd7f771a	-0.062369443
136	0x3c89c870	0.016819209
137	0xbd47f2de	-0.0488156
138	0x3d5947fc	0.053047165
139	0xbc59ffb0	-0.01330559
140	0xbd3bf4f8	-0.045887917
141	0x3b5bedb9	0.0033558442
142	0x3d79c927	0.06098285
143	0x3d292a06	0.041299842
144	0xbd8d0389	-0.0688544
145	0x3d242da2	0.04008258
146	0xbd850085	-0.0649424
147	0xbc571061	-0.013126464
148	0xbc443e0d	-0.011977685
149	0xbda0fc65	-0.078606404
150	0x3d0a2ccc	0.033734128
151	0x3ccbd768	0.024882987
152	0xbd4d9c22	-0.050197728
153	0xbd14e172	-0.036347814
154	0xbd91c10c	-0.07116899
155	0xbd9e6efc	-0.07736012
156	0x3d5dae3e	0.05412125
157	0xbcbdefe1	-0.023185672
158	0x3abef8bc	0.0014569978
159	0xbda33268	-0.079685986
160	0x3d8c81e8	0.06860715
161	0xbd42735c	-0.047473297
162	0x3d100d84	0.03516914
163	0x3d60e667	0.05490723
164	0x3d9f15e0	0.07767844
165	0xbd903d8b	-0.070429884
166	0x3d256c8a	0.040386714
167	0xbc27d3cd	-0.010243368
168	0x3cb755c1	0.022379758
169	0x3c7d46fb	0.015458818
170	0xbd9af75a	-0.0756671
171	0xbcc587f9	-0.024112688
172	0x3d86a6a6	0.065747544
173	0x3c967e38	0.018370733
174	0xbd5df5fa	-0.05418966
175	0xbd765403	-0.060138714
176	0xbd5f13ff	-0.05446243
177	0xbcb99935	-0.022656063
178	0x3d6a466a	0.05719606
179	0x3cce5048	0.025184765
180	0x39a4e31b	0.00031449724
181	0xbb84c8b0	-0.004052244
182	0x3ccc1639	0.02491294
183	0xbc4a31f1	-0.0123410085
184	0x3d97ac36	0.074058935
185	0x3d90e16b	0.07074245
186	0x3c3bc6e6	0.011460995
187	0xbd0cca29	-0.034372482
188	0xbd943245	-0.07236151
189	0xbd3d6caa	-0.04624621
190	0xbd49b382	-0.049243458
191	0x3da2544d	0.07926235
192	0x3d9d9f5a	0.076964095
193	0x3d42332e	0.04741209
194	0x3d84e514	0.06489006
195	0x3c9886c9	0.018618958
196	0xbd74409c	-0.05963193
197	0x3d85b867	0.065293126
198	0xbd960877	-0.07325833
199	0xbce16be4	-0.027517267
200	0x3ce8af23	0.028403824
201	0xbd892683	-0.06696799
202	0x3d9847a8	0.07435542
203	0xbd362925	-0.044472832
204	0xbd0805fb	-0.03320883
205	0x3d87c207	0.06628805
206	0xbc2f1c87	-0.010687954
207	0xbcbbde20	-0.022933066
208	0xbd99f941	-0.075182445
209	0x3a06c5f4	0.00051411917
210	0xbbb1a542	-0.0054213116
211	0xbd49329b	-0.049120527
212	0xbd3af426	-0.045642994
213	0xbc645fa6	-0.01393882
214	0x3d5fbec0	0.054625273
215	0x3d0aa168	0.033845335
216	0x3c986fd1	0.018608006
217	0xbcb764f3	-0.022387004
218	0xbd26bcae	-0.040707283
219	0xbd8a677c	-0.06758019
220	0x3d983ceb	0.07433494
221	0x3d3c175f	0.045920726
222	0xbd50a7b4	-0.050941184
223	0x3c3b3b52	0.011427717
224	0x3d7256a2	0.05916465
225	0x3d27eed0	0.040999234
226	0xbcf3c08c	-0.0297549
227	0xbc135e7d	-0.008994696
228	0xbb767a04	-0.0037609348
229	0x3ce03e3d	0.027373428
230	0x3cec3d80	0.02883792
231	0xbd17a2cb	-0.037020486
232	0x3d1556f3	0.036459874
233	0xbd8df790	-0.069319844
234	0x3d93f7cd	0.072249986
235	0x3cdbe6f3	0.026843524
236	0xbd849e7b	-0.0647554
237	0xbd2b7768	-0.04186192
238	0xbd870008	-0.06591803
239	0xbcdc77db	-0.02691262
240	0xbce9f22b	-0.028557857
241	0xbc5f9407	-0.013646132
242	0xbd59dca8	-0.05318895
243	0xbd0fb994	-0.03508909
244	0xbd192f86	-0.037398838
245	0x3d208043	0.03918482
246	0xbc6ec1ea	-0.0145726
247	0xbd1ac5ec	-0.03778641
248	0x3d987598	0.07444304
249	0xbcecee0c	-0.028922103
250	0xbd2ffeba	-0.042967536
251	0xbd7373fe	-0.05943679
252	0x3d1473a3	0.036243092
253	0x3d9f0a36	0.077656195
254	0xbc68bf80	-0.014205813
255	0x3cf301a8	0.029663876

tree_conv.3.weights.weight f4 [128, 256, 3]
0	0xbcfd1d3e	-0.030897733
1	0x3d07e747	0.033179548
2	0xbc07267b	-0.008248921
3	0xbc77f39c	-0.015133765
4	0xbcbb0129	-0.022827702
5	0xbcad5381	-0.021157982
6	0x3c42f960	0.011900276
7	0x3cc3565d	0.023844892
8	0xbc9f066a	-0.019412238
9	0x3c9b5c76	0.018964987
10	0x3cfa116a	0.030525882
11	0xbc3b9082	-0.011448028
12	0x3c02acf7	0.007975808
13	0xbc01d9b8	-0.007925443
14	0xbd0d5a38	-0.034509867
15	0x3c1ec207	0.009689814
16	0xbcc2a060	-0.023758113
17	0xbc51dcea	-0.012809018
18	0xbadfec38	-0.0017083948
19	0x3bf14c69	0.007363845
20	0x3cb47d35	0.02203236
21	0x3be3762b	0.006941577
22	0x3d0f50ce	0.03498917
23	0x3c01bf61	0.007919163
24	0xbcfd6cd3	-0.03093568
25	0x3cae34a4	0.021265335
26	0x3ccbdeeb	0.024886569
27	0x3cca3e10	0.024687797
28	0x3a4eff33	0.0007896304
29	0x3c85244d	0.016252661
30	0x3b4d2777	0.003130404
31	0x3cd2d21a	0.02573495
32	0x3c2c6c7a	0.01052391
33	0xbcd76046	-0.026291024
34	0xbcbf16e2	-0.023326341
35	0xbb0bc5f3	-0.0021327704
36	0xbc8733c5	-0.016504178
37	0x3bfc52cb	0.0077002994
38	0xbcce5ebd	-0.02519166
39	0xbc8a1d34	-0.016859628
40	0x3cc5995b	0.024120977
41	0xbcd8ab90	-0.026448995
42	0xba435856	-0.0007451823
43	0x3d10337b	0.035205346
44	0xbcc9cd3c	-0.024633996
45	0x3cd1adae	0.025595512
46	0xbc2342f3	-0.009964692
47	0x3c40f082	0.0117760915
48	0xbca6eac9	-0.020375626
49	0xbbc4874b	-0.0059975735
50	0x3ad8d271	0.0016542209
51	0x3cd547b8	0.026035175
52	0x3ac76d6b	0.0015215104
53	0x3ba70d07	0.0050979885
54	0x3c0ba68b	0.008523594
55	0xbcb0eb6b	-0.021596631
56	0x3b2d7c9f	0.0026471985
57	0xbc965665	-0.018351743
58	0xbbb64e36	-0.0055635227
59	0x3c10da33	0.008841085
60	0xba8880f5	-0.0010414409
61	0x3aced5b8	0.0015780246
62	0xbcd8a196	-0.026444238
63	0xbc91b564	-0.01778669
64	0xbc53469c	-0.012895253
65	0xbca27915	-0.019833127
66	0xbb86c752	-0.0041131163
67	0xbd00a1b7	-0.031404223
68	0x3cff69d6	0.031178396
69	0xbbcb8b1e	-0.0062116524
70	0x3cf70bb5	0.03015695
71	0xbb9c5dc1	-0.0047719185
72	0xbbc3d250	-0.005975999
73	0x3c080f71	0.008304463
74	0xbbe9a759	-0.007130545
75	0xbc85587e	-0.016277548
76	0x3d07e2e7	0.033175375
77	0x3adc78ab	0.001682063
78	0xbbc14842	-0.0058985064
79	0x3c33f1a0	0.010982901
80	0x3c91c256	0.017792862
81	0x3cd37f9b	0.025817683
82	0xbceca5ab	-0.02888759
83	0xbaef9850	-0.0018279646
84	0xbcb428f9	-0.021992194
85	0xbca2ab7a	-0.019857157
86	0xb8d199a1	-9.994512e-05
87	0xbcde8973	-0.02716515
88	0x3d0d37cf	0.03447705
89	0xbcb24c9a	-0.021765042
90	0x3be37cb2	0.006942355
91	0xbcfc47cf	-0.03079596
92	0xbbc78ab9	-0.006089535
93	0x3abf333e	0.0014587415
94	0x3c1d3bfc	0.009596821
95	0x3c22ccd6	0.009936532
96	0xbc317fe3	-0.010833713
97	0x3cd5ea4c	0.026112698
98	0x3d0f89d1	0.03504354
99	0x3c640775	0.0139177935
100	0xbd0b1cde	-0.033963077
101	0xbce50e39	-0.027960883
102	0xbcb6325c	-0.02224081
103	0x3cde1114	0.027107753
104	0x3c681bac	0.014166754
105	0xbcf5e7c1	-0.030017735
106	0x3c014648	0.0078902915
107	0x3c705c4b	0.014670442
108	0x3bafe35d	0.00536768
109	0x3cb56425	0.02214248
110	0x3cd1eee6	0.025626611
111	0xbcd6d933	-0.026226616
112	0x3c2296ce	0.00992365
113	0xbbb86671	-0.0056274463
114	0x3d0791f7	0.033098187
115	0x3c3464e5	0.011010383
116	0x3c9b8c07	0.018987669
117	0x3ac39257	0.0014920932
118	0x3bb9d8a9	0.00567158
119	0x3ca8604b	0.020553729
120	0x3c8e94a9	0.017404871
121	0xbc893190	-0.016747266
122	0x3b907afb	0.0044091917
123	0x3cc5e535	0.024157146
124	0x3c76fcd4	0.015074927
125	0xbb993a3a	-0.0046761306
126	0xbc1032fa	-0.008801216
127	0x3c35d56d	0.011098248
128	0xba654652	-0.0008746135
129	0xbc13e3b7	-0.009026459
130	0xbd07a617	-0.03311738
131	0xbc936a9e	-0.017995175
132	0x3cc59ba5	0.024122069
133	0x3c5977e7	0.013273216
134	0x3cb9a5e8	0.022662118
135	0xbc925b97	-0.017865939
136	0xbc1e6b9d	-0.009669212
137	0xbcd175fa	-0.02556895
138	0xbc51cca1	-0.012805135
139	0xbce322ed	-0.027726615
140	0xbb7ae4fa	-0.0038283453
141	0x3c23a539	0.009988123
142	0xbd00939b	-0.031390768
143	0x3be9f493	0.007139751
144	0x3a112112	0.0005536239
145	0xbd0f5756	-0.0349954
146	0x3ca5f7c9	0.020259755
147	0x3ca553e1	0.020181598
148	0x3c1f63e1	0.009728403
149	0xbc6fff3f	-0.014648258
150	0x3d0490d5	0.032364685
151	0x3c1b63c6	0.009484237
152	0x3c315ffc	0.010826107
153	0x3c0b1d92	0.008490937
154	0xbb00a146	-0.0019627376
155	0x3cec0fd9	0.02881615
156	0xbbad3756	-0.0052861376
157	0xbc94a4c5	-0.018144974
158	0x3cdac6b8	0.026706085
159	0xbca3b699	-0.01998453
160	0x3cdab68f	0.026698379
161	0x3cccb778	0.024989828
162	0x3d02c1db	0.031923156
163	0x3cd92610	0.026507407
164	0xbd10fe59	-0.035398815
165	0xbb9d2b95	-0.004796455
166	0x3c98f5eb	0.01867195
167	0x3c8c1bcf	0.017103104
168	0x3cc017c3	0.02344883
169	0x3d140e23	0.036146294
170	0x3c428224	0.011871848
171	0xbd0c7b8e	-0.03429752
172	0x3b25e178	0.0025311392
173	0x3c86362f	0.016383259
174	0xbccce946	-0.025013577
175	0x3c80f5c7	0.015742196
176	0xbd0174dd	-0.03160559
177	0xbd024d74	-0.031812146
178	0x3cc046b6	0.023471218
179	0xbc33316b	-0.010937075
180	0x3ba56dbe	0.0050484827
181	0xbaa2d0c6	-0.0012421838
182	0x3bdd99fa	0.00676274
183	0x3c8db743	0.0172993
184	0xbc498015	-0.012298604
185	0x3c7142e1	0.014725418
186	0xbcb5ec17	-0.022207303
187	0xbccf57a1	-0.02531034
188	0x3cb878f5	0.022518614
189	0xbc6ddb26	-0.014517581
190	0x3c52f489	0.012875685
191	0x3c8a8588	0.016909376
192	0xbcad7633	-0.021174526
193	0x3c1bf877	0.009519688
194	0xbcb29c27	-0.021802975
195	0x3c060404	0.008179668
196	0x3ca09243	0.019600993
197	0x3b3dc2b3	0.002895516
198	0x3bf07b6c	0.007338932
199	0x3cc8a187	0.024491085
200	0xbcc768b2	-0.024341915
201	0xbcd4a8e5	-0.025959441
202	0xbc6b7fce	-0.014373733
203	0xbcc2095a	-0.0236861
204	0xbc11ff41	-0.008910955
205	0x3ce758f0	0.02824065
206	0x3c8b4afe	0.017003532
207	0xbc07e52a	-0.008294383
208	0x3ca98399	0.020692633
209	0x3cbd6805	0.02312089
210	0xbc643595	-0.013928791
211	0x3cccc9b7	0.024998529
212	0x3ba1bbe1	0.004935727
213	0xbc53cd43	-0.012927356
214	0x3be3c62f	0.0069511156
215	0x3bbf2aea	0.005833973
216	0xbcfbe36f	-0.030748097
217	0xbcc71a55	-0.024304548
218	0xbbfe89e2	-0.0077679018
219	0x3c9ad7f4	0.018901803
220	0xbc36b0a1	-0.01115051
221	0x3cb4daa9	0.022076922
222	0xbd0a1acd	-0.033716965
223	0xbca9ba73	-0.020718789
224	0x3b885071	0.00415998
225	0xbc8ce878	-0.017200693
226	0x3ce53b1d	0.027982289
227	0xbcdd779e	-0.027034577
228	0x3cf65f42	0.03007472
229	0xbcce7d4d	-0.025206232
230	0x3c9eda16	0.0193911
231	0x3d01bf79	0.031676743
232	0x3ce9825f	0.028504549
233	0xbc8d6f1b	-0.017264893
234	0x3d051cac	0.032498047
235	0xbcf07a32	-0.029355142
236	0xbaff0565	-0.0019456564
237	0xbc10931e	-0.008824138
238	0xbce40247	-0.027833117
239	0x3cf8917e	0.030342814
240	0x3d0e06cd	0.034674454
241	0x3cdf1b62	0.027234737
242	0xbaa434d3	-0.001252795
243	0x3cc99d23	0.024611061
244	0x3c08675e	0.008325426
245	0x3cfbce07	0.03073789
246	0x3c8042a2	0.015656773
247	0x3c7ebda7	0.015548146
248	0x3c49b562	0.012311311
249	0x3cc34c27	0.023840023
250	0xbc53fb91	-0.012938396
251	0xbc80948d	-0.015695835
252	0x39133b1b	0.00014041031
253	0x3cd250e8	0.025673345
254	0xbcc69750	-0.024242073
255	0x3cd6c6cc	0.02621784

tree_conv.3.weights.bias f4 [128]
0	0xbcefd65d	-0.029277021
1	0xbccf1145	-0.02527679
2	0x3cfed7fd	0.03110885
3	0x3c4e0761	0.012575001
4	0xbcbb548d	-0.022867465
5	0xbca0b1fd	-0.019616121
6	0x3c089a31	0.008337543
7	0x3cb40c9c	0.021978669
8	0x3c565b85	0.013083343
9	0xbd03c3e0	-0.032169223
10	0xbcfe0a1b	-0.031010678
11	0xbad932c5	-0.0016570917
12	0xbcf9b0cd	-0.030479813
13	0x3cfb5d8e	0.030684259
14	0x3c7ce98b	0.01543654
15	0x3cefc9bf	0.029271005
16	0xbccabacf	-0.02474728
17	0xbbd95d36	-0.006633426
18	0xbc0df305	-0.008663897
19	0x3b2d9e6e	0.0026492137
20	0xbc93bfb4	-0.018035747
21	0xbcc23846	-0.023708474
22	0xbc950b02	-0.018193725
23	0xbcf0ef75	-0.029411057
24	0x3d04ba51	0.032404248
25	0xbc15fc3f	-0.009154378
26	0x3c30b5cf	0.010785534
27	0x3cafd07a	0.021461714
28	0xbd096dc4	-0.033551946
29	0x3cad75de	0.021174368
30	0xbbca3af4	-0.0061715785
31	0x3ceb0891	0.028690608
32	0xbbe4afca	-0.0069789635
33	0x3d02cd24	0.03193392
34	0x3ce69c24	0.028150626
35	0x3bf0a58f	0.007343955
36	0x3b8dd6db	0.0043285913
37	0xbc1c4e51	-0.009540156
38	0x3ca323eb	0.019914588
39	0x3ca3f3a5	0.02001364
40	0x3b85fbd4	0.004088858
41	0x3ca2d89d	0.01987868
42	0x3d11e4a9	0.035618458
43	0x3ce0b91c	0.027432017
44	0xbb874d97	-0.0041291225
45	0xbce514fd	-0.02796411
46	0xbcd91b1e	-0.026502188
47	0xbc88c8d1	-0.01669732
48	0xbcdb2e5c	-0.026755504
49	0xbcc9f622	-0.024653498
50	0x3c96b653	0.018397486
51	0x3d093896	0.03350123
52	0x3af3c22c	0.0018597296
53	0x3d041133	0.032242965
54	0xbcd00df9	-0.025397288
55	0xbafa60f2	-0.0019102378
56	0x3d06d6ee	0.032919817
57	0xbce6db8b	-0.028180858
58	0xbbe8b7ad	-0.007101974
59	0x3c655aa8	0.013998665
60	0xbd031924	-0.032006398
61	0x3c1c8e74	0.009555448
62	0x383b2e93	4.462765e-05
63	0x3c695ca7	0.014243281
64	0xbc998554	-0.018740334
65	0x3d0a6f36	0.033797465
66	0x3cb7bc4f	0.02242866
67	0x3ca200b8	0.019775733
68	0xbd1354ee	-0.035969667
69	0xba14c983	-0.00056757795
70	0xbba79d67	-0.0051151994
71	0x3c94fdac	0.018187366
72	0x3bb7daae	0.0056107854
73	0xbc3d8e94	-0.011569638
74	0x3c38aba2	0.011271389
75	0xbcfbeab2	-0.03075156
76	0xbc9cf39f	-0.019159136
77	0x3d127178	0.035752743
78	0xbcd6553a	-0.026163686
79	0xbc952dc6	-0.018210303
80	0xbc89729a	-0.01677828
81	0xbb96a888	-0.004597727
82	0xbc5bfee8	-0.013427474
83	0xbcc0ffdc	-0.023559503
84	0x3b8bc493	0.004265377
85	0x3c8c2757	0.017108602
86	0x3aa9bf1d	0.0012950633
87	0xbc44e3dc	-0.0120172165
88	0xbcc9e22c	-0.02464398
89	0xbca4c25f	-0.020112215
90	0x3d0273ad	0.0318486
91	0xbc892d7f	-0.016745327
92	0xbc9a3302	-0.01882315
93	0x3d11a6db	0.035559516
94	0x3bb96a31	0.005658411
95	0xbd03d3b0	-0.032184303
96	0xbcbf2433	-0.02333269
97	0xbd133878	-0.035942525
98	0xbca14367	-0.01968546
99	0x3ccf95c5	0.02533997
100	0xbc1d2e72	-0.009593593
101	0xbd003920	-0.03130448
102	0x3ca94905	0.020664701
103	0xbd09a504	-0.033604637
104	0x3ced6353	0.028978026
105	0x3ca1d97a	0.019757021
106	0xbce6c16b	-0.0281684
107	0xbc51ab5c	-0.012797203
108	0xbc708e75	-0.014682402
109	0x3c44b8b4	0.012006927
110	0x3cd2b7d9	0.025722431
111	0x3c9ade9c	0.018904977
112	0x3d0c951c	0.03432189
113	0x3c4d1e29	0.012519398
114	0xbcaaeccd	-0.020864869
115	0x3b7c3e7c	0.0038489392
116	0x3a85a0ca	0.0010195014
117	0x3ad97737	0.0016591315
118	0xb8dee2b8	-0.000106280146
119	0xbcdcd90e	-0.026958968
120	0xbc55ae9f	-0.013042121
121	0xbc8c2aa3	-0.017110175
122	0xbca02655	-0.019549528
123	0x3d052cad	0.03251331
124	0x3c9a0df9	0.01880549
125	0xbd08f05b	-0.033432346
126	0x3b88cf72	0.00417512
127	0x3bc3bde4	0.0059735645

tree_conv.6.weights.weight f4 [64, 128, 3]
0	0xbd2d5df1	-0.042325918
1	0xbc7ce8db	-0.015436376
2	0x3d278210	0.04089552
3	0x3d4ed5e5	0.050496954
4	0x3cf12995	0.029438773
5	0xbd4b6692	-0.049658366
6	0x3d00ecd5	0.03147586
7	0xbc68d913	-0.014211911
8	0x3ccae076	0.024765234
9	0x3c10e20f	0.008842959
10	0x3c30483d	0.01075941
11	0xbd2d340a	-0.042285956
12	0x3cf1899f	0.029484568
13	0xbd357466	-0.04430046
14	0x3d225cd2	0.0396393
15	0x3ca01b34	0.019544221
16	0xbd4065ab	-0.046971958
17	0x3af260da	0.0018491999
18	0xbd3a981e	-0.045555227
19	0x3c1b9ce9	0.0094978595
20	0xbba6b5ff	-0.0050876136
21	0xbc4a77e0	-0.012357682
22	0xbca8cf26	-0.020606589
23	0xbcdde739	-0.027087795
24	0xbba4629a	-0.005016637
25	0xbc085305	-0.008320575
26	0x3c947b5e	0.018125232
27	0xbcdddd00	-0.02708292
28	0x3cf99e59	0.030471014
29	0xbc434df8	-0.011920445
30	0xbd03a73b	-0.032141905
31	0xbcdcc844	-0.026950963
32	0x3cd32b10	0.02577737
33	0xbbf96024	-0.007610338
34	0xbd493edc	-0.049132213
35	0xbc4cb772	-0.012494909
36	0x3c5d007e	0.013488887
37	0xbbec6344	-0.007213982
38	0xbd1edff8	-0.038787812
39	0x3c6ff526	0.01464585
40	0x3b192b2b	0.0023371677
41	0xbbaf7940	-0.0053550303
42	0xbc33daf8	-0.010977499
43	0xbb20cf40	-0.0024537593
44	0x3d03d539	0.032185767
45	0xbd142934	-0.036172107
46	0x3d443869	0.04790536
47	0xbc44bb27	-0.012007511
48	0xbc98305c	-0.018577747
49	0x3d06f5a2	0.032949097
50	0x3cf17db3	0.029478883
51	0xbcece367	-0.028917028
52	0xbd2e234c	-0.04251413
53	0xbc1d9725	-0.009618555
54	0xbccccd8f	-0.025000362
55	0x3d27dcf4	0.0409822
56	0x3cf26dd9	0.029593395
57	0x3d1016b3	0.035177898
58	0xbcc34c2a	-0.023840029
59	0xbd479764	-0.04872836
60	0x3d3fa902	0.046792038
61	0x3c2238de	0.0099012535
62	0x3d3b16be	0.045675986
63	0xbc1de453	-0.009636956
64	0x3d412653	0.04715569
65	0x3cf06abe	0.029347774
66	0x3beaf909	0.0071708006
67	0x3c41ddc8	0.011832662
68	0x3c85b055	0.016319433
69	0x3cafec7f	0.021475075
70	0x3cafeac7	0.021474255
71	0x3ca360f4	0.019943692
72	0xbb43e404	-0.0029890547
73	0x3d271410	0.040790617
74	0xbd2eb822	-0.04265607
75	0x3d24d426	0.040241383
76	0xbb23d830	-0.0025000684
77	0x3c8ef30b	0.017449876
78	0x3d4c4dd5	0.049878914
79	0x3ce9a39e	0.028520402
80	0x3c2d9d22	0.010596545
81	0x3d243027	0.040084984
82	0x3ab4b68d	0.0013787315
83	0x3c062c19	0.008189225
84	0x3c19a061	0.009376616
85	0xbc7832d5	-0.015148838
86	0x3ce5fb48	0.028073922
87	0x3d257885	0.04039814
88	0xbd1b193f	-0.037865873
89	0x3c3b1520	0.011418611
90	0x3c7cc57e	0.015427945
91	0xbceb5337	-0.028726203
92	0x3d2b512d	0.041825462
93	0x3c2ea971	0.010660515
94	0x3d3285a1	0.04358447
95	0x3d13c87d	0.036079872
96	0xbcec73c3	-0.028863793
97	0xbd2f965d	-0.042868007
98	0xb9e892ea	-0.00044359948
99	0x3b3833ce	0.002810705
100	0x3cff6391	0.031175407
101	0xbc861a50	-0.016369969
102	0x3d02cc97	0.031933393
103	0x3c45c6c2	0.012071313
104	0x3d3ae4ca	0.045628347
105	0xbb9c80bd	-0.004776089
106	0x3d021eb7	0.031767573
107	0xbd41c31d	-0.047305215
108	0xbc7be997	-0.015375516
109	0xbd136653	-0.035986256
110	0xbd0bd1ac	-0.034135506
111	0x3d4a459d	0.049382795
112	0xbd34c97e	-0.04413747
113	0xbd20e43d	-0.039280165
114	0x3d0140f1	0.031556074
115	0x3c9c68b6	0.019092899
116	0xb897e10d	-7.24216e-05
117	0x3d45352f	0.048146423
118	0x3caed768	0.021342948
119	0xbced7368	-0.028985694
120	0x3b7b4bef	0.003834482
121	0x3cff020e	0.03112891
122	0xbcc2d9f4	-0.023785569
123	0x3d29feee	0.041502886
124	0xbd2d6cd5	-0.04234012
125	0xbccb9c3f	-0.024854777
126	0x3d492293	0.04910524
127	0xbca31bc0	-0.019910693
128	0xbc78281a	-0.01514628
129	0xbd28a224	-0.041170254
130	0x3cd61d51	0.026137026
131	0xbd066b0f	-0.032816943
132	0x3d4b3b67	0.049617197
133	0xbd09498a	-0.033517398
134	0xbc1c5e70	-0.009544
135	0x3c5730cf	0.0131341955
136	0x3cd0bc10	0.0254803
137	0x3d0fa646	0.03507068
138	0xbad26864	-0.0016052839
139	0x3cfbcc19	0.03073697
140	0xbcb25f68	-0.021774009
141	0x3c7a53c0	0.015278757
142	0xbb51aed5	-0.0031995077
143	0x3d1ed24f	0.038774785
144	0x3c1bcab7	0.00950878
145	0xbc275860	-0.010213941
146	0x3c8b7a2f	0.017026035
147	0x3c338d80	0.010959029
148	0x3d2d4250	0.04229957
149	0xbcd2e1db	-0.025742462
150	0x3b0e6ac1	0.002173111
151	0xbb79c1b3	-0.0038109838
152	0x3d0b29fd	0.03397559
153	0x3c702d8b	0.014659296
154	0xbd1ef4f7	-0.038807835
155	0xbc0dc206	-0.008652216
156	0x3d10f12a	0.035386242
157	0xbd3c7b74	-0.04601617
158	0xbc78d4e6	-0.015187478
159	0xbd327ac0	-0.043574095
160	0x3d264ac9	0.040598664
161	0xbcb6e3bd	-0.022325391
162	0x3c8126be	0.015765544
163	0x3ca6e2c7	0.020371808
164	0xbc66e29c	-0.014092114
165	0xbd259595	-0.040425856
166	0x3b3a972f	0.002847146
167	0x3b605fb8	0.003423674
168	0x3b17253f	0.0023062972
169	0x3ce5445f	0.027986703
170	0x3d308886	0.04309895
171	0xbd068428	-0.032840878
172	0x3cc5f08a	0.02416255
173	0x3d2cdff2	0.04220576
174	0xbcdc0a3d	-0.02686035
175	0x3b48f9a4	0.0030666376
176	0x3cf3c4d7	0.029756946
177	0x3d1c3bf0	0.0381431
178	0xbc665bf8	-0.014060013
179	0xbd10547e	-0.035236828
180	0xbd016a7f	-0.031595703
181	0xbd460a45	-0.048349638
182	0x3b2c13bb	0.0026256877
183	0x3cb103da	0.021608282
184	0xbcaeae46	-0.021323334
185	0xbce5d59b	-0.028055957
186	0xbd013601	-0.031545643
187	0x3d0a0634	0.033697322
188	0xbd385c13	-0.045009684
189	0xbd0b6ee1	-0.03404129
190	0x3d081fae	0.033233337
191	0x3b4b6219	0.0031033813
192	0xbbde2400	-0.006779194
193	0xbd43075f	-0.04761445
194	0x3b8316ef	0.0040005366
195	0xbcc521ec	-0.024064027
196	0x3c7e2129	0.015510836
197	0xbc1b278f	-0.009469881
198	0x3c2f978e	0.010717286
199	0x3d13715c	0.03599678
200	0x3d400410	0.046878874
201	0x3c2e55a9	0.01064054
202	0xbcfdfa82	-0.03100324
203	0xbc6278a6	-0.01382271
204	0xbc6cb4b7	-0.014447383
205	0x3d40a88f	0.04703575
206	0xbbf70c79	-0.0075393287
207	0x3a8a0e53	0.0010532833
208	0xbbd99b1c	-0.006640805
209	0xbd3e5dde	-0.046476237
210	0xbc727fea	-0.014801005
211	0xbd187ccf	-0.0372284
212	0x3d26ad5a	0.040692665
213	0x3d2e5fdd	0.04257189
214	0x3d399809	0.045311008
215	0xbbc906ba	-0.006134835
216	0xbc08018f	-0.008301153
217	0xbba29bfa	-0.0049624415
218	0xbcd82eb5	-0.02638946
219	0x3b55c9e4	0.0032621557
220	0xbd043b28	-0.03228298
221	0x3c958890	0.018253595
222	0x3c86b97d	0.01644587
223	0x3d2713d9	0.040790413
224	0x3c3ea366	0.011635637
225	0x3d3f8953	0.046761822
226	0xbc2cc144	-0.010544125
227	0x3cbb746e	0.022882666
228	0xbc240f4a	-0.010013411
229	0x3d31343f	0.043262716
230	0xbcefd547	-0.029276503
231	0x3d275d5d	0.040860523
232	0xbd100115	-0.035157282
233	0xbb8c4b5b	-0.004281444
234	0x3bb27c44	0.0054469425
235	0xbae71db2	-0.0017632751
236	0xbc0dcf96	-0.008655449
237	0x3d1a1afe	0.037623398
238	0xbd2e8fb9	-0.042617533
239	0xbd3c1d41	-0.045926336
240	0xbd01265f	-0.031530734
241	0xbc12abd1	-0.008952097
242	0xbcd305b1	-0.02575955
243	0xbb93fd18	-0.004516255
244	0x3bf47df3	0.0074613034
245	0xbd0a8f63	-0.03382815
246	0x3c2a4aae	0.010393782
247	0x3ccabc1e	0.024747904
248	0x3c80eb03	0.015737062
249	0x3b78593e	0.003789499
250	0x3c7cb891	0.015424863
251	0xbbff60ff	-0.0077935453
252	0xbd1c6007	-0.038177516
253	0xbcf03ce7	-0.029325916
254	0xbc58c4bd	-0.0132305
255	0xbd3bc934	-0.04584618

tree_conv.6.weights.bias f4 [64]
0	0xbb0c517a	-0.0021410869
1	0x3b042482	0.0020163362
2	0xbd273dd1	-0.040830437
3	0xbd328011	-0.043579165
4	0xbc05fd98	-0.008178137
5	0x3c223e7c	0.009902593
6	0x3c782c32	0.015147256
7	0x3d1a22f1	0.03763098
8	0xbcf7b567	-0.030237867
9	0xbd1b1b3a	-0.037867762
10	0x3c80a7a2	0.015704934
11	0xbd1c4978	-0.038156003
12	0xbd2c6201	-0.04208565
13	0xbce985d3	-0.028506195
14	0xbd46468b	-0.04840712
15	0x3c1cbdae	0.009566708
16	0xbd3b0753	-0.04566128
17	0x3d25510e	0.040360503
18	0xbd47e1d9	-0.04879937
19	0xbd4a8740	-0.04944539
20	0x3d0902f3	0.03345008
21	0x3cf58b1f	0.029973565
22	0xbc9e58d6	-0.01932947
23	0xbd069ad6	-0.032862507
24	0x3d474a75	0.048654992
25	0x3b58a1d0	0.0033055432
26	0xbd3f3ac3	-0.0466869
27	0xbce78037	-0.02825938
28	0x3d2b50fc	0.04182528
29	0xbca8598d	-0.020550514
30	0x3d26566d	0.040609766
31	0x3d4aac35	0.049480636
32	0xbd28153b	-0.041035872
33	0x3c9ac450	0.018892437
34	0x3c28e35e	0.010308115
35	0x3ca2b385	0.019860992
36	0xbced0e98	-0.028937623
37	0xbc5c1223	-0.0134320585
38	0xbb733652	-0.0037111235
39	0x3d50b891	0.050957266
40	0xbb306b0e	-0.0026919278
41	0xbca729e0	-0.02040571
42	0xbc250ca1	-0.010073812
43	0x3d30bc60	0.0431484
44	0x3c4fae4f	0.012675836
45	0x3b0a2c8a	0.0021083676
46	0x3d08af3b	0.033370238
47	0x3bfaa777	0.007649358
48	0x3c52ea54	0.012873251
49	0x3d0c456e	0.0342459
50	0x3d22f95b	0.039788585
51	0xbd4223a1	-0.04739726
52	0x3d2e3c18	0.04253778
53	0x3d08c9a7	0.033395436
54	0xbc5946a2	-0.013261469
55	0xbcbc3deb	-0.022978744
56	0xba91c565	-0.001112145
57	0x3cdcf243	0.026970988
58	0x3c508fa0	0.012729555
59	0x3cc0125c	0.023446254
60	0xbd495919	-0.049157236
61	0x3c167fe4	0.009185765
62	0xbd146221	-0.036226396
63	0x3d26ee8d	0.040754844

tree_conv.9.weight f4 [64]
0	0x3f7ff2e2	0.99979985
1	0x3f80029a	1.0000794
2	0x3f7ffbf5	0.9999383
3	0x3f7ff97f	0.99990076
4	0x3f800243	1.000069
5	0x3f800506	1.0001533
6	0x3f7fffd7	0.99999756
7	0x3f7ff58c	0.9998405
8	0x3f800072	1.0000136
9	0x3f7ffe59	0.9999748
10	0x3f7ff1d9	0.99978405
11	0x3f7ff9f8	0.999908
12	0x3f7fff7f	0.9999923
13	0x3f7ff1cf	0.99978346
14	0x3f800412	1.0001242
15	0x3f7ffc64	0.9999449
16	0x3f7ff027	0.9997582
17	0x3f7ff86d	0.9998844
18	0x3f800623	1.0001873
19	0x3f7ff684	0.9998553
20	0x3f7ffc1a	0.9999405
21	0x3f7ffad3	0.999921
22	0x3f800205	1.0000616
23	0x3f7ffe08	0.99996996
24	0x3f80026c	1.0000739
25	0x3f7ff321	0.9998036
26	0x3f7fffab	0.99999493
27	0x3f7ffe5a	0.99997485
28	0x3f7ff5e6	0.99984586
29	0x3f7ff6b1	0.99985796
30	0x3f7ff846	0.9998821
31	0x3f7ff330	0.9998045
32	0x3f7ffa04	0.9999087
33	0x3f7ff898	0.999887
34	0x3f7ffea4	0.99997926
35	0x3f7ffae5	0.9999221
36	0x3f7fffb7	0.99999565
37	0x3f7fff5b	0.99999017
38	0x3f7ffaea	0.9999224
39	0x3f7ff744	0.9998667
40	0x3f7ff52e	0.9998349
41	0x3f7ff651	0.99985224
42	0x3f8000b5	1.0000216
43	0x3f800483	1.0001377
44	0x3f7ffd12	0.9999553
45	0x3f80067e	1.0001981
46	0x3f7ffd2c	0.99995685
47	0x3f7ff6c1	0.9998589
48	0x3f7ffe75	0.99997646
49	0x3f8001a6	1.0000503
50	0x3f800148	1.0000391
51	0x3f8002f5	1.0000902
52	0x3f800102	1.0000308
53	0x3f7ff905	0.9998935
54	0x3f7ffbe5	0.99993736
55	0x3f7ffcc2	0.9999505
56	0x3f8002d4	1.0000863
57	0x3f8000da	1.000026
58	0x3f7ff6cd	0.99985963
59	0x3f7ffe7d	0.99997693
60	0x3f800116	1.0000331
61	0x3f800469	1.0001346
62	0x3f7fffa0	0.9999943
63	0x3f7ff3de	0.99981487

tree_conv.9.bias f4 [64]
0	0xb8905b0d	-6.8834146e-05
1	0xb926c6d3	-0.00015905061
2	0xb900420d	-0.00012231637
3	0x3855941c	5.0921095e-05
4	0x37d7d637	2.5729749e-05
5	0x386607e1	5.484361e-05
6	0xb88f7a81	-6.8415895e-05
7	0x3904ca26	0.00012663807
8	0x390e528a	0.00013572923
9	0xb87230b9	-5.7742673e-05
10	0x3827af96	3.997943e-05
11	0x38aec362	8.3333594e-05
12	0xb82b818b	-4.0890223e-05
13	0xb85f55fa	-5.3247415e-05
14	0x384a4f47	4.8234386e-05
15	0xb8acf101	-8.2464896e-05
16	0x38185749	3.6320915e-05
17	0xb573f504	-9.08811e-07
18	0x388e69f8	6.790826e-05
19	0xb73632c0	-1.08598615e-05
20	0xb8a3f568	-7.818156e-05
21	0xb77a8e47	-1.4934288e-05
22	0xb69e016a	-4.7089316e-06
23	0x38da3511	0.000104049344
24	0xb776465a	-1.4679123e-05
25	0xb8d7dbe2	-0.00010292955
26	0x3744791e	1.171071e-05
27	0xb5ea7309	-1.7467838e-06
28	0x3862f096	5.4106662e-05
29	0x3949103e	0.00019174904
30	0xb8ae7677	-8.319032e-05
31	0xb9080e0f	-0.00012975208
32	0xb87958a7	-5.944879e-05
33	0xb89b2e94	-7.399652e-05
34	0x389b1572	7.3949705e-05
35	0x38a43128	7.8292855e-05
36	0x37204bd0	9.554395e-06
37	0xb901bee5	-0.00012373512
38	0xb851efaf	-5.0052706e-05
39	0xb8dad6b3	-0.00010435041
40	0x379d2acb	1.8735785e-05
41	0xb814fba0	-3.5520294e-05
42	0xb725701b	-9.860868e-06
43	0xb7aaccab	-2.0360885e-05
44	0xb8984de7	-7.262435e-05
45	0xb86e9c0b	-5.6888948e-05
46	0x38e1b3db	0.00010762337
47	0x3308db50	3.186443e-08
48	0xb8f5aa6c	-0.00011714254
49	0x390a9a3a	0.0001321816
50	0xb8d87796	-0.00010321957
51	0x39336d4a	0.00017111484
52	0xb931e84b	-0.00016966571
53	0xb846d774	-4.7407535e-05
54	0x38c71ec4	9.49479e-05
55	0x377c73fc	1.5047375e-05
56	0x38b09049	8.419209e-05
57	0xb74c7726	-1.2187089e-05
58	0xb8c62a0f	-9.44921e-05
59	0xb83852e4	-4.3946216e-05
60	0x383d8e49	4.5193625e-05
61	0xb84bfc80	-4.863413e-05
62	0xb7d67363	-2.556452e-05
63	0x36a743fe	4.984903e-06

tree_conv.9.running_mean f4 [64]
0	0x40633cb9	3.5505812
1	0x40768bd0	3.8522835
2	0x4034e699	2.8265746
3	0x40e07bb3	7.0151
4	0x40251258	2.5792446
5	0x40cbbd4a	6.3668566
6	0x40e9aa7f	7.3020625
7	0x4013963a	2.306044
8	0x40209b74	2.509488
9	0x4008217a	2.1270432
10	0x406ddbb6	3.716535
11	0x404ceb4e	3.2018619
12	0x3ec5852b	0.38578162
13	0x408129ac	4.036337
14	0x402d02f4	2.7033052
15	0x401e2b43	2.4713905
16	0x3ff68f7f	1.9262542
17	0x403131fb	2.7686756
18	0x4087a1c6	4.2384977
19	0x3f111604	0.5667422
20	0x40003a28	2.0035496
21	0x3f8ad5da	1.0846512
22	0x3fab6788	1.339097
23	0x401506d3	2.3285415
24	0x3e5fce2d	0.21855994
25	0x400ec08c	2.2305021
26	0x4061da75	3.5289586
27	0xbbb57607	-0.0055377516
28	0x40127878	2.2886028
29	0x3e72dfbe	0.23718163
30	0x3fabd41f	1.3424109
31	0x40bd4fea	5.916005
32	0x4066d715	3.6068776
33	0x40c74f3d	6.2284226
34	0x3ee66f6d	0.45006886
35	0x4067e412	3.6232953
36	0x40290e30	2.641491
37	0x3ee5b91b	0.44867787
38	0x3f893ada	1.0721085
39	0x407bebf9	3.9362776
40	0x4024f7ea	2.5776315
41	0x40db6e72	6.857232
42	0x40a8f212	5.2795496
43	0x3ff08300	1.8789978
44	0x3ff1a8d2	1.8879645
45	0x408263b2	4.07467
46	0x4005d2c2	2.0909886
47	0x4014b261	2.3233874
48	0x401e58ae	2.4741626
49	0x3e53db03	0.20689015
50	0x40133f84	2.3007517
51	0x400a509b	2.1611698
52	0x3f91e1b8	1.1397009
53	0x40de158f	6.9401317
54	0x3fe13c15	1.759646
55	0x3fcc7ee4	1.5976224
56	0x3ff53491	1.9156667
57	0x4055aa0f	3.3385046
58	0x4020e973	2.5142486
59	0x3f6673f0	0.90020657
60	0x40973bd5	4.7260537
61	0x3fd2bbd7	1.6463574
62	0x3f2246f3	0.6338951
63	0x408a0c17	4.313976

tree_conv.9.running_var f4 [64]
0	0x3fa01597	1.2506589
1	0x3f503b06	0.8134006
2	0x4005a1b4	2.0879946
3	0x400e694c	2.2251768
4	0x3ed055c2	0.40690428
5	0x3fddc1c2	1.7324755
6	0x40678981	3.6177676
7	0x3f0cf7e5	0.5506576
8	0x3f42ed25	0.76143104
9	0x3f067168	0.52516794
10	0x3f3f8162	0.748068
11	0x3f747e2a	0.9550501
12	0x3e1d6567	0.15370713
13	0x3fec297f	1.8450164
14	0x4001f0da	2.0303254
15	0x3fab1f16	1.3368862
16	0x3f5645d5	0.83700305
17	0x3f240fc9	0.64086586
18	0x3ffec806	1.9904792
19	0x3ea2be35	0.3178574
20	0x3fbaf03f	1.4604567
21	0x3ed803bc	0.4219035
22	0x3ecae9e7	0.39631578
23	0x3f14e06c	0.5815494
24	0x3d555623	0.0520841
25	0x3f3b20a3	0.73096675
26	0x3fe88123	1.8164409
27	0x3a11e471	0.00055653515
28	0x3f90bd35	1.1307741
29	0x3e33a791	0.1754439
30	0x3f2fd0ee	0.68678176
31	0x402fe9e7	2.7486513
32	0x3f527c95	0.8222135
33	0x40033369	2.0500128
34	0x3ebe4bf8	0.37167335
35	0x3faf3de4	1.3690763
36	0x3f1354ef	0.57551473
37	0x3f3681f6	0.71292055
38	0x3f20eaae	0.6285809
39	0x3fdd6c2f	1.729864
40	0x3f3983f7	0.7246699
41	0x3fe7d5f0	1.8112164
42	0x3faebda8	1.3651628
43	0x3f8aea5f	1.0852774
44	0x3f0ed4fc	0.5579374
45	0x3f83b635	1.028998
46	0x3f20f08b	0.6286704
47	0x3fd81635	1.6881777
48	0x3f355964	0.70839524
49	0x3d3195e1	0.043355826
50	0x3f273c38	0.6532626
51	0x3f334ce3	0.70039195
52	0x3ec57eb1	0.3857322
53	0x4001bf52	2.0273023
54	0x3edcc468	0.43118596
55	0x3ee89649	0.45427158
56	0x3f30f781	0.6912766
57	0x3ff59ddf	1.9188803
58	0x4002126b	2.0323741
59	0x3eaedd79	0.34153345
60	0x3f9b538c	1.2134871
61	0x3f7cb07e	0.98706806
62	0x3f3b05a9	0.7305551
63	0x3fbe8241	1.48835

tree_conv.10.weight f4 [32, 64]
0	0xbddcc263	-0.10779264
1	0xbdbe53e3	-0.09293344
2	0xbd961566	-0.073283
3	0xbd69ddf0	-0.05709642
4	0x3d4111e7	0.047136214
5	0xbdc6df7e	-0.097105965
6	0x3d9a334f	0.075293176
7	0xbdff3900	-0.12462044
8	0x3d9c0211	0.07617582
9	0xbdcffee5	-0.10156039
10	0x3dabf8bb	0.08397051
11	0xbde1afb4	-0.11019841
12	0x3d460cef	0.04835218
13	0xbdeb2607	-0.114818625
14	0x3dbe650f	0.09296619
15	0xbdd140bd	-0.10217426
16	0xbd2b03fa	-0.04175184
17	0xbdefbb05	-0.11705593
18	0xbd522fab	-0.05131499
19	0x3d222ef1	0.039595548
20	0x3b934fc6	0.0044955937
21	0xbd6f8766	-0.058478735
22	0xbdeec1b6	-0.11658041
23	0x3db1b0b7	0.08676284
24	0x3b6a4ccc	0.003575134
25	0x3de74607	0.112926535
26	0x3d74cf25	0.05976786
27	0xbdb7bc98	-0.08971518
28	0x3cf7391a	0.030178595
29	0xbd7be57c	-0.06149815
30	0x3dd4b665	0.103863515
31	0xbd83d8c5	-0.0643783
32	0xbdbe216d	-0.09283719
33	0xbdc2f673	-0.09519663
34	0x3d90c876	0.07069485
35	0x3c068fd6	0.008213004
36	0xbdcd2b80	-0.100180626
37	0xbdd5047e	-0.104012474
38	0xbc82e4b8	-0.015978202
39	0x3d7e6b1a	0.06211386
40	0x3d928d6d	0.07155881
41	0xbcd1995f	-0.025585828
42	0xbc2b5a69	-0.010458567
43	0x3d8e1f9d	0.069396235
44	0xbb676ac0	-0.003531143
45	0xbd1d6b4c	-0.038432404
46	0xbdab12e0	-0.083532095
47	0xbd7bd0cd	-0.061478425
48	0xbdf00d46	-0.11721282
49	0xbb5807af	-0.0032963564
50	0xbddca4ec	-0.10773644
51	0x3cd1f4fb	0.025629511
52	0x3dd71af2	0.10503186
53	0x3dac5637	0.08414882
54	0xbd6558f5	-0.05599304
55	0xbd72bb6a	-0.059260763
56	0xbde59d9c	-0.11211702
57	0x3ce55a0f	0.027997045
58	0x3d320c7a	0.04346893
59	0xbddfe961	-0.10933185
60	0x3d9b77c7	0.07591205
61	0x3d1e1446	0.038593553
62	0xbde1574b	-0.11002978
63	0xbdb139f6	-0.08653633
64	0x3de0925b	0.10965415
65	0x3df37478	0.11887449
66	0x3d05e15d	0.032685626
67	0xbc08065c	-0.008302297
68	0xbd5dd352	-0.05415661
69	0xbd86f625	-0.06589917
70	0x3de7faec	0.113271564
71	0xbc14802d	-0.009063763
72	0xbdbc5cd2	-0.091973916
73	0x3dd10790	0.102065206
74	0x3daa204c	0.083069414
75	0x3db6b80c	0.08921823
76	0xbdb3e3dc	-0.08783695
77	0xbd62a3e1	-0.05533207
78	0xbdd7a999	-0.10530395
79	0xbdf2267c	-0.118237466
80	0xbccb284a	-0.024799485
81	0x3daff4c9	0.08591611
82	0xbdedd1c3	-0.116122745
83	0xbc2ca3e5	-0.010537122
84	0xbdd4b268	-0.10385591
85	0x3d567d86	0.052365802
86	0xbb3b6839	-0.0028596057
87	0xbdefb82a	-0.117050484
88	0x3b4ebba9	0.003154496
89	0xbd7cc340	-0.061709642
90	0x3d3a4fd0	0.04548627
91	0x3d6f97fa	0.058494546
92	0x3c9c6866	0.01909275
93	0xbd69ca33	-0.057077598
94	0x3d8bceb7	0.06826537
95	0xbd46565b	-0.0484222
96	0x3dbd20a3	0.092347406
97	0xbcf89bcc	-0.030347727
98	0x3c83711e	0.01604515
99	0xbdaa2459	-0.08307714
100	0x3db33972	0.08751191
101	0x3dd8c2b8	0.10584015
102	0xbd81c8a4	-0.06337097
103	0xbdffc8eb	-0.12489494
104	0xbbf328bd	-0.007420628
105	0x3cdb2aa4	0.026753731
106	0x3d9d2406	0.076728866
107	0xbb2ee140	-0.0026684552
108	0x3d046ab7	0.032328334
109	0xbd4cac66	-0.0499691
110	0xbad000d1	-0.0015869384
111	0xbc7aaf26	-0.015300548
112	0x3ca878fc	0.020565502
113	0x3ce19677	0.027537568
114	0x3ca7249a	0.020403195
115	0x3ded054e	0.115732774
116	0x3de12e5e	0.10995172
117	0xbdadf18f	-0.08493339
118	0xbd6e1d57	-0.05813345
119	0x3d942641	0.07233859
120	0x3d578f40	0.05262685
121	0x3d88b6b6	0.06675474
122	0x3dfd15fc	0.12357709
123	0x3dc9b44d	0.09848843
124	0xbdbf57a1	-0.09342886
125	0x3d33ffb0	0.043945014
126	0x3a8f4f44	0.0010933657
127	0xbd9e0c0c	-0.077171415
128	0xbd7df815	-0.062004168
129	0x3aa216c8	0.0012366408
130	0xbd49583c	-0.049156412
131	0xbc301648	-0.0107475
132	0x3d8fc28f	0.07019531
133	0xbc2e887a	-0.010652656
134	0x3d0912dd	0.033465255
135	0x3d0b229e	0.03396856
136	0x3d990efa	0.0747356
137	0x3b19fb10	0.0023495592
138	0xbd8e68ad	-0.06953559
139	0xba8bb821	-0.0010659733
140	0xbd68bc4c	-0.0568202
141	0xbd13cd76	-0.036084615
142	0x3d9f43a1	0.07776571
143	0x3db5ad2e	0.08870922
144	0x3d35c96b	0.04438154
145	0x3de3f6fd	0.11131094
146	0xbc44bd47	-0.012008018
147	0xbc4bf93c	-0.012449559
148	0xbdbd5489	-0.092446394
149	0x3d91c5ff	0.07117843
150	0x3de459a3	0.11149909
151	0xbdcce7cd	-0.1000515
152	0xbd0247c7	-0.031806733
153	0xbd39316b	-0.045213144
154	0xbd7df332	-0.061999507
155	0xbd9ff580	-0.07810497
156	0xbd4fa41c	-0.050693616
157	0x3d9ebff1	0.07751454
158	0x3d9dfdd1	0.07714427
159	0x3d4c18f9	0.049828503
160	0xbdcdb9ca	-0.10045202
161	0xbd470b4b	-0.048594754
162	0x3be744d8	0.0070577674
163	0x3c8d04a8	0.017214134
164	0x3d622272	0.05520863
165	0x3c2bff4d	0.01049788
166	0x3d906c11	0.07051862
167	0xbdccfd63	-0.10009267
168	0x3db394a0	0.08768582
169	0xbd98dbb5	-0.07463781
170	0xbdf9a592	-0.12189783
171	0x3de89ecf	0.11358415
172	0xbd92f004	-0.071746856
173	0xbdf8ec11	-0.12154401
174	0x3df28690	0.11842072
175	0x3dd34d45	0.10317472
176	0xbd57e019	-0.05270395
177	0x3c5237ef	0.012830718
178	0xbd981a60	-0.07426906
179	0x3d798e6d	0.060926843
180	0x3dfd1fe1	0.12359596
181	0xbde42573	-0.11139955
182	0xbccbdcb1	-0.024885507
183	0x3d76e59e	0.060277574
184	0x3de773cf	0.113013856
185	0xbde1d5dd	-0.11027119
186	0xbd771e84	-0.060331836
187	0xbde52098	-0.111878574
188	0xbd828bc6	-0.06374316
189	0xbdfb9ba0	-0.122855425
190	0x3d810e22	0.06301524
191	0xbd23f0c4	-0.040024534
192	0xbce19789	-0.027538078
193	0xbde6d939	-0.11271901
194	0x3db728fa	0.089433625
195	0xbc20f133	-0.009823131
196	0xbc6fee84	-0.014644269
197	0xbcd46056	-0.025924843
198	0x3dd54e59	0.10415334
199	0xbd294d54	-0.04133351
200	0xbd90d018	-0.07070941
201	0x3d13e543	0.036107313
202	0x3cbe619e	0.023239907
203	0x3d477d9d	0.04870378
204	0x3cdf6238	0.027268514
205	0xbdf90ae6	-0.12160282
206	0xbd87d1f3	-0.066318415
207	0xbd38b8da	-0.045098163
208	0x3d355069	0.04426614
209	0xbc83b480	-0.01607728
210	0xbce9739b	-0.028497508
211	0x3db65ec5	0.089047946
212	0x3b16ab96	0.0022990457
213	0x3dd5c828	0.104385674
214	0x3ca571c8	0.020195857
215	0xbc9121b3	-0.017716264
216	0xbddf542d	-0.10904727
217	0xbbc22eeb	-0.005926003
218	0x3dbdb459	0.09262914
219	0x3d9b2bae	0.075766906
220	0x3c9efc4e	0.019407418
221	0xbd2bcd5e	-0.0419439
222	0xbdb31928	-0.087450325
223	0xbd986912	-0.074419156
224	0x3d88ac89	0.066735335
225	0x3d1e7f4b	0.038695615
226	0x3df0aaa9	0.11751301
227	0x3cdbdab3	0.026837682
228	0x3ddcc7e3	0.10780313
229	0xbcc3d1f3	-0.023903823
230	0x3dca6cc6	0.09884028
231	0x3da94bd0	0.08266413
232	0x3de2e428	0.110786736
233	0xbd9d0b44	-0.07668164
234	0x3dd5e642	0.10444309
235	0x3c910c89	0.017706173
236	0xbdefcd38	-0.11709064
237	0x3c9764a0	0.018480599
238	0x3d78a344	0.060702577
239	0xbdab104c	-0.08352718
240	0x3addbe9c	0.0016917768
241	0xbd9d3788	-0.07676607
242	0x3d17973c	0.037009463
243	0xbcc7e798	-0.024402425
244	0xbd4764ec	-0.04868023
245	0xbce64f85	-0.02811409
246	0xbc896a42	-0.0167743
247	0xbdd7afb4	-0.105315596
248	0xbd873b3f	-0.06603097
249	0xbd957dcb	-0.07299384
250	0x3d8ac8fd	0.06776617
251	0x3d5b2672	0.05350346
252	0x3dad525d	0.08462975
253	0xbccbd07f	-0.024879692
254	0x3daed347	0.08536392
255	0xbdd7f9f2	-0.1054572

tree_conv.10.bias f4 [32]
0	0xbdcde23b	-0.10052916
1	0xbd602571	-0.054723207
2	0xbd0074bc	-0.031361327
3	0x38a972a5	8.079902e-05
4	0x3d9c9992	0.07646479
5	0x3db42281	0.087956436
6	0xbd7ec2bb	-0.06219743
7	0x3d5621c9	0.052278314
8	0xbdbf5085	-0.0934153
9	0xbde02fde	-0.1094663
10	0xbd91596a	-0.070971325
11	0x3d30ba35	0.04314633
12	0x3d8fe3d9	0.0702588
13	0x3da1eddc	0.07906696
14	0xbd6cca52	-0.057810135
15	0xbdd9150d	-0.10599718
16	0xbdbb1ff6	-0.091369554
17	0xbdb66665	-0.08906249
18	0xbd040d4a	-0.032239236
19	0xbd0aeb34	-0.033915713
20	0xbcf5de98	-0.030013368
21	0x3de14b66	0.11000709
22	0x3d019263	0.031633746
23	0x3cc952f2	0.024575684
24	0x3bde9e66	0.006793785
25	0xbd881278	-0.06644148
26	0x3d2c5bfc	0.04207991
27	0xbd924c16	-0.071434185
28	0xbd3eb0a8	-0.04655519
29	0xbc5c8b9c	-0.01346102
30	0x3d86e85b	0.06587287
31	0x3dfbcf79	0.12295432

tree_conv.13.weight f4 [1, 32]
0	0x3dd38a7c	0.10329148
1	0x3e2da6cb	0.16958158
2	0x3d870b3a	0.06593938
3	0xbdf2377b	-0.11826988
4	0xbe0de981	-0.13858606
5	0xbc925700	-0.01786375
6	0x3e239084	0.15973097
7	0x3c0365c8	0.008019872
8	0x3d9ba5a7	0.07599955
9	0xbcc55d8a	-0.024092454
10	0xbd57c244	-0.0526755
11	0x3dea2bcf	0.11434137
12	0x3db55a89	0.08855159
13	0x3d7944a9	0.060856495
14	0xbe062269	-0.13099064
15	0xbdde591a	-0.108568385
16	0x3e032868	0.12808383
17	0xbde5cf00	-0.11221123
18	0x3dd3022a	0.10303147
19	0x3e0d00af	0.13769792
20	0xbb102a98	-0.0021998044
21	0x3e233075	0.15936454
22	0xbe1aa55f	-0.15102147
23	0xbc3c5ad0	-0.011496261
24	0xbdb16447	-0.086617045
25	0x3bbbcfd7	0.0057315635
26	0xbcc3683a	-0.02385341
27	0x3d1cea5b	0.038309436
28	0xbce739d1	-0.028225811
29	0xbe04327c	-0.12909883
30	0xba815dfa	-0.0009869926
31	0xbddccafb	-0.10780903
