src/Models/pairwise.onnx (onnx, 702290 bytes, 13 tensors)

tree_conv.0.weights.weight f4 [256, 50, 3]
0	0x3d905003	0.07046511
1	0x3d27a512	0.040928908
2	0xbf404aca	-0.7511412
3	0xbd6f0ef6	-0.058363877
4	0xbc7f9b39	-0.015600973
5	0xbd411c98	-0.04714641
6	0x3da46309	0.08026702
7	0x3bb155da	0.0054118456
8	0x3d742215	0.059602816
9	0x3d822d9a	0.06356354
10	0x3c85d79b	0.01633816
11	0xbd104e00	-0.035230637
12	0x3d42c651	0.04755241
13	0x3d7c2a8f	0.061564025
14	0xbd2bd944	-0.041955248
15	0x3d9714dd	0.07377026
16	0xbd842f87	-0.064543776
17	0xbbe02376	-0.006840165
18	0x3cbaf5d4	0.022822298
19	0x3d8ab65f	0.06773066
20	0xbb89c1cc	-0.0042040106
21	0x3be6b3c3	0.0070404722
22	0xbd9867ed	-0.07441697
23	0x3b27c32c	0.002559851
24	0x3c82a412	0.015947375
25	0x3c849c85	0.016187916
26	0xbc8ebc6e	-0.017423835
27	0xbaf1efd7	-0.0018458319
28	0xbc8d61f3	-0.01725862
29	0x3d9d5284	0.07681754
30	0xba25ad3e	-0.00063200656
31	0xbc574873	-0.013139832
32	0xbc928e37	-0.017890079
33	0xbd4f24cb	-0.050572198
34	0x3c4371f9	0.011929029
35	0xbd2e7731	-0.04259414
36	0xbd16be07	-0.036802318
37	0x3d0fe270	0.035128057
38	0x3c189a96	0.0093142
39	0xbd819eb1	-0.06329096
40	0x3d9a1b2e	0.07524715
41	0x3d0b781a	0.034050085
42	0xbd8ad9b8	-0.06779808
43	0xbd368912	-0.044564314
44	0x3d90f1f3	0.07077398
45	0x3d68615c	0.056733474
46	0x3d9d5b45	0.07683424
47	0x3c6cc5ba	0.014451439
48	0x3d95ff80	0.073241234
49	0xbb7d4919	-0.0038648306
50	0xbd353e08	-0.04424861
51	0x3d38f472	0.045154996
52	0x3d4d147f	0.050068375
53	0x3c846e69	0.016165929
54	0xbd951dc1	-0.07281066
55	0x3cdc7ce1	0.026915016
56	0xbd0d8049	-0.03454617
57	0xbcf28808	-0.02960588
58	0xbd7ccc39	-0.0617182
59	0x3d891d3a	0.06695028
60	0xbd6f5905	-0.058434505
61	0x3d351c9e	0.044216745
62	0xbcf26a46	-0.02959169
63	0xbd6de02f	-0.058075126
64	0xbd435117	-0.047684755
65	0x3d4d5fad	0.05014007
66	0x3d3b94a8	0.045796067
67	0xbd798d4f	-0.060925778
68	0x3ce098cb	0.027416607
69	0x3c5da10b	0.013527165
70	0xbd0d5204	-0.034502044
71	0x3d9e31ac	0.07724318
72	0xbcfcf288	-0.030877367
73	0x3d91d7e9	0.0712126
74	0xbcfb9246	-0.030709397
75	0xbcae6a9b	-0.021291068
76	0x3d9a648f	0.07538711
77	0xbd36fdf6	-0.04467579
78	0x3c254afa	0.010088677
79	0xbcca6d82	-0.02471042
80	0x3d2936a8	0.04131189
81	0xbd8e7df1	-0.06957615
82	0xbd98665e	-0.074414
83	0xbda6a29a	-0.081364825
84	0x3d91a9dd	0.07112477
85	0x3d138e44	0.036024347
86	0x3da23ee0	0.07922149
87	0xbcff0676	-0.03113101
88	0xbd837912	-0.06419577
89	0x3d35c9d6	0.04438194
90	0xbcfc6d08	-0.030813709
91	0xbd818c73	-0.06325617
92	0xbd322b66	-0.04349842
93	0x3d38e879	0.04514358
94	0xbd269352	-0.04066784
95	0x3d8b6ddc	0.068080634
96	0xbd9793a6	-0.074012086
97	0x3da228c6	0.07917933
98	0x3da2e6eb	0.079542
99	0xb9465655	-0.00018914913
100	0x3d240932	0.04004783
101	0x3cef9e10	0.029250175
102	0x3d4312da	0.0476254
103	0x3d0491e3	0.03236569
104	0xbd968e93	-0.073514126
105	0x3c104a2f	0.008806749
106	0xbcc01b78	-0.023450598
107	0xbd8dab44	-0.06917432
108	0x3c14900b	0.009067546
109	0xbd953c53	-0.072868966
110	0xbd004533	-0.031315994
111	0xbd8947ec	-0.06703171
112	0xbcca4027	-0.024688793
113	0x3d09707e	0.033554547
114	0x3d19d889	0.03756002
115	0x3c935751	0.017985972
116	0xbd5ec49b	-0.054386716
117	0xbd8a1976	-0.067431375
118	0x3d8a4a43	0.067524455
119	0x3d67b652	0.05657036
120	0xbc78fb74	-0.01519667
121	0x3da97004	0.082733184
122	0xbc0a4c3c	-0.008441027
123	0xbc486e48	-0.012233324
124	0xbc44fe43	-0.012023511
125	0xbd9fb576	-0.07798283
126	0x3bf672e3	0.00752102
127	0x3d8563b8	0.065131605
128	0xbc73b531	-0.014874742
129	0xbd9c78e4	-0.076402456
130	0x3c8bb744	0.017055161
131	0xbd606102	-0.054780014
132	0x3d8be303	0.068304084
133	0x3c170be4	0.009219144
134	0x3d45c111	0.048279826
135	0xbd5b37a2	-0.053519852
136	0xbdb5f275	-0.08884136
137	0x3d93ebce	0.072227105
138	0xbd0741a7	-0.033021595
139	0xbb9bfd61	-0.0047604297
140	0xbd1a3c56	-0.037655197
141	0xbd9b4643	-0.07581761
142	0x3da65a29	0.081226654
143	0xbcc6158c	-0.024180196
144	0x40ca1826	6.315448
145	0xc014a4ac	-2.3225508
146	0x3f0429a4	0.5162604
147	0x4115b7ee	9.357405
148	0xbfa002d5	-1.2500864
149	0x3f178bc3	0.59197634
150	0x3d2587e1	0.040412787
151	0xbdd783c3	-0.105231784
152	0xbf21a6a3	-0.6314489
153	0xb86e023e	-5.674571e-05
154	0xbd9b758f	-0.07590782
155	0xbd38ba93	-0.045099806
156	0xbc6eabe3	-0.014567348
157	0xbd9f27dc	-0.077712744
158	0x3cc65ab5	0.024213174
159	0xbc9190ae	-0.017769184
160	0xbd713acb	-0.05889396
161	0xbd1630af	-0.036667522
162	0xbcb4e8ea	-0.022083718
163	0x3a9ee8cd	0.0012123823
164	0xbc272933	-0.010202694
165	0x3da41874	0.080124766
166	0x3d491595	0.049092848
167	0xbc8e78cd	-0.017391587
168	0x3bcef3c5	0.0063156807
169	0xbd3ad8dd	-0.045616973
170	0xbda18c1b	-0.07888051
171	0xbd17a87f	-0.037025925
172	0xbc0c1dba	-0.008552009
173	0xbcb73494	-0.022363938
174	0x3be6e98a	0.007046883
175	0xbc32410e	-0.010879768
176	0xbd55e7f8	-0.052223176
177	0x3cbaf30d	0.022820974
178	0x3cbc2318	0.022965953
179	0x3d2e507d	0.04255723
180	0x3c7ee638	0.015557818
181	0xbc27c7bf	-0.010240494
182	0x3ce04c21	0.027380051
183	0xbd81832c	-0.06323847
184	0xbd44470f	-0.04791933
185	0xbb964e62	-0.0045869807
186	0xbd4bc6c1	-0.049750093
187	0xbcb411e9	-0.021981196
188	0x3d874977	0.06605809
189	0x3bb4c05f	0.0055160965
190	0xbd8bba10	-0.06822598
191	0x3d096c37	0.033550467
192	0x3ce85930	0.02836284
193	0xbd249a88	-0.040186435
194	0xbd912625	-0.070873536
195	0xbbef339d	-0.007299854
196	0x3d220239	0.0395529
197	0xbc225440	-0.009907782
198	0x3c29ff15	0.010375758
199	0xbd8b770a	-0.06809814
200	0x3cda7905	0.026669035
201	0x3d1ce65e	0.038305633
202	0x3d209e0e	0.039213233
203	0x3d373147	0.04472473
204	0xbd15bb9b	-0.036555868
205	0x3d468245	0.04846408
206	0xbd2cde6e	-0.042204313
207	0x3d9f50ea	0.07779105
208	0x3da1fcc6	0.07909541
209	0xbd49d792	-0.04927785
210	0xbda3d148	-0.079989016
211	0xbb0023bb	-0.0019552547
212	0xbcf0f16c	-0.029411994
213	0xbd4f553b	-0.05061839
214	0x3d3dce97	0.046339598
215	0x399f4db8	0.00030384748
216	0x3cd72b55	0.02626578
217	0x3c9564e3	0.018236583
218	0x3d0a9f52	0.033843346
219	0xbd6d00c8	-0.057862073
220	0xbd953589	-0.07285602
221	0xbd9521be	-0.072818264
222	0xbca74335	-0.020417789
223	0x3c9f4f36	0.01944695
224	0x3d2e91e4	0.0426196
225	0xbd9dd499	-0.077065654
226	0xbc2ab9dd	-0.01042029
227	0x3d636098	0.05551204
228	0x3d9ae037	0.07562297
229	0x3cecf53a	0.028925527
230	0xbad76f14	-0.0016436302
231	0xbd28244b	-0.041050237
232	0xbd525149	-0.05134705
233	0xbd5283a8	-0.05139509
234	0xbd9202ba	-0.07129426
235	0xbb8c936a	-0.004290034
236	0xbd61d069	-0.055130396
237	0x3d71367e	0.05888986
238	0xbd6bcd09	-0.057568584
239	0x3cd3f3ea	0.025873143
240	0x3ce36445	0.027757773
241	0x3d80d25c	0.06290123
242	0xbda12802	-0.07868959
243	0xbcd85e9f	-0.026412306
244	0x3d55cb3d	0.052195776
245	0x3c5fd553	0.0136617
246	0xbd266b2d	-0.040629555
247	0xbd88238a	-0.066474035
248	0xbd4b9a88	-0.04970792
249	0xbcb194e6	-0.021677446
250	0xbd0b3311	-0.033984248
251	0xbd94682a	-0.0724643
252	0x3d3ade89	0.045622382
253	0x3d84b92e	0.06480633
254	0xbce2dcc0	-0.027693152
255	0xbc895dac	-0.016768299

tree_conv.0.weights.bias f4 [256]
0	0x3d9236a5	0.07139329
1	0x3a0ba09a	0.00053263607
2	0x3d8b1f57	0.06793087
3	0xbd87626b	-0.066105686
4	0xbb69f1ab	-0.0035697024
5	0xbd943eb0	-0.07238519
6	0xbd84236f	-0.06452071
7	0xbd347de6	-0.04406538
8	0xbd2b6725	-0.041846413
9	0xbd2ddaaf	-0.04244488
10	0x3c9c65c4	0.019091494
11	0x3db54c77	0.08852475
12	0x3b0420e0	0.0020161197
13	0x3d543f7c	0.051818356
14	0x3d0ce9b1	0.034402553
15	0x3c738418	0.014863037
16	0x3d834768	0.06410104
17	0x3ccb32dc	0.024804525
18	0xbc5738df	-0.013136118
19	0xbc82e67a	-0.01597904
20	0x3d9b5d75	0.07586185
21	0xbd035ec6	-0.032072805
22	0xbb520cfe	-0.00320512
23	0xbcdb3ee5	-0.026763389
24	0xba7f017c	-0.0009727699
25	0x3cdf2a81	0.027241947
26	0x3d939fc3	0.072082065
27	0xbd8514d7	-0.064981155
28	0xbd8568c7	-0.06514125
29	0xbc18ca0e	-0.009325517
30	0xbd45bf97	-0.048278417
31	0x3d8fe67c	0.07026383
32	0x3db0fdca	0.086421564
33	0x3dab1ae1	0.08354736
34	0x3cb878b8	0.0225185
35	0x3da46cc2	0.080285564
36	0x3d4f2f13	0.050582003
37	0xbd7bf042	-0.061508425
38	0xbcb00713	-0.021487748
39	0xbc9c59c4	-0.019085772
40	0xbc8faa2b	-0.017537197
41	0x3c36b72f	0.011152073
42	0xbcc7ab95	-0.024373809
43	0x3d8c3c7c	0.06847474
44	0x3d1a94c9	0.03773955
45	0x3d938144	0.0720239
46	0x39dfa0a2	0.00042653555
47	0x3b5cb8eb	0.0033679556
48	0xbd59c338	-0.05316469
49	0xbd459e3c	-0.048246607
50	0xbc80f48f	-0.015741615
51	0xbd8fb895	-0.07017628
52	0x3cdb269c	0.026751809
53	0x3d043c61	0.032284144
54	0x3cc7c51e	0.024385985
55	0x3cc3dbda	0.023908544
56	0xbd34e5a3	-0.04416431
57	0x3d5d793f	0.054070707
58	0xbcd75a50	-0.026288182
59	0xbd5d312f	-0.054001983
60	0x3cb224b4	0.021746017
61	0x3d95d979	0.0731687
62	0xbb29d7c8	-0.002591597
63	0x3daf5de2	0.085628286
64	0x3be8b441	0.007101566
65	0x3d9ab610	0.07554257
66	0x3c6a42b3	0.014298129
67	0xbd8efc03	-0.06981661
68	0xba863b11	-0.0010240992
69	0xbd9349ac	-0.07191786
70	0x3d63421d	0.055482972
71	0x3d6ae4b0	0.057347
72	0xbd2662d2	-0.040621586
73	0xbcba0275	-0.02270625
74	0xbc969231	-0.018380256
75	0x3cfd58f3	0.030926203
76	0xbcb59eb0	-0.022170395
77	0x3ce772b2	0.028252933
78	0xbd8d335f	-0.06894564
79	0x3d208adb	0.039194923
80	0xbd7997a1	-0.06093562
81	0x3cef5585	0.029215584
82	0xbd01dbd9	-0.031703804
83	0xbd0b4a3d	-0.034006346
84	0x3bfb536a	0.007669856
85	0x3d9cb401	0.076515205
86	0xbcbdd78b	-0.023174068
87	0x3cd2d967	0.025738431
88	0x3d5902ad	0.052981067
89	0x3d69ec14	0.057109907
90	0x3d39093a	0.045174815
91	0xbb1f1263	-0.0024272434
92	0xbd902a52	-0.07039322
93	0xbbad91fe	-0.0052969446
94	0x3ced7ab0	0.028989166
95	0x3da1c3ed	0.07898698
96	0x3d840768	0.06446725
97	0xbbb61d3a	-0.0055576833
98	0x3c13b270	0.009014711
99	0x3daed81f	0.085373156
100	0x3d7cb5e5	0.061696906
101	0xbd9345d5	-0.07191054
102	0xbbb79238	-0.0056021474
103	0xbd87f76b	-0.06638988
104	0x3d959640	0.073040485
105	0xbd1e9959	-0.038720462
106	0x3d0a909f	0.033829328
107	0x3c9609e0	0.018315256
108	0xbd0f7836	-0.03502675
109	0xbd236594	-0.039891794
110	0xbd8ec324	-0.06970814
111	0x3da3f1ff	0.080051415
112	0x3d370ca8	0.044689804
113	0xbc6b7b83	-0.014372709
114	0x3bcdf7d0	0.006285645
115	0xbd1b6921	-0.037942056
116	0xbd1b19d8	-0.037866443
117	0x3d5fa3f9	0.054599736
118	0xbd3f67cb	-0.046729844
119	0x3d1b890c	0.037972495
120	0x3d034e66	0.03205719
121	0xbd1a7859	-0.03771243
122	0x3d562a9f	0.05228674
123	0x3c39e8d2	0.011347013
124	0xbc2f799c	-0.010710146
125	0x3d298b47	0.04139259
126	0xbd8a09e8	-0.06740171
127	0xbcc675b5	-0.024226049
128	0x3d48566d	0.048910547
129	0x3d4018df	0.04689872
130	0xbbb5978c	-0.0055417474
131	0x3cc19ab0	0.023633331
132	0xbd308b36	-0.043101512
133	0xbd870adb	-0.065938674
134	0xbbf8830d	-0.007583982
135	0xbcfce514	-0.030870952
136	0x3d62316a	0.055222906
137	0x3d4a78e1	0.049431685
138	0xbcf38206	-0.029725086
139	0x3d442938	0.04789087
140	0x3d1b1553	0.037862133
141	0xbc54d786	-0.012990838
142	0xbbc9263f	-0.0061385925
143	0x3d879b9c	0.06621477
144	0x3d6bd61e	0.057577245
145	0x3b5802f2	0.003296074
146	0xbd037687	-0.03209546
147	0x3d5b5808	0.05355075
148	0x3d83d762	0.064375654
149	0xbd42ca8e	-0.047556452
150	0xbb870213	-0.0041201203
151	0xbc3fa0b3	-0.0116960285
152	0x3d8060bd	0.06268451
153	0x3c8ac2a3	0.016938513
154	0xbd1310c0	-0.035904646
155	0x3d87d446	0.06632285
156	0xbd11218c	-0.035432383
157	0x3db660c7	0.089051776
158	0xbc3a14cd	-0.011357498
159	0x3bcf33ac	0.0063232984
160	0x3da92520	0.08259034
161	0x3d8a6ac4	0.06758645
162	0xbc929eae	-0.01789793
163	0x3d93ced0	0.07217181
164	0xbce9342f	-0.028467266
165	0xbc211928	-0.009832658
166	0x3d48cba3	0.049022328
167	0xbaf59a74	-0.0018738047
168	0xbd7f53b5	-0.06233569
169	0x3db0c611	0.08631528
170	0x3db0a742	0.08625652
171	0x3daab949	0.083361216
172	0x3d432bb2	0.047649093
173	0x3d95946d	0.073037006
174	0x3d8e4965	0.06947593
175	0xbcf1f130	-0.029533952
176	0xbcd64c45	-0.026159415
177	0x3d43cb81	0.0478015
178	0x3d49f71f	0.04930794
179	0x3c9b63e4	0.01896853
180	0xbd8f1b02	-0.06987573
181	0xbd93a9fe	-0.07210158
182	0xbd60119a	-0.054704286
183	0x3d421f61	0.047393207
184	0xbc9aa34f	-0.0188767
185	0x3d176e20	0.036970258
186	0xbd4672ef	-0.048449453
187	0x3c95e756	0.018298786
188	0xbcdeeb36	-0.027211767
189	0xbd1d9be1	-0.038478736
190	0xbafe09d6	-0.0019381593
191	0xbc93a21d	-0.018021638
192	0x3d76033e	0.060061686
193	0x3dad84b2	0.08472575
194	0x3d4f9555	0.050679523
195	0x3c55286f	0.013010128
196	0x3d1dfc69	0.038570795
197	0xbd0dba1f	-0.034601327
198	0x3d65162f	0.05592936
199	0x3d826d1e	0.06368469
200	0xbca4b1ea	-0.020104367
201	0x3d5df2be	0.054186575
202	0x3d2fab4c	0.04288797
203	0xbc35acd8	-0.011088572
204	0x3d10bd73	0.035336923
205	0x3d98f7b4	0.074691206
206	0xbd436491	-0.04770333
207	0xbcff5c2f	-0.031171886
208	0xbd14a36e	-0.03628867
209	0x3c82ef15	0.015983144
210	0xbbd66b3a	-0.006543544
211	0x3d349f4e	0.044097237
212	0xbd885cfa	-0.06658359
213	0xbc7e6da4	-0.01552907
214	0x3d151b4a	0.036402978
215	0x3ccbe5e4	0.024889894
216	0x3d617578	0.055043668
217	0x3d249955	0.04018529
218	0x3d18d577	0.03731295
219	0xbd1e3d41	-0.038632635
220	0xbd61689f	-0.055031415
221	0xbd5613cb	-0.05226497
222	0x3c9d4b8d	0.019201064
223	0xbba4ab1a	-0.0050252797
224	0xbd766ab0	-0.06016034
225	0xbd2428b1	-0.04007787
226	0x3d78593b	0.06063197
227	0x3c2ba652	0.010476666
228	0x3d51af4a	0.05119256
229	0xbd3629d8	-0.0444735
230	0x3da02246	0.07819037
231	0xbbf9f0b6	-0.007627572
232	0x3da438fe	0.08018683
233	0x3d56ab78	0.05240962
234	0x3d954399	0.07288284
235	0x3d6b892e	0.05750387
236	0xbd2bd82d	-0.04195421
237	0x3c22ba3b	0.009932096
238	0xbd800fa7	-0.062529854
239	0x3d8233c3	0.06357529
240	0xbd4ac967	-0.04950848
241	0xbd1d5af6	-0.038416825
242	0x3cb12889	0.021625774
243	0x3d443600	0.04790306
244	0x3c0dd6c0	0.008657157
245	0x3d75531c	0.059893712
246	0xbd560206	-0.052248023
247	0xbcab321f	-0.020897923
248	0xbbf4d943	-0.0074721887
249	0xbd07496b	-0.033029
250	0xbce159d1	-0.027508648
251	0x3d4b6ace	0.049662404
252	0x3d96ac1d	0.07357047
253	0x3ced12c4	0.028939612
254	0xbcafa9d9	-0.021443294
255	0xbc80896a	-0.015690524

tree_conv.3.weights.weight f4 [128, 256, 3]
0	0x3e1a2afe	0.15055463
1	0x3e5da2c0	0.21644115
2	0xbd9100de	-0.070802435
3	0xbf57e040	-0.84326553
4	0xbe91a157	-0.28443405
5	0xbf06b773	-0.5262367
6	0xbf7b070a	-0.98057616
7	0xbedd1039	-0.4317644
8	0xbee9fd28	-0.45700955
9	0x3e07351b	0.13203852
10	0xbed6279e	-0.418271
11	0xbf1aad96	-0.6042112
12	0x3e324541	0.17409231
13	0x3f3c68a3	0.7359716
14	0xbe835a90	-0.2565503
15	0xbf3e2397	-0.74273056
16	0xbd17bcad	-0.03704517
17	0xbe7813e7	-0.24226342
18	0x3e5577ff	0.20846556
19	0xbee70fc4	-0.45129216
20	0xbf1d9dd2	-0.6156894
21	0xbf4de718	-0.80430746
22	0xbe9cf5c0	-0.30656242
23	0xbf89c36e	-1.0762765
24	0xbed5a852	-0.4172998
25	0xbe85a9ed	-0.26106206
26	0xbdf117a4	-0.11772087
27	0xbe96cff7	-0.2945554
28	0xbe87dd7c	-0.26536167
29	0xbe6717f4	-0.22567731
30	0xbd889f6e	-0.06671034
31	0xbeb4e486	-0.353306
32	0xbf2a2417	-0.6646132
33	0x3e103b64	0.14085156
34	0xbe5e39fa	-0.21701804
35	0xbecb4bd4	-0.3970629
36	0xbf853ddf	-1.0409507
37	0x3f8069b3	1.0032257
38	0xbec4a1b5	-0.38404623
39	0x3e660863	0.22464137
40	0xbe456d3c	-0.19279951
41	0xbdcc7201	-0.09982682
42	0x3e9dbe50	0.3080926
43	0x3e522d1b	0.20525019
44	0x3e6b6310	0.22987008
45	0xbea63d48	-0.3246863
46	0x3f3deadd	0.741865
47	0x3d85dd0b	0.06536301
48	0x3e00a3f6	0.12562546
49	0xbecf28c4	-0.4046079
50	0xbedfbf7b	-0.43700776
51	0x3dae7fd5	0.08520476
52	0x3ed3472c	0.41265237
53	0xbdffc726	-0.124891564
54	0xbf368622	-0.7129842
55	0xbd48abad	-0.048991848
56	0xbfa2fd1c	-1.2733493
57	0xbef3174f	-0.4747872
58	0x3da18c69	0.07888109
59	0xbda2de3a	-0.079525426
60	0x3d5be880	0.053688526
61	0xbea39993	-0.31953105
62	0xbf28ab0a	-0.65885985
63	0xbe61e06d	-0.22058268
64	0xbf0f6278	-0.56009626
65	0xbec2fc87	-0.38083288
66	0xbf3da35b	-0.74077386
67	0xbeb58260	-0.3545103
68	0xbf02bf0c	-0.51072764
69	0x3daff2f7	0.08591264
70	0xbea80394	-0.3281523
71	0xbf05aa6d	-0.52213174
72	0xbf6805cf	-0.90633863
73	0xbef6b735	-0.4818665
74	0xbf19c04b	-0.6005904
75	0xbe17b5ff	-0.1481552
76	0xbe867e2d	-0.2626814
77	0xbd4950b5	-0.049149234
78	0x3e01516d	0.12628718
79	0x3e86807c	0.262699
80	0xbe65eb2f	-0.22452997
81	0xbd3d93e6	-0.046283625
82	0xbe32f1d9	-0.1747507
83	0xbeb353ab	-0.3502477
84	0x3df6fd1d	0.12059996
85	0x3ed10b1f	0.40828797
86	0xbdfd97c9	-0.12382466
87	0x3d383f61	0.044982318
88	0x3ed86364	0.4226333
89	0xbe7814b1	-0.24226643
90	0xbcaeb194	-0.02132491
91	0x3e76e2ca	0.2410995
92	0xbdb862b8	-0.09003204
93	0xbe4bf919	-0.19919242
94	0xbf00e663	-0.5035154
95	0x3c67e16a	0.014152864
96	0xbedefc64	-0.43551934
97	0x3f629e5c	0.8852289
98	0xbd92c30b	-0.07166108
99	0xbe9aabe4	-0.30209267
100	0xbd886273	-0.06659403
101	0xbe37acf7	-0.17937075
102	0xbf5ab16d	-0.8542698
103	0x3dbf67f8	0.09346002
104	0xbf722d40	-0.94600296
105	0xbe2d1d7d	-0.1690578
106	0xbec4ae07	-0.38414022
107	0xbe010804	-0.12600714
108	0xbe3bdfe4	-0.18347126
109	0xbdbbcc19	-0.09169788
110	0xbe0e03bc	-0.13868612
111	0x3d66b4bd	0.05632471
112	0xbf412c50	-0.7545824
113	0x3d5b36ec	0.053519174
114	0x3dc610a9	0.096711464
115	0xbea626bc	-0.32451427
116	0xbeaf05da	-0.34184152
117	0xbe011ff1	-0.12609841
118	0xbe6199a5	-0.22031267
119	0xbe8e0a21	-0.27742103
120	0x3e71db54	0.23618823
121	0xbf04dd09	-0.5189977
122	0xbf3528f7	-0.7076563
123	0xbe53749c	-0.20649952
124	0x3f13e2c1	0.57767874
125	0xbc995c8b	-0.018720886
126	0xbd880028	-0.06640655
127	0xbd9fde24	-0.07806042
128	0xbe40090c	-0.18753451
129	0xbd3d257d	-0.04617833
130	0xbe608b4e	-0.2192814
131	0xbe114c06	-0.14189157
132	0x3f295f94	0.66161466
133	0x3d147f2c	0.036254093
134	0xbeecfa04	-0.46284497
135	0xbe942a2b	-0.28938422
136	0xbd54cad5	-0.05195125
137	0xbe9ebe51	-0.31004575
138	0xbe9bd17a	-0.30433255
139	0xbeef9a96	-0.46797627
140	0xbe8caaf7	-0.27474186
141	0x3eb9a13a	0.3625582
142	0xbf16d134	-0.5891297
143	0xbf64b61a	-0.89340365
144	0xbf97cbaf	-1.1859034
145	0x3e44e42a	0.19227663
146	0xbf1006e5	-0.5626052
147	0xbde2da35	-0.11076776
148	0xbecc26f7	-0.39873478
149	0xbebe3ae0	-0.37154293
150	0x3d9ddd92	0.07708277
151	0x3f597cba	0.8495594
152	0xbe2c6b3e	-0.16837785
153	0xbd86d1e3	-0.065830015
154	0xbe3e903a	-0.18609706
155	0xbe8d0aa4	-0.2754718
156	0x3f1371e3	0.5759565
157	0xbdd1a358	-0.102362335
158	0xbeeef526	-0.46671408
159	0xbe1b5c2e	-0.15171883
160	0xbe34ae94	-0.17644721
161	0xbda6ea45	-0.08150152
162	0xbfbaf202	-1.4605105
163	0x3f8345b2	1.0255644
164	0xbed8953a	-0.4230135
165	0xbd936e3d	-0.07198761
166	0x3f26c052	0.6513721
167	0x3e66d353	0.22541551
168	0x3de42800	0.11140442
169	0xbea434af	-0.32071444
170	0xbef0a0e6	-0.46997756
171	0xbebe610b	-0.37183413
172	0x3e029385	0.12751587
173	0xbdf583f2	-0.11988057
174	0xbf2747fb	-0.6534421
175	0x3e325cf7	0.17418276
176	0xbe3bfebc	-0.18358892
177	0x3e3841b9	0.17993821
178	0xbeb9fb80	-0.36324692
179	0xbee74356	-0.4516856
180	0xbe0dc603	-0.13845067
181	0xbf089933	-0.53358763
182	0xbcfa25e3	-0.030535644
183	0x3df2446b	0.11829456
184	0xbe865dc4	-0.26243412
185	0xbf66de41	-0.9018288
186	0x3ebf6ca0	0.37387562
187	0xbf0bf97c	-0.5467756
188	0xbdd9df26	-0.10638265
189	0xbf9c1090	-1.2192554
190	0xbe1abd57	-0.1511129
191	0xbee4286d	-0.44562092
192	0xbcf232c2	-0.029565219
193	0xbe55d0ba	-0.20880404
194	0xbea032d2	-0.31288773
195	0x3dc80e98	0.097684085
196	0xbe817e10	-0.2529149
197	0xbea28990	-0.31745577
198	0x3dc2ec66	0.09517746
199	0xbed496cc	-0.415213
200	0xbebbc64d	-0.3667473
201	0x3da7d00a	0.08193977
202	0xbba2f688	-0.0049732365
203	0xbf76f348	-0.9646497
204	0x3f233098	0.63746023
205	0xbe928667	-0.28618166
206	0xbf23d1ac	-0.6399181
207	0x3e0ace2e	0.13555214
208	0xbe5fdf8a	-0.21862617
209	0xbee81e87	-0.4533579
210	0xbe056c28	-0.1302954
211	0x3e387655	0.1801389
212	0xbcd4c38c	-0.02597215
213	0x3e769ece	0.24084017
214	0xbefe0510	-0.49613237
215	0xbf616aa9	-0.88053375
216	0xbe3a8111	-0.18213297
217	0xbe31a7fb	-0.17349236
218	0xbbf0cd08	-0.0073486604
219	0x3e8e3cfd	0.27780905
220	0x3d634e3b	0.05549453
221	0x3e08af65	0.13348158
222	0xbd76bdb1	-0.060239498
223	0xbe372a8f	-0.17887329
224	0xbe842b0b	-0.2581409
225	0xbf295cdd	-0.66157323
226	0xbdcbe03c	-0.09954879
227	0xbe98d561	-0.29850295
228	0x3e55f884	0.20895582
229	0xbe5e46e1	-0.21706726
230	0xbe8fca47	-0.28084013
231	0xbdc7f0bd	-0.09762714
232	0xbe89e5eb	-0.26933226
233	0xbea0384a	-0.31292945
234	0x3d691997	0.05690917
235	0xbeb11d71	-0.34592775
236	0xbebc9012	-0.36828667
237	0xbf2f36f2	-0.68443215
238	0x3ea0b0b8	0.31384826
239	0xbe53af45	-0.20672329
240	0xbf44ed3f	-0.7692451
241	0x3d91a52b	0.071115814
242	0xbeb48bf3	-0.35263023
243	0x3ed5f30c	0.41786993
244	0xbe866e68	-0.26256108
245	0xbe71b215	-0.23603089
246	0xbd2cd64b	-0.042196553
247	0x3f29db11	0.66349894
248	0x3d2e8193	0.04260404
249	0x3d1820ea	0.037140764
250	0xbe8d0548	-0.27543092
251	0xbec8a39e	-0.3918733
252	0x3e1701d1	0.14746787
253	0x3efd19ef	0.49433848
254	0xbe0d85cc	-0.1382057
255	0x3e506858	0.20352304

tree_conv.3.weights.bias f4 [128]
0	0x3ff1dd4d	1.8895661
1	0x40a9f15d	5.3107133
2	0x4083959b	4.1120124
3	0x409752f8	4.728878
4	0x403dcf0f	2.9657629
5	0x403d5125	2.9580777
6	0x40931cb9	4.597256
7	0x3fd6cb9d	1.6780888
8	0x404e8118	3.2266293
9	0x3ff8c904	1.9436345
10	0x407d75ee	3.9603229
11	0x3f58ed87	0.8473744
12	0x408e92d3	4.455423
13	0x3fc75e65	1.5575682
14	0x3fe3e02c	1.7802787
15	0x4050381a	3.2534242
16	0x4011f7c7	2.2807481
17	0x407be448	3.9358082
18	0x3f07940c	0.52960277
19	0x4084ddfa	4.1520967
20	0x3e586124	0.21130806
21	0xbe924776	-0.28570145
22	0x3fe256c0	1.7682724
23	0x4076ca73	3.8561065
24	0x407fea0f	3.9986608
25	0x40831584	4.0963764
26	0x4042c6af	3.0433767
27	0x3fcf383d	1.6189038
28	0x400cbf97	2.1991937
29	0x3fea40d1	1.830103
30	0x40a2b4aa	5.0845537
31	0x4013cfaf	2.309551
32	0x3fe7767a	1.8083031
33	0x401c9b7e	2.4469905
34	0x40962467	4.6919436
35	0x40436a0e	3.053348
36	0x3fcd2d1f	1.6029395
37	0x4002c942	2.0435338
38	0x3f94a5ad	1.161306
39	0x3fec800f	1.847658
40	0xbf01cfba	-0.5070759
41	0x4039adde	2.901237
42	0x3f1f1c06	0.62152135
43	0x407ae56b	3.9202526
44	0x400262c3	2.037278
45	0x3edcbc0f	0.43112227
46	0x404a21ab	3.158305
47	0x401ba114	2.4317064
48	0x3fb31ca8	1.399312
49	0x4041b420	3.026619
50	0x3ef22734	0.47295535
51	0x3fdbb949	1.716592
52	0x3fd3b88a	1.6540692
53	0xbf48bf49	-0.7841688
54	0x3f850f45	1.0395285
55	0x3fcef879	1.6169578
56	0x4022738b	2.5383022
57	0x3f59a0d7	0.8501105
58	0x404273c1	3.038315
59	0x3f8f5370	1.1197338
60	0x402d25b0	2.7054253
61	0x405abbf0	3.4177208
62	0x40213ffb	2.51953
63	0x40034974	2.0513582
64	0x3fcac780	1.5842133
65	0x40878eca	4.2361803
66	0x3e32a9d8	0.17447603
67	0x4038cb8c	2.8874235
68	0x40609077	3.5088174
69	0x401871eb	2.381953
70	0x403b4561	2.9261096
71	0x403acfb4	2.9189272
72	0x3ff6d41b	1.928348
73	0x4005ae56	2.0887656
74	0x404fc063	3.2461174
75	0x3fe85004	1.8149419
76	0x400402ea	2.0626779
77	0x3f44f110	0.7693033
78	0x3fa3afa7	1.278798
79	0x3fa37544	1.2770162
80	0x3fba369d	1.4547917
81	0x403a7e72	2.9139676
82	0x4028eedd	2.639579
83	0x40108196	2.2579093
84	0x3fb1469e	1.3849676
85	0x401e82ba	2.476729
86	0x4007f576	2.1243567
87	0x402972a2	2.6476216
88	0x3fb48d74	1.4105668
89	0x3fc04aed	1.5022866
90	0x3fb2ad5f	1.3959159
91	0x4099e99e	4.8097677
92	0x407d1bbd	3.954818
93	0x4088f909	4.2804
94	0x3f3d640c	0.73980784
95	0x409a58f3	4.823358
96	0x3fa327cd	1.2746521
97	0x3f6f1751	0.93394953
98	0x3fc8dcec	1.569242
99	0x3e7f400f	0.2492678
100	0x3f37b81a	0.7176529
101	0x4018a216	2.384893
102	0x40802c2e	4.005393
103	0x401b1f57	2.4237878
104	0x3f94c214	1.1621728
105	0x3f3c192c	0.7347591
106	0x3fc1fb16	1.515475
107	0x3ffd2774	1.9777665
108	0x3f2d34d3	0.6765873
109	0x3fb23bb4	1.392447
110	0x40117216	2.2725883
111	0x4066ba5e	3.605125
112	0x403ece9a	2.98136
113	0x3f8a3383	1.079697
114	0x4060feb2	3.5155454
115	0x401cc43c	2.4494772
116	0x3f65d19d	0.8977297
117	0x404b31ec	3.174922
118	0x40377ab6	2.8668647
119	0x406f5e04	3.7401133
120	0x3f8aee17	1.0853909
121	0x407852cb	3.8800533
122	0x401c77f6	2.4448218
123	0x4053fdb2	3.3123593
124	0x3f4e7c6b	0.80658597
125	0x403c85e5	2.9456723
126	0x403ed763	2.9818962
127	0x3fef52ff	1.8697203

tree_conv.6.weights.weight f4 [64, 128, 3]
0	0x3f7e441c	0.99322677
1	0x3e73d6ed	0.23812456
2	0xbe99ede5	-0.30064312
3	0xbe571897	-0.21005474
4	0x3dc9c752	0.098524705
5	0xbe96d4df	-0.29459283
6	0xbe82b7a0	-0.2553072
7	0xbe214150	-0.15747571
8	0xbe98671b	-0.29766163
9	0x3dec3234	0.11533013
10	0x3e571a4d	0.21006127
11	0x3e405244	0.18781382
12	0x3ee807bd	0.45318404
13	0xbf3fe5ee	-0.7496022
14	0x3f17122f	0.5901212
15	0xbe7560cf	-0.23962711
16	0x3f6d8858	0.9278617
17	0xbe88f9f1	-0.2675319
18	0x3e1b8433	0.15187149
19	0xbec8a1f9	-0.39186075
20	0x3e7c004b	0.24609487
21	0xbd4d9e32	-0.050199695
22	0x3f011147	0.5041699
23	0xbe202db3	-0.15642433
24	0x3f7c33e8	0.985167
25	0xbf68739d	-0.9080141
26	0x3ebb20bb	0.3654841
27	0xbf82a61d	-1.0206944
28	0xbecceb0e	-0.40023082
29	0xbf148714	-0.5801861
30	0xbef1fe87	-0.472645
31	0xbece3f38	-0.40282607
32	0xbecf74d2	-0.40518814
33	0xbf80668f	-1.0031298
34	0xbf0d41b0	-0.55178356
35	0x3f3a1995	0.72695285
36	0x3f8b9286	1.090409
37	0x3f342527	0.7036919
38	0xbe729073	-0.23687916
39	0xbf74b0f5	-0.95582515
40	0xbee85fa1	-0.4538546
41	0xbeaa829b	-0.3330277
42	0xbf50b318	-0.81523275
43	0xbdaebff6	-0.085327074
44	0x3f25de2e	0.64792144
45	0x3e459ae3	0.19297366
46	0xbf8e1008	-1.1098642
47	0x3f07d03c	0.53052115
48	0x3e636f08	0.22210324
49	0xbf78cb66	-0.9718536
50	0xbea73e31	-0.32664636
51	0x3f39e66e	0.7261723
52	0xbc8abd27	-0.016935898
53	0x3df6d158	0.12051648
54	0xbfaaf4e3	-1.3355983
55	0xbea5ae46	-0.32359523
56	0x3f488975	0.7833474
57	0xbeeb7129	-0.45984772
58	0xbeccbf5b	-0.39989743
59	0x3e244bc2	0.16044524
60	0xbe88ad96	-0.26694936
61	0xbe549396	-0.20759425
62	0x3e374266	0.17896423
63	0xbe0c9829	-0.1372992
64	0xbd85fb29	-0.065420456
65	0x3ebe35b6	0.37150353
66	0xbeeb1a4a	-0.45918494
67	0xbfac0bb5	-1.3441073
68	0xbf0ada09	-0.54238945
69	0xbde575f6	-0.1120414
70	0xbf2defc6	-0.6794399
71	0xbe63a641	-0.2223139
72	0x3f4879dd	0.7831095
73	0x3d2aea1d	0.041727174
74	0x3e3bb51d	0.18330808
75	0x3e992d0b	0.29917178
76	0x3f3af35b	0.7302758
77	0x3f3164ff	0.6929473
78	0x3f111618	0.5667434
79	0x3ebbac34	0.36654818
80	0xbee07daf	-0.4384589
81	0xbe3864f3	-0.18007259
82	0xbf274207	-0.65335125
83	0x3e99138a	0.2989772
84	0x3f300dfd	0.68771344
85	0x3f2e3a66	0.6805786
86	0x3fabfd2d	1.3436638
87	0x3e2fe032	0.17175367
88	0x3e0f66cf	0.14004062
89	0x3e9f9e11	0.31175283
90	0xbe4583f7	-0.19288622
91	0xbe23a5fa	-0.15981284
92	0xbeda3aa6	-0.4262287
93	0x3f44aff1	0.76830965
94	0x3d165705	0.036704082
95	0xbf05bdaf	-0.5224256
96	0x3f90b7ba	1.1306069
97	0x3ef9f622	0.48820597
98	0x3e64fd3b	0.22362225
99	0x3e7f529d	0.24933858
100	0x3e331272	0.17487505
101	0xbeac141a	-0.33609086
102	0xbe091eae	-0.1339061
103	0xbdb8c811	-0.09022535
104	0xbe8fe0fa	-0.2810133
105	0x3e23f094	0.16009742
106	0x3f2683c2	0.65044796
107	0x3d585bee	0.052822046
108	0x3e3fc22c	0.18726414
109	0xbd52c41e	-0.051456563
110	0x3e953f95	0.29150072
111	0x3f269013	0.6506359
112	0x3e484be8	0.19560206
113	0xbdc778ec	-0.09739861
114	0x3c309ffe	0.010780333
115	0xbda06d75	-0.07833377
116	0x3eb5480f	0.3540654
117	0xbf803f04	-1.0019231
118	0xbde7ae69	-0.11312563
119	0xbe65924d	-0.2241909
120	0xbeb13b5a	-0.34615594
121	0xbf03fd04	-0.51557946
122	0x3e9cb110	0.30603838
123	0xbf15b9d3	-0.5848667
124	0xbeb0b9e9	-0.34516838
125	0x3d04a36e	0.03238242
126	0xbec18bb6	-0.37801903
127	0x3dbb6494	0.09150043
128	0x3ec1864d	0.37797776
129	0xbe939af6	-0.28829163
130	0xbf262328	-0.64897394
131	0x3e90c1bc	0.28272808
132	0x3d87bedb	0.066282
133	0x3e314dfc	0.17314905
134	0x3eadb9f7	0.33930942
135	0xbe0325b1	-0.12807347
136	0x3cba42f3	0.022737002
137	0x3e5bcf51	0.21465804
138	0x3e73623c	0.23767942
139	0x3e414269	0.1887299
140	0xbe4612fb	-0.19343178
141	0xbc892b8d	-0.0167444
142	0xbf370642	-0.71493924
143	0x3d2805e4	0.041021243
144	0xbe0de486	-0.13856706
145	0xbe938cd8	-0.28818393
146	0x3e777e66	0.24169311
147	0x3ec10799	0.3770111
148	0x3dbe3cee	0.09288965
149	0x3e693f08	0.22777951
150	0xbeb54d41	-0.35410503
151	0xbebddb79	-0.37081507
152	0x3ef352c8	0.47524095
153	0xbd78a592	-0.060704775
154	0x3f2550c0	0.6457634
155	0xbec94d42	-0.39316756
156	0x3b7b79b4	0.0038372101
157	0xbe2bd8fb	-0.1678199
158	0x3ed8a434	0.42312777
159	0xbec4ae28	-0.3841412
160	0xbea1c1b1	-0.31593087
161	0xbe8e5e18	-0.27806163
162	0xbe469fe2	-0.19396928
163	0x3de22a7c	0.110432595
164	0x3e83e05a	0.25757104
165	0xbf5e7d36	-0.86909807
166	0x3ee93212	0.45546013
167	0xbdd791f6	-0.10525887
168	0x3edc7ddf	0.43064782
169	0xbe4ca1c2	-0.1998358
170	0x3fb997b6	1.4499424
171	0xbef47814	-0.47747862
172	0xbe359312	-0.17731884
173	0xbf452a0c	-0.77017283
174	0x3f25bff3	0.64746016
175	0xbed35fb2	-0.41283947
176	0xbeedc3e1	-0.46438506
177	0xbd3a2736	-0.04544755
178	0xbf4097ff	-0.7523193
179	0xbef625e5	-0.48075786
180	0x3f08bbe4	0.534117
181	0xbec91274	-0.3927189
182	0xb99a38e0	-0.00029415544
183	0xbe8efe27	-0.27928278
184	0x3d812da9	0.06307537
185	0xbe63775f	-0.22213505
186	0x3f81da80	1.0144806
187	0x3f10a606	0.5650333
188	0xbf0cb9f8	-0.54971266
189	0x3f80a8c7	1.0051507
190	0x3ee9dd4f	0.45676658
191	0x3deae308	0.11469084
192	0xbdd9ddff	-0.106380455
193	0xbec046dc	-0.3755406
194	0x3ed7f468	0.42178655
195	0x3ebafb1b	0.36519703
196	0xbdcf5e6a	-0.1012543
197	0x3de72378	0.11286062
198	0xbfefb988	-1.8728495
199	0xbd97d4c7	-0.07413631
200	0x3f4f413b	0.8095891
201	0x3e58dfa5	0.21179064
202	0x3d652498	0.0559431
203	0x3e5b9228	0.21442473
204	0x3ea7d674	0.32780802
205	0xbebf4c71	-0.37363008
206	0x3ddf03be	0.10889386
207	0x3f781208	0.96902514
208	0xbdfd5708	-0.123701155
209	0x3ec4722b	0.38368353
210	0x3eb00e2f	0.3438582
211	0xbcce557c	-0.025187247
212	0x3d14ab88	0.036296397
213	0x3e8c1c9c	0.27365577
214	0xbf3e519a	-0.74343264
215	0x3d0385d7	0.03211006
216	0x3f312662	0.6919919
217	0x3df7675f	0.12080263
218	0xbec67861	-0.38763717
219	0xbe5ab321	-0.21357395
220	0x3e164ba0	0.14677286
221	0xbe3c9f40	-0.18420124
222	0xbebba84f	-0.36651847
223	0xbf1d5925	-0.6146415
224	0xbe753822	-0.23947194
225	0x3e5542e0	0.20826292
226	0xbeacb02b	-0.33728155
227	0x3ede3cfa	0.43405896
228	0x3f35d0f1	0.71021944
229	0xbf0c5cd4	-0.54829144
230	0x3e703838	0.23458946
231	0xbed46d75	-0.4148976
232	0xbf682809	-0.9068609
233	0x3f1756b7	0.5911669
234	0x3e909e91	0.28245977
235	0x3f4ae017	0.79248184
236	0xbc53874a	-0.012910673
237	0x3e8884d2	0.26663834
238	0xbd14bd03	-0.036313068
239	0x3e8a32da	0.26991922
240	0x3e3c2cc1	0.18376447
241	0xbf811e6a	-1.0087407
242	0x3d50d84d	0.05098753
243	0x3c97ea3d	0.01854431
244	0xbea1f0bd	-0.3162898
245	0x3efc3794	0.49261153
246	0xbe7e84dd	-0.24855371
247	0x3f31759c	0.6932008
248	0xbea7274b	-0.32647166
249	0x3e9d3f4e	0.3071236
250	0xbef7fbfb	-0.48434433
251	0xbe7d44d9	-0.24733295
252	0x3e28b7ae	0.16476318
253	0xbda8335c	-0.08212921
254	0xbdb9d4b8	-0.09073776
255	0xbeecd3aa	-0.46255237

tree_conv.6.weights.bias f4 [64]
0	0xbd3c8eb0	-0.046034515
1	0x3df17c47	0.11791282
2	0x3ef80b12	0.48445946
3	0x3f2f9ff6	0.68603456
4	0x3f05c647	0.5225567
5	0xbd398255	-0.04529031
6	0x3eaea717	0.34111854
7	0x3c028950	0.007967308
8	0x3ea1f1f2	0.31629902
9	0x3dbdb818	0.09263629
10	0x3f78599e	0.97011745
11	0x3f2e895c	0.68178344
12	0x3f589bbc	0.8461263
13	0x3f8f8eb4	1.1215425
14	0x3fb94a77	1.447585
15	0x3f85609b	1.0420107
16	0x3ec02da1	0.37534812
17	0x3f9b70d0	1.2143803
18	0xbe4f331b	-0.20234339
19	0x3f836666	1.0265625
20	0xbcd62d2f	-0.026144592
21	0x3f7b8749	0.98253304
22	0x3fafc2cf	1.3731326
23	0x3efc1860	0.49237347
24	0x3ea90a16	0.33015507
25	0x3e528639	0.20559014
26	0xbf0ccac6	-0.5499691
27	0x3ba342b0	0.004982315
28	0x3e334a0c	0.17508715
29	0xbf3b085f	-0.7305965
30	0x3f67de68	0.9057374
31	0xbee20be2	-0.4414969
32	0xbe99b10d	-0.30017892
33	0x3f88d6e2	1.0690577
34	0x3f79d7e7	0.97595066
35	0x3f34302f	0.7038602
36	0x3e7a8817	0.24465977
37	0x3fee94e2	1.8639185
38	0xbc99c25e	-0.01876944
39	0x3e4a1f16	0.19738421
40	0xbda91099	-0.08255119
41	0x3d97d5b8	0.074138105
42	0x3f25b6ba	0.64731944
43	0xbf9836be	-1.1891706
44	0x3b0c07a6	0.0021366864
45	0x3ee952c2	0.45570952
46	0xbf4ab2ae	-0.79178894
47	0x3eafbe0d	0.34324685
48	0x3efbc57a	0.491741
49	0xbe53fdd1	-0.20702292
50	0x3f9249b3	1.1428741
51	0x3f830921	1.0237161
52	0x3ea2dc02	0.31808478
53	0x3e7cc036	0.24682698
54	0x3dc7a00e	0.09747325
55	0x3ee8865d	0.4541501
56	0x3ee75169	0.451793
57	0x3ec820b6	0.39087456
58	0xbe1dd9ec	-0.15415162
59	0xbf36c9d6	-0.7140173
60	0x3fea709c	1.8315616
61	0x3ed57d1a	0.41697007
62	0x3fbbadac	1.4662375
63	0x3ff83d67	1.9393739

tree_conv.9.weight f4 [64]
0	0x3f671b0f	0.90275663
1	0x3f47a4bf	0.7798576
2	0x3f96fd92	1.1796134
3	0x402eaea6	2.7294097
4	0x3fa65bf3	1.2996811
5	0x3f1a0950	0.6017046
6	0x3f824aa6	1.0179031
7	0x3f718997	0.9435057
8	0x3f64b21d	0.8933428
9	0x3eadd297	0.3394973
10	0x3f840b6f	1.0315989
11	0x3fad324d	1.3530976
12	0x3fa8bff0	1.3183575
13	0x3faa99dd	1.3328205
14	0x3f83a037	1.0283269
15	0x3fd4e98e	1.6633775
16	0x3f24df12	0.6440288
17	0x3ffe8051	1.9882909
18	0x3fbd46a1	1.4787179
19	0xbd2d2e3f	-0.04228043
20	0x3f910004	1.132813
21	0x3f9a3856	1.2048442
22	0x3e8b7d3e	0.2724399
23	0x3f11ad2a	0.5690485
24	0x3fad427a	1.3535912
25	0x3faad9ca	1.3347714
26	0x3f99459f	1.1974372
27	0x3dec3ed2	0.115354195
28	0x3f6137db	0.87975854
29	0x3fa0bd71	1.2557813
30	0x3f289d9c	0.6586549
31	0x3f14243c	0.5786779
32	0x3fb51766	1.4147766
33	0x3f8df193	1.1089348
34	0x3f8aef8a	1.0854352
35	0x3e7f7f15	0.24950822
36	0x3f353eda	0.7079903
37	0x3fc8b8ab	1.5681356
38	0x3f5c1faa	0.85985816
39	0x3f2485a3	0.64266413
40	0x3f98ec2f	1.1947078
41	0x3f53ad71	0.82686526
42	0x3bc9fec3	0.006164403
43	0x3fb87069	1.4409305
44	0x3f5b5898	0.8568206
45	0xbca29b61	-0.019849481
46	0x3fa2ac17	1.2708768
47	0x3e9c0d8c	0.30479085
48	0x3fb4517d	1.4087368
49	0x40093f74	2.1444979
50	0x3d574583	0.052556526
51	0x3f8c9b51	1.0984899
52	0x3f998a52	1.1995337
53	0xbbb0e5cd	-0.005398488
54	0x3f6d81cd	0.92776185
55	0x3f885cbc	1.06533
56	0x3f144200	0.5791321
57	0x3f83a19a	1.0283692
58	0x3f6f021f	0.9336261
59	0x3f87e8fd	1.0617977
60	0x3f2f3ec4	0.6845515
61	0x3e89ac53	0.26889285
62	0x3fbf2e1d	1.4935948
63	0x3fad0f3d	1.3520275

tree_conv.9.bias f4 [64]
0	0xbec9c53e	-0.39408296
1	0x3ee941e3	0.4555808
2	0x3f02690d	0.50941545
3	0x3f128ca6	0.5724586
4	0x3dd29bcb	0.102836214
5	0x3ce4944a	0.027902741
6	0x3e76990d	0.24081822
7	0xbeb7d0cc	-0.35901487
8	0x3f121bd9	0.5707374
9	0xbbc84961	-0.006112263
10	0x3f1ad7d2	0.60485566
11	0x3ed88ea2	0.4229632
12	0xbe01eedb	-0.12688772
13	0x3c9a831c	0.018861346
14	0xbf52fa7f	-0.82413477
15	0x3f1710ea	0.59010184
16	0xbd4d5b64	-0.050135985
17	0x3f3b4ce5	0.73164207
18	0x3e020f1a	0.12701073
19	0x3d151bec	0.03640358
20	0xbe85286d	-0.26007405
21	0x3d5110d7	0.05104145
22	0xbe8ab259	-0.27089193
23	0xbefd8785	-0.49517456
24	0x3daea4b5	0.08527509
25	0x3e9b89ed	0.30378667
26	0xbbe80aab	-0.00708135
27	0xbe00018d	-0.12500592
28	0xbd02a49f	-0.031895276
29	0x3e5b3e53	0.21410494
30	0xbd3d3553	-0.046193432
31	0xba58754a	-0.00082572235
32	0xbe80d952	-0.25165802
33	0x3ec96d1f	0.39341065
34	0xbcb804b0	-0.022463173
35	0xbe27947a	-0.16365233
36	0xbe36015a	-0.17773953
37	0x3ecde2ea	0.40212184
38	0x3f1d3ff9	0.6142574
39	0xbe9b7c86	-0.3036844
40	0x3e0d999c	0.13828129
41	0xbd84b1ce	-0.06479226
42	0x3b88f9ec	0.0041801836
43	0x3df617b4	0.1201624
44	0x3e71fa81	0.23630716
45	0x3d17a495	0.037022192
46	0xbe552052	-0.2081311
47	0x3de6c51b	0.11268064
48	0xbdd3e144	-0.103457004
49	0x3f555508	0.8333287
50	0x3c41b1f4	0.0118222125
51	0x3eaad586	0.3336603
52	0x3da20d6a	0.07912715
53	0xbd8120fc	-0.063051194
54	0x3eca20c6	0.3947813
55	0x3e68feb0	0.22753406
56	0x3e0bc89e	0.13650748
57	0xbef6de0b	-0.4821628
58	0xbdd681bf	-0.10473966
59	0xbeb8ee38	-0.36119246
60	0xbf798018	-0.9746108
61	0x3dd99fc8	0.10626179
62	0x3e28bfc6	0.16479406
63	0xbda01045	-0.07815603

tree_conv.9.running_mean f4 [64]
0	0x400f8559	2.242514
1	0x3f127981	0.5721665
2	0x3fc79d8f	1.5594958
3	0x3f084e64	0.53244615
4	0x3f747561	0.95491606
5	0x3ef88d84	0.48545468
6	0x3fcfe4a9	1.6241657
7	0x3f56f9e1	0.83975035
8	0x3ff5d3c5	1.9205252
9	0x3f807c7d	1.0037991
10	0x3f9b906c	1.2153449
11	0x3ff6eea6	1.929158
12	0x3f3d1fee	0.73876846
13	0x3fa56236	1.2920597
14	0x3ef88d84	0.48545468
15	0x3f2e2e36	0.6803926
16	0x3f936c68	1.1517458
17	0x4004dfc7	2.0761583
18	0x401a984e	2.415546
19	0x3ef88d84	0.48545468
20	0x3f9f132d	1.2427727
21	0x3f92d32d	1.1470696
22	0x3ef88d84	0.48545468
23	0x3f15ecde	0.58564556
24	0x4008a4b5	2.135053
25	0x3fb8bcfa	1.4432671
26	0x3fe0fb61	1.7576715
27	0x4027cf00	2.6220093
28	0x3fdb600d	1.7138687
29	0x3ffb4c11	1.9632589
30	0x3f4e6d89	0.8063589
31	0x401daeb8	2.463789
32	0x3f9bc47d	1.2169338
33	0x3fdded34	1.7338014
34	0x3f3bda25	0.7337974
35	0x3ef88d84	0.48545468
36	0x3fd76f1e	1.6830785
37	0x3fa08b52	1.2542517
38	0x3fd6c2a5	1.6778151
39	0x3f81b4d0	1.0133305
40	0x3ff9a2a1	1.9502755
41	0x3f6dabe6	0.9284042
42	0x3ef88d84	0.48545468
43	0x3fde27c4	1.7355886
44	0x3fbaeda5	1.4603773
45	0x3ef88d84	0.48545468
46	0x40511ac2	3.2672582
47	0x3ef88d84	0.48545468
48	0x3fd3d6e3	1.6549953
49	0x3fd2de3a	1.6474068
50	0x3ef88d84	0.48545468
51	0x3f7d3d19	0.9892135
52	0x3ffa4b84	1.9554296
53	0x3ef88d84	0.48545468
54	0x3fdb680e	1.714113
55	0x3fc5132b	1.5396475
56	0x3ef88d84	0.48545468
57	0x3fee8f5f	1.8637503
58	0x3f83c122	1.0293314
59	0x401bf5fb	2.4368885
60	0x3ef88d84	0.48545468
61	0x3f311b07	0.69181865
62	0x3fdec57f	1.7404021
63	0x3fb55be4	1.4168668

tree_conv.9.running_var f4 [64]
0	0x3ef3a034	0.47583163
1	0x3d097afa	0.033564545
2	0x3dd60cce	0.10451661
3	0x3cd37eb5	0.025817255
4	0x3d439ac9	0.047755037
5	0x392491e4	0.00015694607
6	0x3e9dc289	0.3081248
7	0x3dc43511	0.09580434
8	0x3eab6554	0.33475745
9	0x3bdc12ad	0.0067160935
10	0x3de4f442	0.11179401
11	0x3e17bbc0	0.14817715
12	0x3daef60a	0.08543022
13	0x3e06487e	0.13113591
14	0x392491e4	0.00015694607
15	0x3e107729	0.14107956
16	0x3daf7da0	0.08568883
17	0x3d934e30	0.071926475
18	0x3e1a48ee	0.15066883
19	0x392491e4	0.00015694607
20	0x3da7161f	0.08158516
21	0x3e6f8c26	0.23393306
22	0x392491e4	0.00015694607
23	0x3d038a53	0.032114338
24	0x3dd5cf75	0.1043996
25	0x3ded5ed6	0.11590354
26	0x3ee6aa59	0.4505184
27	0x3fd7037f	1.6797942
28	0x3e8fa211	0.28053334
29	0x3dade91a	0.08491726
30	0x3e119d7a	0.14220229
31	0x3f945bad	1.1590477
32	0x3e59c942	0.2126818
33	0x3ec1a412	0.37820488
34	0x3e4414bb	0.19148533
35	0x392491e4	0.00015694607
36	0x3ecc11ed	0.39857426
37	0x3ea92a34	0.3304001
38	0x3f14d2a9	0.5813394
39	0x3d54bfef	0.051940855
40	0x3e1b7ac1	0.15183546
41	0x3d2ee371	0.042697374
42	0x392491e4	0.00015694607
43	0x3e143930	0.1447494
44	0x3e5153e7	0.20442162
45	0x392491e4	0.00015694607
46	0x3de45ca3	0.111504816
47	0x392491e4	0.00015694607
48	0x3d4f8544	0.0506642
49	0x3e280c87	0.16411029
50	0x392491e4	0.00015694607
51	0x3e3179b5	0.17331584
52	0x3da72cec	0.08162865
53	0x392491e4	0.00015694607
54	0x3f38a9c5	0.7213405
55	0x3dd4666f	0.103711
56	0x392491e4	0.00015694607
57	0x3e953c25	0.2914745
58	0x3e13df1e	0.14440581
59	0x3e31b380	0.1735363
60	0x392491e4	0.00015694607
61	0x3e0f4705	0.13991936
62	0x3d991802	0.07475282
63	0x3e7aa5c6	0.244773

tree_conv.10.weight f4 [32, 64]
0	0xbc749c52	-0.014929848
1	0x3d17b217	0.037035074
2	0x3f3d3c33	0.7391998
3	0xbf1fd49d	-0.624338
4	0x3ef20abe	0.4727382
5	0xbd868aaf	-0.065694205
6	0xbcab1e20	-0.020888388
7	0xbf5a6aee	-0.8531941
8	0xbf881642	-1.0631793
9	0xbea19224	-0.3155681
10	0xbded4858	-0.11586064
11	0xbf1b4630	-0.6065397
12	0x3f637cc2	0.8886224
13	0xbdd6cde4	-0.10488489
14	0x3f3e9213	0.7444164
15	0x3deafd4d	0.114740945
16	0x3f0a2b96	0.53972757
17	0xbee44c9a	-0.44589692
18	0xbdb98e84	-0.09060386
19	0xba7899e2	-0.00094833795
20	0x3e32e3ee	0.17469761
21	0xbd90d3f6	-0.07071678
22	0x3edc6800	0.43048096
23	0xbf4a82f7	-0.79106086
24	0xbeadb227	-0.33924982
25	0x3c943d91	0.018095763
26	0xbf3f61f7	-0.7475886
27	0x3f0762da	0.5288521
28	0xbc82a219	-0.015946435
29	0x3f18c237	0.5967135
30	0x3ed0ccda	0.4078129
31	0xbe3e0671	-0.18557145
32	0xbeb4785b	-0.35248074
33	0xbf18aea1	-0.5964146
34	0x3f4e5003	0.8059084
35	0x3eec3ae5	0.46138683
36	0x3f540730	0.8282347
37	0xbf0adc66	-0.5424255
38	0xbf9e5b64	-1.237164
39	0x3eff76e7	0.49895403
40	0x3e9afcf1	0.30271104
41	0xbd2d8e4e	-0.04237204
42	0xbb435dee	-0.0029810625
43	0x3ea3a92f	0.31965014
44	0xbd4a8d4c	-0.049451157
45	0x3d1e8694	0.038702562
46	0x3f2b8b1d	0.67009145
47	0xbe86cd04	-0.2632829
48	0xbf5bfb17	-0.8593001
49	0xbef7c2d7	-0.48390839
50	0xbe0d297b	-0.13785355
51	0x3db47ab2	0.08812465
52	0x3d54e6c8	0.051977903
53	0x3ea56075	0.32300153
54	0xbf877900	-1.0583801
55	0x3d8581ac	0.065188736
56	0xbe68e9b0	-0.22745395
57	0xbed17991	-0.4091306
58	0xbe969fa2	-0.29418665
59	0x3f0d07d2	0.5509006
60	0x3f4841d1	0.7822543
61	0xbee3af98	-0.44469905
62	0x3de76c62	0.11299969
63	0x3ec302a2	0.38087946
64	0x3e96d1c5	0.29456916
65	0x3f386e29	0.7204309
66	0x3f208e1f	0.6271686
67	0xbd0a5ca5	-0.03377976
68	0x3f3c0752	0.7344867
69	0x3e8d5c29	0.27609375
70	0xbe209f3c	-0.15685743
71	0x3d2c8680	0.042120457
72	0xbf854ed0	-1.0414677
73	0xbed2dbf5	-0.4118344
74	0xbf177424	-0.5916159
75	0xbf45d83a	-0.7728306
76	0x3f8df066	1.1088989
77	0xbf44431f	-0.7666492
78	0x3edc0219	0.4297035
79	0x3f31b3ea	0.6941515
80	0x3f580449	0.8438154
81	0x3eb6ac05	0.35678115
82	0xbf3fa4d2	-0.7486087
83	0x3d0b65bd	0.034032572
84	0xbf2de9fe	-0.6793517
85	0x3f038917	0.5138106
86	0x3efd3615	0.49455324
87	0x3ef6c8ad	0.48199978
88	0xbf63f748	-0.89049196
89	0xbdd40f0e	-0.10354434
90	0xbeab24b8	-0.33426452
91	0x3e7ec995	0.24881585
92	0xbeba8c1c	-0.3643502
93	0x3ebdf81a	0.3710335
94	0xbccdadb5	-0.025107244
95	0xbe7bfdbe	-0.24608514
96	0x3d09e9d4	0.03367026
97	0xbf11957f	-0.5686874
98	0x3f153dcf	0.5829744
99	0x3d9f875f	0.07789492
100	0xbe060b6d	-0.13090296
101	0xbf21ea59	-0.6324821
102	0xbf5bdd3e	-0.85884464
103	0x3f423959	0.75868756
104	0x3f6d4b7a	0.92693293
105	0x3b5c7b57	0.0033642852
106	0xbd7f12e6	-0.062273882
107	0x3cbf24eb	0.023333034
108	0xbddd28ff	-0.10798835
109	0xbdcb98cc	-0.09941253
110	0x3ecd1c3b	0.400606
111	0xbda1247d	-0.07868288
112	0xbf670873	-0.9024727
113	0x3dd8c585	0.10584549
114	0x3dee688f	0.11641037
115	0xbe878648	-0.26469636
116	0xbf158945	-0.5841258
117	0x3e408c76	0.18803582
118	0xbf9e70dd	-1.2378193
119	0xbd3915ae	-0.04518669
120	0xbe536a2a	-0.20645967
121	0x3e27e154	0.1639455
122	0xbf1f3355	-0.621877
123	0x3ea19e40	0.31566048
124	0x3f184b6a	0.5949007
125	0x3e80419e	0.25050062
126	0xbf4621c1	-0.77395254
127	0x3f50831f	0.81450075
128	0x3ee7596f	0.4518542
129	0xbeb77f80	-0.35839462
130	0xbf85e51e	-1.0460546
131	0xbf92376d	-1.1423165
132	0xbef2f387	-0.47451422
133	0xbeaf7e9e	-0.3427629
134	0x3df75e7d	0.12078569
135	0x3e3b1681	0.18270303
136	0x3cb9d8c5	0.022686372
137	0x3e45ed64	0.19328839
138	0x3f0af546	0.5428051
139	0x3ed0f10d	0.40808907
140	0xbf07a5a7	-0.5298714
141	0x3f8138d4	1.0095468
142	0x3e5f7bf7	0.21824633
143	0xbf9684a0	-1.1759224
144	0xbefa2e46	-0.4886343
145	0x3e6b91f3	0.23004894
146	0x3f18aa93	0.59635276
147	0xbd2b308b	-0.04179434
148	0x3f711bce	0.9418305
149	0xbf587561	-0.84554106
150	0x3d880567	0.066416554
151	0x3e019cd8	0.12657487
152	0x3e921511	0.28531697
153	0xbf5227b0	-0.8209181
154	0x3eff65ee	0.49882454
155	0x3e12730c	0.143017
156	0x3f1ed6fd	0.62046796
157	0xbf6718fd	-0.90272504
158	0x3ed0c06a	0.407718
159	0x3ec84a45	0.39119163
160	0x3ef992c5	0.4874479
161	0xbf1a4836	-0.60266435
162	0xbdae0646	-0.0849729
163	0x3d35d2ac	0.044390365
164	0x3e84704c	0.25866926
165	0x3dba6710	0.09101689
166	0x3e8c4fd0	0.27404642
167	0xbe40f2ff	-0.18842696
168	0xbe769b12	-0.24082592
169	0x3f083a27	0.53213733
170	0x3d7edf0a	0.062224425
171	0xbeab6f65	-0.33483425
172	0xbf55a7c2	-0.83459103
173	0x3afca3fa	0.0019274943
174	0xbf30d80b	-0.69079655
175	0xbe82063b	-0.25395378
176	0x3dd70feb	0.10501083
177	0xbfaeb129	-1.3647815
178	0x3c5c4d65	0.013446187
179	0xbf145a82	-0.57950604
180	0x3f5fec83	0.87470263
181	0x3e15894b	0.14603154
182	0x3ebfc976	0.3745839
183	0xbe9e7213	-0.30946407
184	0xbda16daf	-0.078822486
185	0xbec496cf	-0.38396308
186	0x3ec39d58	0.3820598
187	0xbe415aac	-0.18882245
188	0x3effed95	0.49985948
189	0x3e984299	0.2973831
190	0x3ebd9cb6	0.37033623
191	0xbe9f9cae	-0.31174225
192	0x3d71cc49	0.059032712
193	0x3e8aaf24	0.27086747
194	0x3e2fe90c	0.17178744
195	0xc0715176	-3.770597
196	0x3e0434ee	0.12910816
197	0xbe396cf3	-0.18107967
198	0x3e473cc9	0.19456781
199	0xbe288c56	-0.16459784
200	0xbec1d5f2	-0.3785854
201	0xbee9f761	-0.45696548
202	0x3e7be441	0.2459879
203	0x3ed555d9	0.4166706
204	0x3ec6d74a	0.38836128
205	0xbe39a2e2	-0.18128541
206	0x3e906741	0.28203776
207	0x3e4629c8	0.19351876
208	0x3f36e084	0.71436334
209	0x3f38a133	0.7212097
210	0x3e7d3634	0.24727708
211	0xbe198aea	-0.14994398
212	0x3e4c1a70	0.1993196
213	0xbe523caf	-0.20530961
214	0x3e56d4fe	0.20979688
215	0xbe1bf935	-0.15231784
216	0xbe094e39	-0.13408746
217	0x3e71ce30	0.2361381
218	0xbef99025	-0.48742786
219	0x3d322e3a	0.043501116
220	0xbd12ad01	-0.03580952
221	0xbda244ac	-0.07923254
222	0x3e320785	0.17385681
223	0xbe825c01	-0.25460818
224	0xbf0a8de9	-0.5412279
225	0xbf36c3b9	-0.713924
226	0x3e4d046d	0.2002122
227	0x3c25e533	0.010125446
228	0x3ee0e240	0.43922615
229	0xbd89f4f2	-0.06736173
230	0xbe0fe775	-0.14053138
231	0x3bb66676	0.0055664135
232	0xbdf215f9	-0.11820597
233	0xbed1b5f9	-0.40959147
234	0x3d135624	0.035970822
235	0x3e4e2aef	0.20133565
236	0xbe446c4b	-0.19181935
237	0x3ca49250	0.020089298
238	0x3e31b0ba	0.17352572
239	0xbee55eee	-0.44798988
240	0xbe5c2b6b	-0.21500938
241	0xbf9079e5	-1.1287199
242	0xbe6759b0	-0.22592807
243	0x3bcf069e	0.0063179275
244	0xbdf44528	-0.11927253
245	0x3e5f0f5f	0.21783207
246	0xbe96de34	-0.29466403
247	0xbdc45f5b	-0.095885
248	0x3e95b596	0.29240102
249	0xbebe3eb9	-0.3715723
250	0xbe0e2158	-0.13879907
251	0xbe42342e	-0.18965217
252	0x3ef42113	0.47681484
253	0x3e3c46a0	0.18386316
254	0x3e99a352	0.30007416
255	0x3e3526c1	0.17690565

tree_conv.10.bias f4 [32]
0	0xbf9ce2d0	-1.2256718
1	0xbfb5055b	-1.4142259
2	0xbe8ec023	-0.27880964
3	0xbf337341	-0.7009774
4	0xbf2783a0	-0.6543522
5	0xbead9a79	-0.33906916
6	0xbf2e6c33	-0.6813385
7	0xbf87d690	-1.0612354
8	0xbf628f9f	-0.885004
9	0xbfcdb264	-1.6070065
10	0x3da7c70e	0.081922635
11	0xbfd7ca40	-1.6858597
12	0xbf464240	-0.7744484
13	0xbf3afc28	-0.7304101
14	0xbfa12cb2	-1.2591765
15	0xbdf5342d	-0.11972842
16	0x3e4d9875	0.20077689
17	0xbf03a040	-0.514164
18	0xbf8abf61	-1.0839654
19	0xbf3efde1	-0.7460614
20	0xbead6c01	-0.33871463
21	0x3e419287	0.18903552
22	0xbf712ce3	-0.94209117
23	0xbee86af3	-0.45394096
24	0xbf873a45	-1.0564657
25	0xbd65e5ac	-0.056127235
26	0xbe55886e	-0.20852825
27	0xbea73a61	-0.32661727
28	0xbf2f8968	-0.6856904
29	0x3d665fcd	0.056243706
30	0xbf06c86f	-0.5264959
31	0xbd36f00c	-0.04466252

tree_conv.13.weight f4 [1, 32]
0	0xbee785d3	-0.45219287
1	0xbefd3b2d	-0.4945921
2	0xbedbd204	-0.42933667
3	0xbe3a56f6	-0.18197235
4	0xbea7a740	-0.3274479
5	0x3eaa42a9	0.33253983
6	0x3e8c783d	0.27435485
7	0xbef1a52f	-0.47196338
8	0xbe8f8166	-0.2802841
9	0xbf097f58	-0.53709936
10	0x3ea65fe7	0.32495043
11	0xbf0a49c0	-0.54018784
12	0x3f2158e6	0.63026273
13	0xbf216d64	-0.6305754
14	0x3eef5ae5	0.46749035
15	0xbe8e93a7	-0.27847025
16	0x3e57c224	0.21070153
17	0xbf1624f3	-0.5865013
18	0xbf11ffa2	-0.5703069
19	0xbe7f870e	-0.24953863
20	0xbeb2e705	-0.3494188
21	0x3e460431	0.19337536
22	0x3e868bac	0.26278436
23	0xbe8aa515	-0.27079073
24	0xbea28add	-0.3174657
25	0x3ea3a2b9	0.31960085
26	0xbebe2f5e	-0.37145513
27	0x3e834d73	0.25645027
28	0x3e42d79e	0.19027564
29	0x3e611647	0.21981154
30	0x3ec4f6f2	0.38469654
31	0x3edbd8d2	0.42938858
