src/Models/pairwise.onnx (onnx, 702290 bytes, 13 tensors)

tree_conv.0.weights.weight f4 [256, 50, 3]
000000 ea 60 81 3d 6f 31 59 bc a6 94 e1 3c 5d 41 20 bd
       0.06317313 -0.013256415 0.027536701 -0.039124835
000010 40 0d a1 bd e3 f5 6a bd 2a 83 5d bb 78 0c 08 bd
       -0.07863855 -0.057363402 -0.0033800104 -0.033215016
000020 29 5d 11 bd 1e d7 7d bd 0f 5e 4a 3d 96 49 77 3d
       -0.035489235 -0.06197273 0.049406108 0.06037291
000030 74 09 3a bd ee 0f 88 bc 65 a5 80 bd 40 22 3e 3d
       -0.04541917 -0.016609158 -0.062815465 0.046419382
000040 dd bd 03 3d 5f fb cd bc c0 e3 00 bd dd 51 4b 3d
       0.03216349 -0.025144277 -0.0314672 0.049638618
000050 9e d9 b2 bc 9d 51 9a bd ac ff 3d 3d ac aa 53 bd
       -0.021832284 -0.07535098 0.046386406 -0.051676437
000060 d2 82 04 bb 15 d7 b8 3c ad ae 5c 3d bd 86 7a bd
       -0.0020219577 0.022563497 0.05387752 -0.061163653
000070 2c f4 16 3c 2a de 92 3d 2d 87 68 3c aa bd d1 3c
       0.009213489 0.07171281 0.014192385 0.025603134
000080 1e 30 0c bd c6 4a 79 bd f0 bb 5e bd 13 ad 35 3d
       -0.034225576 -0.060862325 -0.05437845 0.04435451
000090 13 93 74 bd ab fd 98 3c b2 1c 69 3d ee 18 0a bd
       -0.059710573 0.018675646 0.05691213 -0.03371518
0000a0 da ce 8a 3d 32 56 86 bd ca 39 9b bc 27 94 43 3d
       0.06777735 -0.06559409 -0.018948454 0.04774871
0000b0 15 53 a5 bc b2 6a 6b 3d 4c b7 44 3d 44 39 9a 3d
       -0.020181218 0.0574748 0.048026368 0.07530454
0000c0 da 6e a2 bd 42 7e 4b 3d da 40 20 bd a8 6e 99 3d
       -0.079312995 0.049680956 -0.039124347 0.07491809
0000d0 be 06 f2 3c 44 7e a1 3c 16 02 8e 3d 1a d0 ff ba
       0.02954423 0.019713528 0.069339916 -0.0019516975
0000e0 32 9a 10 3c 00 cb 16 bd 25 4b 19 3d 69 ce 20 bd
       0.0088258255 -0.03681469 0.03742518 -0.039259348
0000f0 6b 71 8f 3d 5b 49 88 bd c7 76 76 bb 42 fb 89 3c
       0.07004055 -0.066546164 -0.0037607418 0.016843442
000100 09 92 5b 3d bc 84 bb 3c 55 76 78 3d 60 bd 3e 3d
       0.053606067 0.022890441 0.060659725 0.04656732
000110 7d 03 84 bc 7e aa 9f bc 38 1b 77 bd 3e aa 75 3c
       -0.016114945 -0.019490477 -0.060328692 0.014994202
000120 92 65 3e bd cc d3 04 3d c5 2c 87 3d 65 aa 7d bd
       -0.046483584 0.032428548 0.06600336 -0.06193008
000130 bb 95 71 bd 86 76 90 3d a7 98 1a bd c7 45 b4 3b
       -0.058980685 0.070538566 -0.037743237 0.005501482
000140 21 3b 9f 3d d7 0f 7d 3d 30 1b 3e bd 9a 01 3a bd
       0.0777495 0.061782684 -0.046412647 -0.045411684
000150 13 c1 52 3c f4 9b 2d bd 0a eb 8e bd 49 f4 4f 3d
       0.012863415 -0.042385057 -0.06978424 0.050770078
000160 e0 a2 a5 3c 94 28 23 bd cd 92 e4 bb 3f 2d 74 3d
       0.020219266 -0.03983362 -0.006975508 0.059613463
000170 8d 07 53 bd be 3b 45 bc e2 27 4f bd dc c8 2d 3d
       -0.051520873 -0.012038169 -0.050575145 0.042427883
000180 9a e4 5d bd ce 3b ae 3c 8a 1f d1 3c 8e 71 a8 bc
       -0.05417309 0.021268751 0.025527734 -0.02056196
000190 40 82 1b 3b 0b 18 ee bc e1 e6 a2 bd 6b 5a e7 bc
       0.0023728758 -0.029064199 -0.07954193 -0.028241357
0001a0 09 8a 7f bd 6f e0 8d bd 35 2c 40 b9 92 17 c5 ba
       -0.0623875 -0.06927573 -0.00018327015 -0.0015036932
0001b0 95 30 85 bd b9 e9 a8 bc de 2b 31 bd 17 21 78 bd
       -0.06503407 -0.02061926 -0.043254726 -0.060578432
0001c0 54 56 fa bc 75 85 a0 3d a7 68 df bc bf 59 ee 3c
       -0.030558743 0.07837955 -0.027271582 0.029095529
0001d0 bd db 3d 3d c4 11 82 3d 6e 26 a7 bd cb 87 5e 3d
       0.046352137 0.06351045 -0.08161627 0.05432872
0001e0 11 42 d3 bc ad 0c 99 3d d2 e9 9d bd 71 99 47 bd
       -0.025788339 0.07473121 -0.07710613 -0.048730318
0001f0 01 3f d0 bc 89 10 44 3c 84 2f ef bc 40 5a 99 3d
       -0.025420668 0.011966833 -0.029197462 0.07487917
000200 51 86 06 3d bf e4 a1 3d 44 c4 90 bd 5c 82 0c bd
       0.032842938 0.07904958 -0.07068685 -0.034304008
000210 26 77 8e bc 95 a5 4f bd 2d a6 2c 3d 37 a2 d8 3c
       -0.017390799 -0.05069502 0.042150665 0.026444538
000220 80 fc 2e bc be 38 20 3d ac 16 ae 3c 43 c9 52 3d
       -0.010680318 0.039116614 0.021251045 0.05146147
000230 1b 04 a7 bd 05 a0 82 3b 2d 8c 8c 3d ed cb a3 bd
       -0.0815508 0.003986361 0.06862674 -0.0799788
000240 54 20 9c bc ce da 28 3d 9d 33 71 3d 2f 9d 59 3d
       -0.019058384 0.041224293 0.058887113 0.053128418
000250 a9 44 86 3d a6 14 9a 3c 64 a2 08 3c 21 45 50 3d
       0.06556065 0.018808674 0.008339498 0.050847176
000260 ce 91 27 3d 7e 41 92 3c f0 e1 cd bc 12 48 2a bd
       0.040910535 0.017853495 -0.02513215 -0.041572638
000270 e8 29 87 3d 64 6a ce 3b fe 71 6e bd 44 ec 91 3d
       0.0659979 0.006299304 -0.05821418 0.07125142
000280 a0 3d d9 3c 36 77 32 3d c7 c4 9a 3d a2 81 1c bd
       0.026518643 0.04357072 0.075570635 -0.038209565
000290 39 8c 82 bd 85 95 ee 3c 9b 76 85 3c 12 aa 52 bd
       -0.063744016 0.02912403 0.016291907 -0.051431723
0002a0 9f 89 7c 3d 2f 6a 8f bd d6 b0 5f 3d 3f 22 6e bd
       0.061654683 -0.07002675 0.054612003 -0.05813813
0002b0 9c a8 63 bd ce 32 bd bc be 75 81 3c e3 26 a7 bd
       -0.05558072 -0.023095515 0.015803214 -0.08161714
0002c0 fc 9a 3b bb cb bf 91 3c a1 42 37 bd 04 58 61 bd
       -0.0028626313 0.01779165 -0.044741277 -0.05501558
0002d0 0d d7 49 bb 16 51 71 bc 19 08 0b bd b8 f2 7f bd
       -0.0030798346 -0.014728805 -0.03394327 -0.062487334
0002e0 01 f1 96 bd 49 83 5a bd 10 73 04 bc 36 2f 27 bd
       -0.073701866 -0.05334786 -0.008084074 -0.04081651
0002f0 aa cd 58 3d 8e f3 9a 3d 5e e2 5e 3d 12 d9 5b bc
       0.05293051 0.075659856 0.0544151 -0.013418453
000300 55 ed dc bb ae a8 13 bd 5a 7d f3 3c bc 7b a2 bd
       -0.0067421594 -0.036049537 0.029722858 -0.07933757
000310 55 2d 69 3d 48 49 8b 3d 68 1c 70 bd aa dd 8b b8
       0.056927998 0.06801087 -0.05862084 -6.669325e-05
000320 e1 c5 86 b9 c6 12 9c bb d6 dd 19 3d 1f 25 97 3b
       -0.00025705903 -0.00476298 0.037565075 0.0046125795
000330 56 6b 58 3d 75 cc 92 3d d6 29 38 3b 25 db 19 3d
       0.05283674 0.07167903 0.0028101108 0.037562508
000340 ce 47 14 bd 27 db 8d 3d 92 5d 24 bd ca a9 2c 3d
       -0.03620129 0.069265656 -0.040128298 0.04215411
000350 97 ac 25 3c 21 e9 92 3d be c4 9a bd 9e 3d 93 bd
       0.010111949 0.07173372 -0.07557057 -0.07189487
000360 6e 45 c1 bc 6b 6b 83 bd 85 be d0 bc 98 be 02 3d
       -0.023592677 -0.06416973 -0.025481472 0.031920046
000370 35 4c 95 3c 60 74 92 3d 86 24 90 bc ef 46 67 3d
       0.018224815 0.07151103 -0.01759554 0.056464132
000380 f4 65 70 3d e7 59 86 3d c4 c7 23 3d d6 7c 7e 3d
       0.05869098 0.06560116 0.039985433 0.06213077
000390 e7 79 a4 3d 47 07 92 bd 54 e7 ec bb c7 88 8f 3c
       0.080310635 -0.07130294 -0.007229725 0.017521275
0003a0 82 eb 12 bd 70 4c 8a bd 89 d8 9f bd e2 45 9c 3b
       -0.03586913 -0.067528605 -0.07804973 0.004769073
0003b0 93 aa 09 bd 10 92 95 bd 3d 3b 97 3d 74 1e fb 3b
       -0.033609938 -0.0730325 0.07384346 0.0076635424
0003c0 db 84 83 bd d2 c0 4d bd 98 3a 50 bd dc 83 7e 3c
       -0.064218245 -0.050232716 -0.05083713 0.015534367
0003d0 89 db 0e 3d 1b 63 94 bd ca c4 77 3d 7f f8 0d bd
       0.034877334 -0.07245465 0.060490407 -0.034660812
0003e0 d9 1f c1 3a 9a 4d 75 bd 88 d5 91 bc ad 57 18 bc
       0.0014734223 -0.05988846 -0.017802015 -0.009298247
0003f0 2a e1 8c 3d 46 a2 2e 3d 67 0c a6 bd 31 c6 95 bb
       0.06878884 0.042635225 -0.08107834 -0.0045707454

tree_conv.0.weights.bias f4 [256]
000000 44 21 6a 3d c1 94 32 ba df 8d 9d bc 5b 6c 6e bd
       0.05716063 -0.0006812327 -0.019232688 -0.058208805
000010 b9 f1 96 3d f5 25 dc 3c ef 26 1f 3d 6c 3b 8e 3d
       0.07370324 0.026873568 0.03885549 0.069449276
000020 6c d3 a9 bc ce 32 97 bd 55 75 30 bd af 8c c3 3a
       -0.020730697 -0.07382737 -0.043080647 0.0014919246
000030 3a 79 a6 bd ff fe 8c 3d c9 3d 51 3d 1b 3f 9f 3d
       -0.08128591 0.06884574 0.051084314 0.07775708
000040 aa 05 c2 ba 55 82 e3 3c d0 b2 95 bd 23 d9 3c 3d
       -0.0014802713 0.027772108 -0.073094964 0.046105515
000050 85 51 8e bd 1f 37 a6 bc ea 43 a0 3d 67 41 09 bd
       -0.06949142 -0.020289956 0.078254536 -0.03350964
000060 d6 53 7e bd f0 58 92 bd 60 20 01 bd 26 ac 6f bd
       -0.06209167 -0.0714587 -0.031525016 -0.058513783
000070 20 68 7a 3d 82 38 37 bb 16 fc 19 3d ae 87 65 3d
       0.061134458 -0.0027957265 0.037593924 0.056037597
000080 ea 8d 4e bc ff 31 f0 3c ad 57 4e bd 30 91 01 3c
       -0.012607077 0.029320715 -0.050376583 0.007908151
000090 ff 43 a4 3d 8d d2 36 bc 7f dc 93 3d 3e 2b 0b bd
       0.08020782 -0.011158598 0.07219791 -0.033976786
0000a0 18 95 64 3a b5 78 de bc 00 f4 85 3c 16 95 92 3d
       0.00087197265 -0.027157167 0.0163517 0.07157342
0000b0 7b a9 23 3d d0 8c 2a bd 27 12 f0 39 9d ad 01 3d
       0.03995655 -0.041638196 0.00045789892 0.03165971
0000c0 9f 91 a1 bd dc 39 de bc 2f 42 8e 3d 80 d3 51 bd
       -0.07889103 -0.027127199 0.06946217 -0.051227093
0000d0 f7 4f b9 3c b9 f8 8c bd 84 c9 09 bd 28 73 2b 3d
       0.022621138 -0.068833776 -0.033639446 0.04185787
0000e0 c1 5a 38 bd 6e 34 04 3d f6 d8 62 3b 6d 2d a4 3d
       -0.045008425 0.032276563 0.0034614182 0.08016477
0000f0 8d 92 65 3d b8 55 9e bd 3d 90 df 3c ef 3b 1e bd
       0.056047965 -0.07731193 0.027290458 -0.038631376
000100 98 68 8a bc 9a 25 1c bd e0 c9 0f 3d 51 50 07 3d
       -0.016895577 -0.038121797 0.035104632 0.03303558
000110 e3 cb 71 bd 45 56 68 3d fd a2 77 bc 99 90 36 3d
       -0.059032332 0.056722898 -0.015114543 0.044571493
000120 04 c5 5e 3d 52 02 73 bc 5a 9c b8 ba ba 8c 40 3c
       0.054387107 -0.014832096 -0.0014084682 0.011752302
000130 92 6e 82 bd ea 4f 5b bb ee 09 e4 bc 64 5a 49 bd
       -0.06368746 -0.003346438 -0.027836766 -0.04915847
000140 96 47 16 3d f0 66 41 3c 2c a4 03 bd ff a6 96 bb
       0.036689363 0.011804327 -0.03213899 -0.004597544
000150 b4 c2 4e 3d e2 a3 db 3b 70 93 9c 3d 5c c7 3b bd
       0.050478652 0.006702886 0.07645309 -0.04584442
000160 7c b5 08 bd ef de 39 3d a6 0e a7 bc 72 ab 56 bd
       -0.033376202 0.04537862 -0.020392727 -0.052409597
000170 47 51 67 3d 5a 70 fe 3c d1 96 88 bd b7 cc 9c bc
       0.056473996 0.031059433 -0.06669391 -0.019140584
000180 fb b5 9c 3d bb d1 e4 3c 1e 7a 4c 3d a8 2c 34 3d
       0.076518975 0.027932039 0.049921148 0.0439879
000190 b1 2c 75 bd ec 6c 46 bc d0 e1 6a 3d 69 62 94 3d
       -0.059857074 -0.01211093 0.057344258 0.07245333
0001a0 5c 9d 33 bd de ab 9d bd 81 8a 9c bd 34 68 71 3d
       -0.04385124 -0.07698797 -0.07643605 0.058937266
0001b0 56 c4 59 bb 1f 4a 5a bd 29 bb 53 3c a2 45 a8 39
       -0.0033228598 -0.053293344 0.01292304 0.00032095338
0001c0 f2 6f f9 b9 72 8a 2c bd fc de 76 3c 35 49 38 3c
       -0.00047576387 -0.04212422 0.015067812 0.011247923
0001d0 8a 6b 2b bd 68 59 22 3d 63 00 d3 3b b4 55 4f 3d
       -0.041850604 0.039636046 0.006439255 0.050618842
0001e0 f8 a9 98 3d 7f a4 70 bd a4 27 99 3d 03 b4 9e bd
       0.07454294 -0.058750626 0.07478264 -0.07749178
0001f0 28 0f cf 3b 61 19 9e bd 82 5a 58 3b 42 d6 13 3c
       0.0063189454 -0.077196844 0.0033012931 0.009023251
000200 1a 9a 5a bd e8 d5 6f bd 50 a7 45 3d 32 e2 57 3d
       -0.05336962 -0.058553606 0.048255265 0.05270595
000210 3f 91 a3 bd 50 24 fb 3a 38 6c 5b 3c 5b 67 a5 3d
       -0.07986688 0.0019160602 0.013392501 0.08076354
000220 2e 87 c4 3c 04 e2 2a 3d 4c 6e 64 bd 0f e2 94 3d
       0.02399024 0.04171945 -0.05576925 0.0726968
000230 8e 4b 1c 3d 4a 00 af 3c ff c0 96 3d 06 89 2e 3b
       0.038157992 0.021362443 0.0736103 0.0026631965
000240 a5 eb 52 3d e2 69 db 3c 9b 9e 08 3d da dd 06 bd
       0.05149426 0.026783887 0.033354383 -0.032926418
000250 62 c7 8d bd 65 22 5e 3b 21 74 5e 3d b5 f6 40 3d
       -0.06922795 0.0033895012 0.054309968 0.04711028
000260 09 cb 91 bc e5 da 09 3d 5e 61 18 3d e7 7d 70 bd
       -0.01779701 0.03365602 0.03720223 -0.05871382
000270 4b 5c 55 3d f9 ee 8b 3d 16 5a ff 3b f2 ec 58 3d
       0.05208997 0.0683269 0.0077927215 0.052960344
000280 10 70 a2 3d da 4f af 3c a2 e0 f9 3b 90 20 7b 3d
       0.079315305 0.02140038 0.0076256553 0.06131035
000290 3d 92 89 3c 0d b7 58 bb c9 76 4d 3c c6 49 1c bd
       0.016793365 -0.003306809 0.012540528 -0.038156293
0002a0 97 02 ea 3c e3 46 c9 39 09 44 63 bc f9 54 55 bd
       0.028565688 0.00038390522 -0.013871201 -0.05208299
0002b0 a1 35 3b 3d 9d bd 4f bd 84 17 48 3d 77 50 4e bc
       0.04570544 -0.05071794 0.04885055 -0.0125924265
0002c0 87 dd 95 3d d1 56 04 3d 81 dc de 3c cf 8d 8f bd
       0.073176436 0.032309357 0.027204754 -0.0700947
0002d0 85 f0 a4 3d a3 1f d3 3c fe 31 25 bd 37 f7 5b bd
       0.08053688 0.025771922 -0.04033088 -0.05370256
0002e0 80 0a 68 bd fb 72 1b 3d 4b 2c 7c 3d 6f d7 3e 3d
       -0.05665064 0.03795145 0.06156568 0.046592172
0002f0 8b 1c 3d 3d 46 48 3d 3d ac fd 76 bd ff 4d 81 bd
       0.0461698 0.046211503 -0.060300514 -0.06313705
000300 38 91 cd bc 52 43 8b 3d 65 1b f0 bc e0 7a 41 3d
       -0.02509366 0.0679995 -0.029309938 0.047236323
000310 e2 28 55 bc 69 70 2f bb 12 62 76 bc 05 f1 e1 3c
       -0.0130102355 -0.0026769883 -0.01503803 0.027580747
000320 8a 75 4d ba fd ab 62 3b 27 98 6f bd 14 b5 37 3d
       -0.0007837644 0.0034587376 -0.058494713 0.044850424
000330 7b 10 d3 bc 84 17 26 bc 54 5c 0e bd 6f 0b cb 3b
       -0.025764694 -0.0101374425 -0.03475602 0.0061964313
000340 df d1 95 bd 30 25 47 3d 82 93 54 3d 07 99 2c bd
       -0.0731542 0.04861945 0.051898487 -0.042138126
000350 fd ec 7a 3d 42 27 5f bd 02 9d 41 3d ce 15 5c 3c
       0.061261166 -0.0544808 0.047268875 0.013432933
000360 1a 9b f5 3c d8 b6 7f 3d a7 3e 5c bc a5 39 a1 bd
       0.029981185 0.062430233 -0.013442672 -0.07872323
000370 07 f2 3c 3d 04 d0 90 3d 6a 79 67 bd 6e 1d 37 3d
       0.046129253 0.07070926 -0.056512274 0.0447058
000380 ca 78 51 bd c0 67 f7 bc 47 76 7c 3d a6 94 12 bd
       -0.051140584 -0.030200839 0.061636236 -0.035786293
000390 e8 69 20 bc 11 0b 0f bd 8c 81 03 3c 40 7c cb bc
       -0.009790875 -0.034922663 0.008026492 -0.02483952
0003a0 93 cc 9d bd 8a a9 8c bd 2d 7e b0 3c 25 4e 69 3c
       -0.07705035 -0.068682745 0.02154454 0.0142398225
0003b0 62 5a 55 3d 83 17 17 3d 7b 1a 5d bd fb 5f a1 3d
       0.05208815 0.036887657 -0.053980332 0.07879635
0003c0 50 e6 71 3d ea da 03 bd 56 bd 58 bd 82 49 68 3d
       0.059057534 -0.032191195 -0.05291494 0.056710728
0003d0 2f d4 27 3d ac ef d5 3c 39 69 47 3d e3 2d 63 3c
       0.04097384 0.026115261 0.048684333 0.013865921
0003e0 11 72 4d 3d 80 90 b3 3c 7d 7a 7b bd dd d9 47 bd
       0.05015761 0.021919489 -0.06139611 -0.048791755
0003f0 5c 15 17 bc ad dd 7f bc 35 9f 33 bd 4e d7 30 3d
       -0.009221401 -0.0156168165 -0.043853004 0.04317408

tree_conv.3.weights.weight f4 [128, 256, 3]
000000 b8 9d 08 bc a3 74 37 ba 75 b4 53 3c fe 43 87 b8
       -0.008338384 -0.0006998276 0.012921442 -6.449966e-05
000010 41 f0 d6 3c 2f 08 ad bc 07 31 93 3c f1 06 d4 bb
       0.026237609 -0.021122066 0.017967714 -0.006470554
000020 7c f2 84 3c fe 4a 30 3c d8 39 9d bc 96 b1 2b bb
       0.016228907 0.010760067 -0.019192621 -0.0026198379
000030 c3 fc 03 bc 74 98 fe ba fd 0f 80 3c 98 26 00 bd
       -0.008055869 -0.0019424097 0.015632624 -0.031286806
000040 51 3e a8 bc 86 39 80 bc 45 16 47 3b 36 f0 0a 3d
       -0.020537527 -0.01565243 0.0030378264 0.03392049
000050 0c ba 01 bd 95 f0 d5 3c 1a a5 48 bc cd c8 08 bd
       -0.03167157 0.026115695 -0.0122463945 -0.033394624
000060 ad 13 bd bc ed 22 cb 3c c7 08 11 3d bc c0 ae 3c
       -0.023080671 0.024796927 0.03540876 0.021332137
000070 42 e0 2e 3c d1 25 4a 3c 98 0f 57 bc 46 46 93 bc
       0.010673584 0.012338118 -0.013126276 -0.017977845
000080 b6 ae 1b 3b d2 a4 9c 3c dc a9 b8 3c 09 e8 10 3d
       0.002375526 0.019121561 0.022541933 0.035377536
000090 40 f9 47 ba e4 d4 32 3c 8d aa ea bb 5e f6 f8 3b
       -0.00076283887 0.010915015 -0.0071614445 0.0075977286
0000a0 de de f4 bc f9 0c 00 3d 9a d6 08 3d 6d 53 c9 b9
       -0.029891428 0.03126237 0.033407785 -0.00038399865
0000b0 49 6b ce bc 51 e6 0a bd 60 8c 23 bc 61 3c e1 3c
       -0.025197642 -0.033911053 -0.0099821985 0.027494611
0000c0 07 f3 18 bc 6d 58 d5 3b 08 d4 e7 ba d7 4f f4 3c
       -0.009335286 0.0065107853 -0.0017687092 0.029823227
0000d0 4a 58 4e 3b 58 ee 37 bb c0 8e a9 3c 86 98 bb 3c
       0.003148573 -0.0028065648 0.020697951 0.022899877
0000e0 28 11 12 3d 3e c0 e2 3c 61 3c bf bc 62 15 08 bd
       0.035660893 0.027679559 -0.02334422 -0.033223517
0000f0 f4 fd 52 3c b9 7e e0 bc 0d 98 1f 3c d9 da 0e 3d
       0.01287793 -0.027404176 0.009740842 0.03487668
000100 d6 92 c8 bc 8a 21 9b bc da 17 db bb ff 5a a2 bc
       -0.02448408 -0.018936891 -0.006686193 -0.019818781
000110 e6 8d 5f 3c 00 5d 92 bc 28 1f d0 bc 65 8c d7 3c
       0.013644671 -0.017866611 -0.025405481 0.026312063
000120 82 4f 2c b9 82 a4 00 bd df 2f bb 3c 19 01 04 3c
       -0.00016432817 -0.031406887 0.022849975 0.008056902
000130 3b 09 01 3d d0 3c 87 bc e7 70 f8 3c fc 22 bb 3c
       0.031502943 -0.01650849 0.030327274 0.02284383
000140 f0 63 ed bc 83 3f e9 bc 8a 2f dc 3b a1 9e 6b 3c
       -0.028978318 -0.028472668 0.0067195343 0.014381082
000150 be 45 ff bc 94 18 f6 bc 0a 70 ef bc 65 ad 8d 3c
       -0.031161185 -0.030041017 -0.02922823 0.017294595
000160 10 6e 94 bc 29 e3 b0 bc 64 62 dc bb 9a fd 85 bc
       -0.018118888 -0.021592693 -0.0067255963 -0.016356278
000170 ec 33 11 3c b2 76 08 3d c2 8a 03 bd 8c 68 74 3c
       0.008862477 0.03331632 -0.03211475 0.014917504
000180 67 8b 0e bd 4a 81 eb 3b 3f e6 3e bc fd c3 5c 3b
       -0.034800913 0.0071870433 -0.011651575 0.0033686154
000190 05 2e 5a 3c a1 f2 8b 3c ca c7 0e bc 80 ae d9 bc
       0.013316636 0.017083468 -0.008714626 -0.026572466
0001a0 61 8b cd bc 58 c0 f8 bc f5 26 d3 3c ca d4 23 bc
       -0.025090875 -0.030365154 0.025775412 -0.009999463
0001b0 b6 28 b6 bc 7d 90 85 bc 53 30 f9 ba b1 c1 96 3c
       -0.02223621 -0.016304249 -0.0019011594 0.018402906
0001c0 bb 58 23 bc b4 30 0e 3d 54 18 10 3d 78 df 25 bc
       -0.009969885 0.034714416 0.03517945 -0.01012408
0001d0 fc ac bb bb 5c 84 83 3a c3 0c a0 3b 7c 30 e0 3c
       -0.0057274085 0.0010033953 0.004884334 0.02736687
0001e0 e2 b8 6f 3c 17 53 b6 bc 58 56 3b bb c2 47 20 3b
       0.014631482 -0.022256417 -0.00285854 0.0024456833
0001f0 34 c4 98 bc 9e ea 57 3c 89 b5 a2 bc 65 72 c2 3b
       -0.018648244 0.013178496 -0.019861953 0.005934047
000200 7e 92 8e 3b ff a4 d6 3c 8e a5 08 3a 48 60 84 3b
       0.0043509593 0.026201723 0.0005212658 0.004039798
000210 95 a4 11 bd 49 af ef bc 5a 8b 61 bc 6f 84 9f 3b
       -0.03555735 -0.029258387 -0.013766134 0.0048680822
000220 da 0f b9 3c ad 5d f1 3c 96 bc b3 bc 29 45 62 3c
       0.022590566 0.029463613 -0.02194051 0.013810434
000230 2f b8 d0 3c ed 01 90 3c 5e e8 07 bd e5 68 c1 3c
       0.02547845 0.017579043 -0.033180587 0.023609588
000240 0c 42 81 bc 19 ec 79 3b 16 17 67 bc a5 a2 03 bd
       -0.015778564 0.003813511 -0.014104625 -0.03213753
000250 2f c5 0d 3d 0b 98 63 bc d0 f8 39 bb 37 98 fd 3c
       0.034611877 -0.01389123 -0.0028377064 0.03095637
000260 24 f5 51 3c ad ec ef bc 6c eb 82 ba 67 fb 4b bb
       0.012814794 -0.02928766 -0.0009988374 -0.003112519
000270 2a 8e ab 3c 93 92 a6 bc 45 88 f2 3c 92 39 8d 3c
       0.020941813 -0.020333564 0.029605994 0.017239366
000280 d2 6f 01 3d 7f 77 9f 3b d2 b8 8c 3c ec d1 e9 bc
       0.03160078 0.00486654 0.017177973 -0.028542481
000290 5b 56 12 3d 30 c2 06 3d 20 c2 ca bc 0f c2 09 3c
       0.035726886 0.032900035 -0.02475077 0.008408084
0002a0 66 b4 9c 3b 02 a9 13 bd b5 3a 58 bc 19 99 d0 bc
       0.0047822474 -0.03604985 -0.013197591 -0.025463628
0002b0 c1 83 12 bd 71 33 ab bc db 44 1d 3c ef 77 fe 3b
       -0.03577018 -0.020898553 0.009598936 0.007765762
0002c0 77 c1 07 bc 64 f9 48 3a 13 34 c5 bc 58 3b 9b 3a
       -0.008285872 0.00076665566 -0.024072682 0.0011843247
0002d0 0a 6b bf 3c 71 f3 5a 3c 51 60 0a 3d 02 f6 62 3c
       0.02336647 0.013363705 0.03378326 0.013852598
0002e0 2d 7e 0e bd 03 e1 02 3d 9e 1a fa 3b 04 c1 1d bc
       -0.0347883 0.03195287 0.0076325675 -0.009628538
0002f0 06 e0 2f 3c a0 ff a9 bb 1e 4a a4 3c 61 40 79 3c
       0.010734564 -0.0051879436 0.020054873 0.015213103
000300 d7 c8 f7 bc 30 ea 16 bb 97 17 e3 bc 88 f0 07 3d
       -0.030247135 -0.002302777 -0.02772121 0.033188373
000310 86 85 8c 3c a3 a0 5c 3c 73 6b 65 3c 20 26 04 3d
       0.017153513 0.013466033 0.014002669 0.03226292
000320 73 55 aa bc d5 b6 f2 3a e8 9b 09 3c 06 7f 89 3c
       -0.020792698 0.0018517623 0.008398987 0.016784202
000330 24 5c de 3b 2f f2 0f 3c 26 51 fe bc f9 79 d5 3c
       0.0067858864 0.008785768 -0.031044554 0.026059138
000340 dd 58 30 3c 85 1b bd bc 98 2a 01 3c fa 9a 66 3b
       0.010763374 -0.023084411 0.00788369 0.0035187588
000350 e9 75 76 3c d3 a6 90 bb 2c b0 10 bd fa 57 5f bc
       0.01504276 -0.0044144182 -0.03532426 -0.013631815
000360 63 34 f3 bc fa 28 46 38 31 6b d0 39 08 1d a6 3c
       -0.029688066 4.724504e-05 0.00039752715 0.020277515
000370 78 a2 84 3c 8f e6 ba 3b 9b 98 11 bc a1 f9 01 3d
       0.016190752 0.0057037543 -0.008886482 0.031732205
000380 09 3f 05 3d af a8 ae 3a 5f 7c 74 bc 5d 82 c5 bb
       0.032530818 0.0013325418 -0.0149222305 -0.0060275034
000390 a7 0e 9e 3c c9 fb 46 bb e9 2b 03 bd 0f 51 b1 bc
       0.019294096 -0.0030362478 -0.032024298 -0.021645097
0003a0 eb 80 f8 bc 3a 05 f4 bc ba 41 76 3c 70 b0 85 bc
       -0.03033491 -0.029787648 0.015030319 -0.016319484
0003b0 16 07 0d 3d 7d cf 20 3c 75 12 0a 3d 72 34 9b 3c
       0.034430586 0.009815094 0.03370901 0.018945906
0003c0 c9 57 ad bc 5a 3f 57 b9 e5 2e ee 3b 2a 9f 55 3c
       -0.021160023 -0.00020527598 0.007268774 0.013038436
0003d0 57 94 63 3c 65 a9 ec 3c 70 2e 4f bc 15 8a ae bb
       0.013890347 0.028889367 -0.012645349 -0.0053265193
0003e0 64 f9 53 3c ac 1c d1 3c 72 01 04 bd 63 de 01 bd
       0.012937877 0.025526367 -0.03222794 -0.031706225
0003f0 12 5b 48 bc c8 c6 9d 3b 78 e9 8c 3a 94 46 75 3c
       -0.012228744 0.0048149563 0.0010750731 0.01497044

tree_conv.3.weights.bias f4 [128]
000000 37 3a cf 3c 8f 0f 73 bc d1 9f dd 3c e0 fb 0b bd
       0.025296314 -0.014835252 0.027053745 -0.034175754
000010 35 2e 4e bc 58 1e ef 3c 0f 33 12 3d 71 b1 ce bc
       -0.012584259 0.029189274 0.035693225 -0.025231095
000020 10 ef 06 3b e1 f3 49 bc 08 a5 84 bc 6f 55 2d bc
       0.002058927 -0.012326212 -0.016191974 -0.010579451
000030 b8 13 ce bb b7 dd 50 bc 3f 2e 00 3c 23 1e c1 bc
       -0.0062889718 -0.012748173 0.007823526 -0.02357394
000040 ac 82 d0 3c 0e 18 59 bc be 1c 10 3d b2 ff 45 3c
       0.025452934 -0.013250364 0.03518366 0.012084888
000050 5f 10 91 bc 3e 33 f6 bc 79 29 a1 bb 04 6d a0 bc
       -0.017708002 -0.030053731 -0.004918274 -0.019583233
000060 cc 5b 8c 3c a2 7a 13 bd 01 d5 8e 3c 69 18 80 3c
       0.017133616 -0.036005624 0.017435553 0.01563664
000070 a8 f1 11 3d 95 4d c3 bc 9a f8 6d bc 20 46 cb 3c
       0.035630852 -0.023840705 -0.014524603 0.024813712
000080 37 47 b0 3c e2 91 0c bd fa f5 88 bc 2b 1f 55 bc
       0.021518333 -0.034318812 -0.016718853 -0.013007919
000090 04 c5 e2 bc 02 ca 32 3c 64 50 c8 bc 40 84 b1 bc
       -0.027681835 0.01091242 -0.024452396 -0.021669507
0000a0 46 a4 9b bc ed 18 0e bc c3 70 25 bc 2d 14 e7 bc
       -0.01899923 -0.008672935 -0.010097685 -0.028207863
0000b0 fe 48 2a 3c a5 c5 45 bb 2a f2 83 3c 52 8b e5 3c
       0.010393379 -0.003017762 0.016106684 0.028020535
0000c0 af 5c e0 bc 3e 16 20 bc 30 5f 9f bc c1 a0 7d 3c
       -0.027387945 -0.009770928 -0.019454569 0.015480221
0000d0 ce 87 d1 bc 1b 0b 4a 3c f8 3d dd 3c 97 1f ec 3c
       -0.025577452 0.012331749 0.027007088 0.028823657
0000e0 38 44 ea bc 36 b6 2f 3b 84 b4 df bc c2 85 04 3d
       -0.028596982 0.0026811487 -0.027307756 0.032354124
0000f0 01 35 40 3c 41 23 aa 3c ca ab e0 bc cb 9b 0a 3c
       0.011731387 0.020768763 -0.027425665 0.0084599955
000100 18 d9 9d bc 85 2a 68 bc 6b db d2 3b 4e f9 0f bc
       -0.019268557 -0.014170294 0.006434848 -0.008787466
000110 25 82 63 3c 47 16 0f 3c a1 3e c8 3c 8a f6 94 3c
       0.013886009 0.008733339 0.024443926 0.018183965
000120 8a 72 91 3c 7c 4e d3 3c 52 d5 24 bc a5 cc 05 bd
       0.017754812 0.02579426 -0.010060625 -0.032665867
000130 10 ba 2f 3c 9d 9a 46 bc 91 09 dc 3b d6 5d d9 3c
       0.010725513 -0.012121824 0.0067150076 0.026534002
000140 aa 4d f5 3c 5f a5 33 3c 02 76 37 ba e4 86 fd bc
       0.02994426 0.0109647205 -0.00069984805 -0.03094811
000150 30 93 7e 3b 94 3a 87 3c b1 a4 bd 3c 87 a5 bc 3c
       0.0038845055 0.016507424 0.02314982 0.023028148
000160 57 11 92 3c 37 02 3f 3c 02 c9 f8 bc 67 09 02 3d
       0.017830534 0.011658243 -0.030369285 0.031747248
000170 26 a2 ff 3a 29 18 0d bc 00 64 2b bb aa 5f 70 bc
       0.001950328 -0.008611717 -0.0026152134 -0.014671246
000180 e2 d0 90 bc 3f ca ff 3c 8d 71 83 bc 85 32 33 3c
       -0.017677728 0.031224368 -0.016045356 0.010937338
000190 6a 86 1b bc 8f 5f 66 3c bc bf ee 3c 5a 3a b1 3c
       -0.009492496 0.014060869 0.02914416 0.02163427
0001a0 40 be a5 bc 11 21 b5 3c f9 77 13 bd 6e 90 ce 3c
       -0.02023232 0.022110494 -0.036003087 0.025215354
0001b0 a7 b9 00 bd 70 7b af bc d3 a7 d0 bc 62 52 97 3c
       -0.031427052 -0.021421164 -0.02547065 0.0184719
0001c0 9b a2 e4 3c 43 77 bf bc 0a 39 f4 bc 05 83 06 bd
       0.027909568 -0.023372298 -0.029812355 -0.032839794
0001d0 99 30 9d b9 d5 67 4d 3c df c0 05 bc 64 78 67 3c
       -0.00029981582 0.0125369625 -0.00816366 0.014127824
0001e0 21 a4 ae 3c 6c d3 b4 3c 1a 4c 49 3c 24 50 62 bb
       0.021318497 0.02207347 0.01228621 -0.003453263
0001f0 d8 11 f5 bc 62 d7 12 3d 1c 9d c8 bc 18 bd 8d bc
       -0.029915735 0.035849936 -0.024488978 -0.017302081

tree_conv.6.weights.weight f4 [64, 128, 3]
000000 4b 40 a3 bc b7 36 40 3b 45 3d 51 bc 0a 47 0a 3c
       -0.019928118 0.0029329488 -0.012770955 0.008439789
000010 d3 c7 11 3d cc dd a1 bc a9 31 49 bd 8d da f9 bb
       0.035590958 -0.019759081 -0.049119625 -0.0076249302
000020 12 0e 48 bc a1 2b 0d bd 60 ba 50 bd 27 b2 cb bc
       -0.012210386 -0.034465436 -0.05095899 -0.024865223
000030 d7 73 67 3c 4a 5c 3e bd fa f4 ce 3c 7a db 79 bb
       0.014126739 -0.046474732 0.025263298 -0.0038125203
000040 e4 df 31 3d fc 73 2f 3d 51 00 e9 3b a6 86 12 bd
       0.04342641 0.04283522 0.0071106334 -0.035772942
000050 4c 3c 0e 3d f6 8f 03 bd dc 77 1d 3d d4 9c a1 ba
       0.034725472 -0.032119714 0.038444385 -0.0012330064
000060 bd 5a 22 bc 29 a2 c5 bc 13 58 fa bc 10 e7 72 b9
       -0.009909329 -0.024125176 -0.030559575 -0.00023164996
000070 39 6e 77 bc 77 de 1a bd de f9 f2 bc 92 4d 44 bd
       -0.015101963 -0.037809815 -0.029660162 -0.04792554
000080 00 6e c6 bc 3b 17 19 3a af e5 99 bc e0 6e 42 bd
       -0.024222374 0.00058399484 -0.01878628 -0.04746902
000090 65 d3 9c 3c 82 c0 a6 bc d6 c0 d5 3c 5f 6c ea bc
       0.01914377 -0.020355467 0.026092928 -0.028616128
0000a0 e9 4b 35 3d fa e6 09 bd 59 a0 be 3c bc ea bc bc
       0.044261847 -0.033667542 0.02326982 -0.023061149
0000b0 fa f4 f5 3c 1b 6c bc bb 17 23 0d bc 49 08 dc bc
       0.03002404 -0.005750192 -0.008614323 -0.02685942
0000c0 7d 42 c1 bc 1c 1d ec bc b6 1a dc 3c ce 31 07 3d
       -0.023591274 -0.028822474 0.026868206 0.03300648
0000d0 ed 14 ec bc aa e4 30 3d f0 6b c4 3c 9f 27 c0 bc
       -0.028818572 0.04318682 0.02397725 -0.023456393
0000e0 d8 09 4e bd 9b e0 e8 bc 3f f4 34 3d d5 93 ae bc
       -0.050302356 -0.028427413 0.044178244 -0.021310726
0000f0 c3 03 4d bc 6e 8b f0 bc 97 bc 8f 3c 04 2c 35 3d
       -0.012513104 -0.02936336 0.017545981 0.04423143
000100 d6 63 31 bc 1e 5b 35 bd 8b fe 27 3c 8e 80 d1 bc
       -0.010827025 -0.04427635 0.010253559 -0.025573995
000110 7e 4e 85 3c 1b 5b f5 3c fb 4b 09 bd 19 fd 3d 3c
       0.01627278 0.029950669 -0.033519726 0.011595988
000120 f4 4b 15 3c be b5 f6 3c d9 7e 4f 3d d2 f5 4d bc
       0.009112347 0.030115958 0.05065808 -0.012570815
000130 c3 2d 09 3d e5 97 47 bd 3a ab 71 bc f5 c9 8c bc
       0.033490907 -0.048728842 -0.014750296 -0.017186144
000140 e2 cc 1a bd a3 93 92 bc 09 52 f8 ba 12 d7 a2 38
       -0.037793048 -0.017892664 -0.0018945347 7.764822e-05
000150 cc dd 22 bd 9a ca 3c 3d 28 25 4e 3d 00 6a 30 3d
       -0.039762303 0.046091653 0.050328404 0.04306984
000160 61 86 04 bd fc 4a 6e bc 2b 1d 3f bd 34 63 3f 3d
       -0.032354716 -0.014544245 -0.046658676 0.046725467
000170 40 62 f4 3c 8c 02 4d 3d bc 5c 19 bd e7 11 3a bd
       0.029832006 0.050051257 -0.037441954 -0.04542723
000180 04 4b 4d bd 6b 72 26 3d c7 66 24 3d 27 79 0b 3d
       -0.05012037 0.04063646 0.04013708 0.034051087
000190 a7 42 11 3d a2 79 07 3d 01 2c 2e bd c3 cd ce bc
       0.035463955 0.033074982 -0.042522434 -0.0252446
0001a0 21 ff 4e bc 7f 3d 04 3d 6c 43 1d 3d 89 12 81 bc
       -0.01263407 0.03228521 0.038394377 -0.015755909
0001b0 dc 62 5e bb 5d cb ac 3c 06 48 c7 bc fc 3d 10 3c
       -0.0033933436 0.021093065 -0.024326336 0.008803841
0001c0 eb 2b 4f ba 09 92 dc bc a4 17 05 bc f7 2f 23 bd
       -0.00079029676 -0.026925104 -0.008123312 -0.039840665
0001d0 5d ca 1a bc 86 94 89 3c 00 68 3f 3a a6 e3 00 bd
       -0.009447661 0.016794454 0.0007301569 -0.031467102
0001e0 c2 28 e8 3c 7c d0 63 3b 3e 03 40 bd 7f 9e 4e bd
       0.028339747 0.0034761718 -0.046878092 -0.050444122
0001f0 c5 fa 68 bc 93 fc 2f bc bc d7 00 bd fc da 7c 3c
       -0.014219944 -0.010741371 -0.03145574 0.015433069
000200 8f b0 4a 3d 4a c2 a1 bc b4 6d 0d 3d 6f 7c a1 3c
       0.049484786 -0.019745965 0.03452845 0.019712655
000210 ff 41 18 bc c5 3e 41 bd e4 48 b5 bc ad 8c 83 bc
       -0.009293078 -0.047179002 -0.022129484 -0.01605829
000220 1a 6a 09 bd dc 18 03 3d 7a 0e 4c bd d3 ba 11 3c
       -0.033548452 0.03200613 -0.049818493 0.00889464
000230 cd e3 04 bd 61 d6 a0 3c b2 15 0c bd 88 0c cf 3c
       -0.03244381 0.019633474 -0.034200378 0.02527453
000240 18 b8 44 bd 0a b4 ce 3c 00 f4 02 bd c9 00 95 bc
       -0.048027128 0.025232334 -0.031970978 -0.018188851
000250 38 7d 13 bd 67 31 4c 3d 3e 56 ed 3c 0a 52 1c bd
       -0.03600809 0.0498518 0.028971788 -0.038164176
000260 32 91 05 bd ef 24 9a 3b be fd d2 bc de 7f 37 bc
       -0.032609172 0.00470411 -0.02575576 -0.0111999195
000270 5f ae fb bc ba 08 6a bc 9d 3f d6 3a c8 3f 27 bd
       -0.030722795 -0.014284307 0.0016345863 -0.04083231
000280 9b 75 be 3c 71 3f 65 bc 04 a2 d2 bc 48 e0 32 bd
       0.023249438 -0.013992176 -0.02571202 -0.043670923
000290 ed 1c d6 bc 1c 7c 1c 3c 60 5c 1d bd 50 7c 9c 3c
       -0.02613684 0.009551074 -0.038418174 0.019102246
0002a0 5c 94 8e 3c bf 5c 97 bc 47 95 4c 3d 6e 6f fd bc
       0.017404728 -0.018476842 0.04994705 -0.030936923
0002b0 06 8c 18 bd 01 95 97 bc b3 a4 cc 3c 24 29 3c bc
       -0.03724291 -0.018503668 0.024980878 -0.011484418
0002c0 61 ce 23 3d 3a 25 44 bd 13 d1 67 bc cb cb 60 3c
       0.03999174 -0.047887065 -0.014148968 0.013720463
0002d0 9f 09 51 bc 89 a8 3b 3b e1 a9 b4 bc 29 db 3d bc
       -0.0127586415 0.002863439 -0.02205366 -0.011587896
0002e0 75 78 e0 3b fd e9 2a 3d 1f a3 16 3d de 0f a6 bc
       0.006850297 0.041727055 0.03677666 -0.020271238
0002f0 93 1b 62 3c eb a0 ac 3c 01 ec 83 bb 3b dc 84 bc
       0.0138005195 0.021072825 -0.0040259366 -0.016218295
000300 d1 98 1f bd 65 15 97 bc fa 8b 81 bb 33 2f 41 bd
       -0.038964096 -0.018442819 -0.003953454 -0.047164153
000310 5b 17 3c 3d f6 ee cc 3a 88 50 a1 3b 47 68 09 bc
       0.04592071 0.0015635181 0.00492293 -0.008386678
000320 41 84 04 3d 4a 55 2f 3d eb ab f1 bc 26 45 d8 3c
       0.03235269 0.042805947 -0.029500922 0.02640016
000330 60 13 17 3d d8 7a 25 3c f9 f6 66 bc 3f be b1 3c
       0.03688371 0.010100089 -0.014096969 0.021697162
000340 51 9b 34 3d ac df c9 3c 10 9f bd bc b4 ba b0 bc
       0.044093434 0.024642788 -0.023147136 -0.021573402
000350 c1 9d 1c bd f9 89 85 3c 6a ac ac bc b2 2a f0 bc
       -0.038236383 0.016301142 -0.021078307 -0.029317234
000360 08 01 fb 3c 22 f1 ec bc a0 6f 1d bd f2 44 c5 bc
       0.03064014 -0.028923575 -0.038436532 -0.024080727
000370 4c 49 3a 3d 50 e6 c7 3c 30 34 1f 3d b4 13 06 3c
       0.045480058 0.024401814 0.03886813 0.0081834085
000380 69 69 a6 bc 9e ae 4f 3b a4 4a 8e 3c ca 7a 39 bd
       -0.020313935 0.0031689773 0.017369576 -0.045283116
000390 13 2d 39 3d 75 fe 2c bd 3f ff 2d 3d 81 a1 29 3d
       0.045209 -0.042234857 0.04247975 0.041413788
0003a0 df 0c ea 3b c0 0c 80 3b b6 6c 83 bb cd 21 75 bc
       0.0071426476 0.00390777 -0.004010762 -0.014961672
0003b0 64 61 2a 3c c7 9b 49 3d 55 21 4a 3d 4e f9 37 bc
       0.010399196 0.049220826 0.049348194 -0.011228872
0003c0 27 51 40 3d ea cb 62 3c de 55 d8 3c e4 e5 13 bd
       0.046952393 0.013842562 0.026408132 -0.036107913
0003d0 fb 2d 08 3d 43 52 96 bc e7 da 44 bc 74 b2 07 bc
       0.033246975 -0.018349772 -0.012015081 -0.008282293
0003e0 b4 3f 70 3c 9b 60 e3 bc 22 b5 61 3c 72 d0 fd bc
       0.0146636255 -0.027756026 0.013776096 -0.030983184
0003f0 ec a9 29 3d 6c a6 bd b9 3f fd f4 3c dc af 70 3c
       0.041421816 -0.00036172883 0.029905913 0.014690366

tree_conv.6.weights.bias f4 [64]
000000 36 3d 33 bd 8e 6b 05 bd d7 34 e0 3c 95 ca 01 bd
       -0.043759547 -0.032573275 0.027368946 -0.031687338
000010 7c b8 ac 3c fb 42 ba bc 65 9e 55 bc 68 a1 bb ba
       0.021084063 -0.022737017 -0.0130382525 -0.0014315071
000020 13 a8 ae bb 8a 47 7c bc d4 63 ca bc a4 22 8c 3c
       -0.0053300946 -0.015397916 -0.024705805 0.017106362
000030 10 35 a5 bc 12 7d 68 bc 5e e8 db 3c c2 cd 4b 3d
       -0.020166904 -0.014189975 0.0268442 0.049756773
000040 c7 2a f2 bc 1a 5a db bc 9f 87 c6 bc bf 66 cc bc
       -0.029561413 -0.026776362 -0.024234591 -0.024951337
000050 8b a7 05 3c 56 9c a4 bb 52 0b 1d bd 68 63 87 3c
       0.008157621 -0.0050235195 -0.038340874 0.016526893
000060 7c 0e f3 3c 03 c0 4c 3d 77 a0 08 bd 28 86 31 3c
       0.029669993 0.049987804 -0.033356156 0.010835208
000070 78 2a 9b 3b 61 c2 fc bc a8 de 0a bc bb 28 34 3d
       0.0047352873 -0.030854406 -0.008475937 0.043984156
000080 61 74 03 bd 19 fd 96 bc 54 46 0f 3d 00 f0 36 bd
       -0.03209341 -0.018431233 0.03497918 -0.044662476
000090 d5 76 dd bc 30 e3 45 3d 1f 12 1d bd f2 95 e8 3c
       -0.027034203 0.048312366 -0.03834736 0.028391812
0000a0 fb 6a 41 3d 29 80 c4 bc 6a b5 81 3b 39 a9 4c bd
       0.047221165 -0.023986893 0.003958394 -0.04996607
0000b0 31 35 5e bc 01 29 8a bc 13 f5 e1 bc 66 34 ba bb
       -0.0135624865 -0.016865255 -0.02758268 -0.005682516
0000c0 cb 7e c4 bc 78 e9 04 3a 77 b0 ab bc f8 a4 f3 3c
       -0.02398624 0.000507019 -0.020958168 0.02974175
0000d0 73 84 f3 bb ca a8 b7 3c 56 94 00 bd 38 ee 37 bd
       -0.0074315607 0.022419352 -0.031391464 -0.044904917
0000e0 74 b6 89 3c 77 19 b8 3c c0 60 04 bd ec 33 27 3d
       0.016810633 0.02247308 -0.03231883 0.040821
0000f0 c5 2b bf bc 2e c8 ba 3b ae 01 1d bd ff 82 ec bc
       -0.0233363 0.005700133 -0.03833168 -0.028871058

tree_conv.9.weight f4 [64]
000000 d5 09 80 3f d1 04 80 3f 39 0a 80 3f 74 ef 7f 3f
       1.0003 1.000147 1.000312 0.9997475
000010 4a 04 80 3f 16 fb 7f 3f c4 ed 7f 3f ee 00 80 3f
       1.0001309 0.999925 0.99972177 1.0000284
000020 df 00 80 3f c6 0b 80 3f 3a 01 80 3f 56 f3 7f 3f
       1.0000266 1.0003593 1.0000374 0.99980676
000030 de 07 80 3f 34 e9 7f 3f 9f 0a 80 3f d7 04 80 3f
       1.0002401 0.99965215 1.0003241 1.0001477
000040 69 fb 7f 3f 37 09 80 3f b6 0a 80 3f 34 05 80 3f
       0.99992996 1.0002812 1.0003269 1.0001588
000050 d9 07 80 3f 8b 00 80 3f b3 08 80 3f eb ef 7f 3f
       1.0002395 1.0000166 1.0002655 0.9997546
000060 c9 fe 7f 3f 4a 0a 80 3f bf eb 7f 3f 5e 05 80 3f
       0.99998146 1.000314 0.99969095 1.0001638
000070 bd 0a 80 3f 2a 03 80 3f c7 f8 7f 3f 0c 01 80 3f
       1.0003277 1.0000966 0.9998898 1.000032
000080 6e 00 80 3f 85 0b 80 3f 01 f0 7f 3f 15 02 80 3f
       1.0000131 1.0003515 0.9997559 1.0000635
000090 8e 07 80 3f 1c 05 80 3f fe ea 7f 3f 16 fa 7f 3f
       1.0002306 1.0001559 0.99967945 0.99990976
0000a0 d3 fc 7f 3f c4 fa 7f 3f 92 0a 80 3f e7 09 80 3f
       0.99995154 0.9999201 1.0003226 1.0003022
0000b0 46 01 80 3f 96 ea 7f 3f 2a 09 80 3f d6 04 80 3f
       1.0000389 0.99967325 1.0002797 1.0001476
0000c0 02 eb 7f 3f 31 0c 80 3f 1f 05 80 3f bb fe 7f 3f
       0.9996797 1.000372 1.0001563 0.9999806
0000d0 a1 0a 80 3f 35 02 80 3f fa 07 80 3f ac 00 80 3f
       1.0003244 1.0000674 1.0002434 1.0000205
0000e0 24 07 80 3f 77 08 80 3f 9f ed 7f 3f bd f4 7f 3f
       1.0002179 1.0002583 0.99971956 0.99982816
0000f0 f4 01 80 3f af 0a 80 3f 7f 07 80 3f 89 f5 7f 3f
       1.0000596 1.000326 1.0002288 0.9998403

tree_conv.9.bias f4 [64]
000000 ca 6a ac 39 78 03 a2 b9 f5 62 ca 38 08 3f 9f 39
       0.0003288596 -0.00030901632 9.650543e-05 0.00030373805
000010 8c 5a 1c 39 55 fa 05 38 1c 8d ac b9 13 e3 84 b9
       0.0001491105 3.194281e-05 -0.0003291153 -0.00025346185
000020 e9 14 aa b9 03 bd 32 b9 84 44 a3 39 2f 05 a2 b9
       -0.00032440506 -0.00017045815 0.0003114083 -0.0003090291
000030 a4 1b 05 36 f7 91 1e b9 2e 41 63 39 e1 ac bd 39
       1.9834633e-06 -0.0001512243 0.00021672688 0.00036177694
000040 45 91 98 b9 e5 c9 2b 39 6e 20 8a b9 e8 85 ed 36
       -0.00029099933 0.00016383042 -0.00026345573 7.078739e-06
000050 9a b0 98 b9 68 1a 29 b9 8d 1e 78 39 d8 79 45 b9
       -0.00029123278 -0.00016126933 0.00023662504 -0.00018832774
000060 ec c1 dd 38 08 a6 08 39 9c 13 f4 b8 35 d4 87 b9
       0.00010574222 0.00013031822 -0.00011638479 -0.00025907313
000070 98 5c 8e 39 30 4f bf 38 e0 6c 9e 39 f4 be 80 b7
       0.00027153338 9.1223395e-05 0.00030217227 -1.5347709e-05
000080 fd 68 48 b9 63 44 3a 39 aa 7c a9 b8 eb 0a a1 b8
       -0.00019112598 0.00017763818 -8.0817685e-05 -7.679112e-05
000090 4e 54 3f 39 bd 05 a7 39 43 85 56 b9 bb 49 62 b9
       0.00018246585 0.00031856998 -0.00020458274 -0.00021580506
0000a0 76 39 df b8 1d 8b 60 b9 9e 64 9b 39 07 dd 98 b9
       -0.000106441716 -0.00021414128 0.0002963887 -0.00029156377
0000b0 45 3b 98 b7 6c b5 b2 39 88 84 9a b9 d6 f1 95 b8
       -1.8147412e-05 0.00034085975 -0.00029471912 -7.149919e-05
0000c0 85 51 9a 39 ec 40 1b 39 05 74 51 38 ac 42 83 b9
       0.00029433906 0.00014806137 4.9937535e-05 -0.00025035942
0000d0 93 97 0b 39 aa 93 1d 38 e6 8e 87 b9 6a 86 a7 b9
       0.00013312539 3.756924e-05 -0.00025855674 -0.00031952868
0000e0 a5 52 a0 b9 c3 a5 85 b8 3e fb ac 39 fb a3 98 39
       -0.00030579153 -6.37281e-05 0.00032993587 0.00029113874
0000f0 dd 75 b8 b9 8d 43 6b 39 ea a3 a9 38 b4 11 06 b9
       -0.0003518303 0.00022436511 8.089079e-05 -0.00012785831

tree_conv.9.running_mean f4 [64]
000000 70 c6 63 3f e4 d8 94 40 b9 0f ee 3f 34 bc 98 40
       0.88974667 4.651476 1.8598548 4.772974
000010 82 ee bb 40 02 e1 25 40 30 49 3c 40 38 b1 80 40
       5.8728647 2.5918584 2.941967 4.021633
000020 10 ff c3 40 c2 7c 5f 40 00 c6 c6 3f 72 dd 74 40
       6.1248856 3.4919896 1.5529175 3.826016
000030 cf 30 88 3f 04 9a a7 40 79 6b 84 40 20 82 b4 3f
       1.0639895 5.2375507 4.138119 1.4102211
000040 2e 39 1f 40 c2 71 98 40 d1 1e 17 40 2c 17 69 3f
       2.487865 4.7638865 2.361256 0.9105098
000050 67 6e 19 40 f3 8c 7f 3f 60 8c 5a 40 c6 f3 b3 3f
       2.3973634 0.99824446 3.4148178 1.4058769
000060 20 d5 3e 40 05 9e d3 3f ff 55 33 40 3a b2 94 3f
       2.981758 1.6532599 2.8021238 1.161689
000070 90 89 33 3f a7 94 83 3f f3 a9 74 40 93 b7 16 40
       0.7013178 1.027974 3.8228729 2.3549545
000080 f2 a2 e4 3f a6 0e 7a 40 b3 5b 40 40 92 92 a6 40
       1.7862227 3.907144 3.0055969 5.205392
000090 38 39 07 40 e7 9d 76 3f a8 6f 89 40 4f 74 16 40
       2.1128674 0.9633469 4.29488 2.350849
0000a0 46 89 a9 3f 47 90 29 3e c5 09 c3 3f 58 07 a8 40
       1.3245018 0.16558944 1.5237356 5.2508965
0000b0 8b 76 14 40 e2 43 74 40 f6 ba 8b 3f b0 a2 33 40
       2.3197353 3.8166432 1.0916431 2.8068047
0000c0 f8 5d 0d 40 12 a8 08 40 65 bf 7c 40 75 84 8c 40
       2.2088604 2.1352582 3.9491818 4.391169
0000d0 02 22 dc 3f 2a b5 1c 40 82 88 50 40 0a 23 4a 40
       1.7197878 2.4485574 3.2583318 3.1583886
0000e0 a0 21 b8 40 6e 4c a9 40 d1 d2 96 40 9c 91 88 3f
       5.7541046 5.29058 4.7132344 1.0669436
0000f0 0d ba 85 3f 64 4e 85 40 32 4c 36 40 47 9a 0b 40
       1.0447403 4.165819 2.8484006 2.1812913

tree_conv.9.running_var f4 [64]
000000 0b 64 25 3f c5 c2 6a 3f b1 2b 67 3e e5 5b b6 3f
       0.6460578 0.91703445 0.2257526 1.4246794
000010 f5 23 0b 40 37 a6 b8 3f 8e 80 ed 3f 90 d6 db 3e
       2.1740696 1.4425725 1.8554857 0.42937136
000020 ef 65 f4 3f a4 51 35 3f 77 bf fd 3e 33 cd 94 3f
       1.9093608 0.708277 0.4956014 1.1625122
000030 5f cc a3 3e 16 99 00 40 64 5f d0 3f 17 1d 5f 3f
       0.3199186 2.0093436 1.6279111 0.8715376
000040 28 2c 40 3f eb 43 6b 3f 40 1e 59 3f c7 38 2a 3f
       0.7506738 0.9190051 0.8481178 0.66492885
000050 a5 90 4e 3f ee 8e 10 3e 64 90 11 3f 62 8d a3 3e
       0.8068946 0.14117023 0.5686095 0.31943804
000060 6c af 34 3f 8a 3b 81 3f 10 75 09 3f a7 13 69 3e
       0.7058017 1.0096295 0.5369425 0.22761403
000070 4b fd b9 3e b7 67 fc 3e 41 63 45 3f 0c ea 9e 3e
       0.3632606 0.49297878 0.77104574 0.3103794
000080 49 c6 49 3f 2a da 5e 3f 1c 9f 8c 3f 29 92 88 3f
       0.78818184 0.8705164 1.0986056 1.0669605
000090 72 71 76 3e 4c 5d fd 3e f4 4f b9 3f ab 04 db 3f
       0.24066713 0.49485242 1.4477525 1.71108
0000a0 bb cc 20 3f a5 56 96 3d 1d 1a 2c 3e 27 48 95 40
       0.62812394 0.07340745 0.16806836 4.6650577
0000b0 ac ab 11 3f 97 1e 05 3f 32 40 e4 3e 5a 87 61 3f
       0.56902575 0.519998 0.44580227 0.88097155
0000c0 54 88 92 3f 7f 9f e2 3f f4 47 24 3f 2d e4 fc 3f
       1.1447854 1.7704924 0.6417229 1.9757134
0000d0 b1 7b 1a 3f 75 12 3b 3f 7e ae 98 3f a7 ed b6 3f
       0.6034499 0.7307504 1.1928251 1.4291276
0000e0 80 d8 85 3f dd d0 79 40 7c 9c b4 3f 58 84 bb 3e
       1.0456696 3.903373 1.4110255 0.36624408
0000f0 6c e5 4e 3f ea 8c d3 3f c2 82 22 3f 8b f9 ee 3f
       0.8081882 1.6527379 0.6348077 1.8669904

tree_conv.10.weight f4 [32, 64]
000000 e0 a3 2e 3d 4c 0e 33 bd a3 95 c7 bd 56 c9 ef bd
       0.042636752 -0.043714806 -0.09745338 -0.11708324
000010 4b 95 d5 3d b3 7c ff 3c 22 ef cb 3c f5 b0 62 3d
       0.10428866 0.03118739 0.0248943 0.05534454
000020 a7 d4 ec bc 6c c4 d9 3d ab 0e 64 bd 7e e5 f9 3d
       -0.028909994 0.106331676 -0.05567805 0.12201975
000030 ca 27 85 bc 21 dd 54 bd b0 71 d5 bd 72 1b 59 bd
       -0.016254324 -0.051968697 -0.10422075 -0.05300469
000040 9a 14 b5 bb 5f dc 99 bb 45 41 71 3d e6 6f c8 3d
       -0.0055261375 -0.0046954597 0.058900137 0.09786968
000050 43 0a d4 3d e1 50 f1 3d c6 7b 87 bd b9 57 0d 3d
       0.1035352 0.117830046 -0.06615405 0.034507487
000060 b9 a3 62 bb 5e 10 78 bd 46 9d fb bd 7e 19 eb bd
       -0.003458245 -0.060562484 -0.12285857 -0.114794716
000070 5b 5a fd bd 98 8c e1 3d 0b da ed 3c 03 16 17 3d
       -0.123707496 0.11013144 0.029034635 0.036886226
000080 a8 41 4e bd 66 82 ee 3c 61 62 d1 bd fb 5d b3 3c
       -0.050355583 0.029114913 -0.102238424 0.0218954
000090 9a f5 a2 3d 03 b6 38 bc e4 98 b7 3d eb 78 b2 bd
       0.07957001 -0.011273864 0.089647084 -0.087144695
0000a0 47 02 ec bc 54 c8 01 3d 78 7e d0 bd 1f f3 fb 3d
       -0.02880968 0.03168519 -0.10180372 0.12302231
0000b0 91 f2 3c bc 4f 54 90 3c d4 07 38 bd 8e 7e 59 bc
       -0.011532442 0.017618326 -0.04492934 -0.013274802
0000c0 6a 36 d0 3c fd 28 f9 3c c9 b9 38 3d dd 9e 9a bd
       0.025416572 0.030415053 0.045099054 -0.07549832
0000d0 10 d1 ec bd a1 33 85 bd dc 45 17 3d bb c0 ae bd
       -0.11563313 -0.06503988 0.036931857 -0.08532854
0000e0 50 a7 25 bd b6 e4 96 3d 63 a9 00 bb bc 9b 1e 3a
       -0.040442765 0.07367842 -0.0019632212 0.0006050428
0000f0 a0 ff 00 bb 13 22 fa bc 69 59 84 bd c0 45 95 3d
       -0.0019683614 -0.030533826 -0.06462366 0.072886944
000100 ad 82 c9 3d b2 a9 72 3c 3f 76 71 bc b2 b0 6b bd
       0.098393776 0.014810966 -0.014737665 -0.057541557
000110 d9 70 bc 3d 60 32 c6 3d b6 f6 a8 3d 70 6a c9 bd
       0.092012115 0.09677577 0.082501814 -0.098347545
000120 1f 37 87 bd 70 25 98 3c 94 fd 66 bc cc 4e bc 3d
       -0.066023104 0.01857254 -0.014098544 0.09194717
000130 77 59 b1 3d f4 27 91 bd f7 ad 0f bd 8a c7 4b bd
       0.08659642 -0.070876986 -0.035078015 -0.049750842
000140 bf 93 a6 3d 3c f8 07 3d 75 a0 8c bd 31 2d bb bd
       0.08133649 0.03319572 -0.06866542 -0.09139479
000150 91 46 68 3d be d6 39 3d 70 3c 98 3a 98 ac f7 bd
       0.056707922 0.04537081 0.0011614691 -0.120934665
000160 20 6a 70 3d 1c 70 c8 bd b1 70 ce bd d6 ed 79 3d
       0.05869496 -0.09787008 -0.10080088 0.061017834
000170 ab 4c fa bd a4 da d1 bd ff 21 8b 3c 54 81 bd bd
       -0.122216545 -0.102467805 0.016983984 -0.09253183
000180 12 13 95 3d 23 2d d9 bd db ce bf 3d a6 76 c1 3c
       0.07279028 -0.10604312 0.093656264 0.023616146
000190 92 27 49 3d 7a 5f 7d bd db 87 08 3d 27 d4 fc 3d
       0.049110003 -0.06185863 0.033332687 0.12345152
0001a0 51 0b c2 bd 93 39 aa 3c 51 39 5b bd 5d fa bd 3d
       -0.09474815 0.020779407 -0.053521458 0.09276269
0001b0 1f 0c fb 3d 59 7b e3 bd 68 de 4e bb f3 8b 31 bd
       0.12258171 -0.11107511 -0.003156567 -0.043346357
0001c0 8a e3 0c bd 3c c6 16 3d d9 62 93 bd ce a9 93 3c
       -0.034396686 0.036810145 -0.07196588 0.018025305
0001d0 1a fd d2 3c 6e 33 8c 3c c7 e8 f5 3d 57 5d dd 3d
       0.025755454 0.017114367 0.120072894 0.10808819
0001e0 ef c5 59 bd 46 95 67 bc 9d 22 7e bd 69 2d fe 3d
       -0.05316728 -0.014134711 -0.06204473 0.12411005
0001f0 6a 1f c4 3d 0f de 47 3d f7 f0 76 3d 11 a3 7f bb
       0.09576304 0.048795756 0.060288396 -0.0039007107
000200 95 9c 3c 3d 4c 63 f1 bd 1b c4 69 3d 4f 4a c0 bd
       0.046047766 -0.117865175 0.057071786 -0.09389173
000210 d2 e0 bf 3c 52 7e 80 bd 5c 5c ab 3d ec 97 63 3d
       0.023422632 -0.06274094 0.083672255 0.055564806
000220 6e e3 fb 3d 0b 43 d5 3c ec ea 83 3c cc a8 19 3d
       0.12299238 0.026032945 0.01610323 0.037514493
000230 2a 9e 6a bd 51 c2 73 bc bb 35 0e 3d e4 d7 bb bc
       -0.057279743 -0.014877872 0.03471921 -0.022930093
000240 c0 d3 8b bd f8 bc 3a bd 40 0e 53 bd ea 35 50 bd
       -0.068274975 -0.04559037 -0.05152726 -0.050832666
000250 16 11 81 bd c5 32 26 3d 45 8f 37 bd 07 c9 d9 3d
       -0.06302087 0.04057576 -0.044814367 0.10634046
000260 f7 ef ac bc dd 10 58 bd 1d bb a7 bd b9 c0 e4 3d
       -0.021110518 -0.052750457 -0.08189986 0.111695714
000270 59 86 16 bd 1f 9e fc 3b c7 1d e1 bd f1 63 af 3c
       -0.036749218 0.007709279 -0.10992008 0.02140996
000280 71 fd 7e bd 3a bb 72 3d 50 1c ca 3d 64 3b 84 3d
       -0.06225342 0.059260584 0.098686814 0.0645664
000290 20 e5 93 bd f6 d1 7a 39 81 26 8f bd e2 39 e4 3a
       -0.072214365 0.00023920074 -0.06989766 0.001741227
0002a0 6f 36 de 3d 71 9f 7f 3d 07 d0 00 3d 5d 59 4c 3d
       0.10850226 0.062407915 0.03144839 0.04988991
0002b0 77 b3 3a bd 33 b5 e8 bd 61 d9 0c 3d 43 df 40 3d
       -0.045581307 -0.11362686 0.034386996 0.04708792
0002c0 40 fa 9a bd de 14 ff bd c9 ce b0 bd 8a b3 ad bd
       -0.07567263 -0.12455152 -0.08633191 -0.0848151
0002d0 c7 77 94 3d 82 39 09 bb 9e 9c 09 3d e8 c6 f1 b8
       0.07249408 -0.0020938818 0.033596627 -0.00011528825
0002e0 34 5f c8 3d 76 cd 39 3d 57 ae b6 bd 1b 9d 8d ba
       0.097837836 0.04536196 -0.089199714 -0.0010804267
0002f0 84 ae 4a bd 2f d1 24 3c 22 6f f6 3d b1 93 98 bb
       -0.049482837 0.010059639 0.12032916 -0.004656278
000300 42 8c ef bd 33 a6 6a bd 99 f9 cf bd 60 7d 6f 3d
       -0.11696674 -0.057287406 -0.10155029 0.058469176
000310 76 8c f5 3c d5 c4 5a bd 4e 62 f2 bd 10 a8 1c 3c
       0.029974204 -0.05341037 -0.118351564 0.009561554
000320 c5 3e 0e 3d 05 0a a3 bd 57 a9 d0 3d 46 61 d9 3d
       0.03472783 -0.079608954 0.10188549 0.106142566
000330 e0 44 a1 3d ab 50 d7 3d 06 e9 ac bd a7 70 22 3c
       0.07874465 0.10513433 -0.08442883 0.009914554
000340 62 f7 ce 3d 54 d5 89 bc f2 31 f9 3c 45 be 03 bb
       0.10105778 -0.016825356 0.030419324 -0.0020102423
000350 08 c8 d5 bb 19 2f 58 ba f0 c5 b9 3d ee 99 f5 bc
       -0.0065240897 -0.0008246764 0.09070957 -0.029980626
000360 ce 0f dc bd 01 78 84 ba ea 0a 8b bd 2d 65 c6 ba
       -0.10745202 -0.0010106565 -0.06789191 -0.0015136354
000370 10 6a c1 3c c1 cf 99 3d d9 af b7 bc 74 8c f9 3d
       0.023610145 0.07510329 -0.022422718 0.121849924
000380 f4 b4 ae bc 96 ef e2 3c 06 60 8c bb 75 65 eb 3c
       -0.02132652 0.027702134 -0.004283908 0.028734902
000390 b0 90 f6 3c 7a a6 1d bd 8b 8c 4e bc 16 e8 e5 bd
       0.03009829 -0.038488843 -0.01260675 -0.112259075
0003a0 b9 93 13 bc 42 9a cf 3d 92 df 95 3b 1f 16 9e 3d
       -0.009007388 0.10136844 0.004573771 0.07719063
0003b0 a8 da b0 bc 5a 89 d2 bd 81 c7 99 3c c6 42 d3 bd
       -0.021588638 -0.10280104 0.018771889 -0.103154704
0003c0 7a f3 c5 bd b7 dc c8 bd 1d 3e f6 3d 23 2f 35 bd
       -0.0966558 -0.09807723 0.12023566 -0.044234406
0003d0 a4 04 5f bd b6 21 49 3c 46 c9 0d bd d8 07 3f 3c
       -0.054447785 0.012276104 -0.034615777 0.011659585
0003e0 4e eb d1 3d ab d6 65 3d f8 4d b7 bd 10 fa 16 bd
       0.10249959 0.056112926 -0.08950418 -0.036859572
0003f0 22 a3 d5 39 56 00 0e bd 24 96 ba bd 05 0b 46 3d
       0.0004074807 -0.03466829 -0.09110668 0.048350353

tree_conv.10.bias f4 [32]
000000 39 9e b2 bd a6 29 b3 3c c7 6d 54 bd 4a 1f 7c 3c
       -0.08721585 0.021870445 -0.051862504 0.015388319
000010 92 20 a7 3c 99 dc a6 3d 53 00 d9 bc de e2 a5 bd
       0.020401273 0.081475444 -0.026489412 -0.08099912
000020 8a 1a a3 bd 2a 2f f1 bd cc 86 56 bd 48 c1 78 3d
       -0.07964046 -0.11776574 -0.052374646 0.060731202
000030 a5 8e 89 3d 4f dd 94 bd 0e fe 8b bd c0 61 dd bd
       0.067166604 -0.07268774 -0.068355665 -0.1080966
000040 f5 b5 f8 3d 7b c7 90 3b 70 26 37 3d 2f 02 55 3d
       0.121440805 0.004418311 0.04471439 0.052004036
000050 43 95 c3 bd c0 6c 5a 3d 81 28 e5 bd 7e b2 ff 3c
       -0.09549954 0.05332637 -0.11189366 0.031213041
000060 cf 11 cf 3d b9 0f 81 3d b1 e8 81 bb 11 48 f7 3b
       0.101108186 0.06301827 -0.0039645066 0.007546433
000070 2b ae ca 3d b6 ff 5b 3b 72 3a e0 bd f2 bf 20 bd
       0.09896501 0.0033569164 -0.109486476 -0.039245553

tree_conv.13.weight f4 [1, 32]
000000 7c 7e b2 bd d4 56 6e bc 88 83 c2 bd bf ae 1e be
       -0.08715531 -0.014547069 -0.09497744 -0.15496348
000010 e7 c4 e4 bd de 52 0f 3d 5e 7a 52 3c c8 30 20 3e
       -0.11170369 0.034991138 0.012846557 0.15643609
000020 87 68 09 bb 22 7e 1d be d2 ba d3 3d 90 68 9c 3c
       -0.0020966844 -0.15380147 0.103383675 0.019092828
000030 a2 f5 dd 3d 08 d4 08 3e b3 fb ea bd 79 03 2d be
       0.10837866 0.13362134 -0.11473789 -0.16895856
000040 95 f4 cd bc 9b 44 40 bc b1 6f 10 3e b1 45 91 3d
       -0.02514104 -0.011735107 0.14105107 0.07093371
000050 89 d3 13 be f6 2c 94 3d 09 b1 01 be 6d 09 df 3c
       -0.14436163 0.07235138 -0.1266519 0.027226174
000060 bc 20 ed bd 4a c6 0b bc 8e 91 95 bd 82 a5 05 3c
       -0.11578509 -0.0085311625 -0.07303153 0.008157136
000070 47 db 2f 3e 67 c1 b3 bd ef 67 6e 3d 24 5c 63 3d
       0.17173491 -0.08777123 0.058204588 0.055507794
